weights/cnn-nd-2-eps-1000.pth (torch, 568309 bytes, 16 tensors)

log_std f4 [2]
0	0x3e38ceb9	0.18047608
1	0x3e95feea	0.29296046

features_extractor.encoder.0.weight f4 [16, 1, 3, 3]
0	0x3ea04291	0.31300786
1	0x3eadf839	0.3397844
2	0x3b624fb3	0.0034532368
3	0x3ec0b642	0.37639052
4	0x3c33ac0e	0.010966314
5	0x3e0783f9	0.13233937
6	0xbdd10e39	-0.10207791
7	0x3e83b008	0.2572024
8	0x3eb2e6d7	0.34941742
9	0xbe5a1002	-0.21295169
10	0x3ea694a6	0.32535285
11	0x3dd3b81a	0.10337849
12	0x3e9780c5	0.2959043
13	0x3dd324aa	0.103097275
14	0x3e48042a	0.19532838
15	0xbb37e82e	-0.0028061974
16	0x3e9f8518	0.3115623
17	0x3dcc6856	0.09980838
18	0xbe1c6a92	-0.15275028
19	0x3e36da57	0.17856728
20	0xbdc960e0	-0.098329306
21	0xbdb5276d	-0.088454105
22	0xbe1231a0	-0.14276743
23	0x3e94c4cd	0.29056397
24	0x3b0e212d	0.0021687255
25	0xbe393c1a	-0.18089333
26	0xbcf9c544	-0.030489571
27	0xbe8def60	-0.2772169
28	0xbc82d1d3	-0.015969193
29	0xbed03afb	-0.4067
30	0x3e8d69b0	0.27619696
31	0xbe99c152	-0.30030304
32	0x3e819399	0.2530792
33	0x3db60cbd	0.088891484
34	0xbdb2f9de	-0.08739065
35	0x3e814bf6	0.25253266
36	0x3d974c81	0.07387639
37	0x3e8e4745	0.2778875
38	0x3d3db4e9	0.046315107
39	0xbd80e291	-0.06293214
40	0x3e0964a9	0.13417305
41	0xbd818aa0	-0.06325269
42	0x3e4e258d	0.20131512
43	0x3eba15f8	0.36344886
44	0x3e7f2eed	0.24920245
45	0xbe1d0a2f	-0.15335916
46	0x3e41947b	0.18904297
47	0xbd51fc2b	-0.051265877
48	0x3e489009	0.19586195
49	0xbe34c456	-0.17653021
50	0xbeb198eb	-0.3468698
51	0xbe8ac74b	-0.27105173
52	0xbdf71186	-0.12063889
53	0x3eff6c6b	0.49887404
54	0x3e2f3ee6	0.17113838
55	0x3e56776b	0.20943992
56	0x3e58200e	0.21105978
57	0x3db6fb30	0.08934629
58	0x3ec697c4	0.38787663
59	0xbe0aab89	-0.13541998
60	0x3d847b81	0.06468869
61	0xbe0cc8c3	-0.1374846
62	0x3e4d13ab	0.20027034
63	0xbe376a12	-0.17911556
64	0x3df08044	0.11743215
65	0xba72b58a	-0.0009258619
66	0x3ecce042	0.40014845
67	0xbe891101	-0.26770785
68	0xbe019ec5	-0.12658222
69	0xbe987817	-0.2977912
70	0x3e988c6b	0.2979463
71	0x3dd0147c	0.10160157
72	0x3ec1075b	0.37700924
73	0xbe8d0db7	-0.27549526
74	0xbe9d9b00	-0.30782318
75	0xbeb53651	-0.35393003
76	0xbe3f9913	-0.18710737
77	0x3e9e98cc	0.3097595
78	0x3df86e98	0.12130469
79	0x3ecd29a7	0.4007084
80	0xbdc9e8e3	-0.09858873
81	0xbe7457e3	-0.23861651
82	0x3e79a229	0.24378265
83	0xbda2345a	-0.079201415
84	0x3e819b19	0.25313643
85	0x3b9bd703	0.004755856
86	0x3e93612a	0.28785068
87	0xbe60cb01	-0.2195244
88	0xbd89ab3d	-0.06722114
89	0x3e39f2cf	0.1815903
90	0x3e04a6d1	0.1295426
91	0xbdc6c202	-0.09704973
92	0x3e0d43cb	0.13795392
93	0x3e8a7cb6	0.27048272
94	0xbe672bec	-0.22575349
95	0xbe66d749	-0.22543062
96	0x3ec7761a	0.38957292
97	0xbd9566ad	-0.072949745
98	0xbe31b321	-0.17353489
99	0xbea522db	-0.32253155
100	0xbe4378b0	-0.19089007
101	0x3daa885c	0.0832679
102	0xbd3436f8	-0.043997735
103	0xbe77c4e3	-0.241962
104	0x3c001ae0	0.0078189075
105	0xbe692893	-0.22769384
106	0xbe90cb04	-0.2827989
107	0xbe3bf5a3	-0.18355422
108	0xbeb362a5	-0.35036197
109	0xbe3bbec1	-0.18334486
110	0x3ed114a9	0.40836075
111	0x3e098ce1	0.13432647
112	0x3da9f790	0.08299172
113	0xbe9eb8ae	-0.31000274
114	0xbe1ba206	-0.15198526
115	0xbda805bd	-0.082042195
116	0x3e21acb2	0.15788534
117	0xbe962c5a	-0.29330713
118	0x3c24842b	0.010041277
119	0xbe5689bb	-0.20950978
120	0xbdb4ce03	-0.08828356
121	0xbdfe05c0	-0.124034405
122	0xbd149bb8	-0.036281317
123	0xbe674c30	-0.22587657
124	0xbe6a4a20	-0.22879839
125	0xbe1b0a68	-0.15140688
126	0xbe34b2ab	-0.17646281
127	0xbe97670f	-0.29570815
128	0x3e8c7f97	0.27441093
129	0xbda85506	-0.08219342
130	0x3e97a8e9	0.29621056
131	0x3df61d2c	0.12017283
132	0xbea3ffb4	-0.32031024
133	0x3e7505f2	0.23928049
134	0xbd897779	-0.06712241
135	0xbd6d749a	-0.057972528
136	0xbe98ddce	-0.29856724
137	0xbe099601	-0.13436128
138	0x3aaf06b2	0.0013353436
139	0xbcfc4b8e	-0.030797746
140	0x3eac2aaa	0.336263
141	0xbe81d018	-0.25354075
142	0x3f0f182f	0.55896276
143	0xbda8973e	-0.08231972

features_extractor.encoder.0.bias f4 [16]
0	0xbca9fe86	-0.020751249
1	0x3cafcc7a	0.021459807
2	0x3e64b9eb	0.22336547
3	0x3e811cd0	0.25217295
4	0x3e613bea	0.21995512
5	0xbd586acd	-0.05283623
6	0x3d33e3ae	0.043918304
7	0xbdec999a	-0.11552735
8	0x3c6778f2	0.014127957
9	0xbe1f7f35	-0.1557587
10	0x3e74ae35	0.2389458
11	0xbe7a8593	-0.24465017
12	0x3e6d9313	0.23200636
13	0x3e2c27b6	0.16812024
14	0x3d9f77b3	0.07786503
15	0x3cbfe7c3	0.023425942

features_extractor.encoder.2.weight f4 [16, 16, 3, 3]
0	0x3d0ab23f	0.033861395
1	0x3d5a42d2	0.05328638
2	0x3da667c8	0.081252635
3	0xbe2fc7e6	-0.17166099
4	0xbd437e0a	-0.047727622
5	0xbd8c0645	-0.06837133
6	0x3c344979	0.011003845
7	0xbceed256	-0.02915303
8	0xbc042704	-0.008065943
9	0xbdbb2d19	-0.09139461
10	0x3bf25c77	0.0073962766
11	0x3d40d5fd	0.047079075
12	0xbd05e94e	-0.0326932
13	0xbdc852a1	-0.09781385
14	0xbd6da103	-0.05801488
15	0xbaa5f990	-0.0012662876
16	0xbe0a6c5d	-0.135179
17	0x3cb704d0	0.022341162
18	0x3df31d85	0.11870865
19	0xbd03f0a4	-0.032211915
20	0x3c372b18	0.011179708
21	0x3d45fe8b	0.048338454
22	0x3d58e236	0.052950107
23	0xbc64e9d5	-0.0139717655
24	0x3d50a5cf	0.050939377
25	0x3d9d60ab	0.076844536
26	0x3d872ea4	0.06600693
27	0x3c93b3c7	0.01803006
28	0xbdaa23e9	-0.083076306
29	0xbc4f77aa	-0.0126628075
30	0x3d0a5d1c	0.033780202
31	0x3c38289c	0.011240151
32	0x3d5b4341	0.053530935
33	0x3e013250	0.12616849
34	0x3d059634	0.032613948
35	0x3bb037be	0.0053777387
36	0xbd279cca	-0.04092101
37	0x3c448be3	0.011996242
38	0x3d036b92	0.03208501
39	0xbcd47acb	-0.025937459
40	0xbe06e26d	-0.13172312
41	0xbd4dae3a	-0.050214984
42	0x3dbe09d7	0.092792206
43	0xbc15bba0	-0.009138972
44	0xbc406dc8	-0.011744924
45	0xbd853d88	-0.06505877
46	0xbe1f4ed1	-0.1555741
47	0xbe1898dd	-0.14902063
48	0xbdbd336f	-0.09238326
49	0x3e0b39a6	0.1359621
50	0xbcd74631	-0.026278587
51	0x3db02e55	0.08602587
52	0x3d266b4d	0.040629674
53	0xbdc00404	-0.09375766
54	0xbc533ab0	-0.01289241
55	0x3e1dc93f	0.154088
56	0x3dd84be7	0.10561352
57	0xbe091631	-0.13387372
58	0xbc76aa7c	-0.015055295
59	0xbd8d5e7b	-0.06902786
60	0xbcfa0c36	-0.0305234
61	0xbd2f8ed6	-0.04286083
62	0xbd7e47b5	-0.062080104
63	0x3d63f2b9	0.0556514
64	0x3e00f263	0.12592463
65	0x3e6af7c5	0.22946079
66	0x3e5eb842	0.21749976
67	0x3e16434a	0.14674106
68	0xbd0beb98	-0.034160227
69	0x3dfb8519	0.12281246
70	0x3c4bd64f	0.012441232
71	0x3dd8b092	0.10580553
72	0x3db46c73	0.088097475
73	0x3db43953	0.08799996
74	0x3dacead6	0.08443229
75	0x3e88b178	0.26697898
76	0x3e110ae3	0.14164309
77	0x3ba78439	0.0051121977
78	0x3cb31095	0.021858493
79	0x3d3991de	0.045305125
80	0x3e092bd3	0.13395624
81	0x3bae8684	0.005326094
82	0x3d8619d5	0.06547896
83	0x3e04df02	0.12975696
84	0xbe55320e	-0.20819876
85	0xbd0d3777	-0.034476724
86	0xbbf3d41a	-0.007441056
87	0xbc86c466	-0.016451072
88	0xbe4223a2	-0.18958905
89	0x3d848af0	0.06471813
90	0x3c846709	0.016162412
91	0xbd59ea15	-0.053201754
92	0x3cb2b68e	0.021815564
93	0x3bf061e0	0.0073358864
94	0xbd375b2c	-0.044764683
95	0xbdd43a16	-0.103626415
96	0x3dde2557	0.10846966
97	0xbd1609b5	-0.03663035
98	0x3c770b95	0.015078445
99	0x3d1ae446	0.037815355
100	0x3d73dc16	0.059536062
101	0xbd82e904	-0.063921005
102	0x3d757c62	0.059933074
103	0xbd215dab	-0.03939597
104	0x3cfd510c	0.030922435
105	0x3da0468d	0.078259565
106	0xbc408e38	-0.011752658
107	0xba28f080	-0.00064445287
108	0x3d1056e1	0.035239104
109	0xbd8c3ded	-0.06847749
110	0x3d131b7e	0.03591489
111	0xbd07a263	-0.03311385
112	0x3d55bfdc	0.052184924
113	0x3df8e7f0	0.121536136
114	0x3da655aa	0.08121808
115	0x3d3fb496	0.04680308
116	0xbda5f1ce	-0.08102761
117	0xb870a4e8	-5.737404e-05
118	0xbc6e10c0	-0.014530361
119	0xbe16578b	-0.14681832
120	0xbaa9181b	-0.0012900861
121	0xbd018d22	-0.031628735
122	0x3cc791b6	0.024361473
123	0xbd3206ca	-0.043463506
124	0xbc9b815c	-0.018982582
125	0x3b9798ed	0.0046263845
126	0xbd1c79e9	-0.0382022
127	0x3e3b0987	0.18265353
128	0x3e1934de	0.14961573
129	0xbd47abd5	-0.048747856
130	0xbd48a378	-0.04898402
131	0xbbf7bb13	-0.007560143
132	0xbe2d83eb	-0.16944854
133	0xbe062f6d	-0.13104029
134	0x3d1c688c	0.03818564
135	0xbd3ac2ec	-0.04559605
136	0xbdfa73c0	-0.12229109
137	0x3d910f16	0.070829555
138	0xbc38f902	-0.011289837
139	0xbd53b42b	-0.051685493
140	0x3c9e67b1	0.019336553
141	0xbda9bd97	-0.082881145
142	0x3caa72a2	0.020806614
143	0xbc3fd378	-0.011708133
144	0xbe439b44	-0.19102198
145	0xbd95da4b	-0.07317027
146	0x3ce2984d	0.027660513
147	0x3d08d3cb	0.033405107
148	0xbdf6e426	-0.120552346
149	0xbe327fa0	-0.17431498
150	0x3e2be454	0.16786319
151	0x3da139d4	0.07872358
152	0xbe84c10f	-0.25928542
153	0xbdaf49be	-0.08558987
154	0xbc7eb87d	-0.015546915
155	0x3dbafce0	0.09130263
156	0x3dab845a	0.083748534
157	0x3cf46cf2	0.029837105
158	0xbe2b3ec9	-0.1672317
159	0x3dd253b3	0.102698706
160	0xbd363195	-0.04448088
161	0xbe3fd2a3	-0.18732695
162	0x3df00c90	0.11721146
163	0x3e083123	0.13299994
164	0xbd18e33d	-0.037326086
165	0xbde63b02	-0.112417236
166	0xbc9e7eb5	-0.019347528
167	0xbd2a0cb7	-0.041516032
168	0xbda6991d	-0.08134673
169	0x3c54bced	0.012984497
170	0x3dd97848	0.10618645
171	0x3c9a6517	0.018847032
172	0xbdb1411a	-0.08654995
173	0xbd9aa403	-0.07550814
174	0x3e0947b5	0.1340626
175	0xbc436cc9	-0.011927792
176	0x3c50615d	0.012718526
177	0x3d4126dc	0.0471562
178	0xbc9c7469	-0.019098477
179	0xbc6867a7	-0.014184869
180	0xbd8b566c	-0.06803593
181	0xbd418831	-0.047249023
182	0xbd1b80c6	-0.037964605
183	0xbd45ceb8	-0.048292845
184	0xbd972b6f	-0.07381331
185	0xbd3b9bec	-0.045802996
186	0x3e10f9dc	0.14157814
187	0xbccbdeeb	-0.024886569
188	0xbdcb0e95	-0.09914891
189	0xbc3bd9f6	-0.01146554
190	0xbdaee740	-0.08540201
191	0xbda3b9b5	-0.07994405
192	0x3e858871	0.2608066
193	0x3e22bce7	0.15892373
194	0xbdc0b23f	-0.09408998
195	0x3e1633fd	0.1466827
196	0xbd43751e	-0.047719114
197	0xbe5db497	-0.21650921
198	0xbe1eb20c	-0.15497607
199	0x3db6e5a1	0.08930517
200	0x3ce5d093	0.028053558
201	0xbd878215	-0.06616608
202	0xbe1b3753	-0.15157823
203	0xbd5edc95	-0.054409582
204	0x3df091b6	0.11746542
205	0x3d171033	0.036880683
206	0xbe089da6	-0.13341388
207	0x3ea35762	0.31902605
208	0xbe2267ea	-0.15859953
209	0x3d125d42	0.03573347
210	0x3ec767cd	0.3894638
211	0x3ebdd9f1	0.3708034
212	0xbd126669	-0.035742197
213	0x3eab9f7a	0.33520108
214	0x3e8aa689	0.2708018
215	0xbd53c482	-0.051701076
216	0x3cdd4b60	0.02701348
217	0xbe0f11c1	-0.13971616
218	0x3e162ccc	0.14665526
219	0x3dd7336d	0.105078556
220	0x3da6cb6f	0.08144271
221	0xbdc79614	-0.09745422
222	0x3e0e596b	0.13901298
223	0x3e0ab86a	0.13546911
224	0x3dfced82	0.123499885
225	0xbe5b6321	-0.21424533
226	0xbe02316e	-0.12714168
227	0x3ccc5bbc	0.024946086
228	0x3df4a7ee	0.119460925
229	0xbe2fa2d1	-0.17151953
230	0xbdd65af9	-0.104665704
231	0x3bae4f31	0.005319499
232	0x3cc0c95f	0.023533521
233	0xbcdf7fb5	-0.027282575
234	0x3d6ff111	0.05857951
235	0xbdd2b278	-0.102879465
236	0xbd4f30b3	-0.050583553
237	0x3d62e7c8	0.055396825
238	0x3d313620	0.04326451
239	0xbce5058e	-0.02795675
240	0x3c17526e	0.009235961
241	0x3de492ab	0.11160787
242	0x3d842fee	0.06454454
243	0x3b766800	0.003759861
244	0xbca80130	-0.020508379
245	0xbd9a8dd2	-0.07546581
246	0xbda0787a	-0.07835479
247	0xbd232998	-0.03983459
248	0xbd2d81ce	-0.04236012
249	0x3cd4aff0	0.0259628
250	0xbcc6bb4c	-0.024259232
251	0xbd058983	-0.032601845
252	0x3e2ea61e	0.17055556
253	0x3de82867	0.11335831
254	0x3d9af67a	0.07566543
255	0xbd7346e5	-0.059393782

features_extractor.encoder.2.bias f4 [16]
0	0x3c9443f1	0.018098803
1	0xbc31067d	-0.01080477
2	0x3d727886	0.05919697
3	0xbd669daf	-0.056302723
4	0x3d48766f	0.048941072
5	0xbdb2e7e1	-0.08735634
6	0xbd553c29	-0.052059326
7	0xbd21645c	-0.03940235
8	0xbcc5cfe7	-0.024146987
9	0x3cc0b354	0.02352301
10	0xbd13f2fb	-0.036120396
11	0xbda626f3	-0.08112898
12	0x3d2d2af9	0.04227731
13	0x3d99f59d	0.0751755
14	0x3b46d83d	0.003034129
15	0xbda8075f	-0.08204531

features_extractor.encoder.4.weight f4 [16, 16, 3, 3]
0	0xbcf4d075	-0.029884556
1	0x3c898f0c	0.016791843
2	0xbc97565f	-0.018473802
3	0xbdaf94e8	-0.085733235
4	0xbda78e89	-0.08181483
5	0xbcfb0591	-0.030642303
6	0x3bc71154	0.0060750637
7	0x3df09d76	0.11748783
8	0x3dc07228	0.093967736
9	0xbc2a019c	-0.01037636
10	0xbd8986ea	-0.06715186
11	0x3df5ee8c	0.1200839
12	0x3d630f67	0.05543461
13	0xbccdae3a	-0.025107492
14	0x3d19c2cb	0.037539285
15	0xbcb4351a	-0.021997977
16	0x3d43fe19	0.04784975
17	0xbd51c013	-0.051208567
18	0xbca30e26	-0.019904207
19	0x3d56c7d0	0.05243665
20	0xbb3e69af	-0.0029054692
21	0xbe218440	-0.15773106
22	0xbce2a4e8	-0.027666524
23	0xbe1b4b75	-0.15165503
24	0xbe278956	-0.16360983
25	0xba5b5617	-0.00083670154
26	0xbcc48992	-0.02399138
27	0xbb711ffd	-0.0036792748
28	0xba6d460d	-0.0009051271
29	0xbcbbb0e7	-0.022911502
30	0xbd4aac25	-0.049480576
31	0x3db5d014	0.088775784
32	0xbd01928b	-0.031633895
33	0x3d22a9d2	0.039712735
34	0x3d694893	0.056953978
35	0xbd6060b8	-0.05477974
36	0xbd5d3c32	-0.054012485
37	0x3d250942	0.040292032
38	0x3e0d654d	0.13808174
39	0xbd23e240	-0.04001069
40	0x3d428eeb	0.04749958
41	0xbda942f7	-0.08264726
42	0xbe0f4930	-0.13992763
43	0xbdd28700	-0.102796555
44	0xbe25cb14	-0.1619075
45	0x3d9e02ca	0.07715376
46	0x3aa07ecb	0.0012244818
47	0x3c9eb6ce	0.019374277
48	0x3db48c97	0.08815878
49	0x3dd6dfee	0.1049193
50	0x3d2ad3c4	0.04170586
51	0xbd9bf256	-0.07614581
52	0xbe129120	-0.14313173
53	0xbe32d68a	-0.17464653
54	0x3ddea321	0.10870958
55	0x3cc62eeb	0.024192294
56	0x3cecbbd5	0.028898159
57	0x3d8aa58a	0.06769855
58	0x3a926c0d	0.0011171118
59	0xbe135be2	-0.1439052
60	0xbd17ff1a	-0.03710852
61	0xbdb70fc9	-0.08938558
62	0xbcf2d305	-0.029641638
63	0xbbf9f1a3	-0.0076276823
64	0x3d73a6da	0.059485294
65	0xbe13fa82	-0.1445103
66	0xbe0fc082	-0.1403828
67	0xbd07cb4e	-0.03315287
68	0xbe17b586	-0.1481534
69	0x3a253cc3	0.00063033047
70	0x3d758e7c	0.059950337
71	0xbd5e608e	-0.0542913
72	0x3d0341c2	0.032045133
73	0x3ce99f23	0.028518265
74	0xbe1b4dd0	-0.15166402
75	0xbdbfd752	-0.09367241
76	0x3d3ecaeb	0.046580236
77	0xbd0ee4a5	-0.03488602
78	0x3cd43e1d	0.025908524
79	0xbc00fec0	-0.007873237
80	0xbe208c38	-0.15678489
81	0x3d796e9c	0.0608965
82	0x3debb41e	0.11508964
83	0x3ca9335e	0.020654377
84	0xbd99b7ca	-0.07505758
85	0x3d838226	0.06421308
86	0xbd96afc8	-0.07357746
87	0xbcbd2586	-0.023089182
88	0xbdcf4fb1	-0.10122622
89	0xbe073514	-0.13203841
90	0xbd90acb2	-0.07064189
91	0x3e025fb9	0.12731828
92	0xbe36dd3d	-0.17857833
93	0x3d303a81	0.043024544
94	0x3e2d59a3	0.16928725
95	0xbda3e767	-0.08003121
96	0xbdc015c5	-0.09379152
97	0xbdd03180	-0.101656914
98	0xbe0feb35	-0.14054568
99	0xbc31e10b	-0.010856877
100	0x3a37336c	0.00069885585
101	0x3d785b78	0.060634106
102	0x3da33d3e	0.079706654
103	0xbd3b2ef7	-0.045699086
104	0xbb7add65	-0.0038278934
105	0xbd6a063c	-0.05713485
106	0xbdb3a3df	-0.0877149
107	0xbde0a974	-0.109698206
108	0x3d6cd6a7	0.057821896
109	0xbd929c9e	-0.071587786
110	0x3c7c140b	0.015385638
111	0x3c4d7a8d	0.012541425
112	0x3d8ba3c3	0.068183444
113	0x3da5df70	0.08099258
114	0x3d11021d	0.035402406
115	0xbd812a23	-0.06306865
116	0xbce65792	-0.028117929
117	0xbc8dc4ac	-0.017305695
118	0x3cce58a1	0.025188746
119	0xbd21246a	-0.039341368
120	0xbe182627	-0.14858304
121	0xbe2378bd	-0.15964027
122	0xbda422d5	-0.08014456
123	0xbbd78c69	-0.0065780175
124	0xbdb0ae39	-0.0862698
125	0x3d022929	0.031777535
126	0xbd8c7dfd	-0.06859968
127	0xbd45dc40	-0.04830575
128	0x3d822f93	0.0635673
129	0xbd857a27	-0.06517439
130	0x3d7e7613	0.062124323
131	0xbb7d15ad	-0.0038617656
132	0x3b6d7e85	0.0036238742
133	0xbe1cacd2	-0.153003
134	0xbe29d9ed	-0.16587038
135	0xbd00d57f	-0.031453606
136	0x3d9ec60c	0.07752618
137	0x3e03d9e8	0.12876093
138	0xbb775324	-0.0037738765
139	0xbdbe89e5	-0.09303645
140	0xbc02fc27	-0.007994688
141	0xbd80a8ad	-0.06282172
142	0xbe136b64	-0.14396435
143	0xbd82f28e	-0.0639392
144	0xbe4b779c	-0.19869846
145	0x3d99caab	0.07509359
146	0xbdf311c1	-0.11868621
147	0x3acd23aa	0.0015650888
148	0x3d90d29f	0.07071423
149	0x3ba24641	0.0049522226
150	0xbc94ab03	-0.018147951
151	0xbc811c4b	-0.015760561
152	0x3c99c5c1	0.018771054
153	0xbde3ab67	-0.11116677
154	0xbddfbc56	-0.10924594
155	0x3d9a673f	0.07539224
156	0xbdc7a2b8	-0.09747833
157	0x3c947c88	0.018125787
158	0xbe13aaa9	-0.1442057
159	0x3da5e8e2	0.081010595
160	0xbd9c64cf	-0.07636415
161	0xbca434e9	-0.02004476
162	0x3e0fb365	0.14033277
163	0x3d8ae4a5	0.06781892
164	0x3d31071f	0.04321968
165	0xbce528f8	-0.027973637
166	0xbd8f835b	-0.07007476
167	0x3d9a69fe	0.07539748
168	0xbc61d9d7	-0.013784847
169	0xbe059c80	-0.13047981
170	0x3d9913ab	0.074744545
171	0x3bc18e50	0.0059068576
172	0x3ca6d2d0	0.020364195
173	0xbd542db6	-0.051801406
174	0xbd662ec6	-0.05619695
175	0xbd9d08e7	-0.076677136
176	0x3cb063cc	0.021531962
177	0xbd5c3d03	-0.053769123
178	0x3bd01980	0.006350696
179	0xbc98af1c	-0.018638186
180	0xbe494fb2	-0.19659308
181	0xbd820c9a	-0.0635006
182	0xbc484882	-0.012224318
183	0xbe8061eb	-0.25074705
184	0xbde6295e	-0.11238359
185	0xbe16626f	-0.14685987
186	0xbe2b7cd9	-0.16746844
187	0xbdc7018a	-0.097170904
188	0xbd88b424	-0.06674984
189	0xbdc2f25c	-0.09518883
190	0x3d4cf481	0.050037865
191	0x3e1d35c4	0.15352541
192	0xbe81fe8a	-0.2538951
193	0xbdd64f15	-0.104643025
194	0xbde2ee05	-0.11080555
195	0xbe04034b	-0.12891881
196	0xbdd28bd1	-0.10280574
197	0xbe102e39	-0.14080133
198	0x3c869b79	0.016431557
199	0xbd5cee27	-0.053938057
200	0x3dfc2595	0.12311856
201	0xbd92c752	-0.071669236
202	0x3c5b4365	0.013382767
203	0x3c5fc5bd	0.013657984
204	0xbe0c7f85	-0.1372052
205	0xbca48907	-0.020084871
206	0xbe04ff74	-0.12988073
207	0xbd1952fa	-0.03743265
208	0xbcc61b4a	-0.024182934
209	0xbcac6d12	-0.021048103
210	0x3da3b510	0.07993519
211	0x3cf16c3e	0.02947056
212	0x3d6b5918	0.057458013
213	0xbd9963db	-0.07489749
214	0x3d81ddeb	0.063411556
215	0x3c7436f7	0.014905683
216	0x3de2aa8e	0.11067687
217	0x3d6f7de3	0.058469664
218	0x3ab9c35c	0.0014172602
219	0xbcb35871	-0.021892758
220	0x3d4ea7ad	0.050452877
221	0x3cb047b3	0.021518564
222	0xbdbea0da	-0.09308024
223	0xbd46b90e	-0.048516326
224	0xbc7f28a1	-0.0155736515
225	0xbcde45da	-0.027132917
226	0x3ceefa7e	0.029172178
227	0xbd63140a	-0.055439033
228	0xbd5fa07b	-0.054596405
229	0xbdedaffa	-0.116058305
230	0xbc8d54df	-0.017252384
231	0xbe591fb8	-0.21203506
232	0xbdfe2889	-0.12410075
233	0x3dabf27b	0.08395859
234	0x3e4f6db5	0.20256694
235	0x3dc5c24f	0.09656202
236	0x3dd5d410	0.10440838
237	0x3db79357	0.0896365
238	0xbcab7ee2	-0.020934526
239	0x3e10d4f2	0.14143732
240	0xbd8a789a	-0.06761284
241	0xbcd2fada	-0.025754381
242	0x3df45d7a	0.11931892
243	0xbe1c5452	-0.1526654
244	0x3c695012	0.014240282
245	0x3d412aa6	0.047159813
246	0xbe7bf452	-0.2460492
247	0xbe0bb77f	-0.13644217
248	0x3b9a86d1	0.0047157784
249	0xbdcfa21f	-0.10138344
250	0xbe035ea1	-0.12829067
251	0xbd6680ad	-0.05627506
252	0xbd5505b9	-0.05200741
253	0x3d64230e	0.055697493
254	0x3dd75139	0.10513539
255	0xbe8b7f1d	-0.27245417

features_extractor.encoder.4.bias f4 [16]
0	0xbdb53ab6	-0.08849089
1	0xbd54807a	-0.051880337
2	0x3ad3151b	0.0016104312
3	0xbd7579e1	-0.059930686
4	0x3cab23ad	0.020891035
5	0xbda888aa	-0.082291916
6	0xbca05f2b	-0.01957663
7	0xbd373b7b	-0.04473446
8	0x3ade9e27	0.0016984389
9	0x3d04ead6	0.03245052
10	0xbd34bfe8	-0.04412833
11	0xbd29d05c	-0.041458473
12	0xbd9ffcdd	-0.07811902
13	0xbdbe264e	-0.0928465
14	0xbdd48283	-0.10376456
15	0xbd6cbfa6	-0.057799958

features_extractor.policy_net.0.weight f4 [64, 1024]
0	0xbc23ed27	-0.010005272
1	0x39cff258	0.00039662677
2	0x3c423b4f	0.011854961
3	0x3c5f08b5	0.013612916
4	0x3d7c3f33	0.06158371
5	0x3d1c07a3	0.03809322
6	0x3cfc6834	0.030811407
7	0x3c83c6ca	0.016086001
8	0xbd717382	-0.058948047
9	0xbcda728a	-0.026665945
10	0xbcf1957d	-0.029490227
11	0x3d849445	0.06473593
12	0xbdda0274	-0.10644999
13	0xbcb3baa8	-0.02193959
14	0x3d640b56	0.055674873
15	0x3c3b3467	0.011426068
16	0xbde75109	-0.11294753
17	0xbcd28ebd	-0.025702829
18	0x3d14d24a	0.03633336
19	0x3a663022	0.0008780976
20	0xbd76599d	-0.060144056
21	0x3d9598aa	0.07304509
22	0xbc8482b3	-0.016175603
23	0xbc28b41a	-0.010296846
24	0x3e2aa207	0.16663371
25	0xbd3b28e1	-0.045693282
26	0xbe075d46	-0.13219175
27	0xbd2124fc	-0.03934191
28	0xbd31dc24	-0.043422833
29	0xbd98189b	-0.07426568
30	0x3cfd33da	0.030908514
31	0x3deb985c	0.115036696
32	0xbd30840f	-0.04309469
33	0x3c614735	0.013749887
34	0x3c5d02ea	0.013489464
35	0xba210bb8	-0.0006143409
36	0x3dc2cd74	0.09511843
37	0xbc8f6fbb	-0.017509332
38	0xbaf30ab2	-0.0018542616
39	0xbdc869b5	-0.09785787
40	0x3ccb60f6	0.024826508
41	0x3d77c9a2	0.060495026
42	0x3d436509	0.047703777
43	0xbd83aa94	-0.064290196
44	0x3d03d9d6	0.032190166
45	0x3e0d1826	0.13778743
46	0xbda9b375	-0.08286182
47	0xbd7a61d5	-0.061128456
48	0xbd8aa697	-0.06770056
49	0xbd7a5c85	-0.06112339
50	0x3ddee247	0.10883003
51	0xbd5d9fcb	-0.05410747
52	0x3d5aa954	0.05338414
53	0xbcb3bb22	-0.021939818
54	0x3ba8db07	0.005153063
55	0x3df754e6	0.1207674
56	0xbdad4b61	-0.08461643
57	0x3d8a2db5	0.06746999
58	0x3e005dd5	0.12535794
59	0xbd23309e	-0.039841287
60	0xbddb7c22	-0.10717036
61	0xbd67297d	-0.05643605
62	0x3c348726	0.01101855
63	0xbd125f03	-0.03573514
64	0x3dbca155	0.09210459
65	0xbaf639ec	-0.0018785573
66	0xbcc3ebd4	-0.023916163
67	0xbc9ba9ae	-0.019001808
68	0xbe1199e3	-0.1421886
69	0xbd9c629f	-0.07635998
70	0x3d2b27e3	0.041786086
71	0xbb6597e7	-0.0035033168
72	0xbd7e2084	-0.062042728
73	0x3d8af066	0.067841336
74	0xbdb9ba13	-0.09068694
75	0x3cbd54d5	0.02311174
76	0xbce1650b	-0.027514001
77	0x3ddb92bb	0.10721346
78	0x3cc7d7ab	0.02439483
79	0xbe15b54f	-0.14619945
80	0xbaa0bcbf	-0.0012263282
81	0xbd161084	-0.036636844
82	0x3d4c9c5f	0.049953815
83	0x3d00ff19	0.03149328
84	0x3d239fe5	0.03994741
85	0x3cd4f06a	0.025993545
86	0xbd589136	-0.05287286
87	0xbdcb74ae	-0.09934364
88	0x3e107a49	0.14109148
89	0xbd259f5f	-0.04043519
90	0xbde6da4c	-0.112721056
91	0xbe033b81	-0.12815668
92	0xbe01055d	-0.12599702
93	0xbd65dd8e	-0.056119494
94	0x3d62ef6e	0.05540412
95	0xbbe535cd	-0.006994939
96	0x3d8ab8db	0.0677354
97	0xbb268774	-0.0025410326
98	0x3d92a7f2	0.07160939
99	0xbd93813f	-0.07202386
100	0x3dc2793a	0.094957784
101	0xbd56586f	-0.05233043
102	0x3c8cf89d	0.017208392
103	0x3d24eba0	0.040263772
104	0x3d2ccbef	0.042186674
105	0x3ca84d8a	0.020544786
106	0xbddbde22	-0.10735728
107	0xbcd696d1	-0.026194962
108	0x3d0af498	0.03392467
109	0xbe32d5ab	-0.1746432
110	0xbd603ade	-0.05474364
111	0x3d9a0c70	0.075219035
112	0x3cde52bc	0.02713906
113	0x3db9ed46	0.090784594
114	0xbd601822	-0.054710515
115	0x3c268a60	0.010164827
116	0x3c07ee7b	0.008296604
117	0xbd42da06	-0.047571205
118	0xbcb7d730	-0.022441477
119	0x3d53f641	0.051748518
120	0xbd21d9ec	-0.039514467
121	0xbc310708	-0.010804899
122	0xbda90c6c	-0.082543224
123	0x3d0160ae	0.03158634
124	0xbdb187e2	-0.08668496
125	0x3c55c8d5	0.01304837
126	0x3d967801	0.07347108
127	0x3d075b75	0.033046205
128	0x3c6266ac	0.013818424
129	0xbd1c4114	-0.038148
130	0x3d44f590	0.04808575
131	0xbdcc7d38	-0.09984821
132	0x3d260960	0.040536284
133	0x3ca1d5f1	0.019755336
134	0x3d8a1193	0.06741633
135	0x3d49bcd4	0.049252346
136	0x3d3f8aab	0.046763103
137	0x3da58f23	0.08083942
138	0x3d0ea404	0.034824386
139	0xbcb9149a	-0.022592831
140	0x3d8beec2	0.06832649
141	0xbd18f600	-0.03734398
142	0x3e2d6a11	0.16934992
143	0x3d39f5e5	0.04540052
144	0x3da89ff9	0.08233637
145	0x3dbf9374	0.09354296
146	0xbbaaa17a	-0.005207238
147	0xbd1bede4	-0.038068667
148	0x3a3fbd99	0.0007314324
149	0xbd68fbba	-0.05688069
150	0xbcc92dfe	-0.024558064
151	0x3daf3aaf	0.08556115
152	0x3e19bc5f	0.15013264
153	0x3d92471c	0.07142469
154	0xbb027f99	-0.001991248
155	0xbcd469a4	-0.02592928
156	0x3cf02029	0.02931221
157	0x3e4cafc6	0.19988927
158	0xbd9489d5	-0.07252852
159	0x3d155be2	0.03646458
160	0x3db70c76	0.089379236
161	0xbe0cf29b	-0.13764422
162	0x3e1591e8	0.1460644
163	0x3db9602c	0.090515465
164	0xbd0658da	-0.03279958
165	0xbd079568	-0.03310147
166	0xbda1c127	-0.07898169
167	0xbc19d29b	-0.009388591
168	0x3d6b5713	0.057456087
169	0xbd0c7c89	-0.034298453
170	0x3d92d6c3	0.07169869
171	0x3d095b9a	0.033534624
172	0x3db7c5dd	0.08973286
173	0xbcb5aa6b	-0.022175988
174	0xbdb2ca70	-0.08730018
175	0xbd402472	-0.046909757
176	0x3d6de075	0.058075387
177	0x3d537021	0.051620606
178	0xbd3c2a3d	-0.04593872
179	0x3d0ea96d	0.034829546
180	0xbdaa0068	-0.08300859
181	0xbd7bd7df	-0.061485168
182	0xbd97fd07	-0.07421308
183	0xbd505655	-0.050863583
184	0x3db883fa	0.090095475
185	0x3e0f0e9b	0.13970415
186	0x3e20139c	0.1563248
187	0xbde4d877	-0.111741
188	0xbdb1c6aa	-0.0868047
189	0x3bb6c527	0.0055777016
190	0xbd7b5a95	-0.061365683
191	0xbd79db3a	-0.061000086
192	0x3d3494b8	0.04408714
193	0xbdc121e6	-0.09430294
194	0xbcc35def	-0.023848502
195	0x3bbb6741	0.005719096
196	0x3da851b6	0.0821871
197	0x3d654f0c	0.055983588
198	0x3d6687bb	0.056281786
199	0x3dd7b992	0.105334416
200	0x3bac9efb	0.0052679754
201	0x3d6aad7a	0.057294346
202	0x3db71b3f	0.08940744
203	0x3c91726b	0.017754754
204	0x3e030862	0.12796167
205	0xbd5f4230	-0.05450648
206	0xbd1f9738	-0.038962573
207	0xbd4d41a6	-0.050111435
208	0x3d7b4643	0.061346304
209	0xbd792d1c	-0.060834035
210	0xbd004e05	-0.031324405
211	0xbdbc1d3a	-0.09185262
212	0x3d6b838a	0.057498492
213	0xbdaf7cd1	-0.08568729
214	0xbd77ed0c	-0.0605288
215	0x3dd26d63	0.1027477
216	0x3cf3337d	0.029687637
217	0x3da1f6ad	0.07908378
218	0x3cfa2998	0.030537412
219	0xbd5aa7b7	-0.0533826
220	0xbc32a45b	-0.010903443
221	0x3d516e25	0.051130433
222	0x3d090c74	0.03345914
223	0xbd3776f2	-0.04479117
224	0x3d7e309d	0.06205808
225	0xbd2bc67a	-0.04193733
226	0xbdd9d9b8	-0.1063723
227	0x3d4131d7	0.04716667
228	0x3e14c2a9	0.14527382
229	0xbdaf86d5	-0.08570639
230	0xbd3ca598	-0.04605636
231	0xbd75b93c	-0.059991106
232	0x3c96c8cb	0.018406292
233	0x3dd95817	0.10612505
234	0x3d7e22d7	0.062044945
235	0xbcee49e3	-0.029087966
236	0x3c71cad5	0.014757832
237	0x3b8a02ed	0.0042117746
238	0xbe09792b	-0.13425128
239	0x3d1bae83	0.038008224
240	0xbdd08f5d	-0.101835944
241	0x3bf9feb9	0.0076292423
242	0xbdaf64dd	-0.0856416
243	0x3d8cffba	0.068847135
244	0x3d972328	0.073797524
245	0xbb60b2b3	-0.00342862
246	0x3d146de3	0.03623761
247	0x3ca66047	0.02030958
248	0x3ceaa60b	0.028643629
249	0x3b7e76e9	0.00388282
250	0x3d9ef61e	0.07761787
251	0xbc1197b6	-0.008886268
252	0x3d09c5c8	0.033635885
253	0xbdd0194c	-0.10161075
254	0x3d9be733	0.07612457
255	0xbdd86926	-0.105669305

features_extractor.policy_net.0.bias f4 [64]
0	0x3d153662	0.036428817
1	0xbd33ec74	-0.04392667
2	0xbc2c4e1b	-0.010516669
3	0xbd09b650	-0.033621132
4	0xbd6914fd	-0.05690478
5	0xbd276915	-0.0408717
6	0xbca79e5c	-0.020461254
7	0x3d2e37aa	0.042533554
8	0xbda55eba	-0.08074708
9	0x3d41237b	0.047152977
10	0x3cca5b21	0.024701657
11	0xbc774ca0	-0.015093952
12	0xbcc0d638	-0.023539647
13	0x3ba47f43	0.0050200536
14	0xbc780ac4	-0.0151392855
15	0x3bcbecbf	0.0062232907
16	0x3cf1c8ca	0.029514689
17	0x3bae4faf	0.0053195576
18	0xbcbdbf93	-0.023162639
19	0x3c938c91	0.018011363
20	0x3b22573c	0.0024771234
21	0xba9f44ee	-0.001215128
22	0x3c818af6	0.015813332
23	0xbd1f80f6	-0.038941346
24	0xbbcc3c2a	-0.006232758
25	0xbc5dfdb2	-0.013549255
26	0xbc758683	-0.014985683
27	0xbc3696d1	-0.011144356
28	0x3ce9d97c	0.028546087
29	0x3c219429	0.009861984
30	0x3b36841e	0.0027849744
31	0xbd1e689a	-0.038673975
32	0xbd102ea0	-0.035200715
33	0x3d9f67e1	0.07783485
34	0x3bda98fc	0.006671069
35	0x3d65cea9	0.05610529
36	0xbc97792e	-0.0184904
37	0xbac98962	-0.0015376026
38	0x3c9e4bcb	0.01932325
39	0xbbe29606	-0.006914857
40	0x3cfc71d1	0.03081599
41	0x3a09e4c5	0.00052602246
42	0x3d076658	0.033056587
43	0xbd1b7827	-0.037956383
44	0x3cfec358	0.031099007
45	0xbc4b0116	-0.012390396
46	0xbb7a080f	-0.0038151776
47	0x3b782ac0	0.0037867278
48	0x3cb9ae8a	0.022666235
49	0xbcf7c504	-0.030245312
50	0x3a8e7bcc	0.0010870635
51	0x3d8ecd44	0.06972745
52	0x3c95a3e7	0.018266631
53	0x3aa8e8a7	0.0012886719
54	0xbbf73091	-0.0075436314
55	0xbce6b805	-0.02816392
56	0x3d058ebf	0.032606836
57	0x3d269f1d	0.040679086
58	0x3b568d9b	0.0032738212
59	0x3be92920	0.007115498
60	0x3b860b52	0.004090705
61	0x3cde8ccf	0.027166752
62	0x3c71423b	0.014725263
63	0xbcdc6893	-0.026905334

features_extractor.policy_net.2.weight f4 [64, 64]
0	0x3cb7d3c8	0.022439852
1	0x3d3a9c49	0.0455592
2	0x3db68236	0.089115545
3	0xbda34c85	-0.07973579
4	0x3e5f5f7f	0.21813773
5	0xbdcbbf25	-0.09948567
6	0xbd051b81	-0.032496933
7	0x3dbcc810	0.092178464
8	0xbdfe2883	-0.12410071
9	0x3d2514d5	0.04030307
10	0x3dd1e42b	0.10248598
11	0x3deacffa	0.1146545
12	0xbdae5dfd	-0.085140206
13	0xbcaf8ee9	-0.02143045
14	0xbdade310	-0.08490574
15	0x3d8201f3	0.06348028
16	0xbda5b98b	-0.0809203
17	0x3e0156d6	0.12630782
18	0x3ce7828f	0.028260497
19	0x3e365bc4	0.17808443
20	0x3b8d1f3c	0.004306702
21	0x3d9e33d7	0.077247314
22	0xbe0641ba	-0.1311101
23	0xbdb1d43a	-0.08683057
24	0xbd8654d2	-0.06559147
25	0xbe25fb48	-0.16209137
26	0x3d07a32e	0.033114605
27	0x3d301a9d	0.04299413
28	0x3d8ee1a0	0.06976628
29	0xbe2369d8	-0.15958345
30	0x3e09bb45	0.13450344
31	0xbd847551	-0.06467689
32	0xbd2be214	-0.04196365
33	0xbd78b39b	-0.06071816
34	0xbcc9f099	-0.024650859
35	0xbd817a99	-0.06322212
36	0xbe92e9e9	-0.28694084
37	0xbe484d6b	-0.19560783
38	0x3d834189	0.06408984
39	0x3e2861a9	0.16443504
40	0x3dea588d	0.11442671
41	0x3e245089	0.16046347
42	0xbd5aecae	-0.05344837
43	0xbd8afc0d	-0.06786356
44	0x3dc4c15c	0.09607193
45	0x3d77ec0d	0.06052785
46	0x3c544cdf	0.012957781
47	0x3dd3012f	0.1030296
48	0x3db05d19	0.08611507
49	0x3d16cb09	0.036814723
50	0x3def00b8	0.11670059
51	0xbd2f9597	-0.04286727
52	0x3e4d95c7	0.20076667
53	0x3e1e0c7a	0.15434447
54	0xbdb8669c	-0.09003946
55	0xbd84a6eb	-0.064771496
56	0xbdd27cb6	-0.10277693
57	0x3d2f552f	0.042805847
58	0xbddf5998	-0.109057605
59	0x3d8e855b	0.06959029
60	0x3d9ba6fd	0.0760021
61	0xbc379630	-0.011205241
62	0x3e43b4b3	0.191119
63	0xbd37ed8f	-0.044904288
64	0x3d9b7f61	0.07592655
65	0xbc17f6c1	-0.009275139
66	0x3e068fc1	0.13140775
67	0x3d4eb5a4	0.050466195
68	0x3e03b956	0.12863669
69	0x3b992c7c	0.0046744924
70	0x3e1b07de	0.1513972
71	0x3d9ea1f4	0.07745734
72	0x3d470de7	0.048597243
73	0x3d08ede0	0.03342998
74	0xbdae13fd	-0.08499906
75	0x3d1b2ca9	0.037884388
76	0xbd15263f	-0.036413427
77	0x3ba56c60	0.0050483197
78	0xbe8480f9	-0.25879648
79	0xbcb121d2	-0.021622572
80	0xbdbdab5d	-0.092612006
81	0x3e0d5121	0.1380048
82	0xbe29db54	-0.16587573
83	0xbd6791e0	-0.0565356
84	0xbe0fc665	-0.14040525
85	0xbd4c0d1f	-0.0498172
86	0xbd8226f1	-0.06355084
87	0xbdafb866	-0.08580093
88	0x3deb5d65	0.11492423
89	0xbaa27bb3	-0.0012396484
90	0x3d26064e	0.040533356
91	0x3e304daf	0.17217134
92	0x3d90807d	0.07055757
93	0xbdc68eec	-0.09695229
94	0x3e0f10b0	0.1397121
95	0xbd5328f0	-0.051552713
96	0xbe09636d	-0.13416834
97	0xbdfd1cd8	-0.12359017
98	0x3d99c92b	0.07509073
99	0x3d070775	0.032966096
100	0xbea2c026	-0.31787223
101	0xbe0869f4	-0.13321668
102	0xbe2704ad	-0.16310377
103	0x3dcb7ed1	0.09936298
104	0x3c58acd5	0.0132248
105	0x3d3eb97f	0.04656362
106	0xbd263f60	-0.040587783
107	0xbdadc24b	-0.08484324
108	0x3d38c768	0.045112044
109	0x3e2c4fbc	0.16827291
110	0x3b05de02	0.0020426516
111	0x3e3de9c8	0.18546212
112	0xbd91a665	-0.07111815
113	0x3daa6a62	0.08321072
114	0x3e7c0ca1	0.24614193
115	0xbdbd77a6	-0.09251337
116	0x3c5d4546	0.013505286
117	0x3e11c3ac	0.14234799
118	0xbd644480	-0.05572939
119	0x3d3e7f7f	0.04650831
120	0xbe3c7df8	-0.18407428
121	0x3d1cfa96	0.038324915
122	0x3d7db9e5	0.06194486
123	0x3c5fa7fe	0.013650892
124	0x3e271f8d	0.1632063
125	0xbe652477	-0.22377191
126	0x3e083dea	0.13304868
127	0x3b55a370	0.0032598637
128	0x3d99210b	0.074770056
129	0x3bd9bed9	0.0066450653
130	0x3d9a4d18	0.07534236
131	0x3caa69ad	0.020802343
132	0x3dd5cf63	0.104399465
133	0xbe886522	-0.26639658
134	0xbdca4f11	-0.09878362
135	0x3e1ff489	0.15620627
136	0xbe1a6b39	-0.15079965
137	0xbbf88f3f	-0.0075854356
138	0x3cf5c6da	0.030002046
139	0xbc806638	-0.015673742
140	0xbe4871e3	-0.19574694
141	0x3d00ada7	0.031415608
142	0x3ca6d28f	0.020364074
143	0x3db2547f	0.087075226
144	0x3df09e6e	0.11748968
145	0x3e3eb8a1	0.18625118
146	0xbcf471dc	-0.029839449
147	0x3df2c557	0.11854046
148	0x3dfa0ea6	0.12209825
149	0xbce9e48b	-0.02855136
150	0xbe2d017c	-0.16895097
151	0xbe0f8802	-0.14016727
152	0xbc225ea5	-0.00991026
153	0xbcc7d57b	-0.024393788
154	0x3d35b21a	0.044359304
155	0xb976dd5c	-0.00023542851
156	0xbe0a56e0	-0.13509703
157	0xbe7c3d37	-0.24632727
158	0x3deeecc6	0.11666255
159	0xbd05b52a	-0.032643475
160	0xbdaaecc0	-0.08345938
161	0x3d54fd9a	0.051999666
162	0xbdb2cb85	-0.087302245
163	0x3d6d9512	0.058003493
164	0xbe55a36f	-0.20863126
165	0xbcab8738	-0.0209385
166	0xbd8c9290	-0.06863892
167	0x3d846d50	0.06466162
168	0x3db89ec3	0.090146564
169	0x3d3e5d46	0.04647567
170	0xbda6bd0c	-0.081415266
171	0xbd63454e	-0.055486016
172	0xbd08991b	-0.033349138
173	0xbcd8bead	-0.026458109
174	0xbdee77b5	-0.11643926
175	0x3e3559bb	0.1771001
176	0xbd0ab078	-0.0338597
177	0x3d85fbda	0.065421775
178	0x3de429f5	0.11140815
179	0x3d1b1587	0.037862327
180	0x3d037526	0.032094143
181	0x3dd29a96	0.10283391
182	0xbdb9426e	-0.090458736
183	0xbe011332	-0.12604979
184	0x3ba7dfb4	0.005123103
185	0xbc348c5a	-0.011019791
186	0xbce56a61	-0.028004827
187	0x3e038bcf	0.12846301
188	0xbd74b23a	-0.059740283
189	0xbe08cdd5	-0.13359769
190	0x3e1ae51b	0.1512646
191	0x3e00c29d	0.12574239
192	0x3cc776e6	0.024348687
193	0x3e0b6c15	0.13615449
194	0x3dc4fd5e	0.096186385
195	0x39b8764a	0.00035183347
196	0x3da63598	0.08115691
197	0xbd54a02a	-0.051910557
198	0xbc23c776	-0.009996286
199	0x3dadd036	0.08486979
200	0x3c300542	0.010743441
201	0x3b419240	0.0029536635
202	0x3c479833	0.012182283
203	0xbbe993c0	-0.007128209
204	0xbe30640b	-0.17225663
205	0x3d0daf8f	0.034591254
206	0xbd523280	-0.05131769
207	0x3da24832	0.079239264
208	0xbd11505c	-0.035477027
209	0x3d2df496	0.042469583
210	0xbe2603e3	-0.1621242
211	0x3e03aa6b	0.12857978
212	0xbe121f89	-0.14269842
213	0xbdf0b620	-0.117534876
214	0xbddced2d	-0.10787425
215	0xbe3f19b6	-0.18662152
216	0x3d8aaf82	0.06771757
217	0xbd996d7a	-0.07491584
218	0x3de29ddc	0.110652655
219	0x3e4fc0fa	0.20288458
220	0xbe18c4a2	-0.1491876
221	0xbe34fe71	-0.17675187
222	0x3e1270fa	0.1430091
223	0xbcc8047b	-0.024416199
224	0xbcfd42e2	-0.030915681
225	0x3dbe6f4a	0.092985705
226	0xbdb39b47	-0.08769851
227	0x382400ce	3.9101396e-05
228	0xbdcdf933	-0.100572966
229	0xbdb76bf1	-0.08956135
230	0xbbfebf5c	-0.0077742767
231	0x3e294c28	0.16532958
232	0x3e26877a	0.16262618
233	0x3e2dd154	0.16974384
234	0xbdff2b54	-0.12459436
235	0xbca681b5	-0.020325521
236	0x3d98c833	0.0746006
237	0x3d8a8e3a	0.06765409
238	0xbd904a74	-0.07045451
239	0x3e640ebc	0.22271246
240	0xbda7a265	-0.08185271
241	0x3cfdaee3	0.030967182
242	0x3e2e2c1f	0.17009018
243	0xbd39386f	-0.045219835
244	0x3de40c8e	0.11135207
245	0xbcf9ed15	-0.030508557
246	0xbd160696	-0.036627375
247	0xbdc67660	-0.09690547
248	0x3cddb3d8	0.027063295
249	0x3e19596c	0.14975518
250	0xbd0c7a82	-0.03429652
251	0xbd9dbda0	-0.07702184
252	0x3e24000d	0.16015644
253	0xbd7f2df9	-0.062299702
254	0x3e5c5e01	0.21520235
255	0xbd5118c8	-0.051049024

features_extractor.policy_net.2.bias f4 [64]
0	0xbd874394	-0.066046864
1	0xbdc84e37	-0.09780543
2	0xbdb83c61	-0.08995891
3	0x3d4d5f1f	0.050139543
4	0xbc853760	-0.016261756
5	0x3d949c88	0.072564185
6	0x3c692286	0.014229422
7	0x3d42b6fa	0.04753778
8	0x3d68af4f	0.056807812
9	0xbd46904f	-0.048477467
10	0x39726ec0	0.00023120176
11	0x3ba73ff0	0.0051040575
12	0xbd4519df	-0.048120376
13	0x3d07a012	0.03311164
14	0xbd3c27f3	-0.045936536
15	0x3d9b3532	0.075785056
16	0xbd94f9b8	-0.072741926
17	0x3d9574f5	0.072976984
18	0xbd0b2140	-0.033967257
19	0x3cc43bc7	0.023954285
20	0x3dad0fbb	0.08450266
21	0xbd763fe2	-0.060119517
22	0xbba26b94	-0.004956672
23	0xbd3fbd1e	-0.046811216
24	0x3d764515	0.060124476
25	0xbddefe82	-0.10888387
26	0xbbfa836c	-0.0076450612
27	0x3c6a3b7f	0.014296412
28	0x3cd00a75	0.025395611
29	0xbdf385f4	-0.11890784
30	0x3c52071b	0.012819077
31	0xbd48c000	-0.04901123
32	0xbd33648f	-0.043797072
33	0xbdf9bcaf	-0.12194192
34	0xbd17a6a0	-0.03702414
35	0xbdaf9e91	-0.08575166
36	0xbdda54d9	-0.10660715
37	0x3d8a33e3	0.06748178
38	0x3e04db77	0.12974344
39	0xbd9424d3	-0.07233586
40	0xbe01d1b5	-0.12677653
41	0x3c61bfb1	0.013778613
42	0xbdccf7ff	-0.10008239
43	0xbdae9f0d	-0.0852643
44	0xbd6aa5ad	-0.057286907
45	0xbcee5ae3	-0.029096073
46	0xbc286c6c	-0.010279756
47	0x3dd386dc	0.10328457
48	0xbe0c23a5	-0.13685472
49	0xbd93f8c5	-0.072251834
50	0x3cb1c934	0.021702386
51	0x3ceea82a	0.029132921
52	0xbdb9c41c	-0.09070608
53	0xbde24fe3	-0.110503934
54	0xbdc9c121	-0.098512895
55	0xbc8d33eb	-0.01723667
56	0x3d57e945	0.052712698
57	0xbd8c326e	-0.06845556
58	0x3caeb45b	0.021326235
59	0x3d7f7de1	0.062375907
60	0x3cba518d	0.022743965
61	0x3d80defa	0.062925294
62	0x3e00ac52	0.12565735
63	0xbcfde172	-0.03099129

features_extractor.value_net.0.weight f4 [64, 1024]
0	0x3d2e0e74	0.042494252
1	0x3d7117ef	0.058860715
2	0x3d8188ad	0.06324897
3	0x3cd9b772	0.026576731
4	0xbdbc1e12	-0.09185423
5	0xbcc43388	-0.023950353
6	0xbda0ba6e	-0.07848059
7	0xbcaf78a6	-0.021419834
8	0x3c7f08be	0.015566049
9	0xbd787150	-0.06065494
10	0x3d9c5428	0.07633239
11	0x3d5e72c4	0.054308668
12	0xbd0cd074	-0.034378484
13	0xbd82f574	-0.06394473
14	0xbd9511c0	-0.07278776
15	0xbdb149d1	-0.086566575
16	0x3b78b177	0.0037947574
17	0xbca7b6c0	-0.020472884
18	0x3daf809d	0.08569453
19	0xbaf24295	-0.0018482978
20	0xbae7ebc6	-0.0017694167
21	0xbc915e92	-0.01774529
22	0xbc4669ec	-0.012110215
23	0xbdf6160e	-0.12015925
24	0x3ce9d697	0.028544707
25	0x3da263d9	0.07929201
26	0x3a87d8f5	0.0010364341
27	0x3ce27580	0.027643919
28	0x3b611b09	0.003434839
29	0xbd1ab2c5	-0.037768144
30	0x3d4903ea	0.049076
31	0xbd16cc3f	-0.036815878
32	0xbcab7359	-0.020929025
33	0x3be23f36	0.006904508
34	0x3d644ffa	0.055740334
35	0x3d1828ad	0.037148166
36	0x3cb902cc	0.022584341
37	0xbd24500f	-0.040115412
38	0xbc803c93	-0.015653884
39	0xbd8887ee	-0.066665515
40	0x3d3068ae	0.04306858
41	0x3cbfbba1	0.023404898
42	0x3d3a449c	0.045475587
43	0xbd22a34b	-0.03970651
44	0x3d66ac17	0.05631646
45	0xbd5c5d7f	-0.053800102
46	0x3c852dd3	0.016257202
47	0xbd901a6a	-0.07036288
48	0x3db64bf5	0.089012064
49	0xbc69197b	-0.014227266
50	0xbd0450c3	-0.032303583
51	0xbd714def	-0.058912214
52	0x3a793428	0.0009506368
53	0xbd4854d6	-0.04890903
54	0xbce584dd	-0.028017456
55	0xbda70ce3	-0.08156755
56	0xbd1acef8	-0.037795037
57	0xbdbee3b1	-0.093207724
58	0x3c355209	0.011066922
59	0xbd10669b	-0.035254102
60	0xbcd42947	-0.025898589
61	0x3c568b80	0.013094783
62	0x3cb61b1a	0.02222972
63	0xbbafb6fe	-0.0053623905
64	0x3e07a622	0.13246968
65	0xbd671cba	-0.05642388
66	0xbcebc3bc	-0.028779857
67	0xbd3f26d6	-0.046667896
68	0xbc5d97b1	-0.013524936
69	0xbdd06b3a	-0.10176702
70	0xbdc4054b	-0.09571322
71	0x3c41aaca	0.011820504
72	0x3d4256e2	0.04744614
73	0x3aef42ab	0.0018254122
74	0x3c2ae87e	0.010431407
75	0xbd0ee0e2	-0.034882434
76	0xbdc31762	-0.09525944
77	0xbdc9ab73	-0.098471545
78	0xbe15fb00	-0.1464653
79	0xbd11ceb1	-0.035597507
80	0x3d9e02dc	0.07715389
81	0x3cc0f022	0.023552004
82	0x3d8df7ec	0.06932053
83	0x3bc4f2f3	0.006010407
84	0xbd11661d	-0.035497773
85	0x3c1ff1ff	0.009762286
86	0xbd062350	-0.03274852
87	0xbd4cb28d	-0.049974967
88	0x3c0de33c	0.008660134
89	0x3cfd7203	0.030938154
90	0xbd4a3672	-0.04936833
91	0xbd352d14	-0.044232443
92	0x3d704252	0.058656998
93	0x3d17d48c	0.037067935
94	0xbd72aead	-0.059248615
95	0xbdc09502	-0.09403421
96	0xbcfb83ab	-0.030702433
97	0xbcae18c3	-0.021252042
98	0x3d5f279a	0.054481126
99	0x3be55888	0.006999079
100	0x3cf734d3	0.030176556
101	0xbd1e4ac7	-0.038645532
102	0x3d83dd01	0.064386375
103	0xbd2f5050	-0.0428012
104	0x3d54cc7c	0.051952824
105	0x3c32a11b	0.010902668
106	0x3d90bb8b	0.07067021
107	0xbc7a62d3	-0.015282351
108	0x3cf68b2e	0.030095663
109	0x3d93577d	0.071944214
110	0xbc4ceda5	-0.012507831
111	0x3d50a4c9	0.0509384
112	0x3d9bf4b7	0.07615035
113	0x3db0e27f	0.08636951
114	0xbd3f548d	-0.046711493
115	0x3da3903a	0.079864934
116	0x3d59fa38	0.053217143
117	0x3d837c81	0.064202316
118	0x3c9ed0f8	0.019386753
119	0xbd81df78	-0.063414514
120	0xbd0e52f6	-0.034747086
121	0xbd8de3d2	-0.06928219
122	0xbd1159fd	-0.03548621
123	0xbd2c6944	-0.042092577
124	0x3c25effc	0.0101280175
125	0x3bb04aeb	0.0053800247
126	0x3d3c9f82	0.046050556
127	0x3d08cd2c	0.033398792
128	0xbbe6e9a6	-0.007046896
129	0xbe08fb7a	-0.1337718
130	0x3d1bf468	0.03807488
131	0x3d9b982c	0.07597384
132	0xbd4cf3b1	-0.05003709
133	0x3c06c0aa	0.008224646
134	0x3d55c110	0.052186072
135	0xbda7857d	-0.08179758
136	0xbd9f91be	-0.0779147
137	0xbdc903c5	-0.09815172
138	0x3dd9b101	0.10629464
139	0x3bf70e85	0.0075395727
140	0xbc774325	-0.015091692
141	0xbcaa9269	-0.020821767
142	0xbd740e3a	-0.05958388
143	0xbcb2a1c2	-0.021805648
144	0xbd903787	-0.07041841
145	0x3d618d6e	0.05506652
146	0x3dba73bd	0.091041066
147	0x3cec9a7a	0.028882254
148	0x394a7b9d	0.0001931027
149	0x3d197d9f	0.037473317
150	0xbd28789e	-0.041130655
151	0xbdb5c62a	-0.088756874
152	0x3da27f3c	0.07934424
153	0xbb57013b	-0.003280713
154	0x3d93da04	0.072193176
155	0x3c9151c8	0.017739192
156	0x3a8ee611	0.0010902305
157	0xbd5107de	-0.051032893
158	0xbd119287	-0.03554013
159	0x3c92d5bb	0.01792418
160	0x3d602387	0.05472138
161	0x3d1ee8f5	0.038796384
162	0xbda01aa3	-0.078175806
163	0xbcb9231b	-0.022599747
164	0x3cd55b0a	0.026044387
165	0xbd83cc48	-0.06435448
166	0xbd9b29db	-0.07576343
167	0xbd33edef	-0.043928083
168	0x3d438990	0.04773861
169	0x3d4818f3	0.04885192
170	0xbd8a7158	-0.067599
171	0xbd43d8c7	-0.047814157
172	0xbdb01941	-0.08598567
173	0x3ca4ec91	0.020132335
174	0xbda3dea3	-0.08001449
175	0xbdef6a18	-0.11690158
176	0xbceecbe6	-0.02914996
177	0x3d9af14e	0.075655565
178	0xbde7fad9	-0.11327142
179	0xbd11b197	-0.035569753
180	0xbd8384a9	-0.06421787
181	0xbddd1edd	-0.10796902
182	0xbc9c9421	-0.019113602
183	0xbda252a2	-0.07925917
184	0xbcc1d842	-0.02366269
185	0xbd62a5ab	-0.055333775
186	0xbd90e9f6	-0.070758745
187	0xbc5bd6a7	-0.013417876
188	0x3d43cbf0	0.04780191
189	0xbc9ebeb3	-0.019378042
190	0xbe4480c3	-0.19189744
191	0xbd9b1777	-0.07572835
192	0x3d2677c0	0.040641546
193	0xbe022444	-0.12709147
194	0xbd8192ce	-0.06326829
195	0x3c94b38b	0.018152019
196	0xbdb06cb6	-0.08614485
197	0xbd55737e	-0.052112095
198	0xbda3c87d	-0.079972245
199	0xbe03331f	-0.1281247
200	0xbc827d09	-0.015928762
201	0xbe3a8534	-0.18214875
202	0x3c255201	0.010090352
203	0x3d02dbe9	0.031948004
204	0x3cac142a	0.021005709
205	0xbc96b223	-0.01839549
206	0x3d81d0be	0.063386425
207	0x3c80041b	0.015626958
208	0x3da7495f	0.08168291
209	0xbbc3f065	-0.005979585
210	0xbca134f0	-0.019678563
211	0xbbd1c48b	-0.0064016036
212	0xbd8a35a9	-0.06748516
213	0xbe04ea7f	-0.12980078
214	0xbcbab236	-0.022790056
215	0xbdd0ac73	-0.10189142
216	0xbc6b5b60	-0.014365047
217	0xbd10595c	-0.03524147
218	0xbd0aff5a	-0.03393493
219	0x3cc2dabe	0.023785945
220	0x3c466641	0.01210934
221	0x3c75c911	0.015001551
222	0x3df6cc39	0.12050671
223	0xbd01103c	-0.031509623
224	0x3ba23111	0.004949697
225	0x3d822425	0.0635455
226	0xbce5cc9e	-0.02805167
227	0x3d9f381f	0.07774376
228	0xbda10aec	-0.07863411
229	0x3bfb04ca	0.007660483
230	0x3ba06c3a	0.004895714
231	0x3b1754f5	0.002309141
232	0x3dcf2e20	0.101162195
233	0xbd06fe9d	-0.032957662
234	0x3dd2752d	0.10276256
235	0xbd94622e	-0.07245289
236	0x3c20c035	0.009811451
237	0x3dc4c93b	0.09608694
238	0xbc9d2571	-0.019182893
239	0xbc9daa79	-0.019246327
240	0x3dcb1bdf	0.09917425
241	0xba2fe934	-0.000671047
242	0xbe223c0d	-0.1584322
243	0x3d3c52dd	0.045977462
244	0xbc8f90bf	-0.017525075
245	0x3c38e8e0	0.0112859905
246	0x3cb83450	0.022485882
247	0xbcc6744f	-0.024225382
248	0xbca23868	-0.019802287
249	0xbc38e0a7	-0.01128403
250	0x3a9d0c83	0.0011981878
251	0xbd6cbbd8	-0.05779633
252	0x3db358b1	0.08757151
253	0xbc97b900	-0.018520832
254	0x3e2202c0	0.15821362
255	0x3d6988d6	0.057015263

features_extractor.value_net.0.bias f4 [64]
0	0xbc085ea2	-0.0083233435
1	0xbda4bca7	-0.08043795
2	0xbd33ee1f	-0.04392826
3	0xbd20a5f9	-0.039220784
4	0xbd9cb02c	-0.076507896
5	0x3c4ce564	0.012505863
6	0xbd2b2867	-0.041786578
7	0xbdeab5cd	-0.11460457
8	0xbd9660db	-0.073426925
9	0xbe1e32f7	-0.15449129
10	0xbdde8a27	-0.10866194
11	0xbc5b1a1d	-0.013372925
12	0xbc88b1d1	-0.016686352
13	0x3d626923	0.055276047
14	0xbd9de6e7	-0.07710057
15	0xbca8fdcf	-0.020628838
16	0xbe04d210	-0.12970757
17	0xbdf3a310	-0.11896336
18	0xbd567838	-0.052360743
19	0xbddbd9e5	-0.107349195
20	0xbcdddca8	-0.027082756
21	0xbd9d0f8b	-0.0766898
22	0xbdc5810d	-0.09643755
23	0xbe100b03	-0.140667
24	0x3d8354c8	0.06412655
25	0xbd987ba0	-0.074454546
26	0xbe0c1ac8	-0.13682091
27	0xbdef766d	-0.1169251
28	0xbe103e88	-0.14086354
29	0xbcbf4f5d	-0.023353273
30	0xbe039cc7	-0.12852775
31	0xbde14128	-0.10998756
32	0xbd686a3d	-0.05674194
33	0xbdc75747	-0.09733444
34	0x3d9c2a85	0.076252975
35	0xbd99d657	-0.07511585
36	0xbe2c30b1	-0.1681545
37	0x3d2c8bfd	0.04212569
38	0xbda2ec39	-0.07955212
39	0x3c654434	0.013993312
40	0xbdab3df6	-0.083614275
41	0x3d819116	0.06326501
42	0xbe1aa91e	-0.15103576
43	0x3c72ee25	0.014827286
44	0xbe1d985f	-0.15390156
45	0xbcd9a832	-0.02656946
46	0xbdf46d96	-0.11934964
47	0xbc9c27ec	-0.019062005
48	0xbd8f21f1	-0.06988896
49	0xbe1379d2	-0.1440194
50	0xbd746578	-0.05966708
51	0xbe2a690d	-0.16641636
52	0x3d1203c5	0.035648126
53	0xbdd0d421	-0.101967104
54	0xbd425ec5	-0.04745366
55	0xbc232c1f	-0.00995925
56	0xbe058a74	-0.13041097
57	0xbe19e5af	-0.15029024
58	0x3b6b6d4e	0.0035923305
59	0x3ccbb412	0.024866138
60	0xbe249a82	-0.16074565
61	0xbd7cd556	-0.06172689
62	0xbdcc8abd	-0.099874
63	0xbc10ffe0	-0.008850068

features_extractor.value_net.2.weight f4 [1, 64]
0	0x3d504979	0.05085132
1	0x3cd8eecf	0.02648106
2	0xbc3883e8	-0.011261918
3	0x3cfd716a	0.03093787
4	0xbc9c3537	-0.019068344
5	0x3ccfd1b2	0.025368545
6	0x3d020b5f	0.031749126
7	0xbcdc9c7a	-0.026930083
8	0xbc45ed03	-0.012080434
9	0xbb9672b7	-0.004591312
10	0xb90bb4a4	-0.00013323367
11	0x3d361cee	0.044461183
12	0x3c81fe3e	0.015868302
13	0x3cc4843f	0.023988841
14	0xbc7f9731	-0.015600012
15	0x3b4a3cb9	0.0030858947
16	0xbc9133af	-0.01772484
17	0xbcec26dc	-0.028827123
18	0x3d442345	0.0478852
19	0x3b05eba8	0.0020434652
20	0x3d76a20a	0.060213126
21	0xbca9016b	-0.020630559
22	0x3cd8e8cc	0.026478194
23	0x3c6652ce	0.014057828
24	0x3c35d670	0.011098489
25	0xbd061ed4	-0.032744244
26	0xbd747e10	-0.059690535
27	0x3afe2bd0	0.0019391719
28	0xbc02e203	-0.007988456
29	0x3d220e81	0.039564613
30	0xbd139d2e	-0.03603857
31	0x3bed5647	0.007242951
32	0xbc3d271d	-0.01154497
33	0xbabf139f	-0.0014577991
34	0x3be6f6d2	0.0070484662
35	0xbd645604	-0.055746093
36	0xbd48b236	-0.04899808
37	0x3d76b70d	0.060233165
38	0x3cc756db	0.024333408
39	0x3d674c0c	0.05646901
40	0xbd4590ff	-0.048233982
41	0x3d235a59	0.039881084
42	0xbbf95387	-0.007608834
43	0x3cd3782c	0.025814138
44	0xbd087b0f	-0.033320483
45	0x3d82f0b6	0.06393568
46	0xbcaf8059	-0.021423506
47	0x3c4f1b5f	0.012640803
48	0x3c4aca7e	0.012377379
49	0xbbbed221	-0.005823389
50	0x3c9df565	0.019282052
51	0xbbd1ebfb	-0.006406305
52	0xba1c020a	-0.00059512316
53	0xbc707d82	-0.014678361
54	0xbd041491	-0.032246176
55	0x3c43bd6c	0.011947017
56	0xba1f247f	-0.0006070807
57	0xbcccba9e	-0.02499133
58	0x3c661d48	0.014045067
59	0x3c4ecea4	0.012622509
60	0xbd3b7a12	-0.045770712
61	0x3bd6a48c	0.0065503772
62	0x3c155989	0.009115585
63	0xbc930507	-0.017946733

action_net.weight f4 [2, 64]
0	0xbe22b8f1	-0.15890862
1	0xbe3f3132	-0.1867111
2	0xbdc5f41e	-0.09665702
3	0xbe53ad88	-0.20671666
4	0xbe29e5dd	-0.16591592
5	0x3e06d3b6	0.13166699
6	0xbdb6a9b4	-0.08919087
7	0x3e5ea0d4	0.21741039
8	0xbe256795	-0.16152795
9	0xbe3a6af5	-0.18204863
10	0x3e870deb	0.26377806
11	0x3e1193b9	0.14216508
12	0xbe2bb8f6	-0.16769776
13	0xbe32981b	-0.17440836
14	0x3e2ffd6a	0.17186514
15	0xbe63a38b	-0.22230355
16	0x3ddab5fc	0.10679242
17	0x3e18eab1	0.14933278
18	0x3dc74ebc	0.09731814
19	0x3db2874d	0.08717213
20	0xbd5e2bce	-0.054240994
21	0xbda28a98	-0.07936591
22	0x3e376e9f	0.17913292
23	0x3dd0292f	0.10164105
24	0x3e6e5f58	0.23278558
25	0x3e46c9d4	0.19412929
26	0xbe1908b9	-0.14944734
27	0xbe33adff	-0.17546843
28	0x3c839f2f	0.016067116
29	0x3e285a4e	0.16440699
30	0xbc9cc2b0	-0.019135803
31	0xbe17a854	-0.14810306
32	0x3e2beffa	0.16790763
33	0x3daef1c8	0.0854221
34	0x3e017a6e	0.1264436
35	0xbe015fca	-0.12634197
36	0x3e4d4d98	0.20049131
37	0xbe12c2e7	-0.14332162
38	0xbe5418d4	-0.20712596
39	0xbe29d699	-0.16585769
40	0x3e3ed350	0.18635297
41	0xbde7819b	-0.11304017
42	0x3e1ce682	0.15322307
43	0xbe5d44b6	-0.21608242
44	0xbe3df9bb	-0.18552296
45	0xbe53e84f	-0.20694087
46	0x3e5637f9	0.2091979
47	0xbe57eae3	-0.21085696
48	0x3e3e2473	0.18568592
49	0x3d9800a8	0.07422
50	0x3dbd0a36	0.09230463
51	0x3e312535	0.1729935
52	0xbd9d99fc	-0.07695386
53	0xbe1796db	-0.1480364
54	0xbe170a22	-0.14749959
55	0x3e306a4c	0.17228049
56	0xbe185578	-0.14876354
57	0xbd8c86ae	-0.068616256
58	0x3e6ee272	0.2332857
59	0xbd51cdee	-0.05122178
60	0xbe6be6fc	-0.23037332
61	0xbe37d2a2	-0.17951444
62	0x3d4ccb16	0.049998365
63	0xbe8212be	-0.25404924
64	0xbe12866a	-0.14309087
65	0x3b121667	0.0022291185
66	0xbdfcb69e	-0.12339519
67	0xbde53031	-0.111908324
68	0x3e2d8ca2	0.16948178
69	0xbe4407c9	-0.19143595
70	0x3e8ae445	0.2712728
71	0x3d14b97f	0.036309715
72	0xbe0b2a29	-0.13590302
73	0xbdd30caf	-0.103051536
74	0x3d418237	0.047243323
75	0xbd2f9df2	-0.042875238
76	0xbb3287fa	-0.0027241693
77	0x3d83bfe3	0.06433084
78	0x3dbf3164	0.093355924
79	0x3e5da197	0.21643673
80	0xbe4979f4	-0.19675428
81	0xbe3d913d	-0.18512435
82	0xbe698818	-0.22805822
83	0xbe1287c0	-0.14309597
84	0xbdea0f81	-0.114287384
85	0x3e521ee5	0.20519598
86	0xbe80cd49	-0.2515662
87	0x3df0e063	0.11761548
88	0x3deb4529	0.11487801
89	0x3e2d922b	0.1695029
90	0x3dc5d7e0	0.096603155
91	0x3e5e9f72	0.21740511
92	0x3e79de0d	0.24401112
93	0x3e2fee00	0.17180634
94	0x3e5955ca	0.21224132
95	0xbdf82e57	-0.121182136
96	0xbcb077a5	-0.021541426
97	0xbe4aa9c0	-0.19791317
98	0xbe3c37e9	-0.18380703
99	0x3df1bf75	0.11804096
100	0x3e1ee1cc	0.15515822
101	0x3e7de4c3	0.24794297
102	0x3e40b58c	0.18819255
103	0x3e4bcac2	0.19901565
104	0xbe62ac2d	-0.22135992
105	0xbe2b19d4	-0.16709071
106	0xbe1ed5a4	-0.15511185
107	0xbd514356	-0.051089607
108	0x3dbe6aa0	0.09297681
109	0xbe0acc95	-0.13554604
110	0xbc1ec822	-0.00969127
111	0xbdeaaa7c	-0.114582986
112	0xbdd75d6c	-0.10515866
113	0x3e5a2f0d	0.21307011
114	0xbb05b6ac	-0.002040307
115	0x3ccd1a5c	0.025036983
116	0x3e76e297	0.24109875
117	0xbe2a3411	-0.16621424
118	0xbcabcb78	-0.020971045
119	0x3dbf994d	0.09355412
120	0xbe26abab	-0.16276424
121	0xbe83cbf0	-0.2574153
122	0xbbd70698	-0.0065620653
123	0x3e270f9a	0.16314545
124	0x3aff5e07	0.0019482978
125	0xbbcadf07	-0.0061911377
126	0x3e4cac12	0.19987515
127	0xbd7d4daa	-0.061841644

action_net.bias f4 [2]
0	0xbd5307d9	-0.051521156
1	0xbb198c42	-0.0023429547
