weights/cnn-nd-2-eps-100.pth (torch, 568288 bytes, 16 tensors)

log_std f4 [2]
0	0x3d140d9f	0.036145803
1	0x3d388e4e	0.045057587

features_extractor.encoder.0.weight f4 [16, 1, 3, 3]
0	0x3e90ae42	0.28257948
1	0x3e9f0248	0.31056428
2	0xbd281e45	-0.041044492
3	0x3ead927e	0.33900827
4	0xbd185aa3	-0.037195813
5	0x3dcf9a90	0.10136902
6	0xbe0ec74b	-0.13943212
7	0x3e6e1368	0.2324959
8	0x3ea765fc	0.32694995
9	0xbe6fcff6	-0.23419175
10	0x3ea1ca3e	0.3159961
11	0x3daf1b5a	0.08550139
12	0x3e89d57e	0.26920694
13	0x3d900685	0.070324935
14	0x3e40f659	0.18843974
15	0xbcbb9e0e	-0.022902515
16	0x3e9442c7	0.28957197
17	0x3dac2816	0.08406083
18	0xbe1807ad	-0.14846678
19	0x3e115157	0.14191185
20	0xbe031163	-0.12799601
21	0xbd7d4595	-0.061833937
22	0xbe0f2738	-0.13979805
23	0x3e6bee5a	0.23040143
24	0xbe4439f2	-0.1916273
25	0xbe512b12	-0.20426586
26	0xbda61596	-0.08109586
27	0xbe848ad6	-0.25887173
28	0xbc8e16e3	-0.017344898
29	0xbebdd1f9	-0.3707426
30	0x3e916abd	0.28401747
31	0xbe9a6036	-0.30151528
32	0x3e8145a6	0.2524845
33	0x3d7b01ef	0.06128114
34	0xbddda0af	-0.108216636
35	0x3e57d3de	0.21076915
36	0x3da0f3d7	0.07859009
37	0x3e9aed18	0.30259013
38	0x3d727956	0.059197746
39	0xbda9e50d	-0.08295641
40	0x3df340df	0.118776076
41	0xbd9172d4	-0.0710198
42	0x3e29476c	0.16531152
43	0x3eab68fb	0.3347853
44	0x3e5dc4cf	0.21657108
45	0xbe37b9d7	-0.17941986
46	0x3e14e3ee	0.14540073
47	0x3c2b6e45	0.010463302
48	0x3db7b64c	0.08970317
49	0xbe5593a7	-0.20857106
50	0xbebb5909	-0.36591366
51	0xbe2e8d63	-0.17046122
52	0xbe824e39	-0.25450304
53	0x3eabdee0	0.33568478
54	0x3ddae1ce	0.106876
55	0x3e3bad7b	0.18327896
56	0x3e2bd056	0.16778693
57	0x3cb2e80c	0.021839164
58	0x3e9f2793	0.3108488
59	0xbe46785d	-0.19381852
60	0x3d1ca1b2	0.038240142
61	0xbe3ba3f5	-0.18324263
62	0x3e1b1a2d	0.15146704
63	0xbe0195ad	-0.12654753
64	0x3e055995	0.13022454
65	0xbce652ed	-0.028115714
66	0x3e9685ad	0.29398862
67	0xbe5120f0	-0.20422721
68	0xbe2011eb	-0.15631835
69	0xbe79d800	-0.24398804
70	0x3e966a49	0.29377964
71	0x3dcb5cd5	0.09929816
72	0x3ea7a7b1	0.32745126
73	0xbe6fd08d	-0.234194
74	0xbeb39094	-0.35071242
75	0xbe985201	-0.29750064
76	0xbe362b36	-0.17789921
77	0x3e631742	0.22176841
78	0x3e020025	0.12695368
79	0x3ea45ae5	0.32100597
80	0xbe19cab5	-0.15018733
81	0xbe8be972	-0.27326542
82	0x3e70a68d	0.23501034
83	0xbda06c0e	-0.0783311
84	0x3e63993a	0.2222642
85	0xbc733289	-0.0148435915
86	0x3e88ee0c	0.26744115
87	0xbe736c22	-0.23771718
88	0xbd9f144a	-0.07767542
89	0x3e3b0802	0.18264773
90	0x3dfdd8a7	0.12394839
91	0xbd5924a9	-0.053013477
92	0x3e4a4d86	0.19756135
93	0x3e8e7e7c	0.27830875
94	0xbe4554da	-0.1927065
95	0xbe3c7b2f	-0.18406366
96	0x3eb9c713	0.36284694
97	0xbd878adb	-0.066182815
98	0xbdea5214	-0.114414364
99	0xbea522db	-0.32253155
100	0xbe4378b0	-0.19089007
101	0x3daa885c	0.0832679
102	0xbd3436f8	-0.043997735
103	0xbe77c4e3	-0.241962
104	0x3c001ae0	0.0078189075
105	0xbe692893	-0.22769384
106	0xbe90cb04	-0.2827989
107	0xbe3bf5a3	-0.18355422
108	0xbeb830fc	-0.35974872
109	0xbe66733f	-0.225049
110	0x3eaf74a7	0.34268686
111	0xbbb0ae0f	-0.005391843
112	0x3d8fe596	0.07026212
113	0xbe9f099c	-0.3106202
114	0xbe6af15f	-0.22943638
115	0xbdf8c916	-0.12147729
116	0x3da8c804	0.08241275
117	0xbe962c5a	-0.29330713
118	0xbe18efa3	-0.14935164
119	0xbe4c5876	-0.1995562
120	0xbd8d4ab9	-0.06899018
121	0xbdfe05c0	-0.124034405
122	0xbd869b72	-0.065726176
123	0xbe674c30	-0.22587657
124	0xbe6a4a20	-0.22879839
125	0xbe47226e	-0.19446728
126	0xbe0957b4	-0.13412362
127	0xbe83a61d	-0.25712672
128	0x3e93b20b	0.28846774
129	0xbd92a695	-0.07160679
130	0x3e96b19e	0.29432386
131	0x3e04993b	0.12949078
132	0xbe9bd5f1	-0.30436662
133	0x3e766f43	0.2406588
134	0xbd8c9145	-0.068636455
135	0xbe293f6a	-0.16528097
136	0xbe9b8a1d	-0.3037881
137	0xbe9005c1	-0.2812939
138	0x3bfc6d19	0.007703435
139	0xbd9b559d	-0.07584689
140	0x3e2fba50	0.17160916
141	0xbeba2c68	-0.36362004
142	0x3eb6e7da	0.35723764
143	0xbe4f7d6b	-0.20262687

features_extractor.encoder.0.bias f4 [16]
0	0xbcfaee8b	-0.030631324
1	0x3d3b9aed	0.045802046
2	0x3e36a998	0.17838132
3	0x3e77a3b3	0.2418354
4	0x3e8dfd1a	0.27732164
5	0xbe55888a	-0.20852867
6	0x3d430222	0.047609456
7	0xbe15b813	-0.14621
8	0xbbfc143d	-0.0076928423
9	0xbe2ce340	-0.16883564
10	0x3e8905fa	0.26762372
11	0xbe7a8593	-0.24465017
12	0x3e444863	0.19168238
13	0x3e246838	0.16055381
14	0x3dc33554	0.09531656
15	0xbd7ccef2	-0.061720796

features_extractor.encoder.2.weight f4 [16, 16, 3, 3]
0	0x3dcab35c	0.09897491
1	0x3d456724	0.048194066
2	0x3d36b14c	0.044602677
3	0xbdbdec5d	-0.09273598
4	0x3c593857	0.013258061
5	0xbd182967	-0.03714886
6	0xbd629400	-0.055316925
7	0x3d287a88	0.04113248
8	0xbcb453b4	-0.022012569
9	0xbcddbc3f	-0.027067302
10	0xbc891ea5	-0.016738245
11	0x3cc0f9e0	0.02355665
12	0x3ce0219d	0.027359778
13	0xbd2eb742	-0.042655237
14	0xbd7d0827	-0.061775353
15	0xbd2bf303	-0.0419798
16	0xbdae9140	-0.08523798
17	0x3b935353	0.004496017
18	0x3d8dca64	0.069233686
19	0xbdae5507	-0.085123114
20	0x3c71d37e	0.014759896
21	0x3d47b84b	0.04875974
22	0x3d0eafe0	0.034835696
23	0xbcbffef8	-0.023437008
24	0x3d72a0d7	0.05923542
25	0x3d6a4d9b	0.057202917
26	0x3d43f611	0.04784209
27	0xbc9c14ba	-0.019052852
28	0xbd20b20e	-0.039232306
29	0x3c36f65f	0.011167138
30	0xbc4eebae	-0.012629433
31	0xbc543418	-0.012951873
32	0x3d5d61be	0.054048292
33	0x3daaf434	0.08347359
34	0x3c2147df	0.009843796
35	0xbbc1f307	-0.0059188637
36	0x3c124b5e	0.008929102
37	0x3c0876e5	0.008329128
38	0x3d0f29b3	0.034951877
39	0x3c3d0c40	0.011538565
40	0xbdb9dec9	-0.09075696
41	0xbd3f9354	-0.046771362
42	0x3d8103bb	0.0629954
43	0x3ca02cad	0.019552553
44	0xbcbd6d55	-0.023123423
45	0xbd50c3ec	-0.050968096
46	0xbc50c47d	-0.012742159
47	0xbdcecf78	-0.10098165
48	0xbd517194	-0.051133707
49	0x3c5d28ef	0.013498529
50	0x3dab82c3	0.0837455
51	0x3db45213	0.08804717
52	0xbd8640e5	-0.065553464
53	0xbda67fb9	-0.0812983
54	0x3cb6f6f6	0.022334557
55	0x3df40d69	0.1191662
56	0x3d582a51	0.05277473
57	0xbcfac366	-0.030610751
58	0x3cf0c777	0.029391987
59	0xbd01a1f0	-0.031648576
60	0xbd95ce4b	-0.07314738
61	0x3cd91ade	0.02650207
62	0xbd8f48ec	-0.069963306
63	0x3d4a0fe8	0.049331576
64	0x3ca3f054	0.020012058
65	0x3dcd2c6a	0.10018237
66	0x3de0f24d	0.10983715
67	0x3dc6ac64	0.0970085
68	0xbcf3c16e	-0.02975532
69	0xbd99d001	-0.07510377
70	0xbd6e209a	-0.05813656
71	0x3d65f111	0.056138102
72	0x3d5b21e4	0.053499117
73	0x3dafd516	0.08585565
74	0x3e11bded	0.14232607
75	0x3dab448e	0.08362685
76	0x3ddf2ae1	0.108968504
77	0xbc280c39	-0.01025682
78	0xbd1799ac	-0.037011787
79	0x3c5ce6d8	0.013482772
80	0x3d5f4e37	0.05451795
81	0x3c1f4ee5	0.0097234
82	0x3cc14302	0.023591522
83	0x3d548112	0.051880904
84	0xbd480580	-0.04883337
85	0xbcc522e3	-0.024064487
86	0x3c70ef8a	0.014705548
87	0xbd083818	-0.03325662
88	0xbd439e23	-0.047758233
89	0x3d106781	0.03525496
90	0xbc409296	-0.011753699
91	0xbd3478da	-0.044060566
92	0xbc01602f	-0.007896467
93	0xbd24ab54	-0.040202454
94	0xbca972bc	-0.020684592
95	0xbda981fa	-0.08276744
96	0x3d31dca9	0.04342333
97	0xbd6b81cd	-0.057496835
98	0x3d19de2c	0.037565395
99	0x3d1ae446	0.037815355
100	0x3d73dc16	0.059536062
101	0xbd82e904	-0.063921005
102	0x3d757c62	0.059933074
103	0xbd215dab	-0.03939597
104	0x3cfd510c	0.030922435
105	0x3da0468d	0.078259565
106	0xbc408e38	-0.011752658
107	0xba28f080	-0.00064445287
108	0xbcb50eb8	-0.022101745
109	0xbd81e527	-0.063425355
110	0x3c8b5428	0.017007902
111	0xbd858e97	-0.065213375
112	0x3d6924a9	0.056919727
113	0x3da8e443	0.082466625
114	0x3dc4fcdc	0.096185416
115	0xbae039cd	-0.001710707
116	0xbd527b2c	-0.051386997
117	0xba730fc9	-0.00092720665
118	0x3c394dd4	0.01131006
119	0xbe0047e4	-0.12527424
120	0xbc8d0574	-0.017214514
121	0xbd737b06	-0.059443496
122	0xbc887904	-0.016659267
123	0xbcfc5a77	-0.030804856
124	0xbc99c963	-0.018772786
125	0xbc186014	-0.009300251
126	0xbd63ad34	-0.0555851
127	0x3dc438e8	0.095811665
128	0x3dda4765	0.10658149
129	0xbc7eccda	-0.01555177
130	0xbca2d936	-0.019878965
131	0xbcd42f8b	-0.025901577
132	0xbdb26c6c	-0.08712086
133	0xbdc45a8b	-0.09587582
134	0x3d2416cc	0.040060803
135	0xbc8770c5	-0.016533265
136	0xbdcd32a1	-0.10019422
137	0x3c920856	0.01782624
138	0xbd3512ca	-0.04420737
139	0x3d4dd69f	0.050253507
140	0xbd21dbeb	-0.03951637
141	0x3cf3f9e1	0.029782237
142	0x3c2291f1	0.00992249
143	0xbd7646fb	-0.060126286
144	0xbe0f6438	-0.14003074
145	0x3b1635fd	0.0022920363
146	0xbd06067f	-0.03272104
147	0x3c4a7a69	0.012358286
148	0xbdcc77d0	-0.0998379
149	0xbdc71e95	-0.0972263
150	0x3de008d4	0.10939184
151	0x3d50305c	0.05082737
152	0xbe2855cd	-0.1643898
153	0xbd2ba16f	-0.041902002
154	0x3ce5f78d	0.028072143
155	0x3ce9dabe	0.028546687
156	0x3d82c238	0.063847005
157	0x3d21513c	0.03938411
158	0xbda1c26e	-0.07898413
159	0x3d24bdf0	0.0402202
160	0xbd6473fd	-0.055774678
161	0xbdb09e4d	-0.086239435
162	0x3debf524	0.11521366
163	0x3dd4a754	0.10383478
164	0xbce4f0c8	-0.027946845
165	0xbe0b2dec	-0.13591737
166	0xbd0dda2a	-0.034631886
167	0xbd413925	-0.047173638
168	0xbd230c96	-0.039806925
169	0x3bab93db	0.0052361316
170	0x3dad7e66	0.08471374
171	0x3b86cac8	0.004113529
172	0xbd940fb6	-0.07229559
173	0xbd686f2e	-0.056746654
174	0x3dd14412	0.102180615
175	0xbd0a3398	-0.03374061
176	0xb94d98a2	-0.00019607184
177	0x3d5c33a0	0.05376017
178	0xbd033dd9	-0.032041404
179	0x3b0377c0	0.002006039
180	0xbd20a23b	-0.039217215
181	0xbd1a9b8b	-0.037745994
182	0xbd1f0872	-0.038826413
183	0xbd7bc829	-0.061470184
184	0xbd9f54f5	-0.07779876
185	0xbd20cafc	-0.03925608
186	0x3dd40548	0.1035257
187	0xbced5c40	-0.028974652
188	0xbd8cdca0	-0.068780184
189	0x3d899add	0.06718991
190	0xbc259179	-0.010105484
191	0x3d76c34c	0.060244843
192	0x3e0694bd	0.13142677
193	0x3cb4cbea	0.02206989
194	0xbdead0f9	-0.114656396
195	0x3d8a7150	0.06759894
196	0xbc20108e	-0.009769572
197	0xbcac5b05	-0.021039495
198	0xbd8bbc12	-0.06822981
199	0x3d868d5f	0.06569933
200	0xbce49057	-0.027900858
201	0xbdb2e599	-0.087351985
202	0xbdf1ebc7	-0.11812549
203	0xbba4e7e1	-0.005032525
204	0x3d9b9740	0.07597208
205	0x3cefbd73	0.029265141
206	0xbcb779a0	-0.022396863
207	0xbcaefdd6	-0.021361273
208	0xbdb2ff5f	-0.087401144
209	0xbcbf3c36	-0.02334414
210	0x3e72f83c	0.23727506
211	0x3e41ce12	0.18926266
212	0xbdc1d4a9	-0.0946439
213	0x3d667f93	0.056274008
214	0x3d8fa13c	0.07013175
215	0xbdb3829d	-0.08765147
216	0x3c620886	0.013795977
217	0xbcf003f8	-0.029298767
218	0x3d879749	0.06620652
219	0x3d1eae0e	0.03874021
220	0x3d5eb39a	0.0543705
221	0xbdbc2524	-0.091867715
222	0x3cf5eef2	0.030021165
223	0x3dcffaea	0.1015528
224	0x3d1da2f5	0.038485486
225	0x3cba8030	0.022766203
226	0xbdbdc7d6	-0.09266631
227	0x3c81276a	0.015765864
228	0x3dac0d38	0.08400959
229	0xbdd8d4cc	-0.10587463
230	0xbcd958f0	-0.026531667
231	0x3d17b07c	0.037033543
232	0x3d46efb3	0.04856844
233	0x3c53af02	0.012920143
234	0x3d1af69f	0.037832852
235	0xbd9baa99	-0.07600898
236	0xbd7a5c58	-0.061123222
237	0x3d3d6af7	0.046244588
238	0x3d0e88d5	0.034798462
239	0xbd1b83bd	-0.037967432
240	0x3bb1882f	0.0054178457
241	0x3d8885af	0.06666123
242	0x3d12c756	0.035834633
243	0x3b766800	0.003759861
244	0xbca80130	-0.020508379
245	0xbd9a8dd2	-0.07546581
246	0xbda0787a	-0.07835479
247	0xbd232998	-0.03983459
248	0xbd2d81ce	-0.04236012
249	0x3cd4aff0	0.0259628
250	0xbcc6bb4c	-0.024259232
251	0xbd058983	-0.032601845
252	0x3e0c6141	0.13708974
253	0x3dc19707	0.09452634
254	0x3daba5b5	0.083812155
255	0xbd70ff0e	-0.05883699

features_extractor.encoder.2.bias f4 [16]
0	0x3c6a2331	0.014290617
1	0xbc84b396	-0.016198914
2	0x3d86a672	0.06574716
3	0xbd4df07b	-0.05027817
4	0x3d4fe9fb	0.05076025
5	0xbdac7dba	-0.08422418
6	0xbcfca9c7	-0.030842675
7	0xbd5b71f6	-0.05357548
8	0xbce0e404	-0.027452476
9	0x3cec215e	0.028824504
10	0xbd6b1956	-0.05739721
11	0xbd96be3c	-0.07360503
12	0x3d57da4a	0.05269841
13	0x3d530381	0.051517013
14	0xbbad419f	-0.0052873637
15	0xbd5ef74f	-0.05443507

features_extractor.encoder.4.weight f4 [16, 16, 3, 3]
0	0x3a72fcce	0.0009269238
1	0xbc395f7a	-0.011314267
2	0x3d335aeb	0.043787878
3	0xbd51e348	-0.051242143
4	0xbd6085ec	-0.054815218
5	0xbd907d93	-0.070552014
6	0x3c3a906f	0.011386975
7	0x3dd457f8	0.10368341
8	0x3db8b75f	0.0901935
9	0x3d6f4515	0.05841549
10	0x3d6f3ce5	0.058407683
11	0x3dd90c97	0.105981044
12	0x3ce87912	0.028378043
13	0xbbed963c	-0.0072505753
14	0x3d40ce58	0.047071785
15	0xbd1df9e5	-0.038568396
16	0x3d8bb96e	0.06822477
17	0x3cb43158	0.021996185
18	0x3d99dc09	0.075126715
19	0x3bd5e474	0.006527478
20	0x3d89f2d4	0.06735769
21	0xbd382792	-0.044959612
22	0xbd52c233	-0.051454734
23	0xbd2c0c3e	-0.042003863
24	0xbde3847a	-0.11109252
25	0xbd730675	-0.05933233
26	0xbd9671a0	-0.07345891
27	0xbb711ffd	-0.0036792748
28	0xba6d460d	-0.0009051271
29	0xbcbbb0e7	-0.022911502
30	0xbd4aac25	-0.049480576
31	0x3db5d014	0.088775784
32	0xbd01928b	-0.031633895
33	0x3d22a9d2	0.039712735
34	0x3d694893	0.056953978
35	0xbd6060b8	-0.05477974
36	0xbc8c689c	-0.017139725
37	0x3d5a73b4	0.053333
38	0x3da79eae	0.081845626
39	0xbc8470a4	-0.016166992
40	0x3d813454	0.06308809
41	0xbda50220	-0.08057046
42	0xbda13aa3	-0.07872512
43	0xbb8090e9	-0.0039235246
44	0xbd9d8080	-0.07690525
45	0x3db5f5f1	0.088848
46	0x3cbe399e	0.023220833
47	0xbd04f7fe	-0.032463066
48	0x3dd3c12a	0.103395775
49	0x3dd2e621	0.102978
50	0x3c7fccb4	0.01561277
51	0xbd7c8148	-0.06164673
52	0xbca6fb88	-0.020383611
53	0xbd8125a0	-0.063060045
54	0x3d95f235	0.07321588
55	0x3c2bda7b	0.0104891015
56	0x3c406d59	0.0117448205
57	0x3da1d6b4	0.079022795
58	0x3d4a2fdc	0.04936205
59	0xbd306e2c	-0.043073818
60	0x3d8d48d6	0.06898658
61	0x3cbc91b4	0.023018695
62	0xbdd2cc90	-0.102929235
63	0x3d4cf084	0.05003406
64	0x3cd40382	0.025880579
65	0xbc98f8e6	-0.018673372
66	0xbdac56d1	-0.084149964
67	0xbd69a08e	-0.057037883
68	0xbdb0a42d	-0.08625064
69	0x3d5a2261	0.053255443
70	0x3d58eb3b	0.05295871
71	0xbce533d7	-0.02797882
72	0x3da79eca	0.081845835
73	0xbd5247d6	-0.05133804
74	0xbbe5058a	-0.0069891857
75	0xbd1df003	-0.03855897
76	0xbc87877d	-0.016544098
77	0xbc05e9b8	-0.008173399
78	0x3dcbb840	0.09947252
79	0x3c9646be	0.01834428
80	0xbd567074	-0.052353337
81	0x3da54b79	0.08071036
82	0x3d95f8a5	0.07322816
83	0x3c6788ca	0.014131734
84	0xbcb12aac	-0.021626793
85	0x3d148501	0.036259655
86	0xbc14db14	-0.009085435
87	0x3d885a17	0.06657808
88	0xbc9a2af2	-0.018819306
89	0xbd2e28fe	-0.042519562
90	0x3ca8829b	0.02057009
91	0x3d4b4496	0.049625956
92	0xbcdb7297	-0.02678804
93	0x3e1a9296	0.1509498
94	0x3da7e1f7	0.08197396
95	0xbd5ca10b	-0.05386452
96	0x3c734320	0.014847547
97	0xbd8af4e3	-0.0678499
98	0xbd805f2b	-0.06268152
99	0x3cb97b71	0.02264187
100	0x3d137582	0.036000736
101	0x3c475561	0.012166352
102	0x3db76bb9	0.08956093
103	0xbc8fb480	-0.017542124
104	0xbc71d4fa	-0.01476025
105	0xbcbb7fce	-0.02288809
106	0xbbfb301f	-0.0076656486
107	0xbce8ad06	-0.028402817
108	0x3d9a1499	0.0752346
109	0xbd2e9cd7	-0.042630043
110	0xbd30747e	-0.043079846
111	0x3c9f8d9d	0.019476706
112	0x3daf590c	0.08561906
113	0x3d06bd1d	0.032895196
114	0x3d28c765	0.041205782
115	0x3cb866ef	0.02251002
116	0x3d8b1e29	0.06792862
117	0x3cb84924	0.022495814
118	0x3d543907	0.051812198
119	0xbcfb1a74	-0.030652262
120	0xbdb96f7e	-0.090544686
121	0xbd71890b	-0.058968585
122	0x3cb77d6c	0.022398673
123	0x3ccd4823	0.025058812
124	0xbd7aa57d	-0.06119298
125	0x3d1d5dc6	0.038419507
126	0xbcd7a784	-0.026324995
127	0xbd058cde	-0.032605045
128	0xb83ac9f9	-4.4533957e-05
129	0xbd251116	-0.040299498
130	0x3da3d7e6	0.08000164
131	0xbc3900b1	-0.011291669
132	0x3d1cbbd0	0.03826505
133	0xbd96cf0e	-0.07363711
134	0xbd812244	-0.06305364
135	0x3d04cd69	0.032422457
136	0x3da0bc4b	0.07848414
137	0x3d160a30	0.03663081
138	0x3d3ac008	0.04559329
139	0xbd69981f	-0.05702984
140	0xbaa5b2ac	-0.0012641749
141	0xbd93a560	-0.07209277
142	0xbdb807d0	-0.08985865
143	0xbc3aab77	-0.0113934195
144	0xbddd6dee	-0.10811983
145	0x3d38fbe8	0.04516211
146	0xbd89693c	-0.06709525
147	0x3c7c7530	0.015408799
148	0x3d6342f1	0.055483762
149	0xbd9aa45f	-0.075508825
150	0xbc34776b	-0.0110148
151	0xbc526110	-0.012840524
152	0x3d3a39bc	0.045465216
153	0x3d55f3f3	0.0522346
154	0xbd8d5b83	-0.0690222
155	0x3d155a9d	0.03646337
156	0x3ba577d8	0.005049687
157	0xbcf5e989	-0.030018585
158	0xbcfa213a	-0.030533422
159	0x3d954f14	0.072904736
160	0xbd4c0448	-0.04980877
161	0xbcd39db2	-0.02583203
162	0x3da0bca8	0.07848483
163	0x3d8221d9	0.06354112
164	0xbd151021	-0.036392335
165	0x3d363125	0.04448046
166	0xbcbcd169	-0.023049073
167	0xbd742668	-0.05960694
168	0x3ce22602	0.027606014
169	0xbd148f55	-0.036269505
170	0xbcdce2f6	-0.026963692
171	0x3bc18e50	0.0059068576
172	0x3ca6d2d0	0.020364195
173	0xbd542db6	-0.051801406
174	0xbd662ec6	-0.05619695
175	0xbd9d08e7	-0.076677136
176	0x3cb063cc	0.021531962
177	0xbd5c3d03	-0.053769123
178	0x3bd01980	0.006350696
179	0xbc98af1c	-0.018638186
180	0xbdb321ac	-0.08746657
181	0xbcfd7a2c	-0.030942045
182	0xbcd06c92	-0.025442395
183	0xbdd0beb1	-0.101926215
184	0xbcd89044	-0.026435979
185	0xbd515f8e	-0.05111652
186	0xbdbc6d7f	-0.09200572
187	0x3d3eeddb	0.046613555
188	0x3c545e64	0.012961958
189	0xbd3853d2	-0.045001812
190	0x3d30965a	0.043112136
191	0x3dfb1c7b	0.122612916
192	0xbe03505b	-0.12823622
193	0xbc6b0dfa	-0.014346594
194	0xbc838754	-0.01605574
195	0xbd91ef7e	-0.07125758
196	0xbd684bdd	-0.056712974
197	0xbd923c4a	-0.071404055
198	0x3d8ba1b9	0.068179555
199	0xbb81a265	-0.0039561265
200	0x3dd98d0a	0.10622604
201	0xbd6d38e2	-0.057915576
202	0x3c81cb94	0.015844144
203	0x3d0a86e9	0.033820067
204	0xbd9e9f3a	-0.07745214
205	0x3d3d75a4	0.04625477
206	0xbd4ad996	-0.049523912
207	0xbd7309d7	-0.059335556
208	0xbda09777	-0.078413896
209	0xbd244ecb	-0.040114205
210	0x3da5d4e2	0.08097245
211	0x3d717d62	0.058957465
212	0xbd64ed08	-0.055890113
213	0xbd9b4698	-0.07581824
214	0x3d8b7a48	0.06810433
215	0x3c26b848	0.010175772
216	0x3d9c00b6	0.07617323
217	0xbc98a034	-0.018631078
218	0xbd838955	-0.064226784
219	0x3afdac31	0.0019353685
220	0x3e03b8f5	0.12863524
221	0xbd2d33f6	-0.042285882
222	0xbddd02dd	-0.10791562
223	0xbb981305	-0.004640939
224	0xbcf7f8a7	-0.030269934
225	0x3cb81ac7	0.022473706
226	0x3db9cc25	0.090721406
227	0xbc5d6665	-0.013513182
228	0x3cbd6e52	0.023123894
229	0xbd3ed231	-0.046587173
230	0x3ccf2711	0.025287183
231	0xbe117772	-0.14205721
232	0xbc34af98	-0.011028193
233	0x3ddc58d4	0.1075913
234	0x3e17dc4a	0.14830127
235	0x3d824adb	0.06361934
236	0x3d4d3856	0.050102554
237	0x3deb1bcc	0.11479911
238	0x3d5b84a3	0.05359329
239	0x3cb4ad70	0.022055358
240	0xbd49d734	-0.0492775
241	0x3d3ec9a7	0.04657903
242	0x3d81b2cb	0.0633293
243	0xbdb24604	-0.08704761
244	0x3cab66a7	0.020922972
245	0x3d06c4cc	0.032902524
246	0xbd7e468c	-0.062078997
247	0xbd83af17	-0.0642988
248	0x3db395eb	0.08768829
249	0xbd744805	-0.059638996
250	0xbcd36f90	-0.025810033
251	0x3c9501c9	0.018189328
252	0xbd6acb28	-0.05732265
253	0x3d4baed7	0.049727287
254	0x3d8c3fa6	0.068480775
255	0xbe0ce97b	-0.1376094

features_extractor.encoder.4.bias f4 [16]
0	0xbd84ca7b	-0.064839326
1	0xbd2c6dd6	-0.042096935
2	0xbbfe7933	-0.007765913
3	0xbceca863	-0.028888887
4	0x3d3e186a	0.04641
5	0xbd5270f5	-0.051377255
6	0xbba92e71	-0.005163007
7	0xbd24afe5	-0.04020681
8	0x3c29dde9	0.010367849
9	0x3d568d1c	0.052380666
10	0xbc54a3d0	-0.012978509
11	0xbc21ec0f	-0.009882941
12	0xbd2dbd16	-0.042416655
13	0xbd919da7	-0.07110148
14	0xbd8c635f	-0.06854891
15	0x3c84890a	0.016178627

features_extractor.policy_net.0.weight f4 [64, 1024]
0	0xbc23ed27	-0.010005272
1	0xba1d1b9b	-0.0005993188
2	0x3c3d54b2	0.0115558375
3	0x3c6237cd	0.013807249
4	0x3d7cae1b	0.061689477
5	0x3d18ce88	0.03730634
6	0x3cd4ecc7	0.02599181
7	0x3c7f6286	0.015587455
8	0xbd11e2b1	-0.03561658
9	0x3c7fa0f0	0.015602335
10	0x3cec456a	0.028841693
11	0x3cf39b90	0.029737264
12	0x3c3e4421	0.011612923
13	0x3d725eda	0.05917249
14	0x3d5f6b9e	0.05454599
15	0x3d30911d	0.04310714
16	0xbce71836	-0.028209787
17	0x3c12435d	0.0089271935
18	0x3d3e9c41	0.046535734
19	0x3d95bfd9	0.07311983
20	0xbcc1365c	-0.02358549
21	0x3c711792	0.014715092
22	0x3d18a11c	0.03726302
23	0x3d192190	0.037385523
24	0x3ce86a64	0.028371044
25	0x3c432344	0.011910263
26	0xbc3d4064	-0.011550996
27	0xbd5d76ee	-0.0540685
28	0xbd59b434	-0.05315037
29	0xbcfaa512	-0.03059629
30	0x3d017c3d	0.031612623
31	0x3dee5b13	0.11638465
32	0xbd284993	-0.04108579
33	0x3d64ba50	0.055841744
34	0x3cb4748f	0.022028236
35	0xbd63609c	-0.055512056
36	0x3d03cc52	0.032177277
37	0x3c682699	0.014169359
38	0xbd6dd41b	-0.058063608
39	0xbcce1528	-0.025156572
40	0x3ce6b4b9	0.028162347
41	0x3c5cc295	0.013474126
42	0x3c73be51	0.014876918
43	0xbd2e6704	-0.042578712
44	0x3da67eaf	0.08129632
45	0x3d1b1e96	0.037870966
46	0xbd986ca8	-0.074425995
47	0xbc9d06aa	-0.019168217
48	0xbb9fb17c	-0.0048734527
49	0xbd0a1932	-0.033715434
50	0xbc9e4247	-0.019318713
51	0x3ba23979	0.004950699
52	0x3d14d0b0	0.036331832
53	0x3d337256	0.04381021
54	0x3bab5751	0.005228915
55	0x3a3caa33	0.00071969925
56	0xbd1c3012	-0.03813178
57	0xba705125	-0.0009167365
58	0x3b94e86b	0.004544308
59	0xbd244f5e	-0.040114753
60	0xbd91ce90	-0.07119477
61	0x3acb4c93	0.0015510492
62	0x3cf74b51	0.03018728
63	0xbd0a00be	-0.033692114
64	0x3d2a320c	0.041551635
65	0xbbf885d7	-0.0075843143
66	0x3ba02fe5	0.004888522
67	0x3c61653b	0.013757045
68	0xbd877930	-0.066149116
69	0x3c6b50d0	0.014362529
70	0x3bfb76ce	0.0076740747
71	0x3c909f55	0.0176541
72	0xbd2bd6e1	-0.04195297
73	0x3cc17f27	0.023620201
74	0xbd92c4fb	-0.07166477
75	0x3c8b061e	0.01697069
76	0x3d1cb8f1	0.03826231
77	0x3dc7be5e	0.097531065
78	0x3a96d65c	0.0011507976
79	0x3c072b56	0.008250078
80	0xbceff0b1	-0.029289575
81	0x3be5cdc1	0.007013053
82	0x3d8078e8	0.06273061
83	0x3d1f316d	0.038865495
84	0xbc5e699a	-0.013574982
85	0xbc537d45	-0.012908285
86	0xbcd19a23	-0.025586193
87	0xbd2ac3df	-0.041690703
88	0xbcad8376	-0.02118085
89	0xbd0ddb6f	-0.034633096
90	0xbd570b76	-0.052501164
91	0xbdebdcf3	-0.11516752
92	0xbd609712	-0.054831572
93	0x3ce045c5	0.027377019
94	0x3db096c5	0.08622507
95	0x3d319813	0.04335792
96	0xbbbc0a6f	-0.0057385485
97	0x3d618af8	0.05506417
98	0x3d67eaf6	0.05662056
99	0xbdac3995	-0.084094204
100	0x3b120c03	0.0022284992
101	0xbcc5f283	-0.02416349
102	0xbc85f6b3	-0.016352987
103	0x3df10fc3	0.117705844
104	0x3c90970d	0.017650152
105	0xbc8561ed	-0.016282046
106	0xbd4cb339	-0.049975608
107	0x3b1b2085	0.0023670506
108	0x3d9d0b8e	0.076682195
109	0xbd64f27f	-0.055895325
110	0xbcc9a315	-0.024613896
111	0x3d2d767d	0.042349327
112	0x3d4c31f2	0.04985232
113	0x3c6e2483	0.014535072
114	0xbd066d28	-0.032818943
115	0x3d22b6ab	0.039724987
116	0x3c2366cf	0.009973242
117	0xbc8c1083	-0.017097717
118	0x3c03b6da	0.008039201
119	0x3bc26ed2	0.005933621
120	0xbcf18404	-0.029481895
121	0xbd27fa90	-0.04101044
122	0xbd463383	-0.04838897
123	0xbb00553d	-0.0019582056
124	0xbd286e64	-0.0411209
125	0x3d00afb8	0.03141758
126	0xbc96221e	-0.018326815
127	0x3be622ec	0.007023206
128	0x3cac4246	0.021027695
129	0xbd01aee0	-0.031660914
130	0x3d61fdd0	0.055173695
131	0xbdb89e70	-0.090145946
132	0x3d9054ee	0.07047449
133	0x3d6414a2	0.05568374
134	0x3be583d1	0.007004239
135	0xbced8bcd	-0.028997326
136	0x3c759141	0.0149882445
137	0x3c8bf793	0.017085826
138	0x3c03b200	0.008038044
139	0xbcc61c91	-0.024183543
140	0x3d9174dd	0.07102368
141	0x3c152c0f	0.009104743
142	0x3da2fa41	0.079578884
143	0x3ce954f6	0.028482895
144	0x3d34216b	0.043977182
145	0xbbf96104	-0.007610442
146	0x3d970e1d	0.07375739
147	0x3bab53d1	0.0052284976
148	0xbd14eeed	-0.03636067
149	0xbd412deb	-0.04716293
150	0x3d7bf89f	0.0615164
151	0x3d4db0bc	0.050217375
152	0xbc9f3343	-0.019433623
153	0xbcf36187	-0.02970959
154	0x3cd4a757	0.0259587
155	0x3cc588ee	0.024113145
156	0xbd34c46e	-0.044132642
157	0x3dbd5f16	0.09246652
158	0xbc5b61c6	-0.01339001
159	0x3b53a441	0.0032293948
160	0x3c936e41	0.01799691
161	0xbdb3f24a	-0.08786447
162	0x3d24fb0e	0.040278487
163	0xbcf6bfa3	-0.030120676
164	0xbb24c60f	-0.0025142466
165	0xbbd47f1e	-0.00648488
166	0xbd75d27f	-0.060015198
167	0x3bca8232	0.0061800713
168	0x3d207950	0.039178193
169	0xbb217ff8	-0.0024642926
170	0x3cb3ed0f	0.021963624
171	0xbcb844b7	-0.022493703
172	0x3d7b41e9	0.061342154
173	0xbcccb144	-0.02498687
174	0xbd4c8117	-0.049927797
175	0xbc4083f8	-0.011750214
176	0xbc220edd	-0.009891239
177	0x3d35915b	0.044328075
178	0xbc985d6b	-0.018599233
179	0x3bf876e1	0.007582531
180	0xbc45bb13	-0.012068528
181	0xbce1a75d	-0.027545625
182	0xbcc20017	-0.023681683
183	0xbd159439	-0.03651831
184	0x3c2c6d2b	0.010524075
185	0x3d7f292b	0.06229512
186	0x3d12c7fc	0.03583525
187	0xbd0f5fd5	-0.035003502
188	0x3d390101	0.045166973
189	0xbc09d325	-0.008412157
190	0xbcc02853	-0.023456728
191	0x3caf0dab	0.021368822
192	0x3c90da9c	0.017682366
193	0x3b8a782e	0.0042257523
194	0x3d3106d4	0.043219402
195	0x3bcde32f	0.006283186
196	0xbbd8792f	-0.006606243
197	0x3d84f938	0.06492847
198	0x3cbb7b65	0.022885988
199	0x3d46f296	0.04857119
200	0x3b783a0b	0.0037876393
201	0x3c3082e5	0.010773395
202	0x3d9a2b4f	0.07527792
203	0x3c8d1b17	0.017224832
204	0xbcd7f9c1	-0.02636421
205	0x3d5a6ca7	0.053326275
206	0xbd2c8bb8	-0.042125434
207	0xbcac41df	-0.021027504
208	0xbcad0dab	-0.021124681
209	0xbca08043	-0.01959241
210	0x3cd33747	0.025783194
211	0x3bb37b99	0.0054773805
212	0x3d2f7830	0.04283923
213	0xbc82dc9f	-0.015974341
214	0x3bbe1559	0.0058008847
215	0x3dafebed	0.08589921
216	0x3c2361e6	0.009972071
217	0x3c5a4356	0.013321718
218	0x3d24667c	0.0401368
219	0xbd89e851	-0.06733764
220	0x3d1e1581	0.038594726
221	0x3c1d66d7	0.009607038
222	0xbcab55c9	-0.020914929
223	0xbbad39e2	-0.005286441
224	0xbc1abc74	-0.009444345
225	0x3d334b7a	0.043773152
226	0xbcaa8455	-0.020815054
227	0xbbc27fb2	-0.0059356326
228	0x3da1474e	0.078749284
229	0x3d1ec965	0.038766284
230	0xbcc017a1	-0.023448767
231	0x3c2de9d4	0.010614831
232	0xbca6a7aa	-0.02034362
233	0x3b9f54ee	0.0048624193
234	0xbd04ac31	-0.032390777
235	0x3d046ff9	0.032333348
236	0x3a9141ed	0.001108227
237	0x3cc93c43	0.024564868
238	0xbd6876ec	-0.056754038
239	0xbc3d03f1	-0.011536584
240	0xbcfde0f8	-0.030991063
241	0xbc84d497	-0.016214652
242	0xbd1ab09b	-0.03776608
243	0x3d2ed997	0.04268798
244	0xbcd29018	-0.025703475
245	0x3d049bc8	0.032375127
246	0x3c9fe7c4	0.019519694
247	0x3b8eca34	0.0043576006
248	0xbb0060e3	-0.0019589
249	0xb96f6098	-0.000228288
250	0xbc59bf6c	-0.013290267
251	0xbcb33436	-0.021875482
252	0x3b56823c	0.0032731434
253	0x3c01dbd9	0.007925951
254	0xbd8a9a54	-0.06767717
255	0xbd5834d5	-0.05278476

features_extractor.policy_net.0.bias f4 [64]
0	0x3d0aa941	0.03385282
1	0xbc50f340	-0.012753308
2	0xbb7be895	-0.003843819
3	0xbd162a39	-0.03666136
4	0xbc9c66a6	-0.019091915
5	0xbc6ac837	-0.0143299615
6	0x3c4c5bc8	0.012473054
7	0x3d48c6bc	0.049017653
8	0xbcc31d07	-0.023817552
9	0x3d2ffe12	0.04296691
10	0x3c71246b	0.014718155
11	0x3b6ff8d8	0.0036616828
12	0xbbd9b360	-0.0066436976
13	0xbc2e6c6c	-0.010645967
14	0xbcee111f	-0.029060898
15	0x3cedd14d	0.029030466
16	0x3cf2bbfc	0.029630654
17	0xbc861e22	-0.01637179
18	0xbcc47e52	-0.023986015
19	0x3b36d220	0.002789624
20	0xbb239fba	-0.002496703
21	0x3c041b30	0.008063123
22	0xbc1d1319	-0.009587073
23	0xbc999aed	-0.018750632
24	0x3ca66e4b	0.020316264
25	0x3c3ceda3	0.011531266
26	0xbc9c11f8	-0.019051537
27	0xbc8dbed7	-0.017302914
28	0x3c947a72	0.018124793
29	0x3b99e65c	0.0046966504
30	0xbc11ab2d	-0.008890909
31	0x3c16031a	0.009156013
32	0xbc7cd8eb	-0.015432577
33	0x3d394a1d	0.045236696
34	0x3b58a177	0.0033055225
35	0x3ce2621c	0.027634673
36	0xbcf56655	-0.029956022
37	0xbbb55878	-0.005534228
38	0x3cbd18ce	0.023083117
39	0xbc5a60b1	-0.013328717
40	0x3c5536d9	0.013013565
41	0xbc92e481	-0.017931225
42	0x3c07af03	0.008281472
43	0xbc383314	-0.011242647
44	0x3c35d654	0.011098463
45	0x3c82bd16	0.015959304
46	0x3cb888a3	0.022526091
47	0x3ce3e716	0.027820151
48	0xbb93e343	-0.0045131757
49	0xbcf684ca	-0.030092616
50	0x3cf1cd01	0.029516699
51	0x3d11f84a	0.035637178
52	0x3d3bc0bd	0.045838106
53	0x3b421d2d	0.002961944
54	0x3b1931ad	0.0023375556
55	0xbbd3ffeb	-0.006469717
56	0x3c9ffc80	0.019529581
57	0x3bc5ffc1	0.006042451
58	0xbc48c608	-0.012254246
59	0xbd0b157b	-0.033956032
60	0xbcb3a767	-0.02193041
61	0x3cceebb6	0.02525888
62	0xbc6b6f15	-0.014369746
63	0xbbe82b70	-0.0070852563

features_extractor.policy_net.2.weight f4 [64, 64]
0	0x3d620d84	0.05518867
1	0xbc3d3e0a	-0.011550436
2	0x3d8d0fb9	0.068877645
3	0xbd82379f	-0.06358265
4	0x3e21a2c0	0.1578474
5	0x3cacb6dc	0.021083288
6	0x3cbaf789	0.022823112
7	0x3da2c46f	0.07947623
8	0xbde665f9	-0.112499185
9	0x3d2f72b9	0.042834017
10	0x3db3518b	0.087557875
11	0x3dc94f98	0.098296344
12	0xbdc71cd2	-0.09722294
13	0xbd9a38bd	-0.07530353
14	0xbd51b6eb	-0.051199835
15	0x3d9e4b32	0.07729186
16	0xbd9cc8c3	-0.0765548
17	0x3d94cfcb	0.07266196
18	0x3d5a2302	0.053256042
19	0x3e207996	0.15671381
20	0x3cbff2ab	0.023431143
21	0x3de1b1c2	0.11020233
22	0xbdc5c7e5	-0.096572675
23	0xbd0e6f2a	-0.034773983
24	0xbcacd1e1	-0.021096172
25	0xbdd28114	-0.10278526
26	0xbb02af4a	-0.0019940906
27	0x3bb851c4	0.0056249816
28	0x3d780051	0.060547177
29	0xbd43ecae	-0.047833137
30	0x3ddceebd	0.10787723
31	0xbcbba6e0	-0.02290672
32	0xbb8b92b5	-0.004259432
33	0xbd6cf7bf	-0.057853457
34	0xbab35084	-0.0013680612
35	0xbd73651e	-0.059422605
36	0xbe2863a4	-0.1644426
37	0xbdf4952e	-0.11942516
38	0x3d684a36	0.056711398
39	0x3d261b82	0.040553577
40	0x3c7ff900	0.015623331
41	0x3da2476b	0.07923778
42	0xbcbe40ae	-0.023224201
43	0xbc81b46e	-0.015833106
44	0x3d95ff9f	0.073241465
45	0x3cc57483	0.024103409
46	0x3dbbdf64	0.09173468
47	0x3d3ec7d9	0.04657731
48	0x3da54e6b	0.08071598
49	0xbc98f1cb	-0.018669983
50	0x3c77cd35	0.015124609
51	0xbc9cbc81	-0.019132854
52	0x3e141ea8	0.1446482
53	0x3e266e15	0.1625293
54	0xbdb84173	-0.089968584
55	0xbc1af96a	-0.009458879
56	0xbdf08f7b	-0.11746117
57	0x3b8ac789	0.004235212
58	0xbdd03fcb	-0.101684175
59	0x3cbd1f65	0.02308626
60	0x3da8c40d	0.08240519
61	0x3cdf317e	0.02724528
62	0x3dbe3b62	0.0928867
63	0xbd7d6a0b	-0.06186871
64	0x3dcb7dd5	0.0993611
65	0xbd98d303	-0.07462122
66	0x3dac2d9c	0.08407137
67	0x3d82b8a3	0.06382873
68	0x3d977d4a	0.07396944
69	0x3d422cd2	0.047406025
70	0x3e2f4db9	0.17119493
71	0x3d7e8c2c	0.062145397
72	0x3c5aa110	0.013344064
73	0x3ca9fdc9	0.020750897
74	0xbdab80ea	-0.08374198
75	0xbc90427c	-0.017609827
76	0xbd82789f	-0.06370663
77	0x3b929ca8	0.0044742413
78	0xbe4758de	-0.19467494
79	0x39fc0b9a	0.0004807383
80	0xbdca7dcc	-0.09887275
81	0x3dcdd88b	0.10051068
82	0xbe1240aa	-0.1428248
83	0xbda630d7	-0.08114784
84	0xbd83e6b1	-0.06440485
85	0x3cd40988	0.025883451
86	0xbd3368c6	-0.04380109
87	0xbc8cbd63	-0.01718015
88	0x3d7d6af7	0.061869588
89	0x3d2c9e72	0.042143293
90	0xbc220743	-0.009889427
91	0x3dab69b7	0.08369773
92	0x3d85c7fe	0.06532286
93	0x3d0804f4	0.03320785
94	0x3e03a531	0.12855984
95	0xbd1db6b9	-0.038504336
96	0xbde5d6bd	-0.11222599
97	0xbdf784d4	-0.12085882
98	0x3d772ceb	0.06034557
99	0x3c481653	0.012212354
100	0xbe1f86e9	-0.15578808
101	0xbd2beac0	-0.041971922
102	0xbe2280cf	-0.15869449
103	0x3cbb2f04	0.022849567
104	0xbd3dfa65	-0.046381373
105	0xbcd1b2ca	-0.025597949
106	0xbd41dec0	-0.04733157
107	0xbd192ff2	-0.03739924
108	0x3cc8e1d2	0.024521742
109	0x3e078c13	0.13237028
110	0xbc737757	-0.014859996
111	0x3e1ea22e	0.15491554
112	0xbd3d0f13	-0.046156954
113	0x3d7dee71	0.061994974
114	0x3df096ed	0.11747537
115	0xbdcebd70	-0.10094726
116	0xbd0db537	-0.034596648
117	0x3dfddfe7	0.123962216
118	0xbd5f4e8b	-0.054518264
119	0x3d99d108	0.07510573
120	0xbe11668c	-0.14199275
121	0xbd23843f	-0.03992104
122	0x3d1d9669	0.03847352
123	0x3c936249	0.017991202
124	0x3e2cbbc1	0.16868497
125	0xbe1729fd	-0.14762111
126	0x3d4fbd26	0.050717495
127	0xbc8d4c21	-0.017248215
128	0x3de35d14	0.111017376
129	0xbd34db03	-0.04415418
130	0x3d83f1c4	0.064425975
131	0x3d264443	0.040592443
132	0x3d38b08b	0.04509024
133	0xbe03bce1	-0.1286502
134	0xbd19fc5e	-0.03759419
135	0x3e1307f2	0.143585
136	0xbdecab43	-0.11556103
137	0xbb5aaef1	-0.0033368433
138	0x3c156921	0.009119303
139	0xbcc7214b	-0.024307868
140	0xbe5185f0	-0.2046125
141	0xbd22e238	-0.03976652
142	0x3d271efb	0.04080103
143	0x3dc20f49	0.09475572
144	0x3dfbe42f	0.12299382
145	0x3e0178d1	0.12643744
146	0xbb6f1ef9	-0.0036486967
147	0x3dbfc66b	0.09364017
148	0x3df41a67	0.11919098
149	0xbc602298	-0.013680123
150	0xbe084312	-0.13306835
151	0xbdcf2114	-0.10113731
152	0x3d827759	0.0637042
153	0x3d10acec	0.03532116
154	0x3c85ed8b	0.01634862
155	0xbcc4c1d1	-0.0240182
156	0xbe16bae8	-0.14719737
157	0xbe0ec881	-0.13943674
158	0x3dafdc23	0.085869096
159	0x3c62bf71	0.0138395885
160	0xbd3b97ab	-0.04579894
161	0x3d55da15	0.052209932
162	0xbd649b1b	-0.055811983
163	0x3d8f882e	0.07008396
164	0xbdd8493a	-0.10560842
165	0x3d44d5d9	0.048055504
166	0xbdb0ce18	-0.08633059
167	0xbd92c3ac	-0.07166228
168	0xbc9293cb	-0.017892739
169	0xbd23606e	-0.039886884
170	0xbd2c039c	-0.04199563
171	0xbc0a1a4d	-0.008429122
172	0xbd6cf378	-0.057849377
173	0xbd793dfa	-0.06085012
174	0xbc8cc909	-0.017185705
175	0x3de951c7	0.11392551
176	0xbd589646	-0.052877687
177	0xbad15de9	-0.0015973422
178	0x3cd2af3e	0.025718328
179	0x3d8d17e5	0.06889323
180	0xbcd33091	-0.025779994
181	0x3df35815	0.11882035
182	0xbdbc64b7	-0.09198897
183	0xbd860933	-0.06544723
184	0xbcf842f1	-0.030305358
185	0xbd1c9bb4	-0.038234428
186	0xbc4642fd	-0.012100932
187	0x3d85a36a	0.065253094
188	0xbd59b31d	-0.05314933
189	0xbde748d3	-0.11293187
190	0x3d50975c	0.050925598
191	0x3de57f94	0.11205974
192	0x3d56658a	0.05234293
193	0x3d9ca4c7	0.07648616
194	0x3d7d66f7	0.061865773
195	0x3c657f25	0.014007364
196	0x3ca7c33d	0.020478839
197	0x3d1bbc44	0.03802134
198	0x3d01c0d3	0.031678032
199	0x3d91410c	0.07092485
200	0xb99d910f	-0.0003005345
201	0xb9a0f5bf	-0.00030700673
202	0x3acdd4fc	0.0015703733
203	0xbd1aab5e	-0.037761085
204	0xbe4334d1	-0.19063117
205	0x3b4862a7	0.003057638
206	0xbb62bd79	-0.0034597798
207	0x3dcb7bd2	0.09935726
208	0xbd09d3c1	-0.03364921
209	0xbba5c18a	-0.005058472
210	0xbe0b7130	-0.13617396
211	0x3ddc8da8	0.10769206
212	0xbdcb984b	-0.09941157
213	0xbd8bd9e3	-0.06828668
214	0xbda07219	-0.078342624
215	0xbe0063ff	-0.12538145
216	0x3da02f1b	0.07821485
217	0xbcb25b8c	-0.021772169
218	0x3d8af12d	0.06784282
219	0x3e1950e0	0.14972258
220	0xbe20653b	-0.15663616
221	0xbd63cacf	-0.055613335
222	0x3df58817	0.11988848
223	0x3bf90692	0.00759966
224	0x3b2d262c	0.0026420457
225	0x3dc67127	0.09689551
226	0xbd9d6bda	-0.07686587
227	0xbc1ca224	-0.009560142
228	0x3d1cbb9a	0.03826485
229	0xbb776c20	-0.0037753657
230	0xbc2deb67	-0.010615206
231	0x3d6d6e61	0.057966594
232	0x3d9e8af8	0.0774135
233	0x3dbd4e35	0.092434324
234	0xbddd354d	-0.10801182
235	0x3cfef468	0.031122401
236	0x3d5ed437	0.054401603
237	0x3ce49b95	0.027906219
238	0xbcc0ccd0	-0.023535162
239	0x3e32f166	0.17474899
240	0xbd9ab4fa	-0.0755405
241	0xbc4d8823	-0.012544665
242	0x3d5d338e	0.054004245
243	0xbd05e5f6	-0.03269001
244	0x3d668023	0.056274544
245	0xbd07b1d4	-0.033128574
246	0xbd14f774	-0.036368802
247	0xbd4dadd5	-0.050214607
248	0x3d1d11d9	0.0383471
249	0x3dc5e01c	0.09661886
250	0xbd183861	-0.037163142
251	0xbdd6fb2e	-0.104971275
252	0x3e2a9be6	0.16661033
253	0xbbd0c729	-0.006371398
254	0x3df7ad7c	0.120936364
255	0xbd8e05ad	-0.06934676

features_extractor.policy_net.2.bias f4 [64]
0	0xbd7ae69b	-0.06125508
1	0xbdd60f6d	-0.10452161
2	0xbdabe2c3	-0.08392861
3	0x3d526eb6	0.051375113
4	0xbd094920	-0.033517003
5	0x3db91a29	0.09038193
6	0xbb3a6f5c	-0.0028447723
7	0x3d51498a	0.051095523
8	0x3d788803	0.060676586
9	0xbd4326d5	-0.047644455
10	0x3b8ad4a1	0.004236773
11	0x3c684fd0	0.014179185
12	0xbd5bf86d	-0.053703714
13	0x3cb9f611	0.022700341
14	0xbd475cd2	-0.048672505
15	0x3d7658ad	0.06014316
16	0xbd6534e8	-0.05595866
17	0x3db9fb2b	0.090811096
18	0xbc894a3f	-0.016759036
19	0x3d2663ae	0.040622406
20	0x3dc3270c	0.09528932
21	0xbda2a2ce	-0.07941209
22	0x3c3e59fd	0.011618135
23	0xbd66e826	-0.056373738
24	0x3d728622	0.05920995
25	0xbde803bc	-0.11328837
26	0xbcabff12	-0.02099565
27	0xbab992a6	-0.0014158085
28	0x3c2b007f	0.01043713
29	0xbdfdf198	-0.12399596
30	0xbb6f886c	-0.003654982
31	0xbd3c8f43	-0.046035063
32	0xbd09d583	-0.033650886
33	0xbdd66e8a	-0.104703024
34	0xbcaf3082	-0.021385435
35	0xbdd0fea5	-0.102048196
36	0xbde2f998	-0.110827625
37	0x3d4eecb2	0.0505187
38	0x3debbabd	0.11510227
39	0xbdb67a00	-0.089099884
40	0xbde39167	-0.11111718
41	0x3cae8416	0.021303218
42	0xbdb15499	-0.08658714
43	0xbdb70477	-0.089363985
44	0xbd8d21b3	-0.06891193
45	0xbcdb0ed0	-0.026740462
46	0xbb7e06e0	-0.0038761422
47	0x3dd476ac	0.10374197
48	0xbdff0a8b	-0.12453183
49	0xbdad2384	-0.0845404
50	0x3cde7394	0.027154721
51	0x3d0a9276	0.033831082
52	0xbddfa318	-0.109197795
53	0xbdda75e3	-0.10667016
54	0xbdcfce6f	-0.10146796
55	0xbc97a6c2	-0.018512134
56	0x3d7202ee	0.059084825
57	0xbd60173c	-0.054709658
58	0x3cdbbec5	0.026824364
59	0x3d2d2727	0.042273667
60	0x3c7af77e	0.015317796
61	0x3d72f4f7	0.059315648
62	0x3de76e5e	0.11300348
63	0xbd1029cb	-0.035196107

features_extractor.value_net.0.weight f4 [64, 1024]
0	0x3d2e0e74	0.042494252
1	0x3d739c5b	0.059475284
2	0x3d832f28	0.06405479
3	0x3cd326b6	0.025775295
4	0xbdbc43d0	-0.09192622
5	0xbcc41998	-0.023937985
6	0xbda0ba90	-0.07848084
7	0xbcaf784c	-0.021419667
8	0x3dcdb483	0.100441955
9	0xbb207dd0	-0.0024489053
10	0x3d3589f5	0.04432102
11	0x3cba0bdd	0.022710735
12	0xbd786a0b	-0.060648005
13	0xbd6cce76	-0.057814084
14	0xbd8ae04d	-0.06781063
15	0xbd49b558	-0.04924521
16	0x3cf2ff36	0.02966271
17	0x3cf3e3a6	0.029771637
18	0x3dc80676	0.09766857
19	0x3d0a7ebb	0.033812266
20	0xba13cf5c	-0.0005638504
21	0x3d2bad45	0.04191329
22	0xbcc92191	-0.024552139
23	0xbd1eded8	-0.03878674
24	0x3d8d4e0c	0.06899652
25	0x3cc9b92b	0.024624428
26	0x3d28da33	0.041223716
27	0x3d2300a1	0.03979552
28	0x3cc82ad8	0.024434492
29	0xbbb2de59	-0.005458635
30	0x3c519fb4	0.012794424
31	0x3b2d7b72	0.0026471284
32	0xbc41bc55	-0.011824687
33	0xbc9d42e3	-0.019196933
34	0x3d019722	0.031638272
35	0x3cc20693	0.023684775
36	0x3c343a75	0.011000265
37	0xbc8f0542	-0.017458562
38	0x3c3e181c	0.011602428
39	0xbd94f1c3	-0.07272675
40	0x3d053c0d	0.032527972
41	0xbc29ac19	-0.010355973
42	0xbc1e5b66	-0.009665346
43	0xbcc8f897	-0.0245326
44	0x3cf56286	0.029954206
45	0x3d2961bc	0.041352972
46	0xbc0c5bae	-0.00856678
47	0xbdce1b27	-0.10063773
48	0xbcf5e874	-0.030018069
49	0xbca2877e	-0.019839998
50	0x3a998bd5	0.0011714647
51	0x3c975848	0.018474713
52	0x3acb7db4	0.0015525133
53	0xbc407c19	-0.011748337
54	0xbc28c8fa	-0.010301823
55	0xbdca82ce	-0.0988823
56	0x3cc9290b	0.024555704
57	0xb990897b	-0.0002756825
58	0x3aed2e39	0.001809544
59	0x3c86fd93	0.016478335
60	0x3c0990d5	0.008396347
61	0xbccf13fe	-0.025278088
62	0x3b0b8721	0.002129026
63	0x3a36647d	0.0006957723
64	0x3e043588	0.12911046
65	0xbcf47c48	-0.029844418
66	0xbc8c813e	-0.017151471
67	0xbcee12ba	-0.029061664
68	0xbd0241e9	-0.031801138
69	0xbd18403b	-0.03717063
70	0xbc61e470	-0.013787374
71	0xbc20f1a5	-0.009823238
72	0x3d9a1559	0.07523603
73	0x3d732dda	0.0593699
74	0xbcd71c69	-0.026258664
75	0x3c30a537	0.010781578
76	0xbd4ee88f	-0.050514754
77	0xbdcb6492	-0.09931292
78	0xbda93dfa	-0.08263774
79	0xbd553e88	-0.052061588
80	0x3d8bb047	0.068207316
81	0x3dad6e8c	0.08468351
82	0x3d654aea	0.055979647
83	0xbab47ba9	-0.0013769764
84	0xbc4e916b	-0.0126079125
85	0xbc2e7d14	-0.010649938
86	0xbc7407ca	-0.014894435
87	0xbd23ad7b	-0.039960366
88	0x3a8c9e03	0.0010728244
89	0x3d09b08a	0.033615626
90	0x3c86ddf4	0.016463257
91	0xbc80c619	-0.01571946
92	0x3c8a2afd	0.016866202
93	0xbd1c9307	-0.038226154
94	0xbcbb8266	-0.022889327
95	0x3ca5af22	0.020225111
96	0xbc87f901	-0.016598227
97	0xbae89332	-0.0017744063
98	0x3da02809	0.07820136
99	0xbb89d12c	-0.0042058434
100	0x3be7ae6e	0.007070354
101	0xbd55301c	-0.052047834
102	0xbb039563	-0.0020078055
103	0xbd16f723	-0.03685678
104	0xbc7bad43	-0.015361133
105	0xbcbbc34b	-0.022920271
106	0x3d4ea700	0.050452232
107	0xba20cb6b	-0.0006133827
108	0xbc64f034	-0.0139732845
109	0x3d388c07	0.045055415
110	0xbdc0e9eb	-0.09419616
111	0x3b84260c	0.004032856
112	0x3c2ebb66	0.010664796
113	0x3c914ef3	0.017737841
114	0x3c523499	0.012829923
115	0x3cbdb3f5	0.0231571
116	0x3cc832d4	0.0244383
117	0xbc3e7864	-0.011625383
118	0xbc9a5240	-0.018838048
119	0xbd8d9191	-0.0691253
120	0x3b63d3ea	0.0034763762
121	0xbc8f29f9	-0.017476069
122	0xbd1ab895	-0.037773687
123	0x3b3d0247	0.0028840469
124	0xbc8fd24d	-0.017556334
125	0xbd122021	-0.03567517
126	0x3ca2b242	0.01986039
127	0xbd5e1246	-0.054216646
128	0xbccf0db5	-0.02527509
129	0xbcf011bb	-0.02930533
130	0x3d9fe9dd	0.07808278
131	0x3d462748	0.048377305
132	0x3b112b17	0.0022150928
133	0xbda19b4d	-0.078909494
134	0x3c451b1c	0.012030389
135	0xbd88390d	-0.066515066
136	0xbc6a4582	-0.0142987985
137	0xbd885bbb	-0.06658121
138	0x3d6b3e31	0.057432357
139	0x3c8e2fad	0.017356718
140	0xbcb594ee	-0.022165742
141	0xbd0c6330	-0.03427428
142	0xbd4407c2	-0.04785896
143	0xbda5761d	-0.08079169
144	0x3cc78017	0.02435307
145	0xbcbd97d5	-0.023143688
146	0x3cb32bd8	0.021871492
147	0x3d9211ee	0.07132326
148	0xba3ee915	-0.0007282657
149	0x3b824dad	0.003976545
150	0xbbce5694	-0.006296942
151	0xbd584e64	-0.052809134
152	0xbc3e06e9	-0.011598327
153	0xbc9f5e9d	-0.019454295
154	0xbbd5dafc	-0.006526349
155	0xbc7ba456	-0.015359005
156	0x3d8f06df	0.069837324
157	0xbcb5dcba	-0.022199977
158	0x3b23498f	0.002491567
159	0x3c8e5c34	0.01737795
160	0x3d25944b	0.040424626
161	0x3ca8d71c	0.020610385
162	0xbd2cb1a2	-0.04216159
163	0xbb713c90	-0.003680978
164	0x3cce8bb2	0.025213096
165	0xbb8d6b73	-0.0043157875
166	0xbcf5bb1f	-0.029996453
167	0xbd969f9d	-0.073546626
168	0xbbe39fe5	-0.006946551
169	0x3c04cfa6	0.008106148
170	0xbdb8f1cf	-0.09030496
171	0x3ccf0bcf	0.025274185
172	0xbd10c968	-0.035348326
173	0x3d3c46d6	0.045965992
174	0xbd85a643	-0.065258525
175	0xbd6c93b9	-0.057758067
176	0xbc8cfb2b	-0.01720961
177	0x3cb15d47	0.021650923
178	0x3c192e59	0.009349429
179	0xbd24457b	-0.040105324
180	0x3bcde500	0.0062834024
181	0xbd949a84	-0.07256034
182	0xbd82eca7	-0.06392794
183	0xbd4aadb7	-0.049482074
184	0x3d3c70fa	0.04600618
185	0xbbc6973f	-0.0060605104
186	0x3d164fd5	0.036697228
187	0xbd48c50d	-0.049016047
188	0x3d9082ad	0.070561744
189	0x3bf78ee5	0.007554876
190	0xbd8bee12	-0.06832518
191	0x3d363c4a	0.04449109
192	0x3c89e9f6	0.016835194
193	0xbd3c5e93	-0.04598863
194	0xbb9e4d5f	-0.0048310007
195	0xbc65380c	-0.013990413
196	0xbca59477	-0.020212395
197	0xbd208d6b	-0.039197367
198	0xbd57049b	-0.052494626
199	0xbdb48a5a	-0.08815451
200	0x3cd6114e	0.026131298
201	0xbcf909cc	-0.03040018
202	0xbc914055	-0.017730871
203	0x3d81c34b	0.06336077
204	0xbb9a2b17	-0.0047048437
205	0xbd0b364d	-0.033987332
206	0xbb717b65	-0.003684723
207	0xbc6157ea	-0.0137538705
208	0x3d1c75ba	0.03819821
209	0x3c9da1ff	0.019242285
210	0x3d573eba	0.052550055
211	0x3a84b6e2	0.0010125304
212	0xbc4c27a5	-0.012460624
213	0xbce820cf	-0.028335957
214	0xbbf68f2c	-0.0075243916
215	0xbd0df120	-0.034653783
216	0x3c9bbc6a	0.019010741
217	0x3c7d3a9b	0.015455867
218	0x3c4bc0d4	0.0124361105
219	0xbb6feda9	-0.0036610162
220	0x3c99ddd4	0.018782534
221	0xbae0b0e6	-0.0017142564
222	0x3db01d78	0.08599371
223	0xbc1ca2d4	-0.009560306
224	0xbbd99592	-0.0066401446
225	0xbcb2fb18	-0.021848246
226	0xbbeeeaef	-0.00729119
227	0x3d1c78f3	0.038201284
228	0xbceaa174	-0.02864144
229	0x3d36ae9c	0.044600114
230	0xbce6648a	-0.028124113
231	0xbc068375	-0.008210053
232	0x3c640d38	0.013919167
233	0xbd485887	-0.04891255
234	0x3d1687bd	0.036750544
235	0x3aa3dafd	0.0012501177
236	0x3d84a311	0.06476415
237	0x3d31b909	0.043389354
238	0xbc08bcbc	-0.008345779
239	0xbcb5c60b	-0.02218916
240	0xbbc5216c	-0.006015947
241	0x3c700bd7	0.01465126
242	0x3d13c46e	0.036076
243	0x3d454010	0.048156798
244	0xbabf045c	-0.0014573443
245	0xbcc269f7	-0.023732169
246	0xbc58ea75	-0.013239493
247	0xbc246c38	-0.010035567
248	0xbc30caef	-0.010790571
249	0x3b2cfdf4	0.0026396485
250	0x3c5fba13	0.013655203
251	0x3d7ac1de	0.061220042
252	0x3d6f72e1	0.058459166
253	0xbce2429b	-0.02761965
254	0x3d949187	0.0725432
255	0xbd4f89ae	-0.05066841

features_extractor.value_net.0.bias f4 [64]
0	0xbc0b5a4d	-0.008505416
1	0xbd13cfda	-0.036086895
2	0xbb5fdcc8	-0.0034158695
3	0x3c31428d	0.01081909
4	0xbcf0be94	-0.02938775
5	0x3c068726	0.008210933
6	0xbca6d4e7	-0.020365192
7	0xbc65594d	-0.013998342
8	0xbcc3310c	-0.023827098
9	0xbc21629b	-0.0098501695
10	0xbcfe7947	-0.031063689
11	0x3d25e426	0.040500782
12	0xbbcfdb66	-0.006343293
13	0x3d53d12b	0.05171315
14	0xbba88ec1	-0.0051439707
15	0xba287291	-0.0006425763
16	0xbd2a918a	-0.041642703
17	0xbc01f273	-0.00793134
18	0xbd02aa02	-0.031900413
19	0xbb898ae1	-0.004197464
20	0xbd11aa7e	-0.035562985
21	0xbc8c95b7	-0.017161233
22	0x3c985ab0	0.01859793
23	0xbc111984	-0.008856181
24	0x3b7d78e4	0.0038676793
25	0xbc9367f9	-0.017993914
26	0xbd777bfb	-0.06042097
27	0xbcf0fea1	-0.029418292
28	0xbc842bf5	-0.016134242
29	0xbc9b5a36	-0.018963914
30	0xbc346166	-0.01100955
31	0x3d4df274	0.05028005
32	0xbd421aa2	-0.04738868
33	0x3d299fad	0.041412044
34	0x3d1b6f24	0.03794779
35	0x3ba064e6	0.0048948405
36	0xbd434281	-0.047670845
37	0x3cb09d31	0.02155933
38	0xbc87cdc9	-0.016577618
39	0x3cb17533	0.02166233
40	0xbc0c8803	-0.00857735
41	0x3cb66bec	0.022268258
42	0xbccf5324	-0.0253082
43	0x3c9be15d	0.01902836
44	0xbcd9ebfd	-0.026601786
45	0xbcf3902c	-0.029731832
46	0xbd67261a	-0.05643282
47	0xbc68341d	-0.014172581
48	0xbca37d75	-0.019957284
49	0xbd259995	-0.04042967
50	0xbd0c4603	-0.034246456
51	0xbc2699ef	-0.010168537
52	0x3caae311	0.020860227
53	0xbca88680	-0.020571947
54	0x3c4b055f	0.012391417
55	0x3c3c5746	0.011495417
56	0x3c49f9d3	0.012327629
57	0xbd22d17a	-0.039750554
58	0xbcb5caae	-0.022191372
59	0xbc03fb69	-0.008055546
60	0xbd037b2c	-0.032099888
61	0xbd21fbe4	-0.039546862
62	0x3c6d51be	0.014484821
63	0x3d060cb3	0.032726955

features_extractor.value_net.2.weight f4 [1, 64]
0	0x3e03184e	0.1280224
1	0x3cb67c0d	0.022275949
2	0x3d930f68	0.07180673
3	0x3d3edf4f	0.046599682
4	0xbcd012db	-0.025399616
5	0x3d3f18fc	0.046654686
6	0x3de83272	0.11337747
7	0xbdcd3bd4	-0.10021177
8	0x3be50edd	0.006990297
9	0xbd1aa0a5	-0.03775086
10	0xbd391500	-0.045186043
11	0x3c893b88	0.01675202
12	0x3dcd69d6	0.10029952
13	0x3df3a6bb	0.11897036
14	0xbd6c029f	-0.057619687
15	0x3dab0bc3	0.08351853
16	0x3a8d276d	0.0010769196
17	0xbd79738d	-0.060901213
18	0x3d9b30bd	0.075776555
19	0xbd6f2581	-0.058385376
20	0x3e08765b	0.13326399
21	0xbda9abae	-0.082846984
22	0xbc118083	-0.008880737
23	0xbb95fa3d	-0.00457695
24	0x3e1333eb	0.14375274
25	0xbcfd565e	-0.030924972
26	0xbd9fc0f3	-0.07800474
27	0xbd13367e	-0.03594064
28	0xbd8ba209	-0.06818015
29	0x3df86440	0.12128496
30	0xbd244dec	-0.040113375
31	0xbc1a439d	-0.009415534
32	0xbd1ade05	-0.03780939
33	0xbcfba781	-0.03071952
34	0x3def9f74	0.11700335
35	0xbe032b54	-0.12809497
36	0xbcc458c0	-0.0239681
37	0x3de16ca1	0.110070474
38	0xbca5d599	-0.020243453
39	0x3dd2a7e9	0.102859326
40	0xbd986df3	-0.07442846
41	0x3df3013c	0.1186547
42	0xbd157fab	-0.036498707
43	0x3ddb4c19	0.10707874
44	0xbcc4d0ca	-0.02402534
45	0x3dfa69b4	0.122271925
46	0xbd8a3dfb	-0.06750103
47	0x3ddefaae	0.10887657
48	0x3d8cef25	0.06881551
49	0xbd724a69	-0.059152994
50	0x3cd22837	0.025653942
51	0xbd497ba6	-0.049190186
52	0x3de42071	0.11139
53	0xbda0443d	-0.078255154
54	0x3d7e5ee4	0.062102214
55	0x3d86e97b	0.065875016
56	0xbdd7af96	-0.10531537
57	0xbdbc6439	-0.091988035
58	0x3d870f62	0.06594731
59	0x3dc33148	0.09530884
60	0xbccd13a7	-0.025033785
61	0x3dc62845	0.096756496
62	0xbd26d53c	-0.0407307
63	0x3d918396	0.07105176

action_net.weight f4 [2, 64]
0	0xbdc5ef1d	-0.09664748
1	0xbdc3212f	-0.09527814
2	0xbd3b308c	-0.045700595
3	0xbe142db1	-0.14470555
4	0xbde167d5	-0.110061325
5	0x3db266b9	0.08710999
6	0xbd9c13e2	-0.0762098
7	0x3e1e1f11	0.15441538
8	0xbde8e75f	-0.113722555
9	0xbdea4d76	-0.11440556
10	0x3e2e89d9	0.17044772
11	0x3d8f2497	0.06989401
12	0xbdd62735	-0.10456697
13	0xbdcb2316	-0.099188015
14	0x3dc5b5f0	0.096538424
15	0xbe12aeea	-0.14324537
16	0x3d6bd0b1	0.05757207
17	0x3db01ba0	0.08599019
18	0x3d7511e9	0.059831534
19	0x3ca801ad	0.020508612
20	0xbcd9787b	-0.026546707
21	0xbd29225e	-0.04129254
22	0x3e091945	0.13388546
23	0x3d6cc79c	0.05780755
24	0x3e2cb31a	0.16865197
25	0x3e0f114b	0.1397144
26	0xbdb0bb50	-0.08629477
27	0xbe07d765	-0.1326576
28	0x3bb0fc0a	0.005401139
29	0x3dd131b7	0.102145605
30	0xbcfe8d88	-0.031073347
31	0xbdb2be9b	-0.08727761
32	0x3dda860e	0.106701
33	0x3d411d9a	0.04714737
34	0x3db1f29d	0.08688853
35	0xbd6a3580	-0.057179928
36	0x3e148741	0.1450472
37	0xbdbe6e38	-0.09298366
38	0xbe1816df	-0.14852475
39	0xbdd9181c	-0.106003016
40	0x3dea15d6	0.11429946
41	0xbdadddb0	-0.08489549
42	0x3dc938b8	0.09825271
43	0xbe0f443d	-0.13990875
44	0xbdeed314	-0.11661354
45	0xbe104251	-0.14087798
46	0x3dc9bc4b	0.09850367
47	0xbe1c4c4c	-0.1526348
48	0x3dee728e	0.11642943
49	0x3d0a56d1	0.0337742
50	0x3d64ed68	0.05589047
51	0x3db4fb05	0.08836941
52	0xbd6369f0	-0.05552095
53	0xbdff8298	-0.12476081
54	0xbda089e1	-0.07838798
55	0x3dd1e40f	0.10248577
56	0xbd981aa0	-0.07426953
57	0xbcf2b828	-0.029628828
58	0x3e30d775	0.1726969
59	0xbd07c45e	-0.033146255
60	0xbe1987dc	-0.14993232
61	0xbe05f4b2	-0.13081625
62	0x3cb922d0	0.022599608
63	0xbe2e717f	-0.17035483
64	0xbdcc4c9d	-0.0997555
65	0xbd299481	-0.04140139
66	0xbd928c65	-0.071556844
67	0xbdafc7a6	-0.08583002
68	0x3e04ef0b	0.12981813
69	0xbdcc906f	-0.09988486
70	0x3e474486	0.19459733
71	0x3d4d96b8	0.050192565
72	0xbde32790	-0.1109153
73	0xbd75b167	-0.059983637
74	0x3d12ae71	0.03581089
75	0xbc3dfbb9	-0.01159566
76	0xbd522ecb	-0.051314157
77	0x3cfc9144	0.030830987
78	0x3d8d46b5	0.06898252
79	0x3dd36f08	0.10323912
80	0xbdf10f50	-0.11770499
81	0xbdda01ea	-0.10644896
82	0xbe0733c3	-0.1320334
83	0xbca9d2e5	-0.020730445
84	0xbd9a41c4	-0.07532075
85	0x3dc829a7	0.097735696
86	0xbe106ee5	-0.14104803
87	0x3dc5d6c5	0.09660105
88	0x3db5e1aa	0.08880933
89	0x3df79501	0.12088967
90	0x3d5fc797	0.054633703
91	0x3df255f3	0.118328
92	0x3e0b8c30	0.13627696
93	0x3def283f	0.11677598
94	0x3de043ce	0.10950433
95	0xbd941ec4	-0.072324306
96	0xbc1e6c74	-0.009669412
97	0xbdd2a0b3	-0.10284557
98	0xbdb07b03	-0.086172126
99	0x3d04d9e8	0.032434374
100	0x3e05fd78	0.13084972
101	0x3e16b01e	0.14715621
102	0x3dea0a7a	0.114277795
103	0x3ded56e0	0.11588836
104	0xbe060ba2	-0.13090375
105	0xbdf200a5	-0.11816529
106	0xbd997f7d	-0.074950196
107	0xbd3996cd	-0.04530983
108	0x3d2e9a6f	0.042627748
109	0xbdec37e7	-0.115341
110	0x3d07ef80	0.03318739
111	0xbdb4d5a0	-0.08829808
112	0xbd40961e	-0.047018163
113	0x3dfcf0fc	0.123506516
114	0x3c87dba3	0.016584223
115	0x3c707558	0.014676414
116	0x3e156b2e	0.14591667
117	0xbdf82ab3	-0.12117519
118	0xbd11f47f	-0.03563356
119	0x3dc3a905	0.09553722
120	0xbdb26bfe	-0.08712004
121	0xbe11df6d	-0.14245386
122	0x3c9d2160	0.019180954
123	0x3d8e41e2	0.0694616
124	0xbcd0649e	-0.025438603
125	0xbd102424	-0.035190716
126	0x3dc565d8	0.09638566
127	0xbcc96fba	-0.024589408

action_net.bias f4 [2]
0	0xbd392337	-0.0451996
1	0xbc90d41d	-0.017679268
