weights/cnn-nd-2-eps-2300.pth (torch, 568309 bytes, 16 tensors)

log_std f4 [2]
-0.93652695 0.08202459
00000000: 3bc0 6fbf 82fc a73d

features_extractor.encoder.0.weight f4 [16, 1, 3, 3]
0.31371787 0.35234386 0.025186254 0.37363455 0.014555579 0.14279507 -0.10789557 0.25265974
0.3617222 -0.21375981 0.336849 0.11952597 0.2744619 0.09699341 0.19655737 -0.014343257
0.30903172 0.10195102 -0.18117236 0.15448931 -0.12201637 -0.071345635 -0.14822608 0.298975
-9.205013e-05 -0.18192 -0.029598866 -0.29479027 -0.018881408 -0.4142119 0.2793089 -0.2983896
0.26266152 0.07571409 -0.092251174 0.24378078 0.067062095 0.2964617 0.08445714 -0.0789864
0.13837995 -0.045226876 0.18335138 0.35879567 0.24602874 -0.17201431 0.23615348 -0.076111816
0.24091132 -0.120540336 -0.31850576 -0.27661246 -0.0836022 0.53536505 0.18867296 0.24651259
0.22989808 0.08469583 0.40279365 -0.10486802 0.05473407 -0.1479443 0.19708146 -0.20366926
0.12597717 0.005497447 0.40795052 -0.26668718 -0.10194214 -0.33180553 0.30619237 0.117759235
0.36720708 -0.2819153 -0.3039478 -0.36106798 -0.1600513 0.3481603 0.091831736 0.4043108
-0.10145818 -0.24401605 0.26086655 -0.053841345 0.2398951 -0.008238263 0.28650066 -0.23243998
-0.06976005 0.18147203 0.17045136 -0.07749187 0.16284834 0.30538887 -0.19136558 -0.16914055
0.42999795 -0.070725925 -0.13413425 -0.32253155 -0.19089007 0.0832679 -0.043997735 -0.241962
0.0078189075 -0.22769384 -0.2827989 -0.18355422 -0.46460932 -0.24597697 0.3624844 0.16617619
0.106718756 -0.30948123 -0.10161287 -0.07168975 0.13511012 -0.29330713 -0.15096273 -0.25561854
-0.2027081 -0.15324582 0.07529088 -0.27674636 -0.21360028 -0.10064975 -0.19076443 -0.27726135
0.28085947 -0.10506668 0.30889302 0.13371582 -0.3394308 0.22950058 -0.07149888 -0.07815087
-0.32636967 -0.16266464 -0.0036874062 -0.016389612 0.33298844 -0.25069994 0.57337445 -0.0911948
00000000: a19f a03e 6a66 b43e 6753 ce3c 074d bf3e
00000010: 867a 6e3c df38 123e 5af8 dcbd 9e5c 813e
00000020: a733 b93e dae3 5abe 7977 ac3e 08ca f43d
00000030: 4586 8c3e 7ba4 c63d 5646 493e fbff 6abc
00000040: 6839 9e3e b2cb d03d 3f85 39be 7232 1e3e
00000050: b8e3 f9bd a91d 92bd 94c8 17be 4013 993e
00000060: 0a0b c1b8 3d49 3abe 5279 f2bc c0ee 96be
00000070: 2fad 9abc 9513 d4be 9301 8f3e 86c6 98be
00000080: 927b 863e fd0f 9b3d 2fee bcbd aba1 793e
00000090: da57 893d d4c9 973e ddf7 ac3d 9fc3 a1bd
000000a0: 79b3 0d3e d13f 39bd 77c0 3b3e 11b4 b73e
000000b0: f5ee 7b3e 8524 30be 38d2 713e 83e0 9bbd
000000c0: 75b1 763e dadd f6bd 3013 a3be 26a0 8dbe
000000d0: a137 abbd af0d 093f 7c33 413e cc6d 7c3e
000000e0: 676a 6b3e 0275 ad3d f83a ce3e 0bc5 d6bd
000000f0: d530 603d b67e 17be b9cf 493e ad8e 50be
00000100: 2900 013e ee23 b43b e4de d03e 398b 88be
00000110: 0ac7 d0bd 6ae2 a9be 3fc5 9c3e c12b f13d
00000120: 9102 bc3e 3457 90be 0c9f 9bbe e7dd b8be
00000130: 7de4 23be 1142 b23e 4712 bc3d d301 cf3e
00000140: 4ec9 cfbd 58df 79be 4d90 853e be88 5cbd
00000150: 10a7 753e c8f9 06bc 37b0 923e bf04 6ebe
00000160: 5bde 8ebd ced3 393e cd8a 2e3e 0fb4 9ebd
00000170: b7c1 263e ee5b 9c3e 57f5 43be 2e33 2dbe
00000180: b128 dc3e c1d8 90bd 7d5a 09be db22 a5be
00000190: b078 43be 5c88 aa3d f836 34bd e3c4 77be
000001a0: e01a 003c 9328 69be 04cb 90be a3f5 3bbe
000001b0: 46e1 edbe 63e1 7bbe 8e97 b93e 172a 2a3e
000001c0: 5d8f da3d 5374 9ebe 691a d0bd 13d2 92bd
000001d0: 4f5a 0a3e 5a2c 96be f995 1abe 6fe0 82be
000001e0: b692 4fbe 79ec 1cbe 1b32 9a3d b3b1 8dbe
000001f0: 08ba 5abe 7521 cebd c057 43be 33f5 8dbe
00000200: d0cc 8f3e 332d d7bd 3a27 9e3e cdec 083e
00000210: e0c9 adbe 3302 6b3e 016e 92bd 900d a0bd
00000220: ed19 a7be 8f91 26be 69a8 71bb 8243 86bc
00000230: 767d aa3e be5b 80be abc8 123f 57c4 babd

features_extractor.encoder.0.bias f4 [16]
-0.023612263 0.009050068 0.21501705 0.25005493 0.19859362 -0.03136835 0.02855826 -0.09099963
0.0074056415 -0.1438234 0.23501433 -0.24465017 0.2206622 0.14824496 0.048301652 0.0035513495
00000000: 816e c1bc bd46 143c 6e2d 5c3e 3307 803e
00000010: 205c 4b3e 197c 00bd 03f3 e93c 045e babd
00000020: 06ab f23b 7146 13be 99a7 703e 9385 7abe
00000030: 46f5 613e 87cd 173e f4d7 453d c2bd 683b

features_extractor.encoder.2.weight f4 [16, 16, 3, 3]
0.044080645 0.06811178 0.049393065 -0.26723355 -0.06778665 -0.08673103 0.034880865 -0.0014724757
0.06650817 -0.10832498 0.0473318 0.017126761 -0.120622486 -0.11099271 -0.08004952 0.041089542
-0.080704644 0.08254901 0.12595907 -5.336649e-05 0.047581676 0.054811694 0.07768995 -0.009958454
0.07367631 0.07785368 0.09252701 0.029925855 -0.079885416 0.008579325 0.037024282 0.024752798
0.07649138 0.16438423 0.068864435 0.021748416 -0.04039216 0.039232574 0.010906929 -0.04526144
-0.14153603 -0.05448193 0.09854371 -0.0067722155 0.028829865 -0.12949991 0.01383254 -0.21155578
-0.21830529 0.32213026 -0.13203761 0.044924278 0.1327073 -0.081487715 0.0027574704 0.18243746
0.09488826 -0.18717457 0.00033142185 -0.12081432 -0.031289954 -0.01818548 0.014460854 0.06573172
0.23773405 0.15372524 0.18487775 0.10597725 0.03225047 0.17797808 0.16170244 0.08516041
0.081606194 0.041142803 0.2485205 0.27949363 0.04042247 0.112050585 0.06931358 -0.016453153
0.09131031 -0.0132391155 0.118965216 0.09518918 -0.28160676 0.00888721 -0.08448189 0.117028125
-0.16085605 0.19533625 0.031242896 -0.06454622 0.02293497 0.008585264 -0.06497312 -0.08366107
0.10091539 -0.025035545 0.0072094523 0.037815355 0.059536062 -0.063921005 0.059933074 -0.03939597
0.030922435 0.078259565 -0.011752658 -0.00064445287 0.014647122 -0.04312734 0.042254183 -0.040643185
0.07939869 0.11177259 0.07071372 0.09880482 -0.1198564 0.035366606 -0.010343463 -0.14483899
0.019569261 -0.024623929 0.036509477 -0.05056349 -0.0204579 0.013443444 -0.060269337 0.22851095
0.17830326 -0.087590635 -0.018259477 -0.026233694 -0.14615789 -0.037729524 0.044978723 -0.07212453
-0.119098246 0.12509555 -0.037518866 -0.13330624 0.08354145 0.03679127 0.10429851 -0.0005529603
-0.21973573 -0.116684735 0.03344261 0.06543772 -0.124440454 -0.22025473 0.17599815 0.10079913
-0.27734846 -0.08138713 -0.017170273 0.10968977 0.09486603 0.027102686 -0.2545369 0.12014362
-0.021331858 -0.22960716 0.12760504 0.13527675 -0.022078985 -0.12163364 -0.021928897 -0.042942237
-0.043329697 0.029990956 0.107306525 0.05623732 -0.06875689 -0.07472569 0.10674759 -0.021654306
0.00485488 0.036214244 -0.007990487 -0.008393367 -0.061719537 -0.06134832 -0.033821642 -0.02430404
-0.06870427 -0.053974673 0.14439845 -0.03538772 -0.12685615 -0.057133004 -0.06708434 -0.08678771
0.31775337 0.24942638 -0.2483532 0.041337345 -0.014691962 -0.29179356 -0.2108634 0.04737401
0.036243055 -0.037208337 -0.1444771 -0.070112005 0.12345543 0.06423622 -0.15028892 0.33243752
-0.18498527 0.021723272 0.46410027 0.40552348 -0.11046253 0.34801707 0.33137426 -0.010691396
0.15156068 -0.2145912 0.3182314 0.15597811 0.042295344 -0.06744619 0.16639711 0.04780489
0.13719009 -0.25228992 -0.087680444 0.047719773 0.10714119 -0.1789889 -0.18074125 0.06976761
0.08490803 -0.060757414 0.08556341 -0.11471395 -0.04972279 0.06168682 0.036643274 -0.008059207
0.007909498 0.09587304 0.09862807 0.003759861 -0.020508379 -0.07546581 -0.07835479 -0.03983459
-0.04236012 0.0259628 -0.024259232 -0.032601845 0.16255167 0.15148866 0.059293382 -0.07117202
00000000: e88d 343d 307e 8b3d 6250 4a3d d6d2 88be
00000010: bad3 8abd 0aa0 b1bd 3ddf 0e3d 1600 c1ba
00000020: 6f35 883d 7dd9 ddbd fdde 413d 6c4d 8c3c
00000030: ec08 f7bd 2550 e3bd 01f1 a3bd 824d 283d
00000040: 7a48 a5bd 750f a93d 6afb 003e d5d5 5fb8
00000050: 01e5 423d 3a82 603d e91b 9f3d c928 23bc
00000060: 9be3 963d c071 9f3d cd7e bd3d 1127 f53c
00000070: f79a a3bd 4c90 0c3c c6a6 173d 61c6 ca3c
00000080: 83a7 9c3d 5754 283e cc08 8d3d bc29 b23c
00000090: 4072 25bd 56b2 203d fab2 323c 0f64 39bd
000000a0: d2ee 10be 7228 5fbd 49d1 c93d 76e9 ddbb
000000b0: 9c2c ec3c a09b 04be e1a1 623c 14a2 58be
000000c0: 6c8b 5fbe 42ee a43e de34 07be 8502 383d
000000d0: 6ce4 073e 08e3 a6bd adb6 343b e3d0 3a3e
000000e0: c754 c23d b1aa 3fbe b0c2 ad39 806d f7bd
000000f0: e529 00bd b7f9 94bc 38ed 6c3c 5a9e 863d
00000100: 8e70 733e 266a 1d3e 9850 3d3e 9a0a d93d
00000110: 1219 043d e33f 363e 5395 253e 9568 ae3d
00000120: 2621 a73d 5b85 283d 287c 7e3e ca19 8f3e
00000130: 0892 253d c77a e53d 47f4 8d3d c3c8 86bc
00000140: e600 bb3d e0e8 58bc 09a4 f33d 8bf2 c23d
00000150: c32e 90be a99b 113c d704 adbd 71ac ef3d
00000160: 73b7 24be 3a06 483e 1af1 ff3c cf30 84bd
00000170: 1ee2 bb3c 35a9 0c3c a110 85bd 7f56 abbd
00000180: baac ce3d 5817 cdbc 453d ec3b 46e4 1a3d
00000190: 16dc 733d 04e9 82bd 627c 753d ab5d 21bd
000001a0: 0c51 fd3c 8d46 a03d 388e 40bc 80f0 28ba
000001b0: 7bfa 6f3c 4ba6 30bd b912 2d3d 7879 26bd
000001c0: c89b a23d 07e9 e43d 5bd2 903d 2e5a ca3d
000001d0: 4677 f5bd 93dc 103d a177 29bc ac50 14be
000001e0: b74f a03c 1fb8 c9bc f68a 153d a91b 4fbd
000001f0: 5397 a7bc e441 5c3c fbdc 76bd c6fe 693e
00000200: 2195 363e b862 b3bd e694 95bc 0be8 d6bc
00000210: 6aaa 15be 468a 1abd 9c3b 383d 07b6 93bd
00000220: c8e9 f3bd 0c19 003e 62ad 19bd 6e81 08be
00000230: c817 ab3d 71b2 163d 759a d53d 8af4 10ba
00000240: 6702 61be 68f8 eebd 1efb 083d 3604 863d
00000250: a3da febd 758a 61be dc38 343e c66f ce3d
00000260: 9e00 8ebe 4cae a6bd aca8 8cbc 08a5 e03d
00000270: 1f49 c23d 7406 de3c a952 82be dc0d f63d
00000280: 26c0 aebc 241e 6bbe e5aa 023e fd85 0a3e
00000290: fdde b4bc 0f1b f9bd 3ba4 b3bc 33e4 2fbd
000002a0: 7b7a 31bd 98af f53c 86c3 db3d 1b59 663d
000002b0: 6ad0 8cbd c809 99bd 7b9e da3d 5f64 b1bc
000002c0: af15 9f3b 6355 143d 88ea 02bc 5584 09bc
000002d0: a0cd 7cbd 6048 7bbd 9088 0abd 4419 c7bc
000002e0: d3b4 8cbd 8c14 5dbd 30dd 133e b7f2 10bd
000002f0: 94e6 01be 4c04 6abd 8463 89bd c1bd b1bd
00000300: 92b0 a23e a169 7f3e 4d50 7ebe 5951 293d
00000310: 8eb6 70bc f765 95be 93ec 57be 400b 423d
00000320: 9973 143d c567 18bd cef1 13be e296 8fbd
00000330: 33d6 fc3d 488e 833d 57e5 19be 4035 aa3e
00000340: c76c 3dbe 01f5 b13c 8d9e ed3e c6a0 cf3e
00000350: 2e3a e2bd 4b2f b23e e3a9 a93e f72a 2fbc
00000360: b932 1b3e ccbd 5bbe 3aef a23e bab8 1f3e
00000370: e23d 2d3d 3a21 8abd 0164 2a3e 0fcf 433d
00000380: 8f7b 0c3e 252c 81be ce91 b3bd cf75 433d
00000390: d76c db3d de48 37be 3c14 39be 52e2 8e3d
000003a0: 43e4 ad3d c4dc 78bd de3b af3d 26ef eabd
000003b0: 20aa 4bbd 52ab 7c3d 4217 163d c40a 04bc
000003c0: d796 013c 1659 c43d 83fd c93d 0068 763b
000003d0: 3001 a8bc d28d 9abd 7a78 a0bd 9829 23bd
000003e0: ce81 2dbd f0af d43c 4cbb c6bc 8389 05bd
000003f0: f273 263e d81f 1b3e 9edd 723d a3c2 91bd

features_extractor.encoder.2.bias f4 [16]
0.027597273 -0.010323711 0.06448815 -0.056302723 0.02773138 -0.06227839 -0.05458589 -0.046570834
-0.033627283 0.009374653 -0.060511988 -0.10378057 0.034900382 0.072052725 0.0041305427 -0.059042145
00000000: ad13 e23c c824 29bc 5d12 843d af9d 66bd
00000010: eb2c e33c a017 7fbd 7495 5fbd 0fc1 3ebd
00000020: c3bc 09bd 2598 193c 6bdb 77bd e88a d4bd
00000030: b4f3 0e3d 6190 933d 8159 873b 2dd6 71bd

features_extractor.encoder.4.weight f4 [16, 16, 3, 3]
0.025933027 -0.023072802 0.025876628 -0.055019166 -0.08602651 0.023894077 0.010575546 0.12512739
0.07956358 0.051367912 -0.12219948 0.15730467 0.053607523 0.05898952 -0.022369165 0.117407374
-0.06100652 -0.004327056 0.06049041 0.07194819 0.038444094 -0.12786491 0.04707802 -0.13881452
-0.27815866 0.027444603 0.06318148 -0.0036792748 -0.0009051271 -0.022911502 -0.049480576 0.088775784
-0.031633895 0.039712735 0.056953978 -0.05477974 -0.039830964 0.09111218 0.12836277 -0.014831598
0.07936612 -0.08630292 -0.092477866 -0.11639748 -0.15644689 0.069641404 0.029254653 0.02432104
0.13028939 0.13535771 0.033116788 -0.07112598 -0.18610588 -0.17566743 0.24227984 0.06703232
-0.020332038 0.13492805 -0.114621654 -0.12902705 0.0654689 -0.018466916 0.06379429 0.025079634
0.04960136 -0.1484015 -0.13525268 -0.013335342 -0.15825509 0.01897432 0.076339334 -0.048017573
0.06952998 0.03504038 -0.11037114 -0.069687165 0.08002674 -0.078900486 0.08672659 0.013992948
-0.14248075 0.11170703 0.08316764 0.0008698894 -0.13751402 0.13628751 -0.18518837 0.0023029384
-0.15203767 -0.14006604 -0.012616935 0.12492394 -0.11875754 0.02289935 0.21332565 -0.19255596
-0.0713379 -0.0358645 -0.08760266 -0.0049666106 0.040335476 0.06996722 0.10549661 -0.019506156
-0.0027651642 -0.031311046 -0.08205076 -0.082987286 0.0395228 -0.090948164 -0.0039575836 0.03993823
0.09762642 0.07509376 0.032821093 -0.0051355194 -0.05890075 0.051410288 0.008366591 -0.04339815
-0.16914487 -0.20023282 -0.09753134 0.012762405 -0.079325624 0.056536544 -0.09678794 -0.03769272
0.04668255 -0.060822144 0.07617866 -0.023131328 0.0047105066 -0.1999809 -0.1747655 -0.07758892
0.06568944 0.071518 -0.013352378 -0.032761756 0.0012488678 0.008333612 -0.05744781 -0.09956379
-0.19996247 0.16063318 -0.13670608 -0.025701964 0.03246044 -0.037030425 -0.007475377 -0.04715314
-0.0341392 -0.15735471 -0.11873897 0.058653533 -0.22895882 0.017912699 -0.031054473 0.036876816
-0.09557631 -0.05737291 0.15505114 0.12464974 0.028604386 -0.13820776 -0.14912651 0.14025965
-0.0151888225 -0.15550603 0.12534997 0.0059068576 0.020364195 -0.051801406 -0.05619695 -0.076677136
0.021531962 -0.053769123 0.006350696 -0.018638186 -0.18556872 -0.10061446 -0.011433874 -0.44930264
-0.21541776 -0.121879295 -0.19420224 -0.06559602 -0.007603264 -0.076675296 0.024275398 0.15994261
-0.37791672 -0.15918836 -0.13358448 -0.21271683 -0.04355674 -0.05020793 0.041930787 -0.08630755
0.06718901 -0.083449006 -0.01361899 -0.019299611 -0.09001835 0.07327721 -0.104746826 -0.060172178
-0.000934183 -0.077224016 0.061201252 -0.00490204 0.07607254 -0.075747296 0.0474929 0.031622704
0.092249334 0.100380905 -0.08304022 -0.042179603 0.0007437419 0.052850906 -0.08001934 -0.08421088
0.028571254 -0.014376199 0.015250727 -0.17638247 -0.04739565 -0.15737277 -0.007580885 -0.16289584
-0.08600827 0.13224675 0.19272183 0.132883 0.04083302 0.036900777 -0.07075869 0.18134964
-0.019306554 -0.021917572 0.17267619 -0.15385333 -0.025888383 0.039525636 -0.42968085 -0.22114661
0.012652154 -0.11305073 -0.046661757 -0.00072873157 -0.051922217 0.04308759 0.09344882 -0.2702889
00000000: 8071 d43c 2c03 bdbc 39fb d33c c75b 61bd
00000010: ab2e b0bd 83bd c33c 0e45 2d3c 6521 003e
00000020: 3bf2 a23d 2967 523d b943 fabd 7a14 213e
00000030: 9093 5b3d ff9e 713d 8a3f b7bc 4773 f03d
00000040: f9e1 79bd fac9 8dbb cbc4 773d 9359 933d
00000050: 8e77 1d3d 05ef 02be e2d4 403d 6525 0ebe
00000060: d06a 8ebe 81d3 e03c 4b65 813d fd1f 71bb
00000070: 0d46 6dba e7b0 bbbc 25ac 4abd 14d0 b53d
00000080: 8b92 01bd d2a9 223d 9348 693d b860 60bd
00000090: cb25 23bd 0699 ba3d 8871 033e 3b00 73bc
000000a0: b48a a23d 96bf b0bd 0965 bdbd cd61 eebd
000000b0: 9d33 20be 27a0 8e3d 74a7 ef3c eb3c c73c
000000c0: 956a 053e 369b 0a3e 78a5 073d 7faa 91bd
000000d0: 8a92 3ebe 2ae2 33be 3518 783e 3e48 893d
000000e0: 608f a6bc 942a 0a3e c2be eabd ab1f 04be
000000f0: 8f14 863d ee47 97bc 95a6 823d ce73 cd3c
00000100: cc2a 4b3d 90f6 17be ae7f 0abe 7a7c 5abc
00000110: 9f0d 22be 0870 9b3c cc57 9c3d 13ae 44bd
00000120: bc65 8e3d 8086 0f3d 440a e2bd 25b8 8ebd
00000130: 0fe5 a33d 9496 a1bd b69d b13d ae42 653c
00000140: 79e6 11be a8c6 e43d cc53 aa3d 4a09 643a
00000150: 7ad0 0cbe f48e 0b3e 05a2 3dbe e5ec 163b
00000160: c3af 1bbe 796d 0fbe 43b7 4ebc 1fd8 ff3d
00000170: 2737 f3bd 6b97 bb3c 0a72 5a3e 642d 45be
00000180: 9b19 92bd a7e6 12bd 0669 b3bd f3be a2bb
00000190: d036 253d f94a 8f3d 9b0e d83d 60cb 9fbc
000001a0: c237 35bb 0340 00bd 3b0a a8bd 3df5 a9bd
000001b0: a9e2 213d 0843 babd 9eae 81bb 4596 233d
000001c0: 5cf0 c73d c2ca 993d 696f 063d dc47 a8bb
000001d0: ea41 71bd 9893 523d 0714 093c 42c2 31bd
000001e0: 5034 2dbe d509 4dbe 83be c7bd 6819 513c
000001f0: 7975 a2bd dd92 673d c138 c6bd ae63 1abd
00000200: 3436 3f3d a420 79bd 8f03 9c3d e97d bdbc
00000210: 985a 9a3b cbc7 4cbe baf5 32be f1e6 9ebd
00000220: 2f88 863d 0778 923d efc3 5abc 3131 06bd
00000230: 0db1 a33a b489 083c 654e 6bbd 1ae8 cbbd
00000240: f6c2 4cbe 067d 243e aefc 0bbe ed8c d2bc
00000250: 3df5 043d 37ad 17bd 02f4 f4bb a723 41bd
00000260: 8cd5 0bbd 9821 21be 6b2d f3bd b03e 703d
00000270: 2e74 6abe a7bd 923c f365 febc 250c 173d
00000280: 83bd c3bd dbff 6abd bac5 1e3e 5d48 ff3d
00000290: bf53 ea3c 5686 0dbe 9fb4 18be 3aa0 0f3e
000002a0: 8ada 78bc f93c 1fbe be5b 003e 508e c13b
000002b0: d0d2 a63c b62d 54bd c62e 66bd e708 9dbd
000002c0: cc63 b03c 033d 5cbd 8019 d03b 1caf 98bc
000002d0: ba05 3ebe f40e cebd 2555 3bbc ff0a e6be
000002e0: 7996 5cbe da9b f9bd f4dc 46be 3557 86bd
000002f0: cd24 f9bb f007 9dbd 33dd c63c ffc7 233e
00000300: 4d7e c1be 4602 23be 5fca 08be 71d2 59be
00000310: 8d68 32bd d5a6 4dbd 9ebf 2b3d 03c2 b0bd
00000320: 649a 893d 50e7 aabd 2f22 5fbc 381a 9ebc
00000330: 8a5b b8bd 5d12 963d 8185 d6bd 1a77 76bd
00000340: f6e3 74ba a027 9ebd 2aae 7a3d 4ba1 a0bb
00000350: ebcb 9b3d 6621 9bbd ea87 423d cf86 013d
00000360: 38ed bc3d 8194 cd3d fe10 aabd 85c4 2cbd
00000370: adf7 423a 317a 583d 2ee1 a3bd c176 acbd
00000380: 430e ea3c 268a 6bbc 2fde 793c 9b9d 34be
00000390: f121 42bd 5426 21be 1369 f8bb 2bce 26be
000003a0: 1b25 b0bd b16b 073e df58 453e 7b12 083e
000003b0: 8640 273d 4525 173d efe9 90bd b8b3 393e
000003c0: c728 9ebc 7b8c b3bc 07d2 303e ba8b 1dbe
000003d0: e013 d4bc a2e5 213d 21ff dbbe 4274 62be
000003e0: fb4a 4f3c 2487 e7bd 6620 3fbd 5908 3fba
000003f0: 64ac 54bd 9d7c 303d 1862 bf3d 4f63 8abe

features_extractor.encoder.4.bias f4 [16]
-0.08537321 -0.048906166 0.0039434317 -0.037397802 0.03269562 -0.09812674 -0.033334468 -0.022532383
-0.0053235264 0.026921066 -0.08668123 -0.046835925 -0.07062228 -0.088279754 -0.12885834 -0.09771462
00000000: 26d8 aebd d551 48bd e737 813b 702e 19bd
00000010: d8eb 053d acf6 c8bd b989 08bd d595 b8bc
00000020: fa70 aebb 9189 dc3c ee85 b1bd 07d7 3fbd
00000030: 6aa2 90bd 04cc b4bd 71f3 03be 9a1e c8bd

features_extractor.policy_net.0.weight f4 [64, 1024]
-0.076603815 0.00016826576 0.0025311578 -0.012464516 0.060934838 0.061262786 0.067848794 0.016086001
-0.081637226 0.048145905 0.0882375 0.20796916 -0.014845787 0.042606555 -0.0021495963 -0.00945879
-0.048715614 -0.022090709 -0.048388343 0.07640821 -0.0789906 0.20102154 0.0061896225 -0.011710891
0.23940113 -0.015770227 -0.08285129 0.035992272 -0.05752506 -0.10628767 0.026079638 0.049946032
-0.032465152 0.11186731 0.07703695 -0.02352747 0.10309667 -0.11088769 -0.02502027 -0.15805419
-0.025729401 0.13690868 -0.018924689 -0.05787967 0.104322866 0.200216 -0.09121689 -0.0005020951
-0.06792133 -0.20763485 0.13428429 -0.16464128 0.006075639 0.072311126 0.0029188877 0.096258216
0.0026206016 0.009632015 0.11993504 -0.13267475 -0.13950543 -0.10237276 -0.031484548 0.023237139
0.1725049 -0.045028556 -0.004058791 -0.004872493 -0.17884317 -0.2151497 -0.05329934 0.030423805
0.08264939 0.05535108 -0.15418924 -0.031622164 -0.019163767 0.15086061 0.028759055 -0.145618
-0.15927508 -0.034767 0.09194312 0.07603687 -0.051206604 -0.017186902 -0.08326489 -0.13070707
0.26195815 -0.10296417 -0.11651889 -0.22537568 -0.18766627 -0.103060335 0.072560936 0.05423085
0.07326574 0.058876023 -0.092588045 -0.0597339 0.080849804 -0.11153786 0.017418224 0.0646558
-0.04511539 0.020600721 -0.08252455 0.0319296 -0.008027944 -0.1676539 -0.17126851 0.14577875
0.06247509 0.123627566 -0.10201988 -0.011427335 -0.12945147 0.036494292 -0.006235467 0.18831778
0.06378181 -0.07416857 -0.043098312 -0.07403436 -0.15106626 -0.071078405 0.096744925 0.1797428
0.0080070915 0.041307203 0.056432754 -0.13257709 0.06857051 0.10884371 0.058574386 0.053616498
0.07503422 0.06497451 0.010062866 -0.02989038 0.07678013 -0.13071865 0.21749455 0.07605831
0.09904719 0.098896615 0.034223575 -0.029559942 -0.018076932 -0.14231843 -0.10562578 0.060928628
0.17689165 0.14673415 0.03825591 -0.011760741 0.009175644 0.16888192 -0.09768972 -0.0395136
0.1039912 -0.20256986 0.15775527 0.09818791 -0.07396461 0.008459779 -0.067042746 -0.088385195
0.07635874 -0.040215973 -0.017196648 0.011751774 -0.0072138477 -0.16563608 -0.025181921 -0.06967096
0.090077266 0.107501864 -0.07911611 0.0606046 -0.25760156 -0.12015393 -0.10821296 -0.027178632
0.15874094 0.07637864 0.23622975 -0.21719259 -0.19586454 0.02978176 -0.13489935 -0.09231254
0.023522593 -0.022867884 -0.122768186 0.056226697 0.10010554 0.02351954 -0.054580353 0.053688724
-0.016153822 0.14686558 0.035896976 0.039715387 0.109172896 -0.08428714 -0.058149647 0.02696372
0.06998853 -0.07244082 -0.038472332 -0.015206026 -0.007650689 -0.05415926 -0.031144615 0.17465784
0.118610725 0.10397791 0.0058267917 -0.08657716 0.012337669 -0.0143976435 0.1408464 -0.136141
0.13352768 0.035665598 -0.16183992 0.0139699215 0.12044179 -0.119113855 -0.1350246 -0.1196174
0.016104557 0.11727484 0.04751456 -0.060562424 -0.0643676 -0.0860496 -0.17222969 -0.08371695
-0.0781877 -0.017633894 -0.062155206 -0.10611486 -0.011638167 0.024687536 0.08621392 0.085822694
0.09411633 -0.08272583 0.09683456 -0.08525859 -0.0049315495 -0.041538842 0.15521419 -0.10271214
00000000: 76e2 9cbd 7f70 3039 c8e1 253b f837 4cbc
00000010: cf96 793d b0ee 7a3d 4ff4 8a3d cac6 833c
00000020: 6b31 a7bd a434 453d ddb5 b43d def5 543e
00000030: be3b 73bc 3684 2e3d 3ee0 0cbb 0af9 1abc
00000040: 068a 47bd 93f7 b4bc db32 46bd e87b 9c3d
00000050: d3c5 a1bd 97d8 4d3e 51d2 ca3b 09df 3fbc
00000060: 9225 753e 9030 81bc f0ad a9bd a26c 133d
00000070: 669f 6bbd 5aad d9bd f7a4 d53c 3694 4c3d
00000080: 2efa 04bd b01a e53d 8cc5 9d3d aebc c0bc
00000090: 5924 d33d 1619 e3bd 4ff7 ccbc f5d8 21be
000000a0: 77c6 d2bc ca31 0c3e f307 9bbc 3c13 6dbd
000000b0: 3aa7 d53d 6c05 4d3e eccf babd 089f 03ba
000000c0: 571a 8bbd 3b9e 54be d281 093e b997 28be
000000d0: 2716 c73b db17 943d cf4a 3f3b 0723 c53d
000000e0: 66be 2b3b 99cf 1d3c 81a0 f53d e4db 07be
000000f0: 83da 0ebe cfa8 d1bd f1f5 00bd d05b be3c
00000100: 20a5 303e dd6f 38bd 9bff 84bb 6fa9 9fbb
00000110: aa22 37be 3450 5cbe 6950 5abd 583b f93c
00000120: 1544 a93d d0b7 623d c9e3 1dbe 3e86 01bd
00000130: 55fd 9cbc 347b 1a3e 1c98 eb3c e31c 15be
00000140: 0219 23be d767 0ebd ad4c bc3d 38b9 9b3d
00000150: 04be 51bd 8ccb 8cbc c886 aabd 13d8 05be
00000160: 611f 863e e1de d2bd 75a1 eebd e2c8 66be
00000170: 962b 40be 4c11 d3bd d49a 943d 2b21 5e3d
00000180: 590c 963d fc27 713d cd9e bdbd 89ab 74bd
00000190: 9594 a53d f66d e4bd aab0 8e3c 436a 843d
000001a0: eaca 38bd d8c2 a83c a202 a9bd 9dc8 023d
000001b0: a387 03bc 77ad 2bbe 0361 2fbe 0647 153e
000001c0: e1e5 7f3d 7330 fd3d cdef d0bd b839 3bbc
000001d0: ed8e 04be 0a7b 153d e352 ccbb 60d6 403e
000001e0: 0aa0 823d b1e5 97bd db87 30bd 549f 97bd
000001f0: 1db1 1abe 8e91 91bd 3422 c63d 7f0e 383e
00000200: 2d30 033c be31 293d 0826 673d 4ac2 07be
00000210: b26e 8c3d 73e9 de3d b2eb 6f3d f99c 5b3d
00000220: 8bab 993d 5b11 853d b8de 243c acdc f4bc
00000230: e73e 9d3d 1cdb 05be e4b6 5e3e 76c4 9b3d
00000240: 41d9 ca3d 4f8a ca3d 052e 0c3d b127 f2bc
00000250: 1316 94bc ecbb 11be 5452 d8bd 4c90 793d
00000260: 1623 353e 7a41 163e 3bb2 1c3d 1fb0 40bc
00000270: 7155 163c 62ef 2c3e 8c11 c8bd 03d9 21bd
00000280: 57f9 d43d 796e 4fbe 998a 213e be16 c93d
00000290: c27a 97bd e39a 0a3c b54d 89bd 4c03 b5bd
000002a0: f961 9c3d 81b9 24bd fcdf 8cbc 838a 403c
000002b0: 2462 ecbb 819c 29be 514a cebc a6af 8ebd
000002c0: 6e7a b83d f029 dc3d a107 a2bd 873c 783d
000002d0: 5ae4 83be 4313 f6bd c29e ddbd b9a5 debc
000002e0: fc8c 223e 686c 9c3d 36e6 713e bc67 5ebe
000002f0: b790 48be e1f8 f33c 0e23 0abe 5b0e bdbd
00000300: 74b2 c03c 6e55 bbbc e36d fbbd f74d 663d
00000310: 2204 cd3d 0dac c03c a68f 5fbd b5e8 5b3d
00000320: 0555 84bc ee63 163e b508 133d 9aac 223d
00000330: 0a96 df3d bc9e acbd 532e 6ebd 05e3 dc3c
00000340: 2556 8f3d da5b 94bd 2a95 1dbd b222 79bc
00000350: a2b2 fabb 1ad6 5dbd fe22 ffbc 81d9 323e
00000360: 2eea f23d 5ff2 d43d acee be3b 5e4f b1bd
00000370: ef23 4a3c 18e4 6bbc 0a3a 103e 8c68 0bbe
00000380: 7bbb 083e 1716 123d 5db9 25be 19e2 643c
00000390: 2faa f63d f7f1 f3bd e443 0abe f8f9 f4bd
000003a0: b4ed 833c cb2d f03d a19e 423d 4e10 78bd
000003b0: 29d3 83bd c63a b0bd fb5c 30be cb73 abbd
000003c0: df20 a0bd f574 90bc 7596 7ebd bf52 d9bd
000003d0: 03ae 3ebc 843d ca3c ec90 b03d cfc3 af3d
000003e0: 10c0 c03d 296c a9bd 3351 c63d 0e9c aebd
000003f0: d698 a1bb a224 2abd 78f0 1e3e be5a d2bd

features_extractor.policy_net.0.bias f4 [64]
0.0098144375 -0.03218629 0.0062920577 -0.07163128 -0.047733005 -0.061460778 -0.03470943 0.047421467
-0.05522296 -0.038258325 0.0065558436 -0.004178704 -0.012274817 -0.06611057 -0.0418486 -0.03393388
-0.012765621 -0.014184096 -0.05734495 0.005572625 0.016268872 -0.030217418 -0.0060564145 -0.04858803
-0.04655214 -0.05767348 -0.065328136 -0.046231605 0.00913498 -0.005645837 -0.027365591 -0.070935555
-0.06500073 0.08693431 0.035477314 0.042322244 -0.020781122 -0.075772345 -0.026211474 0.0014348344
0.017265039 -0.019621901 0.020598898 -0.06333728 -0.020787818 -0.02440804 -0.07040739 0.004237654
0.011671697 -0.027021687 0.0019768544 0.060537778 0.0018819881 -0.02736179 -0.017827857 -0.09578092
-0.016952043 0.0060046343 -0.0023578198 -0.013527721 -0.0175077 0.023732707 0.0130671095 -0.013365261
00000000: bccc 203c c5d5 03bd 9b2d ce3b 6cb3 92bd
00000010: af83 43bd 4cbe 7bbd 7a2b 0ebd 033d 423d
00000020: 7831 62bd c3b4 1cbd 67d2 d63b 83ed 88bb
00000030: 501c 49bc fb64 87bd 7069 2bbd 41fe 0abd
00000040: e526 51bc 6964 68bc 8ae2 6abd 919a b63b
00000050: 4c46 853c 858a f7bc e374 c6bb 3e04 47bd
00000060: 75ad 3ebd 073b 6cbd c2ca 85bd 5a5d 3dbd
00000070: e2aa 153c b700 b9bb ce2d e0bc a946 91bd
00000080: 1a1f 85bd 9e0a b23d a950 113d 175a 2d3d
00000090: 2c3d aabc 882e 9bbd 72b9 d6bc 0e11 bc3a
000000a0: 696f 8d3c 1cbe a0bc 05bf a83c fab6 81bd
000000b0: 374b aabc 5ff3 c7bc c031 90bd 05dc 8a3b
000000c0: a53a 3f3c 965c ddbc 1d8e 013b 76f6 773d
000000d0: 0bad f63a d525 e0bc ba0b 92bc c928 c4bd
000000e0: 03df 8abc 86c2 c43b a785 1abb 60a3 5dbc
000000f0: 4f6c 8fbc 186b c23c 6e17 563c f8f9 5abc

features_extractor.policy_net.2.weight f4 [64, 64]
0.050822064 0.09092478 0.14602767 -0.09495932 0.22665258 -0.038844556 -0.01840781 0.081638195
-0.15760966 0.027414698 0.13835546 0.11904007 -0.09275171 -0.08869111 -0.079189345 0.02373339
-0.1459455 0.11907173 0.034124203 0.16217361 -0.0082105445 0.13146687 -0.1020409 -0.12468484
-0.06499658 -0.17166156 0.07374703 0.0007184436 0.06054914 -0.18008329 0.12517425 -0.12412492
-0.049541082 -0.1068448 -0.0720827 -0.036137685 -0.27081755 -0.21518748 0.034824852 0.22376904
0.21024244 0.19420758 -0.06879547 -0.09387608 0.1411741 0.13916413 0.06658625 0.12958263
0.09840582 0.06800529 0.20155305 -0.021802267 0.2288924 0.19753526 -0.066912 -0.11081115
-0.12297494 0.116187 -0.05463419 0.033544384 0.097611554 0.008103107 0.20133263 -0.07972179
0.11519777 0.061612982 0.15569082 0.04328952 0.1365492 0.06531506 0.17958686 0.061619405
0.05439131 0.006408807 -0.055122446 0.09412261 -0.02240455 -0.047183633 -0.28338966 -0.084921084
-0.12131131 0.08935207 -0.16552518 -0.10288171 -0.13295166 -0.02721036 -0.042849477 -0.11380088
0.09355186 -0.015895844 0.06919793 0.16549866 0.06536589 -0.10326224 0.13701312 -0.06773758
-0.13569888 -0.17536075 0.044305537 0.049059756 -0.30961004 -0.14368048 -0.20035498 0.14313643
0.086107776 0.08658342 -0.047146663 -0.11281245 0.054721896 0.19120432 0.006597843 0.25910014
-0.06684512 0.08572822 0.3109793 -0.08971912 -0.0057842927 0.15051155 -0.006628578 0.026333021
-0.20669155 0.09836934 0.08704998 -0.012886106 0.16108818 -0.21517451 0.1470114 -0.056968417
0.09318591 0.0304268 0.14450826 0.004097183 0.110823244 -0.21000798 -0.09104845 0.15004605
-0.19746245 -0.003810938 0.063605346 -0.037210654 -0.21632569 -0.036475234 0.039209742 0.061649874
0.041518044 0.20494077 -0.01629149 0.1236202 0.10872659 0.037913125 -0.13574491 -0.17997259
0.005952512 -0.023065943 0.08249176 -0.054264028 -0.14142838 -0.26404023 0.1046067 -0.10624763
-0.09132535 0.016242882 -0.13888983 0.090080135 -0.18747793 -0.042683925 -0.08798471 0.12643531
0.18849272 0.072723925 -0.09907688 -0.07307617 0.026107281 0.06945095 -0.04181049 0.17214184
-0.01828609 0.106383204 0.19420029 0.066409744 0.07976205 0.15967342 -0.07856533 -0.17652234
-0.0067051398 0.058297314 0.028203065 0.09536955 -0.026788943 -0.10854424 0.15910292 0.10979651
0.05894251 0.191774 0.14238623 -0.012146701 0.09177912 0.012572757 0.009442624 0.07216014
-0.010200573 -0.015310764 0.047622204 0.016126316 -0.16998832 -0.028570158 -0.055522606 0.03167664
-0.088821314 0.019153882 -0.15936926 0.10208019 -0.14914767 -0.07360114 -0.08268724 -0.22178474
0.061406925 -0.08902727 0.14904499 0.17035988 -0.15808438 -0.19434065 0.1360868 -0.069647685
-0.037071507 0.04249058 -0.13248436 0.0224048 -0.088370636 -0.10665201 -0.04054952 0.22030182
0.2512124 0.20676886 -0.13716447 -0.04831348 0.10861893 0.12805015 -0.033111557 0.26477948
-0.07124369 0.053640768 0.25048792 -0.029797694 0.12359736 0.0011152356 -0.005033708 -0.13693786
0.0032265766 0.22104494 0.0137658445 -0.111667596 0.17268945 -0.04664316 0.22765163 -0.095791936
00000000: cc2a 503d c536 ba3d 4788 153e 087a c2bd
00000010: 9d17 683e 781b 1fbd facb 96bc ed31 a73d
00000020: 6d64 21be ca94 e03c 0ead 0d3e 48cb f33d
00000030: 9cf4 bdbd afa3 b5bd 062e a2bd 876c c23c
00000040: bd72 15be e1db f33d d2c5 0b3d d710 263e
00000050: 8585 06bc 409f 063e d2fa d0bd c45a ffbd
00000060: ed1c 85bd 0cc8 2fbe af08 973d ef55 3c3a
00000070: 6002 783d c167 38be ae2d 003e 3535 febd
00000080: 97eb 4abd 72d1 dabd 18a0 93bd 1c05 14bd
00000090: 99a8 8abe 1b5a 5cbe 81a4 0e3d b623 653e
000000a0: cb49 573e 5ade 463e a4e4 8cbd 1a42 c0bd
000000b0: f18f 103e 0b81 0e3e 5f5e 883d 4fb1 043e
000000c0: fe88 c93d 5c46 8b3d ec63 4e3e ab9a b2bc
000000d0: c562 6a3e af46 4a3e 2909 89bd f5f0 e2bd
000000e0: 49da fbbd 73f3 ed3d 1ac8 5fbd d665 093d
000000f0: 91e8 c73d e5c2 043c 242a 4e3e 2e45 a3bd
00000100: cfec eb3d e55d 7c3d 6a6d 1f3e 5a50 313d
00000110: 8ed3 0b3e e7c3 853d 9ee5 373e a164 7c3d
00000120: 6cc9 5e3d f800 d23b 13c8 61bd 5bc3 c03d
00000130: bf89 b7bc a043 41bd 7318 91be 1beb adbd
00000140: 1072 f8bd 38fe b63d 6f7f 29be a5b3 d2bd
00000150: 7b24 08be 43e8 debc ef82 2fbd 7010 e9bd
00000160: 1e98 bf3d 0038 82bc a5b7 8d3d 7b78 293e
00000170: 8dde 853d 277b d3bd 2b4d 0c3e 00ba 8abd
00000180: a6f4 0abe c591 33be b979 353d e2f2 483d
00000190: 3585 9ebe fa20 13be db29 4dbe 5b92 123e
000001a0: 4659 b03d a652 b13d dc1c 41bd 370a e7bd
000001b0: 1124 603d 11cb 433e b832 d83b c6a8 843e
000001c0: 18e6 88bd 4792 af3d ae38 9f3e a8be b7bd
000001d0: 2a8a bdbb b31f 1a3e 8b34 d9bb 59b8 d73c
000001e0: f3a6 53be dd75 c93d 4347 b23d 3f20 53bc
000001f0: 4df4 243e b556 5cbe 288a 163e b757 69bd
00000200: 41d8 be3d a041 f93c f9f9 133e a941 863b
00000210: 4cf7 e23d 550c 57be 9c77 babd aca5 193e
00000220: 9933 4abe eec0 79bb 8543 823d 336a 18bd
00000230: 7b84 5dbe 0e67 15bd 659a 203d 9484 7c3d
00000240: d30e 2a3d fedb 513e bb75 85bc 962c fd3d
00000250: 0cac de3d cb4a 1b3d b700 0bbe bc4a 38be
00000260: 4a0d c33b caf4 bcbc 71f1 a83d f543 5ebd
00000270: 9ad2 10be 4830 87be 0a3c d63d 5c98 d9bd
00000280: c908 bbbd cb0f 853c 2339 0ebe ef7b b83d
00000290: 37fa 3fbe 57d5 2ebd 5431 b4bd 4278 013e
000002a0: 3c04 413e 48f0 943d d2e8 cabd f6a8 95bd
000002b0: f0de d53c 4d3c 8e3d 7a41 2bbd f345 303e
000002c0: b6cc 95bc 70df d93d 71dc 463e d501 883d
000002d0: 495a a33d 6e81 233e dce6 a0bd 46c2 34be
000002e0: cab6 dbbb 2ac9 6e3d 1d0a e73c 1c51 c33d
000002f0: 7c74 dbbc 714c debd e0eb 223e fedc e03d
00000300: b46d 713d 6760 443e b2cd 113e f502 47bc
00000310: b1f6 bb3d f7fd 4d3c 3cb5 1a3c b2c8 933d
00000320: 4e20 27bc 00da 7abc 800f 433d 561b 843c
00000330: 6b11 2ebe f70b eabc ac6b 63bd 5dbf 013d
00000340: f3e7 b5bd 9ae8 9c3c b231 23be 6b0f d13d
00000350: 2bba 18be 32bc 96bd ed57 a9bd 8a1b 63be
00000360: d485 7b3d ee53 b6bd 409f 183e d272 2e3e
00000370: dfe0 21be 3c01 47be 575a 0b3e 72a3 8ebd
00000380: 4bd8 17bd 9a0a 2e3d fba9 07be 458a b73c
00000390: aafb b4bd 5e6c dabd 4117 26bd cd96 613e
000003a0: e99e 803e 37bb 533e d874 0cbe 5be4 45bd
000003b0: 9a73 de3d 941f 033e fc9f 07bd 2d91 873e
000003c0: 36e8 91bd 6cb6 5b3d f43f 803e 4b1a f4bc
000003d0: 9d20 fd3d 192d 923a cef1 a4bb 7039 0cbe
000003e0: f974 533b 9b59 623e 238a 613c fbb1 e4bd
000003f0: 81d5 303e e60c 3fbd 821d 693e 902e c4bd

features_extractor.policy_net.2.bias f4 [64]
-0.060462434 -0.09394777 -0.083228044 0.055136606 -0.016395224 0.07406212 0.009879247 0.043516167
0.062180713 -0.043389652 -0.003791657 0.0031091538 -0.04431061 0.03461783 -0.0505829 0.0754133
-0.069734246 0.07399039 -0.030649776 0.02619001 0.090091825 -0.063606635 -0.0028912965 -0.052042667
0.05523131 -0.11410876 -0.0068953987 0.012746742 0.018690227 -0.12497916 0.0071363356 -0.043322753
-0.047364105 -0.11850862 -0.034664344 -0.086318076 -0.11170995 0.06479793 0.12910219 -0.07363202
-0.12535657 0.01972241 -0.09883403 -0.08092649 -0.0563346 -0.02392484 -0.013998696 0.10829309
-0.13809316 -0.07911116 0.018390568 0.02529552 -0.09462867 -0.10440184 -0.093853965 -0.022668377
0.05852944 -0.061397035 0.01804256 0.059012607 0.026656242 0.065809645 0.11865422 -0.02654882
00000000: 75a7 77bd b067 c0bd 7773 aabd ecd6 613d
00000010: 474f 86bc e1ad 973d 91dc 213c 023e 323d
00000020: 34b1 7e3d 59b9 31bd 737d 78bb f2c2 4b3b
00000030: 0b7f 35bd 6dcb 0d3d 0430 4fbd 4a72 9a3d
00000040: d4d0 8ebd 4688 973d 3d15 fbbc 6f8c d63c
00000050: 1082 b83d 3244 82bd e87b 3dbb b12a 55bd
00000060: 3a3a 623d dbb1 e9bd ccf2 e1bb b6d7 503c
00000070: 3f1c 993c 13f5 ffbd ecd7 e93b 3373 31bd
00000080: dd00 42bd a6b4 f2bd 33fc 0dbd 88c7 b0bd
00000090: 30c8 e4bd c7b4 843d 5d33 043e 62cc 96bd
000000a0: 795d 00be e490 a13c 7f69 cabd cabc a5bd
000000b0: 1cbf 66bd 07fe c3bc c95a 65bc c4c8 dd3d
000000c0: 4b68 0dbe 0805 a2bd d1a7 963c 8d38 cf3c
000000d0: adcc c1bd a2d0 d5bd 8236 c0bd 08b3 b9bc
000000e0: 91bc 6f3d 757b 7bbd fecd 933c 34b7 713d
000000f0: 315e da3c 35c7 863d fc00 f33d e97c d9bc

features_extractor.value_net.0.weight f4 [64, 1024]
0.10206769 0.058968537 0.05977531 0.025020685 -0.09185423 -0.013995223 -0.07848059 -0.021419834
-0.079949714 -0.093181916 0.01798946 0.06727357 0.018914854 -0.16409369 -0.10123805 -0.08506505
0.020179145 0.021102248 0.08848728 0.018863862 -0.03247046 -0.07331481 0.07918277 -0.016260209
0.022544874 0.00079741725 0.06101433 0.059180867 0.054004118 -0.12888971 0.09599619 -0.07747817
-0.085614674 -0.012729358 0.014532738 0.1617268 0.09907002 -0.027109673 0.030986493 -0.043740198
-0.04945018 0.007224986 0.033223763 -0.052367736 0.058382034 -0.0031099927 0.03870415 -0.109568365
-0.01855155 -0.07494622 0.046065178 -0.023861196 0.095389925 0.021044768 0.05298673 0.0056921565
-0.017786963 -0.16963027 -0.10086351 -0.22806956 -0.05888726 -0.023810903 -0.0026388874 0.046382185
0.19622613 0.02083287 -0.074803255 -0.04394888 -0.025743458 -0.10300342 -0.14361809 0.056676522
0.06692745 0.05142031 -0.024132974 0.19214608 -0.026923027 0.0009925163 -0.18343998 -0.043394085
0.052906144 -0.0064404663 0.017811928 -0.084951356 -0.07587433 -0.057237595 0.007627209 -0.03500465
0.009259023 -0.00069128 0.063056745 -0.057777654 0.106045775 -0.14998062 0.03524196 -0.13347638
-0.020690693 -0.040868256 0.007239632 0.039159253 0.053331487 -0.13711877 0.06598962 -0.012830139
0.046318114 0.07984415 0.089705 0.018431323 0.1022355 -0.014837907 -0.021123357 0.11940186
0.0145802945 0.06915544 0.035905097 -0.0025899808 0.01612442 0.04252692 -0.038339477 0.026858697
-0.043169517 -0.11283919 -0.100505784 -0.0825246 -0.0010634551 -0.042826153 0.005485203 -0.034579292
-0.03476256 -0.16889144 0.087243415 0.11675191 -0.062200505 -0.050489422 -0.010911035 -0.08719757
-0.10061517 -0.12187303 0.117131956 0.0038195276 0.004348673 -0.06762963 -0.04533479 -0.029047703
-0.150286 0.06171694 0.07725475 0.1414383 -0.017755842 -0.024681417 -0.12280993 -0.02722015
0.029944193 0.041047975 0.105120435 0.10453419 0.07384423 -0.101831615 -0.15283987 -0.025359495
0.039460167 0.0156100895 -0.006587813 -0.025579045 -0.0508144 -0.010667591 -0.16102658 -0.058764566
-0.006181687 0.05736535 -0.017612921 0.033375546 -0.11354981 -0.024162378 -0.07028218 -0.10345363
-0.08588766 0.05060818 -0.18301788 -0.18034884 -0.082006395 -0.15593298 -0.058359034 -0.08665015
-0.026969627 0.04352793 -0.15235864 0.052003838 0.0077003045 -0.028139204 -0.15678282 -0.03720967
-0.04085124 -0.12550938 0.0030144155 0.0149664115 -0.020715827 -0.07575302 -0.04903202 -0.18421225
-0.040770404 -0.19765235 0.003125769 0.102880634 -0.021038482 -0.080665566 0.10919361 -0.014365724
0.08693287 -0.03561701 -0.044451028 0.13559829 0.11458947 -0.22814192 0.017435491 -0.10786748
0.034860134 -0.023150975 0.03787988 -0.032389697 0.044930886 0.040349945 0.03788396 -0.010456952
-0.046847317 0.0059710853 -0.03923959 0.055609647 -0.09983008 0.027740758 0.059587743 0.013505151
-0.118892394 -0.12507516 -0.04081391 -0.12348474 0.08054397 0.16374953 -0.02462742 0.0068021626
0.102800384 -0.13337462 -0.099546455 -0.039548874 -0.016474161 -0.07836396 0.00835006 -0.07491818
0.031344034 -0.08969426 -0.03513863 -0.00862828 0.08048292 -0.019854352 0.1495956 0.107410975
00000000: dd08 d13d fe88 713d f5d6 743d 2ef8 cc3c
00000010: 121e bcbd 384c 65bc 6eba a0bd a678 afbc
00000020: adbc a3bd 29d6 bebd a25e 933c bac6 893d
00000030: 53f3 9a3c 2d08 28be e555 cfbd 9636 aebd
00000040: bc4e a53c 9fde ac3c d238 b53d 6388 9a3c
00000050: bfff 04bd 1326 96bd 932a a23d 2134 85bc
00000060: 07b0 b83c c409 513a 29ea 793d a367 723d
00000070: 6c33 5d3d aafb 03be a799 c43d e0ac 9ebd
00000080: bf56 afbd cc8e 50bc b91a 6e3c b69b 253e
00000090: 39e5 ca3d 1b15 debc 63d7 fd3c ec28 33bd
000000a0: 468c 4abd 93bf ec3b a415 083d 8d7f 56bd
000000b0: 0022 6f3d 05d1 4bbb 3e88 1e3d 6165 e0bd
000000c0: 6cf9 97bc 677d 99bd d7ae 3c3d 8e78 c3bc
000000d0: cb5b c33d 1466 ac3c 9d08 593d 4585 ba3b
000000e0: f7b5 91bc 8fb3 2dbe 8791 cebd 118b 69be
000000f0: c433 71bd 150f c3bc 2ff1 2cbb 3ffb 3d3d
00000100: 81ef 483e b2a9 aa3c 7332 99bd be03 34bd
00000110: f2e3 d2bc 75f3 d2bd 9f10 13be a425 683d
00000120: 4211 893d 1a9e 523d 84b2 c5bc f1c1 443e
00000130: ae8d dcbc 5217 823a b1d7 3bbe ffbd 31bd
00000140: 1db4 583d 8c0a d3bb 52ea 913c fafa adbd
00000150: 0064 9bbd f871 6abd abed f93b 0961 0fbd
00000160: 28b3 173c 0437 35ba e523 813d 43a8 6cbd
00000170: 872e d93d 8594 19be e059 103d 08ae 08be
00000180: 877f a9bc 7965 27bd 6f3a ed3b 7465 203d
00000190: 1e72 5a3d dd68 0cbe 9125 873d 8135 52bc
000001a0: 10b8 3d3d 5485 a33d 41b7 b73d 49fd 963c
000001b0: d960 d13d b11a 73bc e40a adbc f688 f43d
000001c0: 30e2 6e3c 5ea1 8d3d 3911 133d abbc 29bb
000001d0: 5c17 843c b530 2e3d db09 1dbd c506 dc3c
000001e0: 85d2 30bd 3c18 e7bd fad5 cdbd a802 a9bd
000001f0: a263 8bba 7a6a 2fbd 38bd b33b 04a3 0dbd
00000200: 3063 0ebd e1f1 2cbe adac b23d a01b ef3d
00000210: f5c5 7ebd ffcd 4ebd 33c4 32bc a494 b2bd
00000220: 540f cebd 9198 f9bd e1e2 ef3d 0a51 7a3b
00000230: 507f 8e3b 6781 8abd f9b0 39bd 73f5 edbc
00000240: 93e4 19be e7ca 7c3d bd37 9e3d 34d5 103e
00000250: b374 91bc af30 cabc c683 fbbd cbfc debc
00000260: 864d f53c ec21 283d 6249 d73d 0516 d63d
00000270: a53b 973d 188d d0bd 0e82 1cbe b7be cfbc
00000280: fca0 213d 76c1 7f3c 95de d7bb 258b d1bc
00000290: c322 50bd 1fc7 2ebc 27e4 24be 1db3 70bd
000002a0: c08f cabb eef7 6a3d f948 90bc ccb4 083d
000002b0: ce8c e8bd 2ef0 c5bc 1bf0 8fbd 7fdf d3bd
000002c0: dfe5 afbd 864a 4f3d 0a69 3bbe 5ead 38be
000002d0: f8f2 a7bd e5ac 1fbe e209 6fbd a275 b1bd
000002e0: 68ef dcbc 584a 323d e703 1cbe fa01 553d
000002f0: d652 fc3b 3084 e6bc ad8b 20be 2b69 18bd
00000300: a153 27bd 8885 00be 808d 453b ae35 753c
00000310: 3db4 a9bc 6624 9bbd cdd5 48bd 23a2 3cbe
00000320: defe 26bd 6165 4abe b4d9 4c3b 15b3 d23d
00000330: e558 acbc fd33 a5bd e6a0 df3d 375e 6bbc
00000340: dc09 b23d 24e3 11bd 4812 36bd 47da 0a3e
00000350: e2ad ea3d 099e 69be e0d4 8e3c a0e9 dcbd
00000360: 80c9 0e3d 1da7 bdbc ef27 1b3d 0fab 04bd
00000370: 7309 383d fc45 253d 362c 1b3d a353 2bbc
00000380: f9e2 3fbd 18a9 c33b b1b9 20bd f1c6 633d
00000390: b773 ccbd 9640 e33c 4712 743d b544 5d3c
000003a0: db7d f3bd b413 00be 7d2c 27bd 91e5 fcbd
000003b0: 3df4 a43d f5ad 273e 71bf c9bc ade4 de3b
000003c0: 0289 d23d 5b93 08be 03df cbbd 00fe 21bd
000003d0: d2f4 86bc 497d a0bd b1ce 083c b46e 99bd
000003e0: 9a62 003d a0b1 b7bd 86ed 0fbd a15d 0dbc
000003f0: 3bd4 a43d 98a5 a2bc 972f 193e 49fa db3d

features_extractor.value_net.0.bias f4 [64]
0.014712496 -0.13003825 -0.14740165 -0.048875697 -0.15075538 0.050970156 -0.045454085 -0.24983042
-0.17483467 -0.23539717 -0.19870879 -0.15515655 -0.020199416 0.13255501 -0.19042669 -0.067352414
-0.22965887 -0.25987282 -0.1110088 -0.24678306 -0.039551374 -0.18272652 -0.11414061 -0.25181282
0.029861018 -0.15256733 -0.22931887 -0.1063752 -0.26638633 -0.08387137 -0.25703645 -0.23272192
-0.16352844 -0.15459171 0.08957405 -0.15166388 -0.28487623 0.06641953 -0.18311152 0.032573164
-0.16300738 0.08590944 -0.271209 -0.03300346 -0.19708017 -0.021229768 -0.20885837 -0.038505577
-0.16537254 -0.24883799 -0.12779988 -0.26368603 0.04236712 -0.1658731 -0.15655732 -0.03303826
-0.27605793 -0.24588242 0.09468583 0.034963924 -0.25482208 -0.16196422 -0.30177438 -0.057648186
00000000: ae0c 713c bf28 05be 75f0 16be e231 48bd
00000010: 9e5f 1abe 15c6 503d 102e 3abd 8cd3 7fbe
00000020: dc07 33be f50b 71be 517a 4bbe 5ce1 1ebe
00000030: 3f79 a5bc 80bc 073e 37ff 42be 10f0 89bd
00000040: b22b 6bbe 0d0e 85be 9558 e3bd b3b4 7cbe
00000050: 9f00 22bd a91c 3bbe 8dc2 e9bd 9ced 80be
00000060: 189f f43c 9c3a 1cbe 91d2 6abe 3edb d9bd
00000070: ca63 88be c1c4 abbd 489a 83be a84e 6ebe
00000080: 0074 27be 4a4d 1ebe 9972 b73d c74d 1bbe
00000090: 4cdb 91be f606 883d 9681 3bbe 706b 053d
000000a0: 68eb 26be 4af1 af3d e8db 8abe a32e 07bd
000000b0: 62cf 49be 0dea adbc f8de 55be 06b8 1dbd
000000c0: 6b57 29be 63cf 7ebe f9dd 02be db01 87be
000000d0: 2589 2d3d a3da 29be 9050 20be 2053 07bd
000000e0: 7757 8dbe 9ac8 7bbe a5ea c13d 5536 0f3d
000000f0: 0a78 82be f3d9 25be 2c82 9abe 8120 6cbd

features_extractor.value_net.2.weight f4 [1, 64]
0.048461262 -0.0002377438 -0.026105858 0.026491147 -0.028601354 0.030534005 0.028714197 0.00036701892
0.0030761699 0.011112476 -0.010236282 -0.00864236 0.0157194 0.046830397 0.006372555 0.014067035
-0.027757432 -0.016131235 0.026604641 0.0035140458 0.022514746 0.031346437 0.018585002 -0.022208285
0.011707479 -0.029689487 -0.038778357 0.0094762305 -0.008292434 -0.0024826166 -0.029504929 -0.03274689
0.0075357636 -0.02265494 0.01906181 -0.020354703 -0.03477262 0.03310321 0.012521136 0.026567457
-0.046620812 0.032730505 -0.0041499105 0.008869115 0.029799316 0.04343002 -0.033983205 0.0062987567
-0.029473811 0.00067271484 -0.0069408556 0.022527575 0.031406455 0.00020642953 0.022736894 0.017111693
0.009473621 -0.0022924016 0.033691157 0.022644555 0.0010534137 0.0066513163 -0.007928204 0.030703425
00000000: 517f 463d de4a 79b9 f4db d5bc f603 d93c
00000010: 634d eabc 7322 fa3c 093a eb3c 726c c039
00000020: 9199 493b 1a11 363c 14b6 27bc af98 0dbc
00000030: f9c5 803c 3bd1 3f3d ded0 d03b 6c79 663c
00000040: 8e63 e3bc a725 84bc faf1 d93c e84b 663b
00000050: d870 b83c 1f65 003d 933f 983c 26ee b5bc
00000060: bad0 3f3c 5e37 f3bc 0ed6 1ebd 3142 1b3c
00000070: fddc 07bc 65b3 22bb 52b4 f1bc 9a21 06bd
00000080: 91ee f63b da96 b9bc 8327 9c3c e8be a6bc
00000090: bc6d 0ebd 3b97 073d 7325 4d3c ffa3 d93c
000000a0: 77f5 3ebd 6c10 063d f9fb 87bb c44f 113c
000000b0: b21d f43c ade3 313d f931 0bbd cd65 ce3b
000000c0: 1073 f1bc 2159 303a 1e70 e3bb c08b b83c
000000d0: 0ea4 003d 0175 5839 b942 ba3c d22d 8c3c
000000e0: 3f37 1b3c 1e3c 16bb bdff 093d 1381 b93c
000000f0: b312 8a3a 49f3 d93b 4ce5 01bc c085 fb3c

action_net.weight f4 [2, 64]
-0.18040751 -0.22755548 -0.071535714 -0.23658003 -0.21403778 0.16780701 -0.1067376 0.26229236
-0.21154016 -0.20624179 0.28899166 0.16990794 -0.20934139 -0.18919407 0.18704589 -0.28635794
0.13803074 0.20155486 0.13335367 0.10638762 -0.07429424 -0.10338945 0.19833331 0.11129671
0.25906458 0.22014688 -0.16836494 -0.21369614 0.0020636052 0.1928807 -0.052360218 -0.16460402
0.21878448 0.09837439 0.15794095 -0.1556735 0.2291776 -0.16033185 -0.246911 -0.19118063
0.22027549 -0.11736047 0.17578085 -0.24204107 -0.2326718 -0.25341967 0.24244836 -0.23349954
0.24540557 0.07581139 0.09860019 0.21042323 -0.11707472 -0.15205501 -0.1877827 0.19883482
-0.17177354 -0.06809326 0.25971663 -0.06324238 -0.2635044 -0.19201754 0.046551727 -0.28204995
-0.20659724 -0.017116966 -0.16233543 -0.15886089 0.19962443 -0.19722816 0.2926146 0.061725184
-0.147686 -0.1340995 0.043837674 -0.038352508 0.0030453885 0.042648092 0.12241099 0.24210624
-0.19695833 -0.17733124 -0.24651684 -0.13256104 -0.15592755 0.2346367 -0.26594654 0.15759595
0.1219698 0.1927394 0.096693315 0.2264034 0.27542278 0.19694564 0.2257854 -0.15351324
-0.008331571 -0.20287445 -0.20320055 0.11597078 0.18175654 0.2815972 0.18655233 0.22132362
-0.23512277 -0.2208314 -0.16518478 -0.06991158 0.05961556 -0.1810921 0.024672002 -0.14074378
-0.11678157 0.23644282 -0.010854157 0.053584035 0.26529324 -0.16635174 -0.051695663 0.0964046
-0.21378228 -0.2870286 0.012980432 0.15543297 -0.017583381 -0.03544925 0.21516252 -0.09094489
00000000: bfbc 38be 4e04 69be 5181 92bd 0942 72be
00000010: b82c 5bbe 9ad5 2b3e 3e99 dabd 2f4b 863e
00000020: fc9d 58be 0c31 53be b7f6 933e 59fc 2d3e
00000030: 975d 56be 17bc 41be f588 3f3e 829d 92be
00000040: ee57 0d3e 6664 4e3e dd8d 083e c1e1 d93d
00000050: 9427 98bd d9bd d3bd e317 4b3e 88ef e33d
00000060: 1da4 843e 2f6e 613e dc67 2cbe 29d3 5abe
00000070: 8d3d 073b 8582 453e ab77 56bd f58d 28be
00000080: 0a09 603e 8378 c93d 46bb 213e e068 1fbe
00000090: 88ad 6a3e 082e 24be 3dd6 7cbe dbc4 43be
000000a0: e68f 613e b05a f0bd e5ff 333e 9dd9 77be
000000b0: 8441 6ebe 39c0 81be 6244 783e 811a 6fbe
000000c0: 994b 7b3e 0143 9b3d e5ee c93d 3079 573e
000000d0: dfc4 efbd 4fb4 1bbe 1c4a 40be 5b9b 4b3e
000000e0: 67e5 2fbe 7b74 8bbd 94f9 843e 3985 81bd
000000f0: 0cea 86be 3fa0 44be 06ad 3e3d da68 90be
00000100: 3a8e 53be e138 8cbc 423b 26be 6eac 22be
00000110: 596a 4c3e 2ef6 49be 95d1 953e 8cd3 7c3d
00000120: 003b 17be 6151 09be 228f 333d 8517 1dbd
00000130: 2495 473b c4af 2e3d 9db2 fa3d b3ea 773e
00000140: 72af 49be 5296 35be e96e 7cbe 15be 07be
00000150: 79ab 1fbe 9a44 703e 252a 88be d560 213e
00000160: 4dcb f93d 7a5d 453e 2507 c63d 4bd6 673e
00000170: 3704 8d3e 1eac 493e 4a34 673e 9332 1dbe
00000180: 2481 08bc 52be 4fbe ce13 50be 1782 ed3d
00000190: 631e 3a3e 822d 903e 9307 3f3e a9a2 623e
000001a0: 06c4 70be a021 62be 3326 29be cd2d 8fbd
000001b0: 722f 743d 3570 39be f01c ca3c 231f 10be
000001c0: 2d2b efbd 111e 723e a2d5 31bc ef7a 5b3d
000001d0: 84d4 873e 1c58 2abe d5be 53bd c66f c53d
000001e0: bee9 5abe 6af5 92be e1ab 543c d229 1f3e
000001f0: 060b 90bc 3c33 11bd 9053 5c3e 5141 babd

action_net.bias f4 [2]
-0.054625306 -0.009130914
00000000: c9be 5fbd d499 15bc
