weights/cnn-nd-2-eps-1500.pth (torch, 568309 bytes, 16 tensors)

log_std f4 [2]
000000 2f 5d 86 3c f1 f7 8f 3e
       0.016401855 0.28118852

features_extractor.encoder.0.weight f4 [16, 1, 3, 3]
000000 17 d7 a3 3e 01 0c b2 3e 89 31 16 3c 69 46 c5 3e
       0.32000038 0.34774783 0.009167084 0.3853028
000010 bd 37 62 3c 79 f5 09 3e 05 0e d8 bd 17 e1 82 3e
       0.013807234 0.13472547 -0.10549549 0.25562355
000020 c9 64 b5 3e 62 49 5a be d0 b2 a9 3e 74 f8 df 3d
       0.35428455 -0.21317056 0.33144236 0.109360605
000030 55 10 96 3e 5e 90 cc 3d d6 04 43 3e cc f3 22 bc
       0.29309335 0.09988473 0.19044814 -0.009945821
000040 44 6a 9f 3e a8 f7 cc 3d 69 f6 2a be 9b 72 34 3e
       0.31135762 0.10008174 -0.1669556 0.17621844
000050 47 bf cd bd 16 f0 b0 bd c2 c7 13 be 1c 2a 9a 3e
       -0.10046249 -0.08639543 -0.1443167 0.30110252
000060 28 1f 8e 3b 7f df 2c be bf e3 b5 bc c5 06 8a be
       0.00433721 -0.16882132 -0.022203324 -0.2695829
000070 62 b3 65 bc f7 d2 d0 be 6e f1 8b 3e b3 65 9b be
       -0.014019819 -0.40785953 0.27332634 -0.30351028
000080 12 28 83 3e e1 2d ad 3d fe bf a9 bd 02 27 82 3e
       0.2561651 0.08456016 -0.08288573 0.25420386
000090 a4 bd a1 3d a2 b7 94 3e 20 a6 79 3d 15 6d 89 bd
       0.07897499 0.2904635 0.060949445 -0.06710259
0000a0 2f 16 0b 3e fe e0 59 bd 17 cd 3d 3e eb 51 b9 3e
       0.13582681 -0.053193085 0.18535267 0.3619531
0000b0 83 f1 7b 3e b0 b6 23 be 0e fc 5e 3e 67 37 49 bd
       0.24603848 -0.15987659 0.21775839 -0.0491251
0000c0 95 b0 62 3e fa 04 14 be 54 29 a1 be d0 94 82 be
       0.22137673 -0.14455023 -0.31476843 -0.2550416
0000d0 7b 79 b4 bd a7 de 09 3f dc 6c 38 3e 64 7e 6c 3e
       -0.08812233 0.53855366 0.18010277 0.23095089
0000e0 64 fc 5e 3e c6 f4 c3 3d ec 7c cd 3e a5 ce 03 be
       0.21775967 0.09568171 0.4013437 -0.12871797
0000f0 95 bd 89 3d a6 16 0f be 25 68 46 3e e9 bb 2f be
       0.06725613 -0.13973483 0.19375665 -0.17161526
000100 c0 98 0a 3e 35 5b 2f 3c a9 ff ca 3e c2 aa 90 be
       0.13534832 0.010702898 0.39648178 -0.28255278
000110 c4 5b eb bd 59 ea a7 be ca 3c 99 3e 06 f2 e9 3d
       -0.11492112 -0.3279598 0.2992919 0.114231154
000120 31 8f c0 3e 33 61 8f be 39 62 9d be f6 79 bd be
       0.37609246 -0.28003845 -0.30739 -0.3700711
000130 08 ef 49 be 36 34 9e 3e c4 ab e7 3d 51 bc d0 3e
       -0.1972009 0.3089921 0.113120586 0.40768674
000140 4a e9 d1 bd af 45 68 be c3 b3 82 3e 11 ea 8b bd
       -0.102495745 -0.22682832 0.25527772 -0.06831754
000150 a0 60 8c 3e be 11 67 bb f8 26 91 3e d3 82 5c be
       0.2741747 -0.0035258378 0.28350043 -0.2153428
000160 d9 3d 8f bd e6 35 37 3e 2e a5 1c 3e 17 52 a1 bd
       -0.069942184 0.17891654 0.15297386 -0.078769855
000170 7b cb 14 3e c6 65 93 3e 6b 56 4e be b1 48 48 be
       0.14530747 0.28788584 -0.20150153 -0.1955898
000180 48 e4 d4 3e f7 76 82 bd 27 32 22 be db 22 a5 be
       0.41580415 -0.06370347 -0.15839444 -0.32253155
000190 b0 78 43 be 5c 88 aa 3d f8 36 34 bd e3 c4 77 be
       -0.19089007 0.0832679 -0.043997735 -0.241962
0001a0 e0 1a 00 3c 93 28 69 be 04 cb 90 be a3 f5 3b be
       0.0078189075 -0.22769384 -0.2827989 -0.18355422
0001b0 20 b4 d0 be 30 0b 5a be 8b 44 c7 3e dc 91 da 3d
       -0.40762424 -0.2129333 0.38919482 0.10672352
0001c0 7c b7 80 3d f9 a3 a1 be b2 66 08 be da 3f a2 bd
       0.06284997 -0.31570414 -0.13320425 -0.07922335
0001d0 0e 80 22 3e 5a 2c 96 be 0b 06 0d bd bb 89 56 be
       0.15869161 -0.29330713 -0.03442959 -0.20950978
0001e0 5f 01 12 be c0 05 fe bd 8d 35 73 bd 30 4c 67 be
       -0.14258336 -0.124034405 -0.059377242 -0.22587657
0001f0 20 4a 6a be 1e bd 3a be f8 ad 42 be 6f cf 92 be
       -0.22879839 -0.18236205 -0.19011676 -0.28673884
000200 f5 24 93 3e 07 6b c1 bd 30 22 95 3e 15 f1 08 3e
       0.28739133 -0.09444242 0.29127645 0.13373215
000210 21 53 a5 be ed 05 79 3e 71 62 6f bd 58 5d 7e bd
       -0.32289985 0.24318667 -0.05844349 -0.06210074
000220 76 c3 9a be 45 de 0d be 91 42 fa bb f4 c6 19 bd
       -0.3022725 -0.1385432 -0.00763733 -0.037543252
000230 6a 30 ad 3e cc f0 82 be 37 a8 10 3f 60 57 a8 bd
       0.33826 -0.25574338 0.56506675 -0.082197905

features_extractor.encoder.0.bias f4 [16]
000000 d2 87 c0 bc de 11 34 3c 4b 38 61 3e 5c 0d 82 3e
       -0.023502264 0.010990588 0.2199413 0.25400817
000010 bf 9e 52 3e f4 d3 a1 bc c0 af 01 3d de 99 c6 bd
       0.2056837 -0.019754387 0.03166175 -0.096973166
000020 fe e2 7f 3b 35 7f 19 be 1d 29 78 3e 93 85 7a be
       0.003904521 -0.14989932 0.24234433 -0.24465017
000030 79 00 66 3e 3c 1c 30 3e e2 46 80 3d 0a 7d aa 3b
       0.22461118 0.1719827 0.0626352 0.005202894

features_extractor.encoder.2.weight f4 [16, 16, 3, 3]
000000 d7 85 4e 3d ec 4a 69 3d 52 0c d6 3d d5 97 61 be
       0.05042061 0.056956217 0.10451569 -0.22030576
000010 cf 91 89 bd 14 96 b3 bd 0b 37 3a 3d 9a db 1d bc
       -0.06717264 -0.087688595 0.04546265 -0.009634877
000020 6b 41 e1 3b df e5 b7 bd 40 8a 2f 3d 1b 73 81 3d
       0.0068742535 -0.08979391 0.042856455 0.06320783
000030 84 3c 92 bd 62 1f 03 be 06 70 87 bd 82 c0 12 3d
       -0.07140449 -0.1280494 -0.06613164 0.03582812
000040 c5 86 c3 bd f1 41 07 3d 6f c1 00 3e 08 f5 5b 3b
       -0.095471896 0.03302187 0.12573789 0.0033562798
000050 a4 86 ec 3c 4d cd 37 3d 0b 00 5f 3d 01 1d 80 bc
       0.028872795 0.044873524 0.0544434 -0.01563883
000060 8d 14 55 3d f6 4a 84 3d 95 70 87 3d 54 dc 1b 3d
       0.052021552 0.0645961 0.0661327 0.03805192
000070 ba a7 b3 bd bf 6b 80 3b 44 d1 e5 3c 74 dc de 3b
       -0.08772226 0.0039190943 0.028053887 0.0068011824
000080 47 65 35 3d 1c 60 14 3e ce 2a 4c 3d a7 8f 8f 3b
       0.04428604 0.14489788 0.04984551 0.0043811384
000090 82 af 19 bd 05 5b d0 3c 20 eb 10 3d 52 49 0c bd
       -0.037520893 0.025434026 0.035380483 -0.03424961
0000a0 2c da 16 be 32 bc 5d bd 46 11 da 3d 93 2b 90 ba
       -0.14731663 -0.054134555 0.10647826 -0.0010999314
0000b0 6f a1 e3 b9 95 cf 97 bd c2 d2 bf bd fd 5d c5 bd
       -0.0004341709 -0.0741264 -0.09366371 -0.096370675
0000c0 ed a0 32 be 56 ea 69 3e 00 51 8b bd 99 2c da 3d
       -0.17444201 0.22843298 -0.06802559 0.106530376
0000d0 2f 1b 9a 3d 1c 6b ae bd 03 36 9a 3a 7c f8 31 3e
       0.07524716 -0.08516523 0.0011765364 0.17379946
0000e0 8d b0 f9 3d 87 fb 1e be 9f ce a2 bc 93 26 aa bd
       0.121918775 -0.15525638 -0.019873915 -0.08308139
0000f0 b6 5f 25 bc b0 c2 17 bd 77 55 1a bd 76 f4 18 3d
       -0.01009362 -0.037050903 -0.037679162 0.03734251
000100 15 aa 1c 3e ab b4 a2 3e 06 b0 40 3e 0d f3 a2 3d
       0.15299256 0.31778464 0.18817148 0.079565145
000110 08 3f d3 bb 8b bb 19 3e 90 7d cc 3d f9 e6 f2 3d
       -0.006446723 0.15012948 0.09984887 0.11860461
000120 e0 85 6c bc 1a f1 ca 3d 46 05 4a 3e 69 73 96 3e
       -0.014436215 0.09909268 0.19728574 0.29384926
000130 79 66 ad 3d fe 48 f7 3c 9e f5 88 3d 71 f8 f7 3c
       0.08466811 0.030186173 0.06687473 0.030269833
000140 ea 1d da 3d 2a 4e 9a 3c cb 89 da 3d 7f 97 25 3e
       0.10650237 0.0188361 0.10670813 0.16171072
000150 8e cc 8b be 8c be 47 bd ac fc 15 bd 84 98 86 3d
       -0.273045 -0.048765704 -0.03661792 0.06572059
000160 b6 ea 5a be c7 e4 e3 3d bd 5b e4 3c 5e 74 8a bd
       -0.21378598 0.1112762 0.027875775 -0.067604765
000170 3c 43 93 3c bd 1e 02 3c ab 4b 5f bd 50 e3 ca bd
       0.017976396 0.007941899 -0.054515522 -0.09906638
000180 7b d4 c6 3d 98 37 d0 bc 1f 2a 8a 3c 46 e4 1a 3d
       0.09708496 -0.025417134 0.016865788 0.037815355
000190 16 dc 73 3d 04 e9 82 bd 62 7c 75 3d ab 5d 21 bd
       0.059536062 -0.063921005 0.059933074 -0.03939597
0001a0 0c 51 fd 3c 8d 46 a0 3d 38 8e 40 bc 80 f0 28 ba
       0.030922435 0.078259565 -0.011752658 -0.00064445287
0001b0 bc 19 aa 3c be 79 3e bd de 27 a7 3c fe 93 38 bd
       0.020764224 -0.04650282 0.020404752 -0.04506301
0001c0 1d 6e 82 3d db 5c f2 3d 1b d8 9a 3d 4e 7b 87 3d
       0.06368659 0.11834117 0.0756075 0.066153154
0001d0 68 e0 d2 bd 3f f2 01 3d 5e f5 af bc 05 e8 21 be
       -0.10296708 0.031725165 -0.021479305 -0.15811165
0001e0 0f 6e 74 bb 02 48 11 bd 9f 97 57 3c 01 30 76 bd
       -0.0037297045 -0.035469063 0.013158708 -0.060104374
0001f0 cf e4 d6 bc 36 b4 88 3b 8f 39 a9 bd 9e 38 73 3e
       -0.026232151 0.0041718734 -0.082629316 0.23752066
000200 0f 10 4a 3e f1 d7 75 bd 11 2b 3b bd 34 d8 0e bb
       0.19732688 -0.06002039 -0.04569537 -0.0021796348
000210 15 84 39 be 0a 4e c7 bd 66 e5 07 3d 08 42 04 be
       -0.18116792 -0.09731682 0.033177756 -0.12915814
000220 67 5c da bd b0 cb 2c 3e 3f ad 69 3b 1c 32 cc bd
       -0.106621556 0.16874576 0.0035656241 -0.09970495
000230 3c 69 d4 3c 1a 64 10 bd f4 52 92 3d 50 94 6c bc
       0.025929086 -0.035251714 0.07144728 -0.014439657
000240 f2 67 3e be 6d 7a cd bd 9a 9b 09 3d 1b d6 87 3d
       -0.1859434 -0.100331165 0.03359566 0.06632634
000250 49 5a f2 bd 42 4d 12 be b0 5f 3c 3e 73 72 c8 3d
       -0.11833627 -0.14287284 0.18395877 0.097874545
000260 fd a3 77 be 51 b9 a2 bd 6c cb 5b bc f4 a7 ac 3d
       -0.2418365 -0.079455025 -0.013415199 0.08430472
000270 b4 a8 bf 3d ec 89 fe 3c 08 d0 38 be ab b3 e9 3d
       0.093583494 0.031071626 -0.18048108 0.11411222
000280 fb 9f fd bc f3 37 47 be db 0e f2 3d 2d 92 10 3e
       -0.030960074 -0.19454937 0.1181924 0.14118262
000290 ab 35 1a bd 1f ba 04 be 7c 82 d3 bc a9 c6 1e bd
       -0.037648838 -0.12961625 -0.025819056 -0.038763676
0002a0 80 a8 a2 bd 15 7f b1 3c 17 99 d3 3d f9 07 41 3d
       -0.07942295 0.021667043 0.10331934 0.047126744
0002b0 d6 39 83 bd d9 26 8c bd 2f 40 e9 3d dc 79 76 bc
       -0.06407516 -0.06843347 0.11389195 -0.015043702
0002c0 52 3c 21 3c 0e b8 0d 3d 03 c7 86 bc 79 48 af bc
       0.009841042 0.034599356 -0.016452318 -0.021396862
0002d0 8e d1 53 bd 51 8b 58 bd bf ec e7 bc 01 4c b8 bc
       -0.05171352 -0.052867237 -0.028311132 -0.022497179
0002e0 40 2e 80 bd 9f 8f d3 bc 08 a9 18 3e a9 89 be bc
       -0.062588215 -0.02582532 0.1490823 -0.023259
0002f0 9c 6f c8 bd c5 5c 26 bd 3c 2b a4 bc ba c1 90 bd
       -0.09786913 -0.040615816 -0.020040147 -0.070682004
000300 74 31 9b 3e ed 8d 8a 3e 72 a6 d1 bd 3c 7f 00 3e
       0.30311167 0.27061406 -0.10236825 0.12548536
000310 d3 97 38 bb 5c ed 85 be 6a c4 2f be 60 7d 9b 3d
       -0.0028166666 -0.26157653 -0.1716477 0.07592273
000320 d8 ff 8c 3c ef 6f 03 bd e8 88 10 be 38 33 aa bc
       0.01721184 -0.03208917 -0.14114726 -0.020776376
000330 0b 55 04 3e 05 19 5f 3d cb 0d e2 bd 3a 57 a1 3e
       0.12923066 0.05446722 -0.11037787 0.3151186
000340 9b 77 2a be 6d 67 97 3d a8 cf c3 3e fb f9 d9 3e
       -0.16647188 0.07392774 0.38244367 0.42573532
000350 ee 31 92 bd cf 8c bd 3e ec c6 a8 3e a9 48 80 bd
       -0.071384296 0.3702149 0.32964265 -0.06263859
000360 4d 2a 12 3e 7d 4d 64 be 98 63 9b 3e 33 ca 23 3e
       0.14273949 -0.22295184 0.30349422 0.15995102
000370 67 c1 a6 3d e0 e7 32 bd ae da 3d 3e 22 39 e3 3d
       0.08142357 -0.043678164 0.18540451 0.110948816
000380 a0 7f 08 3e aa 73 8c be eb 20 ca bd 28 44 0b bc
       0.13329935 -0.27431995 -0.0986956 -0.008500136
000390 de 5b cd 3d aa 25 24 be 7f 52 c6 bd 9b 81 ba 3c
       0.10027288 -0.16029993 -0.09683704 0.022766879
0003a0 38 3a 9a 3d 07 e1 3d bd cb df c5 3d cf ec e1 bd
       0.075306356 -0.04635718 0.09661826 -0.11031496
0003b0 c0 28 04 bd 7d 9e 90 3d 80 ec 38 3d 01 34 5a bc
       -0.032265425 0.07061479 0.04514742 -0.013318063
0003c0 e9 bf 9e 3c a9 48 ea 3d e3 2b bd 3d 00 68 76 3b
       0.01937862 0.1143964 0.09236886 0.003759861
0003d0 30 01 a8 bc d2 8d 9a bd 7a 78 a0 bd 98 29 23 bd
       -0.020508379 -0.07546581 -0.07835479 -0.03983459
0003e0 ce 81 2d bd f0 af d4 3c 4c bb c6 bc 83 89 05 bd
       -0.04236012 0.0259628 -0.024259232 -0.032601845
0003f0 9f a2 1d 3e 81 6d 12 3e 3f 5e 86 3d 2a b7 9a bd
       0.15394066 0.14299585 0.06560945 -0.07554467

features_extractor.encoder.2.bias f4 [16]
000000 3c 37 89 3c 4f 29 f5 bb c8 91 6a 3d af 9d 66 bd
       0.01674997 -0.007481731 0.057267934 -0.056302723
000010 18 d6 07 3d 16 1e a5 bd a2 5b 7c bd 7e 3b 49 bd
       0.03316316 -0.08062379 -0.061610825 -0.049129
000020 73 ab 27 bd d0 fc 09 3b eb 8d 63 bd 01 ba b8 bd
       -0.04093499 0.002105523 -0.055555265 -0.090198524
000030 b5 fa 1f 3d a8 b4 a4 3d 34 2d b3 3a 4f cf 8a bd
       0.039057452 0.0804227 0.0013670088 -0.06777822

features_extractor.encoder.4.weight f4 [16, 16, 3, 3]
000000 c2 f9 7b ba 92 f1 44 bd 32 7a d6 bb 46 d0 98 bd
       -0.0009612107 -0.048081942 -0.0065453285 -0.074616
000010 8f 3e 86 bd 66 8d 40 bc 83 8d 34 bc d9 0e 08 3e
       -0.06554901 -0.011752462 -0.011020067 0.13286914
000020 db 7c b6 3d 88 eb a9 3d 87 d4 bc bd 7a c2 f3 3d
       0.08910533 0.08296877 -0.09220224 0.11902328
000030 3e db 12 3d cd b3 e1 bb 96 bc 87 3c 51 d2 74 3d
       0.035853617 -0.006887889 0.016569417 0.059770886
000040 b8 b7 1b 3d 64 b7 71 3d 17 14 8c 3d dd da c6 3d
       0.038017005 0.059012786 0.06839769 0.097097136
000050 ea b4 1d 3d c7 5c 1f be c3 4a d3 3c 9d a3 20 be
       0.03850261 -0.15562735 0.025792485 -0.15687414
000060 82 e1 75 be af 9a 94 3a 4c d8 39 3c fd 1f 71 bb
       -0.24011806 0.0011337603 0.011343073 -0.0036792748
000070 0d 46 6d ba e7 b0 bb bc 25 ac 4a bd 14 d0 b5 3d
       -0.0009051271 -0.022911502 -0.049480576 0.088775784
000080 8b 92 01 bd d2 a9 22 3d 93 48 69 3d b8 60 60 bd
       -0.031633895 0.039712735 0.056953978 -0.05477974
000090 24 bc 92 bd e1 97 64 3d b9 29 0e 3e 61 29 01 bd
       -0.07164791 0.055808906 0.13883103 -0.031533603
0000a0 aa 0f 36 3d 0d d7 6d bd 62 76 11 be fb 47 1a be
       0.044448532 -0.058066417 -0.14205316 -0.15066521
0000b0 20 3c ed bd fe 50 1a 3d 15 5f 95 bb c4 93 d2 3c
       -0.115837336 0.037674896 -0.004558454 0.025705226
0000c0 42 68 f6 3d 04 41 e5 3d 70 91 5c 3d f2 51 fa bd
       0.12031604 0.11194041 0.053849638 -0.12222661
0000d0 c3 8d 65 be 46 3c 0c be ae 25 1d 3e 5b 3c a9 3c
       -0.22417359 -0.13694867 0.15346405 0.020658663
0000e0 af 2c 2f 3d b4 fe 37 3d e4 ee 59 bd 11 57 01 be
       0.042767223 0.04492064 -0.05320634 -0.1263087
0000f0 9e 02 f9 3c 68 34 21 3d e5 3f bd 3d 2b 20 1d 3d
       0.030396756 0.03935662 0.092407025 0.038360756
000100 bc 32 8e 3d 67 04 d9 bd 6b 04 0c be cd 32 d0 3b
       0.069432706 -0.10596543 -0.1367356 0.006353712
000110 d3 f5 30 be fb c7 45 3c 3f a1 98 3d f3 2a 58 bd
       -0.17281274 0.012071605 0.0745263 -0.052775335
000120 3b e8 99 3d b5 37 08 3d 05 cf e2 bd 6d 86 8c bd
       0.075149976 0.03325625 -0.11074642 -0.06861577
000130 f1 75 b4 3d 31 2b 38 bd 58 66 f3 3c 1f c9 2f 3d
       0.08811558 -0.044963066 0.029711887 0.042916413
000140 60 ad 26 be 1c 39 15 3e 7a d7 ed 3d 3c 0a 0a 3d
       -0.16277075 0.14572567 0.116133645 0.033701167
000150 b8 23 f5 bd 54 e3 e7 3d e6 fe fa bd 99 7b 7e 3c
       -0.119697034 0.11322656 -0.12255649 0.015532398
000160 eb 39 00 be ef 2a 1a be ae 45 83 3b 1e 8f 06 3e
       -0.12522094 -0.1505544 0.004006109 0.13140532
000170 02 8e cc bd c5 af 24 3d 03 22 53 3e 00 95 40 be
       -0.09988023 0.04020669 0.20618443 -0.18806839
000180 2b 0f b1 bd 79 2a e8 bc bd db dd bd 2f 3d 23 bd
       -0.08645471 -0.028340565 -0.108329274 -0.03985327
000190 1c 5c 1e 3c e5 60 8d 3d eb 67 a7 3d 90 0d 44 bd
       0.009665515 0.06903247 0.08174118 -0.047864497
0001a0 82 19 94 3c 59 a9 74 bd 00 4f f5 bd c2 18 51 bd
       0.01807857 -0.059731815 -0.11977959 -0.051049
0001b0 ec bb 7e bc 48 f5 ba bd bd 6e 84 3b 48 6d 88 3c
       -0.015547734 -0.09128815 0.0040415213 0.016653672
0001c0 54 ae 8f 3d 73 34 b3 3d 39 f2 a9 bc a7 fd c0 bd
       0.07015672 0.08750238 -0.020745384 -0.0942338
0001d0 87 1f e5 bc 70 19 57 3d c9 16 20 3d 22 56 84 bc
       -0.027969135 0.052514493 0.03908423 -0.016154353
0001e0 7c e7 31 be c0 d1 44 be 7b bb b9 bd 02 e0 ce 3c
       -0.1737346 -0.19220638 -0.09068962 0.0252533
0001f0 77 dc 7b bd 0b 39 37 3d 28 21 e6 bd 62 b3 59 bd
       -0.06148955 0.044732135 -0.11236793 -0.05314959
000200 08 c4 62 3d 8a 30 ab bd f1 b5 82 3d 54 95 8b 3c
       0.05536273 -0.083588675 0.06382359 0.017038979
000210 56 f8 00 bd 13 aa 56 be 56 2a 13 be 7d 64 b6 bd
       -0.03148683 -0.20963316 -0.14371619 -0.08905885
000220 de fb 91 3d 15 68 8f 3d 02 70 61 bd 80 e3 c1 bd
       0.07128118 0.07002274 -0.05503846 -0.0946722
000230 2e 70 19 3c 46 3a b3 bd 62 3f 05 be 4c 7d 83 bd
       0.009365125 -0.08751349 -0.1301246 -0.06420383
000240 ed 97 4c be 57 d7 f9 3d 61 bc ff bd 5c fb c3 3b
       -0.1997983 0.12199276 -0.12487102 0.005980892
000250 53 40 8a 3d c9 06 45 bb f7 a5 68 3a b2 be 3c bd
       0.0675055 -0.0030063859 0.00088748283 -0.0460803
000260 1f a7 3b bd 66 2b 98 bd bc 46 cd bd 84 ab ed 3d
       -0.045813676 -0.074301526 -0.10023257 0.1160498
000270 5c 74 57 be ed 99 87 3d 20 b8 cd bd 57 9d 38 3d
       -0.21040481 0.06621156 -0.10044885 0.045071926
000280 ad a3 e0 bd 91 c7 e7 bc 03 1d 2b 3e 4f 72 b0 3d
       -0.10968719 -0.028293403 0.16710286 0.08615553
000290 09 25 63 3d e4 60 97 bc 41 0b 97 bd 03 69 f0 3d
       0.05545524 -0.018478818 -0.073751934 0.117387794
0002a0 f2 8f 0f bd bc 56 3b be f1 2a a5 3d 50 8e c1 3b
       -0.035049386 -0.18294805 0.08064831 0.0059068576
0002b0 d0 d2 a6 3c b6 2d 54 bd c6 2e 66 bd e7 08 9d bd
       0.020364195 -0.051801406 -0.05619695 -0.076677136
0002c0 cc 63 b0 3c 03 3d 5c bd 80 19 d0 3b 1c af 98 bc
       0.021531962 -0.053769123 0.006350696 -0.018638186
0002d0 9d e3 4b be bc 52 a2 bd fc 1a 17 bd 0a 6c 9f be
       -0.19911046 -0.079259366 -0.03689097 -0.31137115
0002e0 99 4b f6 bd 1e a5 48 be 2c ed 4a be 69 ac 23 bd
       -0.12026138 -0.19594237 -0.19817036 -0.039959345
0002f0 91 16 81 bd 4f 7f c0 bd 4d 0b e5 3c b2 ef 1a 3e
       -0.06303132 -0.09399282 0.02795949 0.15130499
000300 b1 86 94 be a0 ba dd bd d7 92 29 be d0 cb 3c be
       -0.2900901 -0.108266115 -0.16559921 -0.18437123
000310 8b a1 15 bd 37 20 cc bd b8 cc b1 3d 2e 98 89 bd
       -0.036531013 -0.09967082 0.08681625 -0.06718479
000320 7e 72 32 3d 83 69 d9 bd 34 38 c4 bc de 7b 36 3d
       0.04356622 -0.10615828 -0.023952581 0.044551723
000330 e0 9e 02 be 2f b3 70 3d 3c 96 2e be d2 6f 25 bd
       -0.12755919 0.058764633 -0.17049497 -0.040389843
000340 9d e5 8b bc 58 c2 dd bc 90 7b a1 3d 5e 38 b0 3b
       -0.017077262 -0.02707021 0.07884896 0.0053778132
000350 8d 82 82 3d 36 ca 8b bd 74 67 3c 3d 40 da 8f 3b
       0.06372557 -0.06825678 0.045997098 0.004390031
000360 8e ba d3 3d 0d 93 99 3d e0 bf e8 bc 06 ac 8c bb
       0.10338317 0.07498751 -0.028411806 -0.0042929677
000370 1f 5b 0e bb f6 6b 27 3d b4 28 a1 bd 03 8e 8e bd
       -0.0021721793 0.040874444 -0.07869092 -0.0696068
000380 79 96 87 bb 09 58 c3 bb e0 be a1 3c 35 76 cc bd
       -0.004137811 -0.0059614223 0.019744337 -0.09983484
000390 98 46 c5 bc 49 72 2a be b2 1d af 3b 5c 63 2a be
       -0.024081513 -0.16645159 0.005344116 -0.16639465
0003a0 0b af d6 bd a2 8e d3 3d 21 3f 50 3e 40 51 cc 3d
       -0.104826055 0.103299394 0.20336582 0.09976435
0003b0 a9 28 9b 3d 92 a5 c8 3d 68 73 72 bd 99 1e 26 3e
       0.07576115 0.09797205 -0.05919209 0.1622261
0003c0 3a 83 60 bd 13 bc 76 bd 31 9f 04 3e bb bb 12 be
       -0.054812647 -0.060237955 0.12951352 -0.14329426
0003d0 10 3d de ba 61 9a d1 3c 6e 10 9f be 3a e6 11 be
       -0.0016955454 0.025586309 -0.31067222 -0.1424798
0003e0 f6 c6 38 bd 5e c4 0f be 26 da 27 bd 56 bf 77 bd
       -0.04511162 -0.14039752 -0.040979527 -0.060485207
0003f0 e3 90 9d bd ff e2 25 3d 84 56 d1 3d 95 d5 91 be
       -0.076936506 0.040499683 0.1022158 -0.28483263

features_extractor.encoder.4.bias f4 [16]
000000 15 a1 b4 bd 8b 0c 85 bd bd 1d fd bb 5d 02 50 bd
       -0.088197865 -0.06496533 -0.0077244923 -0.050783504
000010 97 9e bb 3b c7 3e be bd d4 4c d6 bc fa cb 87 bc
       0.0057256925 -0.092893176 -0.026159681 -0.016576756
000020 43 26 ba bb 31 53 f1 3c 4f a9 8e bd 20 ec 2e bd
       -0.0056808307 0.029458614 -0.06965887 -0.042705655
000030 d9 b7 87 bd c9 95 a7 bd f6 23 e3 bd a5 04 86 bd
       -0.06626863 -0.08182866 -0.110908434 -0.065438546

features_extractor.policy_net.0.weight f4 [64, 1024]
000000 27 ed 23 bc 58 f2 cf 39 4f 3b 42 3c b5 08 5f 3c
       -0.010005272 0.00039662677 0.011854961 0.013612916
000010 33 3f 7c 3d a3 07 1c 3d 34 68 fc 3c ca c6 83 3c
       0.06158371 0.03809322 0.030811407 0.016086001
000020 67 59 23 bd cf 17 3e 3c e4 d4 ed 3c d0 f4 23 3e
       -0.039880183 0.011602356 0.029032178 0.16011357
000030 e6 5d 77 bd 37 43 09 3d 07 41 80 3d 4b 02 c8 ba
       -0.060392283 0.033511367 0.06262403 -0.0015259472
000040 72 f8 21 bd 3e a0 aa bc d4 e0 00 3d b0 49 ef 3c
       -0.039543577 -0.020828363 0.031464413 0.029209942
000050 0a b2 11 be 64 a3 b1 3d 95 25 30 bd 54 d4 04 bd
       -0.14228073 0.086737424 -0.04300459 -0.032429054
000060 a0 17 60 3e 52 64 17 3c 60 18 d6 bd b9 23 96 3d
       0.21884012 0.009240227 -0.10453868 0.07331032
000070 36 ce 19 bd 63 79 b9 bd 33 1f 80 3c a8 a1 51 3d
       -0.037550174 -0.09056356 0.015639877 0.051179558
000080 c9 08 e5 bd 21 4c 24 3d 46 8e 7d 3d d5 23 a6 3c
       -0.11183316 0.040111665 0.06190326 0.020280758
000090 d5 db c2 3d 25 76 53 3a a3 0c 12 3d b5 db 8d bd
       0.09514586 0.0008066616 0.035656583 -0.069266714
0000a0 a6 26 00 bd df ab ec 3d a9 4a 70 3c 12 fb ff bd
       -0.031286858 0.11556219 0.014666238 -0.1249906
0000b0 ce 9f 61 3c f8 10 41 3e d8 a8 65 bd 6b 7e ff bc
       0.013771011 0.1885413 -0.056069225 -0.03118821
0000c0 69 01 be bd 9d 5b b6 bd 04 b1 11 3e 3e 24 9e bd
       -0.09277613 -0.089041926 0.14227682 -0.077217564
0000d0 7e ec d9 3c 3b 99 24 3d 32 3e b2 bb b9 b8 22 3e
       0.026602026 0.040185194 -0.005439543 0.15890779
0000e0 e0 c0 74 bd 95 d7 9c 3d 8b 5d de 3d 7b 11 8e bd
       -0.059754252 0.076583065 0.10857686 -0.06936928
0000f0 7d a9 ac bd c3 b2 1f bd b5 41 68 bd ae c6 e1 3c
       -0.08430765 -0.03898884 -0.056703288 0.027560558
000100 ba 47 e4 3d b1 b4 5d bb 74 a9 0b bd a5 9b 26 bd
       0.11146493 -0.0033829624 -0.03409715 -0.040675778
000110 39 cd f5 bd 68 f1 ff bd b9 ed 19 bd f7 5d 39 3d
       -0.12002034 -0.124972165 -0.037580226 0.045255627
000120 b4 3a 93 b9 3e cb 8d 3d 72 91 aa bd 81 e5 d5 bb
       -0.00028081762 0.06923531 -0.08328523 -0.006527603
000130 44 89 2d 3c 26 88 18 3e 32 ed 1e bb 32 68 15 be
       0.010591809 0.14895687 -0.0024250266 -0.14590529
000140 5c dc eb bb f3 55 75 bd 62 48 9c 3d 06 69 cc bc
       -0.0071978997 -0.05989642 0.076309934 -0.024952423
000150 d7 a4 8d bc 29 1a 89 bc c0 2a 6a bd 8c 4b bf bd
       -0.017290516 -0.016736107 -0.057169676 -0.09340581
000160 f8 f7 35 3e af 6f 75 bc 79 18 06 be fa 6a 55 be
       0.17770374 -0.014980241 -0.13095273 -0.2084159
000170 97 31 29 be ed e1 db bd 62 7b d0 3d 8d 69 6f 3d
       -0.16522823 -0.10736451 0.101797834 0.05845027
000180 70 1e 6c 3d 6f ce 05 bd 51 b4 3f ba da 0f cf bd
       0.057646215 -0.032667574 -0.0007312941 -0.10110445
000190 06 73 17 3e e0 06 94 bd f9 12 ee bc 2c aa e2 bc
       0.14789972 -0.07227874 -0.029061781 -0.027669035
0001a0 5c b4 5c 3c f2 e2 9c 3c e0 59 f4 bd 19 f8 be 3c
       0.013470735 0.019151185 -0.11931205 0.023311662
0001b0 d1 4f 1c 3c ee 97 49 be fb f6 ec bd 9d 6d 16 3e
       0.009540514 -0.19686863 -0.11570545 0.14690252
0001c0 f1 15 8d 3d 19 52 a8 3d df 7e 0b be 3e df 9a 3c
       0.068889506 0.08218784 -0.13622616 0.018905278
0001d0 76 05 52 bd f7 6c 45 3d db ff 7c 3d ae dd 8b 3d
       -0.05127474 0.04819962 0.06176744 0.068293914
0001e0 28 39 00 3c d5 6f 30 bd 71 26 48 bd 8c c4 9a 3c
       0.007826127 -0.0430754 -0.048864786 0.018892549
0001f0 94 90 a0 bd 6a 95 14 bd 81 18 e0 3d 11 1e d7 3d
       -0.07840076 -0.036275305 0.10942174 0.105037816
000200 6b b0 8a 3b a6 57 70 3b 7f 37 32 3d cf 1a ee bd
       0.0042324564 0.0036673336 0.043509956 -0.11626207
000210 61 f4 96 3d db 6e fd 3c 94 3b aa 3d 0b e1 b2 3d
       0.0737083 0.03093665 0.08312145 0.0873433
000220 1c 1b b3 3d a3 2e d2 3d 34 cc 1e bb ca 07 07 bd
       0.08745405 0.102628015 -0.0024230601 -0.032966413
000230 58 9c d4 bb 23 c1 f0 bd 2a 84 32 3e f2 68 04 3d
       -0.006488364 -0.11755588 0.17433229 0.032326646
000240 e3 0b cf 3d 8b c0 f3 3d 67 0e 53 3d 9c 64 b3 bd
       0.10109689 0.11901959 0.051527407 -0.08759424
000250 f5 15 a7 bc f3 34 f6 bd 3e 88 d4 bd be 2b ce 3d
       -0.020396212 -0.12021818 -0.10377549 0.10066937
000260 88 de 33 3e 5d 18 d0 3d 43 7c 32 bc c9 32 bc bc
       0.17565358 0.10160897 -0.010893884 -0.022973435
000270 2f 21 c9 3c d1 2a 64 3e 06 52 c4 bd 56 57 f6 3c
       0.024551956 0.22281958 -0.09585957 0.030070942
000280 48 80 b6 3d 74 fb 3d be 4a 88 3f 3e e8 8b 82 3d
       0.089111865 -0.18552953 0.18704334 0.06374341
000290 79 b7 ca bd 0a 30 f1 bc e5 92 17 bd 85 d2 ee bc
       -0.09898276 -0.029441852 -0.037005324 -0.029153118
0002a0 e0 62 b2 3d 53 35 26 bd 1d 25 80 3d c5 35 ad 3c
       0.08710265 -0.040578198 0.06257079 0.021143803
0002b0 6e 84 5c 3d 97 55 97 bd 3a 2b 77 bc e0 72 ae bc
       0.053837232 -0.07389372 -0.01508599 -0.021295011
0002c0 9a a5 56 3d 80 ce c5 3d b2 71 99 bd b2 a6 2b 3d
       0.052404024 0.096585274 -0.07492389 0.04190702
0002d0 19 8c 15 be 22 37 1b bc 5c 61 c2 bd 1f 09 2d bd
       -0.14604224 -0.009473594 -0.09491226 -0.042245027
0002e0 b6 dd c8 3d 53 48 df 3d 35 da 38 3e 91 b0 04 be
       0.09807913 0.109024666 0.1805199 -0.1295798
0002f0 83 c4 b1 bd a9 32 72 3d 79 3a e4 bd 50 45 23 be
       -0.0868006 0.059130345 -0.11143965 -0.1594441
000300 1d b1 9e 3b 71 f1 4a bd 39 9c d2 bd ae aa 98 bc
       0.004842891 -0.049546663 -0.10283703 -0.018636074
000310 04 47 ca 3d ec 9c bc 3c 94 24 1a 3d d9 40 8b 3d
       0.098768264 0.023024045 0.03763254 0.06799478
000320 e8 6c 05 3d 0f d1 f9 3d 2c ed b5 3d 61 83 4f 3d
       0.032574564 0.12198078 0.088831276 0.050662402
000330 4e 07 34 3d c5 96 97 bd 4d 55 f6 bc cb 69 2a ba
       0.04395228 -0.07401804 -0.030069971 -0.000650075
000340 3c 33 be 3d 23 37 3a bd 33 c3 d4 ba 83 80 11 3d
       0.09287116 -0.04546274 -0.001623249 0.03552295
000350 78 6c a2 3c 04 30 31 be 1d e2 88 bd 25 ce 49 3e
       0.019827113 -0.17303473 -0.06683753 0.19707544
000360 3f 51 9b 3d a9 76 d3 3d 14 cd 0a bd be 76 2b bd
       0.07583856 0.10325367 -0.033886984 -0.04186129
000370 78 f7 03 3d e5 08 95 3d d3 30 24 3e 9a 3e 80 bd
       0.032218426 0.07277087 0.1603425 -0.0626194
000380 b8 4e 18 3d 72 df 3b 3c 1b 91 b0 bd aa f1 24 3b
       0.037184447 0.011466848 -0.08621427 0.0025168457
000390 99 0f 0f 3e 6a 85 05 be aa bf b4 bd e8 20 69 bd
       0.13970794 -0.13039175 -0.088256195 -0.056916147
0003a0 75 ff 14 3d 0e e3 20 3e 92 84 c2 3d 4d 6c d1 bd
       0.036376435 0.15711614 0.09497942 -0.10225735
0003b0 f7 10 77 bc b4 0e a6 bd 50 b7 38 be 38 17 6f bd
       -0.015079728 -0.08108273 -0.18038678 -0.058371753
0003c0 7c 83 d6 bd 2f b5 ea 3c 1d b8 db bd a9 a1 24 bd
       -0.104742974 0.028650848 -0.10728476 -0.040193234
0003d0 25 81 94 bc 56 d3 b4 3c 6a 52 dd 3c ac b9 c4 3d
       -0.018127987 0.02207343 0.027016837 0.096057266
0003e0 5e a4 d0 3c 59 c8 1b bc 2e 05 c8 3d df b5 b3 bc
       0.025469001 -0.009508216 0.09766613 -0.021937309
0003f0 09 7f 12 3d c8 df a6 bd 9f 2a 9b 3d 55 5d da bd
       0.03576568 -0.08148152 0.07576489 -0.10662333

features_extractor.policy_net.0.bias f4 [64]
000000 94 0c 06 3d 3b 9c ff bc 07 9a 15 3c 5e 57 69 bd
       0.03272684 -0.031202426 0.009130961 -0.056968085
000010 0e f0 75 bd e1 91 fb bc b4 3f 2b bd 40 8e 6d 3d
       -0.060043387 -0.030709209 -0.0418088 0.05799699
000020 94 d5 66 bd af 01 91 bc fd ce c8 3c 36 6d ae bb
       -0.056356028 -0.017700998 0.024512762 -0.0053230776
000030 0d 62 c1 bc 5b e2 3d bd 02 b6 46 bd 13 7f d9 bc
       -0.023606325 -0.046358448 -0.04851342 -0.026549852
000040 48 0e 6e 3c 3c 4c cc 3b 73 fb 27 bd be 33 9e 3c
       0.014529772 0.006234674 -0.041011285 0.019311782
000050 3b 8d 08 3b 20 73 49 bc ab 05 44 3b 09 55 60 bd
       0.0020836133 -0.012295514 0.0029910605 -0.054768596
000060 9d a3 61 ba 3c 42 40 bd 3e bf 07 bd 87 28 26 bd
       -0.0008607449 -0.046938166 -0.033141367 -0.040565994
000070 fa 6c 90 3c e2 7c 08 3c 88 84 b1 bc a9 d0 66 bd
       0.01763009 0.008330556 -0.021669641 -0.056351338
000080 d5 55 94 bd ca 9b 9b 3d e0 7d 6a 3c 5b 20 58 3d
       -0.07242934 0.07598074 0.0143122375 0.05276523
000090 7f 42 e4 bc eb 11 2e bd 8e 80 bf bb fc 2f cc bb
       -0.027863739 -0.042497557 -0.0058441823 -0.006231306
0000a0 17 54 fe 3c d7 a0 96 bc ef b7 c2 3c e8 7d 3e bd
       0.031045957 -0.018387241 0.023769347 -0.046506792
0000b0 fb a4 96 3c 87 c7 04 bd 56 3e d3 bc 71 e7 7f 3c
       0.018389216 -0.032416847 -0.02578656 0.015619145
0000c0 c0 84 e7 3c 04 64 d0 bc fe 3c ad bb 07 dc 52 3d
       0.028261542 -0.025438316 -0.005286812 0.051479366
0000d0 27 0e 05 3c e2 22 9e bc 32 16 c4 bc 21 22 2b bd
       0.00812105 -0.019303743 -0.023936365 -0.041780595
0000e0 1c 43 df bb 6a 70 37 3c fb d8 05 3c 0f 8d 98 3b
       -0.00681342 0.011196235 0.008169408 0.0046554874
0000f0 e9 48 9c bc 6c 15 9f 3c 02 c0 f1 3c 33 25 85 bc
       -0.019077735 0.019419394 0.029510502 -0.01625309

features_extractor.policy_net.2.weight f4 [64, 64]
000000 f9 ad 48 3d 45 f5 d8 3d d9 a2 e5 3d d9 94 a5 bd
       0.04899404 0.105936565 0.11212701 -0.08085031
000010 ee aa 64 3e f8 c0 63 bd 61 cd f8 bc 61 89 a4 3d
       0.2233083 -0.05560395 -0.03037137 0.080340154
000020 d7 27 1a be bd 77 db 3c f8 e0 20 3e 62 23 05 3e
       -0.1505426 0.026790494 0.15710819 0.13001779
000030 69 df 99 bd 57 b2 58 bd 76 0e 8d bd 33 e4 bf 3d
       -0.07513315 -0.052904453 -0.06887524 0.093696974
000040 f0 1f ef bd 92 91 d8 3d 51 c2 e2 3b d5 65 24 3e
       -0.116760135 0.1057464 0.006920137 0.16054471
000050 cc 06 92 bc c7 31 d9 3d 97 09 05 be d2 40 d7 bd
       -0.017825507 0.106051974 -0.1299194 -0.1051041
000060 55 3b 27 bd 67 5c 4b be f2 64 68 3d b8 62 f5 3b
       -0.040828068 -0.19859467 0.056736894 0.007488575
000070 71 c2 75 3d 30 42 35 be 21 a7 f7 3d b4 5b aa bd
       0.059999887 -0.1770103 0.12092424 -0.08318272
000080 6c c8 09 bd d6 50 a0 bd 1d b1 80 bd 93 e5 88 bd
       -0.033638403 -0.07827918 -0.06283782 -0.06684413
000090 31 da 9a be 07 ce 58 be 50 1a 9a 3d c4 b3 35 3e
       -0.30244592 -0.21172343 0.0752455 0.17744356
0000a0 30 88 07 3e 98 0b 3d 3e 7a c6 6a bd f4 b0 a2 bd
       0.13235545 0.18461454 -0.05731819 -0.079439074
0000b0 6c c3 f0 3d df b7 b2 3d e9 9d fe 3c fa 78 19 3e
       0.11756024 0.08726477 0.031081157 0.14987555
0000c0 81 13 af 3d c5 a4 75 3d 78 ee 1b 3e 79 04 f0 bc
       0.08548642 0.05997159 0.15227687 -0.029299008
0000d0 7c 15 6d 3e 1b fc 1b 3e e7 a6 c4 bd fd 57 c1 bd
       0.23152727 0.1523289 -0.096021466 -0.094406106
0000e0 c9 e1 1e be fc 1a 68 3d 17 00 5a bd 23 ad f2 3c
       -0.15515818 0.05666636 -0.053222742 0.029623574
0000f0 c6 bf 8b 3d 09 1a 94 bc c6 61 53 3e ab 4c a0 bd
       0.06823687 -0.01807882 0.20642766 -0.07827123
000100 06 52 d4 3d 3d 41 98 3d c8 62 17 3e d8 dc 0c 3d
       0.10367207 0.07434318 0.14783776 0.0343903
000110 07 e2 03 3e 07 34 3a 3d bf c2 35 3e fa 2c 76 3d
       0.12879191 0.045459773 0.17750071 0.060101487
000120 d9 e2 5c 3d 0d b8 bc 3c 3c ad 15 bd c1 ac a9 3d
       0.053927276 0.023036981 -0.036542162 0.08284903
000130 f6 86 f4 bc ad d7 bc bc ba e1 8a be 8e cc 8c bc
       -0.02984951 -0.023052061 -0.2712534 -0.017187383
000140 40 ca e8 bd b9 5e d7 3d 06 96 31 be f6 20 b6 bd
       -0.11366701 0.10516114 -0.17342386 -0.088930055
000150 07 da 05 be 2e f2 ec bc f7 f1 4e bd 7f 6c ad bd
       -0.13071452 -0.028924074 -0.050523724 -0.084679596
000160 bd 5f 0d 3e 3a 70 8e bc a2 82 22 3d cf 6c 25 3e
       0.13806053 -0.017387498 0.039675362 0.16154788
000170 8f 0c 90 3d b3 b4 c2 bd 89 ce 03 3e 91 2f 2c bd
       0.07033645 -0.09507122 0.12871756 -0.04203755
000180 95 01 f3 bd 1c 25 13 be 39 fe 54 3d 34 cb 01 3d
       -0.11865536 -0.14369625 0.052000258 0.03168793
000190 c5 42 ad be 40 f1 1d be 2a 44 25 be 46 54 e8 3d
       -0.33840004 -0.15424061 -0.16139284 0.11344199
0001a0 4d af 0c 3d 63 a9 9d 3d 22 20 22 bd 7d 78 bd bd
       0.034346867 0.076983236 -0.039581425 -0.09251497
0001b0 f8 6b 33 3d 56 98 29 3e 1f b4 d9 3b ff 12 87 3e
       0.04380414 0.16562018 0.0066437866 0.2638168
0001c0 f2 24 ac bd cd 79 ad 3d 69 6d 8f 3e fa 24 ba bd
       -0.08405484 0.08470497 0.2801316 -0.09089084
0001d0 1d 35 70 3c 79 66 10 3e 42 b7 1f bd dd c4 44 3d
       0.014661101 0.1410159 -0.038993128 0.048039306
0001e0 1b 54 5b be cb c2 27 3d 87 9a 90 3d c8 d3 9a bc
       -0.21418802 0.040957253 0.07060724 -0.018899813
0001f0 c2 47 1f 3e 0f d6 6e be 87 f5 1e 3e 81 6b 41 bd
       0.15554717 -0.23323844 0.15523349 -0.047221664
000200 43 07 c9 3d c2 94 40 3d e2 0b c3 3d 2d c5 dd 3c
       0.09815838 0.047016867 0.09523751 0.02707156
000210 3c 14 e5 3d 1c 97 66 be f6 83 d3 bd 04 65 18 3e
       0.111855 -0.22518581 -0.10327904 0.14882284
000220 71 30 3f be 5e 1b 9f bc e7 10 a4 3d 42 33 75 bc
       -0.18670823 -0.01942223 0.08011036 -0.014965834
000230 ec 1a 3f be d1 c3 96 3b ad 91 41 3d 88 fe fe 3d
       -0.18662614 0.00460098 0.047258068 0.12450892
000240 c4 1d a4 3d 63 46 32 3e 84 d0 58 bd bc 35 e6 3d
       0.0801349 0.17409663 -0.05293323 0.11240718
000250 bd e9 b5 3d 43 c1 e9 39 3f 88 2f be ce f8 28 be
       0.08882473 0.00044585214 -0.17141818 -0.16501161
000260 81 f4 47 3c 5f 26 80 bd a5 4e 9c 3d a3 f9 2d bd
       0.01220429 -0.06257319 0.07632188 -0.0424744
000270 3f bd 14 be 44 fe 89 be 41 62 d4 3d d1 12 74 bd
       -0.14525317 -0.26951802 0.10370303 -0.059588257
000280 34 d7 9f bd 8b 71 1f 3d dd 39 03 be 45 97 5a 3d
       -0.078047186 0.038926642 -0.12815042 0.053366918
000290 51 14 60 be d4 5d 0c bd bf 25 5d bd da d9 9d 3d
       -0.2188275 -0.03426917 -0.053991076 0.077075675
0002a0 cb fd d5 3d 97 c8 82 3d f2 6c b1 bd 80 45 8a bd
       0.10448798 0.06385916 -0.08663358 -0.06751537
0002b0 71 c8 2e bb 98 5a 0b 3c fb 08 c0 bd a6 56 4f 3e
       -0.0026669765 0.008505486 -0.09376713 0.20247898
0002c0 41 2c e9 bc 0d c1 c1 3d 30 87 11 3e 49 b6 64 3d
       -0.028463485 0.0946065 0.14211726 0.055837903
0002d0 38 bc 92 3d ce 53 ce 3d a8 2d d5 bd 6e ac 27 be
       0.07164806 0.10074578 -0.10409099 -0.1637437
0002e0 f2 ee 4c bd 35 3d b4 3b 17 1e 2c 3d e2 2c ba 3d
       -0.050032564 0.0055004605 0.042020883 0.09090592
0002f0 7e bd 89 bd 27 98 0c be 11 53 25 3e f1 a5 d6 3d
       -0.06725596 -0.13729917 0.16144969 0.104808696
000300 d6 9f 57 3d d7 53 53 3e 4a c2 f1 3d 54 d8 b6 bb
       0.052642666 0.20637451 0.11804636 -0.0055799875
000310 36 76 af 3d 94 99 de bb 10 c8 67 3a 8b dd 90 3d
       0.08567469 -0.0067932103 0.00088417623 0.07073506
000320 33 59 cd bb ad 9c 27 bc c4 44 89 3d 18 82 9c 3c
       -0.006266737 -0.0102302255 0.06702569 0.019105002
000330 0e f7 26 be 5b 48 4f 3b 88 5e 33 bd 9a 88 d1 3d
       -0.16305181 0.003162882 -0.043791324 0.10231133
000340 5c 1d 8b bd cf 93 8d 3c 55 30 38 be 41 c3 d9 3d
       -0.06792709 0.017282395 -0.17987187 0.10632945
000350 39 a2 1e be d8 27 b9 bd c4 0b d2 bd 49 eb 4b be
       -0.1549157 -0.09040803 -0.1025615 -0.19913973
000360 b2 aa be 3d a8 60 d9 bd 07 a8 01 3e 45 a3 31 3e
       0.09309901 -0.10614139 0.12661754 0.17347439
000370 06 fb 1f be e9 0b 41 be 59 e0 04 3e 2f c8 0c bd
       -0.15623102 -0.188522 0.12976207 -0.034370597
000380 b0 ef 9f bc 64 94 96 3d d7 b2 fb bd 8b ce 69 bb
       -0.019523472 0.07352522 -0.1228997 -0.0035676088
000390 c1 25 f4 bd 1e 11 dd bd 9e 51 3e 3a 8f e9 37 3e
       -0.119212635 -0.107942805 0.0007260087 0.1796019
0003a0 8c c1 3a 3e 2a 4b 49 3e d0 61 02 be 95 39 00 bd
       0.18237895 0.19657579 -0.12732625 -0.031304915
0003b0 33 56 b7 3d 3b fe ad 3d 66 bd 63 bd d9 0b 90 3e
       0.08951988 0.08495756 -0.055600546 0.2813404
0003c0 3a 03 b1 bd 8d 3c 44 3d 59 ae 53 3e 88 ed 0f bd
       -0.086431935 0.04790931 0.20671977 -0.035138637
0003d0 24 e7 08 3e 95 ef 02 bd 29 33 10 bd 10 54 f1 bd
       0.13369423 -0.031966764 -0.03520504 -0.11783612
0003e0 91 e5 a6 bc 1a 13 24 3e f0 5f 05 3c 1d 62 ed bd
       -0.020373138 0.16022912 0.008140549 -0.11590979
0003f0 c1 e5 1b 3e 69 3e 90 bd 71 01 6f 3e b5 75 ba bd
       0.15224363 -0.07043154 0.23340394 -0.09104482

features_extractor.policy_net.2.bias f4 [64]
000000 0f 58 6d bd 03 6c bd bd b4 bc a6 bd 8a 40 6b 3d
       -0.057945307 -0.09249117 -0.08141461 0.057434596
000010 b2 a9 81 bc e5 8c 96 3d 3f e5 2b 3c b2 99 29 3d
       -0.015827987 0.07351092 0.010491668 0.04140634
000020 88 ea 84 3d 7b 0b 28 bd 89 0c bd bb d0 c5 cd 3a
       0.06490046 -0.041026574 -0.0057693166 0.0015699212
000030 90 1c 2e bd 80 f3 13 3d 81 63 5a bd a8 61 9c 3d
       -0.042507708 0.03612089 -0.05331755 0.07635814
000040 bf eb 90 bd 29 1c 96 3d 8e 92 ff bc 70 a5 ce 3c
       -0.07076215 0.0732959 -0.031197812 0.025225371
000050 1f 00 be 3d 0a bf 81 bd 7e 94 6d bb a5 73 60 bd
       0.09277367 -0.06335266 -0.0036251838 -0.054797787
000060 3e d4 58 3d c6 e6 ee bd 1c ba be bb 92 30 61 3c
       0.052936785 -0.1166511 -0.005820526 0.01374449
000070 d8 3d 9c 3c 41 94 02 be 36 6f f6 3b ff 0d 27 bd
       0.019072458 -0.12751867 0.0075205816 -0.040784832
000080 06 8a 47 bd e5 35 f3 bd 75 fe 11 bd b6 7a ae bd
       -0.048715614 -0.11875514 -0.03564306 -0.08519499
000090 17 4e ea bd ba 18 86 3d 00 52 05 3e 46 29 95 bd
       -0.11440676 0.06547685 0.13019562 -0.07283263
0000a0 e6 61 01 be ea aa b4 3c 31 85 cc bd 10 6e a1 bd
       -0.12635002 0.022054154 -0.09986342 -0.07882321
0000b0 fa 34 61 bd df 31 af bc 74 89 80 bc 53 de e2 3d
       -0.054982163 -0.021386085 -0.015690543 0.11077561
0000c0 77 aa 0e be 76 94 a4 bd ef c0 8e 3c 72 a9 bf 3c
       -0.13932215 -0.08036129 0.017425982 0.023396228
0000d0 40 ce c0 bd c4 97 d0 bd df 02 bd bd 23 84 cc bc
       -0.09414339 -0.10185197 -0.09229063 -0.024965351
0000e0 25 81 79 3d 70 92 77 bd 5b 24 84 3c 02 ca 72 3d
       0.060914177 -0.060442388 0.016130617 0.05927468
0000f0 72 07 e7 3c 2a 4b 8b 3d eb a7 f1 3d c1 52 c9 bc
       0.028201792 0.06801446 0.11799606 -0.024575593

features_extractor.value_net.0.weight f4 [64, 1024]
000000 74 0e 2e 3d ef 17 71 3d ad 88 81 3d 72 b7 d9 3c
       0.042494252 0.058860715 0.06324897 0.026576731
000010 12 1e bc bd 88 33 c4 bc 6e ba a0 bd a6 78 af bc
       -0.09185423 -0.023950353 -0.07848059 -0.021419834
000020 ee bd 43 bd be 2c ba bd c8 fe 87 3d c4 63 27 3d
       -0.047788553 -0.09090565 0.066403925 0.04086663
000030 fb 84 7e bb 5e 71 82 bd 80 6b 96 bc b3 36 60 bd
       -0.0038836587 -0.06369279 -0.018361807 -0.054739665
000040 d3 50 8f 3c 8c f7 70 3b a2 2a 80 3d 05 8f 15 3c
       0.017494595 0.0036768643 0.062581316 0.009128337
000050 43 42 81 bd a2 a0 48 bd 9a 2f d0 3c b7 60 85 bc
       -0.063114665 -0.048981316 0.025413323 -0.016281469
000060 57 66 15 3c b3 51 c2 3c 18 0a 64 bb aa e6 11 3d
       0.009118638 0.023720598 -0.0034796055 0.03562037
000070 0e ea 56 bd 27 f8 89 bd d1 14 3e 3d fb 31 64 bd
       -0.052469306 -0.067367844 0.04640657 -0.055711728
000080 c1 a0 87 bd 31 06 91 3b 2e 5f b9 3c 36 ed 01 3e
       -0.06622458 0.004425787 0.022628393 0.12688145
000090 c6 6b 2e 3d 0e ca 5c 3c da 7d 54 3d 9c 19 11 bd
       0.04258325 0.013475908 0.051877834 -0.035424814
0000a0 26 0f ed 3c 15 19 b6 3c 3d 5b 99 3d c9 da 90 3c
       0.028937887 0.022228757 0.074881054 0.01768245
0000b0 22 db 84 3d 60 b6 3d bd a9 52 28 3d ef 90 b9 bd
       0.06487109 -0.046316504 0.041094456 -0.09060847
0000c0 7d cd 88 bc 3c ca 61 bd ec 14 ec bc a5 c1 c4 ba
       -0.016699547 -0.055124506 -0.02881857 -0.0015011324
0000d0 54 ee 4c 3d f8 c9 93 bd 4e a8 b7 3d d5 68 31 bd
       0.050031975 -0.07216257 0.089676484 -0.043312866
0000e0 a2 8f 53 bd 9b 77 84 bd 00 0d 0c bd b9 aa 19 be
       -0.05165065 -0.064681254 -0.034192085 -0.15006532
0000f0 cb ac 9f bd 70 99 2b bd 33 ee 9b bb 15 cf 90 3d
       -0.077966295 -0.041894376 -0.00475862 0.07070748
000100 c9 e3 28 3e 3b 2d c5 bc cd ca a8 bd af e7 85 bd
       0.16493143 -0.02406942 -0.08241806 -0.06538331
000110 14 92 87 3c b5 63 94 bd 0f 05 db bd 6d 16 36 3d
       0.016549148 -0.0724558 -0.10694324 0.04445498
000120 45 03 bd 3d ea 9c 01 3d b6 c0 22 bd 4f 8e 27 3d
       0.09229139 0.031643786 -0.039734565 0.0409072
000130 b7 4b ee bc 56 3b 26 bd ae 92 44 be ff bd 31 bd
       -0.029088838 -0.04058393 -0.19196579 -0.043394085
000140 da fe a2 3d 94 7f c8 3c 1a e7 a0 3d 97 a9 aa bd
       0.07958765 0.024474896 0.07856579 -0.08333128
000150 db ce 4f bd 0e c3 1c bd 69 4a 44 bd 63 ec 07 be
       -0.050734382 -0.038271956 -0.047922526 -0.13273768
000160 d9 9c d1 3c ab 93 a5 3a 89 28 87 3b f0 e1 d9 bc
       0.025587486 0.001263251 0.004124705 -0.026596993
000170 c3 c9 eb 3c 7b 03 34 bd 44 3a 3e bd 4a 1e 77 bd
       0.02878273 -0.04394863 -0.046442285 -0.06033162
000180 bb c8 98 bc ba d2 64 bd e3 63 fd 3a f9 08 44 3d
       -0.018650403 -0.055865027 0.0019332137 0.04786012
000190 1d fa 02 3d 20 69 fc bd 1a f9 8d 3d 7a e7 d2 bc
       0.031976808 -0.123247385 0.06932278 -0.025745142
0001a0 33 08 5b 3d 1e ce af 3d 2b ed ab 3d b0 c2 f8 bc
       0.053474616 0.085842356 0.083948456 -0.030366272
0001b0 7b 0b ce 3c 6e ca 9e 3c b0 e6 56 3b 96 a7 e5 3d
       0.025151959 0.019383635 0.003279131 0.11213605
0001c0 b7 4b ec 3c 6e 43 e3 3d 25 e6 0b bc 0d 98 8a 3d
       0.028844697 0.110968456 -0.008538757 0.06767283
0001d0 38 31 19 3c 81 a7 a0 3c f2 b8 0e 3d 9e 49 b4 bc
       0.009350114 0.019611122 0.034844346 -0.02200776
0001e0 fd c4 15 bd c7 26 de bd b2 86 65 bd a2 f7 b0 bd
       -0.036564816 -0.1084724 -0.05603666 -0.08640982
0001f0 33 f9 8c bc 32 a9 95 bc d2 22 6b 3d 69 34 1f 3d
       -0.017208671 -0.018269155 0.057406254 0.03886834
000200 32 de b0 bc ce 09 23 be 09 a9 a3 3d 42 29 e6 3d
       -0.021590326 -0.15921709 0.07991225 0.11238338
000210 10 1b 1e bc f3 22 f0 bc 60 f2 8e 3d 2f da 70 bd
       -0.009650007 -0.02931354 0.06979823 -0.058801826
000220 1a d8 a4 bd 3e 0e ed bd 2b b5 11 3e a8 53 c1 3c
       -0.080490306 -0.11574982 0.14229266 0.02359946
000230 9d b9 72 bc 37 a2 a9 bd 8b 46 1c bc 32 c4 7e bd
       -0.0148147615 -0.08282893 -0.009538303 -0.062198825
000240 6b d0 bf bd 84 02 75 3d 14 45 a1 3d 6c da ad 3d
       -0.093659244 0.059816852 0.07874504 0.08488926
000250 5c dc 11 3d f3 54 0e bc 81 6c 08 be b0 5c c2 bd
       0.03561054 -0.008687246 -0.13322641 -0.09490335
000260 25 d4 5c 3d 92 4f 24 3c 26 c2 c4 3d 8b c9 8f 3d
       0.053913254 0.010028737 0.096073434 0.07020863
000270 ba 0a 5f 3d d6 86 d6 bd 5b 38 9c bd 83 3a 55 3d
       0.05445359 -0.10474937 -0.076279365 0.052057754
000280 99 b3 ac 3c fc 34 8c 3d 42 82 ec bc 93 fe dc 3c
       0.021081733 0.068460435 -0.028870706 0.02697686
000290 c3 48 2c bc 57 2d 93 bd d3 ee be bd 0d 80 67 3c
       -0.010515395 -0.07186382 -0.09322896 0.014129651
0002a0 70 7e 55 3d d3 cc d7 3c c2 26 40 bd 30 78 18 bd
       0.052122533 0.026342785 -0.046911962 -0.037223995
0002b0 f4 e7 be bd 74 4d 7b bd 9d 63 da bd 4c 1e e4 bd
       -0.09321585 -0.061353162 -0.10663531 -0.11138591
0002c0 76 32 99 bd 8c e8 bc 3d 69 b3 00 be 83 97 a8 bd
       -0.07480328 0.09224042 -0.1256844 -0.082320236
0002d0 53 95 b3 bd 7a a3 0e be d8 5f 59 bd 51 9a ea bd
       -0.08768716 -0.13929549 -0.05306992 -0.11455215
0002e0 a5 18 3f bc fd f7 c0 bc 4b e4 ae bd f9 6c 6b bc
       -0.011663591 -0.02355575 -0.08539637 -0.014369243
0002f0 fd 0b a5 3d b7 7f 25 bd cf 4a 7b be f7 40 50 bd
       0.08058927 -0.040405 -0.24540256 -0.050843205
000300 65 24 b1 3b 68 f5 02 be 1c f3 b6 bc 58 35 00 3d
       0.00540595 -0.12788928 -0.02233272 0.031300873
000310 67 29 3a 3c 80 ba a9 bd f6 99 c1 bc 9e d4 34 be
       0.01136241 -0.08287525 -0.023632985 -0.17659232
000320 f7 9a 28 bd 7c 72 2f be a0 8d 3a 3b 45 a6 a0 3d
       -0.04116341 -0.17133516 0.0028465763 0.078442134
000330 47 45 43 bb 2a db 98 bc ec 3a f7 3d a7 0f 69 3c
       -0.0029795931 -0.018659193 0.12071785 0.014224923
000340 bb da a8 3d 48 92 20 bd 9a 83 69 bd a2 48 01 bd
       0.082448445 -0.039202005 -0.05701027 -0.03156341
000350 d7 c1 48 3d c7 ce 11 be ec df e6 bd 37 90 26 bd
       0.049012985 -0.14239036 -0.112731785 -0.040664878
000360 7f c0 3d 3c e2 b2 11 3c ab 17 1e bc fd 5c 0d bc
       0.011581539 0.008892747 -0.009649198 -0.008628127
000370 3f b7 50 3d de c4 27 bd 14 c1 9f 3d 79 40 dd 3c
       0.050956007 -0.04095923 0.078004986 0.027008282
000380 96 f9 3e bd e1 60 83 3d 56 12 2f bd 7d a2 05 3d
       -0.046624742 0.064149626 -0.042742096 0.032625664
000390 92 a7 12 be de 2e e9 bc d9 34 af 3c 28 9f 74 3d
       -0.14321736 -0.02846473 0.021387504 0.059722096
0003a0 2c af fe 3c 7d d8 a7 bd 55 d1 21 3d 6a a7 bd bd
       0.031089388 -0.08195589 0.039506275 -0.09260447
0003b0 48 14 3a 3d c6 d4 40 3d 70 ed e8 ba 2e 90 fd bc
       0.045429498 0.047077917 -0.0017770957 -0.03095254
0003c0 37 c0 b0 3d 49 1e b9 bd a0 4d 07 be 58 b1 31 bc
       0.08630412 -0.090389796 -0.13213205 -0.010845505
0003d0 c0 41 96 bd 09 62 cd bd 28 02 22 3b 2c 00 90 bc
       -0.073367596 -0.10028464 0.0024720524 -0.017578207
0003e0 1c 7d 9b 3c d3 b0 09 bd 13 a6 84 b9 c5 21 e9 bc
       0.018980555 -0.0336159 -0.00025300737 -0.028458485
0003f0 cd 30 01 3e 18 06 7d bd d4 7e 3a 3e d6 88 69 3d
       0.12616272 -0.06177339 0.18212444 0.057015263

features_extractor.value_net.0.bias f4 [64]
000000 8f 6b 75 3b fa cb cd bd e7 8d 90 bd 1d 2c 11 bd
       0.0037448143 -0.10048671 -0.07058316 -0.03544246
000010 76 a0 e3 bd 70 45 b2 3c de 14 09 bd ff 01 18 be
       -0.1111459 0.021761626 -0.033467166 -0.14844511
000020 87 54 ca bd 28 60 4e be 5f 90 e0 bd 9f 00 0d bd
       -0.098794036 -0.20153868 -0.109650366 -0.03442442
000030 d4 78 b3 3b f8 ef af 3d a1 df 06 be 33 d8 45 bd
       0.0054770503 0.08590692 -0.13171245 -0.048301887
000040 8d 7a 4a be a5 88 2e be a2 77 85 bd 32 ca 26 be
       -0.19773312 -0.17044313 -0.06516959 -0.16288069
000050 58 dc 01 bd fa ff 15 be 09 16 d1 bd 5d 82 50 be
       -0.031704277 -0.14648429 -0.10209281 -0.2036223
000060 d1 80 28 3d c4 0b 06 be 2a f1 41 be 07 53 1f be
       0.041138474 -0.13090426 -0.18939653 -0.15559016
000070 76 55 28 be 32 52 20 bd d8 93 2f be 7f c1 15 be
       -0.16438851 -0.039140888 -0.17146242 -0.14624594
000080 ef 8a 9c bd 11 8c 2a be 80 86 71 3d 72 bd 06 be
       -0.07643687 -0.16654994 0.05896616 -0.13158205
000090 4b e3 61 be a4 41 15 3d 33 88 19 be 51 8a 48 bb
       -0.22059362 0.036439553 -0.14993362 -0.003060002
0000a0 07 d1 e5 bd 0a 43 56 3d a9 c4 56 be c8 34 ac 3c
       -0.112215094 0.052310027 -0.20973457 0.021021262
0000b0 18 32 45 be f5 5e 62 bc a9 1f 01 be 50 0d fa bb
       -0.1925739 -0.013816585 -0.12609734 -0.0076309815
0000c0 47 f0 f8 bd e6 14 1d be 4c eb a8 bd 03 99 44 be
       -0.12155204 -0.15340003 -0.08248004 -0.19198994
0000d0 9d b2 0b 3c 26 3b 02 be ad 15 ee bd c3 f5 34 bd
       0.008526471 -0.12717876 -0.11625228 -0.04417969
0000e0 64 10 54 be 9e 64 32 be a6 b4 df 3c 37 19 cb 3b
       -0.20709378 -0.17421195 0.02730782 0.006198074
0000f0 da d4 2c be 45 4f c9 bd b1 ac 6a be 8a 09 26 bd
       -0.16878071 -0.098295726 -0.22917439 -0.04053644

features_extractor.value_net.2.weight f4 [1, 64]
000000 9b b3 89 3d 72 18 dd 3b 92 5c f9 bc 6e db 86 3c
       0.0672371 0.006747299 -0.030439649 0.016462054
000010 c2 91 bc bc e0 99 28 3c cc e6 8f 3d d2 a8 6c 3c
       -0.023018721 0.010290593 0.07026443 0.014444547
000020 1f 83 c3 3c b2 a4 64 3c 0f 5f 84 3c 5a 22 5d 3b
       0.023866234 0.013955282 0.016158609 0.00337424
000030 d4 94 8a 3b b9 9f 40 3d f6 86 53 ba a8 70 e9 3c
       0.0042291675 0.047027323 -0.0008069122 0.028496101
000040 b2 31 b5 3c 66 b9 c9 bc 5e 04 03 3d 43 50 07 3c
       0.022118423 -0.024624538 0.031986587 0.008258882
000050 42 58 95 3d de 51 18 bc 39 44 d2 3c ed e9 0c 3c
       0.072922245 -0.009296862 0.025667297 0.008600694
000060 c9 43 a8 3c 34 75 50 bc ab d9 81 bd af 03 11 ba
       0.020540135 -0.012723256 -0.06340345 -0.000553186
000070 4f a7 35 bc 6a 2e 37 3d 0d 13 64 bc 98 44 7a bc
       -0.011087253 0.044722 -0.013920558 -0.015275143
000080 41 d0 fb 3c 0b 09 da ba 40 5f 9d 3c 4e 29 fd bc
       0.030738952 -0.0016634775 0.019210458 -0.030903485
000090 7d 69 f4 bc fc 85 c1 3c c3 e4 e6 bb b6 89 25 3d
       -0.029835457 0.023623459 -0.0070463135 0.040414535
0000a0 fb bb 0d bd 57 09 34 3d 98 a1 0b 3c 8f d3 cb 3b
       -0.0346031 0.04395422 0.008522414 0.006220288
0000b0 20 71 e0 bc 06 9f 14 3d 7f 60 10 bd 87 0f 12 3c
       -0.027397692 0.03628447 -0.035248276 0.008914835
0000c0 98 fc e6 bc 89 35 5a bd 69 92 2b 3b 95 d9 d6 bc
       -0.028196618 -0.05327371 0.0026179797 -0.026226798
0000d0 86 27 cd 3c 91 f8 64 bc 08 6d a9 bc a8 05 08 bc
       0.02504326 -0.0139752785 -0.020681873 -0.00830213
0000e0 ea 9f 35 bc f5 e3 75 bc 20 05 cd 3c 5b 8f 87 3c
       -0.01108549 -0.0150079625 0.025026858 0.01654785
0000f0 9d 01 33 bd e0 9d 12 3b 93 88 bc bb 53 0e 22 3c
       -0.04370271 0.0022371933 -0.0057535856 0.0098911105
