weights/cnn-nd-2-eps-700.pth (torch, 568288 bytes, 16 tensors)

log_std f4 [2]
00000000: e877 143e dcdc 603e
0.14498866 0.21959251

features_extractor.encoder.0.weight f4 [16, 1, 3, 3]
00000000: 6ca5 9c3e f9d1 ad3e 9fac a4bb 86c5 b93e
00000010: 76be 1dba 8fcc 013e e78b eebd 884d 813e
00000020: 00d6 b13e 1c1a 59be 8810 a83e 3d7d da3d
00000030: f90f 953e 0713 c83d 1395 463e b025 0abc
00000040: 7345 9f3e 6bf8 c73d 0dd1 28be 7cb7 273e
00000050: a3e7 d9bd c35e b5bd bb11 19be 2927 913e
00000060: db77 6b3b 7ab4 41be 1438 0fbd d7f4 87be
00000070: 1886 e3bb 0535 c9be 0abd 943e ac14 91be
00000080: 9980 853e 116f bf3d d772 abbd 12c0 813e
00000090: dbb5 a43d 51f5 943e 605f 6f3d 6976 87bd
000000a0: 259c 073e 7f8a 79bd 5a87 433e 7895 b73e
000000b0: e201 813e d245 10be 98b8 453e 98d4 a3bc
000000c0: 68c9 0c3e 73ee 2ebe c4f1 acbe 6531 89be
000000d0: 3478 27be adc2 f93e 63a5 293e 2b7b 663e
000000e0: 5859 673e 5ff2 9b3d 45c7 c23e b570 04be
000000f0: 55c9 503d 2a88 14be c902 573e 3356 1cbe
00000100: 6f77 e93d 16b4 42bc 9afd ce3e 933d 83be
00000110: 1779 06be 4608 8dbe d742 983e f6f6 b73d
00000120: 5a1a c53e b89f 88be fad0 99be 4422 a5be
00000130: 2b76 30be aae7 983e c798 0d3e 91b7 cd3e
00000140: ab93 ebbd 26f5 81be 38cc 873e 69df 84bd
00000150: 4f88 7d3e bbdf 033c f5b0 933e a75f 61be
00000160: 252a 81bd 8edf 3f3e f2fe 203e de66 aabd
00000170: e66b 223e 1bca 903e 2d44 50be 10f6 4cbe
00000180: 8cb9 ca3e 6ad0 9cbd 6bb7 24be db22 a5be
00000190: b078 43be 5c88 aa3d f836 34bd e3c4 77be
000001a0: e01a 003c 9328 69be 04cb 90be a3f5 3bbe
000001b0: 3a62 abbe 94b5 41be d0ab ce3e 97a3 203e
000001c0: bf27 b53d 4534 99be 2e40 11be 53b2 a2bd
000001d0: a266 1a3e 5a2c 96be 0dfe 16bd 7658 4cbe
000001e0: d759 b2bd c005 febd 15a7 b5bc 304c 67be
000001f0: 204a 6abe 6c65 4fbe e3b4 14be cd48 83be
00000200: 7e3d 9d3e 9cbe 60bd 3f98 a53e ac33 143e
00000210: 0eec 9abe 7932 863e 2f39 68bd 0e75 cabd
00000220: f563 95be 6303 05be c837 9abc 6ea8 33bd
00000230: 9e15 a53e 1d0d 88be e274 0c3f 5b21 b4bd
0.30594957 0.3394926 -0.005025461 0.3628351 -0.00060174556 0.12675689 -0.11647778 0.25254464
0.34733582 -0.21201366 0.32825112 0.106684186 0.2911375 0.09769254 0.19392805 -0.008431837
0.31107673 0.09764179 -0.16485997 0.16378587 -0.10639884 -0.08855965 -0.1494817 0.2835019
0.0035929594 -0.18916503 -0.03496559 -0.26553985 -0.0069434755 -0.39298263 0.29050475 -0.28336084
0.26074675 0.09347356 -0.08371513 0.2534185 0.08042499 0.29093412 0.058440566 -0.06614382
0.13243158 -0.060923096 0.19094601 0.35856223 0.2519675 -0.14089134 0.19308698 -0.019998834
0.13748705 -0.17083149 -0.33778203 -0.26795498 -0.16354448 0.48781338 0.16566996 0.22507922
0.22592676 0.07614588 0.38042656 -0.1293362 0.050973255 -0.14505067 0.20997156 -0.15267257
0.11399733 -0.011883756 0.40427858 -0.25632915 -0.1313213 -0.27545375 0.29738495 0.08982651
0.38496667 -0.26684356 -0.3004225 -0.32252705 -0.17232578 0.29864246 0.13827811 0.40179113
-0.11502775 -0.25382346 0.26522994 -0.064879246 0.24759029 0.008048947 0.28845945 -0.22009145
-0.063068666 0.18737623 0.15722254 -0.083204016 0.15861472 0.28279194 -0.20338507 -0.2001574
0.39594686 -0.07656939 -0.16085593 -0.32253155 -0.19089007 0.0832679 -0.043997735 -0.241962
0.0078189075 -0.22769384 -0.2827989 -0.18355422 -0.33473378 -0.18916923 0.40365458 0.15687405
0.088454716 -0.2992269 -0.14184639 -0.07944169 0.15078214 -0.29330713 -0.036863375 -0.1995562
-0.08708542 -0.124034405 -0.022174397 -0.22587657 -0.22879839 -0.20253533 -0.14522128 -0.2564148
0.30710977 -0.05486928 0.32342717 0.14472836 -0.3025822 0.26210383 -0.05669516 -0.09885608
-0.29177824 -0.12989573 -0.018825427 -0.0438618 0.32243055 -0.26572505 0.5486585 -0.087954246

features_extractor.encoder.0.bias f4 [16]
00000000: e0eb a1bc c890 c43c bedf 633e 13f9 813e
00000010: a908 683e 7180 70bd 50ee 353d 7b04 edbd
00000020: 451d 5f3c 0a87 13be f339 813e 9385 7abe
00000030: 487a 6d3e 2efc 373e 57f9 ae3d b54e 063c
-0.019765794 0.023994818 0.2225332 0.2538534 0.22659554 -0.05871624 0.044416726 -0.1157312
0.013617818 -0.14406982 0.25239524 -0.24465017 0.23191178 0.17967293 0.085436516 0.008197476

features_extractor.encoder.2.weight f4 [16, 16, 3, 3]
00000000: e56b 973d a9fd 9a3d 1e82 a53d 7fa6 23be
00000010: 8832 6bbc a9bc a4bd afa9 4fbc b40f 01bd
00000020: 93c2 eebc 3dea 5fbd 7c47 cd3c 2691 3b3d
00000030: 38d9 a7bc c1cc a8bd 8c7f adbd 03ec 6dbc
00000040: a193 10be 5781 743a 5224 013e 59f3 32bd
00000050: c594 3c3c 043b 803d 3d19 7a3d 09b8 03bb
00000060: ff5d 8f3d 1378 c23d 760f 8f3d edcf cf3c
00000070: 84f3 91bd cad8 85bb 2eca fb3c a436 983c
00000080: 3c14 7b3d 4226 0e3e 99bb 523d 261c c73c
00000090: f398 4cbc 6e3b 013d 135f 293d 8d18 7cbc
000000a0: 0705 e6bd 796d 5fbd c003 c33d 281a 54bb
000000b0: 7ea1 53bc 2fab 1b3a 4877 f0bd 9105 dfbd
000000c0: 469d fabd 3091 103e 299b 203c 4829 b53d
000000d0: 60ef 0f3d 6442 a6bd f46c e73c bdb1 2a3e
000000e0: 8d4d e53d 9c9f dcbd 5ab3 543c 28f8 85bd
000000f0: c9a3 46bd 28b0 24bd 6073 b4bd 5b15 893d
00000100: 63e9 243e 7b74 703e fe21 283e 99c7 2e3e
00000110: 9023 9abd a267 c63c 0ec9 9abb c15d a63d
00000120: 783d 8e3d 01d9 b93d 7a66 f53d 1fcc 8a3e
00000130: 0923 0a3e dbfc 9e3b dc2c b43c c23e 0a3d
00000140: e5ec 0e3e 1e08 113d cb44 663d e65a e83d
00000150: c331 3bbe abc3 0cbd ed0e c7bc 508a 44bd
00000160: 880d 22be 6c97 c23c 172a 723c 18d3 01bd
00000170: 9386 223d 0617 d93b 320c b0bc e08f a6bd
00000180: c115 f13d 182f fdbc 8efc 1e3d 46e4 1a3d
00000190: 16dc 733d 04e9 82bd 627c 753d ab5d 21bd
000001a0: 0c51 fd3c 8d46 a03d 388e 40bc 80f0 28ba
000001b0: 3677 c43c de23 81bd 34f2 1b3d d697 93bc
000001c0: 3431 7e3d e586 053e e912 be3d a2ec 7f3d
000001d0: 4a04 86bd a62a 74bb d2e6 58bc 1ffb 14be
000001e0: aa62 dd3b a3c1 bcbc 2721 083d de1b e4bc
000001f0: aefb 743b 95dd 9a3c 8149 05bd 1398 313e
00000200: 4718 063e 642b 8ebc 7b1e 57bd 4f11 bdbc
00000210: 4e50 2cbe dae7 ffbd 89e4 0e3d 4cc9 2ebd
00000220: cfaf e1bd 7297 0b3d b0af 9dbc 486b 4bbd
00000230: b830 f5bb d9e3 cabd b418 263b 192e 80ba
00000240: c478 2dbe a398 41bd 66b3 753d 6eda eb3c
00000250: 3833 29be 013e 12be 71ab 223e 65d0 603d
00000260: 5444 92be bf69 95bd 4bb7 0c3b b29a db3d
00000270: 132b 8c3d 0b10 9cbb 3b20 0bbe daa5 ad3d
00000280: c32b 75bd e604 49be b5b3 e53d dc26 033e
00000290: aa69 44bd 642e 1ebe 3d51 a4bc 7b8f 2cbd
000002a0: f550 d4bd 49c3 833c bcdf d43d 802a 823c
000002b0: d6a0 bcbd e927 9fbd df6a df3d 48e4 d9bc
000002c0: 1859 d23b 26f3 6d3d 4252 3abc dc85 a9bb
000002d0: 1c13 80bd 4e0d 5dbd 8151 f2bc d461 63bd
000002e0: b02c c6bd f565 55bd e72c 083e 8930 15bd
000002f0: bc69 d8bd 7c4f 8dbd cd97 e4bd 850e bcbd
00000300: 7d32 5f3e 4a73 143e d750 8cbd f8c9 dc3d
00000310: 757f 85bd bfd9 46be f716 ffbd 5dfb ca3d
00000320: 9ce4 193d 133d 76bd b729 4cbe fe49 02bd
00000330: c717 d23d 7cd6 5a3c 5a85 07be 5bcf 843e
00000340: d6be 07be ffa4 b23d d283 bb3e 0de3 a83e
00000350: c775 1fbd 5b9f a83e abb7 753e 2550 f2bd
00000360: 51b1 213d 010e 44be c14d 383e 005a d13d
00000370: 9f48 a73d 8ac6 3abe e817 1c3e 87c3 f33d
00000380: ff38 cc3d cd09 63be 6349 e9bd 79e4 0d3d
00000390: d48b a73d 82bd 20be d42b 5dbd 996d d3bc
000003a0: 3e7e 2d3d 1c87 de3c 257c 973d ee50 d0bd
000003b0: 2fa2 64bd 40f5 9c3d 1cd4 bc3c 14b9 2ebd
000003c0: 4c4d 183d 4107 a33d 3d01 7b3d 0068 763b
000003d0: 3001 a8bc d28d 9abd 7a78 a0bd 9829 23bd
000003e0: ce81 2dbd f0af d43c 4cbb c6bc 8389 05bd
000003f0: 3a7c 163e 161d eb3d 12ab 7b3d 9713 b7bd
0.07393626 0.07567913 0.080814585 -0.15981482 -0.014355309 -0.080437966 -0.012674733 -0.031509116
-0.029145515 -0.054666746 0.0250585 0.04579272 -0.02048932 -0.08242179 -0.08471593 -0.014521602
-0.14118816 0.00093271345 0.12611511 -0.043689106 0.011510079 0.06261256 0.061059225 -0.0020098707
0.0700035 0.094955586 0.06985371 0.025367701 -0.07126525 -0.004084681 0.030736055 0.018580742
0.061298594 0.13881782 0.05144844 0.024305414 -0.012487638 0.031550817 0.041350435 -0.015386713
-0.11231428 -0.05454776 0.095222 -0.0032364223 -0.012916921 0.0005938289 -0.11741501 -0.108897336
-0.12237029 0.14117885 0.009802618 0.088457644 0.035140395 -0.08118132 0.028250195 0.16669364
0.11196432 -0.107726306 0.012982214 -0.06541473 -0.04849604 -0.04020706 -0.088110685 0.06693526
0.16104655 0.23481934 0.16419217 0.17068328 -0.07526314 0.024219338 -0.0047236746 0.08123351
0.06945318 0.09074593 0.119824365 0.27108857 0.13489927 0.00485192 0.021994047 0.033751257
0.13957556 0.03540813 0.05621795 0.113454625 -0.18280701 -0.03436629 -0.02429911 -0.047983468
-0.15825474 0.023753844 0.014780543 -0.031695455 0.03967912 0.006625059 -0.02149019 -0.08132911
0.11771727 -0.030906245 0.038815074 0.037815355 0.059536062 -0.063921005 0.059933074 -0.03939597
0.030922435 0.078259565 -0.011752658 -0.00064445287 0.023982625 -0.06305669 0.03807278 -0.018016737
0.062058643 0.1303974 0.092809506 0.06248153 -0.06543787 -0.0037256866 -0.013238626 -0.1454892
0.0067561464 -0.023041552 0.03323474 -0.02784532 0.0037381458 0.018904487 -0.032540802 0.17343168
0.13095199 -0.017354675 -0.052519303 -0.023079542 -0.16827509 -0.12495394 0.034885917 -0.04267244
-0.11019861 0.034079976 -0.019248813 -0.04966286 -0.0074826144 -0.0990674 0.0025344314 -0.0009779363
-0.169406 -0.047264706 0.05998554 0.028790679 -0.16523445 -0.14281465 0.15885712 0.05488624
-0.28567755 -0.0729556 0.0021471556 0.10722865 0.06844153 -0.0047626547 -0.13586514 0.08478899
-0.059856188 -0.19630775 0.11215917 0.12807792 -0.04795233 -0.15447384 -0.020058269 -0.04212902
-0.10367004 0.01608433 0.103942364 0.015889406 -0.092103645 -0.07771284 0.10909056 -0.02659811
0.006419312 0.058093213 -0.011372151 -0.005173428 -0.06253645 -0.053967766 -0.02957988 -0.055513218
-0.09676492 -0.052099187 0.13298379 -0.03642324 -0.10567042 -0.06899926 -0.11161766 -0.09182457
0.21796604 0.14497104 -0.068513565 0.1078071 -0.06518451 -0.19419001 -0.12455552 0.09911225
0.037571535 -0.06011684 -0.19937788 -0.031808846 0.102584414 0.013356801 -0.13234463 0.2593945
-0.13256392 0.08722877 0.36624008 0.32985726 -0.03893068 0.3293408 0.23995845 -0.118316926
0.039475743 -0.19145967 0.17998411 0.10222244 0.08168148 -0.18239799 0.15243495 0.11902528
0.09971809 -0.22171707 -0.113909505 0.034641717 0.08180967 -0.15697291 -0.053996876 -0.025809096
0.042356722 0.027164035 0.073967256 -0.10171686 -0.055818733 0.07663965 0.02305036 -0.042656973
0.03718309 0.07960368 0.061280478 0.003759861 -0.020508379 -0.07546581 -0.07835479 -0.03983459
-0.04236012 0.0259628 -0.024259232 -0.032601845 0.14695826 0.11480157 0.061442442 -0.08939283

features_extractor.encoder.2.bias f4 [16]
00000000: 0698 033d aa90 8abc 2bb2 723d af9d 66bd
00000010: 0b32 343d f6ce b7bd 69ca 50bd 4c81 32bd
00000020: 40d4 c8bc 0349 743c e2ff 1dbd 331d 96bd
00000030: a573 473d 0702 9e3d bab1 09bb 1f29 a5bd
0.032127403 -0.016914684 0.059251945 -0.056302723 0.043993037 -0.089750215 -0.050974283 -0.04358034
-0.024515271 0.0149099855 -0.038574107 -0.07329788 0.04869427 0.077152304 -0.0021010474 -0.08064484

features_extractor.encoder.4.weight f4 [16, 16, 3, 3]
00000000: e40e a23c c723 7f3b 86cb a53b 3996 8ebd
00000010: 048f 36bd 8afa 6dbd e232 38bc 0718 d73d
00000020: 0837 e73d ff5f f03c d508 3cbd e5b9 af3d
00000030: 2380 643d d622 0bbd a9e2 4d3c 17bd ccbc
00000040: f9e6 8e3d dc19 babc 124c f13c f3a1 b93d
00000050: db6b 603d cd78 2bbe f027 243d 8bd2 c0bd
00000060: 1a8b 22be ad67 33bd 61e6 44bc fd1f 71bb
00000070: 0d46 6dba e7b0 bbbc 25ac 4abd 14d0 b53d
00000080: 8b92 01bd d2a9 223d 9348 693d b860 60bd
00000090: cd36 3ebd 9c29 193d eb96 073e 2ea4 46bd
000000a0: a8b2 933c 15ae 8cbd ccc4 15be 5f9d 7dbd
000000b0: 4775 13be 02a5 b13d 99f0 9a3c d673 6c3c
000000c0: 2d06 9b3d 768b 9e3d 1221 4e3d 8043 eebd
000000d0: 5d1c b6bd 3c9e 18be 8830 903d f3aa 233c
000000e0: 212b 953d febe 1f3d 0201 d03c f220 9fbd
000000f0: d2da 0c3d d452 bd3c bf03 9fbd d679 193c
00000100: 4202 8a3d d23d 6abd 7249 05be e74e 29bc
00000110: 2aba 12be 838b a73c 61b8 5e3d d8ba 4ebc
00000120: 87de 4a3d 3011 fe3c 29a2 90bd 877a c1bd
00000130: 5d36 863d 999e a93c c10a 403d f9b5 a5bc
00000140: 2605 9bbd f043 373d 7875 c13d fb9b 163d
00000150: 996b b8bd 9edf 573d 3dd3 8dbc a098 923a
00000160: eeab 9ebd 5dc9 90bd e97b 78bd b94e 003e
00000170: 8ea3 5cbd 66c9 663d 3316 443e 2bf4 bebc
00000180: 6235 8bbd 86a9 b6bd ab55 93bd 4466 2bb8
00000190: c991 ff3b 36fc 603d 04bc 873d 5034 95bd
000001a0: ff29 5ebb a378 88bd b905 6dbd c22e dcbd
000001b0: 8096 973d c4d8 5bbd c477 c83b 3b6b dc3b
000001c0: 0de4 293d db54 953d 661a 2c3b ad1b 9fbc
000001d0: 47c1 8cbc 96ef b8bc c3e8 013c 5e0a 99bc
000001e0: e39e 06be 1184 09be 119f 7bbd 71b3 8d3c
000001f0: 4220 82bd c6d1 313d a9a8 79bd 81af 66bd
00000200: 66dd 2c3d 6d16 a3bd 076a b93c 5624 15bc
00000210: 5c8b dfbc 1dcd 1ebe 0cf2 12be 2b15 a73b
00000220: 81b7 883d ffc5 b63d 5044 f3bb f431 b9bd
00000230: 090a e0bb 7d45 bebd 8377 12be c341 babd
00000240: 23bc 45be 504c 9b3d 3304 cebd d574 1ebc
00000250: f72d e539 9513 86bd 41d6 503a d911 99bc
00000260: 82fc 6a3c 7d4a df3b d897 aebd b796 6c3d
00000270: 0d7e 3bbd fbc2 40bb b10d d5bd 0cad 053e
00000280: 9031 a0bd f0e7 92bb f87c b63d 9de5 5e3d
00000290: df60 b83a cb7b cf3c 1a2e 8ebd b94a fdbc
000002a0: c1a6 d2bb b591 2cbd ea3b bd3c 508e c13b
000002b0: d0d2 a63c b62d 54bd c62e 66bd e708 9dbd
000002c0: cc63 b03c 033d 5cbd 8019 d03b 1caf 98bc
000002d0: 79d2 11be 93a9 8fbd fd66 03bd 1fe9 15be
000002e0: 208f 8bbd 6b47 ccbd 408c 08be 1531 e53c
000002f0: a514 aebc 885f b8bd 24fb e23c a11b eb3d
00000300: 290f 3dbe 18fd 64bd b9ee 95bd a1f7 bbbd
00000310: a2d8 8ebd dea4 dbbd c46d e33c a900 42bd
00000320: 2e21 d33d 250f babd 55a1 5b3c d9b2 a539
00000330: ea85 06be d301 063d 1827 9ebd 5133 81bd
00000340: cd36 8abd fa61 8cbd aa0b 873d 4c05 503c
00000350: 5d4d bebc bc61 b8bd 0667 7b3d 9e5e 9cbc
00000360: 7521 b13d 0c87 393c 1f0f 78bd 706a a0bc
00000370: e4dd 723d 56bd 1bbd 5c67 fabd cb4c 9ebc
00000380: cfd5 7fbd 4d44 ce3b 93c5 033d 3cfc 7abd
00000390: a38a f5bb 7505 cabd 2674 f3bc c65d 6cbe
000003a0: 3024 5fbd 94be b43d d341 243e 144c 513d
000003b0: 7330 033c 296f b63d 9c04 793b e912 703d
000003c0: f8a4 bcbd 0bdc 7b3c 07bf 8c3d ce3f 05be
000003d0: 3731 c73a bd28 2b3c 7018 ffbd 3632 c2bd
000003e0: a92b 3b3d 5992 70bd c20e 56bd e6f1 7ebb
000003f0: 7a40 b7bd c1d1 273d 9c58 543d be85 5dbe
0.019782491 0.0038931237 0.0050596623 -0.069622464 -0.044569984 -0.05810026 -0.0112426 0.1050263
0.11289793 0.02934265 -0.04590686 0.085803784 0.055786263 -0.03396877 0.012566247 -0.024992509
0.06977648 -0.022717409 0.029455218 0.090640925 0.05479036 -0.167453 0.04007715 -0.09415158
-0.15873376 -0.043800045 -0.012017817 -0.0036792748 -0.0009051271 -0.022911502 -0.049480576 0.088775784
-0.031633895 0.039712735 0.056953978 -0.05477974 -0.04643898 0.037393197 0.13241164 -0.048496418
0.018029526 -0.06869141 -0.14625853 -0.06191766 -0.14400207 0.08674051 0.018913554 0.014431914
0.07569537 0.07741444 0.050324507 -0.11633968 -0.088921286 -0.14904112 0.070405066 0.009989488
0.07283617 0.039000504 0.025391106 -0.07769956 0.03438837 0.023110785 -0.077643864 0.009367427
0.06738712 -0.057187863 -0.13016298 -0.010333753 -0.14328828 0.020452267 0.054375056 -0.012617789
0.049528625 0.031014055 -0.070621796 -0.09447198 0.06553338 0.020705508 0.046885256 -0.020228373
-0.07569341 0.044742525 0.094462335 0.03676985 -0.090048976 0.052703492 -0.01731264 0.0011184402
-0.07747637 -0.07069657 -0.060665045 0.1253003 -0.053866915 0.056344412 0.19149093 -0.023309788
-0.06797291 -0.08919053 -0.07194074 -4.086482e-05 0.0077993614 0.054928027 0.06627658 -0.072853684
-0.0033899543 -0.06663635 -0.057866786 -0.10751106 0.074017525 -0.05367352 0.006117793 0.00672665
0.04147725 0.072915755 0.0026260852 -0.019422377 -0.017182006 -0.022575181 0.00792903 -0.018681701
-0.13146548 -0.13429286 -0.061430994 0.017297478 -0.06353809 0.043412946 -0.060951862 -0.056319717
0.04220333 -0.07963262 0.022633566 -0.009102901 -0.027288131 -0.15507932 -0.14350146 0.005098959
0.066756256 0.089244835 -0.007423915 -0.09042731 -0.006837134 -0.092905976 -0.14303403 -0.09094574
-0.1931005 0.07582915 -0.10059395 -0.00967141 0.0004371253 -0.06546704 0.00079664966 -0.018685268
0.014342429 0.0068142996 -0.08525056 0.05776092 -0.04577451 -0.0029413092 -0.10403002 0.13054293
-0.07821953 -0.0044832155 0.08910555 0.054418195 0.0014066956 0.025327584 -0.06942387 -0.03091942
-0.00642857 -0.042131145 0.023099858 0.0059068576 0.020364195 -0.051801406 -0.05619695 -0.076677136
0.021531962 -0.053769123 0.006350696 -0.018638186 -0.14240445 -0.070147656 -0.03208064 -0.1463971
-0.06814408 -0.099745594 -0.13334751 0.027977506 -0.021250078 -0.09002596 0.027707644 0.11479879
-0.18462814 -0.05590543 -0.07320923 -0.09178091 -0.06974913 -0.10724805 0.027762301 -0.04736391
0.10309063 -0.0908492 0.013405164 0.00031604504 -0.13137022 0.032716583 -0.077223 -0.06308616
-0.06748734 -0.06854625 0.065940216 0.012696575 -0.023230249 -0.09003016 0.061377548 -0.019088086
0.086489595 0.011323702 -0.060561296 -0.019582003 0.059293643 -0.03802236 -0.122267455 -0.019323727
-0.062459763 0.006294763 0.032170843 -0.061275706 -0.0074933334 -0.09864322 -0.02971847 -0.23082647
-0.05447787 0.088254124 0.16040735 0.051097944 0.008007157 0.08907921 0.0037997132 0.058611784
-0.09211153 0.015372287 0.06872373 -0.13012621 0.0015197162 0.0104467245 -0.12455833 -0.09482233
0.045695934 -0.058733318 -0.052260168 -0.0038901507 -0.08947845 0.04097152 0.051842317 -0.2163305

features_extractor.encoder.4.bias f4 [16]
00000000: 7125 9abd 7fba 88bd e8bd 1ebc b66a 36bd
00000010: 2a42 eb3c 58e3 9ebd 1911 9cbc 8387 2ebd
00000020: 273b 8aba 541a 3c3d 847e 12bd 278c f4bc
00000030: 0bbb 85bd 6764 aebd 4f18 c7bd 7e22 43bd
-0.07526673 -0.06676196 -0.009688832 -0.04453536 0.028718073 -0.07758206 -0.019051122 -0.042609703
-0.0010546193 0.045923546 -0.035765186 -0.029851986 -0.06529816 -0.08515244 -0.09721433 -0.047640316

features_extractor.policy_net.0.weight f4 [64, 1024]
00000000: 27ed 23bc 58f2 cf39 4f3b 423c b508 5f3c
00000010: 333f 7c3d a307 1c3d 3468 fc3c cac6 833c
00000020: 071c 95bd 6221 f1bc db7f 0abd c41a ab3c
00000030: 0c71 e9bb 358f 44bc 8c1c 5b3d dbff ca3c
00000040: 9932 bdbd e08a a5bc a77c 0b3c 6a7a f23b
00000050: c4be 72bc 8b21 573c fa11 8ebc 3925 1ebc
00000060: 3bc6 e73d f2c1 11bd 1db3 4fbd bdd4 96bd
00000070: a740 49bd bbcc 74bc 76f9 0f3c ddee f13d
00000080: 1077 78bd acfb 603d c318 4dbc 7efa 22bc
00000090: c88d f73c 30cc a53c 7df0 1ebc dc1c 0fbd
000000a0: a8d4 a1bc b81a f23c d5be ea3c 4928 44bd
000000b0: 536a 913d e248 be3d 1766 debd bf74 e1bc
000000c0: 06c0 0bbe cef4 89bd 31c9 bf3d c88b 07bd
000000d0: b093 c23d ed17 1b3c 7269 e6bb 6a74 863d
000000e0: 6f16 28bd 6816 a63d 2352 093e bf07 38bd
000000f0: b4e0 92bd db50 2cbd 689b 7a3c 75c9 8cbd
00000100: 10b4 7e3c a8f1 653b 8fa8 2b3d 57c4 373d
00000110: 01f2 09bd c1e8 1ebd 1bae ba3d 47d5 1f3d
00000120: 5c94 54bd 06ec b43c 35d8 8bbd f598 073d
00000130: 1553 4e3d c4ec 903d 10ca 153d 78ff acbd
00000140: f78c 00bd e413 d6bc 30c7 623d 8cb0 833c
00000150: 481f 113d 1f61 75bc 3abc 42bd 0736 d4bd
00000160: f5ca 933d 5a24 78bd 5ae2 50bd f445 6cbd
00000170: fcfa cbbd 5209 dfbc 7ac1 933d 2c92 ea3b
00000180: 25fe 853c 5d7d 9b3c cf67 a13c f92c d6bd
00000190: 948f 6f3d d0ad 1fbd f5aa 123c 7cc7 123e
000001a0: cd18 fb3c 408f e33c 282f aabd 7180 92bc
000001b0: ecb3 b63d afb8 12be caa0 e4bc 2870 963d
000001c0: 79ec 443d fe86 363d c40f 453c 148b dfbb
000001d0: 765a db3c 5fc0 6fbc 0211 47bd cd6b 8dbb
000001e0: 033e 3dbd b842 f83c b152 90bd e5c2 ebba
000001f0: 2eb0 6fbc af12 fdba 6e9a 18bc 71ed ad3d
00000200: 134f ecbb 9cb6 41bd b210 253d d3c5 ecbd
00000210: 2264 d13b 1ea1 4fbb 1ace 8d3d 9ced 123d
00000220: d700 2abc 1c0c 713d e7ff 4a3d 5005 02bd
00000230: c32c 893d 0151 a2bb b480 193e e99c 613d
00000240: b1ad 293d 845b 423d 46ab 24bd d3d0 093c
00000250: d5e3 ae3c 9d0d 11bd e62c 3abb c605 cc3d
00000260: a44b 893d d126 013c 6e8f f63c d59a 95bd
00000270: e484 e33b 193e 423e aaa2 04bd c929 033d
00000280: 9982 893c c234 02be 3336 113e 464d 303d
00000290: 1949 96bc 99e9 dbbc 420c 01be be97 823c
000002a0: 65c3 dc3d 2915 e6bc e024 9d3d 92b6 f43c
000002b0: 1933 fc3d 41ff a23a 1043 0fbd 2c8e 90bd
000002c0: 695b 9d3d d80c 023d 6d90 1bbd 91e4 053d
000002d0: 564c 5fbd cd7d 273c 66f8 acbd 49bf 93bd
000002e0: d9c4 3c3d d88d e03d 214b f03d d070 8abd
000002f0: 0f83 75bd 6947 123d 7606 b1bd aa5d 81bc
00000300: 04ae 293d 7cf8 b5bd 585d d9bc ec10 e23c
00000310: d806 843d 7417 a73d 7be0 3a3d 07f9 963d
00000320: e356 17bd 6481 f53c e5c0 153e 5a5d a0bc
00000330: f356 cc3d a89c 49bc 80ac 74bd 297f 93bd
00000340: 7adf 293d 1b3e 82bd 6384 6cbd 2312 92bc
00000350: 0028 5b3d b928 8dbd fb9c 82bd 051f bf3d
00000360: 3a9e 09bb ebf0 c4bb 62d7 5e3d f08f 6abd
00000370: e38d 063d 4d57 353d f78f a73b 446f a4bd
00000380: 1d8d 943c 5c4a 25bd ddbf f4bd 3cbb 803d
00000390: ea0a f63d 50f3 99bd 2f53 c0bc 5724 87bd
000003a0: 3cf1 aebb 5f8f 223d 90f5 2f3d 87d6 6dbd
000003b0: 05b1 ec3c ddb5 60bc 8de9 1fbe 1110 be3c
000003c0: 9ac0 e8bd 480c 1d3b 9446 83bd 83ed eb3d
000003d0: 8f4e a63d bbc8 913b 4bef 243d f513 e63c
000003e0: 03db 223d a771 95bc 1b30 483d 3e5c b3bc
000003f0: 0c76 7c3d 930b 4ebd ca50 ff3c 20ac c3bd
-0.010005272 0.00039662677 0.011854961 0.013612916 0.06158371 0.03809322 0.030811407 0.016086001
-0.072807364 -0.029434863 -0.03381334 0.020886786 -0.007124072 -0.011997034 0.05349402 0.024780205
-0.09238166 -0.020207822 0.008513606 0.007399847 -0.01481599 0.013130556 -0.017342556 -0.009652429
0.11317106 -0.03558535 -0.050707925 -0.07364795 -0.049133923 -0.01494139 0.0087875035 0.11813138
-0.06066042 0.054927513 -0.012518111 -0.009947417 0.030218974 0.020238966 -0.009700892 -0.03493963
-0.019754723 0.029553756 0.028655449 -0.04788998 0.07100358 0.09291245 -0.10859316 -0.02752149
-0.1364747 -0.06736146 0.09364546 -0.03309229 0.095008254 0.009466154 -0.007031613 0.06565173
-0.04103702 0.081097424 0.13410239 -0.044929262 -0.07171765 -0.042069297 0.015295841 -0.068743624
0.01554586 0.0035086665 0.041908797 0.04486498 -0.03367806 -0.03879619 0.09115239 0.039021757
-0.0518993 0.022085201 -0.068283476 0.033104856 0.050372202 0.070764095 0.036569655 -0.08447164
-0.031384435 -0.026132531 0.05536574 0.016075395 0.035430223 -0.014976769 -0.047542788 -0.103618674
0.07216445 -0.060581543 -0.050997116 -0.0576839 -0.09959981 -0.027226124 0.07214637 0.0071585383
0.016356537 0.018980676 0.01970282 -0.104577966 0.058486536 -0.03898412 0.008951892 0.1433391
0.030651474 0.027778268 -0.083097756 -0.017883511 0.08921036 -0.14328264 -0.027908701 0.07345611
0.04807708 0.044562332 0.012027685 -0.0068219993 0.026776534 -0.014633267 -0.048600204 -0.0043158294
-0.046201717 0.030305251 -0.07047022 -0.001798716 -0.014629407 -0.0019307936 -0.009314163 0.08492554
-0.007211575 -0.04729329 0.040299125 -0.115611695 0.0063901106 -0.0031681727 0.069240764 0.035871133
-0.010376177 0.05884944 0.049560454 -0.031743348 0.06697991 -0.004953504 0.14990503 0.05508128
0.04142541 0.047450557 -0.0402024 0.008411604 0.021348873 -0.035413373 -0.002840811 0.09962039
0.067038804 0.00788279 0.03009769 -0.073049225 0.006943332 0.18969001 -0.03238169 0.03202227
0.016785907 -0.12715438 0.14180832 0.043042444 -0.018345403 -0.026844786 -0.12602332 0.015941497
0.10779456 -0.028086262 0.07673049 0.029872213 0.123144336 0.0012435691 -0.034976065 -0.07058367
0.07683451 0.03175053 -0.037979532 0.03268868 -0.05451616 0.010222864 -0.08445816 -0.07214219
0.046086166 0.109645545 0.1173308 -0.067597985 -0.05993944 0.035712633 -0.086438105 -0.015791733
0.04142572 -0.08885285 -0.026533768 0.02759596 0.06446618 0.0815877 0.045624238 0.07371717
-0.036948096 0.029968925 0.14624365 -0.019575763 0.09977522 -0.012305416 -0.05973482 -0.07201988
0.04147289 -0.06359502 -0.05774344 -0.017830914 0.053504944 -0.06892533 -0.06377598 0.093320884
-0.0020998851 -0.006010165 0.054404624 -0.057266176 0.032850157 0.04427271 0.0051135975 -0.08029035
0.018133694 -0.040354118 -0.119506575 0.06285712 0.120138004 -0.07517111 -0.023477165 -0.06598728
-0.005338816 0.03968751 0.042958796 -0.058065917 0.028893003 -0.013715235 -0.15616436 0.02320102
-0.11364861 0.002396362 -0.06409946 0.11519911 0.081204526 0.0044489778 0.04026727 0.028085688
0.039759647 -0.01824267 0.048874002 -0.02189457 0.061636016 -0.050304007 0.031166453 -0.095543146

features_extractor.policy_net.0.bias f4 [64]
00000000: 5922 4d3d a784 20bd ba8b 143c 972a b3bc
00000010: b4e9 88bd 5236 05bc 323a 453b 4aa7 5d3d
00000020: c9aa 77bd 6e39 5d3d c31c 333d 1052 0abb
00000030: f7de 91bc a321 0a3c 1ab6 c9bc 02b6 a03c
00000040: 16b2 933c 223e 51bc 357f cabc 7d47 723c
00000050: d7aa 133c f563 d7bb 9d6b c73b c707 5abd
00000060: a231 eabb 47f3 7bbc 9f29 93bc b57c 4ebc
00000070: 7c49 373d 96a5 893c 08aa 033b ed51 50bc
00000080: 0597 57bc 1dd1 983d 26c9 253c e5c5 773d
00000090: aaef c2bc 7093 04bc 31d0 8a3c dbc4 28bd
000000a0: 3a2d 173d 07cf 2dbb 6a25 8e3c c1b1 0dbd
000000b0: 3ee5 143d b7d0 83bb 3f9a 47bc 170b c53c
000000c0: 6c67 4e3c d96a f1bc e2d1 adbc fd19 173d
000000d0: 97e4 a23c c5a2 1abb 1206 383c 6770 27bd
000000e0: 41bb 3d3c 5064 013d dea0 823b 1e91 1fbc
000000f0: e6c5 513c 38d1 193d 4f56 2fbb fa3a 06bd
0.050081585 -0.039189007 0.0090665165 -0.021870894 -0.066852 -0.008130627 0.0030094502 0.054114617
-0.060465608 0.054009847 0.0437286 -0.0021106042 -0.017806513 0.008430871 -0.024622966 0.019618038
0.018029254 -0.012771161 -0.02471886 0.014787552 0.009012899 -0.006573195 0.0060858265 -0.053230073
-0.00714703 -0.015377826 -0.017964182 -0.012602975 0.044747815 0.01680259 0.002009036 -0.012714845
-0.013158564 0.0746176 0.010118758 0.06049146 -0.023795921 -0.008091792 0.016944977 -0.04120336
0.036908366 -0.0026521103 0.017351825 -0.034593347 0.036351435 -0.0040226835 -0.012182771 0.02405314
0.0125979 -0.029469894 -0.021218244 0.03689002 0.01988439 -0.0023595553 0.011231916 -0.04087868
0.011580289 0.031589806 0.003986462 -0.0097391885 0.01280353 0.037553042 -0.0026754325 -0.03277109

features_extractor.policy_net.2.weight f4 [64, 64]
00000000: 3164 fe3c 329b 9a3c 8abd 893d 2330 bfbd
00000010: 8d08 433e 9e7e b2bd c90a 16bd dc9a b53d
00000020: 0666 15be ee40 0e3d 5c5f ce3d 755e e63d
00000030: 5456 c9bd 89b7 34bd 2998 9abd e121 a13d
00000040: 2749 9bbd 8647 0d3e 1590 ad3c 9ce3 403e
00000050: 9d07 383c 06aa 8b3d 93e7 03be 0df3 40bd
00000060: a2ec 0ebd 74a5 19be 15b0 003d c05d 7e3d
00000070: 44b6 6c3d 9159 fabd ba73 ea3d 31c6 09bd
00000080: 5077 31bd 1b44 83bd dbe1 ce3b 64ad b0bd
00000090: 9b8d 98be c035 1cbe 158a 8c3d 359f f23d
000000a0: f338 c53d df88 203e 2225 58bd 588d b4bd
000000b0: 5474 a43d e4ee cc3c 9578 9b3d d3b8 b83d
000000c0: 84e3 d63d 83aa 393d 795a 433d a859 3bbd
000000d0: 39be 2a3e ce78 1c3e b4d7 c1bd 65d2 0bbd
000000e0: d89f f6bd db2e 823d ab57 cdbd 9bf5 913d
000000f0: 335e bc3d abf0 07bb 2ee8 2d3e e0ee 7bbd
00000100: 2b04 b23d 952b 33bd 377b ed3d e2ba 3f3d
00000110: 5e70 c93d 5382 e23c 0b5d 0d3e f757 923d
00000120: de01 883c 0d8a 013d 073f 95bd d742 d33c
00000130: 757b 0cbd 1123 b33a 9cae 82be 21b1 bcbb
00000140: 3398 b7bd ab56 1a3e a9a6 35be ded2 52bd
00000150: ef97 0abe 9f69 08bd 5185 8fbd 2389 25bd
00000160: 5f73 c63d f426 743c 833c b33c f83d 2f3e
00000170: 17b7 803d e991 94bd ebe8 0e3e 5ff8 08bd
00000180: b2e3 0fbe f81b 04be 03a3 993d 5a48 cb3c
00000190: 7b5a 9cbe 8be2 d3bd 2725 1cbe 0246 a23d
000001a0: 298d 823b ece2 4f3d 7335 72bd e9d6 c3bd
000001b0: 9508 df3c c3f0 133e c2ac 0a3c 2eff 453e
000001c0: 7916 51bd 0130 d03d b24a 3b3e fcee e4bd
000001d0: 29b7 f6bc 1bf2 113e 1d4b 69bd b99f 823d
000001e0: e33c 31be 60fc 663d 8b2b 573d d284 793c
000001f0: 9d30 3b3e 4e07 58be 425b 043e e5b4 8cbc
00000200: 2cab a83d b865 6fbc e04e 553d f4e4 ab3b
00000210: 30fa a33d ddc2 84be 23c9 cbbd bb65 1d3e
00000220: 9c1c 2bbe a309 68bc e40e bf3c 825e 7dbc
00000230: 8fa2 5abe 3e6a 853b a530 fb3c 414e cd3d
00000240: fe5b fa3d 8e0f 493e a8ed 0ebd dc81 043e
00000250: 9c46 043e e253 3bbd d9e2 28be c781 dabd
00000260: f303 0f3d 836f 74bc 86c2 483d 9c40 c33c
00000270: b493 17be 3794 55be 95f4 b93d 7965 36ba
00000280: 52bd abbd e13b 4a3d 57c2 47bd 202e 013d
00000290: 615a 68be 0108 ba3c 3148 89bd e64c 6e3c
000002a0: 772a 903d 5aea 233d ac9e 98bd 0fdb a0bd
000002b0: 40ee 41bd 8d79 81bd 3a37 29bd 658d 223e
000002c0: da80 8ebc 0a6b 8e3d 8a91 413d 7d27 283d
000002d0: 0e3e 6e3b 6fb1 ce3d 345b c5bd 303e c0bd
000002e0: ae45 b2bc 9a81 163c 1f81 5ebc b265 053e
000002f0: 2051 3ebd fe06 02be 6c64 003e b1be e43d
00000300: e16a 0b3d ef3f d93d bf78 993d 83bf 27bc
00000310: ad4c 503d b7e1 10bd f8bd 90bc 4e5a a43d
00000320: 8b68 83bc ed2d b8ba d6f2 733c d6a0 59bc
00000330: 4232 39be 0139 953c 83ac 30bd 1e65 c33d
00000340: cfe4 fbbc adac 613d c12f 2fbe 8cdf 0c3e
00000350: 1e96 0abe 9616 f1bd 211e debd 5c40 12be
00000360: e504 aa3d 8426 78bd 175e d23d 1740 5d3e
00000370: 92f3 23be 6414 11be 9cd8 033e 5d40 883b
00000380: 0cfc 0bbd 1d8d b53d 8b47 87bd a241 9cbc
00000390: 88e6 d4bd a454 42bd e2e4 1eba 4f2d 013e
000003a0: 7858 163e 2ecd 2c3e 51f4 05be 20e3 1cbd
000003b0: 9248 6a3d b919 0d3d b038 c4bc 35a8 5d3e
000003c0: 288a 7dbd 7b9b 323d e9ea cb3d 7d61 5bbd
000003d0: 0810 923d 3f1f 01bd 1a64 23bd 72ec 8dbd
000003e0: 5a1d 9d3c 5edd 2e3e 72a8 febc 3b2a 9abd
000003f0: 2061 363e 2a44 50bd a064 4b3e 95c9 8fbd
0.031053634 0.018872831 0.06725605 -0.09335353 0.1904623 -0.087155566 -0.03663138 0.08867428
-0.145897 0.03472989 0.10076782 0.11248485 -0.09830919 -0.044120345 -0.075485535 0.0786779
-0.07582312 0.13796815 0.021186868 0.18836826 0.011232284 0.06819539 -0.12881307 -0.04710679
-0.03489364 -0.15004522 0.031417925 0.062101126 0.05779101 -0.12224115 0.11447854 -0.033636276
-0.043326676 -0.064094745 0.006313545 -0.08626822 -0.29795536 -0.15254879 0.068622746 0.118467726
0.09630003 0.15677212 -0.052769788 -0.08816022 0.0803 0.025016256 0.075913586 0.090196274
0.10492614 0.04532863 0.047693703 -0.0457398 0.16674127 0.15280458 -0.0946497 -0.034136195
-0.120422065 0.06356593 -0.10026487 0.07126924 0.091976546 -0.0020742815 0.16983101 -0.061507106
0.08692201 -0.043742735 0.11595767 0.046809085 0.098358855 0.027650034 0.13805024 0.07145684
0.016602453 0.031625796 -0.07287412 0.025788708 -0.034297425 0.0013667067 -0.2552384 -0.00575842
-0.089645766 0.15072124 -0.17739357 -0.05147063 -0.1353452 -0.033303853 -0.0700785 -0.040413987
0.09689974 0.014901865 0.02187944 0.17113483 0.062849216 -0.07254393 0.13956039 -0.03343999
-0.14051703 -0.12901294 0.07501795 0.024814773 -0.3053778 -0.10345944 -0.15248547 0.07923509
0.0039841128 0.05075352 -0.059133004 -0.09562475 0.027225772 0.14447312 0.00846404 0.19335625
-0.051046822 0.10165406 0.18290213 -0.11178395 -0.030116634 0.14252512 -0.0569564 0.06378121
-0.17308383 0.056393027 0.05253176 0.015229421 0.18280263 -0.21096537 0.12925437 -0.017176101
0.082357734 -0.014611654 0.052077174 0.005245799 0.08006704 -0.2592992 -0.09950473 0.15370838
-0.16710132 -0.014162454 0.02332253 -0.015464427 -0.21351074 0.004071503 0.030662844 0.100246914
0.12224577 0.1963484 -0.034894615 0.12940162 0.1291756 -0.045734294 -0.16492786 -0.10669284
0.034915876 -0.014919165 0.049013637 0.02383452 -0.14802438 -0.2085732 0.090798534 -0.00069578696
-0.08385719 0.04937351 -0.04876932 0.03153813 -0.22690727 0.022708895 -0.067032225 0.014544701
0.070393495 0.040018417 -0.07452139 -0.07854282 -0.047346354 -0.06322012 -0.041312434 0.1587425
-0.017395426 0.0695401 0.047257937 0.041053284 0.0036352905 0.100924365 -0.09636536 -0.09386861
-0.021761741 0.009186173 -0.01358059 0.13027075 -0.046464086 -0.1269798 0.12538308 0.11169184
0.034037475 0.106078975 0.074937336 -0.010238531 0.050854374 -0.03537151 -0.01766871 0.08025037
-0.01604106 -0.0014051773 0.01488944 -0.013282975 -0.18085578 0.018215658 -0.04313327 0.09540771
-0.030748753 0.055096317 -0.1710806 0.13757151 -0.13533828 -0.11771886 -0.108455904 -0.14282364
0.08301715 -0.060583606 0.102718525 0.2160648 -0.16010883 -0.14167935 0.12875599 0.0041580633
-0.034175918 0.08864806 -0.066054426 -0.019074265 -0.10395533 -0.047444 -0.0006061328 0.1261494
0.14682186 0.16875145 -0.1308148 -0.03830254 0.057198115 0.03444836 -0.023952812 0.21646197
-0.061899334 0.04360531 0.09956915 -0.05355977 0.07131964 -0.03152394 -0.039890386 -0.06929864
0.019179035 0.17076632 -0.03108618 -0.07527586 0.17810488 -0.050846256 0.19862604 -0.070208706

features_extractor.policy_net.2.bias f4 [64]
00000000: 306b 88bd 23f9 cebd b6df b7bd e8b7 473d
00000010: eecd a6bc 4d57 9d3d f702 2d3c 4263 4c3d
00000020: 3082 663d 2f83 4cbd 1a3a 333b 5a96 0a3c
00000030: 306f 51bd b53f f13c 0931 37bd ef84 923d
00000040: 954c 8dbd 0b9c 9d3d acaa f6bc 984e e73c
00000050: 90a4 af3d b21d 83bd bbf4 73ba 8325 42bd
00000060: 6018 7c3d b20e debd 0a0e 3cbc 508a 283c
00000070: 015f b73c 28f5 f2bd bff5 173c 6236 4cbd
00000080: df83 25bd ad8a f1bd 7728 07bd f729 b8bd
00000090: 4ff3 d8bd a3f5 813d 3b12 013e ec68 9cbd
000000a0: 533c fbbd 5751 6f3c e3ef c4bd edad b3bd
000000b0: 94db 78bd 73ca f5bc 4a07 e6bb 0273 d03d
000000c0: b364 08be 4abc 97bd 60f1 c53c 6e4e 013d
000000d0: eee1 c1bd 18cf e2bd 82e5 cebd 2b71 80bc
000000e0: 2cb9 563d 3121 88bd a781 c63c 9b2f 6e3d
000000f0: 8921 a13c 566d 773d 752d fd3d b910 08bd
-0.066610694 -0.10106113 -0.08978216 0.04875937 -0.020361867 0.07682667 0.010559789 0.049899347
0.0562765 -0.049929794 0.0027347864 0.008458698 -0.051131427 0.029449323 -0.044724498 0.07154261
-0.068993725 0.076957785 -0.03011068 0.028235719 0.0857631 -0.06402148 -0.0009306182 -0.047399055
0.061546683 -0.10842647 -0.011477957 0.0102868825 0.022384169 -0.11863166 0.009274899 -0.04985655
-0.040408965 -0.117940284 -0.032997575 -0.08992379 -0.105932824 0.063456796 0.1260461 -0.076372
-0.12267365 0.014606795 -0.09616067 -0.08773408 -0.06075628 -0.030003762 -0.007019912 0.10178186
-0.13319664 -0.0740896 0.024162948 0.031568937 -0.09466921 -0.11074656 -0.10102369 -0.015678963
0.052422687 -0.06646956 0.024231745 0.05815087 0.019669311 0.060407005 0.12362186 -0.033219073

features_extractor.value_net.0.weight f4 [64, 1024]
00000000: 740e 2e3d ef17 713d ad88 813d 72b7 d93c
00000010: 121e bcbd 8833 c4bc 6eba a0bd a678 afbc
00000020: f327 c43c 4a7f 1fbd ad1b 8f3d 8008 3b3d
00000030: 677c acbd dbbe 88bd 7f6b efbd 43b5 73bd
00000040: 97ba 11bd 5bb1 b0bc e6d8 e53d 4b6a 1c3d
00000050: efca 1ebc 8edb d73b bf27 ffbc 552c d1bd
00000060: 2217 cf3c 00fe ce3c 6812 5d3d 4b0a 283d
00000070: a3bc adbc 21f9 f7bc 5ca9 f83c 7a92 f6bb
00000080: 4bea d43c 4579 883c 55d2 043d 344b ea3c
00000090: ce3b b23c 73cd a8bd 1a26 a6bc 371b a8bd
000000a0: 8177 6cbc bcbd 0cbc 4889 1c3c 55b7 15bd
000000b0: efbb 073d 473f 89bd d7c5 d13a 6600 96bd
000000c0: f569 b7bc 0d64 5fbd cdb4 d0bc f66c 953c
000000d0: 5212 adbc 3870 75bd 573e a7bd 8033 d3bd
000000e0: eb90 fabc d20a 87bd 7201 57b9 1125 463b
000000f0: 5135 1d3d f571 15bd ac3c ecbc 489c e13c
00000100: 151c 2e3e c45d babc eaf1 18bd f6d6 7bbd
00000110: 8cc0 54bb 0527 cfbd eff0 25bc e411 9b3c
00000120: 848d be3d 3c1a 193c 1d3e 2abd 7ddc 18bd
00000130: fa49 c5bd 0e1f fcbd 5c7a 07be dba2 ccbc
00000140: 5753 e93d bea7 3b3d d3d1 8a3d 0729 ac3c
00000150: da8f 6cbd f289 da3c f65e 30bd fd39 1fbb
00000160: 3797 203d f26f 4dbc 64b1 afbc 8fa0 0ebd
00000170: ede9 45bc 321e 10bd 935c 303a ae6c 90ba
00000180: ab59 c9ba f1c7 243a c104 663d baef f3bc
00000190: c5a2 203c 3750 99bd a610 2e3c 75e0 50bd
000001a0: ecd5 08bd 931f fd3c d704 593d 9272 19bd
000001b0: c368 02bd e53c 3b3d da2f b4bc d46f 593d
000001c0: 326a 8b3c 77aa 293d 9b4c 913c 3fff e93c
000001d0: f1b6 90bc 054d e0bb 469c a1bc 9957 dbbc
000001e0: 7037 a7bc 5cfc 38bd 97f0 0abd 33c6 1dbc
000001f0: 8b97 9bbc 5109 11bd c4b1 413d abca a4bc
00000200: 66e3 123a 8b2c c2bd 849a 7e3d d448 a63d
00000210: 7208 dcbc 0178 01bd 02ec d03c c400 06be
00000220: 8e19 9abb bf44 abbd cf86 d23d 261e 213d
00000230: a477 e13b bb2c cbbc 0cb2 0fbd 6b9f bbbc
00000240: 3bb6 47bc b0b1 243d a49c 163d 809c 4f3d
00000250: c669 b7bb db03 b73c 8bf5 26bd fca4 9abd
00000260: e03a 613d 3371 56bc 7377 773d 8a5d eabb
00000270: fbe2 77bc 31a1 7abd 402f 5dbd 5062 0fbb
00000280: dd5e a33d 6ab7 dd3c ec94 90bd dd5a 243c
00000290: 01e4 cc3c 8a09 a1bd 3bee 98bd 97e5 06bd
000002a0: 500b 013d e3d8 c6bb 09fb bcbd 0b32 963c
000002b0: 2d85 7fbd a023 473c c85c 08be 02c8 13be
000002c0: b12e 86bd 87a5 0a3d f04a e0bd e5d3 d3bc
000002d0: 3018 113c 4893 dcbd 5723 76bd f6d3 a0bd
000002e0: e8cf 27bd f582 b1bd d818 cebc b1be 7a3c
000002f0: 2b46 98bc a724 c6bc 87ce 29be 803b b6bd
00000300: 3b33 1c3d 11b9 b1bd d1e1 87bd a7dd c9bc
00000310: 481a 07be 8611 3cbd c422 b1bd e8e9 07be
00000320: 4bde 473c fdb8 cdbd 9d7a 87bc f6ad 693d
00000330: 00b3 283d 6874 bbbc fa18 c33b 650c 0e3d
00000340: 8bf4 b23d fe5a 75bb 0d0b e5ba fb38 a73c
00000350: 5597 5cbc 2a77 dabd bb14 07bd 8887 41bd
00000360: 590b 48bc 56b9 38b7 fade 4cbd 0fdc 0a3b
00000370: 7b92 4dbd 1fa8 24bc d43c fa3d 3284 05bd
00000380: d863 123d 8696 6d3d 6439 bbbc 4685 ad3d
00000390: e544 56bd 59f6 febb 9266 d0bc bf2a fc3c
000003a0: de6c 843d 50da 11bd bf6d 0f3e 08bb 8f3c
000003b0: 3e94 b0bb 470d 263d 567e f1bb f19e a53c
000003c0: 74a2 f63c 25a2 0c3c 3ae0 09be 3abd 823d
000003d0: b996 a7bc f99e 14bd 526c e83c 4849 f5bc
000003e0: a00a 08bd 012b e5bc aca8 993c 732d 99bc
000003f0: b629 cb3d 16bc 6ebd 39b8 bd3d 0c7b 463d
0.042494252 0.058860715 0.06324897 0.026576731 -0.09185423 -0.023950353 -0.07848059 -0.021419834
0.02394483 -0.03893975 0.069877006 0.045662403 -0.08422165 -0.06677028 -0.11690425 -0.059499037
-0.035578337 -0.021568945 0.11223011 0.038187306 -0.009691938 0.0065874523 -0.031146882 -0.10213534
0.025279585 0.025267601 0.05397263 0.04102544 -0.021208113 -0.030270161 0.030354194 -0.0075247856
0.025990626 0.016659388 0.03242715 0.028600313 0.021757033 -0.08242311 -0.02028184 -0.08208316
-0.014432789 -0.008590158 0.009554215 -0.036551792 0.03313821 -0.06701522 0.0016004395 -0.07324295
-0.022389391 -0.054538775 -0.025476838 0.018240433 -0.0211269 -0.059921473 -0.08166187 -0.10312557
-0.03058668 -0.06593861 -0.00020504536 0.0030234496 0.038380925 -0.03648563 -0.028837524 0.027540341
0.170029 -0.022749789 -0.037340082 -0.0614843 -0.00324634 -0.10114864 -0.010128244 0.01892943
0.09304336 0.009344634 -0.041563142 -0.03731965 -0.096332505 -0.12310611 -0.1323027 -0.02498
0.11392849 0.04581427 0.06778302 0.021015657 -0.057754375 0.026677106 -0.04305931 -0.0024296038
0.03920671 -0.012538897 -0.021446891 -0.03482109 -0.012079698 -0.035185046 0.0006727662 -0.0011018717
-0.0015361806 0.0006285897 0.056156877 -0.029777396 0.009804432 -0.07486003 0.0106240865 -0.05099531
-0.033407137 0.030898845 0.05298313 -0.03746278 -0.03183819 0.04571237 -0.021995474 0.053085163
0.017018411 0.041422334 0.017736724 0.028564094 -0.017665358 -0.006845119 -0.019727837 -0.026775168
-0.020412177 -0.045162544 -0.03392085 -0.009629774 -0.01899316 -0.035409275 0.04728867 -0.02011617
0.0005603343 -0.09481152 0.062159076 0.081193596 -0.026859496 -0.031608585 0.025503162 -0.1308623
-0.0047027534 -0.08362722 0.10279619 0.039335392 0.0068807174 -0.024801603 -0.035081908 -0.022903165
-0.012189443 0.04020852 0.036770478 0.05068636 -0.005597326 0.022340706 -0.04076151 -0.075509995
0.05498779 -0.013088512 0.06041665 -0.007152264 -0.0151298 -0.06118888 -0.05400014 -0.0021878667
0.07977078 0.027064998 -0.070596546 0.010031429 0.025011064 -0.078631476 -0.07467314 -0.032933798
0.03150493 -0.0060683354 -0.09227569 0.01833441 -0.062382866 0.01215449 -0.13316643 -0.14431766
-0.065518744 0.033849265 -0.10951793 -0.025857875 0.008855864 -0.10770279 -0.060092296 -0.07852928
-0.04096976 -0.08667556 -0.02515833 0.015304253 -0.018588146 -0.0241874 -0.1658269 -0.088980675
0.038134795 -0.08677877 -0.06634868 -0.024641825 -0.13193619 -0.04591515 -0.08649209 -0.13272822
0.012198995 -0.10045049 -0.016537959 0.057050668 0.041186333 -0.022882655 0.005953905 0.03467979
0.08738049 -0.0037438269 -0.0017474607 0.020412913 -0.013463815 -0.1066726 -0.032978754 -0.047248393
-0.012209737 -1.10104065e-05 -0.050017335 0.0021188294 -0.050188523 -0.010049849 0.12218633 -0.032596774
0.03573975 0.05800488 -0.022854514 0.084726855 -0.052311797 -0.007780832 -0.025439534 0.030782102
0.06466077 -0.03560859 0.14006709 0.017545238 -0.0053887656 0.040540006 -0.0073697967 0.02021739
0.03010676 0.00858358 -0.13464442 0.06383748 -0.020457612 -0.03628442 0.028371964 -0.02994217
-0.033213258 -0.027974607 0.018757187 -0.01869843 0.09920065 -0.05828484 0.09263653 0.04845719

features_extractor.value_net.0.bias f4 [64]
00000000: d6f4 edbb 2efa 6bbd dd94 15bc 49e5 40bc
00000010: fbd2 52bd bbab f13b d841 02bc da46 b6bd
00000020: 50b4 82bd 998c e7bd fb29 aabd 4eaf 31bc
00000030: eaad c0bb 480b 853d fc9a 32bd 01ea 49bb
00000040: 86be cbbd baa5 cdbd af89 c5bc 20d1 b2bd
00000050: 5df6 f4bc dde1 61bd 2046 44bd 0e89 9ebd
00000060: 02ac 503d 8e6d 4ebd 2984 f3bd de38 bfbd
00000070: 80df d4bd 9829 69bc 07f0 bfbd 5167 27bd
00000080: 0be9 54bd bcab 8fbd b8c1 633d f342 91bd
00000090: 45de 1abe 8e15 e13c a383 5dbd f60b e13c
000000a0: 9c94 61bd 2519 4b3d 189e cdbd 0011 543c
000000b0: acbb ffbd 881c d9bc 2dec aebd 4362 c73a
000000c0: fd16 13bd b5de e7bd f678 62bd 68e7 f5bd
000000d0: fe16 aa3c 49f5 96bd 8514 28bc 6419 45bc
000000e0: 2a49 b5bd 3f56 dfbd 7b2d ac3c cf10 b53c
000000f0: 88d7 f1bd 6f3a 54bd ce1d eabc e6b1 be3c
-0.0072618527 -0.057611637 -0.00912973 -0.011773416 -0.051470738 0.007375208 -0.007950269 -0.089002326
-0.06382048 -0.11306114 -0.083087884 -0.010845019 -0.005880107 0.06496292 -0.043604836 -0.0030809643
-0.09948449 -0.100413755 -0.024113504 -0.08731294 -0.029902631 -0.05514704 -0.04791844 -0.07740985
0.05094529 -0.05039745 -0.11890442 -0.093370184 -0.10394192 -0.014231108 -0.093719535 -0.040870015
-0.05198006 -0.070151776 0.055604666 -0.07092848 -0.15123852 0.027476098 -0.054080617 0.027471524
-0.055073366 0.049584527 -0.100399196 0.012943506 -0.124869674 -0.026502863 -0.08541141 0.0015211779
-0.035910595 -0.11321775 -0.05529114 -0.12007028 0.020762917 -0.07371003 -0.0102587985 -0.012029979
-0.088518456 -0.10905122 0.02101778 0.022102742 -0.118086874 -0.05181354 -0.028578665 0.023278188

features_extractor.value_net.2.weight f4 [1, 64]
00000000: f882 bf3d 3a80 ec3c a211 7bbb 62dc 403d
00000010: d33a 3fbd 52cb 363d 07f9 bc3d df87 50bd
00000020: 2a17 5f3a ecd6 083b 7595 55bc 7294 473b
00000030: f10b d23c 8d09 643d 0827 2abd d404 973c
00000040: 8272 f2bb c5dd 3dbd 1b58 223d fbc3 bebc
00000050: a6bd 033e 0759 d9bc 9b82 8a3b a379 cabc
00000060: 29aa 6b3d b57a 08bd cb2d 8ebd b8a7 c13b
00000070: bdd1 53ba f758 533d 47ef 95bc 6f76 0bbb
00000080: c017 89bc 1e28 99bc 8d66 0e3d 749b 33bd
00000090: b374 05bd da26 b23d 7d10 9fbc 2dca 803d
000000a0: 0d13 52bc e34b 973d 6b6a 24bb f875 403d
000000b0: 44ef efbc 6460 dc3d c09a 093d ea5b 973c
000000c0: 5d2c 54bd fb78 0ebd 2dce 12ba a62d f9bb
000000d0: ea85 e43c 9650 eabc 1ac5 08bb ad5f 443c
000000e0: ce3f 66bc adfd 4fbd 18e9 573d 7afd 523d
000000f0: 3590 66bc 95f7 d83c ce36 353b 8229 a1bb
0.09351152 0.028869737 -0.003831007 0.047085173 -0.04668696 0.044627495 0.09227186 -0.050910827
0.00085102266 0.0020880057 -0.013036122 0.003045347 0.02564046 0.05567317 -0.04154113 0.01843492
-0.0073989043 -0.046354074 0.039634805 -0.02328681 0.12865314 -0.02653171 0.004226995 -0.024716204
0.057535324 -0.033320148 -0.06942328 0.005909886 -0.00080802647 0.051598515 -0.018302573 -0.0021280309
-0.016734958 -0.018695887 0.03476577 -0.043849424 -0.032581996 0.086988166 -0.019417042 0.06288562
-0.012821925 0.07387521 -0.0025087844 0.046987504 -0.029288895 0.107605726 0.033594847 0.018476445
-0.05180012 -0.034783345 -0.00056001806 -0.0076043187 0.027895886 -0.02860288 -0.0020869435 0.0119857015
-0.014053298 -0.050779033 0.05271253 0.051511265 -0.014072468 0.026485244 0.0027651074 -0.004918278

action_net.weight f4 [2, 64]
00000000: ecf6 1bbe 5603 35be 9ea6 b2bd 9af3 4abe
00000010: 3eb0 1fbe 9090 023e df22 acbd 1f07 563e
00000020: 5a78 21be b636 34be 3482 783e 7893 003e
00000030: bb4e 29be 0ca2 2bbe 7522 203e 4776 58be
00000040: 96b4 ba3d 213e 0b3e 0100 b33d 24a3 a43d
00000050: 55c2 58bd 4a4d 90bd ee52 323e 111d c03d
00000060: 533f 673e 1c1d 3b3e 6bef 14be 9202 2bbe
00000070: bc8e 983c 2540 1c3e b6bf e1bc 5da0 0dbe
00000080: a651 2b3e 7fb4 983d beaa ff3d ff8b edbd
00000090: 32f1 453e 8724 03be a4b1 42be 2cbf 1dbe
000000a0: 0996 383e 7bec e7bd e821 153e 3340 4fbe
000000b0: 4a29 38be 3325 47be e957 473e e127 56be
000000c0: 39f4 293e 738d 963d 6019 b83d de71 1a3e
000000d0: 4eb1 93bd d285 1bbe 32e4 0bbe fb5c 233e
000000e0: 7f83 0dbe 50c2 8bbd 88a8 673e f154 3abd
000000f0: 0bdc 60be f58c 2cbe 1fd6 433d 5835 74be
00000100: de7f 0abe 1ff1 993b 2e1d f1bd d781 cabd
00000110: 35cc 293e b705 2ebe e277 863e 4b2f 073d
00000120: dee7 03be 10e9 debd 07e7 5f3d a68c 22bd
00000130: b72b 52bc dc4f 493d e017 b93d 6ac1 393e
00000140: db2e 42be 1731 2fbe 5abf 5abe fbcc dfbd
00000150: 270c dfbd 0c1a 3f3e 5fd2 69be b789 ee3d
00000160: 7819 063e edcf 213e 1d2e be3d 4ba0 463e
00000170: 8039 643e 9d8a 2f3e 8599 4c3e b524 edbd
00000180: 3e0d fdbb f5e1 2bbe 3ab4 21be 23bb b53d
00000190: db52 113e badf 653e 60ae 3f3e 4a10 433e
000001a0: f924 51be 8a3d 1cbe 0609 04be a24d 82bd
000001b0: e14d b13d 9b6e 03be d17c 153c e5ab f7bd
000001c0: 1cdb c9bd 7d57 473e bbfb 873c 76d8 b73c
000001d0: df92 633e 8e57 17be e6e1 b4bc 965c d13d
000001e0: 21fc 11be 922d 71be 3cc5 b23b 7003 0f3e
000001f0: 2711 ffbb 3d36 a0bc ed0f 383e e470 5dbd
-0.15230912 -0.17677054 -0.08723186 -0.19819489 -0.15594575 0.12750459 -0.08405089 0.20901154
-0.15768567 -0.17598996 0.24268419 0.12556255 -0.1653394 -0.16761035 0.15638144 -0.21138869
0.09116475 0.13597919 0.08740235 0.08038929 -0.052919704 -0.07045992 0.17414448 0.09380544
0.2258275 0.18272823 -0.14544456 -0.16700199 0.018622749 0.15258844 -0.027557235 -0.13830705
0.16730365 0.07456302 0.12483738 -0.11598968 0.1933029 -0.12806903 -0.19013077 -0.15404958
0.18025984 -0.11324402 0.14563715 -0.20239334 -0.179845 -0.19447784 0.19467129 -0.2091365
0.1659707 0.07351198 0.08989215 0.150825 -0.072115526 -0.15187767 -0.13661268 0.15953438
-0.13819693 -0.068241715 0.22622883 -0.045491163 -0.2195894 -0.16850646 0.047811624 -0.23848474
-0.1352534 0.0046979333 -0.11773144 -0.09888046 0.16581805 -0.16994368 0.26263338 0.033004086
-0.12881419 -0.10884297 0.054663684 -0.039684914 -0.012827805 0.049148425 0.09037757 0.18140188
-0.18963186 -0.1710857 -0.21362057 -0.10927769 -0.1089099 0.1866228 -0.22834156 0.11647361
0.13095653 0.15801974 0.09286139 0.19397084 0.2228756 0.1714272 0.19980438 -0.11579267
-0.007722526 -0.16785415 -0.15791407 0.08873584 0.14191763 0.22448626 0.18718863 0.19049183
-0.2042426 -0.1525785 -0.12894067 -0.063624635 0.08657432 -0.12835161 0.009123997 -0.12093333
-0.09856245 0.19466968 0.016599527 0.022442084 0.22223996 -0.14779493 -0.022080373 0.102227375
-0.14256336 -0.2355254 0.005455641 0.13966155 -0.007784027 -0.019557113 0.17974825 -0.05406274

action_net.bias f4 [2]
00000000: a5e2 47bd cc15 b5bb
-0.04880013 -0.00552628
