weights/cnn-nd-2-eps-2400.pth (torch, 568309 bytes, 16 tensors)

log_std f4 [2]
-1.0638542 0.028596584
00000000: 602c 88bf 6243 ea3c

features_extractor.encoder.0.weight f4 [16, 1, 3, 3]
0.31373617 0.3544654 0.023728788 0.37493175 0.015475924 0.14004917 -0.10651273 0.25431085
0.36038318 -0.2138061 0.33932564 0.1176293 0.276097 0.09878947 0.19455902 -0.013335643
0.3109851 0.10069488 -0.18282984 0.15339154 -0.11860447 -0.069135785 -0.14418565 0.30586424
0.005725482 -0.17882653 -0.02383366 -0.29601637 -0.02290505 -0.4131674 0.27971914 -0.29705206
0.26290372 0.07794052 -0.0905312 0.2455136 0.066979595 0.2989428 0.08263809 -0.07562848
0.14144638 -0.0462389 0.18573526 0.36265862 0.24445635 -0.17389552 0.23327097 -0.07393574
0.24203897 -0.121009976 -0.31944555 -0.2747692 -0.08235321 0.53732467 0.1856995 0.24924776
0.22595164 0.08686325 0.4037832 -0.10702507 0.0539841 -0.14535205 0.19624934 -0.1978719
0.12514257 0.005905686 0.4104101 -0.2675152 -0.10299696 -0.32800075 0.30861214 0.11596458
0.3666098 -0.2821179 -0.30223355 -0.36244118 -0.159595 0.34877825 0.092383154 0.4054954
-0.10046719 -0.25068167 0.25926524 -0.058523085 0.23525621 -0.009736548 0.28287292 -0.23958242
-0.07393922 0.179006 0.16506913 -0.08458837 0.15886757 0.29777032 -0.19918291 -0.17796671
0.42661768 -0.07882337 -0.14038451 -0.32253155 -0.19089007 0.0832679 -0.043997735 -0.241962
0.0078189075 -0.22769384 -0.2827989 -0.18355422 -0.48448685 -0.25638655 0.36113018 0.16068068
0.09561147 -0.31063312 -0.10273031 -0.07682038 0.13579844 -0.29330713 -0.15081476 -0.25561854
-0.20486635 -0.16585179 0.093772046 -0.27674636 -0.20251577 -0.10429369 -0.18489611 -0.27396792
0.2841598 -0.10029699 0.31540024 0.1371972 -0.3352583 0.23367254 -0.06922041 -0.07166339
-0.3299572 -0.15956855 0.002891789 -0.014833646 0.33323735 -0.24729067 0.57333213 -0.090407975
00000000: 07a2 a03e 7d7c b53e e062 c23c 0ef7 bf3e
00000010: bb8e 7d3c 0d69 0f3e 5923 dabd 0835 823e
00000020: 2584 b83e fcef 5abe 17bc ad3e a1e7 f03d
00000030: 965c 8d3e 2252 ca3d 7b3a 473e be7d 5abc
00000040: 7039 9f3e 1e39 ce3d bf37 3bbe ac12 1d3e
00000050: e6e6 f2bd 1097 8dbd 67a5 13be 3d9a 9c3e
00000060: d39c bb3b 4d1e 37be cf3e c3bc 758f 97be
00000070: 5fa3 bbbc ad8a d3be 5937 8f3e 3517 98be
00000080: 519b 863e 489f 9f3d 6c68 b9bd eb67 7b3e
00000090: 992c 893d 080f 993e 293e a93d 1be3 9abd
000000a0: 52d7 103e 0065 3dbd 6231 3e3e 64ae b93e
000000b0: c452 7a3e ab11 32be 96de 6e3e 9f6b 97bd
000000c0: 10d9 773e 14d4 f7bd 5e8e a3be 8cae 8cbe
000000d0: cda8 a8bd 1c8e 093f 0228 3e3e ce3a 7f3e
000000e0: de5f 673e 5ce5 b13d acbc ce3e f62f dbbd
000000f0: 6f1e 5d3d 2bd7 14be 96f5 483e ee9e 4abe
00000100: 6025 003e 7c84 c13b 4621 d23e c1f7 88be
00000110: 12f0 d2bd b7ef a7be 6902 9e3e d67e ed3d
00000120: 48b4 bb3e c271 90be 5bbe 9abe e491 b9be
00000130: df6c 23be 1093 b23e 6133 bd3d 189d cf3e
00000140: bec1 cdbd 5959 80be 6abe 843e e7b5 6fbd
00000150: 01e7 703e 0b86 1fbc b8d4 903e 1855 75be
00000160: 726d 97bd 594d 373e e207 293e ab3c adbd
00000170: 2eae 223e 5a75 983e 9bf6 4bbe e83c 36be
00000180: a26d da3e 266e a1bd f5c0 0fbe db22 a5be
00000190: b078 43be 5c88 aa3d f836 34bd e3c4 77be
000001a0: e01a 003c 9328 69be 04cb 90be a3f5 3bbe
000001b0: a90e f8be 1945 83be 0ee6 b83e 7a89 243e
000001c0: f2cf c33d 4e0b 9fbe 4564 d2bd 0154 9dbd
000001d0: bf0e 0b3e 5a2c 96be 2f6f 1abe 6fe0 82be
000001e0: 7cc8 51be 0dd5 29be 8f0b c03d b3b1 8dbe
000001f0: 4b60 4fbe ee97 d5bd 6855 3dbe 8645 8cbe
00000200: 657d 913e 8268 cdbd 247c a13e 6c7d 0c3e
00000210: faa6 abbe db47 6f3e 6ec3 8dbd 41c4 92bd
00000220: 26f0 a8be f065 23be 2b84 3d3b d208 73bc
00000230: 169e aa3e c439 7dbe e5c5 123f d127 b9bd

features_extractor.encoder.0.bias f4 [16]
-0.023247316 0.009485187 0.21494572 0.24938172 0.19764681 -0.03197739 0.028281711 -0.09450142
0.007890989 -0.1488777 0.23213577 -0.24465017 0.21831948 0.14644054 0.049563665 0.0023184055
00000000: 2871 bebc c267 1b3c bb1a 5c3e ec5d 7f3e
00000010: ed63 4a3e b9fa 02bd 0caf e73c f689 c1bd
00000020: 3549 013c 6573 18be 00b5 6d3e 9385 7abe
00000030: 248f 5f3e 82f4 153e 4503 4b3d 64f0 173b

features_extractor.encoder.2.weight f4 [16, 16, 3, 3]
0.039288413 0.0697298 0.05343082 -0.26388624 -0.071721375 -0.088142 0.029667819 -0.003748622
0.06775798 -0.11021514 0.049500536 0.02258296 -0.12549286 -0.107983746 -0.08659752 0.03192043
-0.08264962 0.08513949 0.12675086 0.005049162 0.0489108 0.05476162 0.07756462 -0.011434017
0.07335357 0.0750636 0.09334893 0.032537855 -0.0783875 0.00879692 0.03785056 0.021327777
0.07552863 0.16481467 0.06825449 0.024045788 -0.037995018 0.044092357 0.016888734 -0.043819927
-0.1405945 -0.054190475 0.09768254 -0.0038954492 0.03329424 -0.14046739 0.0328691 -0.19125915
-0.23295255 0.3345617 -0.13187948 0.057038598 0.14908475 -0.07983981 0.0004226555 0.18386342
0.102588035 -0.18248035 0.0056735794 -0.1223386 -0.03770306 -0.021499934 0.012565293 0.064348474
0.24809635 0.15783545 0.19059154 0.109660715 0.026795011 0.17871037 0.16683976 0.08518553
0.054840263 0.055467334 0.22784877 0.27889925 0.018352788 0.11891099 0.07073414 -0.0073517216
0.11972279 -0.032662455 0.12715971 0.09746256 -0.28745222 0.013872158 -0.105757035 0.1032306
-0.16758347 0.19882968 0.03736034 -0.07066821 0.02671718 0.0102102645 -0.0654793 -0.08126676
0.1031058 -0.027183538 0.006174727 0.037815355 0.059536062 -0.063921005 0.059933074 -0.03939597
0.030922435 0.078259565 -0.011752658 -0.00064445287 0.018474234 -0.041530304 0.04172038 -0.043647557
0.08524599 0.11003931 0.07074225 0.101572864 -0.121229745 0.039630182 -0.009121482 -0.14236824
0.022980606 -0.025183288 0.03532566 -0.049631834 -0.01975241 0.013559194 -0.06942737 0.2440399
0.17227276 -0.09195415 -0.014557097 -0.033627957 -0.15988387 -0.03510063 0.04727849 -0.0974718
-0.09224167 0.10770301 -0.036052722 -0.14707273 0.07862712 0.02492637 0.10873544 0.012706183
-0.22559014 -0.10828139 0.04250101 0.060852993 -0.13252842 -0.22652152 0.17773362 0.09365712
-0.28507516 -0.086692534 -0.008538221 0.11318999 0.09141233 0.020891096 -0.26641145 0.12157265
-0.029811196 -0.233854 0.12904775 0.13674939 -0.021129338 -0.12163298 -0.019037504 -0.04359681
-0.046788864 0.03411265 0.10847747 0.056068107 -0.06726847 -0.07162035 0.10420242 -0.025847571
0.0037407193 0.040357426 -0.0032620814 -0.0046262615 -0.06516484 -0.061976336 -0.033762325 -0.02606693
-0.072043374 -0.057545245 0.14587052 -0.038550187 -0.12841235 -0.07204685 -0.045954704 -0.082528085
0.31371328 0.22151713 -0.24312127 0.06362842 -0.0046035633 -0.28565592 -0.22044396 0.050081033
0.04042307 -0.042613473 -0.14293696 -0.0665698 0.1241303 0.05931815 -0.1629998 0.33248684
-0.19049224 0.008085947 0.4657699 0.37477943 -0.11729039 0.36683932 0.3203493 -0.008505917
0.1636388 -0.22091323 0.31142712 0.15993433 0.031604845 -0.08291699 0.15204516 0.04383632
0.15132631 -0.23658812 -0.07818704 0.06419234 0.10629858 -0.18785144 -0.2006534 0.070820585
0.07726836 -0.05395184 0.08179089 -0.11433938 -0.05162313 0.061524443 0.033344958 -0.008958893
0.011052722 0.09733551 0.09590469 0.003759861 -0.020508379 -0.07546581 -0.07835479 -0.03983459
-0.04236012 0.0259628 -0.024259232 -0.032601845 0.16077122 0.15143095 0.054613013 -0.071874864
00000000: e3ec 203d 7fce 8e3d 47da 5a3d 191c 87be
00000010: a8e2 92bd cb83 b4bd ed09 f33c 71ab 75bb
00000020: b2c4 8a3d 7ab8 e1bd 13c1 4a3d e6ff b83c
00000030: 3381 00be 9526 ddbd 0a5a b1bd ffbe 023d
00000040: 3444 a9bd 9d5d ae3d faca 013e 7173 a53b
00000050: b156 483d b84d 603d 33da 9e3d be55 3bbc
00000060: 663a 963d f2ba 993d b92d bf3d 6a46 053d
00000070: a089 a0bd f520 103c 3009 1b3d 97b7 ae3c
00000080: c1ae 9a3d 2dc5 283e 03c9 8b3d acfb c43c
00000090: aaa0 1bbd 309a 343d 3e5a 8a3c 867c 33bd
000000a0: 01f8 0fbe d5f6 5dbd c90d c83d cb4a 7fbb
000000b0: 8a5f 083d afd6 0fbe c0a1 063d 70d9 43be
000000c0: 1d8b 6ebe ac4b ab3e 6a0b 07be 4ea1 693d
000000d0: aca9 183e 0e83 a3bd dc97 dd39 b146 3c3e
000000e0: ad19 d23d 21dc 3abe 6fe9 b93b a98c fabd
000000f0: 866e 1abd a120 b0bc a9de 4d3c 22c9 833d
00000100: f80c 7e3e 9e9f 213e 6e2a 433e cc95 e03d
00000110: 3681 db3c daff 363e 0bd8 2a3e c075 ae3d
00000120: 2fa0 603d b731 633d 3051 693e e2cb 8e3e
00000130: 9658 963c 9b87 f33d 10dd 903d b6e6 f0bb
00000140: 3931 f53d 11c9 05bd 2836 023e 739a c73d
00000150: f02c 93be 0c48 633c 2597 d8bd 916a d33d
00000160: 009b 2bbe 029a 4b3e 2807 193d 7fba 90bd
00000170: fddd da3c f448 273c 031a 86bd 306f a6bd
00000180: 2229 d33d 03b0 debc 5d55 ca3b 46e4 1a3d
00000190: 16dc 733d 04e9 82bd 627c 753d ab5d 21bd
000001a0: 0c51 fd3c 8d46 a03d 388e 40bc 80f0 28ba
000001b0: 4757 973c ae1b 2abd fde2 2a3d c8c7 32bd
000001c0: 7395 ae3d 4a5c e13d 50e1 903d 6f05 d03d
000001d0: 4d47 f8bd 4253 223d 4572 15bc fbc8 11be
000001e0: d341 bc3c 2f4d cebc a4b1 103d c04a 4bbd
000001f0: cecf a1bc 6227 5e3c f02f 8ebd 98e5 793e
00000200: 4568 303e 7552 bcbd e480 6ebc 78bd 09bd
00000210: 99b8 23be aec5 0fbd 17a7 413d 4c9f c7bd
00000220: 33e9 bcbd 6593 dc3d 05ac 13bd 3c9a 16be
00000230: 4107 a13d 6332 cc3c b0b0 de3d 982d 503c
00000240: 1a01 67be a2c2 ddbd 8a15 2e3d fd40 793d
00000250: 88b5 07be 42f5 67be cdff 353e 4ecf bf3d
00000260: 5ff5 91be db8b b1bd e5e3 0bbc 27d0 e73d
00000270: 6336 bb3d ce23 ab3c 1567 88be 15fb f83d
00000280: 9c36 f4bc 6c77 6fbe 1825 043e 0808 0c3e
00000290: 6f17 adbc b61a f9bd 8af4 9bbc 9292 32bd
000002a0: aea5 3fbd b5b9 0b3d 7029 de3d aca7 653d
000002b0: 0dc4 89bd b1ad 92bd 1468 d53d 49be d3bc
000002c0: db26 753b d44d 253d a5c8 55bb e597 97bb
000002d0: 2575 85bd e6da 7dbd 5d4a 0abd 508a d5bc
000002e0: 7a8b 93bd 90b4 6bbd 155f 153e cde6 1dbd
000002f0: 877e 03be 4d8d 93bd 003b 3cbd 7c04 a9bd
00000300: 079f a03e 63d5 623e c8f4 78be 9e4f 823d
00000310: 7dd9 96bb 7e41 92be 10bc 61be c521 4d3d
00000320: a992 253d 778b 2ebd 115e 12be bf55 88bd
00000330: 0738 fe3d 97f7 723d 6be9 26be b73b aa3e
00000340: 6610 43be eb7a 043c 6479 ee3e 17e3 bf3e
00000350: f235 f0bd 5dd2 bb3e d304 a43e 675c 0bbc
00000360: ee90 273e 1437 62be 6073 9f3e d3c5 233e
00000370: 1574 013d 62d0 a9bd bab1 1b3e b78d 333d
00000380: 49f5 1a3e 2844 72be 8720 a0bd 4677 833d
00000390: 12b3 d93d 215c 40be 1678 4dbe 620a 913d
000003a0: e03e 9e3d 9bfc 5cbd fb81 a73d c42a eabd
000003b0: c672 53bd 0e01 7c3d b994 083d 52c8 12bc
000003c0: 7a16 353c d757 c73d ae69 c43d 0068 763b
000003d0: 3001 a8bc d28d 9abd 7a78 a0bd 9829 23bd
000003e0: ce81 2dbd f0af d43c 4cbb c6bc 8389 05bd
000003f0: 36a1 243e b710 1b3e e5b1 5f3d 2133 93bd

features_extractor.encoder.2.bias f4 [16]
0.02826498 -0.010066215 0.06392727 -0.056302723 0.029301751 -0.061009087 -0.05692077 -0.04763354
-0.033757593 0.0098115485 -0.061715387 -0.10215748 0.035430532 0.07115055 0.002208124 -0.060569193
00000000: f68b e73c c4ec 24bc 4dec 823d af9d 66bd
00000010: 3a0a f03c aae4 79bd c125 69bd 631b 43bd
00000020: 6745 0abd 9ec0 203c 46c9 7cbd f137 d1bd
00000030: 9b1f 113d 61b7 913d 2cb6 103b 6717 78bd

features_extractor.encoder.4.weight f4 [16, 16, 3, 3]
0.031493757 -0.032680117 0.0144582 -0.075698964 -0.099396646 0.032590482 0.0138276145 0.11976437
0.07908717 0.031565707 -0.13122714 0.16565073 0.04693808 0.04763383 -0.03950886 0.11305821
-0.06898272 0.01563006 0.054716583 0.07792112 0.042550646 -0.1386018 0.04845526 -0.12166975
-0.27214837 0.01992815 0.05740585 -0.0036792748 -0.0009051271 -0.022911502 -0.049480576 0.088775784
-0.031633895 0.039712735 0.056953978 -0.05477974 -0.038959015 0.09064926 0.12746418 -0.009634338
0.08042622 -0.09070508 -0.10192887 -0.09795405 -0.15520456 0.0697603 0.027671969 0.023753408
0.1338327 0.13557792 0.033285923 -0.07279673 -0.17258811 -0.16929911 0.22426835 0.04971773
-0.018318307 0.14456129 -0.10579186 -0.112742156 0.05957121 -0.0056301076 0.07350037 0.028325964
0.052877285 -0.15574796 -0.14405595 -0.0201884 -0.15528287 0.015775668 0.07241342 -0.045730513
0.0707169 0.038216628 -0.11226167 -0.070479035 0.07773536 -0.07886938 0.08942866 0.018026538
-0.13514338 0.11327011 0.0957409 -0.0032005706 -0.15357624 0.12926374 -0.17700215 0.008073418
-0.15998214 -0.14721063 -0.015812147 0.1340553 -0.11558505 0.028486311 0.2163892 -0.19134209
-0.081353195 -0.047094285 -0.078729734 -0.0043387646 0.0381438 0.06904306 0.10954485 -0.017918633
-0.006837332 -0.038253907 -0.06342789 -0.07506907 0.041015107 -0.09420356 -0.0003804129 0.043617304
0.09821565 0.07586646 0.03176504 0.011407101 -0.0530308 0.05293789 0.015915923 -0.049279235
-0.16785482 -0.21040213 -0.10253205 0.007166971 -0.089827135 0.05741907 -0.0897055 -0.038998988
0.04530445 -0.06164266 0.07442395 -0.024713483 -0.0016952421 -0.19173306 -0.16232738 -0.07401126
0.08337835 0.07074322 -0.011916465 -0.031882957 -0.0033952035 -3.125685e-05 -0.052962366 -0.09851986
-0.20347288 0.16091634 -0.14052434 -0.032410882 0.032957956 -0.037941523 -0.007924187 -0.049917366
-0.047281276 -0.15005283 -0.118048675 0.044841096 -0.2391888 0.017461304 -0.040816 0.020090885
-0.080612816 -0.059676815 0.15911567 0.12407921 0.020662108 -0.14729123 -0.14763147 0.14917785
0.020149903 -0.13919336 0.12221599 0.0059068576 0.020364195 -0.051801406 -0.05619695 -0.076677136
0.021531962 -0.053769123 0.006350696 -0.018638186 -0.20409338 -0.095778584 -0.009205547 -0.45312443
-0.20231153 -0.13183925 -0.18383636 -0.04832817 0.0005055988 -0.08501181 0.02852781 0.16058591
-0.38118112 -0.15130413 -0.13443089 -0.20532584 -0.02988741 -0.045763142 0.031266402 -0.08461615
0.055895712 -0.076445766 -0.008257324 -0.015612704 -0.07638627 0.104877114 -0.079514295 -0.06259431
-0.0009756771 -0.087434135 0.056307316 -0.004526561 0.072098926 -0.07528664 0.046917304 0.024771841
0.08785801 0.10526426 -0.09217392 -0.04704214 0.008957793 0.050515395 -0.078558125 -0.07691611
0.025619535 -0.019437041 0.023669675 -0.1896529 -0.03908082 -0.13875113 -0.0025855573 -0.1312314
-0.080465436 0.12764232 0.1906127 0.13687792 0.032566432 0.035016555 -0.06688641 0.18283163
0.018308071 -0.008660123 0.16901137 -0.17066392 -0.022858597 0.04483881 -0.4301021 -0.22086036
-0.0023650643 -0.11063791 -0.027482254 0.007985558 -0.061711654 0.04237053 0.09486212 -0.24386309
00000000: 99ff 003d 96db 05bd 16e2 6c3c 0f08 9bbd
00000010: 7890 cbbd 997d 053d 388d 623c 0647 f53d
00000020: 74f8 a13d 0b4b 013d 6860 06be 58a0 293e
00000030: 2542 403d b11b 433d 0bd4 21bd 108b e73d
00000040: d046 8dbd 9d0a 803c 7f1e 603d 1c95 9f3d
00000050: 9649 2e3d a1ed 0dbe 0679 463d fd2d f9bd
00000060: 0857 8bbe 5c40 a33c 6622 6b3d fd1f 71bb
00000070: 0d46 6dba e7b0 bbbc 25ac 4abd 14d0 b53d
00000080: 8b92 01bd d2a9 223d 9348 693d b860 60bd
00000090: 7d93 1fbd 52a6 b93d f885 023e 58d9 1dbc
000000a0: 81b6 a43d 96c3 b9bd 15c0 d0bd 229c c8bd
000000b0: f2ed 1ebe 7dde 8e3d 53b0 e23c 8296 c23c
000000c0: 700b 093e f0d4 0a3e d256 083d 7416 95bd
000000d0: f0ba 30be bf5c 2dbe 9aa6 653e d2a4 4b3d
000000e0: 4610 96bc e007 143e 67a9 d8bd 5ce5 e6bd
000000f0: f100 743d c47c b8bb 5d87 963d da0b e83c
00000100: da95 583d 657c 1fbe 6783 13be 2562 a5bc
00000110: 7902 1fbe f93b 813c 7d4d 943d eb4f 3bbd
00000120: 06d4 903d 0a89 1c3d 72e9 e5bd 5057 90bd
00000130: b733 9f3d 4586 a1bd 6026 b73d 64ac 933c
00000140: 0763 0abe 29fa e73d ce13 c43d aac0 51bb
00000150: 1743 1dbe b75d 043e 0d40 35be 5f46 043c
00000160: 5cd2 23be 62be 16be 7a88 81bc cb45 093e
00000170: dbb7 ecbd 205c e93c 2195 5d3e 2eef 43be
00000180: 819c a6bd f0e5 40bd 0e3d a1bd 322c 8ebb
00000190: ac3c 1c3d 7366 8d3d 0d59 e03d 19ca 92bc
000001a0: b30b e0bb 21b0 1cbd 7be6 81bd d0bd 99bd
000001b0: 75ff 273d cced c0bd 2872 c7b9 0fa8 323d
000001c0: 4925 c93d e05f 9b3d 0f1c 023d d9e4 3a3c
000001d0: d336 59bd 67d5 583d 1c62 823c 06d9 49bd
000001e0: 22e2 2bbe a873 57be 53fc d1bd e9d8 ea3b
000001f0: 4af7 b7bd 4230 6b3d 84b7 b7bd 67bd 1fbd
00000200: 2991 393d 047d 7cbd 956b 983d ee73 cabc
00000210: e332 deba ac55 44be 2639 26be 3793 97bd
00000220: 45c2 aa3d d2e1 903d 473d 43bc b497 02bd
00000230: 1082 5ebb ca19 03b8 11ef 58bd c8c4 c9bd
00000240: 325b 50be 41c7 243e 9de5 0fbe 46c1 04bd
00000250: ecfe 063d 9268 1bbd 73d4 01bc 2776 4cbd
00000260: 03aa 41bd 73a7 19be 81c3 f1bd 4cab 373d
00000270: e9ed 74be 020b 8f3c ae2e 27bd a495 a43c
00000280: 5518 a5bd ad6f 74bd 38ef 223e 3e1d fe3d
00000290: 9543 a93c 83d3 16be b42c 17be 14c2 183e
000002a0: 6911 a53c b488 0ebe 614c fa3d 508e c13b
000002b0: d0d2 a63c b62d 54bd c62e 66bd e708 9dbd
000002c0: cc63 b03c 033d 5cbd 8019 d03b 1caf 98bc
000002d0: dbfd 50be 9027 c4bd ddd2 16bc edff e7be
000002e0: c12a 4fbe de00 07be 993f 3cbe c2f3 45bd
000002f0: 298a 043a ac1a aebd 27b3 e93c a270 243e
00000300: 2c2a c3be 78ef 1abe 40a8 09be f040 52be
00000310: 71d6 f4bc 2272 3bbd 3311 003d 3b4b adbd
00000320: e7f2 643d 998f 9cbd ba49 07bc 6dcc 7fbc
00000330: 6870 9cbd d0c9 d63d 64d8 a2bd 7231 80bd
00000340: 95c4 7fba ab10 b3bd 80a2 663d 8c53 94bb
00000350: 9aa8 933d e22f 9abd 5c2c 403d 51ee ca3c
00000360: e6ee b33d ca94 d73d aec5 bcbd 42af 40bd
00000370: b5c3 123c 3be9 4e3d 15e3 a0bd 3286 9dbd
00000380: 0fe0 d13c 6e3a 9fbc e8e6 c13c 5f34 42be
00000390: 3613 20bd c714 0ebe 7472 29bb 8661 06be
000003a0: 10cb a4bd abb4 023e fa2f 433e ba29 0c3e
000003b0: 6164 053d 856d 0f3d befb 88bd 3738 3b3e
000003c0: cffa 953c 30e3 0dbc 5111 2d3e 86c2 2ebe
000003d0: f441 bbbc e6a8 373d 5836 dcbe 3829 62be
000003e0: 32ff 1abb 2196 e2bd 7722 e1bc dcd5 023c
000003f0: 5cc5 7cbd b98c 2d3d 1247 c23d 3fb7 79be

features_extractor.encoder.4.bias f4 [16]
-0.08862331 -0.057798445 0.0059913197 -0.038256567 0.035952765 -0.095857754 -0.034005918 -0.025280219
0.00027796367 0.030425569 -0.090447634 -0.048272673 -0.07087308 -0.08874749 -0.12805483 -0.10514885
00000000: 2380 b5bd 10be 6cbd d552 c43b ebb2 1cbd
00000010: 3543 133d 1251 c4bd ca49 0bbd 7618 cfbc
00000020: a7bb 9139 0b3f f93c 9c3c b9bd 91b9 45bd
00000030: e825 91bd 3ec1 b5bd ce20 03be 4858 d7bd

features_extractor.policy_net.0.weight f4 [64, 1024]
-0.076603815 0.00016826576 0.0025311578 -0.012464516 0.060934838 0.05796107 0.067848794 0.016086001
-0.057909243 0.040885676 0.07666897 0.23380737 -0.014003316 0.04228646 0.014395578 -0.009108778
-0.06165721 -0.025696151 -0.033770118 0.057502277 -0.060312152 0.21283156 0.016359756 -0.013141141
0.24743311 -0.0049338145 -0.08763122 0.042594813 -0.06901223 -0.12628679 0.038030114 0.07895045
-0.046812586 0.08614967 0.091133855 -0.019554794 0.087035395 -0.11195565 -0.0191232 -0.15901645
-0.03156417 0.1414102 -0.006524534 -0.043824844 0.11739246 0.19187504 -0.07998532 -0.0037655998
-0.043947913 -0.2066441 0.11936076 -0.18549927 -0.0077702627 0.06987789 0.03348319 0.08262069
0.0023569535 0.013260471 0.11626711 -0.112829976 -0.13052556 -0.1197021 -0.020508224 0.008177742
0.1701862 -0.088027306 -0.019707404 0.025347859 -0.18010472 -0.23967396 -0.056007836 0.03492574
0.05982425 0.08571998 -0.16900472 -0.034537688 -0.016718647 0.15695275 0.019188426 -0.145618
-0.16270553 -0.039855845 0.09474046 0.081526905 -0.059240762 -0.01832467 -0.08623569 -0.15553218
0.23721175 -0.08926459 -0.10953051 -0.22632682 -0.17742217 -0.10673471 0.063487224 0.039361466
0.072709315 0.07282721 -0.08115093 -0.06791654 0.06756369 -0.100687474 0.017336456 0.070873715
-0.033590846 0.019832306 -0.08216378 0.056429636 0.00996091 -0.16344073 -0.17422013 0.14453945
0.07328864 0.13770722 -0.1057872 -0.03972629 -0.13258255 0.04607452 0.0067019546 0.1890796
0.07664163 -0.08588163 -0.053143904 -0.091535896 -0.15582916 -0.055267558 0.07614644 0.20689857
0.0070914445 0.04352181 0.05780271 -0.12884861 0.07179499 0.1091527 0.0722131 0.06366676
0.06306095 0.05388388 0.0048217108 -0.038438484 0.096660025 -0.12687364 0.2255086 0.07454392
0.086672954 0.10045513 0.057033915 -0.01988016 -0.024285672 -0.13105188 -0.10727228 0.064814486
0.16319486 0.14585593 0.03166434 0.0014047727 0.0043953573 0.15511088 -0.100976385 -0.03886954
0.10886747 -0.19423439 0.1685235 0.093539014 -0.061325043 0.006232992 -0.072956584 -0.09198063
0.08540123 -0.027449679 -0.030795533 0.0020237921 -0.022304231 -0.16619264 -0.010773458 -0.052561916
0.1039671 0.10491605 -0.086980574 0.061535265 -0.26564535 -0.121135555 -0.10213823 -0.037888926
0.15411043 0.058874592 0.23539288 -0.21803026 -0.20870174 0.021878984 -0.1326993 -0.064846635
0.027827175 -0.032010395 -0.1300354 0.05048453 0.11404571 0.024452431 -0.061550174 0.059479788
-0.00096332777 0.14534926 0.045677695 0.03711274 0.12078502 -0.08623993 -0.08014578 0.015263373
0.06014409 -0.08135066 -0.04138805 -0.0091133835 -0.033324137 -0.06311829 -0.03896299 0.20298916
0.1207731 0.10390815 0.013276363 -0.09719639 0.018758377 -0.011031709 0.15563154 -0.14447509
0.12668502 0.039227832 -0.13874876 0.031223666 0.123650216 -0.12678698 -0.12057477 -0.121388465
0.022384854 0.114478655 0.031802997 -0.063678734 -0.061137646 -0.09002964 -0.16596834 -0.10695966
-0.052663986 -0.0175295 -0.056103118 -0.095673375 -0.044035506 0.035798434 0.10019265 0.07861135
0.095678315 -0.094366446 0.088061236 -0.084369004 0.011868617 -0.03131453 0.1487638 -0.097906716
00000000: 76e2 9cbd 7f70 3039 c8e1 253b f837 4cbc
00000010: cf96 793d 9668 6d3d 4ff4 8a3d cac6 833c
00000020: 3e32 6dbd bd77 273d 9f04 9d3d 336b 6f3e
00000030: 2a6e 65bc 9134 2d3d 6edb 6b3c fc3c 15bc
00000040: 458c 7cbd bc80 d2bc 8952 0abd 8287 6b3d
00000050: e009 77bd 84f0 593e e504 863c f14d 57bc
00000060: 1b5f 7d3e d6ab a1bb ff77 b3bd e677 2e3d
00000070: 4956 8dbd 5351 01be 77c5 1b3d c6b0 a13d
00000080: 8ebe 3fbd 3d6f b03d 63a4 ba3d 6031 a0bc
00000090: 9d3f b23d 0149 e5bd 42a8 9cbc 35d5 22be
000000a0: 6e49 01bd d6cd 103e c2cb d5bb ae81 33bd
000000b0: 756b f03d e47a 443e 58cf a3bd 48c8 76bb
000000c0: ba02 34bd 839a 53be 6a73 f43d 85f3 3dbe
000000d0: b09d febb 241c 8f3d ab25 093d 0935 a93d
000000e0: 1e77 1a3b 7242 593c 731d ee3d 6713 e7bd
000000f0: 7ea8 05be 6026 f5bd dd00 a8bc f0fb 053c
00000100: 4b45 2e3e a947 b4bd 6c71 a1bc 50a6 cf3c
00000110: 5f6d 38be 176d 75be 7968 65bd 4b0e 0f3d
00000120: 460a 753d f58d af3d 930f 2dbe 6477 0dbd
00000130: 8bf5 88bc 39b8 203e 0c31 9d3c e31c 15be
00000140: 479c 26be e23f 23bd 4907 c23d 94f7 a63d
00000150: 71a6 72bd 9e1d 96bc 569c b0bd d443 1fbe
00000160: a3e7 723e 5ad0 b6bd 8851 e0bd 38c2 67be
00000170: 28ae 35be ba97 dabd 9705 823d 7d39 213d
00000180: 9fe8 943d 6f26 953d 7532 a6bd d417 8bbd
00000190: d55e 8a3d 3c35 cebd 2f05 8e3c 3d26 913d
000001a0: 8e96 09bd 5c77 a23c 7c45 a8bd c322 673d
000001b0: 1633 233c 025d 27be c366 32be 2602 143e
000001c0: 5b18 963d 1f03 0d3e f6a6 d8bd 09b8 22bd
000001d0: b8c3 07be a3b8 3c3d 129c db3b 159e 413e
000001e0: 49f6 9c3d b5e2 afbd 6cad 59bd 2c77 bbbd
000001f0: ae91 1fbe 3c60 62bd aaf2 9b3d 38dd 533e
00000200: 595f e83b ed43 323d 89c2 6c3d e4f0 03be
00000210: 4009 933d 738b df3d 76e4 933d b863 823d
00000220: 1926 813d 58b5 5c3d 71ff 9d3b ac71 1dbd
00000230: b1f5 c53d 2aeb 01be baeb 663e 7caa 983d
00000240: 9781 b13d 6bbb cd3d 659c 693d b8db a2bc
00000250: bff2 c6bc 7732 06be 92b1 dbbd 75bd 843d
00000260: 8e1c 273e 425b 153e 78b2 013d 5a20 b83a
00000270: ee06 903b 63d5 1e3e b5cc cebd ab35 1fbd
00000280: e8f5 de3d 61e5 46be 6d91 2c3e 6291 bf3d
00000290: f82f 7bbd 203e cc3b 436a 95bd 5760 bcbd
000002a0: d7e6 ae3d 26de e0bc ea46 fcbc 99a1 043b
000002b0: 5db7 b6bc 672e 2abe 2883 30bc 2a4b 57bd
000002c0: b4ec d43d 3ade d63d df22 b2bd 670c 7c3d
000002d0: ab02 88be eb15 f8bd d92d d1bd 6b31 1bbd
000002e0: 20cf 1d3e 7c26 713d d50a 713e 5343 5fbe
000002f0: e9b5 55be 8e3b b33c 53e2 07be 50ce 84bd
00000300: d1f5 e33c 551d 03bd 0028 05be dec8 4e3d
00000310: cc90 e93d 7750 c83c 091c 7cbd 14a1 733d
00000320: d587 7cba 70d6 143e 8918 3b3d 8703 183d
00000330: 235e f73d 8f9e b0bd 7923 a4bd 3a13 7a3c
00000340: a659 763d 2d9b a6bd 8486 29bd 4d50 15bc
00000350: e47e 08bd 2944 81bd a897 1fbd 64dc 4f3e
00000360: e357 f73d cccd d43d 1a85 593c e70e c7bd
00000370: 2bab 993c 57be 34bc e05d 1f3e 47f1 13be
00000380: b8b9 013e 5dad 203d 2814 0ebe c6c8 ff3c
00000390: 533c fd3d 72d4 01be e8ef f6bd 849a f8bd
000003a0: 7160 b73c c973 ea3d dc43 023d ff69 82bd
000003b0: 786b 7abd 7661 b8bd 9bf3 29be ab0d dbbd
000003c0: 31b6 57bd 079a 8fbc 62cc 65bd 67f0 c3bd
000003d0: 935e 34bd 61a1 123d ce31 cd3d fdfe a03d
000003e0: fef2 c33d 3243 c1bd 7359 b43d a8c9 acbd
000003f0: 9674 423c aa43 00bd 8a55 183e 5183 c8bd

features_extractor.policy_net.0.bias f4 [64]
0.012742747 -0.028678987 0.00025762685 -0.0755952 -0.046593297 -0.061030068 -0.03173458 0.038557775
-0.05509483 -0.043697886 0.0036108375 -0.0077219983 -0.009120978 -0.06329079 -0.039586425 -0.035172813
-0.014766154 -0.015904315 -0.060192097 0.00571626 0.013623833 -0.035864007 -0.005432341 -0.053382505
-0.042209852 -0.055752702 -0.07209526 -0.046406925 0.005519622 -0.008755849 -0.02422303 -0.06815859
-0.063018814 0.08343767 0.025956023 0.042003 -0.021250384 -0.082839124 -0.02335062 0.0056032534
0.017368637 -0.012386762 0.014953415 -0.060591877 -0.016231066 -0.028041786 -0.061747905 0.0026723044
0.0098209875 -0.034477502 0.007426255 0.056563143 -0.0074983216 -0.024851175 -0.012243716 -0.09577064
-0.015813993 0.0064723785 0.0016817863 -0.010843782 -0.018666832 0.02314967 0.01971393 -0.018907977
00000000: f4c6 503c 32f0 eabc 1712 8739 a8d1 9abd
00000010: 9dd8 3ebd aafa 79bd 1efc 01bd c2ee 1d3d
00000020: 1eab 61bd 8efc 32bd cda3 6c3b d108 fdbb
00000030: 2870 15bc 9a9e 81bd 6025 22bd 5e11 10bd
00000040: bded 71bc c449 82bc fd8b 76bd 774f bb3b
00000050: 7f36 5f3c 23e6 12bd c701 b2bb 9da7 5abd
00000060: 3de4 2cbd f25c 64bd aea6 93bd 3015 3ebd
00000070: f2dd b43b b174 0fbc 606f c6bc bb96 8bbd
00000080: 0210 81bd 5ee1 aa3d baa1 d43c 560b 2c3d
00000090: 4915 aebc 8fa7 a9bd cd49 bfbc 7f9b b73b
000000a0: ac48 8e3c d8f1 4abc 2bff 743c 302f 78bd
000000b0: 03f7 84bc e3b7 e5bc 5feb 7cbd d421 2f3b
000000c0: 35e8 203c 4838 0dbd f157 f33b c1ae 673d
000000d0: 7bb4 f5bb b194 cbbc de99 48bc 6623 c4bd
000000e0: 598c 81bc 3f16 d43b 626f dc3a 1eaa 31bc
000000f0: 2feb 98bc 60a4 bd3c 1c7f a13c e7e4 9abc

features_extractor.policy_net.2.weight f4 [64, 64]
0.059551407 0.093403496 0.15086643 -0.10386716 0.23247685 -0.043572992 -0.019900313 0.082548186
-0.16073246 0.028445132 0.13666919 0.11800101 -0.08878429 -0.09391581 -0.08566664 0.020102385
-0.14882466 0.12675957 0.035252143 0.15489316 -0.0072509367 0.12511632 -0.103855 -0.1237121
-0.053928785 -0.17342746 0.07566121 0.000977786 0.0619819 -0.17805906 0.12647727 -0.13543525
-0.052121177 -0.10902091 -0.06978941 -0.032537054 -0.2677161 -0.2094967 0.03291313 0.22697845
0.20910558 0.1930489 -0.0724243 -0.089855365 0.14376503 0.14251079 0.0509269 0.12886319
0.10064556 0.06585563 0.20048617 -0.022513969 0.22685689 0.20682104 -0.074315265 -0.109502956
-0.1214555 0.114014104 -0.059315015 0.03832546 0.08852466 0.0026206053 0.20289564 -0.078674614
0.122126706 0.0670577 0.1589314 0.037891895 0.1428117 0.064750865 0.177291 0.06261901
0.05470274 0.0064702244 -0.055835065 0.09376909 -0.019154126 -0.045366917 -0.28627545 -0.08306508
-0.11922169 0.097351566 -0.16238399 -0.1082395 -0.13307701 -0.03389677 -0.04588584 -0.11190046
0.1060118 -0.022156477 0.06819921 0.16726407 0.06466204 -0.10073284 0.14246012 -0.07322205
-0.13883887 -0.17772776 0.04978415 0.052534647 -0.306433 -0.14285915 -0.20330787 0.14647089
0.08411612 0.08718659 -0.050118167 -0.106437944 0.052778754 0.18827121 0.00096336653 0.2640485
-0.06411059 0.08082584 0.3076863 -0.090886876 -0.0062080813 0.15579885 -0.009435484 0.027784688
-0.20978302 0.0975352 0.08645008 -0.008789774 0.15423739 -0.2180703 0.143661 -0.054094482
0.10299683 0.030287163 0.15055376 -0.0071209027 0.11580207 -0.21784426 -0.091584444 0.15075542
-0.20306852 -0.0019264517 0.06112883 -0.03872331 -0.21182793 -0.047113094 0.02991807 0.053904604
0.034749053 0.21182618 -0.016885882 0.11522953 0.110729285 0.032174658 -0.13635074 -0.17987777
0.014897731 -0.020854594 0.08665931 -0.055257227 -0.13807085 -0.2623941 0.1022581 -0.12155396
-0.09328734 0.014348852 -0.1394547 0.093723245 -0.18466353 -0.033349063 -0.08863381 0.12932663
0.18821725 0.06992095 -0.10305387 -0.071100265 0.032268085 0.077501565 -0.06371566 0.16679844
-0.016500399 0.1066502 0.1950085 0.06629045 0.076557286 0.1718128 -0.0893889 -0.1753242
-0.0013834825 0.055126064 0.020234365 0.10058683 -0.037100878 -0.11597658 0.16500789 0.109189585
0.06690561 0.19555588 0.14651175 -0.019555692 0.09786217 0.009664375 0.0075720903 0.07311928
-0.011894053 -0.014678301 0.04637781 0.015379672 -0.16630252 -0.030831808 -0.060453255 0.030376539
-0.08958108 0.027009334 -0.15738836 0.09565332 -0.14866418 -0.08014004 -0.08502381 -0.2203852
0.07319113 -0.092748 0.14970393 0.17123543 -0.1575569 -0.19215752 0.1391475 -0.078537434
-0.039897893 0.04022741 -0.12880477 0.025930163 -0.085187346 -0.10309728 -0.042924985 0.2235543
0.24967171 0.20643537 -0.1404794 -0.043290425 0.10924238 0.12877162 -0.044663303 0.26650417
-0.068783835 0.050324984 0.24839625 -0.030746281 0.122282065 0.0086865965 -0.010448112 -0.13560137
0.0027127552 0.21940844 0.010862178 -0.10716952 0.16446877 -0.0509876 0.227095 -0.093962625
00000000: 2dec 733d 554a bf3d bb7c 1a3e 4eb8 d4bd
00000010: 690e 6e3e 9879 32bd fb05 a3bc 060f a93d
00000020: 0d97 24be c405 e93c 02f3 0b3e 83aa f13d
00000030: 8ad4 b5bd ef56 c0bd fe71 afbd c2ad a43c
00000040: 7e65 18be 43cd 013e 8d64 103d 509c 1e3e
00000050: 4499 edbb 7e1e 003e eeb1 d4bd c55c fdbd
00000060: 6ee4 5cbd f896 31be 44f4 9a3d 0e29 803a
00000070: bce0 7d3d 1d55 36be 4283 013e 8aaf 0abe
00000080: 047d 55bd 5b46 dfbd c0ed 8ebd 9345 05bd
00000090: 1612 89be 4e86 56be ebcf 063d 0a6d 683e
000000a0: c61f 563e 9cae 453e 3153 94bd 1706 b8bd
000000b0: 2437 133e 59ee 113e ba98 503d b6f4 033e
000000c0: 421f ce3d 51df 863d 3f4c 4d3e 376f b8bc
000000d0: 2c4d 683e e5c8 533e 9a32 98bd 1643 e0bd
000000e0: a9bd f8bd 3a80 e93d 4df4 72bd 28fb 1c3d
000000f0: 6b4c b53d 76be 2b3b e0c3 4f3e 2820 a1bd
00000100: 911d fa3d 8c55 893d eabe 223e 8834 1b3d
00000110: 3b3d 123e 1a9c 843d c68b 353e 653e 803d
00000120: fb0f 603d 2d04 d43b 4fb3 64bd 020a c03d
00000130: 1de9 9cbc a9d2 39bd b292 92be 061e aabd
00000140: 802a f4bd 4260 c73d fd47 26be acac ddbd
00000150: 5745 08be 57d7 0abd caf2 3bbd 122c e5bd
00000160: b71c d93d 8081 b5bc 07ac 8b3d 4647 2b3e
00000170: 886d 843d 054d cebd 11e1 113e 71f5 95bd
00000180: c72b 0ebe 44fe 35be 77ea 4b3d 922e 573d
00000190: c9e4 9cbe ab49 12be f02f 50be 77fc 153e
000001a0: 1345 ac3d e28e b23d b548 4dbd 23fc d9bd
000001b0: 892e 583d 2bca 403e 6f8a 7c3a 5d31 873e
000001c0: 6a4c 83bd 0588 a53d 0f89 9d3e e622 babd
000001d0: 296d cbbb bc89 1f3e 4a97 1abc b79c e33c
000001e0: 5cd1 56be 89c0 c73d bd0c b13d fc02 10bc
000001f0: 68f0 1d3e d24d 5fbe df1b 133e 2d92 5dbd
00000200: 01f0 d23d c91c f83c c42a 1a3e 7656 e9bb
00000210: a329 ed3d 9112 5fbe a090 bbbd a15f 1a3e
00000220: 32f1 4fbe fe80 fcba 3962 7a3d 559c 1ebd
00000230: 6ce9 58be a9f9 40bd be16 f53c 13cb 5c3d
00000240: 0655 0e3d f6e8 583e 4354 8abc 76fd eb3d
00000250: 09c6 e23d 93c9 033d 879f 0bbe e131 38be
00000260: 9d15 743c 41d7 aabc 707a b13d 6755 62bd
00000270: 7262 0dbe 8558 86be b26c d13d 48f1 f8bd
00000280: 6f0d bfbd 7317 6b3c 36cd 0ebe f9f1 bf3d
00000290: 7018 3dbe 0799 08bd a585 b5bd 336e 043e
000002a0: 06bc 403e b732 8f3d e80d d3bd 049d 91bd
000002b0: 8a2b 043d 24b9 9e3d 5b7d 82bd 36cd 2a3e
000002c0: d82b 87bc 6c6b da3d 4fb0 473e 4ac3 873d
000002d0: 11ca 9c3d b2ef 2f3e 8711 b7bd 3088 33be
000002e0: f855 b5ba decb 613d 8ac2 a53c 7800 ce3d
000002f0: 17f7 17bd 2185 edbd d4f7 283e ca9e df3d
00000300: cf05 893d cd3f 483e 2d07 163e 4233 a0bc
00000310: f66b c83d 5457 1e3c 4c1f f83b 90bf 953d
00000320: 46df 42bc 427d 70bc a9f6 3d3d 05fb 7b3c
00000330: 354b 2abe fd92 fcbc d59d 77bd 38d8 f83c
00000340: 4976 b7bd ae42 dd3c 6a2a 21be e3e5 c33d
00000350: 6c3b 18be 7620 a4bd f720 aebd a8ac 61be
00000360: 3be5 953d aaf2 bdbd fd4b 193e 5758 2f3e
00000370: 9956 21be f1c4 44be af7c 0e3e 3cd8 a0bd
00000380: f96b 23bd 7fc5 243d 66e5 03be 7e6b d43c
00000390: b476 aebd ab24 d3bd 1cd2 2fbd 6beb 643e
000003a0: f1a9 7f3e cb63 533e d5d9 0fbe 4d51 31bd
000003b0: 78ba df3d b5dc 033e def0 36bd 3c73 883e
000003c0: 8ade 8cbd 9221 4e3d 965b 7e3e a0df fbbc
000003d0: 056f fa3d 3a52 0e3c 8f2e 2bbc 16db 0abe
000003e0: 7bc8 313b 9bac 603e 47f7 313c b17b dbbd
000003f0: 806a 283e 60d8 50bd 978b 683e 7a6f c0bd

features_extractor.policy_net.2.bias f4 [64]
-0.058868445 -0.09250537 -0.08152617 0.05665482 -0.015198316 0.07293685 0.010567285 0.04205765
0.06371514 -0.04186604 -0.00523081 0.001748798 -0.042897835 0.03595701 -0.052088417 0.07662248
-0.07076352 0.07280049 -0.031541944 0.025092898 0.09176577 -0.06277288 -0.003963822 -0.05362261
0.053750962 -0.11565739 -0.005652388 0.013867052 0.017715933 -0.12658226 0.0075057223 -0.041761924
-0.04878381 -0.11936855 -0.03574016 -0.085084304 -0.113252975 0.06574691 0.13032615 -0.07251001
-0.1265 0.021394337 -0.099986345 -0.07944712 -0.05500833 -0.022392783 -0.015433509 0.10982271
-0.13938886 -0.080825 0.017007722 0.023849618 -0.09379895 -0.10281209 -0.09239101 -0.024187813
0.060135525 -0.059667457 0.016621394 0.059851915 0.028086048 0.06722291 0.11693852 -0.025084335
00000000: 0a20 71bd 7573 bdbd 31f7 a6bd e20e 683d
00000010: 5c02 79bc ea5f 953d 6822 2d3c a444 2c3d
00000020: 157d 823d ba7b 2bbd 3767 abbb ec37 e53a
00000030: a4b5 2fbd a847 133d aa5a 55bd 3fec 9c3d
00000040: 77ec 90bd 6c18 953d 2032 01bd 9f8f cd3c
00000050: b1ef bb3d 118f 80bd f3e2 81bb 62a3 5bbd
00000060: f829 5c3d c8dd ecbd ab37 b9bb a232 633c
00000070: 0121 913c c89e 01be 90f2 f53b 8d0e 2bbd
00000080: 88d1 47bd 8077 f4bd 4664 12bd ae40 aebd
00000090: 2df1 e7bd 51a6 863d 3874 053e 2180 94bd
000000a0: 3789 01be 2d43 af3c a4c5 ccbd 2cb5 a2bd
000000b0: 6a50 61bd 1271 b7bc d4dc 7cbc bbea e03d
000000c0: f4bb 0ebe 9487 a5bd c753 8b3c 4660 c33c
000000d0: aa19 c0bd 258f d2bd 7f37 bdbd 8525 c6bc
000000e0: ab50 763d dd65 74bd 9729 883c 4827 753d
000000f0: b614 e63c 2aac 893d 767d ef3d aa7d cdbc

features_extractor.value_net.0.weight f4 [64, 1024]
0.10206769 0.058968537 0.05977531 0.025020685 -0.09185423 -0.022553334 -0.07848059 -0.021419834
-0.0703616 -0.078458145 0.027934428 0.09125806 0.03161632 -0.15427557 -0.08345194 -0.05186023
0.023885548 0.034102175 0.06633771 0.0012193624 -0.046009015 -0.080821835 0.068568915 -0.022914505
0.0114141 0.0004576935 0.038469788 0.04987789 0.0375823 -0.13191062 0.12761278 -0.023135576
-0.08806959 -0.013631394 0.008226424 0.15989226 0.107132494 -0.030152006 0.044046603 -0.022286834
-0.05996368 0.011091776 0.036991045 -0.025559023 0.050757643 -0.013475821 0.042510863 -0.1256462
-0.019225718 -0.09547477 0.044830237 -0.027729595 0.10028347 0.022873426 0.061596368 -0.007992343
-0.002126285 -0.1666642 -0.09030587 -0.23642182 -0.06113495 -0.035310812 -0.011325349 0.048004813
0.19047634 0.019637914 -0.08625919 -0.06315859 -0.023829253 -0.08675938 -0.11445193 0.056684442
0.093313344 0.057307575 -0.055882875 0.18370377 -0.02355568 -0.007675691 -0.17322433 -0.043394085
0.081864975 -0.01366518 0.018654885 -0.095398776 -0.07806309 -0.03167955 0.02252744 0.00625808
-0.004703051 -0.009221383 0.04806184 -0.059944108 0.083461866 -0.17698744 0.04036228 -0.12659974
-0.027447596 -0.0516721 0.02395155 0.051234137 0.058533046 -0.13807751 0.09975354 0.020540541
0.027046034 0.08104796 0.07431213 0.026863815 0.0813271 -0.007413647 -0.03103591 0.12999713
0.0029151035 0.052185666 0.02612358 0.014313589 0.013329279 0.02160063 -0.04734443 0.022123849
-0.0493775 -0.119403586 -0.101384066 -0.088608794 0.00654949 -0.050072588 0.006273455 -0.0148646515
-0.030899392 -0.14466955 0.09769773 0.12761869 -0.025801044 -0.040814195 5.185968e-05 -0.08573533
-0.09597578 -0.118082054 0.11112394 -0.012748653 -0.008761076 -0.09629586 -0.04337927 -0.034632675
-0.14791283 0.059255693 0.07173737 0.10993863 -0.037478395 -0.023816619 -0.1213536 0.005312932
0.022086449 0.04874027 0.09567825 0.09891916 0.07843572 -0.09929215 -0.14924754 0.017045686
0.040421963 0.012929621 -0.0043992605 -0.019847505 -0.030167455 -0.034304276 -0.15447655 -0.06717361
-0.011163729 0.042788323 -0.039933864 0.019772552 -0.11873595 -0.029471582 -0.07321732 -0.1147888
-0.09531898 0.045753676 -0.18105395 -0.17552014 -0.06604479 -0.14938337 -0.06937336 -0.09725996
-0.025024842 0.03708825 -0.14145224 0.04131403 -0.009475418 -0.05515778 -0.17074512 -0.039356846
-0.04772516 -0.12822169 0.0048346543 0.0020654174 -0.026976187 -0.086234584 -0.05310524 -0.18083158
-0.023213835 -0.19209562 -0.0047706612 0.09569086 -0.032456312 -0.0925995 0.08883277 -0.012798731
0.0934383 -0.03344409 -0.06054797 0.13320746 0.08701109 -0.21776052 0.030866839 -0.06671953
0.025769474 -0.038060606 0.0625519 -0.014711651 0.040139865 0.013467926 0.037796322 -0.016491786
-0.05047763 -0.009250168 -0.05885896 0.07080111 -0.08293582 0.008835428 0.09222572 -0.011681082
-0.12614976 -0.13049945 -0.045442592 -0.12895879 0.07980493 0.17270373 -0.059280228 -0.013552562
0.09868238 -0.1386556 -0.10237058 -0.04445266 -0.025663028 -0.076920845 0.0093870545 -0.07751993
0.03748313 -0.08975108 -0.035890587 -0.014052312 0.07444866 -0.038970474 0.1427485 0.1059219
00000000: dd08 d13d fe88 713d f5d6 743d 2ef8 cc3c
00000010: 121e bcbd c5c1 b8bc 6eba a0bd a678 afbc
00000020: be19 90bd aaae a0bd bed6 e43c 81e5 ba3d
00000030: 1d80 013d 6afa 1dbe dae8 aabd 646b 54bd
00000040: a0ab c33c b9ae 0b3d 11dc 873d 03d3 9f3a
00000050: f373 3cbd eb85 a5bd dc6d 8c3d 33b7 bbbc
00000060: 3502 3b3c 95f6 ef39 7f92 1d3d c24c 4c3d
00000070: e6ef 193d 9413 07be edac 023e d286 bdbc
00000080: d45d b4bd 3656 5fbc 20c8 063c ccba 233e
00000090: 4868 db3d 5701 f7bc 366a 343d e192 b6bc
000000a0: 7a9c 75bd 48ba 353c ec83 173d 2861 d1bc
000000b0: 3fe7 4f3d b1c9 5cbc df1f 2e3d 66a9 00be
000000c0: 417f 9dbc 4788 c3bd e99f 373d 2d29 e3bc
000000d0: 6b61 cd3d 0d61 bb3c 794c 7c3d 51f2 02bc
000000e0: 2559 0bbb 05aa 2abe 49f2 b8bd 9018 72be
000000f0: a468 7abd 12a2 10bd f58d 39bc b2a0 443d
00000100: 3b0c 433e b1df a03c a9a8 b0bd 4a59 81bd
00000110: 9135 c3bc e7ae b1bd c665 eabd f22d 683d
00000120: 111b bf3d 59bb 6a3d 71e5 64bd d71c 3c3e
00000130: d7f7 c0bc 5d84 fbbb b861 31be ffbd 31bd
00000140: d3a8 a73d ebe3 5fbc 21d2 983c 6f60 c3bd
00000150: 8bdf 9fbd 6ac2 01bd 778b b83c 9410 cd3b
00000160: 0d1c 9abb 4915 17bc 7edc 443d f487 75bd
00000170: 0eee aa3d 323c 35be eb52 253d 5da3 01be
00000180: c8d9 e0bc 20a6 53bd 0a36 c43c e3da 513d
00000190: 59c0 6f3d 3164 0dbe 954b cc3d a344 a83c
000001a0: a58f dd3c 79fc a53d f530 983d 8111 dc3c
000001b0: d38e a63d 2eee f2bb 053f febc f81d 053e
000001c0: 520b 3f3b a3c0 553d 1e01 d63c 8b83 6a3c
000001d0: 0c63 5a3c cef3 b03c 3cec 41bd 133d b53c
000001e0: 1040 4abd de89 f4bd 73a2 cfbd 8778 b5bd
000001f0: 1b9d d63b ea18 4dbd 8e91 cd3b de8a 73bc
00000200: b920 fdbc 4124 14be bf15 c83d 79ae 023e
00000210: b65c d3bc c92c 27bd e883 5938 0196 afbd
00000220: f38e c4bd 01d5 f1bd f394 e33d badf 50bc
00000230: 9e8a 0fbc c436 c5bd 76ae 31bd feda 0dbd
00000240: 7676 17be 19b6 723d 0beb 923d 8127 e13d
00000250: f282 19bd 121b c3bc 3c88 f8bd 1b18 ae3b
00000260: a4ee b43c e1a3 473d f5f2 c33d 2196 ca3d
00000270: e8a2 a03d af59 cbbd 59d4 18be 65a3 8b3c
00000280: 8091 253d c3d6 533c ac27 90bb 3c97 a2bc
00000290: bd21 f7bc a482 0cbd 1a2f 1ebe 5192 89bd
000002a0: 13e8 36bc cf42 2f3d b191 23bd 0cfa a13c
000002b0: d52b f3bd 636e f1bc f6f2 95bd 6416 ebbd
000002c0: 9936 c3bd 3568 3b3d 3566 39be 8dbb 33be
000002d0: 7e42 87bd f4f7 18be 9f13 8ebd 3b30 c7bd
000002e0: e600 cdbc d9e9 173d dbd8 10be e638 293d
000002f0: c93e 1bbc 20ed 61bd cfd7 2ebe a534 21bd
00000300: 757b 43bd 8c4c 03be 056c 9e3b f45b 073b
00000310: 2afd dcbc c29b b0bd e184 59bd ea2b 39be
00000320: f12a bebc b7b4 44be 3553 9cbb 92f9 c33d
00000330: e9f0 04bd cfa4 bdbd f5ed b53d c5b1 51bc
00000340: 945c bf3d acfc 08bd 2601 78bd 8967 083e
00000350: df32 b23d 9dfc 5ebe 74dc fc3c 40a4 88bd
00000360: 811a d33c 70e5 1bbd 361b 803d 2309 71bc
00000370: b369 243d 93a8 5c3c 51d0 1a3d c819 87bc
00000380: a2c1 4ebd 048e 17bc 1816 71bd 2c00 913d
00000390: 41da a9bd 79c2 103c d7e0 bc3d 0262 3fbc
000003a0: 672d 01be a6a1 05be 0322 3abd c60d 04be
000003b0: c470 a33d 3fd9 303e d3cf 72bd 910b 5ebc
000003c0: fd19 ca3d bcfb 0dbe aba7 d1bd fe13 36bd
000003d0: 453b d2bc ad88 9dbd 29cc 193c c5c2 9ebd
000003e0: e987 193d 6acf b7bd 0202 13bd ab3b 66bc
000003f0: 8a78 983d 819f 1fbd aa2c 123e 95ed d83d

features_extractor.value_net.0.bias f4 [64]
0.010050263 -0.1352207 -0.16742282 -0.04602533 -0.16440745 0.050126348 -0.071867235 -0.24893188
-0.17477864 -0.24344675 -0.22395742 -0.15899318 -0.012418949 0.12720188 -0.18304735 -0.058089036
-0.2520776 -0.26910022 -0.10640129 -0.23763673 -0.027277365 -0.20675574 -0.11310606 -0.2796511
0.026023539 -0.15498865 -0.23435922 -0.11447908 -0.26222104 -0.08866491 -0.25280002 -0.2538616
-0.15155916 -0.16035867 0.074439496 -0.15599987 -0.3103064 0.08423962 -0.197146 0.0371706
-0.18266505 0.08021763 -0.2773542 -0.04080832 -0.22345635 -0.002950868 -0.21723059 -0.043532263
-0.1718476 -0.25675935 -0.13007317 -0.27768186 0.037143018 -0.16998515 -0.16415158 -0.036721595
-0.28708565 -0.24316852 0.089502685 0.03452664 -0.2559906 -0.1618842 -0.31217086 -0.07814147
00000000: dca9 243c 4c77 0abe e370 2bbe 0e85 3cbd
00000010: 6d5a 28be 4951 4d3d 212f 93bd 00e8 7ebe
00000020: 2cf9 32be 1b4a 79be 1855 65be 1ccf 22be
00000030: d978 4bbc 3641 023e c470 3bbe c5ee 6dbd
00000040: 5110 81be 81c7 89be ebe8 d9bd 0b57 73be
00000050: c874 dfbc c7b7 53be 26a4 e7bd 6e2e 8fbe
00000060: 512f d53c 58b5 1ebe ddfb 6fbe 0274 eabd
00000070: d641 86be f395 b5bd 016f 81be 26fa 81be
00000080: 5332 1bbe 1035 24be bc73 983d 6ebe 1fbe
00000090: 7be0 9ebe d285 ac3d a4e0 49be 3340 183d
000000a0: 8c0c 3bbe 2449 a43d 5f01 8ebe a026 27bd
000000b0: bed1 64be 5a63 41bb b271 5ebe e34e 32bd
000000c0: d1f8 2fbe f675 83be e731 05be 512c 8ebe
000000d0: 4723 183d 9610 2ebe 5a17 28be 6269 16bd
000000e0: e4fc 92be 2b01 79be 2f4d b73d ce6b 0d3d
000000f0: 3311 83be f9c4 25be dcd4 9fbe a308 a0bd

features_extractor.value_net.2.weight f4 [1, 64]
0.03376438 0.0048839655 -0.014755581 0.040259194 -0.00965496 0.0022931958 0.009677254 -0.013737372
0.0047104196 0.017227493 -0.014414007 0.009318187 0.0355856 0.040655382 0.03243355 0.032240987
-0.016362557 -0.006044019 0.034334205 0.022400554 0.016357532 0.014938545 0.016349068 -0.01444374
0.014591669 -0.031262804 -0.011510568 0.0107492125 -0.0138588725 -0.0037750404 -0.04214852 -0.009662305
-0.01699417 -0.027890328 0.010837988 -0.017987614 -0.010639529 0.047600497 0.008285265 0.03628883
-0.029790893 0.03574626 0.0018097394 0.016820239 0.0067655905 0.04822807 -0.03722436 0.0064571113
-0.0063649495 -0.0073042875 -0.0138102425 0.011524307 0.014921796 -0.0022987828 0.0056310575 0.007125313
-0.0077498606 -0.01527837 0.022474254 0.02278826 0.0067378306 -0.027040746 -0.010021288 -0.009443071
00000000: 854c 0a3d ac09 a03b 64c1 71bc d3e6 243d
00000010: d62f 1ebc 7149 163b 588d 1e3c b712 61bc
00000020: dd59 9a3b ac20 8d3c ba28 6cbc 4fab 183c
00000030: 35c2 113d 4286 263d 0bd9 043d 200f 043d
00000040: c50a 86bc e80c c6bb 06a2 0c3d 5e81 b73c
00000050: 3b00 863c cdc0 743c 7bee 853c 70a5 6cbc
00000060: e511 6f3c 6d0d 00bd d296 3cbc 771d 303c
00000070: 5310 63bc ab66 77bb eda3 2cbd a54e 1ebc
00000080: 5c37 8bbc 427a e4bc d191 313c c35a 93bc
00000090: 6b51 2ebc bdf8 423d ecbe 073c 99a3 143d
000000a0: 080c f4bc ac6a 123d c734 ed3a 99ca 893c
000000b0: e3b1 dd3b cc8a 453d 9278 18bd 2d96 d33b
000000c0: 1191 d0bb ce58 efbb 5b44 62bc 72d0 3c3c
000000d0: 8c7a 743c 2da7 16bb bc84 b83b 757b e93b
000000e0: 8bf2 fdbb 2152 7abc ed1b b83c 72ae ba3c
000000f0: 05c9 dc3b 8e84 ddbc 5430 24bc 1cb7 1abc

action_net.weight f4 [2, 64]
-0.18041417 -0.23026212 -0.07293877 -0.23493874 -0.21590066 0.16853237 -0.10612648 0.26289213
-0.21203077 -0.20710394 0.28938797 0.17217481 -0.21107411 -0.18934558 0.18653981 -0.28660652
0.13630213 0.2010831 0.13228665 0.10696241 -0.07258382 -0.102303706 0.19965516 0.11204668
0.25919488 0.22120458 -0.16595043 -0.21253525 0.0015509969 0.19261108 -0.05469981 -0.16244747
0.21953972 0.096374 0.15929829 -0.15522021 0.23133263 -0.16084269 -0.24884565 -0.1917969
0.22269072 -0.11886037 0.17497379 -0.24586003 -0.2317965 -0.25402963 0.24338251 -0.23503307
0.24795018 0.074200675 0.100941844 0.20976616 -0.118362345 -0.15447345 -0.19000219 0.19975168
-0.1708947 -0.068439215 0.2636903 -0.06520808 -0.26473293 -0.1948174 0.04816863 -0.28070164
-0.21415395 -0.02606517 -0.1707331 -0.16111286 0.20115286 -0.19708386 0.29602638 0.059440758
-0.14766383 -0.13762291 0.05268896 -0.04374841 0.0026111146 0.042233907 0.12747808 0.24178378
-0.19375971 -0.17403 -0.25337493 -0.134783 -0.16322716 0.23787421 -0.27165583 0.15968472
0.11806952 0.19722736 0.10152298 0.23105581 0.27947807 0.20186749 0.23164728 -0.16227461
-0.003775547 -0.20058283 -0.20212887 0.112230584 0.18701498 0.28472033 0.18460792 0.22518183
-0.23997809 -0.22563285 -0.16566247 -0.0768873 0.057501946 -0.18651062 0.022808775 -0.14401789
-0.120747976 0.24076536 -0.0109145865 0.05941478 0.27103198 -0.16384283 -0.048317198 0.10102947
-0.22499506 -0.29162127 0.012951275 0.15399279 -0.02521229 -0.036144953 0.22022964 -0.09630715
00000000: 7ebe 38be d5c9 6bbe ec60 95bd c893 70be
00000010: 1015 5dbe c093 2c3e d758 d9bd cc99 863e
00000020: 981e 59be 0e13 54be a92a 943e 984e 303e
00000030: d023 58be cfe3 41be 4b04 3f3e 17be 92be
00000040: c992 0b3e bae8 4d3e 2776 073e 1c0f db3d
00000050: d3a6 94bd 9b84 d1bd 6772 4c3e bb78 e53d
00000060: 31b5 843e 7483 623e e9ee 29be d7a2 59be
00000070: d24a cb3a d73b 453e e80c 60bd a158 26be
00000080: 05cf 603e bb5f c53d 171f 233e 0cf2 1ebe
00000090: 76e2 6c3e f2b3 24be 65d1 7ebe 6866 44be
000000a0: 0909 643e 116d f3bd 542c 333e bbc2 7bbe
000000b0: 105c 6dbe 2c10 82be 4439 793e 82ac 70be
000000c0: a7e6 7d3e 86f6 973d 99ba ce3d f1cc 563e
000000d0: f567 f2bd 4a2e 1ebe ef8f 42be b48b 4c3e
000000e0: 05ff 2ebe dc29 8cbd 6a02 873e d08b 85bd
000000f0: 138b 87be 367e 47be 784c 453d 20b8 8fbe
00000100: 2c4b 5bbe a086 d5bc a8d4 2ebe c5fa 24be
00000110: 04fb 4d3e 5ad0 49be c590 973e 2778 733d
00000120: 3035 17be 05ed 0cbe 61d0 573d 8831 33bd
00000130: 3c1f 2b3b 76fd 2c3d 9d89 023e 2b96 773e
00000140: f268 46be ec34 32be 5cba 81be 8e04 0abe
00000150: 0525 27be 4c95 733e 7916 8bbe 6484 233e
00000160: 6fce f13d f8f5 493e 48eb cf3d e599 6c3e
00000170: c017 8f3e 5ab6 4e3e f234 6d3e 512b 26be
00000180: 2b6f 77bb 9665 4dbe dffa 4ebe 26d9 e53d
00000190: db80 3f3e ddc6 913e dc09 3d3e 1196 663e
000001a0: d1bc 75be 4c0c 67be 6ca3 29be 1777 9dbd
000001b0: 2987 6b3d a4fc 3ebe 78d9 ba3c 6d79 13be
000001c0: b74a f7bd 328b 763e 18d3 32bc ea5c 733d
000001d0: b4c4 8a3e 6ac6 27be 41e8 45bd 8ae8 ce3d
000001e0: 1b65 66be 624f 95be 9631 543c 49b0 1d3e
000001f0: 018a cebc bb0c 14bd e183 613e af3c c5bd

action_net.bias f4 [2]
-0.056025714 -0.010094161
00000000: 387b 65bd fb61 25bc
