weights/cnn-nd-0-eps-400.pth (torch, 568288 bytes, 16 tensors)

log_std f4 [2]
0.14715247 0.14980522
00000000: 23af 163e 8a66 193e

features_extractor.encoder.0.weight f4 [16, 1, 3, 3]
0.054931067 1.0543147 -0.09363474 0.41558126 -0.8976656 0.34255415 -0.29434943 -0.3275996
0.30961573 -0.6364379 -0.74395406 -0.09680698 -0.007849047 0.17906944 -0.57888556 0.8955766
-0.28984454 0.38471395 0.32274282 -0.034147162 0.6831932 -0.3212375 -0.1557152 0.66240644
-0.17287913 -0.52695805 1.1078066 -0.1609334 0.22119878 -0.6280559 -0.7317465 -0.64127547
0.44665837 0.78453594 0.40615422 0.21458234 -0.7970513 0.261045 0.7741771 -0.3091722
0.46990573 0.028203372 0.0575779 -0.015559996 0.16238815 -0.35545915 -0.5054821 -0.026597252
-0.22971003 -0.28270423 -0.44131237 0.2371808 0.12235154 -0.05698742 0.5487304 -0.6629235
-0.15344207 -0.32713202 0.35279372 -0.23284382 0.5412657 -0.42443636 0.11045051 -0.37116516
0.5903777 -0.41149876 0.2467471 -0.6268895 -0.007921692 0.19059677 -0.00027737961 0.23462401
0.26957914 1.1054246 0.001387602 0.8711544 -0.5583322 0.44292155 -0.1560422 0.3741531
-0.224814 -0.4332419 -0.2214916 -0.17758448 -0.0586543 -0.22160551 0.057039488 0.36036503
0.3303167 -0.7073173 -0.14963512 0.13163285 -0.6862745 -0.29301074 0.08058664 0.13720587
0.2808665 0.13663416 0.5906938 -0.1963213 -0.73439956 0.016925946 0.7279026 0.6957699
-0.01377625 -0.5941827 -0.3335965 0.22623171 -0.26447454 0.10936261 -0.19287454 -1.1794003
0.53163874 0.09766036 -0.17354919 0.27236584 -0.046822775 -0.05573824 0.29679573 0.1521639
0.3822965 -0.034183435 -0.0448725 -0.31208795 -0.30366805 -0.56626916 -0.09560619 -0.29003122
0.11644342 0.48901016 -0.0061866445 0.78019404 0.47425872 -0.48078877 -0.36607742 0.89750594
1.2456257 -0.1975537 0.65486145 -0.057910796 0.24231644 0.17549393 0.55990505 -0.9608816
00000000: 66ff 603d c9f3 863f 92c3 bfbd 11c7 d43e
00000010: 6acd 65bf 4263 af3e f8b4 96be 23bb a7be
00000020: f485 9e3e 98ed 22bf c673 3ebf bd42 c6bd
00000030: 4a99 00bc fb5d 373e d831 14bf 8244 653f
00000040: 8166 94be 3af9 c43e 8c3e a53e e5dd 0bbd
00000050: c0e5 2e3f 3e79 a4be ce73 1fbe 7893 293f
00000060: 3a07 31be b9e6 06bf 9bcc 8d3f bacb 24be
00000070: ef81 623e 45c8 20bf bd53 3bbf a12a 24bf
00000080: 68b0 e43e 59d7 483f 72f3 cf3e 79bb 5b3e
00000090: 8e0b 4cbf b1a7 853e 7830 463f d24b 9ebe
000000a0: 7c97 f03e c20a e73c ced6 6b3d 5aef 7ebc
000000b0: 1449 263e befe b5be 4667 01bf 7be2 d9bc
000000c0: 1b39 6bbe 9cbe 90be b2f3 e1be 86df 723e
000000d0: 7293 fa3d a46b 69bd 9879 0c3f 5bb5 29bf
000000e0: eb1f 1dbe d97d a7be 61a1 b43e 9c6e 6ebe
000000f0: 6490 0a3f b94f d9be e133 e23d 5c09 bebe
00000100: fe22 173f f7af d2be 46ab 7c3e d57b 20bf
00000110: fcc9 01bc cd2b 433e 436d 91b9 4741 703e
00000120: 4706 8a3e 8e7e 8d3f 32e0 b53a fa03 5f3f
00000130: dcee 0ebf 9dc6 e23e 87c9 1fbe ff90 bf3e
00000140: a435 66be e2d1 ddbe b2ce 62be b5d8 35be
00000150: 7e3f 70bd 8eec 62be 3da2 693d c481 b83e
00000160: 451f a93e bf12 35bf f339 19be c3ca 063e
00000170: b0af 2fbf 8105 96be 9c0a a53d b27f 0c3e
00000180: bccd 8f3e d3e9 0b3e b537 173f 7308 49be
00000190: 9c01 3cbf 48a8 8a3c d357 3a3f fa1d 323f
000001a0: c8b5 61bc 5c1c 18bf 29cd aabe 49a9 673e
000001b0: 3569 87be 81f9 df3d e780 45be 97f6 96bf
000001c0: 7a19 083f 2802 c83d e1b6 31be 8973 8b3e
000001d0: 3dc9 3fbd c84d 64bd 9cf5 973e dad0 1b3e
000001e0: 5ebc c33e ee03 0cbd 3acc 37bd fec9 9fbe
000001f0: 617a 9bbe 04f7 10bf 2ecd c3bd f97e 94be
00000200: e379 ee3d 8a5f fa3e 56b9 cabb ccba 473f
00000210: 0ad2 f23e f229 f6be 806e bbbe f3c2 653f
00000220: aa70 9f3f 844b 4abe 00a5 273f df33 6dbd
00000230: cd21 783e aeb4 333e f055 0f3f 56fc 75bf

features_extractor.encoder.0.bias f4 [16]
-0.0020712467 -0.002699825 -0.074365534 -0.00577303 -0.033270873 -0.00514879 -0.0005890655 -0.007704725
-0.00030861644 -0.0044012954 -0.0012821422 -0.0017662861 0.0070931297 -0.005843224 -0.057211913 0.018800916
00000000: c1bd 07bb 8cef 30bb f54c 98bd b02b bdbb
00000010: 0a47 08bd 2eb7 a8bb 846b 1aba eb77 fcbb
00000020: cccd a1b9 be38 90bb 8e0d a8ba ba82 e7ba
00000030: 7c6d e83b 8478 bfbb 0a57 6abd 6104 9a3c

features_extractor.encoder.2.weight f4 [16, 16, 3, 3]
-0.019521289 0.022737656 -0.046657242 0.03912865 0.026825523 -0.11224297 0.04254978 -0.013496271
0.04240719 -0.085409865 -0.0305777 -0.1391943 -0.02272359 -0.24762307 -0.06755179 0.005677012
-0.04914436 0.048403367 0.058996916 -0.11751499 -0.12963043 -0.07370073 -0.1315841 -0.12457215
0.104731254 -0.046086922 -0.15372421 -0.17312743 0.06616697 0.07496513 -0.1833009 -0.15245992
-0.12972525 0.08643818 -0.036708985 -0.13360961 -0.09890255 -0.052335132 0.11410688 0.029412784
0.15862384 -0.04906002 -0.034934744 -0.20197248 0.03180225 -0.12740326 0.008883516 0.03734307
-0.06475219 -0.16360246 -0.012735072 -0.085109554 0.30330527 -0.13220763 0.17426932 -0.22329114
-0.03057886 -0.0025816106 0.018822966 -0.10249404 0.071767636 0.04670054 0.039071366 0.043288883
0.12361669 0.009145886 0.09077102 0.0047805426 -0.12758295 0.05167995 -0.02296742 0.26960492
-0.052388072 -0.06737166 -0.10310974 -0.09955055 -0.052402824 -0.02965856 -0.08011508 0.047704194
0.06813858 0.09450944 0.054340214 0.10203135 0.12317167 -0.042813845 -0.050994016 0.0012581968
-0.17635915 0.004966483 0.015840078 -0.17497574 -0.13833803 -0.17667006 -0.20092317 0.049831536
0.1534748 0.1615564 0.25191763 -0.21778843 0.030894881 0.12127686 -0.12751277 0.06231337
-0.056575533 0.0029340188 0.10345715 0.25365016 -0.13063325 -0.13968584 0.14527659 -0.024915967
-0.2672317 -0.29603806 0.061015822 -0.1201841 -0.012148056 -0.045434814 -0.15138127 -0.022964818
-0.11111097 -0.22771694 -0.022830762 0.17531408 -0.19210687 0.0005031037 0.11160201 -0.1079989
-0.10272223 0.09061617 -0.028881965 0.13505521 -0.12456915 0.048838526 -0.2541303 -0.16548744
-0.027695568 -0.08944967 -0.09585354 0.0039724004 -0.08521982 0.0065679955 -0.19053487 0.11556028
-0.10772578 -0.007574421 -0.040665094 0.21932669 -0.1560528 0.052225515 -0.10128706 0.037350636
-0.19843319 -0.08827312 -0.07205306 -0.049022645 0.17417863 0.18012114 -0.14900255 0.030046174
-0.23880921 0.10576462 -0.04459834 0.10272438 0.12147566 0.23468754 -0.16633335 0.096140884
0.14840488 0.2730285 0.048251558 -0.08616907 -0.038204253 -0.17030142 0.06323249 0.007777378
-0.009002364 0.1692581 0.06996926 -0.07831486 -0.17225653 -0.031775042 0.0834377 -0.18645954
0.055595063 0.025731873 0.09603148 0.077427536 0.11559392 -0.07938175 -0.14064385 0.11342671
0.16755629 -0.05140234 -0.09064254 -0.03991159 -0.031193506 -0.16566522 0.025897851 -0.15992732
0.12659279 0.031878825 0.08122521 -0.031858463 0.017774573 0.07196098 0.24062422 -0.03422007
0.051497966 0.09647392 0.077493206 -0.029862849 -0.035942685 -0.03500158 -0.3554543 -0.109073155
-0.0045950953 0.1171041 0.06980764 -0.04271007 0.13659915 0.0660504 0.12204636 0.012681113
0.048469603 0.082545586 0.070039 -0.15502588 0.21348481 0.1352538 0.15612713 -0.07765001
-0.36544558 0.011737865 0.010929419 -0.12950148 0.099618316 -0.020846674 0.09482921 -0.019859757
0.13348384 0.2600814 0.045982193 0.020092396 0.034638595 0.028776195 -0.10285524 0.1268568
-0.06417464 -0.053080145 0.13054505 0.010406142 0.1647331 0.004080551 -0.08042947 0.003102122
00000000: 1ceb 9fbc 5244 ba3c aa1b 3fbd 5d45 203d
00000010: 33c1 db3c a4df e5bd ae48 2e3d 771f 5dbc
00000020: 29b3 2d3d 5eeb aebd 167e fabc f388 0ebe
00000030: d226 babc e790 7dbe 9858 8abd 3a06 ba3b
00000040: 994b 49bd 9c42 463d c0a6 713d b3ab f0bd
00000050: d7bd 04be 69f0 96bd fbbd 06be af1f ffbd
00000060: 577d d63d a4c5 3cbd e169 1dbe 5148 31be
00000070: 8c82 873d 5187 993d 3bb3 3bbe 741e 1cbe
00000080: b2d6 04be 8006 b13d 295c 16bd f5d0 08be
00000090: 6c8d cabd 5d5d 56bd deb0 e93d 14f3 f03c
000000a0: 4a6e 223e 29f3 48bd bc17 0fbd e0d1 4ebe
000000b0: 1343 023d 0076 02be 2b8c 113c 0cf5 183d
000000c0: cc9c 84bd 6787 27be c3a6 50bc eb4d aebd
000000d0: d44a 9b3e 7061 07be a873 323e 6fa6 64be
000000e0: 8480 fabc 3d30 29bb 9f32 9a3c 65e8 d1bd
000000f0: e9fa 923d 1149 3f3d 4c09 203d af4f 313d
00000100: bf2a fd3d a0d8 153c 28e6 b93d 19a6 9c3b
00000110: 1ba5 02be 5bae 533d 2c26 bcbc a809 8a3e
00000120: e094 56bd 27fa 89bd 332b d3bd 29e1 cbbd
00000130: 58a4 56bd 82f6 f2bc 6013 a4bd 7965 433d
00000140: 3d8c 8b3d 2a8e c13d d893 5e3d d0f5 d03d
00000150: 6e41 fc3d 925d 2fbd 1adf 50bd 14ea a43a
00000160: 7e97 34be e1bd a23b 0dc3 813c d72c 33be
00000170: 7ca8 0dbe ffe8 34be cebe 4dbe 271c 4c3d
00000180: 7f28 1d3e 0a6f 253e 59fb 803e ee03 5fbe
00000190: 4317 fd3c 0160 f83d b592 02be 4e3c 7f3d
000001a0: bfbb 67bd ab48 403b 58e1 d33d 6fde 813e
000001b0: b9c4 05be ce09 0fbe 63c3 143e 921c ccbc
000001c0: 98d2 88be 4d92 97be baeb 793d 1523 f6bd
000001d0: a408 47bc db19 3abd b103 1bbe b720 bcbc
000001e0: 268e e3bd a12e 69be 9407 bbbc 8985 333e
000001f0: aab7 44be b8e2 033a 988f e43d 872e ddbd
00000200: 0860 d2bd f894 b93d df99 ecbc ea4b 0a3e
00000210: 1c1e ffbd e80a 483d 5e1d 82be 8a75 29be
00000220: d1e1 e2bc 6331 b7bd dc4e c4bd e92a 823b
00000230: bb87 aebd 5738 d73b 931b 43be deaa ec3d
00000240: 559f dcbd d932 f8bb 7190 26bd 2d97 603e
00000250: 4ecc 1fbe 6cea 553d 976f cfbd fbfc 183d
00000260: 1232 4bbe 8ac8 b4bd 8e90 93bd f8cb 48bd
00000270: e25b 323e ad71 383e 2094 18be 6523 f63c
00000280: 678a 74be 1f9b d83d c0ac 36bd 2961 d23d
00000290: 3bc8 f83d ee51 703e 4a53 2abe 83e5 c43d
000002a0: 73f7 173e 64ca 8b3e 6da3 453d 6979 b0bd
000002b0: 107c 1cbd 7f63 2ebe 0980 813d 60d9 fe3b
000002c0: a77e 13bc ff51 2d3e 0b4c 8f3d 8b63 a0bd
000002d0: 0464 30be 8c26 02bd 63e1 aa3d 40ef 3ebe
000002e0: a6b7 633d a6cb d23c 27ac c43d 5492 9e3d
000002f0: 81bc ec3d e692 a2bd f104 10be 434c e83d
00000300: e093 2b3e 438b 52bd cca2 b9bd 567a 23bd
00000310: 8689 ffbc 25a4 29be bb27 d43c fdc3 23be
00000320: 8aa1 013e 5f93 023d 6759 a63d 057e 02bd
00000330: fb9b 913c 4760 933d 3266 763e 582a 0cbd
00000340: 88ef 523d 1e94 c53d c2b4 9e3d efa2 f4bc
00000350: a338 13bd d15d 0fbd 1bfe b5be bf61 dfbd
00000360: 7492 96bb 46d4 ef3d 4ff7 8e3d c1f0 2ebd
00000370: a6e0 0b3e 6f45 873d 71f3 f93d 71c4 4f3c
00000380: 1088 463d a90d a93d 9b70 8f3d 1bbf 1ebe
00000390: c39b 5a3e f97f 0a3e cadf 1f3e f806 9fbd
000003a0: af1b bbbe 2d50 403c 4e11 333c 099c 04be
000003b0: b004 cc3d a5c6 aabc d135 c23d eeb0 a2bc
000003c0: fdaf 083e 6429 853e d357 3c3d cf98 a43c
000003d0: 33e1 0d3d 0ebc eb3c c5a5 d2bd c0e6 013e
000003e0: fe6d 83bd 916a 59bd 9aad 053e 867e 2a3c
000003f0: cbaf 283e 25b6 853b 35b8 a4bd f94c 4b3b

features_extractor.encoder.2.bias f4 [16]
0.0008007806 -0.027665602 0.010236283 0.03185437 -0.005437154 0.016904486 -0.007423799 0.0057948413
-0.026756417 -0.058996607 -0.013664831 -0.0037117577 -0.013578443 -0.0019820293 -0.03307522 -0.027490925
00000000: 7aeb 513a f9a2 e2bc 15b6 273c ba79 023d
00000010: 272a b2bb 477b 8a3c 5743 f3bb a7e2 bd3b
00000020: 4630 dbbc 6da6 71bd 75e2 5fbc f640 73bb
00000030: 1e78 5ebc efe4 01bb e279 07bd a634 e1bc

features_extractor.encoder.4.weight f4 [16, 16, 3, 3]
-0.13637617 0.13228531 0.06742329 -0.04872652 0.10142855 -0.10363535 -0.093599625 -0.19882612
-0.13882136 -0.007689436 0.098023705 0.10677394 0.0036347036 -0.08481714 -0.0834773 0.037970796
-0.1956232 -0.16332059 0.07072838 -0.003446569 0.11252464 0.083930634 0.08117128 -0.25004447
0.113030896 -0.0059302975 0.22521809 0.016756387 0.055040162 0.06820598 0.16102648 0.0388151
0.24946876 0.21178733 -0.19680145 -0.047967445 -0.14971274 0.103925884 -0.027718576 -0.0028635683
-0.0049555274 -0.00879431 -0.038325407 0.112907186 -0.123427704 -0.05205583 -0.25081727 0.06962551
0.07505442 -0.036776148 -0.1210228 0.05207744 0.04254505 -0.19040933 -0.13561052 -0.07927567
0.30704334 -0.041447215 0.16960154 -0.04619187 -0.063690364 0.2493934 -0.027744582 -0.00015719117
0.21579249 -0.1917024 0.086574264 0.2990717 -0.0053451727 -0.097024344 -0.16457024 0.04346852
-0.04737119 -0.17657499 0.07007414 0.045167774 -0.10598142 -0.16428097 0.19733496 -0.008812457
-0.12523478 -0.00012374835 -0.018160172 -0.04790901 0.18507397 -0.016343802 -0.088231474 -0.13399027
0.024069792 -0.03867312 0.22426039 0.15103586 0.1646652 0.111482255 0.1708319 0.050708454
-0.0057049477 -0.03097712 0.0288201 -0.05320906 0.11243505 -0.18735816 -0.08941444 0.045731958
-0.08086912 0.010948745 0.06110686 -0.051447354 0.027824469 -0.13061051 0.15527703 0.31835294
0.1620268 0.03148571 0.3074573 -0.12581208 -0.19959873 0.050867252 0.13463113 -0.06915597
0.21782494 0.14482227 0.11388115 0.046241112 -0.0034081652 -0.03440426 -0.13744594 -0.2341161
0.11405929 0.121139206 -0.19099805 -0.09931974 -0.109387785 -0.041716494 -0.10293001 -0.10262084
-0.0057810512 -0.039349865 0.051100813 0.025361653 0.0988878 -0.034134153 -0.10900393 0.03313618
0.10993701 -0.15523249 0.028398354 0.010248977 0.34329998 -0.11087602 -0.08985974 0.24510758
0.14833625 0.057777353 0.13552612 -0.10627789 -0.075506546 -0.046923395 -0.013302646 0.31265432
-0.122182496 -0.13505426 -0.25721908 0.08726352 -0.01868196 -0.0719015 0.20876126 -0.15151614
0.02814348 -0.09443687 -0.169115 -0.00829664 -0.0003028609 -0.07049339 0.05105176 0.00920511
0.010613236 0.061768297 0.030151464 0.15208167 0.11815275 -0.24837668 0.14514387 -0.029662725
0.07806464 0.03812131 0.094502576 0.025601301 -0.16806452 -0.1053646 0.13447179 0.010793803
-0.1037963 0.03529585 0.031615227 0.18355289 -0.29957348 -0.04609806 0.035492476 -0.16076726
-0.05491821 -0.06876298 0.1959206 0.16684777 0.035091512 0.16387773 0.0069148834 0.13604678
0.12699953 -0.14299123 0.09260468 0.07379104 -0.2842403 -0.10775968 0.05769702 -0.026079983
0.042873915 0.12050244 0.15058818 0.18252087 -0.1030935 0.19626695 0.16922827 -0.25094482
0.020034878 0.003544301 -0.09217957 -0.043562535 -0.051201366 -0.040026505 0.008920414 0.12205075
-0.035071544 -0.15359606 0.1762759 0.19381021 0.05497304 0.12937622 0.07845937 0.07801791
-0.09067971 0.13968402 0.060327254 -0.009890697 -0.08379427 0.09533669 -0.04617421 0.11385301
-0.021330072 0.0040114485 0.101100296 -0.28672895 -0.115184836 -0.08690507 -0.05015935 0.004711723
00000000: 32a6 0bbe cd75 073e 3915 8a3d 7695 47bd
00000010: c6b9 cf3d c53e d4bd 29b1 bfbd 1399 4bbe
00000020: 3027 0ebe aaf7 fbbb a7c0 c83d 4cac da3d
00000030: 3534 6e3b 9cb4 adbd 26f6 aabd 4487 1b3d
00000040: 7351 48be 833d 27be 0ada 903d d5df 61bb
00000050: 5273 e63d d3e3 ab3d 213d a63d d405 80be
00000060: be7c e73d f152 c2bb 929f 663e b144 893c
00000070: cb71 613d 94af 8b3d 20e4 243e 95fc 1e3d
00000080: bd74 7f3e c7de 583e 5286 49be 8379 44bd
00000090: 4c4e 19be 18d7 d43d 1112 e3bc b4aa 3bbb
000000a0: fa61 a2bb 0216 10bc 1afb 1cbd e23b e73d
000000b0: aac7 fcbd 7e38 55bd 1f6b 80be d297 8e3d
000000c0: 22b6 993d 96a2 16bd cdda f7bd 274f 553d
000000d0: b843 2e3d aafa 42be 7cdd 0abe 485b a2bd
000000e0: c934 9d3e 8ec4 29bd 07ac 2d3e b033 3dbd
000000f0: 1870 82bd fc60 7f3e 9b48 e3bc afd3 24b9
00000100: b5f8 5c3e a24d 44be d94d b13d ed1f 993e
00000110: 8f26 afbb b3b4 c6bd 1a85 28be 0c0c 323d
00000120: 4b08 42bd 13d0 34be 0883 8f3d d801 393d
00000130: c90c d9bd 4539 28be 2d12 4a3e 2062 10bc
00000140: 8c3d 00be 72c2 01b9 a4c4 94bc 3d3c 44bd
00000150: 0884 3d3e 70e3 85bc b4b2 b4bd bf34 09be
00000160: 032e c53c b567 1ebd 84a4 653e 25a9 1a3e
00000170: ff9d 283e cf50 e43d 8fee 2e3e abb3 4f3d
00000180: 92f0 babb bbc3 fdbc 2118 ec3c bef1 59bd
00000190: 5944 e63d d1da 3fbe eb1e b7bd 6f51 3b3d
000001a0: b69e a5bd 5d62 333c 304b 7a3d 76ba 52bd
000001b0: 24f0 e33c c3be 05be f100 1f3e 28ff a23e
000001c0: 5aea 253e 29f7 003d 0b6b 9d3e e2d4 00be
000001d0: 9c63 4cbe 2e5a 503d bedc 093e a5a1 8dbd
000001e0: 800d 5f3e 4a4c 143e 853a e93d 5267 3d3d
000001f0: 865b 5fbb 7beb 0cbd a1be 0cbe 22bc 6fbe
00000200: eb97 e93d d517 f83d fe94 43be 2668 cbbd
00000210: b406 e0bd eade 2abd f8cc d2bd e02a d2bd
00000220: f96e bdbb 532d 21bd 164f 513d 3ec3 cf3c
00000230: b085 ca3d 41d0 0bbd 743d dfbd ceb9 073d
00000240: a826 e13d 44f5 1ebe aaa3 e83c 53eb 273c
00000250: 04c5 af3e f712 e3bd 6208 b8bd 7bfd 7a3e
00000260: 75e5 173e f2a7 6c3d 5cc7 0a3e 39a8 d9bd
00000270: 2da3 9abd bf32 40bd 57f3 59bc 3a14 a03e
00000280: d13a fabd aa4b 0abe 38b2 83be 37b7 b23d
00000290: e90a 99bc 1841 93bd 83c5 553e 0c27 1bbe
000002a0: 288d e63c 1e68 c1bd 7c2c 2dbe a1ee 07bc
000002b0: 4dc9 9eb9 d75e 90bd a61b 513d 08d1 163c
000002c0: 23e3 2d3c c100 7d3d 3400 f73c 4cbb 1b3e
000002d0: 12fa f13d 7556 7ebe 98a0 143e 3eff f2bc
000002e0: 5be0 9f3d 1725 1c3d 918a c13d d2b9 d13c
000002f0: 1b19 2cbe 65c9 d7bd f9b2 093e 7ed8 303c
00000300: 2893 d4bd 6292 103d f87e 013d 4af5 3b3e
00000310: b261 99be 52d1 3cbd 8f60 113d 2ca0 24be
00000320: ebf1 60bd 9bd3 8cbd 699f 483e 24da 2a3e
00000330: 1ebc 0f3d 90cf 273e 3f96 e23b d94f 0b3e
00000340: 2a0c 023e 4b6c 12be 86a7 bd3d c21f 973d
00000350: f287 91be 1bb1 dcbd b653 6c3d b0a5 d5bc
00000360: 8f9c 2f3d fcc9 f63d ca33 1a3e c0e6 3a3e
00000370: af22 d3bd 34fa 483e 2d4a 2d3e d77b 80be
00000380: 2f20 a43c 8147 683b a4c8 bcbd a16e 32bd
00000390: 86b8 51bd d5f2 23bd ee26 123c bef5 f93d
000003a0: 2ea7 0fbd 4948 1dbe ab81 343e 2f76 463e
000003b0: 692b 613d 337b 043e 4eaf a03d dbc7 9f3d
000003c0: 49b6 b9bd 5409 0f3e b619 773d 970c 22bc
000003d0: 559c abbd e23f c33d 2b21 3dbd c42b e93d
000003e0: 67bc aebc 7872 833b ac0d cf3d 23ce 92be
000003f0: 07e6 ebbd 49fb b1bd e473 4dbd cc64 9a3b

features_extractor.encoder.4.bias f4 [16]
-0.019625446 -0.038300663 -0.027988924 -0.03175008 0.028738933 -0.002422674 -0.031087456 -0.019850688
-0.023367012 0.007399641 -0.009057456 -0.0018777967 -0.005246097 -0.018454788 -0.03715089 -0.016547788
00000000: 8bc5 a0bc 28e1 1cbd 0749 e5bc 5f0c 02bd
00000010: e96d eb3c bac5 1ebb 1fab febc e99d a2bc
00000020: 2d6c bfbc b078 f23b b965 14bc 6720 f6ba
00000030: 74e7 abbb 7f2e 97bc 882b 18bd 3a8f 87bc

features_extractor.policy_net.0.weight f4 [64, 1024]
-0.04448542 -0.13936494 -0.08322127 -0.10278358 -0.005804271 0.034375537 0.110269114 -0.038166862
0.021711193 0.10007728 -0.037410907 -0.045380857 0.08390171 0.015812285 0.039355446 -0.08338863
-0.062729076 0.07681576 -0.027588015 -0.07279226 0.026709862 0.05925823 -0.0036898572 -0.07466324
0.09621372 0.1052443 0.007634639 0.0058341497 0.061076503 -0.017916959 -0.08673632 0.00032439496
0.072751015 -0.013753656 -0.09227493 0.014488909 0.010153111 -0.004286391 0.09693724 -0.022897335
-0.09563067 -0.02938513 -0.056272328 0.0469907 -0.08474953 -0.0031286192 0.010513497 0.0348519
-0.098941475 0.021790525 -0.007670299 0.08646962 0.04829649 -0.06402838 -0.020361952 -0.0026862845
0.017011583 0.0075435042 0.004864166 0.034469843 -0.03500669 0.073630095 0.098777644 -0.050551616
0.022972291 0.009726339 -0.03622421 -0.13211311 -0.06799003 0.09120481 -0.029570863 -0.12343599
0.05493773 -0.0070000137 0.017631402 -0.030288728 0.06865851 -0.1171412 -0.10840534 0.020833787
-0.03693322 0.011177381 0.0026640322 0.06518794 -0.062983975 0.009408365 0.07023495 0.15746191
0.016777921 0.09133373 0.06782927 -0.027958717 -0.028816512 -0.07098671 -0.028426867 0.033532698
-0.03998942 -0.019609783 0.06936972 -0.014672529 0.037024423 -0.011653859 0.05325575 0.036743537
0.081937216 -0.10596181 0.0058726636 -0.0064728553 -0.09545597 0.012630123 -0.016362946 0.06297186
-0.06731219 0.012282381 -0.0313155 0.017985145 0.019505596 0.054149177 -0.04640322 0.15236849
0.08007635 0.12649259 -0.052672785 0.11338116 -0.017423943 0.0660948 0.035376523 0.03144435
0.024173906 -0.062327277 -0.084808215 0.037307397 -0.057703927 -0.07231224 0.050914153 0.009092684
-0.17659661 -0.033915684 -0.08954076 0.046777885 0.025906043 0.04459081 -0.02035375 -0.054906037
-0.04960722 0.051188514 0.04853375 0.0144537985 -0.1157789 -0.014830801 0.058068454 -0.04201024
-0.040660325 -0.010660676 0.06542834 -0.059577566 -0.011255837 0.039026782 0.1401528 -0.036297515
0.044351887 0.036006805 0.03312757 0.05960946 0.01191575 0.06484014 0.033901107 -0.044682708
0.0082297595 -0.015937056 -0.07699861 -0.033351988 -0.06269497 -0.026722493 -0.03587804 -0.123972446
0.013723444 -0.12065839 -0.018988596 -0.11865751 -0.031164384 0.023942439 0.05108334 0.17596292
0.15653533 0.11199936 -0.01657876 0.02600291 0.015961396 0.029976506 0.051495735 -0.10859659
-0.07705758 -0.06850123 -0.052418116 -0.09325578 0.030381411 -0.003230133 0.0047272826 0.03474822
-0.09723159 0.010760942 0.037643883 0.024366926 0.039422363 -0.08915148 -0.1697255 -0.015264737
0.0033434385 -0.0217298 -0.075064175 -0.0376526 0.13166064 -0.0070706564 -0.032158196 0.11985521
-0.033289004 0.009128917 0.015128973 0.070623 -0.09722268 0.011581105 0.020457616 -0.010127134
0.067065574 -0.05622781 -0.0053296555 0.06941008 0.09078523 -0.021779584 0.023198564 -0.0074814367
-0.04995681 -0.12991866 -0.0007391557 0.06773498 -0.022159776 0.0072711604 -0.036066495 -0.0069619496
0.038805686 0.08923831 0.014307109 0.08578811 0.030915905 0.033549562 -0.03200962 0.018244978
0.12795027 0.09293585 0.1271606 -0.009552543 0.011634778 0.057066448 0.083374046 0.086243704
00000000: 5836 36bd afb5 0ebe ea6f aabd 3380 d2bd
00000010: c131 bebb 5dcd 0c3d c6d4 e13d db54 1cbd
00000020: acdb b13c 51f5 cc3d 2e3c 19bd 47e1 39bd
00000030: a9d4 ab3d c488 813c 2d33 213d a8c7 aabd
00000040: 1a78 80bd 9551 9d3d 4300 e2bc 1c14 95bd
00000050: a4ce da3c c2b8 723d 88d1 71bb 0ae9 98bd
00000060: b30b c53d 538a d73d fe2b fa3b 652c bf3b
00000070: 5b2b 7a3d 96c6 92bc d0a2 b1bd 8e13 aa39
00000080: 7cfe 943d 0457 61bc a3fa bcbd e462 6d3c
00000090: 3c59 263c db74 8cbb 0887 c63d 3193 bbbc
000000a0: 03da c3bd 16b9 f0bc d07d 66bd 5279 403d
000000b0: 2991 adbd 8509 4dbb cd40 2c3c dec0 0e3d
000000c0: d4a1 cabd 0b82 b23c 2257 fbbb fc16 b13d
000000d0: 8ad2 453d 5021 83bd 1cce a6bc 600c 30bb
000000e0: e05b 8b3c 802f f73b 9563 9f3b 4030 0d3d
000000f0: 2d63 0fbd 60cb 963d ef4b ca3d 360f 4fbd
00000100: 6330 bc3c 395b 1f3c d65f 14bd a948 07be
00000110: 5b3e 8bbd 96c9 ba3d 983e f2bc 02cc fcbd
00000120: 6306 613d 5f60 e5bb bb6f 903c 1120 f8bc
00000130: d59c 8c3d bae7 efbd 9e03 debd 9eab aa3c
00000140: 4a47 17bd 5521 373c 0b97 2e3b 4181 853d
00000150: befd 80bd 8b25 1a3c 57d7 8f3d b23d 213e
00000160: da71 893c 2e0d bb3d 13ea 8a3d ae09 e5bc
00000170: 9b10 ecbc 7b61 91bd 76df e8bc 9559 093d
00000180: f2cb 23bd b2a4 a0bc b611 8e3d 0c65 70bc
00000190: eca6 173d d4ef 3ebc b422 5a3d 6480 163d
000001a0: b3ce a73d 8102 d9bd 796f c03b 3f1a d4bb
000001b0: 6b7e c3bd 93ee 4e3c 960b 86bc 64f7 803d
000001c0: f9da 89bd 0a3c 493c af44 00bd 9555 933c
000001d0: 33ca 9f3c 87cb 5d3d 4e11 3ebd 7c06 1c3e
000001e0: 12ff a33d 4687 013e 6bbf 57bd 6234 e83d
000001f0: a8bc 8ebc b65c 873d f9e6 103d cacb 003d
00000200: 5b08 c63c e34a 7fbd eeaf adbd a4cf 183d
00000210: f45a 6cbd 7118 94bd 5c8b 503d 7bf9 143c
00000220: bed5 34be 2ceb 0abd 2561 b7bd 2b9a 3f3d
00000230: e938 d43c daa4 363d e8bc a6bc 27e5 60bd
00000240: f130 4bbd 0cab 513d 53cb 463d a0cf 6c3c
00000250: 7d1d edbd e3fc 72bc 30d9 6d3d ee12 2cbd
00000260: 718b 26bd 1eaa 2ebc 4bff 853d 9b07 74bd
00000270: 676a 38bc 8cda 1f3d 3784 0f3e b4ac 14bd
00000280: 53aa 353d df7b 133d c6b0 073d 0d29 743d
00000290: 473a 433c e8ca 843d e3db 0a3d 3705 37bd
000002a0: 1dd6 063c 6e8e 82bc 72b1 9dbd 189c 08bd
000002b0: 3866 80bd 21e9 dabc daf4 12bd 44e5 fdbd
000002c0: 4cd8 603c bf1b f7bd f98d 9bbc b502 f3bd
000002d0: 734c ffbc ef22 c43c c43c 513d a02f 343e
000002e0: cc4a 203e ec5f e53d 2ed0 87bc 0e04 d53c
000002f0: 79c1 823c 4a91 f53c 31ed 523d e467 debd
00000300: 5dd0 9dbd 5f4a 8cbd 61b4 56bd e3fc bebd
00000310: 70e2 f83c a4b0 53bb 52e7 9a3b 2654 0e3d
00000320: 5b21 c7bd a94e 303c 7930 1a3d 269d c73c
00000330: 5879 213d 0d95 b6bd 85cc 2dbe f318 7abc
00000340: 971d 5b3b b202 b2bc 3fbb 99bd 9d39 1abd
00000350: 0cd2 063e f7b0 e7bb 50b8 03bd a676 f53d
00000360: 0d5a 08bd 7491 153c 83df 773c cba2 903d
00000370: af1c c7bd adbe 3d3c bb96 a73c 47ec 25bc
00000380: ad59 893d 224f 66bd 64a4 aebb df26 8e3d
00000390: 9bed b93d 196b b2bc ea0a be3c d726 f5bb
000003a0: 839f 4cbd 6609 05be e6c3 41ba a3b8 8a3d
000003b0: 6b88 b5bc ea42 ee3b 76ba 13bd 1121 e4bb
000003c0: b6f2 1e3d 93c2 b63d 5d68 6a3c adb1 af3d
000003d0: 5a43 fd3c 446b 093d 851c 03bd 7e76 953c
000003e0: 6505 033e 2755 be3d 6336 023e 4582 1cbc
000003f0: cc9f 3e3c 82be 693d 03c0 aa3d 8aa0 b03d

features_extractor.policy_net.0.bias f4 [64]
0.015227777 0.012054893 -0.009854498 0.010147158 0.025829274 0.023247246 0.0033366347 0.005303158
0.02302588 -0.04953963 -0.0074389456 0.00821902 -0.007129335 0.025821216 0.0017529621 -0.0012506159
0.032641657 0.030990994 0.006327811 0.004824741 -0.004729957 -0.043576486 0.020847064 0.01290598
0.011709777 0.017498475 0.008581811 0.005941379 0.033270855 0.0032266376 0.019179838 0.018768692
-0.009907086 -0.01220242 0.0060077356 0.0016572931 -0.008340703 0.012214928 0.014258065 -0.006987578
0.019440891 0.003144008 -0.008785684 0.015333886 -0.0107272295 0.02189071 0.010543862 -0.0039306534
0.019166898 0.009349087 -0.0070690205 0.018866291 0.01760455 0.017387053 0.0016277385 0.013840116
-0.00021730988 -0.012841584 0.0045191473 -0.008733719 0.03137295 0.034741104 0.015516155 0.012769091
00000000: ed7d 793c e381 453c c374 21bc 4440 263c
00000010: ea97 d33c 0271 be3c 71ab 5a3b 1dc6 ad3b
00000020: c5a0 bc3c 11ea 4abd 66c2 f3bb 12a9 063c
00000030: 329d e9bb 0487 d33c a6c3 e53a b5eb a3ba
00000040: 42b3 053d d3e0 fd3c 8759 cf3b dc18 9e3b
00000050: c1fd 9abb 427d 32bd 76c7 aa3c 9b73 533c
00000060: 5dda 3f3c f658 8f3c b99a 0c3c e6af c23b
00000070: 0547 083d ff75 533b 091f 9d3c cdc0 993c
00000080: 5551 22bc a9ec 47bc 8adc c43b 8739 d93a
00000090: 72a7 08bc 1f21 483c a99a 693c 0df8 e4bb
000000a0: 8142 9f3c b40b 4e3b d4f1 0fbc fb3a 7b3c
000000b0: 43c1 2fbc 2554 b33c 2ac0 2c3c b6cc 80bb
000000c0: e603 9d3c ea2c 193c 3ea3 e7bb 7b8d 9a3c
000000d0: 6b37 903c 4b6f 8e3c d759 d53a a7c1 623c
000000e0: addd 63b9 8265 52bc 5b15 943b df17 0fbc
000000f0: ec80 003d b04c 0e3d 7937 7e3c 7335 513c

features_extractor.policy_net.2.weight f4 [64, 64]
-0.27014107 -0.06031479 -0.03737721 0.3494615 0.02273368 0.16620846 0.025480762 0.017223075
-0.0531527 0.31961328 -0.23487966 0.014204921 -0.04902061 -0.14675668 -0.24999338 -0.23803394
0.15883301 0.01709465 -0.07980538 0.08087454 0.05352182 0.098713025 0.098988965 -0.35144183
-0.11174966 -0.08260479 0.22228678 0.083280176 0.088853665 0.012862402 0.060943983 -0.0022477214
0.041035496 0.15582074 0.19276041 0.41421288 -0.21639864 0.20668706 0.06450556 -0.14964186
-0.33035448 -0.21799275 0.22687763 0.11504754 0.025646392 -0.08551161 0.44922274 -0.0073979013
-0.36331493 0.2682676 -0.031582996 0.09773304 -0.038958684 -0.046265822 0.26449272 -0.14563094
-0.14049211 0.22084978 0.1859371 -0.09879521 0.01913503 0.27975142 -0.2645292 0.050591234
-0.072194636 0.01929477 0.009465638 -0.28037992 -0.029769475 -0.08922209 -0.2121489 -0.12851706
0.08432868 -0.03503731 0.22455274 -0.045453683 -0.08357911 0.053429577 -0.05775652 0.22150865
0.1164929 0.20554057 -0.21058024 0.3260786 -0.057907753 -0.004887844 0.21205652 -0.16339323
0.06713111 0.17344786 -0.120041 -0.20309253 0.07050971 0.017729118 0.27541313 0.54723793
0.25121123 -0.01876078 -0.053837217 0.020130973 0.032899115 -0.15606883 0.004487137 -0.15229596
-0.044104308 -0.025746536 -0.04611557 -0.118152365 -0.29717487 0.008206081 -0.18802002 -0.045553904
-3.720653e-05 -0.13257417 -0.08032187 0.15427038 -0.290535 0.006494285 0.3632521 0.15040872
0.07343606 -0.3933969 -0.1210219 0.054983035 -0.21044359 -0.013872825 -0.095453314 0.20336905
-0.039763287 -0.02727355 0.20351775 0.16863373 0.084960245 -0.13300827 0.21878184 0.2754322
-0.24157973 0.4800578 -0.049060367 0.27136102 0.04176958 -0.06672694 -0.07207766 -0.27839276
-0.17424317 0.002576435 0.32595062 0.18650368 0.18771778 0.10327809 0.15463887 0.007049305
-0.01666797 -0.16677068 0.036300965 -0.15158671 0.07662943 -0.2898048 -0.1702693 -0.10514293
-0.1499039 0.0576299 -0.16314778 -0.029352657 0.2626959 -0.2789654 0.22934777 0.071749575
0.078516304 0.11036894 0.24083233 0.15135945 0.29411468 -0.055090882 0.3663459 -0.12477431
-0.44169557 -0.11024064 0.08372696 0.08811013 -0.65305716 -0.17015664 -0.15926397 -0.3270728
-0.061468758 -0.085188955 0.1506289 0.073623665 -0.06028505 0.08887189 -0.01207722 0.056532454
-0.39054498 -0.09482129 -0.089079715 0.044514284 0.24547148 -0.2732823 -0.23414722 -0.073220216
0.0053888992 -0.014977136 -0.18047632 0.13061674 -0.22327502 -0.038546506 0.05063223 -0.31491888
0.20716392 -0.15618536 0.13515511 -0.1223783 0.19552559 0.1507445 0.8026444 -0.2902374
-0.12103763 -0.36422905 0.17277755 0.019761497 0.19241287 -0.28906977 0.062025312 -0.0466562
-0.18135317 -0.25974235 -0.22065018 0.0050175968 -0.030738277 0.16550735 0.054412704 -0.03621083
-0.085839905 -0.044803556 0.35725957 0.22701187 -0.12912875 0.2914142 -0.08522926 -0.33440176
-0.23016112 0.030612266 0.07094397 0.17847958 -0.026046945 -0.18056175 0.080392845 0.055970803
-0.014322846 -0.1516383 0.16371925 -0.032623775 0.19092982 -0.13990104 -0.16106074 -0.044482518
00000000: ee4f 8abe a40c 77bd d818 19bd 9eec b23e
00000010: fc3b ba3c 8d32 2a3e 08bd d03c 6817 8d3c
00000020: a5b6 59bd 5aa4 a33e 4b84 70be c2bb 683c
00000030: d6c9 48bd 6247 16be 44fe 7fbe 2bbf 73be
00000040: 1fa5 223e 140a 8c3c 0171 a3bd 8da1 a53d
00000050: b239 5b3d 0e2a ca3d baba ca3d 2ff0 b3be
00000060: 01dd e4bd b32c a9bd 259f 633e cc8e aa3d
00000070: e9f8 b53d d3bc 523c 66a0 793d 824e 13bb
00000080: d614 283d 798f 1f3e fc62 453e b613 d43e
00000090: 9b97 5dbe c6a5 533e 7e1b 843d b73b 19be
000000a0: 3924 a9be 7e39 5fbe 9c52 683e 0b9e eb3d
000000b0: 6218 d23c b620 afbd 8600 e63e 186a f2bb
000000c0: 6a04 babe 5f5a 893e 2c5d 01bd 4328 c83d
000000d0: 2493 1fbd 3b81 3dbd 976b 873e 4720 15be
000000e0: 2add 0fbe 7226 623e 4c66 3e3e 2555 cabd
000000f0: 11c1 9c3c 943b 8f3e 5f70 87be c138 4f3d
00000100: c8da 93bd 1110 9e3c c315 1b3c f58d 8fbe
00000110: 1ddf f3bc 12ba b6bd 903d 59be fa99 03be
00000120: 84b4 ac3d 4883 0fbd 27f1 653e a42d 3abd
00000130: 862b abbd f9d8 5a3d 1a92 6cbd 2ad3 623e
00000140: d493 ee3d 3a79 523e 59a2 57be c6f3 a63e
00000150: ae30 6dbd 352a a0bb 5825 593e 8e50 27be
00000160: 097c 893d 519c 313e 0ed8 f5bd 7df7 4fbe
00000170: 6567 903d a83c 913c f302 8d3e c917 0c3f
00000180: c29e 803e 35b0 99bc 6a84 5cbd b6e9 a43c
00000190: 39c1 063d 82d0 1fbe d508 933b 79f3 1bbe
000001a0: b8a6 34bd 66ea d2bc aee3 3cbd def9 f1bd
000001b0: 4e27 98be cc72 063c 5288 40be bb96 3abd
000001c0: 350e 1cb8 86c1 07be cb7f a4bd 0ef9 1d3e
000001d0: 01c1 94be 03ce d43b 2efc b93e be04 1a3e
000001e0: a565 963d 526b c9be 54da f7bd e435 613d
000001f0: 867e 57be d84a 63bc 077d c3bd fa3f 503e
00000200: d4de 22bd c86c dfbc f566 503e 52ae 2c3e
00000210: a3ff ad3d 5233 08be 5908 603e 7305 8d3e
00000220: ad60 77be 23ca f53e 86f3 48bd d5ef 8a3e
00000230: 9416 2b3d 22a8 88bd 749d 93bd 7f89 8ebe
00000240: cd6c 32be 68d9 283b 00e3 a63e d2fa 3e3e
00000250: 1739 403e 7783 d33d a759 1e3e dbfd e63b
00000260: 448b 88bc efc5 2abe 52b0 143d 8c39 1bbe
00000270: e4ef 9c3d 4b61 94be 135b 2ebe 2d55 d7bd
00000280: 6880 19be 540d 6c3d 3610 27be fc74 f0bc
00000290: 1480 863e 8ed4 8ebe 24da 6a3e 71f1 923d
000002a0: 28cd a03d 1c09 e23d c09c 763e f9fd 1a3e
000002b0: 3396 963e faa6 61bd b191 bb3e ac89 ffbd
000002c0: ec25 e2be d8c5 e1bd 0a79 ab3d 1573 b43d
000002d0: c12e 27bf 8b3d 2ebe 1816 23be 1676 a7be
000002e0: aac6 7bbd 8c77 aebd 763e 1a3e 01c8 963d
000002f0: 75ed 76bd 7702 b63d 88df 45bc 938e 673d
00000300: 83f5 c7be aa31 c2bd 6d6f b6bd 9c54 363d
00000310: e05c 7b3e a8eb 8bbe 4ac4 6fbe 7bf4 95bd
00000320: 5d95 b03b a962 75bc c9ce 38be 65c0 053e
00000330: 35a2 64be f1e2 1dbd be63 4f3d 0c3d a1be
00000340: c722 543e 0eef 1fbe 1a66 0a3e 79a1 fabd
00000350: dc37 483e c45c 1a3e 1a7a 4d3f ff99 94be
00000360: 94e2 f7bd 3b7c babe 99ec 303e dde2 a13c
00000370: e107 453e f400 94be 410e 7e3d 921a 3fbd
00000380: a5b4 39be f3fc 84be 1ff2 61be a76a a43b
00000390: d7ce fbbc c27a 293e dbdf 5e3d cf51 14bd
000003a0: d5cc afbd ef83 37bd baea b63e cd75 683e
000003b0: 543a 04be 3e34 953e ae8c aebd b536 abbe
000003c0: 5baf 6bbe 93c6 fa3c 124b 913d 5ac3 363e
000003d0: 6760 d5bc 2ee5 38be 01a5 a43d a441 653d
000003e0: 5faa 6abc 1247 1bbe 05a6 273e 82a0 05bd
000003f0: 1b83 433e 3842 0fbe 1bed 24be 4d33 36bd

features_extractor.policy_net.2.bias f4 [64]
-0.0053501343 0.004634509 -0.0016749051 -0.00021365096 -0.0074306377 0.008267467 -0.0073753735 0.0024804922
0.00045227923 -0.0058654747 0.004179866 -0.00830552 -0.0031239048 -0.005921848 0.005527145 -0.00696202
0.008867751 0.008972432 0.005932101 -0.0067145517 0.005047549 -0.008097457 0.0050323904 0.0009564137
-0.0007223812 0.0087167565 -0.0028356286 -0.005558095 -0.008957608 -0.0024394854 -0.0076364223 -0.0015469759
0.009576945 0.005743745 0.008148886 -0.006911924 -0.0008145482 -0.0061529186 -0.0060287225 -0.007485339
0.008223105 -0.0023457292 0.0082940245 -0.0011335629 -0.0072690425 0.004005632 -0.0015157532 0.0010674528
0.0046646027 -0.005036262 -0.0032274965 0.013678851 -0.0060130493 0.0015607198 -0.0018391137 -0.0015800379
0.002073137 0.0028218639 0.0057776673 -0.009914041 0.00050985697 -0.0051856018 -0.0063800667 -0.004855272
00000000: 2e50 afbb 14dd 973b 7d88 dbba 7e07 60b9
00000010: b57c f3bb 4574 073c 1ead f1bb c18f 223b
00000020: e41f ed39 2b33 c0bb 42f7 883b e013 08bc
00000030: 6dba 4cbb 100c c2bb 0e1d b53b a821 e4bb
00000040: 0b4a 113c 1c01 133c 1262 c23b be05 dcbb
00000050: e965 a53b 32ab 04bc c0e6 a43b d6b7 7a3a
00000060: 2f5e 3dba bad0 0e3c f4d5 39bb ae20 b6bb
00000070: eec2 12bc c6df 1fbb f43a fabb e6c3 caba
00000080: 9ee8 1c3c 0636 bc3b e882 053c 6c7d e2bb
00000090: 6887 55ba 6c9e c9bb 978c c5bb 9347 f5bb
000000a0: 34ba 063c ceba 19bb a9e3 073c 0f94 94ba
000000b0: 2631 eebb ad41 833b 3dac c6ba c6e9 8b3a
000000c0: 86d9 983b 3a07 a5bb 6884 53bb 421d 603c
000000d0: 1d09 c5bb 1191 cc3a 6a0e f1ba 4619 cfba
000000e0: 78dd 073b 05ef 383b 9652 bd3b 806e 22bc
000000f0: eca7 053a fbeb a9bb e10f d1bb f918 9fbb

features_extractor.value_net.0.weight f4 [64, 1024]
0.07992398 -0.051854588 0.0396892 0.10337436 -0.096495755 -0.02988503 -0.038836867 -0.054554727
-0.086521626 -0.017915152 -0.012762549 0.062019747 0.007824586 0.01659266 0.0008738354 0.011385947
0.056315582 -0.018018536 -0.00866678 0.02295513 -0.008443196 0.061186798 -0.05311345 -0.06285963
-0.032834932 -0.07221943 0.031125858 0.09389632 -0.10057859 0.10184215 0.017751848 0.0107023725
0.00015604756 -0.049646668 -0.051202312 -0.00026438292 0.046245124 0.0817386 -0.08291465 -0.09876699
-0.043704253 -0.044602603 -0.044755206 -0.10198507 0.057748105 -0.072913 0.0276126 0.017451778
-0.021689491 0.004278054 -0.0024797209 0.00418131 0.032354064 0.0154711455 0.01765374 0.080399014
-0.0003880686 -0.030559374 -0.0071963696 0.04718141 -0.059167117 -0.016364727 0.08381542 0.096452914
-0.071208395 -0.03685761 0.00717088 -0.0473098 -0.07787122 -0.05323008 -0.04347142 0.0022276072
0.0034947128 -0.03162028 -0.034445185 -0.0036153563 0.03994881 -0.030695394 0.004229291 -0.06693718
0.024239913 0.008926264 -0.058193307 -0.011472088 -0.02774752 -0.019268254 -0.09262893 0.029167384
-0.029129675 0.022244146 -0.038122922 -0.086532064 -0.0464873 -0.009220908 0.008655121 -0.04893568
0.011470268 -0.030919425 0.022062019 -0.06384926 -0.06282024 0.022827776 -0.038503326 -0.10028393
0.028512366 0.07348101 0.07969101 0.026376326 -0.06448059 -0.04505158 -0.13869986 -0.090166084
-0.10052819 -0.06396375 0.017836588 0.0010410785 -0.078234926 -0.031680655 0.040939447 -0.005034301
0.07568608 0.006365842 0.04564554 -0.051669274 -0.04513906 -0.027063798 0.033669304 0.022518419
-0.05497951 -0.01440522 -0.0007679227 -0.014971711 0.079745896 0.026073992 0.10858238 -0.09765223
-0.012816766 0.03309237 -0.029250601 0.06616779 -0.03060199 0.08052631 0.0497716 0.026766166
0.05235139 -0.011741868 -0.050628204 -0.03729498 -0.04382086 0.060249373 -0.029941548 0.08085628
0.004402727 -0.0067217406 -0.028960096 -0.14518656 -0.05144543 0.029269883 -0.027333444 -0.09053246
-0.0068659154 0.029045898 -0.031962287 -0.07563413 -0.027946243 0.018321896 -0.07946592 0.03706033
0.03870734 -0.003692987 0.00080437714 -0.034032952 -0.0386677 -0.07888247 -0.090059355 -0.017202506
-0.053819414 0.04038266 0.06249696 0.028207354 -0.008091994 -0.13924627 0.029153341 -0.025720434
-0.051540602 0.045614842 0.046768107 -0.0024265177 0.022851167 -0.14473927 0.049386695 -0.0041478053
-0.050985295 -0.05414594 0.049187467 -0.018750427 -0.051268734 0.0423374 0.026817309 -0.012740256
0.040348172 0.05741867 -0.06603692 -0.05516991 0.07167097 -0.12807816 0.032637354 -0.018883796
0.005217485 0.07224295 0.0045339502 -0.02555232 -0.013178617 0.0009528439 -0.03882071 -0.014542026
0.0059249024 0.011182963 -0.067299165 -0.056881867 0.02584962 0.025919609 -0.0253029 -0.01809241
-0.048460886 -0.03635526 -0.0156806 0.019722741 0.018177453 -0.021714747 -0.042911746 -0.049116004
-0.09992097 -0.06269968 -0.014271489 -0.038903493 -0.0049564135 -0.060214676 0.053148784 -0.064821206
0.052608162 0.06104448 -0.031960092 -0.061210115 0.018139677 -0.059747335 0.07113773 0.06762891
-0.033242058 -0.0719628 0.0030587283 0.039849006 -0.045121003 0.0022969134 -0.02442257 0.053390868
00000000: 2faf a33d 7a65 54bd 2591 223d f0b5 d33d
00000010: 919f c5bd 73d1 f4bc 6813 1fbd c774 5fbd
00000020: 4032 b1bd ccc2 92bc 031a 51bc 6b08 7e3d
00000030: b132 003c 55ed 873c 1a12 653a 1f8c 3a3c
00000040: 2bab 663d 9c9b 93bc 1cff 0dbc 660c bc3c
00000050: 5555 0abc 029f 7a3d 7d8d 59bd 8dbc 80bd
00000060: ec7d 06bd c8e7 93bd a8fb fe3c b74c c03d
00000070: 26fc cdbd 9e92 d03d 536c 913c 0159 2f3c
00000080: b3a0 2339 4e5a 4bbd 84b9 51bd e09c 8ab9
00000090: 876b 3d3d 9166 a73d 28cf a9bd 5946 cabd
000000a0: 3b03 33bd 38b1 36bd 3c51 37bd 8cdd d0bd
000000b0: 4789 6c3d 6953 95bd d233 e23c 08f7 8e3c
000000c0: 29ae b1bc eb2e 8c3b d082 22bb 5f03 893b
000000d0: b285 043d b07a 7d3c 939e 903c 3da8 a43d
000000e0: b075 cbb9 a757 fabc 86cf ebbb 4b41 413d
000000f0: 3859 72bd 520f 86bc 6ba7 ab3d 1b89 c53d
00000100: b5d5 91bd 01f8 16bd b4f9 ea3b ecc7 41bd
00000110: f27a 9fbd c907 5abd 160f 32bd 0cfd 113b
00000120: 8d07 653b 4484 01bd 6516 0dbd 9def 6cbb
00000130: 5da1 233d e874 fbbc dd95 8a3b 5c16 89bd
00000140: c892 c63c 773f 123c 1b5c 6ebd 6df5 3bbc
00000150: c44e e3bc 75d8 9dbc 3db4 bdbd 70f0 ee3c
00000160: 5ba1 eebc 5b39 b63c c826 1cbd b937 b1bd
00000170: 7869 3ebd 4b13 17bc 35ce 0d3c c870 48bd
00000180: caed 3b3c bc4a fdbc 68bb b43c 67c3 82bd
00000190: e6a7 80bd 5101 bb3c aab5 1dbd a961 cdbd
000001a0: c492 e93c 367d 963d 0a35 a33d 2a13 d83c
000001b0: 660e 84bd 0188 38bd 5607 0ebe ffa8 b8bd
000001c0: b9e1 cdbd 6dff 82bd 091e 923c cc74 883a
000001d0: a239 a0bd 93c3 01bd 1fb0 273d c7f6 a4bb
000001e0: 4e01 9b3d 8e98 d03b d1f6 3a3d 29a3 53bd
000001f0: bce3 38bd e6b4 ddbc d3e8 093d 8c78 b83c
00000200: 3232 61bd df03 6cbc 6c4e 49ba e84b 75bc
00000210: d151 a33d 2099 d53c 7060 de3d e4fd c7bd
00000220: 6afd 51bc dd8b 073d f59e efbc fa82 873d
00000230: 06b1 fabc faea a43d 4edd 4b3d b844 db3c
00000240: 696e 563d f760 40bc 855f 4fbd 9fc2 18bd
00000250: 817d 33bd 0cc8 763d fa47 f5bc fa97 a53d
00000260: c044 903b 0c42 dcbb b93d edbc c9ab 14be
00000270: 71b8 52bd 65c7 ef3c 63ea dfbc 1569 b9bd
00000280: 79fb e0bb aaf1 ed3c e3ea 02bd 11e6 9abd
00000290: 85ef e4bc cd17 963c 07bf a2bd 93cc 173d
000002a0: 968b 1e3d 0a06 72bb d6dc 523a 2366 0bbd
000002b0: 0662 1ebd 228d a1bd 0a71 b8bd 45ec 8cbc
000002c0: bf71 5cbd 4a68 253d d0fc 7f3d 1c13 e73c
000002d0: 4894 04bc 9396 0ebe fdd2 ee3c a9b3 d2bc
000002e0: 3d1c 53bd a1d6 3a3d ea8f 3f3d 3606 1fbb
000002f0: 5f32 bb3c 8836 14be b449 4a3d 50ea 87bb
00000300: f5d5 50bd 22c8 5dbd cc78 493d 7f9a 99bc
00000310: 2aff 51bd fb69 2d3d f9af db3c 82bc 50bc
00000320: 2044 253d d72f 6b3d 5d3e 87bd d8f9 61bd
00000330: 3bc8 923d ec26 03be bfae 053d 31b2 9abc
00000340: 70f7 aa3b 1df4 933d 8891 943b 1953 d1bc
00000350: 20eb 57bc 46c8 793a 7702 1fbd ae41 6ebc
00000360: af25 c23b bf38 373c 25d4 89bd f6fc 68bd
00000370: 95c2 d33c 5c55 d43c 0748 cfbc 8936 94bc
00000380: ec7e 46bd 41e9 14bd 9a74 80bc 9691 a13c
00000390: e2e8 943c 20e3 b1bc 3ac4 2fbd dd2d 49bd
000003a0: 5ea3 ccbd b168 80bd f7d2 69bc 4559 1fbd
000003b0: 6969 a2bb aaa3 76bd 8ab2 593d fbc0 84bd
000003c0: a87b 573d c709 7a3d 96e8 02bd 75b7 7abd
000003d0: a999 943c 9fb9 74bd a8b0 913d 0781 8a3d
000003e0: d328 08bd 3c61 93bd f274 483b b638 233d
000003f0: cdd0 38bd d087 163b d711 c8bc 62b0 5a3d

features_extractor.value_net.0.bias f4 [64]
-0.069611765 0.04498052 -0.046767823 0.050585628 0.016006127 -0.040999506 0.03617968 0.03800952
0.052586254 -0.065754294 -0.03694555 -0.06232272 -0.06636403 -0.026907925 0.0011682287 0.029727018
0.0036137078 -0.054771427 -0.021875923 0.018783217 -0.065920256 -0.06183483 -0.030909814 -0.058225002
-0.010616062 -0.040875375 -0.06686371 -0.043448854 -0.062010847 0.0048202956 0.006694557 0.03904838
0.05339406 0.025951767 -0.00080767524 -0.051759306 -0.05239743 -0.0021954696 -0.012553678 -0.05304343
-0.05568711 -0.052277558 -0.023586338 -0.05697888 -0.06952443 -0.039149523 0.014812453 0.012644487
-0.06586781 -0.058003448 0.019917438 -0.053424682 -0.069769934 -0.040284846 0.019410482 -0.051065117
-0.045589186 0.04664919 0.043358356 -0.065787196 0.008594816 0.0019168237 -0.050331105 -0.0697772
00000000: 9d90 8ebd 7e3d 383d 9e8f 3fbd e032 4f3d
00000010: 481f 833c 19ef 27bd 2531 143d dfaf 1b3d
00000020: af64 573d 30aa 86bd 3854 17bd 1c46 7fbd
00000030: dde9 87bd 026e dcbc 401f 993a 1386 f33c
00000040: f5d3 6c3b 0158 60bd 2335 b3bc 43df 993c
00000050: 3301 87bd 8546 7dbd 9436 fdbc 577d 6ebd
00000060: feee 2dbc f06c 27bd d7ef 88bd 6df7 31bd
00000070: 16ff 7dbd 92f3 9d3b 045e db3b 32f1 1f3d
00000080: bbb3 5a3d cd98 d43c 2bba 53ba 9101 54bd
00000090: b09e 56bd dee1 0fbb f1ad 4dbc 1144 59bd
000000a0: 2b18 64bd fe20 56bd 2338 c1bc b062 69bd
000000b0: d362 8ebd 405b 20bd eeaf 723c d32a 4f3c
000000c0: b4e5 86bd 0695 6dbd e529 a33c d7d3 5abd
000000d0: 8ae3 8ebd b901 25bd bb02 9f3c a829 51bd
000000e0: babb 3abd 3913 3f3d 8898 313d 70bb 86bd
000000f0: 45d1 0c3c ee3d fb3a fd27 4ebd 59e7 8ebd

features_extractor.value_net.2.weight f4 [1, 64]
-0.24607198 0.026443126 -0.06550309 0.015960395 0.058488898 0.014325041 0.098544754 0.16606602
0.068736576 0.004479946 -0.066498645 -0.02358732 0.03551684 0.12100032 0.09366273 0.035133485
0.16097611 -0.17541066 0.06472722 0.016662648 -0.06414778 -0.10401439 -0.013504127 -0.40902758
0.046562318 -0.12930652 -0.122842796 -0.07487843 -0.0015931036 0.079291895 0.10396186 0.040440015
0.13794445 0.1156338 -0.042785373 -0.1470694 0.012528952 0.012530505 0.21582903 -0.018202398
-0.00776923 -0.014022986 -0.00075981737 -0.015766904 -0.016816992 -0.08472424 0.11461282 0.09706217
-0.08246691 -0.11638804 0.3511851 -0.14399664 -0.09382922 -0.0071834265 0.008549242 -0.17309937
-0.1232658 0.07128395 0.15369385 -0.032840513 0.016313273 0.13661839 0.023875771 -0.2904467
00000000: 4bfa 7bbe 419f d83c 7c26 86bd 60bf 823c
00000010: 0e92 6f3d 94b3 6a3c d5d1 c93d 360d 2a3e
00000020: c3c5 8c3d 83cc 923b 7130 88bd 323a c1bc
00000030: 1b7a 113d 04cf f73d 3fd2 bf3d 21e8 0f3d
00000040: ecd6 243e da9e 33be b48f 843d 1b80 883c
00000050: e95f 83bd 7f05 d5bd 6a40 5dbc 106c d1be
00000060: 21b8 3e3d ee68 04be 0195 fbbd dd59 99bd
00000070: b0cf d0ba ca63 a23d f5e9 d43d 6ea4 253d
00000080: 4f41 0d3e 6ad1 ec3d b73f 2fbd 5c99 16be
00000090: 3c46 4d3c bf4c 4d3c 4902 5d3e 321d 95bc
000000a0: 0695 febb abc0 65bc 7b2e 47ba 9829 81bc
000000b0: cac3 89bc e783 adbd 20ba ea3d 88c8 c63d
000000c0: 69e4 a8bd da5c eebd 89ce b33e db73 13be
000000d0: 8929 c0bd f362 ebbb 1f12 0c3c f640 31be
000000e0: c872 fcbd 52fd 913d ec61 1d3e c683 06bd
000000f0: 6aa3 853c b1e5 0b3e 1f97 c33c 6eb5 94be

action_net.weight f4 [2, 64]
-0.2596223 0.029160528 -0.09332522 -0.20442145 -0.121973656 0.12837693 -0.16652802 0.24697511
-0.14075361 -0.127375 0.2272404 0.08944523 -0.21185897 -0.15724036 0.14053291 -0.23158826
0.078035004 0.020102572 0.17791024 -0.06207153 0.0025129505 -0.032017216 0.15661548 0.072495736
0.17388819 0.23595731 -0.13214271 -0.13289043 -0.022933906 0.12129061 -0.028689146 -0.09216325
0.11961218 0.17521134 0.06478312 -0.063149124 0.19972259 -0.18470696 -0.19676785 -0.125496
0.16545095 -0.15177481 0.07368777 -0.16288167 -0.1937924 -0.06484649 0.024495654 -0.13374124
0.11848445 0.010091897 -0.09983257 0.0670689 -0.06636019 -0.12783508 -0.12286185 0.09577205
-0.0459275 0.019040208 0.10854951 -0.03963944 -0.16981676 -0.1804616 0.04692654 -0.2967841
-0.09688916 -0.052616253 -0.036459997 -0.13944368 0.18535459 -0.17382613 0.24911243 0.11729616
-0.16062035 -0.042109415 0.087285295 0.06874759 -0.089233845 0.047212586 0.04953474 0.16592385
-0.16064647 -0.07168242 -0.15214871 0.12843063 -0.16557088 0.18009138 -0.15688366 0.07902661
0.16009803 -0.018898463 0.03944498 0.16679375 0.12548718 0.21423723 0.11096773 -0.13650887
-0.18248694 -0.08132914 -0.176083 0.16657561 0.24306104 0.18412282 0.07210343 0.1849127
-0.1908486 -0.1466887 -0.16985501 -0.04788612 0.11169652 -0.19969666 0.1112409 -0.13243438
-0.0065512196 0.16566125 0.018618334 -0.08285669 0.22887248 -0.16603653 -0.105754614 0.16171904
-0.18890417 -0.06397644 0.0031924713 0.17090681 -0.1405965 -0.036320873 0.1395643 0.0010374582
00000000: 37ed 84be 0fe2 ee3c 4b21 bfbd db53 51be
00000010: 53cd f9bd 3e75 033e 5286 2abe 0be7 7c3e
00000020: b721 10be 986e 02be b5b1 683e 102f b73d
00000030: 8ff1 58be 9e03 21be dce7 0f3e 7925 6dbe
00000040: d1d0 9f3d 26ae a43c 1a2e 363e b73e 7ebd
00000050: 50b0 243b 7c24 03bd cf5f 203e a578 943d
00000060: bf0f 323e cb9e 713e 6b50 07be 6e14 08be
00000070: e3df bbbc 3667 f83d 8005 ebbc 16c0 bcbd
00000080: 3bf7 f43d 9a6a 333e 03ad 843d 5454 81bd
00000090: 1484 4c3e d223 3dbe 837d 49be 0682 00be
000000a0: f96b 293e db6a 1bbe 9de9 963d 74ca 26be
000000b0: 8471 46be 3dce 84bd 1cab c83c 77f3 08be
000000c0: faa7 f23d 7c58 253c 0575 ccbd 6b5b 893d
000000d0: dae7 87bd 33e7 02be fe9e fbbd 2324 c43d
000000e0: 791e 3cbd 36fa 9b3c 354f de3d f75c 22bd
000000f0: 72e4 2dbe edca 38be 0b36 403d 16f4 97be
00000100: d36d c6bd 2484 57bd 1457 15bd 53ca 0ebe
00000110: 98cd 3d3e 7aff 31be 5417 7f3e f838 f03d
00000120: a979 24be ec7a 2cbd a2c2 b23d 89cb 8c3d
00000130: 3cc0 b6bd fc61 413d f1e4 4a3d f1e7 293e
00000140: 8280 24be 3cce 92bd dfcc 1bbe 5283 033e
00000150: 6a8b 29be e069 383e 1ca6 20be b4d8 a13d
00000160: bdf0 233e f3d0 9abc 0f91 213d fbcb 2a3e
00000170: b67f 003e 0161 5b3e 0d43 e33d fbc8 0bbe
00000180: dbdd 3abe e48f a6bd 1a4f 34be cc92 2a3e
00000190: fee4 783e b18a 3c3e f7aa 933d c159 3d3e
000001a0: d16d 43be 9035 16be 79ee 2dbe 3c24 44bd
000001b0: 25c1 e43d 487d 4cbe 45d2 e33d e19c 07be
000001c0: 9dab d6bb 1aa3 293e 7a85 983c c5b0 a9bd
000001d0: 8c5d 6a3e 7b05 2abe e095 d8bd ad99 253e
000001e0: 1870 41be 1406 83bd c838 513b 3202 2f3e
000001f0: 87f8 0fbe 32c5 14bd f2e9 0e3e 52fb 873a

action_net.bias f4 [2]
-0.038232397 -0.027438408
00000000: 9399 1cbd 83c6 e0bc
