weights/cnn-nd-1-eps-200.pth (torch, 568288 bytes, 16 tensors)

log_std f4 [2]
00000000: cb34 ab3d 2ac8 de3d
0.08359679 0.10878022

features_extractor.encoder.0.weight f4 [16, 1, 3, 3]
00000000: 991e 963e 0015 a63e b318 39bd 05b2 ac3e
00000010: a70a 07bd 2fb5 ce3d e1d1 00be b5f2 6d3e
00000020: ca81 a73e fd5d 4fbe aa85 ad3e 4bfa c23d
00000030: a081 903e d70d b33d d593 4a3e 4579 f2bb
00000040: bf65 9b3e 6bf1 bb3d c5e1 68be 53bf 143e
00000050: c922 d8bd 86a2 e9bd d750 aebd cbcb 883e
00000060: 9e8e 87be 3e93 78be c3c7 08be 221d 52be
00000070: 13fb 8fbc 47f4 adbe 5971 953e 65f0 a3be
00000080: 4468 793e ff84 3c3d 6d73 14be 2359 3e3e
00000090: 9c1a c03d 4433 9e3e 07aa 7f3d e621 6ebd
000000a0: 56fb 123e 16aa 3ebd 6d9b 473e 5bc9 b53e
000000b0: 1852 763e e35b 35be 5f1a 2c3e 09b3 393d
000000c0: 2cc1 063e f1c9 6fbe fceb 9dbe 939b f6bd
000000d0: 8795 95be e913 a53e 3b93 013e f56d 383e
000000e0: 6c26 0f3e 1a49 a43c f396 983e faea 54be
000000f0: bd7d 793d 7eb5 4dbe 0edf 0c3e a310 3abe
00000100: d424 b03d 8cef 5ebd 4b92 a83e e8a7 7ebe
00000110: a65d 27be 64a8 7ebe febd 983e 0b37 d23d
00000120: 08dd 913e 885a 92be 4787 acbe f939 a3be
00000130: 22aa 33be dc6f 863e e5e3 ca3d 7ce7 aa3e
00000140: 6619 f8bd dcca 5dbe 5aff 6c3e e9a9 0fbe
00000150: e90f 993e bdc3 bcbd b9f7 383e a7c5 0ebe
00000160: a179 fdbd 1ec5 e23d 2352 b13d 223e 4fbd
00000170: 122b 623e c452 803e d451 55be bfdc 21be
00000180: d400 af3e d9be 8bbd 09ff bbbd db22 a5be
00000190: b078 43be 5c88 aa3d f836 34bd e3c4 77be
000001a0: e01a 003c 9328 69be 04cb 90be a3f5 3bbe
000001b0: 96a9 76be 011f 4bbe a7ac a93e f05c c93d
000001c0: c4cd 283e bd1b b6be 9629 42be f71d 86bd
000001d0: beaf 7f3d 5a2c 96be 9b52 2cbe 7658 4cbe
000001e0: 6d07 dabd c005 febd 27bb 96bd 304c 67be
000001f0: 204a 6abe 6e22 47be 1a1e b2bd 2bc9 6abe
00000200: c6dd a33e 67a7 ffbc 3047 af3e 59ba 1f3e
00000210: 3818 70be 923a 8e3e e5cc 2cbd 376a ccbd
00000220: 8c5e c0be e77c 9dbe e737 ae3d fece 65bd
00000230: d5ab 793e 6b2b 6dbe d7d8 ca3e 00c8 fcbd
0.2932022 0.32437897 -0.04518957 0.33729568 -0.032969143 0.10093152 -0.12580062 0.23237117
0.3271621 -0.20250697 0.3389104 0.09520396 0.28223896 0.08742874 0.19782956 -0.0073997104
0.30351064 0.09176906 -0.22742374 0.1452611 -0.1055351 -0.11407952 -0.08511513 0.26717982
-0.26475996 -0.24274918 -0.13357453 -0.20518926 -0.017575776 -0.3397543 0.2918804 -0.32019344
0.2435618 0.046025272 -0.14497156 0.1858869 0.09380075 0.30898488 0.06241801 -0.058137797
0.1435369 -0.046548925 0.19492884 0.35505185 0.24054754 -0.17710833 0.16806935 0.045336757
0.13159627 -0.23416878 -0.30844104 -0.12041392 -0.29215643 0.32241753 0.1265382 0.18010695
0.139795 0.020054389 0.29802665 -0.20792761 0.06091093 -0.20088765 0.13756964 -0.18170409
0.086007744 -0.05442767 0.32924113 -0.24868739 -0.16344318 -0.24868923 0.29832453 0.10264405
0.28488946 -0.28584695 -0.33696958 -0.31880167 -0.1754537 0.26257217 0.09906749 0.33379734
-0.12114219 -0.21659416 0.23144284 -0.1402966 0.2989495 -0.092170216 0.18063249 -0.13942586
-0.123767145 0.11072753 0.086582445 -0.050596364 0.22086743 0.25063145 -0.20831996 -0.15806864
0.3418032 -0.06823511 -0.091795035 -0.32253155 -0.19089007 0.0832679 -0.043997735 -0.241962
0.0078189075 -0.22769384 -0.2827989 -0.18355422 -0.2408813 -0.19836046 0.33139536 0.098321795
0.16484743 -0.35568038 -0.18961176 -0.06548684 0.06242346 -0.29330713 -0.16828386 -0.1995562
-0.106459476 -0.124034405 -0.07359915 -0.22587657 -0.22879839 -0.19446728 -0.08697148 -0.22928302
0.32005137 -0.031207753 0.34234 0.1559843 -0.23446739 0.2777906 -0.04218759 -0.099811964
-0.37572134 -0.30759355 0.08506756 -0.056105606 0.24381955 -0.23161094 0.3961856 -0.123428345

features_extractor.encoder.0.bias f4 [16]
00000000: dfbd 97bc 4f83 3b3d 4edf 513e 3c3f 913e
00000010: c544 8a3e 079c 6abe e82f 2e3d 48b6 fcbd
00000020: f7c4 0dbc 441e 75be 38c4 8d3e 9385 7abe
00000030: 6844 1f3e 65f2 223e 1ba4 ba3d 6db7 05bd
-0.018523155 0.045779523 0.2049534 0.28368556 0.27005592 -0.22911082 0.042526156 -0.12339455
-0.008652917 -0.23937327 0.27688766 -0.24465017 0.15553439 0.15912779 0.09113332 -0.03264563

features_extractor.encoder.2.weight f4 [16, 16, 3, 3]
00000000: 6038 b93d 4e38 563d 3ee8 4b3d 2ce8 90bd
00000010: b45e 463d b3b7 da3b 0d06 5dbd e2a7 8e3d
00000020: 7a75 a23c c7a7 0abd 9115 e4bb c579 023d
00000030: 3a2d 513d 4c38 fdbb acc1 0dbd 868f 2abd
00000040: f924 8bbd 3c64 fe3c 9656 9b3d b37c dcbd
00000050: f18e c33b 9bee 113d 0511 a0bb 96ec 40bd
00000060: 4e7e 543d 5f67 033d 10be 0a3d 1e29 a6bb
00000070: 8403 1abd 5824 90bc 0b15 96bc 9d9a 5bbd
00000080: 1276 563c 54e1 933d df3a 45bc c32c 8fbc
00000090: 5148 003c 9cc6 843c a904 3f3d 4121 c83c
000000a0: 4933 8bbd eb52 9bbc 4245 863d d950 fc3c
000000b0: d2c4 f1ba a3f5 f0bc 46cf 16bd 7f34 a9bc
000000c0: 35cf 273d c4c5 e53d 173b f03d a760 e93d
000000d0: 70c4 7abd dedb 81bc 091a 13bc 1072 da3d
000000e0: 41b5 503d 273e edbb 9b91 883d 8362 be3a
000000f0: 234a 7abd f9f2 8a3d a04e 29bd 8562 343c
00000100: 41f1 edbc d99c b73d 1025 bd3d 64d5 073e
00000110: 9a4e 55bd 2e67 98bd c877 073d 1ea8 103e
00000120: 6271 d53d 9147 1a3d c8dd 7f3d b7b7 8e3d
00000130: e780 0bbb 372d 6dbd f1bd b5bd c43e 1bbc
00000140: 11a8 f13d 5c7c 353d 417c 063e 7176 68bc
00000150: 973b 763d a143 d93d 59ad e8bc 6238 9e3c
00000160: 2d0b 8a3d 6552 463d d29a 28bd a478 88bd
00000170: 42d0 66bc a629 2fbd 65e7 83bc 5686 a6bd
00000180: c146 1c3d 3afa 5cbd 1f2a 1c3d 46e4 1a3d
00000190: 16dc 733d 04e9 82bd 627c 753d ab5d 21bd
000001a0: 0c51 fd3c 8d46 a03d 388e 40bc 80f0 28ba
000001b0: 0e53 37bd 46ea 8cbd df9b 3ebb 3e62 85bd
000001c0: 9b6c 833d a1b3 833d acdc ac3d 6279 64bb
000001d0: 9475 9bbd 078a bfbb 5dad f03c c226 f7bd
000001e0: 2d29 16bd 1183 a5bd 4c7b b1bc 599d 4bbd
000001f0: 6d9a 12bd d55b 2dbd 01ac 93bd 684d c03d
00000200: 1f40 a73d d2e1 b0bb 9e2a 15bc 38b4 95bc
00000210: b6b1 93bd 1020 adbd 0411 e83c 0c07 f83d
00000220: fd6e 28bd 10fa bc3d c002 06bd 29ed 3fbd
00000230: 74e0 7f3d 8405 dfbd bf45 b33a 86e1 a63d
00000240: d580 cfbd d7ab bf3d f24e 813c d68e 6c3c
00000250: 2456 09bd 597b 103d 7187 b33d 5e5b 213c
00000260: f807 11be 19b5 95bb 87a7 d23d b0f1 8b3d
00000270: 7b9c 413d 1659 c23d 62c9 203b d89f 623b
00000280: 9276 c1bd 5410 82bd 9db1 d93d f8dc b63d
00000290: 4add 8abd 5bd5 5abd 22cd 11ba bcf8 88bd
000002a0: 47b9 29bd 520c fe3c 90bd da3d bc29 163d
000002b0: 400e 82bd ad2c a3bd 3109 a53d 033e a2bd
000002c0: 47ca cdbc 2be0 803d 03aa 4fbc ff41 4d3c
000002d0: 2260 08bd 829b bbbb a32e 7cbb e292 acbd
000002e0: b7a0 91bd 3fae 17bd 503e 963d 26e5 89bd
000002f0: df86 b4bd 502f 083d dcdb 133e ad0f af3d
00000300: c1ff 193d 6c15 783d 18a3 c8bd cdf6 b93d
00000310: 02f5 143d 8106 b8bd 9afb b5bd 3253 8d3d
00000320: 7b04 4d3c d1c0 7dbd bc67 8dbd 5c77 873d
00000330: 8175 673d e0fe 55bc a5c1 0cbd 01e9 4dbc
00000340: df68 71bc 104b 5a3d 6bc1 0e3e 2589 df3d
00000350: e448 a9bc 3a0c 493c f3df f8ba bffe 9ebd
00000360: 3c88 123c ece1 353c 4acb dc3d 4d96 b3bc
00000370: 1043 d23c fafb 95bd 2714 0d3d fea2 6e3c
00000380: 7066 ff3c b4af a53d dce0 70bd b14a e8bc
00000390: c137 843d 8160 c33c fccd c4bc c823 3fbd
000003a0: 285a e33d 448d 23bd 5f95 233d 7dd9 8bbd
000003b0: 3d05 72bd 1113 4e3d e33f 8c3c c48e 3bbd
000003c0: bbc7 16bb c3e3 3b3d 27c8 10bb 0068 763b
000003d0: 3001 a8bc d28d 9abd 7a78 a0bd 9829 23bd
000003e0: ce81 2dbd f0af d43c 4cbb c6bc 8389 05bd
000003f0: e383 ed3d 3c6e 743d 0e79 883d d59f 22bd
0.09043956 0.05229979 0.04978203 -0.07075533 0.04843016 0.0066747307 -0.05396085 0.06965615
0.019831408 -0.03385141 -0.0069605787 0.03185441 0.051068522 -0.0077276584 -0.034608528 -0.04164078
-0.06794161 0.031053655 0.07584874 -0.10765972 0.0059679677 0.035627943 -0.0048848414 -0.047100626
0.051878266 0.032081004 0.033872664 -0.0050708195 -0.03760101 -0.017595455 -0.018320581 -0.053614248
0.013089674 0.07220712 -0.012037962 -0.017477399 0.007829742 0.016207986 0.046635304 0.02442992
-0.06796891 -0.018960437 0.06556179 0.03080027 -0.0018445498 -0.029414004 -0.036818765 -0.020654915
0.040969092 0.112193614 0.117300205 0.11395388 -0.061222494 -0.015851911 -0.008978375 0.10666287
0.050954107 -0.007240075 0.06668397 0.0014525208 -0.06110586 0.067846246 -0.04133475 0.011009817
-0.029045703 0.08965463 0.09235585 0.13264996 -0.052076913 -0.07441555 0.033073217 0.14126632
0.10422017 0.037665907 0.062467366 0.069686346 -0.0021286549 -0.05790445 -0.08874119 -0.009475414
0.11799634 0.04430805 0.13133337 -0.014188395 0.060115423 0.10608602 -0.028402971 0.019313995
0.06740413 0.04841842 -0.041163273 -0.066636354 -0.0140877385 -0.04276433 -0.016101548 -0.08131091
0.038153414 -0.053949572 0.038126107 0.037815355 0.059536062 -0.063921005 0.059933074 -0.03939597
0.030922435 0.078259565 -0.011752658 -0.00064445287 -0.04475694 -0.068806216 -0.0029084606 -0.06512879
0.06417199 0.06430746 0.08440527 -0.003486239 -0.075907856 -0.0058453116 0.029379541 -0.12067939
-0.036660362 -0.080816396 -0.021665238 -0.049710605 -0.035791803 -0.042323906 -0.072105415 0.09389764
0.08166527 -0.0053980136 -0.009104399 -0.018274412 -0.0721163 -0.08453381 0.028328426 0.12110719
-0.04112147 0.09227383 -0.032717466 -0.046857033 0.062469915 -0.10889724 0.0013677402 0.08148484
-0.10131995 0.09358948 0.015784714 0.014438352 -0.033529416 0.035273883 0.08766068 0.009848444
-0.14163196 -0.0045687077 0.102858596 0.068332076 0.047268372 0.09489648 0.0024534096 0.0034580138
-0.094464436 -0.063507706 0.1062958 0.08928865 -0.06780489 -0.053426128 -0.0005561878 -0.06688067
-0.04143646 0.031011734 0.106806874 0.036660895 -0.06350374 -0.079675056 0.08058394 -0.07921984
-0.025120867 0.06292757 -0.012674811 0.012527942 -0.033294804 -0.005725325 -0.0038479946 -0.08426453
-0.07110732 -0.03703141 0.07336104 -0.0673316 -0.08814787 0.033248246 0.14439338 0.08547912
0.03759742 0.060567304 -0.09796733 0.09080277 0.03636647 -0.089856155 -0.0888588 0.06900634
0.012513275 -0.061951462 -0.069045514 0.06614563 0.056508545 -0.013061255 -0.03436436 -0.0125677595
-0.014734476 0.05329424 0.1394097 0.1091483 -0.02066464 0.012270981 -0.001898764 -0.07763433
0.008943614 0.011101227 0.10780962 -0.021922255 0.025666744 -0.07323451 0.034443047 0.014565228
0.031176776 0.08090153 -0.058808193 -0.028355928 0.06455947 0.023849728 -0.024024002 -0.046664983
0.1110118 -0.039929643 0.039937373 -0.06828592 -0.059087027 0.050311152 0.017120307 -0.04579045
-0.0023007232 0.045871507 -0.0022091956 0.003759861 -0.020508379 -0.07546581 -0.07835479 -0.03983459
-0.04236012 0.0259628 -0.024259232 -0.032601845 0.11597421 0.05967544 0.06663714 -0.03970321

features_extractor.encoder.2.bias f4 [16]
00000000: 1708 b83b 9dfa debc c6fc 8f3d 5d36 40bd
00000010: 955a 933d 78d3 98bd 1a0b 06bd 6642 a0bd
00000020: d517 53bd 13ce 9c3c 0fb4 87bd a715 92bd
00000030: b8be 3b3d ab31 463d 523d 75bc d4a3 99bd
0.0056161988 -0.027219111 0.070306346 -0.046926845 0.071950115 -0.074622095 -0.03272543 -0.078251645
-0.0515364 0.019141233 -0.0662614 -0.07133036 0.04583618 0.04838721 -0.014968233 -0.07501951

features_extractor.encoder.4.weight f4 [16, 16, 3, 3]
00000000: 1969 eabb 0b97 223b b801 0b3d 641b 43bc
00000010: b9b1 543c 2fb7 53bd 8a9d 77bd 6f27 5f3d
00000020: cafd 913d 9e4f 823d 8e64 3abd b26a c03d
00000030: 0dd4 cc3b cf2e 41bd 88c0 66bd 8643 38bc
00000040: 008d 7a3b e05b 4e3d 4f40 183d 65f9 82bc
00000050: 1b87 653d 420d 30bd 1fb5 46bd ee33 893c
00000060: 4472 93bd 6454 aabc d711 9abd 4060 a1bb
00000070: 00f2 4d3a 462e b1bc 333e 69bd b2d2 9a3d
00000080: e631 e2bc d2a9 223d 42b5 6d3d b860 60bd
00000090: 2ec6 3bbd e517 fd3c 2b5c 7f3d fe9a 79bd
000000a0: 54d2 8f3b a776 cdbd 0b0d 69bd 5e8c 183d
000000b0: 23ec 3fbd 9fc4 b53d 2004 3c3d d356 8bbc
000000c0: 8691 a33d 973d ef3d 1680 293d 5932 ccbd
000000d0: 3002 dcbb 0a6b 2dbd 1e5a a23d 2a9b 363d
000000e0: 8dc8 093d f5e9 503d 6e89 4d3d d7a3 23bd
000000f0: 2631 b23d 2277 853d f0ea 4abd 48e3 ac3d
00000100: 118c 943d d99b dc3c 82af c9bd a625 d9bc
00000110: 2825 b6bd 93a2 883d 09a3 803d 5099 1ebd
00000120: f35a af3c 3f1e babd 1eee 1abd 3cba f2bc
00000130: 1a1b 833c dc97 263c 20d2 803d 4934 183d
00000140: a566 a9bc 6b90 993d 58b1 cc3d 41ba 1d3d
00000150: fbb4 3dbd 650c 3d3d 29b8 573c 3b01 a53d
00000160: d15f 253d 4c9b 603c 0e5a cf3c 9a53 b43d
00000170: b4a3 903b 7ad7 b33d 1adf a33d d906 5ebd
00000180: 681a edbb 4f51 7cbd d46f 80bd 5e64 db3c
00000190: 210e 5b3d 64af 103d b967 973d 3ee8 eabc
000001a0: c46a a13b 8e6d 35bd df68 0c3c b460 b93b
000001b0: 7307 cb3d 4873 5e3c ea54 2dbc abb8 d03b
000001c0: 4f1e c33d b611 7e3d 2251 9c3c b1f0 863c
000001d0: 723a a83d f1a9 3a3d c5be 4c3d aecc 3abc
000001e0: 6e3f d7bd c223 9cbd 5a61 bd3c b489 7d3d
000001f0: 36e1 2fbd e2dc 423d 17f6 51bc a99f 7cbc
00000200: 3b29 08bc 2f53 e8bc 6ac9 793d 57ca 703c
00000210: f967 883c 0c24 b4bd 1dce 6ebd a4cb 38bd
00000220: d1dc c2bc a7a0 db3c 179a c7bc 77f1 04be
00000230: 5dec c7bc 66ea 2bbd 4423 d2bd d6be aabc
00000240: fde6 92bc 3b76 d33d bd54 56bd 6942 ef3c
00000250: 266e 9b3d ea30 7bbd 918e 293d 90a0 613c
00000260: 0472 b43c 6fbb e53d d393 97bc d414 92bd
00000270: 8158 0f3d 1f0c f4ba 3570 b7bc 9749 65ba
00000280: bf38 a1bd 7e8f cf3b 957f 8abc bcd0 5fbc
00000290: ca1f f5bd f7f2 683d d06c c1bc 6004 47bd
000002a0: 28d9 b53c ee66 0fbc 621d 1d3a 508e c13b
000002b0: d0d2 a63c b62d 54bd e834 66bd 7b6c a5bd
000002c0: fbff af3c 033d 5cbd 8019 d03b 1caf 98bc
000002d0: 8eeb fabd b616 88bd 6bf5 f6bd feb7 68bd
000002e0: cacb 20bd 579c d5bd 8a91 b7bd 64bc 403d
000002f0: 9a43 83b9 b294 103d 8537 193d 2c00 763d
00000300: b974 8cbd 5ac6 13bc 24cd 82bd ccaf 123c
00000310: 8688 373d a7ca b8bd 0e83 863d c297 5bbd
00000320: a23b 853d 1859 1dbd 8d19 9c3c 736b 9c3b
00000330: 550b a0bc d303 f63d 9232 84bd 01e7 d23c
00000340: 2e9d d2bc 2d2b e53c 59cf cd3d 8bff eb3d
00000350: b83c d23b dad9 edbc a714 0b3e 34bc 003d
00000360: 48d1 273d 4ee0 36bd d7c1 93bd e915 a9bd
00000370: c97b 613d 5dd8 a43c b6cc e1ba 957f 79bc
00000380: e04e 73bc c424 fb3c 89a4 603d 5713 31bd
00000390: 71da 303d ec3d 08bc 9dd5 a23c 049a 75bd
000003a0: 99e8 8d3d 5478 a93d f0d7 ef3d df52 333d
000003b0: 16bc 113d 1fb0 cd3d bbdc 093d 0e73 eb3c
000003c0: 7e6d d33c 953c cf3d b009 303d 350c 9bbb
000003d0: 0556 103d 6f10 0fbd 341c d73c 87b6 32bd
000003e0: 2f5b 523d 0aee 9ebc b8ae 933d c1c3 5b3d
000003f0: 5945 223c cd19 aa3d 9002 1d3d d5a4 9bbd
-0.007153642 0.0024809267 0.033937186 -0.011908386 0.0129818255 -0.05168837 -0.060452975 0.054480966
0.071284845 0.06362842 -0.045506053 0.093953505 0.0062508644 -0.04716378 -0.056335956 -0.011246568
0.0038231015 0.050380588 0.037170704 -0.015988061 0.05603705 -0.042981394 -0.048512574 0.016748395
-0.07199529 -0.020792194 -0.07522934 -0.004924804 0.000785619 -0.02162851 -0.056944083 0.07559718
-0.027611684 0.039712735 0.05803419 -0.05477974 -0.045843296 0.030895183 0.062343758 -0.060938828
0.0043890867 -0.10032397 -0.056897204 0.03724324 -0.046856057 0.08875393 0.04590237 -0.017009174
0.07986741 0.11681669 0.041381918 -0.099705406 -0.006714128 -0.04233841 0.07927345 0.04458157
0.033638526 0.05100437 0.05017989 -0.03995117 0.087007806 0.065168634 -0.04954046 0.08441788
0.07253278 0.026929783 -0.098479286 -0.02650721 -0.08893806 0.066716336 0.062810965 -0.03872043
0.021405673 -0.090878 -0.037824742 -0.02962982 0.016004134 0.010168042 0.06290078 0.037159238
-0.020678828 0.07498249 0.09994763 0.038507704 -0.046315175 0.0461544 0.013166466 0.08056875
0.04037458 0.013708901 0.025311496 0.08805008 0.004414046 0.08781333 0.080015376 -0.05420575
-0.007235814 -0.06160098 -0.062713295 0.026781257 0.05348027 0.035323516 0.073928304 -0.028675195
0.0049260575 -0.044293933 0.008569925 0.00565728 0.0991353 0.01357729 -0.010579327 0.0063696704
0.09527265 0.06202861 0.019081656 0.016472192 0.082142726 0.045572225 0.04998662 -0.0114013385
-0.10510145 -0.07624008 0.02311771 0.061898902 -0.042939387 0.04757393 -0.01281502 -0.015418925
-0.008310611 -0.028359978 0.0609831 0.014696679 0.01665114 -0.08795938 -0.058302034 -0.04511608
-0.023786934 0.026810003 -0.024365468 -0.12982737 -0.024404699 -0.041971587 -0.10260633 -0.02084295
-0.01793241 0.10325285 -0.052326906 0.029206472 0.075893685 -0.061325945 0.041395728 0.013771191
0.022027023 0.11217391 -0.018503105 -0.07132879 0.034996513 -0.0018619335 -0.022392372 -0.00087466225
-0.078721516 0.0063342443 -0.016906539 -0.013660606 -0.11968954 0.056872334 -0.023611456 -0.048588157
0.022198275 -0.008752568 0.0005993453 0.0059068576 0.020364195 -0.051801406 -0.0562028 -0.08077332
0.021484366 -0.053769123 0.006350696 -0.018638186 -0.1225196 -0.06644957 -0.120585285 -0.056816094
-0.03925685 -0.1043021 -0.08963306 0.047054663 -0.00025036634 0.035298057 0.037406463 0.060058758
-0.068582006 -0.009019459 -0.06386784 0.008953046 0.044807933 -0.09023028 0.065679654 -0.053611524
0.06505515 -0.038415045 0.019055152 0.004773551 -0.019536654 0.12012448 -0.06454958 0.025744917
-0.025709715 0.02797469 0.10049314 0.1152335 0.0064159296 -0.029034544 0.13582097 0.031429484
0.04097107 -0.044647507 -0.072147064 -0.08256132 0.05504969 0.020122701 -0.0017227146 -0.015228172
-0.014850348 0.03065718 0.054844413 -0.043231335 0.043177072 -0.008315545 0.01987725 -0.059961334
0.0692913 0.08274904 0.11711109 0.043780204 0.035579763 0.10043358 0.03365777 0.028741386
0.025809046 0.10118977 0.04297799 -0.00473168 0.035238285 -0.03492778 0.026258565 -0.043631103
0.05135649 -0.019400615 0.07211059 0.053653482 0.009904229 0.08305702 0.038332522 -0.075997986

features_extractor.encoder.4.bias f4 [16]
00000000: 3458 9abd 01aa 63bd 43d3 d53b a6c5 15bd
00000010: d797 f23c f0ae 5fbd 6bce 10bc f7b5 edbc
00000020: 8b7b b6bc dfa3 423d 8bdd 95bc 458c d1bc
00000030: 0015 2bbd 7ea1 6ebd 9756 87bd 157c 4e3c
-0.07536355 -0.05558205 0.0065254285 -0.036565445 0.029613419 -0.054610193 -0.008838276 -0.029017432
-0.022275707 0.04751956 -0.018294116 -0.025579581 -0.041768074 -0.05825948 -0.066083126 0.012602826

features_extractor.policy_net.0.weight f4 [64, 1024]
00000000: ef8d 1bbc ecf2 abbc 17a2 983d 542b 343c
00000010: 85fa 683d 878a 2ebd 6649 71bc 2100 093d
00000020: f4ce c63b ff60 3c3d 8ce5 173d 61ce a83d
00000030: 303d 7e3d 88f2 863c 65f0 08bc 801d abbd
00000040: c5b4 0e3d f8f7 8f3c 213f a5bc df12 d03c
00000050: 6b6c 543c 4dc7 f93c 1752 813d c16e a63c
00000060: de84 103c 408f edbc af23 6bbd f51a ebbc
00000070: 767a 33bd c078 a6bd f768 923d 1b61 f73c
00000080: 2029 debc 7ea2 e4bc 88d8 413d 7ee8 a63b
00000090: cdef a73d 6439 0f3d eb20 afbc f9b6 63bd
000000a0: 58a9 14bd 3403 59bd 658f a7bc 78f4 f1bd
000000b0: 19e0 adbc f05a bd3c 79bc 85bc e649 883c
000000c0: 24e7 91bc d3da 5cbd add1 08bd 49fe 223d
000000d0: c4c7 c4bb e675 c0bd 84aa 63bc c32a c73c
000000e0: 4c83 d03b 6374 5abd ae32 35bd 0672 8e3c
000000f0: 7ea1 19bb c233 74bd d236 863c cef7 863d
00000100: 4c33 fabb 60df 6b3d 367b ca3d 1614 8e3d
00000110: ef9e be3c 66c5 eabb cb30 a8bd bca4 1abd
00000120: 85a6 0d3d 4c5b 6f3d 48a2 68bb 8b02 953c
00000130: a491 f73c 97e5 e13c 2b76 80bc e5b1 41bd
00000140: a1da e83c 2fc5 dcbb fcd6 14bd edae 11bd
00000150: 58e0 c3bc 2786 cc3b 4c86 da3c 9741 ccbc
00000160: 07c0 7e3b ba84 a6ba 793d d6bc d839 8dbc
00000170: aadb c3bc 568f 833c d6ff 583d 40b3 37bd
00000180: 09b7 05bd cc26 fb3c 9cd3 3abc 6fe7 29bd
00000190: 20d7 06bc f748 5dbc 1853 33bb 1072 3c3c
000001a0: c2bf 3abd 2035 8abd bf2e 76bc 8d45 36bd
000001b0: 4e82 60bc 3fdc 47bd d2d6 dd3c 45e9 253d
000001c0: 45b6 4e3c 05fe 18bd 59a2 ebbc 53f4 053d
000001d0: 9e87 a4bd 88fa a6bd 29a3 3f3d b5df fcbc
000001e0: 441d 8c3c 530b 84bd 6341 5cbd b277 7f3d
000001f0: 9e34 31bd a070 d4bc b2ad ad3d 2bfc 963d
00000200: fe90 d83c 2d1e 8e3c 93d3 8c3d 6296 933d
00000210: 0de1 913d fb73 913c 8044 30be 6ee4 4dbd
00000220: c47e 333d 0cbe 683d 4614 f7bc de64 5d3c
00000230: 5bde a03c 6ae3 383d b966 ed3c fefe 89bd
00000240: 1e2c b13d d3a9 f6ba cb2b 2a3b fca8 b1bc
00000250: 0392 6a3c 7d84 2e3a 448d b13c a4bb dabc
00000260: 9e1c 803c f662 c83c 9438 e8bc f643 8ebd
00000270: 7efd 3cbd 4486 c039 d4ac 8e3c 0410 79bd
00000280: 85a3 6bbd 2ef2 11bd 463e 3c3a 5972 363c
00000290: 7ee5 693d 2b72 18bd 0f64 92bd 2d48 9c3d
000002a0: 4567 78bd abdf 4ebd 7077 3ebd 9bf9 8fbc
000002b0: e73e 62bc 2e62 d0bc 66f9 2bbd 57b5 8139
000002c0: 924d ef3c 4e58 07bd 0b61 433c 17de b33d
000002d0: 0118 2ebd 4871 85bd 9c1a a5bc 6c9a 3cbb
000002e0: b011 b2bc 0c0e e83b bef4 b8bc 4cfd 4cbd
000002f0: 39a4 1b3d e711 24bd 00ca 24bb fb93 983d
00000300: b5f8 23bd 9639 e03c b9c1 653d 0910 d13d
00000310: 0116 b73d e6c7 323d 051f a4bb abac d3bd
00000320: 362f 823d 2f89 063d fa04 bc3c 7d00 aebc
00000330: 55f7 783d 1e5e 55bd d13c 823d b6af 5b3c
00000340: 484f 223d ca7e d6bb 1188 6abd 4977 bebd
00000350: 38e7 e7bb b3ec 40bb e206 d03c 10e1 bc3c
00000360: 9379 2f3d 9149 9bbc 50cf d83c 09b9 5fbc
00000370: bae1 a03c dc41 9fbc 8a2b d13c bbeb 65bd
00000380: 0a1d 6c3b 912d c43c 7a23 b2bc fa70 99bd
00000390: 1f6c 07bd 2680 873b ea2b 4cbd 82d3 083d
000003a0: 9702 b73c c813 8cbd 0a87 95bd e9eb d93c
000003b0: 18cf a4bc 4d97 8fbd acbf 14bd 7c8f 09bd
000003c0: 1cc1 a83b e697 74bb 1777 ed3b 81e9 9f3d
000003d0: 0bdc f73c 38d5 75bd a34b 903c 4224 043d
000003e0: 4b9a c93c 0aca 3cbb 0b8c dabc 50c7 08bd
000003f0: 32fe f33c 0cde 8ebd 7139 123d 4947 fc3c
-0.009494289 -0.020989858 0.07452791 0.010996658 0.05687954 -0.04261258 -0.014726972 0.03344739
0.006067151 0.04599094 0.037084147 0.08242489 0.06207007 0.01647307 -0.008358096 -0.08355236
0.034840364 0.017574295 -0.020171704 0.025399623 0.012965302 0.030490542 0.063144855 0.020316483
0.0088207405 -0.028998971 -0.057407077 -0.028699378 -0.04381796 -0.081285 0.07148927 0.03019767
-0.02711922 -0.027909514 0.04732564 0.005093633 0.08200035 0.03496684 -0.021378001 -0.05559442
-0.03629431 -0.05298157 -0.020454118 -0.11814207 -0.021225022 0.023114651 -0.016325222 0.0166368
-0.017810412 -0.053919625 -0.033403087 0.039793286 -0.006005259 -0.09397487 -0.013895635 0.024312383
0.006363308 -0.05333365 -0.044237785 0.017388355 -0.0023442204 -0.059619673 0.016383562 0.06590234
-0.0076355096 0.057586074 0.09886782 0.06937425 0.023269145 -0.007164645 -0.082124315 -0.03775476
0.034582634 0.058436677 -0.0035497118 0.01818969 0.030220814 0.027575297 -0.015681347 -0.047288794
0.028424563 -0.0067373733 -0.036337838 -0.035567213 -0.023910686 0.006241578 0.026675366 -0.02493362
0.0038871781 -0.001270435 -0.02615236 -0.017239496 -0.023908455 0.016059559 0.05297836 -0.04484868
-0.03264526 0.030658148 -0.011402991 -0.041480478 -0.008230001 -0.013506166 -0.002736276 0.011501804
-0.04559303 -0.06748414 -0.015025794 -0.044499923 -0.013702942 -0.048794027 0.027079973 0.040505666
0.012616699 -0.037351627 -0.028763937 0.03270371 -0.080336794 -0.08153254 0.04678646 -0.03086839
0.017103799 -0.064474724 -0.053773295 0.06237001 -0.04326307 -0.02593261 0.084803954 0.07372316
0.026436325 0.017348373 0.06876292 0.072064176 0.07123003 0.0177555 -0.1721363 -0.050266676
0.043822065 0.056821868 -0.030161034 0.013512818 0.019637277 0.045138754 0.028979646 -0.06738089
0.08650993 -0.0018818922 0.0025966044 -0.021687023 0.0143170385 0.00066573155 0.021673806 -0.026700802
0.015638646 0.02446125 -0.028347291 -0.06946556 -0.046140186 0.0003672113 0.017416395 -0.06080629
-0.05752899 -0.03563135 0.00071809103 0.011135661 0.057103626 -0.037218254 -0.07147991 0.07630954
-0.06064536 -0.050506275 -0.046500623 -0.017575076 -0.013808942 -0.02543744 -0.04198589 0.00024739906
0.029211793 -0.0330432 0.011924992 0.08782595 -0.04250336 -0.06515747 -0.02015429 -0.0028778566
-0.02173695 0.0070817526 -0.02257764 -0.05004625 0.03799841 -0.040056136 -0.0025144815 0.074501
-0.040032107 0.02737121 0.05609295 0.102081366 0.08939744 0.04364767 -0.0050085806 -0.10335668
0.06356661 0.032845672 0.022951592 -0.021240467 0.06078275 -0.05209171 0.06359256 0.013408592
0.03962639 -0.006545876 -0.05725867 -0.093000956 -0.007077124 -0.0029437959 0.025393907 0.023056537
0.04284055 -0.018955978 0.026466042 -0.013654956 0.019638885 -0.019440584 0.025533456 -0.056133013
0.003602805 0.023947509 -0.021745432 -0.07492252 -0.033062097 0.0041351495 -0.049846567 0.033404835
0.022340102 -0.068397105 -0.07301147 0.026601749 -0.020118281 -0.0701128 -0.036315605 -0.033584103
0.0051499736 -0.0037321984 0.0072468626 0.07808209 0.030256292 -0.060017794 0.017614191 0.03226114
0.024609705 -0.0028806948 -0.026678106 -0.033393204 0.029784296 -0.06975946 0.03569931 0.03079571

features_extractor.policy_net.0.bias f4 [64]
00000000: 40b1 8b3c 0c0c ecbb 30cf f93a 7ca6 093c
00000010: 678b 12bd 2ecc 7dbc 7fe7 b33a 0064 793c
00000020: 2f0a d9bb 31a5 1a3d c360 263c 73a3 a73b
00000030: ae95 32bc 265e ac3c 45a8 0abd fa8c 713c
00000040: 20a5 b73c 196b 13bb a436 f9ba f1ea fbba
00000050: e4e0 0c3d 92e2 3f3c 31a0 6fbc 9c87 83bd
00000060: 9efe a73c cf9b a23c dc38 56bc 3f9d d9bc
00000070: 005b 873c 92f4 a03a be5c cfbc 1998 ba3c
00000080: 1885 36bc 8f45 a83c b9e4 b0bb c5ed 903c
00000090: e252 40bc 2299 84ba f5eb c43c 67ce 643c
000000a0: 5e85 fb3c d838 433b e585 063c 1e93 1ebc
000000b0: 40f0 a43c 5890 4b3c cb5a eb3c 0323 ef3c
000000c0: 5b21 50bb 6b47 20bd 051a aa3c 8bbe cc3c
000000d0: bf41 453d 9101 713c a5dd 53bc bee6 87bc
000000e0: 3cfd 123d 49ae 023c 4d08 7c3c b6b2 26bc
000000f0: 6351 80bc cf3a e53c 7164 f2b9 a859 8bbc
0.017052293 -0.0072035845 0.0019058939 0.008401509 -0.035777476 -0.015490575 0.0013725607 0.015221596
-0.0066235284 0.037755195 0.010154906 0.00511592 -0.010899944 0.021040987 -0.03385188 0.014743084
0.022417605 -0.0022494255 -0.0019013477 -0.0019219798 0.03439416 0.011711733 -0.014625595 -0.0642235
0.020507153 0.019849686 -0.01307508 -0.026564239 0.016522884 0.0012279919 -0.025312778 0.022777604
-0.01114013 0.02054098 -0.0053983596 0.017691502 -0.011738511 -0.0010116438 0.024038294 0.013965226
0.030703243 0.002978852 0.008210634 -0.00967863 0.020134091 0.012424551 0.028729817 0.0291915
-0.0031758163 -0.03913061 0.02076436 0.024993202 0.048158403 0.014709846 -0.012931262 -0.016589519
0.035886034 0.007976123 0.015382838 -0.010174444 -0.015663808 0.027982144 -0.00046232672 -0.017010525

features_extractor.policy_net.2.weight f4 [64, 64]
00000000: 74ab ba3c 828c a9bc 77a2 2e3d 2a01 90bd
00000010: bfa2 513e 533c 1d3c efc2 363d a5fb dfbb
00000020: ed66 d9bd c1b1 223d 5f5b d63d 5b9a eb3d
00000030: 7516 63bd b503 3dbd c0e6 b63d 16a5 b43d
00000040: 633e 62bd 6ebd 803d 2797 533d 13e7 3a3e
00000050: 9a22 1dba 0a99 113e a0fe e0bd f7a5 1fbd
00000060: 6856 0bbe dd50 07be f654 47bc 6121 033d
00000070: a7e4 573d b41b 02bd c90c e73d 7b76 4a3d
00000080: 3d48 46bc 5846 ad3c 4b64 b4bd 3c03 83bd
00000090: 1185 3fbe ce6b 09be f68c b03d 87a1 993d
000000a0: bfcb 483d 8c85 073d 6b11 24bd a15d 3cbd
000000b0: ec69 c03d c0c2 353d b7c3 193e a772 ec3c
000000c0: 5606 a33d 78c0 f0bd 9887 d8bc ba99 38bd
000000d0: 899b 153e e79d 063e e978 0ebd 9131 3dbd
000000e0: 2938 1abe 9f26 44bb 36bb 7cbd 54ee febc
000000f0: 6a08 4e3d 0d63 393d 92d9 5c3d 2b6d 20be
00000100: 1945 933d 2b7a b7bd 5a66 573d 256a 713d
00000110: bfe2 e53d e85b 453d 48ed 353e bfb5 f6bc
00000120: 2fa0 fe3c 76c3 c93c 2aaa 8bbd 451a c6bb
00000130: b7fe 35bd 6df7 393d 438a 5dbd eeab d03c
00000140: 8664 99bd 096d b23d b2fc 0abe 543b 72bd
00000150: f55a 7ebd 1967 393d a32b 52bd 8196 21bc
00000160: a108 46bd c9fa 0c3d e2b6 63bc 6dd1 ca3d
00000170: 3f66 913d d27b ae3d 77e3 ee3d 9d61 383d
00000180: fe60 e1bd 99bf 6ebd 6de7 98bc 882a 313c
00000190: ee84 19be b2ba 2bbd 058d d9bd 41d6 1e3d
000001a0: 8ad5 9fbc 15bc 7fbd 9570 81bd e783 37bd
000001b0: b452 063d f620 0f3e 8779 3a3d 9e22 0e3e
000001c0: 29cb 40bd 14d6 1c3b a22d ee3d 869c f7bd
000001d0: 5415 3ebd 9db8 dc3d 924d 2bbb 43dd 793d
000001e0: 7cb0 29be 5577 9ebd 834a 8d3d b038 84bc
000001f0: 807b 0e3e 35fb 02be bf02 9ebc 27d3 afbd
00000200: 0949 9c3d bcde 76bd 894b 363d 9a4b 0d3d
00000210: 0334 c13d 9314 10be 948d 89bb aaa2 913d
00000220: bbde 03be 6c5f ecbb 2cf2 b83c dfa6 88bb
00000230: 7738 19be 1a63 92bc f51a 303e 2ef8 bf3d
00000240: efda 103e a0b4 f03d 9a1d 3ebc 311e f23d
00000250: d50c bd3d 13a4 c03c ca79 12be 3125 e6bd
00000260: db3a 4ebd 1868 67bc 76f7 8ebb 1914 713c
00000270: d344 23be 6e65 1dbe 3b8d e23d 2c29 8d3d
00000280: e206 76bd b4e9 083e 01f8 16be 5777 6c3d
00000290: 68fc 09be 8381 fd3c efed a3bd a754 babc
000002a0: 27ec bf3c e4c7 babd 245c 66bd 6a63 56bd
000002b0: 51a2 febc b2ae d3bc e215 253d a3ee d63d
000002c0: 74f6 70bd e567 f2bd 0bb1 06bd 5e20 3f3d
000002d0: 6602 3dbc 1d5f a53d 44f0 1bbd 2efa e3bd
000002e0: c6d6 87bd 5496 aebc ca55 f83c 8358 b33b
000002f0: 2a8f b6bd bf74 afbd b498 2b3d 657b 5e3b
00000300: 7920 983c ba8a 803d ca0c 043d 5573 bb3b
00000310: 96bc 813d 0b07 e73c 30c4 1a3d d531 c8bc
00000320: 9f64 bc3b b618 c3b9 8de0 863c 46b8 c9bc
00000330: 7c4f 30be ce00 1f3d cdde 0b3e f5fe f53d
00000340: 8c08 46bc 750b 9dbc 717a 0dbe 8185 083e
00000350: 79ef dfbd 451a 2abd 2259 b5bd d8f6 eabd
00000360: 2b7c 0ebd a6c2 1fbd ad18 703d 6cfd 2a3e
00000370: 335a 1fbe 522b aabc 65e7 e63d b4f1 b13d
00000380: b3dc fabb d448 2b3e 4ac7 1dbe e935 8bbc
00000390: d89e f03c 7c60 5dbc c624 093d 0a2c ac3d
000003a0: a804 da3d 650b 3a3d c3fc 04be 1aab 1d3c
000003b0: f2a6 803d 0a54 133d 68ce 203d 5f1e 213e
000003c0: 1c76 9ebd 1f9e cbbd ebe0 083d c1b6 7bbd
000003d0: 001a 393d 9a4f 7bbd 0f82 e33c 94f2 9fbd
000003e0: bdb0 dd3b f225 923d 6ae8 cbba 1fae 1abe
000003f0: 94df 0c3e 846e ca3b 6978 713d c8b5 1abe
0.022786833 -0.020696882 0.042635407 -0.07031472 0.20472239 0.009596902 0.044619497 -0.0068354183
-0.10615335 0.0397203 0.104666464 0.1150405 -0.05544134 -0.046146113 0.08930731 0.0882055
-0.055235278 0.06286131 0.051657822 0.1825221 -0.0005994231 0.14218536 -0.10986066 -0.038976636
-0.1360718 -0.1321444 -0.012166252 0.032014254 0.052708294 -0.0317647 0.112817355 0.049429398
-0.012102184 0.021151707 -0.08808192 -0.06397101 -0.18703105 -0.1342003 0.08620636 0.07501512
0.049022432 0.033086345 -0.040055674 -0.04598773 0.09395203 0.04437518 0.15016066 0.028863264
0.07960193 -0.117554605 -0.026431844 -0.04506848 0.14610113 0.13146172 -0.034783278 -0.04618985
-0.15060486 -0.0029930247 -0.061701976 -0.031119503 0.050300993 0.045260478 0.05391843 -0.15666644
0.07190914 -0.089588486 0.052587844 0.058939118 0.11224889 0.04818335 0.17766297 -0.03011596
0.03108224 0.024629336 -0.068195656 -0.006045612 -0.044432368 0.04540198 -0.054086935 0.025472607
-0.074898764 0.08712203 -0.13572958 -0.05913861 -0.062098462 0.045264337 -0.051311146 -0.009862543
-0.048348073 0.034418855 -0.013898583 0.09903226 0.0709958 0.085197106 0.11664479 0.045014966
-0.11004828 -0.05828819 -0.01866504 0.010813363 -0.14992115 -0.041926093 -0.106226005 0.038778547
-0.019511003 -0.06243523 -0.063203014 -0.044803526 0.032793716 0.13977417 0.045526054 0.13880393
-0.04706875 0.0023931311 0.116297975 -0.12090401 -0.04640706 0.107774 -0.0026138765 0.061002027
-0.1657123 -0.077376045 0.068989776 -0.016140312 0.13914299 -0.1279114 -0.019288419 -0.08585196
0.07631118 -0.06027101 0.04450563 0.034495927 0.094337486 -0.14070348 -0.0041977856 0.07111104
-0.12877934 -0.0072135236 0.022576414 -0.004170283 -0.14962946 -0.017869521 0.17197783 0.093735084
0.14146017 0.117532015 -0.011603737 0.11822165 0.09230963 0.023515737 -0.14304271 -0.112375624
-0.050349098 -0.014123939 -0.0043629957 0.014714264 -0.15944223 -0.15370724 0.11062094 0.068926185
-0.060065158 0.133704 -0.14743043 0.057731 -0.13475192 0.030945545 -0.080043666 -0.022745444
0.023428036 -0.09120157 -0.056240216 -0.052340902 -0.031083258 -0.025840137 0.040304072 0.10494735
-0.058828786 -0.118362226 -0.032883685 0.046661727 -0.011536216 0.08074782 -0.038070932 -0.11131702
-0.06632762 -0.021311916 0.030314345 0.005473198 -0.08914025 -0.085671894 0.041893676 0.003394806
0.018570172 0.0627646 0.03223876 0.0057205358 0.06334798 0.0282016 0.037784755 -0.024437824
0.0057492997 -0.0003721171 0.016464496 -0.024624001 -0.17217821 0.038819127 0.1365921 0.1201152
-0.012086999 -0.019170502 -0.13816239 0.13332178 -0.10934348 -0.04152896 -0.08854891 -0.11472863
-0.034786385 -0.03900399 0.058617283 0.16698235 -0.15561752 -0.02077261 0.11274604 0.08688679
-0.007655704 0.16727 -0.15408054 -0.01699348 0.029372618 -0.013511773 0.033482336 0.08406837
0.10645419 0.045421023 -0.12987046 0.009623313 0.06281842 0.035968818 0.039259344 0.15734242
-0.07737371 -0.099422686 0.033417623 -0.061453585 0.04519081 -0.06135521 0.027771978 -0.0780994
0.0067654536 0.07136144 -0.0015556936 -0.15105484 0.13757163 0.0061777253 0.058952723 -0.15108407

features_extractor.policy_net.2.bias f4 [64]
00000000: 6a4b 6abd e5b4 c9bd 1185 a0bd 4046 613d
00000010: 8a2c 12bd ef9e bd3d 03e1 cabb f2c2 3a3d
00000020: ca2b 803d b04f 2bbd 1e71 0039 7d60 693c
00000030: 455c 48bd e123 b43c 7292 4cbd 58af 6f3d
00000040: 086b 53bd f82c c03d 28d9 65bc 6092 473d
00000050: 2c06 cb3d fd7c a8bd 8fc0 6b3c 43e3 77bd
00000060: ddf9 613d 494f eabd e888 b2bc 810b 7fbb
00000070: 6d6b f53b f31d 00be d193 cabb 2253 2ebd
00000080: caa4 0dbd 5527 cfbd a5fa 9abc 4d65 d8bd
00000090: 9de3 e4bd 816f 3f3d fe5d e73d cf3e bbbd
000000a0: 2040 debd a0bc ba3c 4803 adbd 5f96 afbd
000000b0: c8fe 8bbd 30e6 d4bc 11bd d4bb f425 df3d
000000c0: 9e72 fcbd a570 b5bd f58f b93c c948 e83c
000000d0: 472d e7bd 25f4 d6bd dc1c c8bd aecd a7bc
000000e0: 0505 823d 5f6d 4abd a3fa c23c 1b47 1b3d
000000f0: 55e6 9a3c cb18 7f3d ff1e dc3d 7caa 06bd
-0.057200827 -0.09848956 -0.078378804 0.054998636 -0.035687007 0.0925883 -0.0061913743 0.04559607
0.06258352 -0.041824043 0.0001224917 0.014244196 -0.04891612 0.021989765 -0.04994435 0.05851683
-0.051615745 0.09383577 -0.014028825 0.04872358 0.099132866 -0.082269646 0.014389171 -0.060519468
0.05516993 -0.11440904 -0.021793798 -0.003891677 0.007489613 -0.12511425 -0.006182172 -0.04255975
-0.034580983 -0.10114924 -0.018918345 -0.105661966 -0.11176226 0.046737198 0.112972245 -0.09142839
-0.108520746 0.022795022 -0.084478915 -0.08573603 -0.06835705 -0.025988668 -0.006492265 0.10895911
-0.12326549 -0.08859376 0.022651652 0.02835502 -0.11287933 -0.104957856 -0.097711295 -0.020483818
0.06348614 -0.04942071 0.023801154 0.03790961 0.018908659 0.062279504 0.107480995 -0.03287743

features_extractor.value_net.0.weight f4 [64, 1024]
00000000: 14de 4b3c c9f5 58bd ad2d b0bc 39d8 5bbd
00000010: f6dd 6d3d 2939 c53c c071 00bc 1f3b 96bc
00000020: 17f7 5d3d a26a 03bc 121b ae3a 2211 1b3d
00000030: c4ce 8bbc 1d97 53bd e177 9cbc cbe6 a5bd
00000040: fa2e 9cbc dce6 59bc 449f 623d 55fa eebc
00000050: d7ed e4bc d061 f63c 6d02 6bbd d80a babd
00000060: b49b 3d3d 20b3 623c fa88 80bd cbfe b5bc
00000070: 7ba4 bf3c 9aaf 8dbc 3155 023d 758b 263d
00000080: db6b 5f3c 9a90 2fbd 4287 1bbd f1d7 03bd
00000090: 6fe8 b4bb 5d47 29bc 705f d53c 29b2 78bc
000000a0: d8ea 7c3d 92b0 ca3b cffb b1bd 4ffc b9bd
000000b0: 1aea 223d 4ffb 3f3d 1f2c 393d 1c71 8abd
000000c0: 26a4 25bd 3401 cbbd 6e09 34bd ba0b f03c
000000d0: 7753 a73c c800 923d b975 b83b 7c0b c8bd
000000e0: 47d8 83bd f0b2 98bd 7aa6 77bd 4415 06bc
000000f0: 0037 62bc 3d97 863d 95b6 1b3d 28b5 063a
00000100: 5389 d93c e256 54bc ee81 803c e150 c13c
00000110: be80 a2bc 3402 3abd 6128 23bd 83b0 dabd
00000120: a2dc 27bc 6c5e 6c3d f2bd 303d 4f01 9fbb
00000130: d63d 0abd af06 8ebc 5915 e0bd d381 7dbd
00000140: 6eb6 ca3c 222c ea3c 531f 98bd f50a 923c
00000150: d12f 333b 51c6 793b 6263 23bc d034 44bd
00000160: 157a 593b 9c4f 093c 6944 61bd c5cb 6bbc
00000170: 31c2 cd3b 7dd7 7dbc 8cd5 523d 6bb6 11bc
00000180: 6b99 1f3c 7a74 3dbd 5608 ecbc a9d9 bcbd
00000190: 0320 233d 7af5 ec3b a652 523d d13d bcbd
000001a0: 1dc3 453c ac72 73bd 81b4 0dbd c592 36bd
000001b0: acaa 0c3d 394e 563d e537 67bd d88d 9cbd
000001c0: 1e3a e3bc 5211 7abd 9b49 d2bd 4d70 4d3c
000001d0: d9d3 763d e2e8 4c3d deab bfbc 929f 95bd
000001e0: 2d5c 42bd e31d 04bd 570d ddbd 0709 383b
000001f0: 7438 b73c 45d3 543d e8d3 933d 323a 1e3d
00000200: 09da 533d a0e2 943d 0938 973c 5f76 7a3d
00000210: c203 12bc 31ce 173c 75c5 543c 7164 c9bc
00000220: 177b 9dbc 95b7 a13a ed78 c83c a585 2e3c
00000230: f516 a5bc da96 5abd f9f0 75bd 8527 c8bd
00000240: f588 ba3c 839b f63b b2f0 983a dc14 353d
00000250: a1a6 183d 0671 113a 7d66 223c db72 5abd
00000260: 876e fe3c d65b af3c 4d65 9fbc bb59 abbc
00000270: 91f9 233d 2594 943c 7984 903d 3260 8c3d
00000280: 2a19 853d fffe 57bb 7c66 6bbd 18c6 44bd
00000290: 95aa a73d c752 693d 4e5d d63c 59df acbc
000002a0: 1b69 0d3c 7b50 9d3c 0af0 11bc cb19 833b
000002b0: 35e1 8e3d 1d44 983d 8344 89bc 7c78 22bd
000002c0: 8430 9dbd cfe3 8abd db68 1dbd 37f8 85bc
000002d0: 7ac8 803c 84ac 8e3c aaec 093d 0ad6 6ebd
000002e0: a386 833c df37 78bd e985 20bd d454 9abc
000002f0: 3424 023d 57f4 083d 1a1e 05bd a873 bcbc
00000300: 44d6 9f3c c16f 953d 7c21 283d e208 73bd
00000310: 347d 33bc 8e03 4fbd 9a88 c7bb 270e e9bd
00000320: cc08 d4bc 8657 aebb 98a1 233d 22cc ccbb
00000330: 967e a63c 8c21 e53b c352 58bc 8fde a8bd
00000340: 2dec 12bd f665 3dbc 6c29 04bd 5aae e13c
00000350: 9650 f03b e153 9d3c b962 87bc 77f3 63bd
00000360: 2673 4dbc f885 553d c6f6 8cbd b8d1 d2bc
00000370: 1eb1 c03c 2c7e 113d 9156 383b a29c 033c
00000380: d6a5 95bc c440 933c 91e6 99bd 736e 96bd
00000390: 6562 0cbd a88b 8c3d cc37 8c3d 2d96 27bc
000003a0: c208 343c 4214 8f3a 7f6c 2ebc 2b27 ae3c
000003b0: 2f58 9a3b 4063 9b3d 9201 bbbc 6d08 f6bc
000003c0: a5ee 333d fcb0 1ebd a014 06be c8a7 5e3b
000003d0: 033a bebc ea03 533d 1acd 853d e34e 91bc
000003e0: 36ee 0bbd 8cb1 80bd 806d 4abd 99bd 2d3c
000003f0: 7737 823b 097a 2e3c da06 733b 0a04 cc3c
0.012443084 -0.052968774 -0.021506155 -0.053673003 0.058073007 0.024075108 -0.00783962 -0.018338738
0.05419072 -0.008021029 0.0013283214 0.037858136 -0.017066367 -0.051657785 -0.019100131 -0.08100661
-0.019065369 -0.01329967 0.05532767 -0.029172102 -0.027945442 0.030075938 -0.05737536 -0.090840995
0.04629107 0.013836652 -0.06276126 -0.022216221 0.02339386 -0.017295647 0.031819526 0.04066034
0.013636555 -0.042862512 -0.03797079 -0.03218836 -0.0055208723 -0.010331956 0.026046485 -0.015179195
0.061747402 0.0061855996 -0.08690607 -0.09081327 0.039774038 0.046870526 0.045208093 -0.06759855
-0.040439747 -0.09912339 -0.043954305 0.029302467 0.020425541 0.07129055 0.005629268 -0.097678155
-0.06437736 -0.074560046 -0.0604615 -0.008183781 -0.013807058 0.06571815 0.03801592 0.0005138689
0.02655474 -0.012960168 0.015686955 0.023598136 -0.01983678 -0.045412257 -0.03983343 -0.10678198
-0.010245474 0.057707235 0.043149896 -0.004852451 -0.033750378 -0.017337171 -0.10941572 -0.06189139
0.024745192 0.028585497 -0.074278496 0.01782749 0.0027341733 0.003811259 -0.009972425 -0.04790193
0.0033184339 0.008380797 -0.05499688 -0.014391844 0.006279253 -0.015493271 0.051473185 -0.0088935895
0.009741168 -0.04625366 -0.028812569 -0.09221203 0.03982545 0.0072314115 0.05134835 -0.09191478
0.012070444 -0.05943553 -0.03459597 -0.044573564 0.034342453 0.052320693 -0.05644979 -0.07644242
-0.027737673 -0.061051674 -0.102679454 0.012538982 0.060260627 0.05002678 -0.023397382 -0.07305826
-0.047451187 -0.032255065 -0.1079356 0.0028081553 0.022365786 0.051959295 0.07218152 0.038629718
0.051721606 0.07269788 0.018459337 0.061148044 -0.008912029 0.009265468 0.012986531 -0.024584027
-0.019223733 0.0012338037 0.024471724 0.0106519805 -0.020152548 -0.05336652 -0.060044263 -0.09773163
0.022770384 0.0075258627 0.0011668412 0.044209346 0.037268285 0.0005548153 0.00991213 -0.05333219
0.031058563 0.021406095 -0.019457484 -0.02091681 0.040032927 0.018137047 0.07056517 0.06854285
0.0649894 -0.0032958386 -0.057470784 -0.04804048 0.08186833 0.05696371 0.026167538 -0.021102594
0.008631016 0.019203415 -0.008907327 0.0040008775 0.069765486 0.074348666 -0.016756302 -0.039665684
-0.07675269 -0.06781732 -0.038430076 -0.01635371 0.015720595 0.017416246 0.033672966 -0.058309592
0.01605541 -0.060600158 -0.039190207 -0.018839277 0.031772807 0.033436146 -0.03249941 -0.023004368
0.01951135 0.07296706 0.04104756 -0.059334643 -0.010955144 -0.0505405 -0.006089282 -0.113796525
-0.0258831 -0.005320492 0.03994903 -0.0062499205 0.020324033 0.0069925245 -0.013203326 -0.08245575
-0.035869766 -0.011559954 -0.032266065 0.027548958 0.0073338253 0.019205036 -0.016526567 -0.055652108
-0.012539661 0.052129716 -0.06883006 -0.025734767 0.023521956 0.035520718 0.002812777 0.00803295
-0.018267553 0.017975219 -0.0751468 -0.07345285 -0.034273524 0.06862575 0.0684658 -0.010228676
0.010988416 0.0010916071 -0.010645985 0.021258911 0.0047102193 0.0758729 -0.022827897 -0.030033315
0.04392876 -0.038743004 -0.13093805 0.0033974517 -0.023221022 0.051517405 0.06533261 -0.017737811
-0.034162723 -0.062838644 -0.049420834 0.010604286 0.003973897 0.010649213 0.0037082941 0.02490427

features_extractor.value_net.0.bias f4 [64]
00000000: 2a9e 4abc 768c aebd bc64 31bd bbd2 8a3c
00000010: 1444 1dbd 5ebe 823c 59f9 d5bc 161a 53bc
00000020: 730f 89bc 56ce cdbc 2773 74bd 2ea3 7cbb
00000030: 71d9 f2bc 8ebf 243d 8872 193d ebc2 b6bc
00000040: 2712 3cbd 3c76 96bc 2b9b 7cbc 2a7a 92bc
00000050: 874c 2abc ceb2 473c c2f3 09bb cb94 b0bb
00000060: 83e6 8b3b 73b5 783b 94fc 96bd 0d4f 63bd
00000070: fb0c 7abd 962d 31bc 0549 70bd 0654 66bc
00000080: 661b 323c 2e8e f3bc 1a5c 003c ccc4 b8bc
00000090: 8359 44bd 6c88 ba3c b0a6 433b 5ba8 4d3c
000000a0: 5c95 e2bc 4a00 643b 4487 89bd c4b1 d3bb
000000b0: a918 89bd 93f1 98bd 0d72 9dbd e47b a7bc
000000c0: 7bca f6bc 0334 30bd bae5 e2bc 8449 4dbd
000000d0: 7c6a fe3c f5ba 8fbd 3721 35bd 7b6d 363a
000000e0: 6f2c 22bd cf02 04bd 7e97 5bbc 6709 44bd
000000f0: e149 d1bc 7685 aabc 8528 48bb e2be 4c3c
-0.012366811 -0.085228845 -0.04330896 0.016946187 -0.038395002 0.015959915 -0.026119875 -0.012884637
-0.016731 -0.025122803 -0.05968013 -0.003854941 -0.0296447 0.040221743 0.03746274 -0.022309741
-0.04591575 -0.018366925 -0.015417854 -0.017880518 -0.010394222 0.012188626 -0.0021049832 -0.0053888313
0.0042694225 0.003794995 -0.07372394 -0.05549531 -0.061047535 -0.010814091 -0.058663387 -0.014058119
0.01087079 -0.029730882 0.007834459 -0.022554778 -0.047936928 0.02277013 0.0029853992 0.012552346
-0.02765911 0.0034790211 -0.06715253 -0.0064604003 -0.06694157 -0.074679516 -0.07687769 -0.020444818
-0.030125847 -0.043018352 -0.027697433 -0.050118938 0.031056635 -0.07018081 -0.04422113 0.0006959063
-0.039593156 -0.03222924 -0.013402818 -0.04786053 -0.025547924 -0.020815592 -0.003054173 0.012496682

features_extractor.value_net.2.weight f4 [1, 64]
00000000: ca9e c63d e460 98bc d99a 553d 9951 f83b
00000010: 3601 0dbb b371 293d 8ea0 0d3e 37a2 93bd
00000020: ee6d 0c3d 988c 653a 752d 88bc 8b47 bc3c
00000030: fcaa ad3d 9769 8c3d 8c84 b5bc 09c0 243d
00000040: f1de dc3c 2234 0eb9 d6a5 2f3d 356e d2bc
00000050: 6c9d 313e eda5 17bd a4a2 0539 8f41 363d
00000060: 74de b53d a9e1 d2bb 4b9d a3bd 7a71 8bbc
00000070: d29f e8bc d1a9 dd3d bad3 90bc 4442 e73b
00000080: 08e7 5cbd 48be 6e3a 049c 863d e9f7 44bd
00000090: 7ebf fabb b76c fe3d 34ef b73a 4770 163e
000000a0: c315 98bd 18df df3d df2c f1bb 57f0 f03d
000000b0: e317 07bd 6662 b43d 629a e7bc 859b 053e
000000c0: 2f4b 6a3d 9689 50bd cb92 883d 0862 8cbd
000000d0: c514 eb3d 898b e5bd c60f b33d 3637 c53d
000000e0: fa6e c0bd 2bdc b6bb 4ddb fa3d 52c0 1f3d
000000f0: 6b51 e13b bb5d dd3d d4de a8bb 1e67 3d3d
0.09698255 -0.018600889 0.052149627 0.0075780866 -0.0021515614 0.041368198 0.13830778 -0.072086744
0.034284525 0.0008756607 -0.016623238 0.022983333 0.08479878 0.06856077 -0.02215793 0.0402222
0.026961775 -0.00013561596 0.042882763 -0.025687316 0.17345208 -0.037023474 0.00012744457 0.044496115
0.0888032 -0.006435592 -0.07988986 -0.017021883 -0.02839652 0.108234055 -0.017679084 0.00705746
-0.053931266 0.00091073336 0.06572726 -0.048087988 -0.007652222 0.124230795 0.001403308 0.14691268
-0.07426026 0.10931224 -0.0073600854 0.11764591 -0.032981765 0.088078305 -0.028271858 0.13047607
0.057200607 -0.050912462 0.066686235 -0.068546355 0.11478571 -0.11208255 0.08743243 0.09629671
-0.09396167 -0.0055804453 0.122488596 0.03900177 0.006876161 0.10808893 -0.0051535163 0.04624092

action_net.weight f4 [2, 64]
00000000: 361f d8bd 9849 98bd b843 15bd a8aa 17be
00000010: a582 fabd 9642 d03d 59cb 0cbe 8926 253e
00000020: e42d cabd f1b5 d5bd 4c1f 163e 0d60 b03d
00000030: 1e6d e6bd 020e dabd 8507 9e3d 07c3 1fbe
00000040: fa2d b13d a1ca bb3d c748 c83d 8fd7 ff3c
00000050: dbc4 a73b 33b0 42bd 4fc4 1a3e 1a5e 4e3d
00000060: c9e3 1a3e 4684 1a3e 4277 f4bd a36d 0ebe
00000070: 48c6 5dbd 7d2e b03d 8faa 94bd 9c88 67bd
00000080: 66d3 ed3d bfee 413d 165b cd3d 0ee0 86bd
00000090: 1483 0b3e 08a5 02be c424 24be 10a2 10be
000000a0: cc00 0a3e 9960 8bbd 6d9f d43d 797a 0abe
000000b0: 7bbe 00be 1c3f dbbd 0ef0 523d bff3 1dbe
000000c0: 32d9 f23d ce7c 643c d880 af3d af5f 293d
000000d0: 6610 9cbd 4ada 06be 2870 98bd 3001 e03c
000000e0: 8777 40bd dbca edbc ee2b 2f3e 1496 743c
000000f0: cc55 0dbe 2ded 05be 3429 81bc 31dc 1bbe
00000100: e0fb 0fbe 4550 ecbc 585e a1bd 91d4 04be
00000110: 30fd d13d afa8 15be 5869 113e c8cd b23d
00000120: f5c0 17be 13a5 43bd 90d0 f13d 0f9f eb3c
00000130: d7a4 b0bd 0ef6 373d b3d1 003e 0072 e83d
00000140: 5f37 d1bd 37ef 00be 0c8d eebd 73bf 93bd
00000150: d365 d4bd 7ff6 e73d 75c5 e0bd fb4a 053e
00000160: c540 043e 6fcf 1d3e bbe2 053d 2ee3 a73d
00000170: badb 1f3e 67e9 263e 8d83 0c3e 63e1 09be
00000180: 0f0e 5a3d bbdb 16be c5b8 bebd a373 db3c
00000190: 8a32 353e ffac 163e 733a ee3d 6141 163e
000001a0: 29c2 05be 620b 0ebe a7ae aebd 06e7 62bd
000001b0: 58ee c93c 8c88 1abe b0ec cd3d 6150 09be
000001c0: e6d6 c4bc cebe 2a3e 089d 7a3d ec57 853d
000001d0: 0a92 2f3e e250 30be 3e2a 3bbd 098d 023e
000001e0: 17f0 23be 1b43 33be 4a8d 373d 5a91 e43d
000001f0: 7485 99bd 241d 0dbd 2e20 f63d 3ac6 84bd
-0.10552828 -0.07435912 -0.036441535 -0.14811194 -0.1223195 0.1016895 -0.13749446 0.16127981
-0.09872034 -0.10435093 0.14660376 0.0861207 -0.11251281 -0.10647203 0.07716278 -0.15601741
0.086513475 0.09169508 0.09779506 0.031230716 0.0051199025 -0.047531318 0.15113948 0.05038271
0.15125956 0.15089521 -0.11936809 -0.1390901 -0.054144174 0.08602617 -0.07259094 -0.056526765
0.11612587 0.047346827 0.10027139 -0.06585704 0.13624221 -0.12758267 -0.1602965 -0.14124322
0.13476866 -0.06805534 0.103819706 -0.13523282 -0.12572663 -0.107053965 0.051498465 -0.15425013
0.11857833 0.013945771 0.08569497 0.041351017 -0.07620315 -0.13169208 -0.07443267 0.027344316
-0.04698899 -0.029027393 0.17106602 0.01492836 -0.1380226 -0.13078757 -0.015766717 -0.15220715
-0.14060926 -0.02884687 -0.07879323 -0.12971713 0.1025337 -0.14615129 0.14200342 0.08730656
-0.14819701 -0.04776485 0.11807358 0.028762368 -0.08625191 0.04491239 0.12579994 0.11349869
-0.10215639 -0.12591253 -0.11647996 -0.072142504 -0.10370984 0.11326312 -0.10975162 0.13016884
0.12915333 0.15411161 0.03268693 0.08197628 0.15611163 0.16299973 0.13722058 -0.13464884
0.053236064 -0.14732258 -0.09312586 0.026788538 0.1769506 0.1471443 0.11632242 0.14673378
-0.13062347 -0.1387153 -0.08529406 -0.055396102 0.024649784 -0.15091151 0.1005491 -0.13409568
-0.024028253 0.16674349 0.061184913 0.065109104 0.17145553 -0.17218354 -0.045694582 0.12749113
-0.16009556 -0.17506067 0.044812478 0.11160536 -0.07496157 -0.03445162 0.120178565 -0.06483121

action_net.bias f4 [2]
00000000: ce14 44bd d4e7 b0bc
-0.047871403 -0.02159492
