weights/cnn-nd-0-eps-300.pth (torch, 568288 bytes, 16 tensors)

log_std f4 [2]
0.11666659 0.09205866
00000000: e5ee ee3d 4089 bc3d

features_extractor.encoder.0.weight f4 [16, 1, 3, 3]
0.06347394 1.0495435 -0.087592915 0.39737388 -0.89918524 0.33863568 -0.30620286 -0.33920962
0.30797207 -0.61680603 -0.7465778 -0.12968586 0.0059780865 0.17701805 -0.571348 0.90250736
-0.3078549 0.37058243 0.3248618 -0.046336867 0.6838677 -0.3155137 -0.14495733 0.67702645
-0.1847331 -0.53237337 1.1115443 -0.17235756 0.21301417 -0.6226917 -0.71323305 -0.621225
0.46521777 0.79542357 0.40865853 0.22628003 -0.7711933 0.26675093 0.7880158 -0.30288476
0.45716998 0.03322851 0.06123625 -0.038152304 0.15703201 -0.33500102 -0.5054821 -0.009788163
-0.22708683 -0.28120926 -0.41371664 0.21695632 0.13789241 -0.03973546 0.55387664 -0.6824521
-0.20102693 -0.3094419 0.33180317 -0.23347907 0.5355362 -0.44826505 0.09637188 -0.37794575
0.566843 -0.4204665 0.23402928 -0.64416856 -0.04317623 0.1808912 -0.023513775 0.21751498
0.23444124 1.0846466 -0.00205717 0.86076856 -0.55726886 0.4484274 -0.16487822 0.3635692
-0.2300927 -0.43298602 -0.20599106 -0.17465478 -0.06105702 -0.24589074 0.07613604 0.3520796
0.32842386 -0.68544245 -0.13566996 0.12450423 -0.6860503 -0.28337353 0.08752423 0.14367536
0.2864635 0.13755862 0.58322763 -0.21095458 -0.7547218 -0.0036220162 0.707628 0.6600362
-0.024264995 -0.60362846 -0.37016135 0.19656903 -0.25566158 0.07825004 -0.23410575 -1.1794003
0.49349013 0.08576079 -0.15827172 0.25406766 -0.074996345 -0.03626261 0.30147442 0.16984592
0.3986161 -0.03822903 -0.03320472 -0.29422638 -0.29922095 -0.5598017 -0.08427787 -0.28645572
0.11501205 0.5029321 0.00301794 0.794012 0.4844444 -0.48368222 -0.3396826 0.88483864
1.224611 -0.21019565 0.644842 -0.082279906 0.25203598 0.19059049 0.5541605 -0.9584712
00000000: a0fe 813d 7157 863f ea63 b3bd 9774 cb3e
00000010: 0131 66bf a861 ad3e 9fc6 9cbe e2ac adbe
00000020: 84ae 9d3e 00e7 1dbf b91f 3fbf 5fcc 04be
00000030: d3e3 c33b 3844 353e dd43 12bf b90a 673f
00000040: 289f 9dbe fbbc bd3e 4954 a63e bacb 3dbd
00000050: f411 2f3f 038b a1be b26f 14be 9b51 2d3f
00000060: ac2a 3dbe 9f49 08bf 1547 8e3f 807e 30be
00000070: 6320 5a3e b968 1fbf 7196 36bf 9a08 1fbf
00000080: 0631 ee3e e1a0 4b3f b13b d13e f4b5 673e
00000090: ed6c 45bf 9493 883e 67bb 493f b613 9bbe
000000a0: 2f12 ea3e 9e1a 083d ddd2 7a3d 9745 1cbd
000000b0: 00cd 203e 4185 abbe 4667 01bf 885e 20bc
000000c0: 7389 68be a9fa 8fbe abd2 d3be cc29 5e3e
000000d0: ab33 0d3e a6c1 22bd dcca 0d3f 2eb5 2ebf
000000e0: 01da 4dbe 2b6f 9ebe 1be2 a93e 2315 6fbe
000000f0: e718 093f ff82 e5be 9f5e c53d 1b82 c1be
00000100: 9f1c 113f 6347 d7be 5fa5 6f3e 3be8 24bf
00000110: 8fd9 30bd 8b3b 393e f69f c0bc 3fbc 5e3e
00000120: 5d11 703e b3d5 8a3f 96d1 06bb 545b 5c3f
00000130: 2ca9 0ebf 4798 e53e d6d5 28be be25 ba3e
00000140: 6c9d 6bbe 58b0 ddbe 52ef 52be b4d8 32be
00000150: ed16 7abd c8ca 7bbe 36ed 9b3d c743 b43e
00000160: 2c27 a83e 2879 2fbf 11ed 0abe 13fc fe3d
00000170: fea0 2fbf 5616 91be e73f b33d a21f 133e
00000180: 58ab 923e 2bdc 0c3e 684e 153f 7a04 58be
00000190: 7335 41bf 595f 6dbb 1c27 353f 22f8 283f
000001a0: 62c7 c6bc 6587 1abf ca85 bdbe 6449 493e
000001b0: 13e6 82be 8f41 a03d 6bb9 6fbe 97f6 96bf
000001c0: bdaa fc3e 5aa3 af3d fb11 22be 2815 823e
000001d0: af97 99bd 1a88 14bd db5a 9a3e 17ec 2d3e
000001e0: 6917 cc3e 0b96 1cbd ac01 08bd d7a4 96be
000001f0: 7d33 99be 2a4f 0fbf e099 acbd 53aa 92be
00000200: 708b eb3d 28c0 003f a2c8 453b 5f44 4b3f
00000210: 1909 f83e 32a5 f7be e1ea adbe c984 623f
00000220: 0ec0 9c3f 873d 57be 5e14 253f 5e82 a8bd
00000230: dc0a 813e 272a 433e 76dd 0d3f 5e5e 75bf

features_extractor.encoder.0.bias f4 [16]
-0.006407891 0.0042101443 -0.05911026 -0.00043569194 -0.012124714 -0.010028905 -0.00085235486 -0.00862553
0.013471092 -0.0018791665 0.010952894 -0.0029387763 -0.004434247 0.010349462 -0.047079373 0.016472654
00000000: 49f9 d1bb 40f5 893b 9a1d 72bd 956d e4b9
00000010: bda6 46bc 4750 24bc 9170 5fba 1852 0dbc
00000020: dbb5 5c3c 5d4e f6ba c473 333c 7c98 40bb
00000030: 294d 91bb ca90 293c 4dd6 40bd a9f1 863c

features_extractor.encoder.2.weight f4 [16, 16, 3, 3]
-0.0048070597 0.00592081 -0.058881544 0.054390464 0.04570421 -0.08338331 0.060118787 -0.031887732
0.024448052 -0.073752016 -0.03520034 -0.14137985 -0.011449494 -0.2302975 -0.04193545 0.0043332465
-0.03926171 0.05417816 0.059272736 -0.105660304 -0.13189168 -0.07585795 -0.11240683 -0.112035796
0.1065465 -0.036369327 -0.1624138 -0.16177349 0.051712308 0.06488876 -0.18761197 -0.15900262
-0.116298474 0.08292839 -0.048844554 -0.13268822 -0.092302494 -0.043696087 0.1185334 0.026771108
0.1771688 -0.055098053 -0.039455708 -0.16915153 0.028298473 -0.11146959 0.02006906 0.04899267
-0.0687429 -0.16511907 -0.004678208 -0.08646981 0.27981886 -0.1315169 0.17753424 -0.19166984
-0.0048403624 0.0061967205 0.03392983 -0.08085745 0.07477698 0.05780144 0.037179977 0.054708146
0.11232484 0.0011485396 0.10306302 0.024447642 -0.09602545 0.057659153 -0.04313242 0.26226154
-0.040370967 -0.08081323 -0.10172113 -0.083220385 -0.065104924 -0.03658932 -0.047933996 0.05437408
0.080234855 0.11015219 0.0535491 0.100501664 0.12975805 -0.058451395 -0.05868289 0.0025336726
-0.2194874 0.017521722 0.02103061 -0.18513702 -0.14841202 -0.18395658 -0.19040947 0.068510436
0.15485561 0.1725592 0.2464125 -0.19406259 0.030444201 0.10565483 -0.11439336 0.07329851
-0.050685305 0.04859161 0.15291628 0.25930193 -0.13334303 -0.1434946 0.13844417 -0.007624244
-0.28281617 -0.30416206 0.016626282 -0.113176115 -0.055397443 -0.03043445 -0.1634438 -0.015451111
-0.101812884 -0.22972275 -0.029052146 0.19153407 -0.19510075 -0.002703005 0.120336324 -0.095945254
-0.0964155 0.10826913 -0.028881952 0.1426083 -0.08668207 0.07372142 -0.23083894 -0.15756524
-0.031888347 -0.08301824 -0.079794526 -0.0066458746 -0.09493106 0.02921433 -0.20217417 0.13502094
-0.111302264 -0.014957913 -0.05393125 0.21327646 -0.18767704 0.014320988 -0.09240197 0.04083413
-0.18684505 -0.07673006 -0.06371716 -0.059666216 0.1719343 0.17748815 -0.1264368 0.06372745
-0.16801567 0.114577055 -0.068386346 0.069684066 0.10236777 0.23285957 -0.18801288 0.07488567
0.15873519 0.26643866 0.052967563 -0.058785614 -0.025930831 -0.19490108 0.067963704 -0.0007133968
-0.011715957 0.22300997 0.12590075 -0.05448396 -0.20404664 -0.051550195 0.07886009 -0.19287255
0.026036352 0.025870021 0.09623952 0.055432327 0.11798973 -0.07507626 -0.10075003 0.12876143
0.14509611 -0.09284198 -0.11329213 -0.02117779 0.026342785 -0.14773396 0.038624916 -0.14602618
0.11891515 -0.0019997102 0.08198283 -0.0267562 0.004104224 0.10400831 0.24770635 -0.024010075
0.07312779 0.07091467 0.07011067 -0.031277996 -0.023143658 0.03701183 -0.30476192 -0.09840335
-0.02168179 0.09629009 0.04898861 -0.037927028 0.12241449 0.042182032 0.130832 0.0135568455
0.0471659 0.07461852 0.13252433 -0.12375727 0.23196651 0.113947734 0.14945422 -0.09608275
-0.30214617 0.046168424 0.025288848 -0.1531605 0.06959994 -0.011015115 0.10035505 -0.0066677905
0.18618207 0.27896452 0.053695343 -0.009225958 0.0162968 0.028184123 -0.08291182 0.15223692
-0.035366733 -0.044772163 0.16284497 0.03267122 0.15952155 -0.0056119706 -0.054455563 -0.0072032576
00000000: 8a84 9dbb 5b03 c23b c62d 71bd 89c8 5e3d
00000010: 5634 3b3d dec4 aabd 1e3f 763d b69c 02bd
00000020: 4847 c83c 4c0b 97bd 3b2e 10bd e1c5 10be
00000030: a996 3bbc 1cd3 6bbe 82c4 2bbd e8fd 8d3b
00000040: e3d0 20bd ebe9 5d3d f8c7 723d 6e64 d8bd
00000050: 9d0e 07be 6a5b 9bbd 8d35 e6bd 0673 e5bd
00000060: 0d35 da3d 01f8 14bd ce4f 26be f3a7 25be
00000070: 49d0 533d 66e4 843d 5a1d 40be 95d1 22be
00000080: e52d eebd 5cd6 a93d 3a11 48bd 6cdf 07be
00000090: 1709 bdbd abfa 32bd a4c1 f23d 154f db3c
000000a0: bd6b 353e 7fae 61bd 4f9c 21bd 0f36 2dbe
000000b0: 33d2 e73c 2b4a e4bd df67 a43c 8aac 483d
000000c0: 14c9 8cbd f914 29be a74b 99bb 1517 b1bd
000000d0: 6b44 8f3e 5eac 06be 89cb 353e 1945 44be
000000e0: e79b 9ebb dc0d cb3b 01fa 0a3d 9798 a5bd
000000f0: ac24 993d 34c1 6c3d 084a 183d a615 603d
00000100: 910a e63d 988a 963a b412 d33d 6c46 c83c
00000110: fea8 c4bd 012c 6c3d 9fab 30bd 2547 863e
00000120: 075c 25bd 6881 a5bd 2b53 d0bd 736f aabd
00000130: bb55 85bd afde 15bd 7056 44bd 5bb7 5e3d
00000140: 2c52 a43d 7997 e13d 4d56 5b3d d1d3 cd3d
00000150: 4bdf 043e bb6a 6fbd 785d 70bd f90b 263b
00000160: 4ec1 60be b789 8f3c 6348 ac3c 8f94 3dbe
00000170: 52f9 17be 1d5f 3cbe b3fa 42be 334f 8c3d
00000180: 7892 1e3e 5cb3 303e 8f53 7c3e 58b8 46be
00000190: 1e66 f93c 8f61 d83d 1147 eabd 871d 963d
000001a0: 659b 4fbd ff07 473d 1696 1c3e 39c3 843e
000001b0: 138b 08be 40f0 12be 4fc4 0d3e cbd4 f9bb
000001c0: 48cd 90be 21bb 9bbe d733 883c e1c8 e7bd
000001d0: 6ee8 62bd ab51 f9bc d05d 27be a826 7dbc
000001e0: 4683 d0bd 713c 6bbe c4fe edbc 8221 443e
000001f0: 7ec8 47be e624 31bb e472 f63d f27e c4bd
00000200: 7d75 c5bd 35bc dd3d d899 ecbc e907 123e
00000210: 5e86 b1bd 41fb 963d 0b61 6cbe c858 21be
00000220: 5b9d 02bd 7805 aabd 506b a3bd a3c5 d9bb
00000230: 376b c2bd e452 ef3c bf06 4fbe ee42 0a3e
00000240: 71f2 e3bd 0912 75bc 04e7 5cbd 2565 5a3e
00000250: 692e 40be 94a2 6a3c 3e3d bdbd b041 273d
00000260: 4f54 3fbe a624 9dbd 247e 82bd 9064 74bd
00000270: 8c0f 303e 74bf 353e a678 01be 8a83 823d
00000280: 4d0c 2cbe 60a7 ea3d 240e 8cbd 85b6 8e3d
00000290: 32a6 d13d bd72 6e3e 7386 40be a85d 993d
000002a0: 7a8b 223e a66a 883e 84f4 583d 2fc9 70bd
000002b0: e56c d4bc 2694 47be 8e30 8b3d 4003 3bba
000002c0: 49f4 3fbc ba5c 643e 20ec 003e 932a 5fbd
000002d0: 9af1 50be 4c26 53bd 6681 a13d 6280 45be
000002e0: 304a d53c 5eed d33c 3a19 c53d 020d 633d
000002f0: 99a4 f13d 95c1 99bd 0856 cebd 09da 033e
00000300: 1394 143e f023 bebd b405 e8bd 0b7d adbc
00000310: d3cc d73c 9247 17be 2935 1e3d e387 15be
00000320: c989 f33d 920d 03bb 9de6 a73d d12f dbbc
00000330: ba7c 863b 4f02 d53d bca6 7d3e c7b0 c4bc
00000340: 06c4 953d b63b 913d 2f96 8f3d 5b1d 00bd
00000350: c597 bdbc b799 173d c109 9cbe b287 c9bd
00000360: 029e b1bc bd33 c53d 48a8 483d 5f59 1bbd
00000370: 73b4 fa3d 11c7 2c3d d3f8 053e 881d 5e3c
00000380: 0831 413d 98d1 983d 75b4 073e 7474 fdbd
00000390: a188 6d3e 6e5d e93d 870a 193e 08c7 c4bd
000003a0: e7b2 9abe 1a1b 3d3d 8f2a cf3c 1bd6 1cbe
000003b0: 6a8a 8e3d be78 34bc f386 cd3d 7b7d dabb
000003c0: 83a6 3e3e 70d4 8e3e a6ef 5b3d 7928 17bc
000003d0: de80 853c 64e2 e63c accd a9bd ffe3 1b3e
000003e0: b5dc 10bd 0463 37bd d5c0 263e 42d2 053d
000003f0: 9e59 233e 9fe4 b7bb cc0c 5fbd 4e09 ecbb

features_extractor.encoder.2.bias f4 [16]
0.0061738556 -0.018943682 -0.0037473985 0.0278269 -0.014477717 -0.004287645 -0.010747633 -0.0062865326
-0.014726112 -0.054886412 -0.014958054 -0.011297463 -0.011131313 0.0025717532 -0.038309753 -0.032327186
00000000: 0e4e ca3b c82f 9bbc ea96 75bb 3df5 e33c
00000010: f233 6dbc 607f 8cbb d716 30bc 42ff cdbb
00000020: ca45 71bc 93d0 60bd a012 75bc ff18 39bc
00000030: 1c60 36bc dc8a 283b b0ea 1cbd 8369 04bd

features_extractor.encoder.4.weight f4 [16, 16, 3, 3]
-0.15060441 0.1338249 0.081479296 -0.097802654 0.059579175 -0.117807485 -0.053969823 -0.17978732
-0.14456216 -0.008963412 0.09464056 0.11671475 -0.024895987 -0.10370894 -0.075658344 0.009228979
-0.20205873 -0.12503941 0.06542984 -0.00022524336 0.123457454 0.050876293 0.0492414 -0.23344989
0.100570224 0.0042732446 0.23437533 0.028689638 0.044883065 0.06937797 0.10101439 -0.011960031
0.20015465 0.21512048 -0.15530467 -0.040805873 -0.124901935 0.093862586 -0.04560206 -0.014652705
-0.023109205 -0.048017435 -0.06818767 0.12968169 -0.12906976 -0.071772024 -0.26276335 0.053474005
0.056119308 -0.018214082 -0.12120544 0.04281166 0.01783682 -0.19158544 -0.115851864 -0.052614
0.27596343 -0.050830357 0.13606754 -0.04811057 -0.040986653 0.23303483 -0.07112648 -0.01326705
0.19852532 -0.18585505 0.030437354 0.28593048 -0.0141070895 -0.09484802 -0.13435835 0.07849664
-0.06917998 -0.20589374 0.04995366 0.022602927 -0.1285883 -0.2092531 0.19297822 -0.014500959
-0.108523466 -0.019357901 -0.013799444 -0.044739876 0.16247265 -0.02619286 -0.08339232 -0.16187555
0.004190506 -0.04239813 0.22544302 0.120244406 0.15378407 0.031085819 0.1729463 0.042231675
-0.0008495782 -0.00014269026 -0.014729918 -0.058920905 0.10018242 -0.20192859 -0.104340814 0.04050725
-0.07496939 -0.01279848 0.06602009 -0.06725387 0.02555795 -0.12724067 0.13243775 0.2852279
0.13452528 0.025061144 0.26902345 -0.0963436 -0.1807797 0.05946651 0.13131438 -0.037441973
0.17655225 0.12956741 0.08662168 0.015574919 0.0040104655 -0.00864908 -0.12991643 -0.2565354
0.10398142 0.13207427 -0.21196221 -0.08973192 -0.0986956 -0.08181934 -0.10828595 -0.103156075
-0.007841066 -0.008625612 0.009525737 0.0010173775 0.082603596 -0.08685954 -0.13643228 0.05068989
0.11876445 -0.17274457 0.041622445 -0.02549819 0.32730117 -0.1388867 -0.064817905 0.24809463
0.15234026 0.06403834 0.12936382 -0.08835744 -0.08142562 -0.025391422 -0.016010713 0.31711552
-0.122223206 -0.1450313 -0.25166896 0.091251254 -0.014245192 -0.101892635 0.21165943 -0.12863272
0.01985693 -0.10684291 -0.111671165 0.0040768175 -0.0036270593 -0.08127109 -0.0071093664 -0.009234639
-0.023356602 0.07956117 0.043753624 0.14654876 0.12296209 -0.23990114 0.15143996 -0.019852446
0.053757694 0.036573626 0.11815498 -0.0015179439 -0.14434803 -0.15034884 0.1233599 -0.006769649
-0.092647284 0.041461825 0.038287308 0.19814712 -0.28228152 -0.042547807 0.03769853 -0.12842938
-0.054180518 -0.036102217 0.2121262 0.13677053 0.054482736 0.14849181 -0.0021927517 0.12735528
0.12455711 -0.10511068 0.087437905 0.08096645 -0.25564694 -0.11731182 0.063305765 -0.0063227294
0.044676784 0.10776349 0.15251371 0.17449446 -0.099236526 0.17854841 0.1623297 -0.23413676
0.019877635 0.007789749 -0.08284636 -0.031864762 -0.046581667 -0.023196306 0.013222551 0.10780172
-0.046660397 -0.17981175 0.1524955 0.17430766 0.03754823 0.108794674 0.09018015 0.098794445
-0.09614788 0.1667503 0.06334488 -0.035072837 -0.1000358 0.074191146 -0.04877162 0.11383224
-0.01783674 0.0151235815 0.10715105 -0.27068788 -0.11651194 -0.0563061 -0.046689473 0.023625085
00000000: 0b38 1abe 6509 093e 9ede a63d c24c c8bd
00000010: 4b09 743d 0d45 f1bd 760f 5dbd 2b1a 38be
00000020: 1a08 14be 46db 12bc e9d2 c13d 2508 ef3d
00000030: abf2 cbbc 5a65 d4bd c3f2 9abd 2535 173c
00000040: 7ce8 4ebe 550a 00be 1400 863d 4e2f 6cb9
00000050: 43d7 fc3d a963 503d 5ab1 493d 7d0d 6fbe
00000060: c3f7 cd3d 9306 8c3b 1600 703e 8806 eb3c
00000070: 4ed7 373d 0a16 8e3d a2e0 ce3d 02f4 43bc
00000080: 57f5 4c3e 8b48 5c3e 3008 1fbe 0f24 27bd
00000090: 96cc ffbd 073b c03d 3ac9 3abd e611 70bc
000000a0: 844f bdbc eead 44bd faa5 8bbd 47cb 043e
000000b0: dd2a 04be 36fd 92bd eb88 86be 8f07 5b3d
000000c0: 5cdd 653d b335 95bc 8f3a f8bd 475b 2f3d
000000d0: 861e 923c f92e 44be be43 edbd c781 57bd
000000e0: 144b 8d3e 7e33 50bd 4a55 0b3e 970f 45bd
000000f0: 9fe1 27bd afa0 6e3e c3aa 91bd 0a5e 59bc
00000100: 394a 4b3e c950 3ebe c257 f93c 7b65 923e
00000110: 6c21 67bc ae3f c2bd 3c95 09be d9c2 a03d
00000120: 3cae 8dbd cfd5 52be 369c 4c3d c629 b93c
00000130: a7ac 03be 7246 56be 159c 453e 6e95 6dbc
00000140: 8d41 debd 7694 9ebc 1017 62bc 2941 37bd
00000150: 3b5f 263e 6992 d6bc 98c9 aabd b4c2 25be
00000160: 8350 893b a9a9 2dbd 89da 663e b342 f63d
00000170: 9279 1d3e b0a7 fe3c d618 313e 1ffb 2c3d
00000180: 3ab6 5eba 209f 15b9 c155 71bc 0c57 71bd
00000190: 712c cd3d 5ec6 4ebe a3b0 d5bd eeea 253d
000001a0: 8d89 99bd b7b0 51bc 8a35 873d 66bc 89bd
000001b0: e85e d13c 614b 02be c39d 073e 6409 923e
000001c0: ffc0 093e 074d cd3c 71bd 893e cb4f c5bd
000001d0: 501e 39be 2893 733d 4777 063e c15c 19bd
000001e0: 1dca 343e 52ad 043e b566 b13d f22d 7f3c
000001f0: 396a 833b dfb4 0dbc d008 05be 9c58 83be
00000200: 36f4 d43d 7a3e 073e 9f0c 59be 5ec5 b7bd
00000210: eb20 cabd e690 a7bd 06c5 ddbd 7e43 d3bd
00000220: d177 00bc 7052 0dbc d611 1c3c 8659 853a
00000230: 132c a93d 6ae3 b1bd e7b4 0bbe 34a0 4f3d
00000240: c73a f33d f4e3 30be 4c7c 2a3d 95e1 d0bc
00000250: 0594 a73e 5138 0ebe 40bf 84bd 850c 7e3e
00000260: 16ff 1b3e 8826 833d f377 043e bff4 b4bd
00000270: 7ac2 a6bd ac01 d0bc e628 83bc f75c a23e
00000280: 2950 fabd 1683 14be c1da 80be f0e1 ba3d
00000290: aa64 69bc 16ad d0bd 40bd 583e 4cb8 03be
000002a0: 00ab a23c 75d0 dabd dab3 e4bd d396 853b
000002b0: f5b3 6dbb 7571 a6bd b0f5 e8bb e24c 17bc
000002c0: 5856 bfbc f7f0 a23d 0037 333d e110 163e
000002d0: 8cd3 fb3d a5a8 75be 1413 1b3e 99a1 a2bc
000002e0: 0731 5c3d 3ace 153d 3dfb f13d bff5 c6ba
000002f0: f8cf 13be 0cf5 19be 1ea4 fc3d efd3 ddbb
00000300: dcbd bdbd e0d3 293d 27d3 1c3d 14e7 4a3e
00000310: 3487 90be 9c46 2ebd c669 1a3d fe82 03be
00000320: 64ec 5dbd ebdf 13bd 9c37 593e 930d 0c3e
00000330: 4a29 5f3d 3d0e 183e 45b4 0fbb 6c69 023e
00000340: cc17 ff3d 4544 d7bd a512 b33d bdd1 a53d
00000350: 28e4 82be 2e41 f0bd 74a6 813d e62e cfbb
00000360: 01ff 363d 1bb3 dc3d 8e2c 1c3e adae 323e
00000370: 853c cbbd 65d5 363e c239 263e 8cc1 6fbe
00000380: 6cd6 a23c 2741 ff3b 5aab a9bd a084 02bd
00000390: 6bcc 3ebd 2e06 bebc 66a3 583c 26c7 dc3d
000003a0: f91e 3fbd 9220 38be c827 1c3e b57d 323e
000003b0: 2ccc 193d becf de3d 5fb0 b83d be54 ca3d
000003c0: 2ee9 c4bd 97c0 2a3e f6ba 813d 89a8 0fbd
000003d0: 92df ccbd 87f1 973d c0c4 47bd e120 e93d
000003e0: 5b1e 92bc e6c8 773c 0272 db3d 9a97 8abe
000003f0: d09d eebd 3aa1 66bd 763d 3fbd 6589 c13c

features_extractor.encoder.4.bias f4 [16]
-0.019267825 -0.03201657 -0.020140953 -0.021097355 0.03634083 -0.0004148601 -0.02882317 -0.013162293
-0.028501611 0.010656276 -0.0098267635 -0.0025011592 0.0025118783 -0.014392364 -0.018833464 -0.013207314
00000000: 8fd7 9dbc cf23 03bd a4fe a4bc 5cd4 acbc
00000010: 1fda 143d 9481 d9b9 921e ecbc a8a6 57bc
00000020: 367c e9bc a997 2e3c 6f00 21bc 7dea 23bb
00000030: 539e 243b f3cd 6bbc a348 9abc 7d63 58bc

features_extractor.policy_net.0.weight f4 [64, 1024]
-0.045311507 -0.14214574 -0.09809702 -0.10485305 0.0028879144 0.011212116 0.1345398 -0.055095453
0.033230815 0.08608288 0.0064237327 -0.079928845 0.053620864 0.0037907364 0.022417005 -0.08804538
-0.0718008 0.049146373 -0.032101154 -0.08209705 0.0076312753 0.018308347 -0.0014518226 -0.06332248
0.07589606 0.10000972 0.03321155 0.0376209 0.040212236 0.0069049266 -0.10086938 0.050547406
0.067557074 -0.0013202585 -0.046445683 0.018583441 0.045178473 0.02647141 0.083976954 -0.044272196
-0.07207882 0.007030046 -0.03752837 0.011815559 -0.07612336 0.01147167 -0.010633446 0.023235282
-0.06105748 0.033606816 -0.006387597 0.052247655 0.06908906 -0.04308102 -0.027386243 -0.0023498265
0.04556672 -0.031919826 0.018387888 0.03755369 -0.0050758105 0.043257374 0.07902107 -0.03852893
0.023213448 0.010316441 -0.056352634 -0.11473446 -0.054144032 0.11095231 -0.03742702 -0.12104095
0.041518338 -0.012015668 -0.008810096 -0.020101665 0.058942113 -0.10781547 -0.10212658 0.0077592493
-0.021503046 0.013577098 -0.014514476 0.08635773 -0.06927856 0.016867347 0.05764569 0.14157541
0.014585943 0.083457395 0.05943389 0.0011634259 -0.034606073 -0.054426078 -0.04967478 0.02717597
-0.034851335 -0.016094772 0.09770118 -0.037342045 0.054042645 -0.009070364 0.044910517 0.045405634
0.08824739 -0.08838133 0.039865527 -0.00089794444 -0.11126101 0.0053094267 0.027053634 0.07735799
-0.05293523 0.0029611234 0.011197146 0.011895076 0.017437615 0.049090855 -0.03907095 0.14201821
0.061367787 0.1181911 -0.06713991 0.1047401 -0.019199243 0.08459449 0.026286796 0.035689753
0.016148275 -0.047185227 -0.08403787 0.033025313 -0.034308627 -0.06858038 0.03619835 0.0021144708
-0.1743476 -0.02933164 -0.10341933 0.05361235 0.01712908 0.04778948 -0.030042177 -0.035630267
-0.035976894 0.0394115 0.0674501 0.023267062 -0.14314383 0.0061061424 0.041791666 -0.024637023
-0.05025589 -0.02357926 0.03456942 -0.07077891 -0.00012119404 0.03189085 0.13677399 -0.059064567
0.046140578 0.06450127 0.049051315 0.039021753 0.04621829 0.046092723 0.031035148 -0.059768286
0.018533684 0.0073951227 -0.07401633 0.011080643 -0.0617748 -0.0001633223 -0.043042872 -0.10751078
0.0322465 -0.123446025 -0.027907316 -0.07907474 -0.06080403 0.05461767 0.047993556 0.16528025
0.14170593 0.10770806 -0.02871783 0.017664487 -0.005815408 0.043875974 0.037112933 -0.08631926
-0.055034973 -0.07957364 -0.05315589 -0.09956655 0.010730428 0.016068444 0.007124278 0.047748946
-0.09273025 0.011900175 0.005764885 0.0218436 0.036704544 -0.08591853 -0.15597485 -0.031302325
0.0064775683 -0.037328586 -0.06776306 -0.044185754 0.109129645 0.027281132 -0.04179577 0.11998033
-0.046601005 0.012281022 0.035216264 0.04630809 -0.08884576 0.013023826 0.027921889 -0.027413769
0.056447312 -0.01548052 0.021894997 0.07405065 0.07918698 -0.018066399 -0.0008524211 -0.00289952
-0.051061254 -0.13782784 -0.006309798 0.04518371 -0.027170848 -0.0018314101 -0.011008391 0.0062420247
0.046365686 0.063579194 -0.008032763 0.078044236 0.015213745 0.03155515 -0.040203866 0.019262705
0.11863123 0.09737925 0.12021729 0.0067604026 0.020272732 0.06537486 0.071142115 0.08651941
00000000: 8f98 39bd a78e 11be 17e7 c8bd 32bd d6bd
00000010: 2a43 3d3b 06b3 373c cdc4 093e c5ab 61bd
00000020: 091d 083d 394c b03d 2d7e d23b bcb1 a3bd
00000030: 8da1 5b3d 016e 783b dea3 b73c 2351 b4bd
00000040: 4c0c 93bd b54d 493d 807c 03bd 8022 a8bd
00000050: c70f fa3b 63fb 953c 154b beba 37af 81bd
00000060: 656f 9b3d e5d1 cc3d d608 083d 5f18 1a3d
00000070: 96b5 243d b942 e23b 9b94 cebd cc0a 4f3d
00000080: 5d5b 8a3d 860c adba d43d 3ebd 4d3c 983c
00000090: 100d 393d 92da d83c 1cfc ab3d c356 35bd
000000a0: 0f9e 93bd 4d5c e63b 59b7 19bd 0c96 413c
000000b0: 90e6 9bbd acf3 3b3c e837 2ebc eb57 be3c
000000c0: 6817 7abd 4da7 093d 0c4f d1bb a301 563d
000000d0: 917e 8d3d b975 30bd 1d59 e0bc 8cff 19bb
000000e0: 2ba4 3a3d 5dbe 02bd 32a2 963c e6d1 193d
000000f0: fc52 a6bb a52e 313d ccd5 a13d 83d0 1dbd
00000100: 212a be3c 4a06 293c 05d2 66bd e7f9 eabd
00000110: 22c6 5dbd f73a e33d 134d 19bd 51e4 f7bd
00000120: 220f 2a3d 5ddd 44bc 3958 10bc 3fac a4bc
00000130: 496d 713d 5bce dcbd be27 d1bd 4d41 fe3b
00000140: 2827 b0bc 7a72 5e3c 20ce 6dbc 52dc b03d
00000150: ebe1 8dbd 642d 8a3c e31d 6c3d 25f9 103e
00000160: e1f9 6e3c b6eb aa3d f370 733d 187e 983a
00000170: 19bf 0dbd e1ed 5ebd c877 4bbd 24a0 de3c
00000180: 46c0 0ebd 2fd9 83bc 8e17 c83d f9f3 18bd
00000190: d25b 5d3d dd9b 14bc 17f4 373d 42fb 393d
000001a0: 0cbb b43d 4501 b5bd 094a 233d 0864 6bba
000001b0: d0dc e3bd b3fa ad3b 959f dd3c de6d 9e3d
000001c0: 9dd2 58bd 680f 423b 3c74 373c 91e3 423c
000001d0: 54d9 8e3c 7e13 493d dc08 20bd 396d 113e
000001e0: ca5c 7b3d 2d0e f23d a680 89bd fa81 d63d
000001f0: bb47 9dbc e03f ad3d 6857 d73c 6b2f 123d
00000200: 6349 843c 4c45 41bd 0c1c acbd 8d45 073d
00000210: 3487 0cbd df73 8cbd b944 143d ef92 0a3b
00000220: 2d88 32be e848 f0bc 84cd d3bd a098 5b3d
00000230: 4952 8c3c e7be 433d 031b f6bc 0bf1 11bd
00000240: 825c 13bd f46d 213d 4723 8a3d 919a be3c
00000250: 4c94 12be 0916 c83b bd2d 2b3d 95d3 c9bc
00000260: 1fd9 4dbd 4b29 c1bc aa98 0d3d 88f4 90bd
00000270: 8e29 feb8 fb9f 023d 7b0e 0c3e b0ed 71bd
00000280: e7fd 3c3d 3e19 843d 08ea 483d 46d5 1f3d
00000290: 644f 3d3d b9cb 3c3d 6c3d fe3c 97cf 74bd
000002a0: f4d3 973c c952 f23b e095 97bd 968b 353c
000002b0: 9307 7dbd 7f41 2bb9 b94d 30bd 9d2e dcbd
000002c0: e814 043d 45d1 fcbd e29d e4bc f0f1 a1bd
000002d0: a60d 79bd c7b6 5f3d e494 443d 3a3f 293e
000002e0: 5c1b 113e 0b96 dc3d a841 ebbc 1db5 903c
000002f0: 2e8f bebb 4bb7 333d bb03 183d 27c8 b0bd
00000300: 5a6c 61bd 81f7 a2bd feb9 59bd 8ce9 cbbd
00000310: adce 2f3c f8a1 833c c772 e93b 6694 433d
00000320: 5be9 bdbd f4f8 423c 5ce7 bc3b 59f1 b23c
00000330: 8157 163d 0ef6 afbd dfb7 1fbe de36 00bd
00000340: c841 d43b dce5 18bd 5cc7 8abd 1ffc 34bd
00000350: 5d7f df3d ae7c df3c 0b32 2bbd 3fb8 f53d
00000360: b2e0 3ebd 5736 493c ee3e 103d 8dad 3d3d
00000370: c4f4 b5bd e361 553c 72bc e43c d792 e0bc
00000380: 4c35 673d 02a2 7dbc 235d b33c dea7 973d
00000390: c92c a23d fcff 93bc 0375 5fba e005 3ebb
000003a0: 9b25 51bd be22 0dbe 6cc2 cebb 8e12 393d
000003b0: 6695 debc ed0b f0ba 8a5c 34bc e689 cc3b
000003c0: f2e9 3d3d cf35 823d da9b 03bc a8d5 9f3d
000003d0: 1243 793c f93f 013d cfac 24bd d2cc 9d3c
000003e0: eef4 f23d c66e c73d 7c34 f63d 5e86 dd3b
000003f0: 0013 a63c 41e3 853d f5b2 913d 1731 b13d

features_extractor.policy_net.0.bias f4 [64]
0.014830987 0.02551858 -0.008448666 0.012712373 0.01977947 0.016671715 0.0050206794 0.007936667
0.017768964 -0.04821096 -0.008638586 0.014490965 -0.003806594 0.024689367 -0.00531016 -0.0026751158
0.03289252 0.039566606 0.009800155 0.01241255 -0.014543968 -0.024762772 -0.010287131 0.018173471
0.014175027 0.007941542 0.013252188 -0.014096981 0.029885184 0.0003163788 0.018073978 0.0044278493
-0.0032258162 -0.010181877 0.010799599 0.009711316 -0.0129580675 0.0052202553 0.030737748 0.002638082
0.012354509 0.0072130905 -0.0109665515 0.019101512 0.009948057 0.017074227 0.021283379 -0.0015772362
-0.0010279183 0.009086186 -0.0032381401 0.017903045 -0.0013187656 0.007814727 0.006506339 0.011283808
-0.00602205 -0.005545676 0.0050876793 -0.010640184 0.015101846 0.042341806 0.01954974 0.00971092
00000000: abfd 723c 570c d13c 466c 0abc 8f47 503c
00000010: 8e08 a23c 1f93 883c 8384 a43b cb08 023c
00000020: 3890 913c db78 45bd db88 0dbc 836b 6d3c
00000030: 0d78 79bb 5b41 ca3c da00 aebb ff50 2fbb
00000040: 4fba 063d 9810 223d d490 203c 025e 4b3c
00000050: d349 6ebc 4cdb cabc 5b8b 28bc 88e0 943c
00000060: 5f3e 683c 3e1d 023c b51f 593c 06f7 66bc
00000070: c6d1 f43c a5df a539 e10f 943c 7e17 913b
00000080: 3768 53bb e3d1 26bc cdf0 303c 361c 1f3c
00000090: 134e 54bc ad0e ab3b bbcd fb3c ace3 2c3b
000000a0: 916a 4a3c ca5b ec3b 0dad 33bc c67a 9c3c
000000b0: 2dfd 223c 40df 8b3c 7b5a ae3c 44bb ceba
000000c0: 37bb 86ba 3ade 143c fa36 54bb 68a9 923c
000000d0: 6eda acba 5709 003c 2133 d53b b9df 383c
000000e0: 9e54 c5bb 81b8 b5bb 8cb6 a63b 2b54 2ebc
000000f0: bc6d 773c 9a6e 2d3d c726 a03c 8d1a 1f3c

features_extractor.policy_net.2.weight f4 [64, 64]
-0.27145666 -0.06321136 -0.03284186 0.32274505 0.019522434 0.17012492 0.025208099 0.021181282
-0.054024678 0.32057768 -0.22634436 0.0076120393 -0.050963048 -0.13245702 -0.24027412 -0.23016839
0.15938921 0.018180592 -0.08056998 0.076611154 0.0354485 0.117405705 0.05559816 -0.35624346
-0.10741697 -0.06280932 0.21808887 0.07782597 0.092788525 0.025498575 0.052201003 0.002437167
0.03997241 0.1551932 0.19416563 0.4173229 -0.23095265 0.22291477 0.072654046 -0.15429549
-0.33946574 -0.21215011 0.20866153 0.10333122 0.029454317 -0.08091952 0.44008484 -0.026725782
-0.30991253 0.25649086 -0.013318914 0.100748636 -0.013426448 -0.043977957 0.23733814 -0.14130975
-0.12912346 0.21560565 0.17879961 -0.098738864 0.021919068 0.28551492 -0.26299357 0.041167084
-0.08484224 0.015267293 0.015109886 -0.27051637 -0.030410858 -0.08780816 -0.20699991 -0.13155113
0.07298553 -0.03580718 0.23530497 -0.029026259 -0.07601042 0.059584584 -0.06824802 0.22356325
0.1082226 0.20127687 -0.18819143 0.3004497 -0.025313757 -0.021582793 0.19836256 -0.16026363
0.0640976 0.17009485 -0.110588655 -0.19714816 0.058755994 0.017775264 0.2916179 0.5578566
0.24437785 -0.005741242 -0.045131333 0.006487086 0.04773274 -0.14443056 0.004820141 -0.15335852
-0.06480584 -0.048040822 -0.013974737 -0.123004414 -0.3045955 0.024067868 -0.19711632 -0.034955833
0.014796612 -0.14114511 -0.069902994 0.14357121 -0.2718689 0.010171372 0.36333132 0.16356835
0.07726248 -0.3816719 -0.1233153 0.07806297 -0.21916124 -0.012185737 -0.08255234 0.20207137
-0.04064639 -0.02921169 0.20717421 0.14447425 0.07985049 -0.13005927 0.21705277 0.28190273
-0.242313 0.4808401 -0.04217972 0.26423758 0.037711557 -0.051936943 -0.062327765 -0.2728703
-0.17368051 0.0030849613 0.32259202 0.1834193 0.17082651 0.122333616 0.11091086 0.002127861
-0.012379583 -0.14572206 0.032875415 -0.15824701 0.07994932 -0.28017682 -0.1798646 -0.10070674
-0.15079275 0.05777528 -0.16221261 -0.02540353 0.25171235 -0.26401934 0.23752162 0.068152055
0.066853866 0.1177766 0.22088653 0.13867366 0.29566157 -0.0507353 0.35663843 -0.1428331
-0.39126918 -0.123454094 0.1000138 0.09113245 -0.632937 -0.1692553 -0.18123433 -0.32349238
-0.054183155 -0.0917431 0.13900332 0.074623086 -0.05771297 0.09384899 -0.012160466 0.045918114
-0.39501268 -0.09815176 -0.08371991 0.021445412 0.24176899 -0.2701226 -0.23297668 -0.0701921
0.0019934294 -0.014463955 -0.17043315 0.12835833 -0.22352093 -0.024252217 0.056904074 -0.30745214
0.20531149 -0.15625183 0.1396895 -0.13210087 0.18571742 0.163367 0.7599478 -0.29419798
-0.11809937 -0.34752703 0.17115171 0.015393434 0.19342545 -0.27823576 0.05691465 -0.04068459
-0.18422034 -0.2573841 -0.21796651 0.0046540727 -0.040790267 0.18345688 0.062175237 -0.04078518
-0.09915011 -0.044794872 0.34735465 0.2152555 -0.127405 0.29905733 -0.0960735 -0.34999004
-0.17633194 0.017646598 0.089852564 0.17890236 0.00063685887 -0.17761002 0.05539915 0.062596664
-0.0034042601 -0.15422718 0.15632175 -0.027602982 0.19142695 -0.13413593 -0.156979 -0.054062907
00000000: 5efc 8abe f574 81bd 3085 06bd d73e a53e
00000010: 83ed 9f3c 3a35 2e3e 3781 ce3c 5e84 ad3c
00000020: fb48 5dbd c222 a43e d1c6 67be 6a6e f93b
00000030: a1be 50bd d0a2 07be 6b0a 76be 43b1 6bbe
00000040: ed36 233e 77ef 943c e001 a5bd 4fe6 9c3d
00000050: 7232 113d 6772 f03d e5ba 633d 8b65 b6be
00000060: 6efd dbbd 2ca2 80bd b052 5f3e 3963 9f3d
00000070: e907 be3d 63e2 d03c b8d0 553d e1b8 1f3b
00000080: 1cba 233d f7ea 1e3e 5bd3 463e 59ab d53e
00000090: da7e 6cbe c543 643e a5cb 943d a3ff 1dbe
000000a0: 74ce adbe e13d 59be 5eab 553e 529f d33d
000000b0: 2e4a f13c 22b9 a5bd cd52 e13e 07f0 dabc
000000c0: dbac 9ebe c552 833e 9337 5abc 4d55 ce3d
000000d0: 9bfa 5bbc 3b22 34bd c508 733e 81b3 10be
000000e0: f138 04be bac7 5c3e 3f17 373e 9a37 cabd
000000f0: 9e8f b33c 032f 923e 18a7 86be d19e 283d
00000100: c5c1 adbd ab23 7a3c 758f 773c 1f81 8abe
00000110: 3120 f9bc c4d4 b3bd c9f7 53be 57b5 06be
00000120: 7079 953d 8daa 12bd c9f3 703e 7ac8 edbc
00000130: 5aab 9bbd f70e 743d 9ec5 8bbd c4ed 643e
00000140: cfa3 dd3d 861b 4e3e 41b5 40be 8bd4 993e
00000150: cc5e cfbc 66ce b0bc 8e1f 4b3e 261c 24be
00000160: 9a45 833d 582d 2e3e 4e7c e2bd 35e1 49be
00000170: 20aa 703d 6e9d 913c f14e 953e b1cf 0e3f
00000180: 303e 7a3e 0721 bcbb a2db 38bd 9f91 d43b
00000190: 6883 433d 9be5 13be 46f2 9d3b 040a 1dbe
000001a0: edb8 84bd 74c6 44bd 4cf6 64bc bde9 fbbd
000001b0: f1f3 9bbe fa29 c53c dcd8 49be d92d 0fbd
000001c0: 7d6d 723c 5888 10be 4d29 8fbd 5504 133e
000001d0: 6732 8bbe d4a5 263c 9006 ba3e 767e 273e
000001e0: cb3b 9e3d 806a c3be bb8c fcbd 7adf 9f3d
000001f0: ce6b 60be afa6 47bc 3411 a9bd cceb 4e3e
00000200: d47c 26bd 5b4d efbc 7a25 543e 0ff1 133e
00000210: a788 a33d 422e 05be 1543 5e3e 8e55 903e
00000220: e620 78be ac30 f63e a4c4 2cbd 264a 873e
00000230: 6f77 1a3d d5bb 54bd 664b 7fbd a8b5 8bbe
00000240: 4ed9 31be 102d 4a3b c82a a53e 45d2 3b3e
00000250: 25ed 2e3e 0c8a fa3d 3c25 e33d 9573 0b3b
00000260: bcd3 4abc 2a38 15be 5fa8 063d 810b 22be
00000270: 78bc a33d 5673 8fbe 6d2e 38be 563f cebd
00000280: 6a69 1abe c6a5 6c3d 101b 26be 101b d0bc
00000290: 71e0 803e 8b2d 87be de38 733e 4e93 8b3d
000002a0: aeea 883d dc34 f13d 1430 623e 7800 0e3e
000002b0: f460 973e d1cf 4fbd 5099 b63e d742 12be
000002c0: 6f54 c8be 80d5 fcbd 09d4 cc3d a6a3 ba3d
000002d0: 2908 22bf 4351 2dbe 7e95 39be cba0 a5be
000002e0: 28ef 5dbd cee3 bbbd e356 0e3e fdd3 983d
000002f0: 6f64 6cbd e633 c03d b13c 47bc a214 3c3d
00000300: 1a3f cabe ca03 c9bd 5875 abbd 4aae af3c
00000310: 4a92 773e 824d 8abe 7091 6ebe e0c0 8fbd
00000320: 32a4 023b 39fa 6cbc 0786 2ebe 5e70 033e
00000330: ace2 64be 96ac c6bc 3f14 693d 5e6a 9dbe
00000340: 2d3d 523e 7b00 20be c40a 0f3e 7345 07be
00000350: b52c 3e3e ae49 273e f08b 423f 1ea1 96be
00000360: 15de f1bd 10ef b1be 6542 2f3e be34 7c3c
00000370: 5211 463e eb74 8ebe 561f 693d e2a4 26bd
00000380: 42a4 3cbe d9c7 83be 9d32 5fbe 3181 983b
00000390: b213 27bd 1fdc 3b3e 76ab 7e3d 5c0e 27bd
000003a0: 360f cbbd d47a 37bd 78d8 b13e f06b 5c3e
000003b0: 7576 02be 0b1e 993e 2fc2 c4bd e531 b3be
000003c0: 5c90 34be 998f 903c 9f04 b83d 2e32 373e
000003d0: e0f2 263a 67df 35be 38ea 623d ae32 803d
000003e0: 021a 5fbb bbed 1dbe cf12 203e a61f e2bc
000003f0: 6d05 443e ee5a 09be 1abf 20be 1171 5dbd

features_extractor.policy_net.2.bias f4 [64]
-0.0048617856 0.003377595 -0.0017694713 -0.0004184431 -0.0057163597 0.0065539274 -0.005692125 0.0023156384
-0.00019693653 -0.005098027 0.00393925 -0.008011491 -0.0028331259 -0.0044466853 0.005156997 -0.0052874396
0.007060235 0.0072412533 0.004422308 -0.0051703197 0.0037265955 -0.0065128794 0.00368927 0.00074324285
-0.00041050237 0.007839958 -0.0017687951 -0.004104799 -0.0073031825 -0.0015762945 -0.0058604465 -0.0022543424
0.007862692 0.004378991 0.0064746356 -0.005264462 -0.00024745203 -0.0046715746 -0.004747765 -0.005857922
0.006480941 -0.0026028089 0.0065548504 -0.00083800656 -0.0057864464 0.0028770007 -0.00033850592 0.00061163993
0.0036478154 -0.0037880298 -0.0017330187 0.011875158 -0.004512823 0.0008333735 -0.001929979 -0.0007688253
0.0008820284 0.0016748481 0.0048798537 -0.008245125 0.00012091929 -0.004498566 -0.0051537687 -0.003913599
00000000: 9d4f 9fbb a45a 5d3b 9bed e7ba 7b62 dbb9
00000010: 4d50 bbbb 54c2 d63b 0185 babb f7c1 173b
00000020: bf80 4eb9 5a0d a7bb d314 813b a142 03bc
00000030: f7ab 39bb 80b5 91bb 07fc a83b 4242 adbb
00000040: 8b59 e73b 0948 ed3b 02e9 903b c96b a9bb
00000050: e639 743b fe69 d5bb aec7 713b 2fd6 423a
00000060: b238 d7b9 2b73 003c ead6 e7ba 8d81 86bb
00000070: 894f efbb ab9b ceba fd08 c0bb 97bd 13bb
00000080: 85d2 003c a47d 8f3b 2e29 d43b 8281 acbb
00000090: 73bc 81b9 0214 99bb 2493 9bbb d0f3 bfbb
000000a0: 135e d43b e393 2abb 12ca d63b abad 5bba
000000b0: 3b9c bdbb 108c 3c3b 7f79 b1b9 7656 203a
000000c0: 3010 6f3b 9840 78bb 7526 e3ba 0690 423c
000000d0: 4ee0 93bb c076 5a3a 59f7 fcba fe8a 49ba
000000e0: ed37 673a 9486 db3a 2ee7 9f3b 9016 07bc
000000f0: 0d96 fd38 b568 93bb f2e0 a8bb a63d 80bb

features_extractor.value_net.0.weight f4 [64, 1024]
0.07992398 -0.050588995 0.045550574 0.10270026 -0.09698868 -0.020948973 -0.031066993 -0.051017687
-0.087574854 -0.0075230636 -0.012968365 0.0574333 0.00296918 0.010127888 -0.011530655 0.011581157
0.05660654 -0.016900513 -0.024680665 0.011389846 -0.012617342 0.066295356 -0.064567454 -0.06994389
-0.03510949 -0.076367736 0.029298933 0.070121996 -0.10302022 0.07050126 0.021116717 0.0074393423
0.0015217641 -0.04772361 -0.02746654 0.0011747505 0.06928213 0.06285795 -0.079287045 -0.099696964
-0.03902727 -0.048123676 -0.054327715 -0.08818377 0.08053348 -0.05159735 0.048020333 0.017643392
-0.007981731 -0.0027516212 -0.014584898 0.0018704875 0.02241553 0.010212004 0.049396522 0.090968624
-0.027156973 -0.031828824 0.012334432 0.044461794 -0.07431236 0.0006917659 0.09286929 0.103558525
-0.071208395 -0.0345592 0.009899361 -0.047905214 -0.08320995 -0.054497212 -0.051946215 0.0060638986
0.0036371443 -0.032734033 -0.03423152 -0.005460629 0.03544196 -0.03355663 -0.0053933216 -0.06294342
0.025925653 0.009264612 -0.058866948 -0.011959249 -0.029943692 -0.027298465 -0.094530195 0.02902317
-0.032563537 0.021693228 -0.044099603 -0.07770482 -0.045346055 -0.021758474 0.014384012 -0.04294345
0.012678618 -0.039027758 0.0135446815 -0.05804164 -0.07112021 0.038911577 -0.02976878 -0.09436227
0.02992355 0.06838381 0.06834789 0.032724105 -0.06952777 -0.0361744 -0.1346219 -0.09228416
-0.10381557 -0.06245964 0.013049069 -0.0026778777 -0.07324781 -0.033277515 0.04171716 0.0017570925
0.07175003 -0.019751336 0.039753918 -0.050708964 -0.054882277 -0.023196375 0.041563515 0.035172965
-0.05485533 -0.015044223 -0.0013446002 -0.012820661 0.07688926 0.02070521 0.11195184 -0.09826535
-0.013194059 0.033824973 -0.027716529 0.06720033 -0.035410423 0.069011636 0.048916582 0.030258853
0.04922456 -0.0123920245 -0.054867256 -0.04004762 -0.05355709 0.05701883 -0.033826094 0.077888265
0.0023409668 -0.01207836 -0.025474122 -0.13691688 -0.06161598 0.028558536 -0.026263755 -0.0819759
-0.007801969 0.018205982 -0.03177804 -0.06966435 -0.024018003 0.026593778 -0.078492165 0.03797992
0.034420423 -0.005639989 0.009585808 -0.019150808 -0.039333276 -0.07188012 -0.08873646 -0.02202475
-0.0657575 0.043568432 0.059671737 0.025228791 -0.01941298 -0.13487498 0.03077126 -0.026281795
-0.056712914 0.024571355 0.044613387 -0.005366015 0.021472238 -0.12908912 0.054987967 0.010054661
-0.049560223 -0.054543372 0.046227805 -0.017741162 -0.04701079 0.041231062 0.03346322 -0.011493305
0.044711426 0.053748503 -0.0696271 -0.05408436 0.06464334 -0.13018842 0.030575741 -0.019840935
-0.0006172539 0.064771466 -0.00066004565 -0.02119414 -0.019585032 -0.0004292994 -0.033349816 -0.013634909
0.005752654 0.005863774 -0.06775768 -0.056949653 0.01507516 0.03357567 -0.02157036 -0.017155828
-0.044309225 -0.026775606 -0.008497564 0.026183162 0.018946422 -0.01729984 -0.036211308 -0.045736276
-0.092264615 -0.063920274 -0.020309666 -0.02971093 0.012874573 -0.050790362 0.04552474 -0.07150124
0.03402108 0.04488036 -0.03293031 -0.058604322 0.0119833695 -0.036251806 0.07658468 0.06829056
-0.012611352 -0.062035315 -0.0069968808 0.036492493 -0.03611894 0.016341427 -0.016548762 0.06000413
00000000: 2faf a33d 6836 4fbd 3d93 3a3d 8454 d23d
00000010: 00a2 c6bd 2e9d abbc 3580 febc ecf7 50bd
00000020: 725a b3bd 0884 f6bb 4479 54bc 2e3f 6b3d
00000030: 9396 423b 71ef 253c 13eb 3cbc e5be 3d3c
00000040: 42dc 673d f272 8abc 1b2f cabc 7a9c 3a3c
00000050: f8b8 4ebc dcc5 873d f13b 84bd be3e 8fbd
00000060: f8ce 0fbd b066 9cbd 5104 f03c 1f9c 8f3d
00000070: 44fc d2bd f762 903d f7fc ac3c bac5 f33b
00000080: ee75 c73a d579 43bd 8201 e1bc 16fa 993a
00000090: cae3 8d3d abbb 803d 3f61 a2bd ec2d ccbd
000000a0: 0fdb 1fbd 551d 45bd bd86 5ebd b199 b4bd
000000b0: bdee a43d be57 53bd f8b0 443d e088 903c
000000c0: cec5 02bc 8b54 34bb 7ff5 6ebc 252b f53a
000000d0: c6a0 b73c 4050 273c 0254 4a3d c24d ba3d
000000e0: 4d78 debc f15e 02bd 5c16 4a3c 921d 363d
000000f0: 1431 98bd a057 353a 4132 be3d 7e16 d43d
00000100: b5d5 91bd f38d 0dbd ee30 223c 4238 44bd
00000110: fa69 aabd 7838 5fbd 8ec5 54bd abb3 c63b
00000120: 285d 6e3b 1f14 06bd 5a36 0cbd 13ef b2bb
00000130: 972b 113d ad72 09bd 76ba b0bb 7be8 80bd
00000140: 0962 d43c 99ca 173c 781e 71bd baf0 43bc
00000150: 794c f5bc 08a1 dfbc 0c99 c1bd 00c2 ed3c
00000160: 5861 05bd ffb5 b13c c9a1 34bd b423 9fbd
00000170: c9bc 39bd d43e b2bc ebaa 6b3c 79e5 2fbd
00000180: fab9 4f3c 92db 1fbd 83ea 5d3c 12bd 6dbd
00000190: 79a7 91bd bf61 1f3d a8dd f3bc 0141 c1bd
000001a0: 3c22 f53c d00c 8c3d fbf9 8b3d b609 063d
000001b0: 9364 8ebd 9c2b 14bd 53da 09be 7aff bcbd
000001c0: 429d d4bd aed5 7fbd c3cb 553c 557f 2fbb
000001d0: f302 96bd 014e 08bd 9ddf 2a3d 3e4e e63a
000001e0: aef1 923d 8ecd a1bc 01d5 223d 34b4 4fbd
000001f0: 3dcc 60bd 5306 bebc 813e 2a3d 8711 103d
00000200: fcaf 60bd 0b7c 76bc 4c3d b0ba c00d 52bc
00000210: 1e78 9d3d f99d a93c 0247 e53d 583f c9bd
00000220: e52b 58bc 0e8c 0a3d c60d e3bc 54a0 893d
00000230: 850a 11bd f955 8d3d c15c 483d 6ae1 f73c
00000240: b19f 493d eb07 4bbc 7dbc 60bd f908 24bd
00000250: ae5e 5bbd 948c 693d 3b8d 0abd e283 9f3d
00000260: e86a 193b 50e4 45bc 1baf d0bc f033 0cbe
00000270: 0a61 7cbd 97f3 e93c 1627 d7bc fbe2 a7bd
00000280: a9a7 ffbb b624 953c b129 02bd 2fac 8ebd
00000290: 67c1 c4bc 32db d93c 80c0 a0bd d590 1b3d
000002a0: 6efc 0c3d a8cf b8bb cb0d 1d3c 28e2 9cbc
000002b0: ee1b 21bd e235 93bd 76bb b5bd 406d b4bc
000002c0: deab 86bd d074 323d 5a6a 743d 9cac ce3c
000002d0: f807 9fbc ab1c 0abe 0214 fc3c eb4c d7bc
000002e0: cd4b 68bd de49 c93c 87bc 363d 65d5 afbb
000002f0: 8ce6 af3c f02f 04be 103b 613d 4ebc 243c
00000300: a9ff 4abd df68 5fbd 5e59 3d3d ea55 91bc
00000310: 638e 40bd e7e1 283d bb10 093d 6a4e 3cbc
00000320: 5423 373d 6427 5c3d a798 8ebd 9087 5dbd
00000330: ba63 843d 1d50 05be fa79 fa3c 7589 a2bc
00000340: 35cf 21ba e7a6 843d ea06 2dba 559f adbc
00000350: ca70 a0bc 9713 e1b9 d199 08bd f464 5fbc
00000360: c280 bc3b e724 c03b 8ac4 8abd 0a44 69bd
00000370: cefd 763c a486 093d 53b4 b0bc 618a 8cbc
00000380: 977d 35bd 8458 dbbc 5e39 0bbc 127e d63c
00000390: 8735 9b3c 65b8 8dbc 4f52 14bd f655 3bbd
000003a0: 3bf5 bcbd a2e8 82bd 7560 a6bc 5664 f3bc
000003b0: dfef 523c 8e09 50bd 2678 3a3d 3e6f 92bd
000003c0: b059 0b3d 78d4 373d efe1 06bd 160b 70bd
000003d0: e555 443c c67c 14bd 6ed8 9c3d ecdb 8b3d
000003e0: d89f 4ebc be18 7ebd 1746 e5bb 2779 153d
000003f0: 74f1 13bd 75de 853c 4591 87bc e4c6 753d

features_extractor.value_net.0.bias f4 [64]
-0.06895785 0.0509134 -0.057747923 0.051897213 0.0027221888 -0.034733452 0.021384431 0.04546864
0.040655565 -0.054859724 -0.038146015 -0.053744484 -0.060845885 -0.016462887 0.022380061 0.02426499
-0.0012968205 -0.024841983 -0.019377861 0.024469057 -0.054938108 -0.048167598 -0.0277718 -0.045827366
-0.0035044863 -0.047484774 -0.06103205 -0.03499321 -0.057061236 0.008577064 0.012606042 0.04073243
0.038047213 0.0335983 -0.0054334123 -0.050954882 -0.049102135 0.008086995 -0.015896628 -0.04611478
-0.044149317 -0.04420998 -0.017411344 -0.012808771 -0.066736884 -0.041542765 0.024537249 0.021627568
-0.06309012 -0.045101196 0.015456897 -0.061217237 -0.06225883 -0.04119917 0.03424228 -0.046118185
-0.04878606 0.03893574 0.033100538 -0.067014106 0.010167565 -0.0016488975 -0.04458987 -0.06379618
00000000: c639 8dbd 928a 503d 1689 6cbd 2c92 543d
00000010: c066 323b aa44 0ebd 672e af3c 533d 3a3d
00000020: 7386 263d 97b4 60bd ff3e 1cbd 2d23 5cbd
00000030: 8939 79bd 2ddd 86bc 6456 b73c 5fc7 c63c
00000040: 13fa a9ba 6a81 cbbc 52be 9ebc 5573 c83c
00000050: c806 61bd 634b 45bd b081 e3bc 7ab5 3bbd
00000060: 86ab 65bb 657f 42bd befc 79bd 0a55 0fbd
00000070: 0bb9 69bd d086 0c3c 9389 4e3c 0cd7 263d
00000080: 65d7 1b3d 5f9e 093d c40a b2bb 11b6 50bd
00000090: 521f 49bd 517f 043c a539 82bc dae2 3cbd
000000a0: ead5 34bd 8615 35bd 3ca2 8ebc e1db 51bc
000000b0: 59ad 88bd bf28 2abd 5702 c93c 4c2c b13c
000000c0: 6535 81bd 08bc 38bd ed3e 7d3c edbe 7abd
000000d0: 1d03 7fbd 76c0 28bd a241 0c3d 6ce6 3cbd
000000e0: e4d3 47bd 157b 1f3d 6e94 073d b13e 89bd
000000f0: dc95 263c d21f d8ba dea3 36bd 92a7 82bd

features_extractor.value_net.2.weight f4 [1, 64]
-0.2613807 0.021017836 -0.060013335 0.01355905 0.038157493 0.029688595 0.104113854 0.18599638
0.05996982 -0.010065784 -0.07542627 -0.035541896 0.018993232 0.13863824 0.10631804 0.022236567
0.16072088 -0.2148875 0.061123803 0.025412735 -0.06729418 -0.12318117 -0.022608088 -0.41518524
0.024975361 -0.13493969 -0.1257981 -0.09839209 0.0011090401 0.0789992 0.13148521 0.04628827
0.14572783 0.1258162 -0.028580604 -0.15037242 0.0012814994 0.015503735 0.21957882 -0.016740886
-0.012545706 -0.010633279 -0.013937266 -0.04801737 -0.011998766 -0.091880135 0.13075526 0.10245061
-0.114555664 -0.12244343 0.3472517 -0.11337669 -0.09934531 -0.001304914 -0.003008815 -0.17608523
-0.13243738 0.09315177 0.15627573 -0.030707963 0.015387338 0.07662118 0.01744402 -0.29916793
00000000: b1d3 85be 992d ac3c 8bd0 75bd c726 5e3c
00000010: 084b 1c3d 7f35 f33c a539 d53d d675 3e3e
00000020: eaa2 753d f5ea 24bc 1779 9abd 6194 11bd
00000030: b297 9b3c 2ff7 0d3e 46bd d93d 7629 b63c
00000040: 0494 243e 780b 5cbe f45c 7a3d 5e2e d03c
00000050: 88d1 89bd 6946 fcbd 9934 b9bc 2993 d4be
00000060: 2199 cc3c a12d 0abe 38d1 00be cb81 c9bd
00000070: 365d 913a 55ca a13d 0fa4 063e c598 3d3d
00000080: ad39 153e f6d5 003e df21 eabc 3afb 19be
00000090: fcf7 a73a 6103 7e3c 45d9 603e 2f24 89bc
000000a0: 818c 4dbc 3437 2ebc 2159 64bc ddad 44bd
000000b0: 7996 44bc a72b bcbd b5e4 053e a0d1 d13d
000000c0: 299c eabd 9fc3 fabd faca b13e 0a32 e8bd
000000d0: 8e75 cbbd a609 abba 8a2f 45bb b04f 34be
000000e0: aa9d 07be 5bc6 be3d bf06 203e 448f fbbc
000000f0: 2c1b 7c3c 91eb 9c3d c3e6 8e3c 8a2c 99be

action_net.weight f4 [2, 64]
-0.24275225 0.028741118 -0.0671267 -0.19259724 -0.123492256 0.12099597 -0.15519124 0.2326046
-0.13599399 -0.10223014 0.22074485 0.0706291 -0.19537492 -0.14074641 0.13545023 -0.20909277
0.06959794 0.02663348 0.15210848 -0.05628636 -0.0063211555 -0.03812122 0.14829352 0.060798094
0.17261793 0.2236579 -0.119846776 -0.13595332 -0.028424786 0.11359491 -0.020698372 -0.08887564
0.11673363 0.16960798 0.058744937 -0.06884233 0.1929552 -0.18650837 -0.18011005 -0.12044264
0.16303468 -0.14829291 0.072629824 -0.15959474 -0.18605882 -0.04924052 0.026215749 -0.12900247
0.11677672 0.012426813 -0.082206555 0.06651374 -0.056446735 -0.117870264 -0.119630784 0.09974822
-0.049680423 0.01458775 0.11257945 -0.024749136 -0.1532992 -0.1746878 0.040757664 -0.2713832
-0.08749363 -0.044113107 -0.016647432 -0.13761036 0.17173485 -0.14689085 0.23163393 0.10255459
-0.1503483 -0.036362123 0.09607664 0.05966709 -0.08757402 0.051942382 0.057490565 0.14943482
-0.14549178 -0.06856967 -0.14339238 0.10881995 -0.1568205 0.16854915 -0.14961568 0.0606949
0.15535311 -0.016990196 0.034204055 0.14866774 0.12276683 0.21088265 0.10746416 -0.13406986
-0.16466253 -0.09021106 -0.15699643 0.14930102 0.23942165 0.17289573 0.069610275 0.17150386
-0.17571379 -0.14346483 -0.15911457 -0.04248248 0.10621752 -0.18690778 0.100807175 -0.1169187
-0.001668317 0.1662288 0.0023882273 -0.06932858 0.22908695 -0.15629438 -0.10037485 0.14682823
-0.17327482 -0.055917446 0.0064791352 0.16496907 -0.13323699 -0.03568677 0.11854226 -0.012752519
00000000: 0c94 78be 7e72 eb3c b979 89bd 3638 45be
00000010: 82e9 fcbd bccc f73d 74ea 1ebe e62f 6e3e
00000020: 0242 0bbe 095e d1bd f00a 623e fda5 903d
00000030: 5d10 48be d41f 10be 77b3 0a3e 6a1c 56be
00000040: 5d89 8e3d 752e da3c 53c2 1b3e 878c 66bd
00000050: b221 cfbb ff24 1cbd 42da 173e 6c07 793d
00000060: c1c2 303e 9406 653e 3a72 f5bd 5937 0bbe
00000070: 19db e8bc 73a4 e83d a28f a9bc 6e04 b6bd
00000080: 0b12 ef3d b7ad 2d3e 889e 703d 35fd 8cbd
00000090: 0c96 453e 0dfc 3ebe c56e 38be a1aa f6bd
000000a0: 90f2 263e 19da 17be f2be 943d ce6c 23be
000000b0: 3486 3ebe 6db0 49bd 69c2 d63c 3919 04be
000000c0: a228 ef3d d599 4b3c e95b a8bd 5b38 883d
000000d0: b134 67bd f765 f1bd fc00 f5bd cb48 cc3d
000000e0: b37d 4bbd 7501 6f3c 0e90 e63d b3be cabc
000000f0: 77fa 1cbe 5ce1 32be 82f1 263d bdf2 8abe
00000100: dc2f b3bd f2af 34bd 3260 88bc bbe9 0cbe
00000110: 43db 2f3e 8e6a 16be 7231 6d3e 2408 d23d
00000120: e8f4 19be 73f0 14bd d4c3 c43d 7b65 743d
00000130: 025a b3bd 89c1 543d 3a7b 6b3d 7105 193e
00000140: ccfb 14be 416e 8cbd 74d5 12be fedc de3d
00000150: 8e95 20be 2698 2c3e da34 19be 379b 783d
00000160: e314 1f3e 062f 8bbc 8d19 0c3d 5b3c 183e
00000170: 2d6d fb3d 9ff1 573e 2b16 dc3d 9c49 09be
00000180: 4b9d 28be 94c0 b8bd acc3 20be 5ee2 183e
00000190: f32a 753e 940b 313e d58f 8e3d b59e 2f3e
000001a0: 51ee 33be 72e8 12be eeee 22be 1c02 2ebd
000001b0: 9288 d93d c164 3fbe fe73 ce3d 1273 efbd
000001c0: 6eab daba e237 2a3e ce83 1c3b 24fc 8dbd
000001d0: c595 6a3e a20b 20be 5491 cdbd 245a 163e
000001e0: f46e 31be b109 65bd ed4e d43b a7ed 283e
000001f0: 476f 08be 4a2c 12bd 49c6 f23d f1ef 50bc

action_net.bias f4 [2]
-0.039041243 -0.026159996
00000000: b6e9 1fbd 7d4d d6bc
