weights/cnn-nd-2-eps-300.pth (torch, 568288 bytes, 16 tensors)

log_std f4 [2]
00000000: d81a 083e 9bbd e63d
0.1329149 0.11266633

features_extractor.encoder.0.weight f4 [16, 1, 3, 3]
00000000: a534 993e d2dc a83e 5d5c a5bc 3bfd b93e
00000010: 7f39 e0bb 99d7 f53d 2690 f3bd 6a31 803e
00000020: 79f2 af3e 64cb 5ebe 4080 a73e bdac bf3d
00000030: bfa3 943e 9ee6 c33d 45cf 473e 356b e0bb
00000040: bf88 9c3e 5ef5 bf3d cf10 25be 3cfc 2c3e
00000050: e7ec cabd a9e9 bbbd 116a 11be 999e 913e
00000060: 74f4 3e3c 1866 27be b548 b5bc 0f77 8ebe
00000070: 4e32 c7bc 9735 cdbe 2326 8f3e 8803 9bbe
00000080: aa46 7d3e e7cd a43d 533e bdbd fc6f 733e
00000090: 4370 a73d fdb5 9b3e a9c0 5a3d bb55 98bd
000000a0: 8bb8 0a3e c144 8abd e61c 2d3e 423f b13e
000000b0: ce4d 633e 0a71 11be eb43 343e 0ae7 2f3b
000000c0: 09b8 9c3d e90e 59be 05ab a3be f760 82be
000000d0: ed0e 5abe 1f68 ec3e 2302 103e dba9 5b3e
000000e0: 578d 493e 0caa 6a3d ae3c bd3e 2115 15be
000000f0: 849c 733d a697 11be 8a3e 413e fd74 11be
00000100: ebb3 013e ac2c 2cbc 548b ae3e 9c0d 66be
00000110: cf49 01be 3a93 88be c59f 9c3e a240 d43d
00000120: 0560 c23e 791e 82be 0621 9fbe d737 a1be
00000130: 7fea 35be 1fb7 863e 8f6b 1a3e 8ec6 c53e
00000140: e2ed 01be 5e4b 81be c5a8 803e 4a2d 89bd
00000150: 260b 813e 31b6 4c3b 4341 903e 7f7e 5abe
00000160: 1828 72bd 7e0c 473e abf7 0a3e 58ac 9cbd
00000170: 3f56 1f3e 9725 883e 10bd 55be c6f4 58be
00000180: 8b61 bf3e 784a adbd a38e 31be db22 a5be
00000190: b078 43be 5c88 aa3d f836 34bd e3c4 77be
000001a0: e01a 003c 9328 69be 04cb 90be a3f5 3bbe
000001b0: ccf6 9fbe f51c 4bbe 3ced c23e 73a6 fe3d
000001c0: 2c79 803d 8d2a a0be cba5 07be 825c 8abd
000001d0: ea9e 103e 5a2c 96be bdb9 dabd 7658 4cbe
000001e0: 7579 b2bb c005 febd 269c 2ebd 304c 67be
000001f0: 204a 6abe 6c65 4fbe 3c0c 0dbe 3c62 81be
00000200: 2f15 983e ce54 7dbd 3de4 a43e d2d2 143e
00000210: de74 99be 2863 843e 47fd 3dbd a609 15be
00000220: 3bfc 8bbe 78f3 26be fbe3 94bd 0b2c afbd
00000230: 2f66 733e b858 a1be 3817 f23e f489 0dbe
0.29922977 0.32980973 -0.020185644 0.36326012 -0.0068427916 0.120040126 -0.118927285 0.250377
0.3436468 -0.21757275 0.32715034 0.09359119 0.29031178 0.09565471 0.19512661 -0.0068487176
0.3057308 0.09372972 -0.16119693 0.16893095 -0.09908467 -0.091754265 -0.14200617 0.28441313
0.011654962 -0.1634754 -0.022129396 -0.2782521 -0.02431598 -0.40079948 0.27958784 -0.30276132
0.24733987 0.08047085 -0.09240403 0.23773187 0.08175709 0.30412284 0.05340639 -0.07438227
0.1354696 -0.06751395 0.16905555 0.34618574 0.22197649 -0.14203277 0.17604034 0.002684059
0.076522894 -0.21197094 -0.31966415 -0.25464603 -0.21294756 0.46173188 0.14063315 0.21451513
0.19682823 0.057291076 0.36960357 -0.14558841 0.059475437 -0.14218006 0.18871513 -0.14204784
0.1266629 -0.0105086975 0.34090674 -0.22466129 -0.12625812 -0.26674825 0.30590644 0.1036389
0.37963882 -0.25413874 -0.31079882 -0.31487915 -0.17765234 0.26311585 0.15080093 0.38628048
-0.12688401 -0.25252813 0.2512876 -0.06698091 0.25203818 0.0031236524 0.2817479 -0.21337317
-0.059120268 0.19438359 0.1357104 -0.076500595 0.15560244 0.2659118 -0.20872903 -0.21187124
0.37379107 -0.084614694 -0.17339568 -0.32253155 -0.19089007 0.0832679 -0.043997735 -0.241962
0.0078189075 -0.22769384 -0.2827989 -0.18355422 -0.3124298 -0.19835265 0.3807162 0.124340914
0.06273112 -0.31282464 -0.13246839 -0.06755926 0.14123121 -0.29330713 -0.10679958 -0.1995562
-0.0054466077 -0.124034405 -0.042629384 -0.22587657 -0.22879839 -0.20253533 -0.13774198 -0.2527026
0.29703662 -0.061848454 0.32205382 0.14533547 -0.29971975 0.258569 -0.046384122 -0.14554462
-0.27340874 -0.16303813 -0.07270046 -0.085533224 0.23769449 -0.31513 0.4728334 -0.13822156

features_extractor.encoder.0.bias f4 [16]
00000000: 69a0 cabc 70ad e53c 7e93 693e b096 803e
00000010: 1309 7e3e 279c adbd fe35 503d 795b ebbd
00000020: a190 293c b08a 1ebe 2e53 863e 9385 7abe
00000030: a2c0 743e a714 393e 47fe c23d 64df ab3b
-0.024734693 0.028036803 0.2281017 0.25114965 0.24808149 -0.08477049 0.05083274 -0.114920564
0.010349424 -0.15482593 0.26235336 -0.24465017 0.23901609 0.18074284 0.09521156 0.005245136

features_extractor.encoder.2.weight f4 [16, 16, 3, 3]
00000000: c547 d03d b6c7 703d 8757 873d a7e3 dabd
00000010: 7b38 073c 5d74 7dbd 5201 31bd a2df 0c3b
00000020: 92ab cfbc 608d dabc a16a 3e3b a43b 273d
00000030: 54ec e23c e401 80bd a765 99bd 6ed5 34bd
00000040: c3bc fdbd 092a 5a3b af00 ac3d 08b9 85bd
00000050: 41b9 0d3c bdc7 7d3d b2a8 103d 389b 193c
00000060: 6c5d 8e3d 1777 a23d 1a0b 8c3d 3e80 76b9
00000070: 7625 7abd a5b0 3cbb 7421 f93b a087 393c
00000080: cecf 993d 69a7 c23d 3e5c d93c e90c 983c
00000090: 7997 063c e336 943c 2a65 153d 2672 463c
000000a0: 16ea cfbd dc7e 57bd 3963 913d 4e2f 8138
000000b0: a2bb afbc e214 973c 7403 34bd 4447 02be
000000c0: 9ac0 dbbd 7f9c 123d cba3 cd3d ce0f 6d3d
000000d0: f54c b43b 56cb 97bd 634d 273d c8e3 123e
000000e0: 1544 b53d d7c2 58bd 8d57 cd3c 853f 6bbd
000000f0: a9f8 7bbd 2424 50bc 879e 9ebd 872e c83d
00000100: c6f5 b53d 5d3a 483e b438 fc3d 8938 543e
00000110: 74f4 76bd 4f29 8ebc 50bc 03bd 8b44 d23d
00000120: 0932 9d3d 84ab 093e 0110 293e eb8e 473e
00000130: 7da4 2b3e 05d3 9a3c c9ef 4ebd 2fba 343d
00000140: 89a3 a23d 921f b83c 109b ba3c 14a0 f43d
00000150: 75f2 04be 9ae9 0abd c7d5 41bb ee07 93bd
00000160: b0b6 04be 9cd5 6e3d ba7f e83b f9b7 12bd
00000170: c10e f1ba 81c7 bcbc efe9 88bb c7e0 c1bd
00000180: 5686 9a3d 3eed 5bbd 77f3 023d 46e4 1a3d
00000190: 16dc 733d 04e9 82bd 627c 753d ab5d 21bd
000001a0: 0c51 fd3c 8d46 a03d 388e 40bc 80f0 28ba
000001b0: 377d 0fbc a306 b1bd 9861 b63c 144b 1abd
000001c0: c371 633d a00b 073e fe90 d13d 022f 133d
000001d0: 3fcf 45bd c101 8abc 1d82 81bc aed8 12be
000001e0: a894 1dbc a287 3cbd bb37 103b 5c8b 6abc
000001f0: f0df 26bb 9154 91bb dcd6 43bd 9d6b 093e
00000200: 0a5a 0e3e 497b 00bb 5ee6 43bd 4be6 9cbc
00000210: 2c67 f8bd 7d54 e2bd 3911 4b3d 4b9a 1fbd
00000220: c970 e9bd ccc0 1d3d 0781 09bd e332 b23c
00000230: 7b37 82bc 7d09 3ebd 0927 903c 7e5f 85bd
00000240: e9ee 0cbe d15e 36bd 4c28 903d d4bc 4e3d
00000250: b37a 07be 582c c8bd d554 0b3e 1f0c 093d
00000260: b121 77be 21ec 09bd 0835 a13c 7f3b ff3d
00000270: 615c c63d 2ba3 0c3c 2cca b7bd 3d2e 623d
00000280: f3de a8bd 73e0 20be f04c c93d c65f fe3d
00000290: 7c0c 2fbd 6704 23be 77a4 c5bc c39b 35bd
000002a0: 6ec5 d6bd d7fb 653c 2f86 c33d 35a1 e53a
000002b0: 4087 a0bd 1476 91bd 4c32 d53d c26a f6bc
000002c0: 714c 0abc 3518 8b3c b611 1cbd 4b14 1abc
000002d0: 0ca3 01bd 4652 3ebd 124f 8fbc 9c47 34bd
000002e0: 26ed c7bd cb24 3abd 2de8 f23d 3ee1 49bd
000002f0: 7581 c2bd 9d09 0abd 7228 0bbe 3d4e dc3c
00000300: 0da3 4c3e 82b4 d03d df80 77bd c33c 6f3d
00000310: d59d b1bd a675 89bd 3162 debd 1dae 913d
00000320: 8406 3e3d 365c 30bd 7087 0dbe 4bb2 6a3c
00000330: 927e bf3d 1d8f 073c 8a6c d7bd 6ef7 4c3e
00000340: 2192 f1bd 2bb0 ba3d e6d3 a73e 8db6 963e
00000350: 04b2 b5bd 43be 3d3e 085b 1d3e b8cf 5bbd
00000360: 5141 c93d f5a3 04be 1881 c13d ef9e a63d
00000370: 2051 bd3c 064a 18be 117d 203e 00fa c93d
00000380: 7e80 d43d 06d1 24be 9bfd 94bd 25b2 a23d
00000390: 7eec 023e 64a1 0abe 6dd9 b0bb a54b 15bd
000003a0: 0c4b aa3c 68ef 963b 23db 643d 293a c8bd
000003b0: 8378 68bd d386 a23d 4fc7 db3c 9c24 27bd
000003c0: fef8 193d cc92 573d aa16 493d 0068 763b
000003d0: 3001 a8bc d28d 9abd 7a78 a0bd 9829 23bd
000003e0: ce81 2dbd f0af d43c 4cbb c6bc 8389 05bd
000003f0: e420 ff3d 8155 d73d a3ba aa3d e6b3 c6bd
0.10169939 0.05878421 0.066084914 -0.106879525 0.008253212 -0.06187855 -0.04321415 0.00214956
-0.025350366 -0.026678741 0.0029055255 0.040828362 0.02770058 -0.062503606 -0.07490092 -0.044148855
-0.12389519 0.0033289215 0.08398568 -0.065294325 0.008650125 0.061958063 0.03531713 0.009375386
0.069514126 0.07932871 0.06838055 -0.00023508162 -0.06107088 -0.0028791812 0.007602865 0.011323839
0.07510339 0.09504587 0.026533242 0.018560844 0.008214825 0.018092578 0.03647343 0.012112176
-0.1015207 -0.052611217 0.07099003 6.1600105e-05 -0.021451775 0.018442575 -0.043948606 -0.12722498
-0.10730095 0.035793778 0.10041007 0.0578764 0.005502338 -0.0741183 0.040845286 0.14344704
0.08850876 -0.05292019 0.025066162 -0.057433624 -0.061516438 -0.012703929 -0.077450804 0.097744994
0.08884768 0.19553514 0.12315503 0.20724691 -0.060291722 -0.017353682 -0.03216201 0.1026698
0.07675559 0.13444334 0.16510011 0.19488113 0.16761966 0.01889945 -0.050521646 0.04412287
0.07941348 0.022475991 0.022779018 0.11944595 -0.12983115 -0.033914186 -0.0029576884 -0.07179247
-0.12960315 0.058309183 0.0070953043 -0.03581998 -0.0018391238 -0.02304435 -0.0041782777 -0.09466701
0.07545154 -0.05369305 0.031970467 0.037815355 0.059536062 -0.063921005 0.059933074 -0.03939597
0.030922435 0.078259565 -0.011752658 -0.00064445287 -0.008757881 -0.08643844 0.022263333 -0.037669256
0.055528414 0.13188028 0.10232733 0.035933502 -0.04829335 -0.01684654 -0.015809113 -0.14340469
-0.009617962 -0.046027787 0.0022005874 -0.014315452 -0.0025463067 -0.00443513 -0.047812328 0.13419957
0.13901535 -0.0019604734 -0.047827117 -0.019152781 -0.121290535 -0.11051271 0.04957697 -0.038965505
-0.11398465 0.038513944 -0.033570316 0.02175278 -0.015895596 -0.046395767 0.017596738 -0.06512354
-0.13763012 -0.044524018 0.07038936 0.05047305 -0.132304 -0.09774083 0.1360658 0.033458825
-0.24133946 -0.033672456 0.019678608 0.1246252 0.09685589 0.008583824 -0.08974108 0.055219878
-0.08245649 -0.1571062 0.09829128 0.12420611 -0.042736515 -0.15919648 -0.024126275 -0.044338
-0.104868755 0.014037094 0.09547078 0.0017519357 -0.07838297 -0.071026 0.10409984 -0.030080203
-0.008441077 0.016979316 -0.038102828 -0.009404252 -0.031649634 -0.04646518 -0.017493758 -0.044013605
-0.09762029 -0.045445245 0.1186069 -0.049287073 -0.09497348 -0.033700574 -0.13589647 0.026892776
0.19984074 0.10190679 -0.060425635 0.058407556 -0.08672682 -0.06711893 -0.10858572 0.071132876
0.046392933 -0.04305669 -0.13821197 0.014324735 0.09350313 0.008273867 -0.10518749 0.20016262
-0.1179545 0.091156326 0.32778853 0.2943615 -0.088718444 0.1852961 0.15366757 -0.053664893
0.09826911 -0.1295317 0.09448451 0.08135783 0.023109972 -0.14871988 0.15672709 0.09862137
0.103760704 -0.16095361 -0.07274934 0.079441346 0.12785527 -0.13538128 -0.005397013 -0.036449093
0.020787738 0.004606176 0.055873048 -0.09776718 -0.056755554 0.07935872 0.026828436 -0.040806398
0.037590973 0.05263023 0.04909388 0.003759861 -0.020508379 -0.07546581 -0.07835479 -0.03983459
-0.04236012 0.0259628 -0.024259232 -0.032601845 0.12457445 0.105143555 0.083363794 -0.09702282

features_extractor.encoder.2.bias f4 [16]
00000000: 29d3 c33c c415 9fbc 609c 893d 7bf0 4dbd
00000010: 845d 263d 41e6 bfbd fe19 2ebd 3e82 05bd
00000020: 5148 d2bc d76f d23c 7a9c 7fbd f4c9 9dbd
00000030: da7c 133d a77c 893d 0c69 ab3b 4daa 8cbd
0.0239044 -0.019419558 0.06719279 -0.05027817 0.040616527 -0.09370089 -0.042505257 -0.03259491
-0.025669249 0.025688095 -0.062405087 -0.07704535 0.03600774 0.06713229 0.0052310284 -0.0686842

features_extractor.encoder.4.weight f4 [16, 16, 3, 3]
00000000: ae13 efbb ffaf e5bc d6b5 953c 2df6 cabd
00000010: d668 acbd 3ce9 9cbd 37da 55bc 44d4 b73d
00000020: 4fb1 9c3d a268 373d 434a 383c 7987 a93d
00000030: b987 b7ba 8c57 24bd 1a92 433d d0a1 2bbd
00000040: 655a c23d 8600 9dbd 7352 213d f091 113d
00000050: 45e2 da3d 2639 c0bd b2ab 89bc feee 09bd
00000060: fe8b f6bd c347 18bd 8a9d 02bd fd1f 71bb
00000070: 0d46 6dba e7b0 bbbc 25ac 4abd 14d0 b53d
00000080: 8b92 01bd d2a9 223d 9348 693d b860 60bd
00000090: e339 5bbd 000c 043d 4c7c b93d cafc 3cbd
000000a0: 178a 043d 430b afbd 8f8f e9bd 994f 17bd
000000b0: e60d a5bd 1cd6 823d 5ff3 553c 5456 a5bc
000000c0: dca9 9c3d 5426 9a3d 6c4a 173c c8db a2bd
000000d0: f15e 42bd 53b2 95bd 1c0a 153d 26a6 9cb9
000000e0: 66de d83c 7414 583d c6d7 093d 9e3c fabc
000000f0: da6f 2f3d 01a3 ac3c 9f3d 96bd c73e b93b
00000100: 6cfc d73c 0968 4ebd de5a 0dbe f7ad 8dbd
00000110: f6f7 01be eb6a 4f3a 5563 043d c652 69bd
00000120: 6bdb 163d 1c02 cfbc 8c95 39bd 6894 babd
00000130: ff8f 6ebb f15a 33bc 8c38 303d a798 4f3c
00000140: 0768 72bd c55f 023d 57ec 803d 827f cb3c
00000150: 279b 81bd a5f1 e13c 33aa febb d822 1f3d
00000160: 675d 59bc e499 c7bb 66b7 19bd dcde ab3d
00000170: 8f5e 92bc dca8 c13d 813d 0b3e 993a cabc
00000180: f072 04bd 089b 06bd eead 2cbd cfed 7d3b
00000190: 6fa4 113c e8b8 5a3c 24aa 9b3d b7a7 5abd
000001a0: 3a74 cebc 2238 f7bc e782 33bd d81b 34bd
000001b0: 136b 803d b90e 82bd 454c e9bc c3ed b53b
000001c0: 0d59 4d3d 8a2e e53c a984 173d de6b 24bc
000001d0: 2449 4d3d 80ba 8bbc 4b94 423a bd17 8dbd
000001e0: fdab e7bd e45e d0bd e88e ecbc 1200 afba
000001f0: 5627 c1bd ebd7 213c d235 4ebd 7a82 84bd
00000200: ee96 4aba 482d 7bbd 326e 333d 73d5 bdbc
00000210: 8e31 903c 3975 03be 6cfc c5bd 79b3 033c
00000220: ab77 873d 0e70 333d dfa7 973c ead8 a9bd
00000230: ba0d 8cbc 1f28 9fbd 9c7b fbbd 66f2 aabc
00000240: d9e9 28be 1b22 c53c 3755 f0bd 1d13 86bc
00000250: ce10 c33c 43ff 24bd ae2e ab3c 4ef9 9e3b
00000260: df4d eb3c d1ac a0bb c184 c5bd b819 233d
00000270: c091 89bd e44f a13c c8f1 1ebe 25e6 113e
00000280: 6cab 87bd 1a29 fb3c 6239 853d 2ac2 903d
00000290: 6fe4 c63a e33f 0c3d 2639 7fbd 72ce 00bd
000002a0: 0ce5 503d dbdb 28bd ef1c 2abd 508e c13b
000002b0: d0d2 a63c b62d 54bd c62e 66bd e708 9dbd
000002c0: cc63 b03c 033d 5cbd 8019 d03b 1caf 98bc
000002d0: 6e1d 01be e6ee 78bd 01c3 43bc 1efd ffbd
000002e0: a792 40bd 387e a7bd 6ac9 d5bd a3fb 463d
000002f0: a35d b3bb 7220 babd 36de 043d 4c7f 163e
00000300: bddf 0fbe 59b8 20bd 64fd 4cbd ad94 ddbd
00000310: 8dbb 87bd c05a c2bd 775d 093d 4d73 aebc
00000320: fb7f e43d 4ff1 a5bd 2531 863c c790 d43b
00000330: 6a34 fbbd e8fe 453d 076a a8bd 46b5 87bd
00000340: cc73 38bd 19a7 7bbd 3068 983d 8f02 ee3c
00000350: bf9a 26bd f4b0 a8bd 9a31 7e3d 7e83 adbc
00000360: af79 6c3d 9c78 1b3d da0f 2dbd 4251 45bc
00000370: 9f69 b93d 75aa 05bd 7013 e6bd 2d62 b8bc
00000380: ec41 98bd 1fe6 263b b468 893d 65b8 c6bc
00000390: d565 973c d4b3 8cbd 3783 88bc f932 23be
000003a0: 0826 c1bc 42b1 c73d 2ca3 053e 8859 aa3d
000003b0: 78c1 4a3d abe9 d93d 633c 2e3d 84a8 0b3d
000003c0: d0b3 7dbd a4b7 ee3c 895c 003d 266e 0ebe
000003d0: ef20 cbbb 3f05 103d 8974 febd 4373 a1bd
000003e0: a51b 823d 91b3 6dbd 3e47 e7bc 3ad8 ae3b
000003f0: 5854 e3bd c318 c43c f4d1 a73d d3f3 4fbe
-0.007296047 -0.028038023 0.018275183 -0.099102356 -0.08418433 -0.076616734 -0.013052515 0.08976033
0.076510064 0.04477752 0.011248174 0.082777925 -0.001400224 -0.040122554 0.047746755 -0.041902363
0.09489898 -0.076661155 0.03938527 0.035539567 0.10687689 -0.093859 -0.016805504 -0.033675186
-0.1203842 -0.037177812 -0.031888522 -0.0036792748 -0.0009051271 -0.022911502 -0.049480576 0.088775784
-0.031633895 0.039712735 0.056953978 -0.05477974 -0.053522002 0.032238007 0.09056911 -0.046139516
0.032358255 -0.0854707 -0.11404335 -0.036941145 -0.080592915 0.06388494 0.0130585125 -0.020182766
0.076495856 0.07526842 0.009234052 -0.07952076 -0.047453824 -0.07309403 0.036386594 -0.0002987843
0.026473235 0.05275388 0.033653043 -0.030546483 0.04283128 0.02107382 -0.07335972 0.0056532356
0.026365481 -0.050392184 -0.13804194 -0.06917947 -0.12692246 0.00079123554 0.032321293 -0.056963705
0.036830347 -0.02526956 -0.045308635 -0.091103375 -0.0036401746 -0.010946975 0.043022677 0.0126706725
-0.05918124 0.031829614 0.06295078 0.024841074 -0.06328421 0.027581045 -0.007771754 0.03885159
-0.013266898 -0.0060913432 -0.037528418 0.083921164 -0.017867355 0.094560355 0.1359768 -0.024686145
-0.032336175 -0.032862693 -0.04215806 0.0038746481 0.008889302 0.013349749 0.07600811 -0.0533826
-0.025201906 -0.030178133 -0.04382601 -0.043971866 0.06270423 -0.063504644 -0.028478751 0.005552025
0.050133754 0.027976293 0.03699175 -0.010035483 0.05011858 -0.017056704 0.000742261 -0.06889293
-0.11312101 -0.10174349 -0.028876737 -0.0013351461 -0.09431331 0.009878139 -0.050344296 -0.06470199
-0.0007728179 -0.06132248 0.043806262 -0.02317307 0.017601755 -0.12837686 -0.09667286 0.008038395
0.06614622 0.043808036 0.018512664 -0.08293326 -0.01709639 -0.07771324 -0.12279436 -0.020867538
-0.16495456 0.024064114 -0.117350034 -0.016366536 0.023811724 -0.0402825 0.020896282 0.004851497
0.028723655 -0.004903414 -0.096444614 0.03981945 -0.06717253 0.019691415 -0.1552192 0.1424795
-0.06624493 0.030659247 0.065050855 0.07068284 0.001517428 0.034240615 -0.06231036 -0.03144688
0.050999686 -0.041225296 -0.0415315 0.0059068576 0.020364195 -0.051801406 -0.05619695 -0.076677136
0.021531962 -0.053769123 0.006350696 -0.018638186 -0.12608883 -0.060774706 -0.011948348 -0.1249945
-0.04701486 -0.08178371 -0.10438807 0.048579823 -0.005473809 -0.0908822 0.03243848 0.14696997
-0.14050193 -0.039238308 -0.05004634 -0.10819373 -0.06627569 -0.094899654 0.0335364 -0.021295214
0.11157223 -0.081026666 0.016380856 0.0064869854 -0.122658566 0.0483388 -0.08223348 -0.06626372
-0.045032308 -0.061438654 0.07441747 0.029053954 -0.04067492 -0.08236876 0.062059022 -0.021180864
0.057733234 0.03795682 -0.042251445 -0.012043299 0.09053349 -0.032633264 -0.11234176 -0.022507751
-0.074344486 0.0025466753 0.06709424 -0.024257848 0.018481174 -0.06870237 -0.01666413 -0.15937413
-0.023577705 0.09750606 0.13050526 0.08317858 0.049500912 0.10640272 0.042538058 0.034096256
-0.06193906 0.029140301 0.03133825 -0.13909206 -0.0061989943 0.035161253 -0.12424571 -0.078833126
0.06352929 -0.058032576 -0.028232213 0.005335835 -0.11100072 0.023937589 0.08194342 -0.20307855

features_extractor.encoder.4.bias f4 [16]
00000000: 1342 c7bd 1c18 7dbd 7c75 9bbc 7ab4 2ebd
00000010: ab5e 353d f29c 88bd aec4 92bc f780 33bd
00000020: b760 153c b4a3 3f3d 5b2d 14bd fa8c 99bc
00000030: f693 82bd 1624 abbd e497 c4bd f18c 6cbc
-0.097293995 -0.06179057 -0.01897692 -0.042652585 0.044279736 -0.0667056 -0.01791605 -0.043824162
0.009117297 0.04678698 -0.036176067 -0.01874398 -0.063758776 -0.08356492 -0.09599283 -0.0144379

features_extractor.policy_net.0.weight f4 [64, 1024]
00000000: 27ed 23bc 58f2 cf39 4f3b 423c b508 5f3c
00000010: 333f 7c3d a307 1c3d 3468 fc3c cac6 833c
00000020: 421a 7fbd 6add 94bc 7c03 63bb e3ce 053d
00000030: a552 433d 5edc 133d cd5d 4d3d 8f48 923d
00000040: 65cc eabc 65c8 183d 1e2a 6f3d 7bdf 003d
00000050: f51d c8bc e8a9 383c 983f f13c 369f 6a3c
00000060: 8269 8c3d 7589 d53a 2cf0 03bd fed1 a2bd
00000070: c494 ecbc 6e32 f5bc b1c2 873d f1fe ed3d
00000080: 2d62 10bd 7408 6a3d bba4 c23c fc4b 8bbc
00000090: 6bb6 bf3d 9817 333d 8101 24bd 6f3f 11bd
000000a0: 6f0c d0bc 798b ad3c 0d3d aeba 6dbf 75bd
000000b0: 177a 8e3d 8694 483d 1c14 a2bd fd02 f7bc
000000c0: a42a 89bd 8eaa 55bb 83c2 e63b 37d8 883c
000000d0: a483 d03c 8a7b a83b 91d6 073d 4f86 003d
000000e0: 1db1 edbd 88c2 a73c a860 163d 5bc4 91bd
000000f0: 9f68 c4bd c9cc 3a3c 6fee ce3c 16a4 1d3c
00000100: a9b2 24bb acb7 8fbc f090 093d 7e9f c03c
00000110: f24a 13bd d79c bbba 3401 a43d 00cd a03c
00000120: e77e 65bd a362 db3c 42e3 32bd 8b13 3b3d
00000130: 331d 6e3d 6df2 af3d 7e3b 2e3c a1dd a0bd
00000140: 3008 cdbc dac5 1cbd 531e 913d 09d1 7e3c
00000150: 7aa9 5ebc 0cce 09bc 1d88 28bd 1fe8 65bc
00000160: d8f0 323a 3569 72bd 7829 56bd 6efb 85bd
00000170: 654a b1bd 9d94 df3b 0123 ee3d b415 fd3c
00000180: 6c34 ce3c b7cc e23c 3c4a e53c 2b62 6abd
00000190: 2689 873d 9971 56bd 5efe 0fbc 7760 df3d
000001a0: 5e4a da3c bfcd 853b f886 7ebd 2030 6dbc
000001b0: cbeb bf3d 0635 f3bd 48dc 0dbd 414a c43c
000001c0: f00b 6d3d f0ef 403d 5ba4 113c 7146 a23c
000001d0: 5006 c83c 5ae9 c9bc ab43 0cbb 9368 ac3c
000001e0: ca21 40bd bf1e 193d 7350 d5bd 5116 cabc
000001f0: 1812 9abc 5386 023d b836 7b3c 95d8 4a3d
00000200: 4642 ac3c 6547 13bd d181 863d 8017 6cbd
00000210: 4da1 833d 5400 8f3c fea5 7d3d 781e c9bb
00000220: 4191 753c e887 813d 2b08 d03c e7de 14bc
00000230: 6ac2 dd3d d0de e0bc efd3 fe3d e2f9 3c3d
00000240: 6b21 343d ffcd ff39 6604 5b3d 7a9e e7ba
00000250: 47d6 0c3d 5d64 4bbd 1577 753c 022c d63d
00000260: 4333 9fbc 7be0 213c c8c3 503d d1ef 81bd
00000270: 6e1a f5bc 7bbb 123e 7308 88b9 3540 ea3c
00000280: 416e 933c 91de b9bd e008 d83d d93b 1d3d
00000290: d6d0 04bd 3d47 943c d723 babd 125e 733c
000002a0: 5079 203d 1480 d23a 2b2a 683d 2e9f bd3c
000002b0: 5a93 f13d d21a 8fbc 7ad3 4dbd efd8 b8bb
000002c0: dd0e 22bc 6123 e73c d4c2 c93c b99b 5dbc
000002d0: 5eff 48bd 2688 c73b c6a0 1cbd 5156 4abd
000002e0: 2b6d 2c3c de3d c63d d96d 7d3d 3b3d 99bd
000002f0: e624 793c 1d79 67bb 10e1 d9bc 9257 8f3c
00000300: 41d4 c33c b8f1 98bd a8d4 843c 391c aa3c
00000310: 8bf3 853d 009b 023d f938 803d 0064 973d
00000320: 0726 1dbc d7d1 443d ce96 153e 59ec b4bb
00000330: f430 b13d 02de 66bd 0b18 27bd 6512 81bb
00000340: 9e48 76bc 8df1 2bbd 4b56 6fba 3be1 403b
00000350: 57a8 253c 2792 3fbd be52 20bd ebac 9c3d
00000360: 0816 843b 54ae 17bc d3f9 5c3d 488f 8cbd
00000370: fcf6 b1bc 2aae 983c fbc5 bd3c 9e30 2bbd
00000380: 2b21 46bd c2ef 853b 6568 a8bd 02f7 d43c
00000390: 25ae 9e3d e107 b23c 468b 81bd b0ac 08bd
000003a0: 159d bdbc 5066 6e3d 2282 d1bc b277 37bd
000003b0: a6a9 093d 3f6b c3bb 0d04 c7bd 71fc c23c
000003c0: 1c0e abbd e93a 09bd 1cf8 babc 7c2a 9e3d
000003d0: 598c a33a c8c8 f8bc 0321 943d becf 96bc
000003e0: 3f8f e2bc 8ebf 633d 8e72 21bd f910 3fbd
000003f0: cc3f bc3c 4ff7 49bb d97f c1bc df0d cebd
-0.010005272 0.00039662677 0.011854961 0.013612916 0.06158371 0.03809322 0.030811407 0.016086001
-0.0622809 -0.018171985 -0.0034639528 0.032668006 0.047686238 0.03609883 0.050138284 0.07142746
-0.028661916 0.037300486 0.058389775 0.031463128 -0.024428347 0.011270978 0.02944927 0.014320185
0.068560615 0.0016291576 -0.032211468 -0.07950209 -0.02887953 -0.029931273 0.06628931 0.11620892
-0.035249878 0.057136968 0.02376019 -0.017004006 0.09360965 0.043723673 -0.040040497 -0.035460886
-0.025396554 0.02118467 -0.0013293341 -0.05999701 0.069568805 0.048969768 -0.07913992 -0.030152792
-0.06697586 -0.003260288 0.0070422306 0.016704662 0.025453396 0.00514168 0.03316361 0.031378087
-0.11606047 0.020478502 0.036713272 -0.0711753 -0.095902674 0.011401364 0.025260178 0.009621641
-0.0025130904 -0.017543636 0.03358549 0.023513552 -0.035960145 -0.001431371 0.08008042 0.019629002
-0.056029227 0.026780432 -0.04367376 0.045672935 0.058133315 0.08591161 0.010634301 -0.07854772
-0.025028318 -0.038274623 0.07085862 0.015552768 -0.013590211 -0.008410942 -0.041145433 -0.014032393
0.00068260496 -0.059182364 -0.05228564 -0.06542097 -0.08656768 0.006823136 0.1162777 0.030894138
0.025171481 0.027685506 0.0279895 -0.057222527 0.06617956 -0.05235443 -0.008788673 0.10907071
0.02664679 0.0040833647 -0.062140435 -0.014476806 0.09371146 -0.11875348 -0.034633905 0.023961188
0.057872713 0.047103822 0.008889283 0.01980898 0.024417073 -0.024647404 -0.0021402638 0.021045959
-0.046907224 0.037382837 -0.10415735 -0.024668844 -0.018807456 0.031866383 0.01533287 0.049522955
0.021027695 -0.03595676 0.06567729 -0.0576396 0.0642725 0.017456211 0.06192588 -0.0061376654
0.0149882445 0.0632475 0.02539452 -0.009086347 0.10828097 -0.027449995 0.12442767 0.046136744
0.043977182 0.0004879087 0.05347099 -0.0017671131 0.03438404 -0.04965626 0.014982005 0.104576126
-0.019433623 0.0098801805 0.05096796 -0.063445695 -0.02991983 0.1432933 -0.00025946237 0.02859507
0.01799691 -0.09075654 0.10548568 0.038387153 -0.032425724 0.018100375 -0.09088867 0.014853971
0.039178193 0.0016059899 0.05668084 0.023147192 0.11795683 -0.017468844 -0.050250508 -0.005641095
-0.009891239 0.028215112 0.024629034 -0.013525897 -0.049071662 0.006089228 -0.038239263 -0.049398724
0.010524075 0.09679769 0.061872337 -0.07482382 0.015206551 -0.0035319992 -0.026596576 0.017497811
0.023904921 -0.07467979 0.016214684 0.02076541 0.06540593 0.0318861 0.06260867 0.0739212
-0.009591586 0.04805168 0.14608309 -0.005521339 0.08651915 -0.056364067 -0.040794414 -0.0039389604
-0.015031962 -0.041978408 -0.0009129985 0.0029431123 0.010110936 -0.04677024 -0.03914141 0.07650169
0.0040309466 -0.009257872 0.05394919 -0.06863266 -0.021724217 0.018637735 0.023165694 -0.04179441
-0.048371475 0.0040874192 -0.08223037 0.025996689 0.07748059 0.021732273 -0.063253924 -0.033367813
-0.023146192 0.05820304 -0.025574747 -0.044791885 0.033609055 -0.0059637125 -0.097175695 0.023802014
-0.083523005 -0.033503447 -0.022823386 0.07722947 0.001247774 -0.030369177 0.07232859 -0.018409606
-0.027656196 0.055602603 -0.03941589 -0.046647046 0.02297964 -0.0030817573 -0.023620533 -0.100612395

features_extractor.policy_net.0.bias f4 [64]
00000000: 5417 643d 85d1 96bc 60fb 8e3c 50e2 edbc
00000010: 2b0c b8bc 3749 d63b d51b ba3b a05f 6a3d
00000020: 926f 33bd e2e4 323d 5721 0d3d ed78 a8bb
00000030: 086b 97bb d4fe 873c b362 ccbc 1cb0 363d
00000040: bd6a a23c f52f c6bb 6e35 0dbc aa2c a73c
00000050: 7634 2abb 92b1 013c 848f 353b fd7a f0bc
00000060: 3b80 9a3b f27a 683b f4fc 9cbc 14a8 f6bc
00000070: 947e f93c bc5d 12bb 5c81 bb3b 8a9d 0c3b
00000080: c75b 8abc 9cda 6c3d 8fa4 153d de16 673d
00000090: cd55 9dbc 8e70 5abc 7ef5 223c 4ee1 1abc
000000a0: 6781 133d 201c f5bb 0534 77bb 289e 60bc
000000b0: 06d5 eb3c 24cc f03c 7f2f e939 fc05 d23c
000000c0: 4388 673b 5102 6ebc eb97 323c eca3 5e3d
000000d0: c5ee 2f3d 727d 093a 11a2 aa3c c644 f6bc
000000e0: 3f55 133c da88 23bc 8fcb 7bbc 036b acbc
000000f0: 5923 203c 5ee7 5c3c df99 d13b 62bd 0fbc
0.05568631 -0.018410454 0.01745385 -0.029038578 -0.02246674 0.0065394896 0.0056795874 0.0572201
-0.043807574 0.04367531 0.034455623 -0.0051413686 -0.0046209134 0.016601004 -0.024949407 0.044601545
0.019826287 -0.0060481974 -0.008618696 0.02040704 -0.002597121 0.007915871 0.002770395 -0.02935552
0.0047149933 0.0035473672 -0.019163586 -0.030109443 0.030455865 -0.0022333702 0.005722208 0.0021456205
-0.016889466 0.05782567 0.03653389 0.056418292 -0.019205952 -0.013332499 0.009946225 -0.009453131
0.03601208 -0.0074801594 -0.0037720215 -0.013709582 0.0287881 0.029394217 0.0004447661 0.02563762
0.003532902 -0.014526919 0.010900478 0.054355547 0.042952318 0.0005244828 0.020829232 -0.03006209
0.008992492 -0.009981358 -0.015368356 -0.02104712 0.009774053 0.013482897 0.0063965167 -0.00877318

features_extractor.policy_net.2.weight f4 [64, 64]
00000000: 21ae f53c 5158 613c 4bf5 b43d 245b a1bd
00000010: bbfc 293e 5c1d 0abd 57e3 20bb dda5 cd3d
00000020: 3751 0ebe bff2 f23c 5908 d23d 81fe 013e
00000030: da67 d0bd 159d 8abd 6ddd bdbd 7ab9 c43d
00000040: 5a32 53bd ec64 cd3d 35c4 e93c 069c 3d3e
00000050: 0818 3b3c c145 be3d e999 00be 3007 78bd
00000060: 53c5 2ebd cf45 07be 1734 103b 3e3e 303d
00000070: e70a 423d 23a0 f2bd 744c da3d a554 57bd
00000080: 8297 dfbc 1900 4ebd fcab 983c c158 82bd
00000090: de7f 75be f1a7 2dbe 0619 6c3d a65a b83d
000000a0: 866a 463d ed98 e73d 12c9 f9bc ad06 06bd
000000b0: 23aa 843d cae0 b13c 3cb7 c13d bbeb 833d
000000c0: 0103 dd3d ad19 003d 1dd7 bb3c 7681 d1bc
000000d0: 799a 213e 32db 1e3e d603 b0bd 2945 30bd
000000e0: 4ded 15be addc 6b3c 94ef b8bd 1871 323d
000000f0: f187 973d 4b70 cfbb 5b91 153e 87ef 38bd
00000100: 66fa b73d cb44 6bbd 16dc e23d 35db 533d
00000110: 69cb 973d f320 303d 3933 363e eced a23d
00000120: be0a 1939 00fd 183c 8324 81bd 97f4 883c
00000130: 0cff 6dbd 8550 56bc 633a 73be f04a 7b3b
00000140: 32a7 a1bd 45ad 003e a700 34be 13a5 53bd
00000150: 2b80 d2bd ec82 043c 4b4a 87bd f91d 26bd
00000160: d224 7b3d 0207 df3c fd3b 5a3b 7b63 dc3d
00000170: f1c3 493d 7271 8abd 694c 073e 255a 65bd
00000180: cfcd 07be ee96 ecbd df25 b13d 1025 033d
00000190: 2c83 6cbe e3fe c5bd ce78 18be 55e2 4b3d
000001a0: 1d3d f2bc 8e79 8d3c ff4e 36bd 83ed 76bd
000001b0: c340 8e3b 6424 0b3e 5755 333b aa2e 303e
000001c0: aea7 21bd 2a3e e23d 4b29 0b3e d5dd c0bd
000001d0: f6b0 eabc d06e 083e a6cf 3bbd b02e 273d
000001e0: 906d 3dbe 3be4 aabc 344b 383d 2e7f 293c
000001f0: a7dc 253e 6460 3cbe b5aa c63d 45ac 8cbc
00000200: 15a8 a23d 65ff 80bc 8534 a63d e6f7 ba3c
00000210: b1cc 643d c777 4abe 1e9e 93bd d57a 293e
00000220: 6dc7 18be 2122 74bc 64ab ae3c c7ad be3b
00000230: d5d9 57be 19a4 b4bc c4dc 583a f846 f43d
00000240: 0fee 193e acb2 1f3e 488f d4bc 9b5f ff3d
00000250: c375 ec3d daae fabc 5afc 26be 525f 01be
00000260: 14bc 153d d3d2 5b3b 7f93 8b3c d4f3 aa3c
00000270: 5bfd 21be 5013 53be 921b aa3d dd6d 97bc
00000280: e73d 89bd af72 7a3d f4b6 17bd a903 703d
00000290: 57ae 38be 6d33 43bb d03c afbd 79c4 37bc
000002a0: 657a aa3c a2d7 9fbb c481 51bd be93 aabc
000002b0: 4578 78bd 5708 85bd d082 8abc 364e 083e
000002c0: 30eb 9cbc f132 443d 8ee0 fd3c 316b 763d
000002d0: 47bf 1dbc 0463 db3d 0323 b8bd 303f cabd
000002e0: a50a 56bd 51cd f6bc e8fc a53a b675 c03d
000002f0: df8a 7dbd 3a4e 13be 6265 d93d 7df0 083e
00000300: 3e32 0f3d a9da c73d 2a0e b03d a4ae e239
00000310: 9d8c d63c f657 993b 8fc7 a23c c540 ba3d
00000320: e281 96bc 8f1f 53bc 9862 a43c e555 ecbb
00000330: 22f9 43be 15fd dfba bc91 3cbd 760a e13d
00000340: 556b 3cbc 37b5 b23c 75ee 29be 06e5 0a3e
00000350: 76cf f8bd 3482 aebd d4b0 d6bd affa 19be
00000360: 621a 843d 734f 37bd e78e 9d3d 9d33 383e
00000370: 60c2 2fbe d6b0 0cbe 68db f73d 601b 8bbc
00000380: 2264 abbc 7f28 d33d be83 5ebd a7bd 03bb
00000390: 4003 15bd c7a5 61bd c9ac bbbb 0f3d c53d
000003a0: 9c30 d43d db78 033e f676 e3bd aab0 303c
000003b0: 270f 1d3d 9ff2 ed3c 0045 5cbc 60bb 443e
000003c0: 0825 64bd 46d0 1d3d b400 873d dbdc 08bd
000003d0: 4b7f 873d 13ab 09bd 948f f4bc 636f abbd
000003e0: 58b6 32ba 6e5b e33d ade5 e3bc 9790 c1bd
000003f0: 009e 223e e071 2bbd b84c 2f3e b324 77bd
0.029990258 0.013753966 0.088358484 -0.07878712 0.16600315 -0.033719406 -0.0024549568 0.100414015
-0.13898169 0.029656766 0.102554984 0.12694742 -0.10176058 -0.06768242 -0.09270749 0.09605689
-0.05156169 0.10029015 0.028535942 0.1851655 0.011419304 0.09290648 -0.12558712 -0.06055373
-0.04266865 -0.13210224 0.0022003704 0.04302811 0.04737368 -0.1184695 0.106591135 -0.052570958
-0.027293924 -0.050293062 0.018636696 -0.06364585 -0.23974559 -0.16958596 0.05764105 0.09001665
0.048441432 0.11308465 -0.030491386 -0.03272121 0.064777635 0.021713633 0.09458777 0.064414464
0.107915886 0.031274486 0.022929722 -0.025574427 0.15781583 0.15513304 -0.08594482 -0.043034706
-0.14641304 0.014395875 -0.09030071 0.043564886 0.07398976 -0.006330525 0.1460623 -0.045150306
0.089833066 -0.057438653 0.11077134 0.051722724 0.07411844 0.043000173 0.17792977 0.07955536
0.00014595219 0.009337664 -0.06305792 0.016718192 -0.05810456 -0.013080721 -0.23752742 0.0038344227
-0.07893218 0.12566097 -0.17578374 -0.0516711 -0.10278352 0.008087855 -0.06605967 -0.040555928
0.06131441 0.027225021 0.0033299916 0.10761162 0.04925913 -0.06759919 0.13212742 -0.05599417
-0.13262103 -0.11552225 0.086498015 0.032017767 -0.23096913 -0.096677564 -0.14889833 0.049776394
-0.029570157 0.017269876 -0.04450893 -0.060285103 0.0043412163 0.135881 0.00273641 0.17205301
-0.039466552 0.11047013 0.13589971 -0.09417311 -0.028648835 0.13323522 -0.045852326 0.04081601
-0.18498826 -0.020860782 0.044993594 0.010345263 0.16197453 -0.18396145 0.097005285 -0.017171988
0.07942215 -0.015746782 0.08115486 0.022823285 0.05585927 -0.19772254 -0.07207893 0.16550763
-0.14919825 -0.014900715 0.02132196 0.0058190557 -0.2107919 -0.022050904 0.0008272643 0.11927599
0.15032218 0.15595502 -0.025947228 0.12469407 0.11545899 -0.030600954 -0.16307202 -0.12634018
0.03655632 0.003354241 0.017038105 0.02086822 -0.15819304 -0.20612836 0.0830604 -0.018485004
-0.0670126 0.061144527 -0.037039712 0.05859724 -0.18035255 -0.002978529 -0.08556521 -0.011216276
0.020810315 -0.0048780004 -0.051149145 -0.020822402 -0.060661573 -0.06495731 -0.01690808 0.13311085
-0.019155115 0.047900144 0.030990865 0.06016082 -0.009628124 0.10712245 -0.08991053 -0.09875333
-0.052256245 -0.0301272 0.0012663873 0.093974516 -0.061900016 -0.1438531 0.1061504 0.13372989
0.034960024 0.09758503 0.085964516 0.00043236197 0.026190097 0.004679675 0.019870548 0.09094385
-0.01837248 -0.012885942 0.020066544 -0.007212388 -0.19138005 -0.0017088974 -0.04603742 0.109883234
-0.011500199 0.021814926 -0.1659487 0.13563928 -0.12148945 -0.08520928 -0.10482946 -0.15037034
0.064503446 -0.044753503 0.07693272 0.17988439 -0.17163992 -0.13739333 0.12102395 -0.016980827
-0.02092177 0.103104584 -0.054324858 -0.0020102055 -0.036380053 -0.05508974 -0.0057273847 0.09630787
0.10360834 0.12839071 -0.111066744 0.0107843075 0.03834453 0.029046355 -0.013444185 0.19212103
-0.05569938 0.038528703 0.06591931 -0.03341375 0.06616076 -0.033610415 -0.02985362 -0.08370855
-0.00068173325 0.11101423 -0.027819479 -0.094514064 0.15880585 -0.041856647 0.1711911 -0.060337733

features_extractor.policy_net.2.bias f4 [64]
00000000: 5d7e 74bd e9a3 cabd 2151 a8bd 45c5 5d3d
00000010: 3c96 d4bc fec4 a93d b2c6 413b d4aa 3f3d
00000020: 44c9 803d c6ef 35bd 9896 d1b9 b651 073c
00000030: 7d32 47bd 4b19 eb3c 19ae 50bd 3adc 893d
00000040: a281 7ebd db55 aa3d b600 babc e8f1 083d
00000050: cc64 c13d f9ec 93bd b70e 953b f944 65bd
00000060: b7eb 653d 7c7b ebbd 9489 6bbc 9232 b33b
00000070: fe69 5a3c 2ec9 00be 013a 833a 9eaa 30bd
00000080: 0825 25bd 9401 e2bd df1d e4bc 03a9 bfbd
00000090: 2381 e6bd 536f 693d 7834 f93d 7b7f a7bd
000000a0: 5320 f1bd e4ac b43c 2ec5 bdbd 9211 adbd
000000b0: 4208 80bd f4c7 c6bc 5888 1cbc ecf6 da3d
000000c0: 3c27 06be ad16 aabd c6cf ae3c 90da e73c
000000d0: 68a7 d2bd 7292 d5bd e850 c7bd 766b afbc
000000e0: f67c 763d c3d8 68bd 6add b33c 4192 4b3d
000000f0: bdcd ab3c 6cf0 813d 96e3 e93d f933 f8bc
-0.059690822 -0.09894545 -0.08218599 0.05414321 -0.025950544 0.082895264 0.0029567895 0.046793774
0.06288388 -0.04441812 -0.00039975788 0.0082592275 -0.048632134 0.028698584 -0.050947282 0.06731458
-0.062135346 0.08317157 -0.022705417 0.033433825 0.094430536 -0.07222933 0.0045488733 -0.05597398
0.056133 -0.11498162 -0.014376063 0.005468675 0.013330935 -0.12576744 0.0010011793 -0.043131463
-0.04031852 -0.11035457 -0.027846275 -0.09358408 -0.112550996 0.056990933 0.12168211 -0.08178612
-0.117737435 0.022055097 -0.09266125 -0.08450617 -0.06251575 -0.024265267 -0.009553991 0.10691628
-0.13100904 -0.08305106 0.021339308 0.02830246 -0.102858365 -0.10428323 -0.097322285 -0.021413546
0.060177766 -0.056847345 0.021956164 0.049700025 0.020972127 0.06344685 0.11420362 -0.03029822

features_extractor.value_net.0.weight f4 [64, 1024]
00000000: 740e 2e3d ef17 713d ad88 813d 72b7 d93c
00000010: 121e bcbd 8833 c4bc 6eba a0bd a678 afbc
00000020: 8ae6 f03d 27ea 373c 88aa 373d 2833 153d
00000030: c718 c6bd 0620 b3bd 498a e1bd 10d6 4bbd
00000040: 55b2 993d 37a9 273d 4142 e03d 43ea 793c
00000050: ecf2 4abd aec9 d83c 3568 7dbd baa0 d1bd
00000060: 3ad3 9c3d 11f9 b93c 0418 ab3c 8c78 bf3c
00000070: ca26 a83c 8ff9 a7bc 2f7c b13c a388 f7ba
00000080: 7722 20bd 5845 d53b c2b4 403d 76e2 453d
00000090: 563f 0a3d c3ec e2bc be51 123c ce57 97bd
000000a0: 4b1f 123d eca4 793c 9b5a eb3c afec 64bc
000000b0: cf8d 0b3d 0390 bbbc 01e6 7abc e549 9dbd
000000c0: 76b3 dcbc ac4c 1dbd 69b2 71bc 1f45 7b3c
000000d0: c2b1 62bc 5810 3dbc e23b 633c d5be c8bd
000000e0: 03c6 8ebc 688e 88bc 0e43 edba e2f2 9dbb
000000f0: ccea 923c 8d61 00bc 47e3 b0bc a461 c83c
00000100: 2b82 283e 3bb7 66bd f4c1 e9bc 8b09 5dbd
00000110: 0c82 e6bc 2cf9 bdbd a23d d8bb c7e6 a83c
00000120: c448 013e b6c0 693c 118c 54bd 6704 95bc
00000130: d190 9abd f1be f3bd c7ce fabd 51da 1cbd
00000140: c394 f13d be54 553d 80cf 493d b98b a03c
00000150: 90e9 32bd 2c4a 303d e6e6 81bd f14c 0abd
00000160: c290 5b3d e006 1dbc 079d 6abc 90ba a6bc
00000170: 34ef 26bc f7c9 c6bc ac6d 1fbc c5b3 b1bc
00000180: 81e3 64bc df70 563c d66a 823d 398e 0abd
00000190: 6678 13bc 4c74 1abd 2138 b13c 233e 85bd
000001a0: e5de dfbc d515 ff3c 3aed a13d b39e 8a3a
000001b0: e226 ffbc 7040 503d 03a6 16bd 9713 d53c
000001c0: 29f9 923c 2271 b63c 86b6 9fbc 3b81 583d
000001d0: 8d1e e3bb b727 0c3d caa3 09bb 6c98 49bd
000001e0: 1cf0 b5bc 0b46 03bd 6d56 8dbc 36a6 583c
000001f0: 228c c13b c6db abbc 2094 533d de06 39ba
00000200: b50d cfbc f9e5 27bb 9b65 ee3d 01ea 8e3d
00000210: f61c aa3a 7ac8 7fbd 3910 263c 5d97 e8bd
00000220: 8245 6abc 2b24 86bd b8d0 b53d 2b36 8abc
00000230: ccdd fc3b 000c 9ebd 0e98 a9bc dd0f f2bd
00000240: 1780 c73c 58cc ce3c baf8 ec3c 60aa 443d
00000250: 6c61 77bb af38 2fbd 2baa 48bc f588 f5bd
00000260: e906 3ebc 87c6 a0bd 930a 253d 2525 c239
00000270: c539 223d ed8c 88bc 08d9 dc3c 7a67 1fbd
00000280: 4b94 253d 3255 333c 38af cbbc 0b0e 203d
00000290: 6035 8b3d 2606 8ebd 587a 2cbc d61d 41bc
000002a0: e59f e3bb 59c1 823c 47a8 c4bd 847b ca3b
000002b0: e2d3 c539 c8f4 f53c c155 08bd 9e36 a2bd
000002c0: 2bfb 8cbc 275f 603d 6454 2ebd 9ebc c0bc
000002d0: 2ee4 363d eafb 53bd 2b2c 82bc e4ce 54bd
000002e0: fa70 3c3d bbbb 9cbc b3f4 debc 0e69 9cbd
000002f0: 5a55 9e3a fa1f c03b 6104 fabd f3ca ff3b
00000300: 634e 603d 81d1 0ebd 6148 dfbc c16e b9bc
00000310: 401d bfbd 0e3d e8bc 6e4c 7fbd 3be0 03be
00000320: 6e94 a43d 6eb8 07be 43f1 23bd 4dc3 a13d
00000330: 737b f8bc 3cb5 19bc 16b9 1dbc efb8 80bc
00000340: 7d76 1a3e 2134 6cbd da33 4d3c 3999 d23c
00000350: 6fd9 3bbb c6d8 a7bd 47bb a2bc 04e6 0bbe
00000360: 74e2 e23c 157b 3fbc 1c7d d1bc 473b a3bb
00000370: 7074 f53b d5bf d43c 0e4d 013e d171 97bd
00000380: a4db 2dbd 0467 b13b 33ba fb3b b658 0a3e
00000390: 1e64 6bbc e20f 933d 5705 84bc fe69 403d
000003a0: 9249 243d 694d 073c cc11 a73d df26 593d
000003b0: 9c70 ef3c 4524 c13d 644f 693d aa08 483d
000003c0: edba 093d e4c3 ff3b 504e 99bc 10c4 7d3d
000003d0: 8d12 453c ae86 003d 0ff7 773d 3000 fb3c
000003e0: 4a6d 33bc 479b 043c 269a c53c 2252 0e3d
000003f0: a6fa 9c3d 1dbf 99bb bb8c cb3d 52e6 873c
0.042494252 0.058860715 0.06324897 0.026576731 -0.09185423 -0.023950353 -0.07848059 -0.021419834
0.11762722 0.01122526 0.044840366 0.03642574 -0.09672695 -0.08746342 -0.11012704 -0.049764693
0.07504717 0.04093286 0.10950137 0.015253606 -0.049548075 0.026463356 -0.061866958 -0.10235734
0.07657476 0.022701772 0.020885475 0.02337291 0.020526309 -0.020504741 0.02166566 -0.0018885325
-0.03909537 0.0065085106 0.047047384 0.048311673 0.033751808 -0.027700787 0.008930622 -0.07389794
0.035674375 0.015237074 0.028729727 -0.013972445 0.034070786 -0.022895819 -0.015313626 -0.0768011
-0.026941042 -0.038403198 -0.014752009 0.015336304 -0.013836326 -0.011539541 0.013869258 -0.09802023
-0.017428404 -0.016669467 -0.0018101649 -0.0048202137 0.017934225 -0.007835758 -0.02159275 0.024460621
0.16455905 -0.056327086 -0.028534867 -0.05396418 -0.028138183 -0.092760414 -0.006599144 0.020617856
0.12625414 0.014267137 -0.05189139 -0.018190576 -0.07547153 -0.119016536 -0.12246471 -0.03829414
0.11795952 0.05208277 0.049270153 0.019597875 -0.043679774 0.043039486 -0.063428685 -0.033764783
0.05360485 -0.009584159 -0.014319665 -0.020352632 -0.010188866 -0.024266226 -0.009730738 -0.021692166
-0.013970257 0.013088434 0.063680336 -0.03382704 -0.009000873 -0.037708566 0.02163321 -0.06505992
-0.027327964 0.03113834 0.079065755 0.001057586 -0.03114647 0.050842702 -0.036779415 0.026010318
0.017941074 0.022270743 -0.019496214 0.05285762 -0.006931132 0.034217563 -0.0021002167 -0.049217626
-0.02220922 -0.03204922 -0.017253125 0.0132232215 0.0059065977 -0.02097882 0.051654935 -0.0007058213
-0.02527509 -0.0025619252 0.116404735 0.069782265 0.0012978602 -0.06244705 0.010135704 -0.11356995
-0.0142987985 -0.06549867 0.088777006 -0.016871532 0.00771687 -0.077171326 -0.020702388 -0.11819432
0.02435307 0.025243923 0.028927196 0.048014045 -0.0037747277 -0.042778667 -0.012247602 -0.11989013
-0.011598327 -0.07850366 0.040293287 0.00037030238 0.039605875 -0.016668761 0.026958957 -0.038917042
0.040424626 0.010945605 -0.024863824 0.039075892 0.0679729 -0.069347665 -0.010527216 -0.011786899
-0.006946551 0.015961336 -0.09602409 0.006179275 0.00037732633 0.030023947 -0.033284906 -0.07920574
-0.01720961 0.054778244 -0.04256095 -0.02352744 0.044651203 -0.051753916 -0.015890202 -0.05195512
0.04600618 -0.019132486 -0.027216291 -0.07637225 0.001207988 0.005863187 -0.122078665 0.007806176
0.054762255 -0.034867767 -0.027256193 -0.02263582 -0.09331751 -0.028349426 -0.06232875 -0.12878506
0.08036123 -0.13253948 -0.040025007 0.07898579 -0.030332303 -0.009381589 -0.009626647 -0.015713183
0.15084262 -0.0576669 0.012524569 0.025707828 -0.0028663536 -0.08195643 -0.019864691 -0.13661963
0.027695872 -0.01168706 -0.025572352 -0.0049814316 0.007490687 0.025970379 0.1262705 -0.07394756
-0.042445794 0.0054138917 0.007682109 0.13510403 -0.0143671315 0.07180764 -0.016115827 0.046976082
0.040109225 0.008258202 0.08157691 0.053015586 0.029228501 0.09430746 0.05696048 0.048836388
0.033625532 0.0078053344 -0.0187141 0.061954558 0.012028349 0.03137844 0.060538348 0.030639738
-0.0109513495 0.008093662 0.024121355 0.034746297 0.07664995 -0.004691972 0.099389516 0.016589317

features_extractor.value_net.0.bias f4 [64]
00000000: 06f7 e93b 3ed7 41bd 6760 833c d5eb b3b9
00000010: 7417 e4bc 6291 663b 9a51 b0bc 04cb 1abd
00000020: a3c9 3bbd 460f 09bd 60dd 30bd 034c f43c
00000030: 8fa8 23bc 81dc 8b3d 0368 e1bc ad82 5c3c
00000040: aeff 84bd c032 4fbd cfd5 a8bc 79cd 21bd
00000050: e814 a7bc bd33 f1bc 802d 76bc fe6b 6fbd
00000060: 0d5b 573d 7593 07bd 3d34 8bbd a3e5 7dbd
00000070: 6cd9 4bbd d832 7ebb 8c88 19bd 4ac6 633c
00000080: 28fb 70bd f8ba 47bc 6b4e 293d e857 9ebc
00000090: f0d9 bcbd 788b db3c 87bf f0bc 6c38 133c
000000a0: e94d 00bd 5d37 0b3d 6588 62bd e4f4 bd3b
000000b0: 0d6d ecbc 1e7e 0dbd 5160 96bd f6ef 5aba
000000c0: d084 1dbd d191 96bd 8fc0 debc f9a1 1dbd
000000d0: afcf c53c 6975 5cbd 4e91 863c 4d8a d53b
000000e0: da25 94bc c1e5 9abd 1f95 2fbc 469d 66bb
000000f0: 4b2d 79bd 43ae 04bd d991 913a d0f4 0e3d
0.007140043 -0.04732441 0.01603718 -0.0003431725 -0.027843215 0.003518187 -0.021523286 -0.037791267
-0.045846593 -0.03346183 -0.04317987 0.029821401 -0.009988918 0.06829167 -0.027515417 0.01345889
-0.064940795 -0.05058551 -0.020609764 -0.039502595 -0.020395711 -0.029443616 -0.0150254965 -0.0584526
0.052577067 -0.03309961 -0.06797073 -0.061986577 -0.049767897 -0.003878763 -0.037483737 0.013902256
-0.05883327 -0.012190573 0.04133455 -0.019329026 -0.09221256 0.026799902 -0.029388202 0.00898562
-0.0313243 0.033988345 -0.055305857 0.0057970155 -0.028860593 -0.034544103 -0.0734259 -0.0008351797
-0.038456738 -0.07352031 -0.027191428 -0.038484547 0.024146883 -0.05382291 0.016426709 0.006516731
-0.018084455 -0.07563353 -0.010716706 -0.0035188957 -0.06083421 -0.03239275 0.0011106088 0.03490144

features_extractor.value_net.2.weight f4 [1, 64]
00000000: 56ec 083e fdd6 833c 6ec3 ee3c d3b3 803d
00000010: dd2f 6fbd ae0d 363d a508 da3d a741 85bd
00000020: 8c3b 03bb 1361 b8bc 75a9 bfbc 1117 a0ba
00000030: f8f0 733d 9968 a53d 484d 7abd 195c 473d
00000040: a7da 253c 2640 2ebd 749f 873d f358 42bd
00000050: 0fe7 113e 5d98 4dbd 70c8 20bc 9ad8 f5b9
00000060: c0b4 e53d 518b 70bb 1958 b3bd 17f9 1fbc
00000070: 7d8d 55bd 6c22 913d e362 15bd 5fd9 31bc
00000080: f4df 8dbd 3c54 69bc 6e7b 9c3d 579c a1bd
00000090: 3fee 9fbc 174c a83d 87ec 01bd 7b7e 713d
000000a0: 877a 20bd 5ede bb3d 0cf9 a0bc ff2b a03d
000000b0: c2d5 dcbc 3e2b d73d 6baa 60bd 371f 323d
000000c0: 5208 1c3d 03ba 33bd d59a 3c3c 157e e9bc
000000d0: 7fce b13d 6c28 45bd c07a de3b c2f7 503d
000000e0: e2aa 8bbd aaa9 a1bd 85d9 713d 5a51 573d
000000f0: 1f9f e5bc 0e67 983d 5f94 e5bc 4b3b d33c
0.13371405 0.016093725 0.029145923 0.06284299 -0.058395255 0.04444664 0.1064618 -0.06506663
-0.0020024506 -0.022507226 -0.023396233 -0.0012213906 0.059555978 0.08076591 -0.061108857 0.048671816
0.010122932 -0.042541645 0.0662221 -0.04744811 0.14248298 -0.050194133 -0.009813413 -0.00046891422
0.11216116 -0.0036704133 -0.08757038 -0.0097639775 -0.052136887 0.070866436 -0.03647126 -0.010855048
-0.06927481 -0.014241274 0.0764073 -0.078911476 -0.019522784 0.08217638 -0.03171971 0.05895851
-0.03917935 0.091732726 -0.019650005 0.078208916 -0.026957396 0.10506295 -0.054850023 0.0434868
0.038093872 -0.043878566 0.011511524 -0.028502503 0.08681964 -0.048134252 0.0067895353 0.05101753
-0.06819703 -0.07893689 0.059045333 0.052567817 -0.028029976 0.07441531 -0.02802485 0.025785109

action_net.weight f4 [2, 64]
00000000: cca0 03be df11 09be a84c 9fbd f2c9 2dbe
00000010: 4997 11be 3b0e f73d 768d c0bd 1b0a 433e
00000020: 55c2 0abe 0898 1abe d0e7 503e 1a0a da3d
00000030: 676d 12be 36e6 0fbe 7779 053e 9c3d 4cbe
00000040: e1be bb3d 3ab1 e53d 8c0f a93d e227 773d
00000050: 59b1 35bd 56a8 89bd 11b5 2d3e ce41 8d3d
00000060: 5548 503e 4c10 273e 3694 fbbd fefd 27be
00000070: c774 473c a89d 0b3e f3d9 05bd 58d3 e3bd
00000080: 6015 0f3e 1c83 933d e39d e13d 09be cfbd
00000090: bec9 2e3e 3880 01be 2fbf 3bbe 459a 15be
000000a0: 78e6 283e c6c8 dabd 18da 0b3e f76f 30be
000000b0: 226c 20be 22f2 28be 5d89 183e d420 3bbe
000000c0: 9317 1e3e 9b8e 563d 7162 b43d ffef fe3d
000000d0: f6f5 99bd 89a5 0fbe 2d5b d6bd 975a 073e
000000e0: 485d c6bd 9191 1dbd 1974 523e 53c0 59bd
000000f0: c4e4 46be 7a79 24be a002 d83c d644 58be
00000100: d444 ffbd abc4 d9bc 8262 dcbd 0617 d1bd
00000110: 5bc4 223e 9568 0ebe 270b 743e f849 443d
00000120: ef7d edbd c90e d2bd dd05 5e3d 27a0 84bc
00000130: 7d06 22bd f7bd 253d 50d7 ca3d 33e6 123e
00000140: d69d 1ebe 2b81 19be 9f8a 37be 42c9 4dbd
00000150: 0e61 c4bd 4a7a 133e 61c5 44be e20a ef3d
00000160: c8bf 013e cfed 0f3e 99f0 9b3d 437a 293e
00000170: c0bf 503e 5db8 203e 8a44 2d3e 97bf dabd
00000180: f7e2 2bbc 2497 0dbe 80e7 fbbd 797c 7a3d
00000190: 469b 153e db21 353e b977 1d3e 8909 243e
000001a0: 7995 23be 48db 12be 1876 ccbd 6793 86bd
000001b0: 1640 8b3d 5bcc fdbd 1bba 143d 30d2 e4bd
000001c0: 3554 85bd afcc 393e 2383 693c 3871 073d
000001d0: d23d 473e cffd 0ebe ac8d 5bbd 5b50 fb3d
000001e0: fa06 08be cef6 45be 8868 c33c 1d25 e13d
000001f0: f428 a2bc f0bf 19bd ac21 113e 401b 65bd
-0.12854308 -0.13385724 -0.07778293 -0.16971567 -0.14217867 0.12063261 -0.094019815 0.19046824
-0.13550694 -0.15097058 0.2040093 0.10646458 -0.14299546 -0.14052662 0.13034616 -0.19945377
0.09167267 0.11215444 0.082549185 0.06034077 -0.044358585 -0.06721561 0.16963603 0.06897317
0.20340092 0.1631481 -0.12284128 -0.16405484 0.012173838 0.1363436 -0.032678556 -0.11124295
0.13972998 0.072027415 0.110164426 -0.10143668 0.17069146 -0.12646568 -0.1833465 -0.1460963
0.16494167 -0.10682826 0.13657415 -0.17230211 -0.1566625 -0.16498616 0.1489615 -0.18274242
0.1543868 0.052382093 0.08807839 0.12448119 -0.075176165 -0.1402799 -0.10466609 0.13218151
-0.09685761 -0.0384689 0.205521 -0.05316193 -0.19423205 -0.16061965 0.02636844 -0.21120009
-0.124643 -0.026583036 -0.107609764 -0.102094695 0.15895216 -0.13907082 0.2383238 0.047922105
-0.115962856 -0.10256726 0.05420481 -0.016189648 -0.03955697 0.040464368 0.09904349 0.14345627
-0.15489897 -0.1499068 -0.17923974 -0.050240763 -0.09588824 0.14402118 -0.19215919 0.116719976
0.12670815 0.1405556 0.0761425 0.16550545 0.20385647 0.15695329 0.16920677 -0.10681074
-0.010491124 -0.13827187 -0.123000145 0.061153863 0.14610013 0.17688696 0.15377702 0.16019262
-0.15974988 -0.14341462 -0.09983462 -0.065710835 0.06799333 -0.12392493 0.036310297 -0.111729026
-0.06510202 0.18144487 0.014252457 0.03306696 0.19457176 -0.13964008 -0.053601906 0.12271186
-0.13283911 -0.1933243 0.023853555 0.10993407 -0.019794919 -0.03753656 0.14173001 -0.05593419

action_net.bias f4 [2]
00000000: 73a3 4cbd 04ed 64bc
-0.049960565 -0.013972525
