weights/cnn-nd-1-eps-300.pth (torch, 568288 bytes, 16 tensors)

log_std f4 [2]
000000 27 3c 38 3e b0 9f 26 3e
       0.17991696 0.16271853

features_extractor.encoder.0.weight f4 [16, 1, 3, 3]
000000 2a cd 98 3e 1c 88 a6 3e 0f 66 3d bd a2 cf b3 3e
       0.29844028 0.32525718 -0.04623991 0.3511935
000010 8f 41 cc bc 52 11 e1 3d 1b e4 f9 bd cf 90 6b 3e
       -0.024933605 0.10989632 -0.12201711 0.23004459
000020 0b 51 a5 3e eb ee 49 be 71 69 ae 3e b9 90 c1 3d
       0.32288393 -0.19720046 0.3406482 0.09451432
000030 78 c0 97 3e d3 e8 c8 3d 0e 9d 52 3e 9f 75 9f bb
       0.2963903 0.09810033 0.20567724 -0.0048663164
000040 01 65 9c 3e 31 e5 af 3d 30 da 86 be c5 e4 2f 3e
       0.3054581 0.08588637 -0.2633834 0.17177112
000050 17 c2 d5 bd 56 cd 27 be 3f e6 be bd 02 79 81 3e
       -0.1043741 -0.16386923 -0.0932126 0.25287634
000060 62 c5 79 be 06 53 6b be be 63 09 be 9f 7e 53 be
       -0.24391702 -0.2298089 -0.13416955 -0.20653771
000070 c5 af 93 bc c0 be af be 55 68 93 3e 4f f5 a6 be
       -0.01802815 -0.34325218 0.28790537 -0.3260903
000080 67 be 71 3e c7 b7 42 3d bd 69 17 be 31 6d 39 3e
       0.23607789 0.047538545 -0.1478643 0.1810806
000090 9f 5c bd 3d 87 92 9b 3e 2d fe 4b 3d f7 b3 54 bd
       0.09246182 0.3038523 0.049802948 -0.05192944
0000a0 3a fa 12 3e cd 05 3c bd b2 6c 44 3e 0c 7b b2 3e
       0.14353266 -0.04590397 0.19182089 0.34859502
0000b0 4a e2 6b 3e d9 b2 23 be 43 f3 47 3e a0 ed 97 3d
       0.23035541 -0.15986194 0.1952639 0.0741837
0000c0 f6 7e 02 3e a5 b1 80 be 00 bd 8f be a1 41 ca bd
       0.12743744 -0.25135532 -0.28073883 -0.09875799
0000d0 b4 f7 86 be e7 b1 af 3e 40 14 0a 3e 71 73 3b 3e
       -0.26360857 0.34315416 0.13484287 0.18305756
0000e0 a5 88 0f 3e 0b 18 00 3d 58 83 9b 3e 21 eb 4a be
       0.1401697 0.03127293 0.30373645 -0.19816257
0000f0 4e 11 8a 3d 47 ab 4c be 8f 24 0e 3e d5 49 4e be
       0.06741582 -0.19987212 0.13881133 -0.20145352
000100 e5 5c a9 3d cc 14 9d bd 2c 74 b3 3e f2 eb 65 be
       0.08269671 -0.07669982 0.3504957 -0.22453287
000110 c8 7e 18 be 3f 41 88 be 83 16 96 3e c1 3e ba 3d
       -0.14892113 -0.2661228 0.2931405 0.090940006
000120 94 2c 93 3e ff 35 7d be 1d 6d bf be 26 6c a4 be
       0.28744948 -0.24727629 -0.37387934 -0.3211376
000130 4c 85 2d be 88 fc 85 3e 20 a3 b9 3d c6 f8 ad 3e
       -0.1694538 0.2616923 0.09064317 0.33978862
000140 6e a3 ff bd 6f f0 50 be c5 ff 60 3e e8 b3 1a be
       -0.124823436 -0.20404218 0.21972568 -0.15107691
000150 49 8a a7 3e d5 bd 98 bd 34 e7 47 3e 02 80 06 be
       0.3272269 -0.074580826 0.1952179 -0.13134769
000160 b8 39 f8 bd d7 7f ca 3d 1a f5 ae 3d 1c a0 63 bd
       -0.12120384 0.09887665 0.08542843 -0.055572614
000170 1a 8d 5b 3e 0a 4e 82 3e 2e 58 54 be a6 43 16 be
       0.21440545 0.25450164 -0.20736763 -0.14674243
000180 e3 db a7 3e 36 9e bf bd 9d bb cf bd db 22 a5 be
       0.32784948 -0.09356348 -0.10143206 -0.32253155
000190 b0 78 43 be 5c 88 aa 3d f8 36 34 bd e3 c4 77 be
       -0.19089007 0.0832679 -0.043997735 -0.241962
0001a0 e0 1a 00 3c 93 28 69 be 04 cb 90 be a3 f5 3b be
       0.0078189075 -0.22769384 -0.2827989 -0.18355422
0001b0 5f 95 72 be 91 cd 38 be e5 f0 ac 3e 06 77 e9 3d
       -0.23689793 -0.18047167 0.33777538 0.11399655
0001c0 d6 82 50 3e d3 05 b9 be 52 c4 1d be e6 d8 a3 bb
       0.2036241 -0.36137256 -0.15406922 -0.0050002215
0001d0 bc 19 d8 3d 5a 2c 96 be 70 9c 3c be 76 58 4c be
       0.105517834 -0.29330713 -0.18419051 -0.1995562
0001e0 28 2a 1a be c0 05 fe bd 91 1c 17 bd 30 4c 67 be
       -0.15055144 -0.124034405 -0.036892477 -0.22587657
0001f0 20 4a 6a be 6e 22 47 be 1c 88 bf bd 2d f4 76 be
       -0.22879839 -0.19446728 -0.09352133 -0.24116583
000200 5a 91 9a 3e 82 53 df bc d0 f8 b9 3e 33 83 29 3e
       0.3018902 -0.0272615 0.3632264 0.16553955
000210 ef 5e 5d be f9 b2 98 3e f0 d4 56 bd 31 a1 8c bd
       -0.21618246 0.29824045 -0.052449167 -0.06866682
000220 14 46 d6 be fd df b5 be 8a 44 f2 3d f9 42 4c bd
       -0.4185034 -0.35522452 0.11829479 -0.049868558
000230 3d 4a 75 3e 0d 76 77 be b5 d3 c8 3e c5 7d ff bd
       0.23954101 -0.24166127 0.3922402 -0.124751605

features_extractor.encoder.0.bias f4 [16]
000000 ea 85 7c bc 29 cf 3c 3d a8 d6 55 3e be 84 92 3e
       -0.015412787 0.046096 0.20882666 0.286169
000010 96 bd 87 3e 4b 8b 52 be ea 54 2d 3d 49 e8 fd bd
       0.2651183 -0.20560949 0.04231731 -0.123978205
000020 b7 f4 3e bc 13 2d 66 be e1 29 90 3e 93 85 7a be
       -0.011655024 -0.22478132 0.2815695 -0.24465017
000030 90 ed 2e 3e 21 6e 2e 3e 03 d8 d7 3d c3 38 f5 bc
       0.1708281 0.17034198 0.10539248 -0.029934293

features_extractor.encoder.2.weight f4 [16, 16, 3, 3]
000000 cb 0f bc 3d d2 49 46 3d 60 ea 2b 3d 5d 41 9e bd
       0.091827 0.048410244 0.041971564 -0.07727311
000010 a8 5b 22 3d a3 cf 4a bb 22 31 52 bd 9b fb 79 3d
       0.03963819 -0.0030946515 -0.051316388 0.061030965
000020 82 ec 78 3c bb 35 18 bd 29 3e 69 bc 04 75 be 3c
       0.015193107 -0.037160616 -0.014236012 0.023249157
000030 47 68 35 3d f1 d9 93 bc a3 02 40 bd 61 b2 35 bd
       0.0442889 -0.018048258 -0.046877515 -0.04435957
000040 2e ab 9a bd 62 fe e3 3c 9c d9 85 3d 9b b4 ee bd
       -0.07552181 0.02783126 0.06535646 -0.116555415
000050 f9 15 4d 3b c4 4c e3 3c 28 7f e3 bb 93 86 84 bd
       0.0031293614 0.027746566 -0.0069426484 -0.064709805
000060 41 56 1a 3d 15 dc f7 3c 4f 0d 0f 3d f8 18 72 bc
       0.037679914 0.03025631 0.0349248 -0.014776461
000070 c7 d6 24 bd 56 f3 a3 bc 58 e6 c1 bc 29 87 6c bd
       -0.04024389 -0.020013493 -0.023669407 -0.057746086
000080 f4 d4 28 3c 9d 94 92 3d f3 60 33 bc da 8a a0 bc
       0.010304678 0.07157252 -0.010948407 -0.01959746
000090 0f b6 64 3b c2 10 10 3c 92 93 1b 3d 5b a5 9e 3c
       0.0034898554 0.008793058 0.03798253 0.019365957
0000a0 c5 c1 9e bd c4 d7 e0 bc 11 f6 82 3d a5 aa c9 3c
       -0.07751802 -0.027446635 0.0639459 0.024617502
0000b0 2d bb c3 bb 5c 95 0e bc f3 4e 37 bc 50 40 f9 bc
       -0.005973241 -0.008702602 -0.011188257 -0.030426174
0000c0 95 ac 40 bb 69 d7 da 3d 97 b3 9f 3d f1 14 d8 3d
       -0.0029399742 0.106856175 0.07797926 0.10550869
0000d0 63 63 a2 bd 85 42 f1 3c 41 8d fb bb d6 90 ce 3d
       -0.07929113 0.029450664 -0.007676751 0.10086219
0000e0 b2 e9 3c 3d ce 19 43 bc 1a ed 75 3d 36 3c 09 bc
       0.046121307 -0.011908008 0.06004057 -0.008376172
0000f0 94 a5 85 bd ae d1 66 3d 89 e7 53 bd ad fd 2f 3c
       -0.06525722 0.05635231 -0.05173448 0.010741633
000100 95 37 a1 bd 72 64 98 3d 2f 50 b7 3d 09 e7 0c 3e
       -0.078719296 0.074410334 0.08950841 0.13760008
000110 08 2d 58 bd e5 ce 39 bd 73 65 c8 3c 50 4f 16 3e
       -0.05277732 -0.045363326 0.024462437 0.14678693
000120 c0 94 8f 3d e6 b4 22 3d 58 89 41 3d bd 7e 7b 3d
       0.07010794 0.0397233 0.04725012 0.061400164
000130 70 e5 8e bc 41 a5 4f bd 6c 1d 7f bd 9b 16 28 bb
       -0.017443389 -0.050694708 -0.06228392 -0.002564824
000140 91 a7 04 3e 0d 57 0c 3d 77 41 c6 3d 62 8e 62 bb
       0.12954547 0.034262706 0.09680455 -0.003456973
000150 df 39 0e 3d 87 07 c3 3d 1b e4 d1 bc 50 71 5e 3c
       0.03472316 0.0952292 -0.025621464 0.0135768205
000160 34 a1 12 3d aa 8f 28 3d 28 5e 19 bd 50 31 90 bd
       0.035798267 0.041152634 -0.03744331 -0.070406556
000170 d6 b3 90 bc 79 e7 3a bd 75 ef 94 bc 7e ee bb bd
       -0.017663877 -0.045630906 -0.018180588 -0.09176348
000180 45 e7 13 3d fe 3e 69 bd 5f 70 eb 3c 46 e4 1a 3d
       0.036109228 -0.05694484 0.028740106 0.037815355
000190 16 dc 73 3d 04 e9 82 bd 62 7c 75 3d ab 5d 21 bd
       0.059536062 -0.063921005 0.059933074 -0.03939597
0001a0 0c 51 fd 3c 8d 46 a0 3d 38 8e 40 bc 80 f0 28 ba
       0.030922435 0.078259565 -0.011752658 -0.00064445287
0001b0 93 d0 88 bd 34 63 a1 bd b0 90 77 bc b1 68 99 bd
       -0.066804074 -0.078802496 -0.01511018 -0.074906714
0001c0 a8 8b 9c 3d b6 da 74 3d c7 83 8e 3d 77 04 24 bc
       0.07643825 0.05977889 0.06958728 -0.01001083
0001d0 5b 45 b6 bd 97 13 c5 bc f5 2e 9e 3c f4 02 0a be
       -0.08899947 -0.024057193 0.0193095 -0.13477689
0001e0 b7 0f 1f bd 13 c3 a6 bd 00 68 04 bc bb 06 7e bd
       -0.038833346 -0.08142676 -0.008081436 -0.062018137
0001f0 57 c5 11 bd 04 80 43 bd 49 81 a1 bd 4a 31 b0 3d
       -0.03558859 -0.047729507 -0.07885987 0.08603151
000200 40 18 87 3d 6b f6 1a bc 64 3e 9e bc b0 cf d2 bc
       0.06596422 -0.009458165 -0.01931686 -0.025733799
000210 96 92 a1 bd 9f c1 c1 bd 2a cd c1 3c b0 b0 e3 3d
       -0.07889287 -0.094607584 0.0236574 0.11117685
000220 20 08 6f bd 3f 4e b0 3d 71 09 82 bd b2 70 8e bd
       -0.058357358 0.08608674 -0.06349457 -0.06955089
000230 7d 10 68 3d e3 29 ee bd 58 19 c9 bc 5c 0b e5 3d
       0.05665635 -0.11629083 -0.024548218 0.11183807
000240 fe 5f f6 bd 6d 7e f1 3d dd 18 0e 3d 55 e9 71 3c
       -0.12030028 0.11791692 0.03469168 0.014765103
000250 ca bb 9c bc d7 fe 68 3d 41 4f d9 3d b0 d0 61 3c
       -0.019132514 0.05688366 0.106108196 0.013782665
000260 37 89 2f be 05 f3 40 bc 0a 3c 07 3e 32 47 b4 3d
       -0.17142187 -0.01177669 0.13206497 0.08802642
000270 83 70 84 3d 16 63 01 3e 3b 0a d7 bb 85 8c eb 3c
       0.064667724 0.12635455 -0.006562499 0.028753528
000280 34 15 bf bd 9e 57 a5 bd b5 34 d1 3d 22 36 ac 3d
       -0.09330216 -0.08073352 0.10215131 0.084087625
000290 45 7c 83 bd d8 75 8c bc f5 fe e0 3b de b5 a0 bd
       -0.06420187 -0.017146036 0.0068663307 -0.078471884
0002a0 77 27 2b bd 8d e1 2a 3d 37 45 04 3e a7 2d 5a 3d
       -0.041785683 0.04171901 0.12917028 0.053266194
0002b0 6e 79 60 bd ab 85 71 bd 90 e6 96 3d 0a ed c2 bd
       -0.054803304 -0.058965366 0.07368195 -0.09517868
0002c0 a9 9f d8 bb ae 33 8d 3d a6 34 8b bb 33 6a e5 3c
       -0.00661083 0.06894623 -0.0042482195 0.028004741
0002d0 c9 b7 1a bd e5 cc ac 3c 36 5b a0 3c 8d e5 92 bd
       -0.037772927 0.021093795 0.019574743 -0.071726896
0002e0 5d d3 3d bd 73 44 f4 bc 24 85 c7 3d 03 7e 88 bd
       -0.04634415 -0.029817795 0.097421914 -0.0666466
0002f0 5b 6d d5 bd 8a 81 a6 3d a1 44 26 3e 89 f6 f6 3d
       -0.104212485 0.08130176 0.16237117 0.120587416
000300 e6 73 2b 3d 30 a5 dc 3d 55 2a 92 bd 22 c0 d5 3d
       0.041858576 0.107736945 -0.071369804 0.10437037
000310 84 bd b2 bd f6 2f 90 3c 3a d6 e8 bd 21 4f a3 3d
       -0.087275535 0.017600995 -0.113689855 0.07974077
000320 29 98 ed 3c ce 56 59 bd 0d 89 e5 bc 88 36 d3 3d
       0.02900322 -0.0530613 -0.028019452 0.103131354
000330 9b b8 43 3d 1a 61 cc 3c cf af 8b bd c7 8a 02 3d
       0.047783475 0.024948645 -0.06820642 0.03187063
000340 d8 59 9e 3c 5a 3a 04 3e 99 37 d0 3d 51 9f 38 3e
       0.01932995 0.12912884 0.101668544 0.18029524
000350 62 67 67 3d 0c bb 70 3c 86 30 e8 bb a0 64 0b be
       0.056495078 0.014693033 -0.0070858626 -0.13612604
000360 76 3b a7 3d b0 3a ee 3d 55 bc 06 3e 1d 2e 0a bc
       0.08165638 0.116322875 0.1315778 -0.008433846
000370 a3 96 a4 3c c4 a4 cd bd bf f1 b7 3d f9 85 01 bd
       0.02009136 -0.10041192 0.08981656 -0.031621907
000380 07 d2 64 3c 0c 07 a4 3d 6a 74 a8 bc 25 03 82 3c
       0.01396609 0.080091566 -0.020563323 0.01587064
000390 3c 81 95 3d 10 ef 18 3c 48 5e 4e bb d3 b3 4c bd
       0.0730004 0.009334341 -0.0031489301 -0.04997618
0003a0 ea c4 e7 3d 6e de f8 bb 9c f1 c1 3c 1c bd 97 bd
       0.11316855 -0.007594875 0.023674779 -0.074091166
0003b0 40 bd 26 bd 62 f8 29 3d c8 61 0b 3d 87 e0 25 bd
       -0.040707827 0.041496642 0.0340288 -0.04049733
0003c0 9a a1 d6 bb ce 17 81 3d ff 60 ca bb 00 68 76 3b
       -0.006550026 0.063033685 -0.0061761136 0.003759861
0003d0 30 01 a8 bc d2 8d 9a bd 7a 78 a0 bd 98 29 23 bd
       -0.020508379 -0.07546581 -0.07835479 -0.03983459
0003e0 ce 81 2d bd f0 af d4 3c 4c bb c6 bc 83 89 05 bd
       -0.04236012 0.0259628 -0.024259232 -0.032601845
0003f0 01 05 0d 3e da db 74 3d 94 4c 3a 3d 7c 8e bb bc
       0.1377144 0.05977998 0.045483187 -0.02289509

features_extractor.encoder.2.bias f4 [16]
000000 33 06 c0 b9 ba 92 98 bc b5 77 8c 3d 76 b4 65 bd
       -0.00036625713 -0.018624652 0.0685877 -0.056080304
000010 84 49 ac 3d 41 37 95 bd 96 95 0e bd 49 97 a1 bd
       0.084124595 -0.072859295 -0.034810625 -0.078901835
000020 af cc 5a bd f8 85 c0 3c cd 0c 84 bd ae 82 96 bd
       -0.053417858 0.023501381 -0.06447754 -0.07349144
000030 18 45 27 3d ca 10 7a 3d ae 29 43 bc 09 aa 9c bd
       0.040837377 0.061051168 -0.011911793 -0.07649619

features_extractor.encoder.4.weight f4 [16, 16, 3, 3]
000000 40 72 2f bc c5 60 6b bc dd 14 5b 3d f0 e0 b4 bb
       -0.010708392 -0.014366333 0.053486694 -0.0055199787
000010 c1 7f 81 3b 2c 36 61 bd fb e7 30 bd 27 21 52 3d
       0.003951997 -0.054983303 -0.043189984 0.051301148
000020 eb 6a 90 3d f0 37 8d 3c 9a 3d 86 bd 35 0d d1 3d
       0.07051643 0.017238587 -0.06554718 0.10207597
000030 9c 12 1b 3c 73 1a a3 bd f8 c0 7a bd 1b 73 d1 bc
       0.009464886 -0.07964029 -0.061219186 -0.025567582
000040 69 95 12 bd 19 4b 30 3d e1 6c 54 3d 42 a1 bc bc
       -0.03578702 0.04304037 0.051861648 -0.023026112
000050 25 9b 41 3d 7f 35 cc bb 26 63 45 bd e0 5a ba 3c
       0.047267098 -0.006231963 -0.04819026 0.02274841
000060 77 cf 4e bd 35 31 98 3c 5b fe 60 bd 43 ec 46 bc
       -0.050490823 0.018578151 -0.054930072 -0.01214129
000070 ca 6d 07 bc c1 0d 17 bc 93 14 d9 bc 3e 8c 88 3d
       -0.008265922 -0.009219588 -0.026499068 0.06667374
000080 7b 4a 21 bd 38 31 0a 3d 77 e5 8c 3d 62 26 82 bd
       -0.03937767 0.033738345 0.068797044 -0.06354977
000090 4d ca 53 bd d8 d5 19 3c ac f1 41 3d 92 43 75 bd
       -0.0517066 0.009389363 0.047349617 -0.059878893
0000a0 d3 cd a9 bc c4 7b e6 bd 4b 94 80 bd 8f 55 81 3c
       -0.020728027 -0.11254075 -0.06278285 0.015787868
0000b0 e5 0a 8b bd 32 d5 ae 3d 1a 5e fa 3c dd 8a 31 bb
       -0.06789187 0.085367575 0.03056245 -0.0027090826
0000c0 92 68 ad 3d ab bf ee 3d d8 52 0d 3d d7 a2 98 bd
       0.08467211 0.116576515 0.034502834 -0.07452934
0000d0 14 26 3d bb 29 18 3d bd 08 69 ac 3d 69 3a 55 3d
       -0.0028861808 -0.04616562 0.084184706 0.052057657
0000e0 6d 2f b0 3c ec c4 99 3d 2b 5c 58 3d f8 ab 3c bd
       0.02150699 0.07508263 0.052822273 -0.04606244
0000f0 a1 9e ce 3d 0d 98 8a 3d 49 35 c9 bc 6a 7e c3 3d
       0.1008885 0.06767283 -0.024561541 0.09545596
000100 95 7d a4 3d 71 42 6d 3c 38 cd 91 bd 48 83 7f bc
       0.08031765 0.014481173 -0.071192205 -0.015595265
000110 b6 bb af bd 8d f4 c5 3d ee 20 a0 3d df b1 0f bd
       -0.08580725 0.09665785 0.07818781 -0.03508174
000120 56 db af 3c 74 ba b9 bd 1b cb 19 bd 07 51 f3 bc
       0.021466892 -0.09068766 -0.037547212 -0.029701723
000130 d4 cf 82 3c 65 0d 29 3c 98 fd 80 3d 61 38 17 3d
       0.01596824 0.010318135 0.06298369 0.036919
000140 a5 66 a9 bc 2d 42 9d 3d ca 22 ca 3d 1e f2 15 3d
       -0.020678828 0.07678638 0.09869917 0.036607854
000150 61 78 c4 bc e0 2c 58 3d cb dc 35 3b 37 5b d9 3d
       -0.023983182 0.05277717 0.002775001 0.10613101
000160 77 07 50 3d e1 1f 8f 3c 90 51 b6 3c 82 c6 a8 3d
       0.05078837 0.017471256 0.022255689 0.08240987
000170 3d fe 7d 3c 66 f3 cc 3d 25 5a 9a 3d 49 91 93 bd
       0.01550251 0.10007362 0.07536725 -0.07205445
000180 0d 50 04 3c 54 8b 80 bd 03 ca 78 bd fc cf e0 3c
       0.008075726 -0.06276575 -0.06073953 0.027442925
000190 db 4b 57 3d eb 99 1e 3d 65 fa ad 3d 61 1d 35 bc
       0.052562576 0.038721006 0.084950246 -0.011054368
0001a0 c2 bb af 3b dd 92 f2 bb 2f 5e d1 3c 4e e1 f9 3b
       0.0053629586 -0.0074027614 0.025557606 0.0076257354
0001b0 f0 b4 bb 3d b2 56 fc 3b 24 81 84 3b 0f e4 06 3c
       0.091653705 0.0077007646 0.004043715 0.008233084
0001c0 42 e1 d0 3d 8c 78 63 3d d7 a1 46 3d dd f6 f2 3c
       0.101992145 0.055534884 0.048494186 0.02965873
0001d0 a6 dd ae 3d 92 c4 4e 3d d1 63 29 3d b5 4b 07 bd
       0.0853837 0.050480433 0.041354958 -0.033031184
0001e0 fe 0a b7 bd 93 a9 aa bd 67 9b b2 3c c2 a7 93 3d
       -0.089376435 -0.08333125 0.021802617 0.07209732
0001f0 47 7b e1 bc 36 0d 32 3d 34 53 5c bc 44 b9 d4 bc
       -0.027524604 0.04346963 -0.013447572 -0.025967248
000200 0d 1b ad bc a3 48 13 bd cd 19 89 3d d0 40 ac 3c
       -0.021131063 -0.035957944 0.06694374 0.021026999
000210 05 1f 19 3d 82 11 da bd 8a 04 36 bd a4 6a 38 bd
       0.0373831 -0.106478706 -0.044437923 -0.045023575
000220 d8 e1 a1 bc a7 a0 db 3c 35 71 c7 bc 3d 84 09 be
       -0.019761011 0.026810003 -0.024345974 -0.13429351
000230 87 f4 c7 bc 5d ed 2b bd 54 93 d1 bd 80 bc aa bc
       -0.024408592 -0.041974414 -0.10233179 -0.020841837
000240 b8 4b 06 bc 3b 48 dc 3d 1f 02 4a bd 98 ab d2 3c
       -0.008196764 0.10755964 -0.04931843 0.025716588
000250 9f 29 81 3d 81 3a 7c bd a4 66 52 3d ab 15 41 3c
       0.06306767 -0.06157923 0.051367417 0.011784951
000260 3d 7f de 3c ee 5f 06 3e 8d ad 7c bc d5 43 d1 bd
       0.027160281 0.13122532 -0.015422237 -0.10218016
000270 c6 34 bc 3c d0 94 37 bd 44 54 e3 bc 11 63 7c 3c
       0.022974383 -0.044819653 -0.027750142 0.015404479
000280 f1 56 a3 bd 3b aa 0b bb e8 50 a9 bc e6 e9 39 bd
       -0.07975567 -0.0021311182 -0.020668462 -0.04538908
000290 de d3 00 be 43 c2 4e 3d 9b 8f 80 bc 03 46 5a bd
       -0.12580821 0.05047823 -0.015693476 -0.053289425
0002a0 32 b9 c9 3c 5e 7d 8b bc 1f 1f 80 3a cd bf 71 3c
       0.02462444 -0.017027553 0.00097749 0.0147552015
0002b0 25 27 29 3c f4 bf 35 bd 15 09 5e bc 3d 28 8c bd
       0.010324274 -0.044372514 -0.01355197 -0.06843612
0002c0 c8 9f 44 3d ae 4f 80 bd 38 a4 07 3c 0d 8b db bc
       0.04800394 -0.06265198 0.008278899 -0.026799703
0002d0 f5 ba 06 be 7c 80 da bd 42 57 0f be 59 bb 88 bd
       -0.13157256 -0.10669038 -0.1399813 -0.06676359
0002e0 8c 90 8f bd 9e ef dd bd ce a8 b8 bd 97 79 cb 3c
       -0.07009992 -0.10836719 -0.09016572 0.024838252
0002f0 ca 7a 2a bc 01 a7 14 3d 82 18 45 3d 2a b1 9c 3d
       -0.010405252 0.03629208 0.048119076 0.07650979
000300 46 78 a3 bd 06 ae 98 bc c0 34 53 bd fe 32 d7 3b
       -0.07981925 -0.018637668 -0.05156398 0.006567358
000310 17 d9 52 3d 9f d8 92 bd b6 51 9c 3d 8e b7 3a bd
       0.051476564 -0.071702234 0.076327726 -0.045585208
000320 39 79 8d 3d 66 3c 31 bd 44 52 d8 3c 3e 69 4a 3c
       0.06907887 -0.04327049 0.026406415 0.012354193
000330 4e c4 e1 bb 33 85 ed 3d cd 4b 91 bd 8d 4e a7 3c
       -0.0068898564 0.11597671 -0.07094536 0.020423198
000340 b3 33 f8 bc 1c 9f 41 3d 5e 6e bf 3d d2 34 00 3e
       -0.03029809 0.04727088 0.09347223 0.1252015
000350 6f 89 02 3d 91 2c 08 bd e0 51 07 3e 07 20 d1 3c
       0.03186935 -0.033245627 0.13214827 0.025527967
000360 7b b3 27 3d 0b 8f 36 bd 7c b7 93 bd b6 14 a9 bd
       0.04094265 -0.04457001 -0.07212731 -0.082559034
000370 17 4b 61 3d 3a d0 a5 3c fd 8a de ba 5a 59 7a bc
       0.055003252 0.020240892 -0.0016978678 -0.015280092
000380 e0 4e 73 bc ee 4f 0a 3d 42 cf 7d 3d e2 00 01 bd
       -0.014850348 0.033767633 0.061965235 -0.031494983
000390 07 7c 1a 3d f3 e2 6e bb 2e 13 21 3d 07 d6 5f bd
       0.037715938 -0.003645119 0.03932493 -0.05464747
0003a0 01 35 8b 3d 0e 5e ad 3d 47 b0 f8 3d 71 10 80 3d
       0.06797219 0.08465205 0.12142997 0.06253136
0003b0 a5 5f 0e 3d c4 67 c3 3d 7f ac 17 3d 3e f5 34 3d
       0.034759182 0.09541276 0.03702974 0.044179194
0003c0 61 19 fe 3c 4c 29 cf 3d 08 91 51 3d a4 2b 28 bc
       0.031017961 0.10115299 0.051163703 -0.010264311
0003d0 32 1b 2f 3d 11 af c7 bb 21 9a 6b 3c 51 94 47 bd
       0.042750545 -0.0060938676 0.014380009 -0.04872543
0003e0 1d 18 89 3d 9f 11 13 bd c9 c6 9b 3d 46 90 83 3d
       0.06694052 -0.035905477 0.07606275 0.06424002
0003f0 ae 5e 13 3b 88 42 d5 3d 26 d4 8c 3d 6a b5 a2 bd
       0.0022486853 0.104130805 0.068764016 -0.07944758

features_extractor.encoder.4.bias f4 [16]
000000 61 61 b6 bd 38 d8 8a bd 21 f1 69 bc 21 99 35 bd
       -0.08905292 -0.06779522 -0.014278681 -0.04433549
000010 69 af 5d 3c 97 c8 7b bd cf 0c 6d bb 3a a3 29 bd
       0.013530591 -0.061470594 -0.0036170965 -0.04141543
000020 53 09 ee bc d7 46 20 3d 35 a4 df bc 39 ee 27 bd
       -0.02905718 0.03913006 -0.02729998 -0.04099867
000030 de c2 12 bd e8 38 80 bd 0c 19 95 bd 01 f0 a3 3c
       -0.03583037 -0.06260854 -0.07280168 0.020011904

features_extractor.policy_net.0.weight f4 [64, 1024]
000000 6e 2d 0d 3d f5 04 5a 3c 37 70 ab 3d 0f 35 68 3c
       0.034467153 0.013306846 0.08371013 0.014172806
000010 dd f8 b2 3d 77 93 0c be 82 9b 79 3d d1 24 a5 3b
       0.08738873 -0.13728128 0.06093932 0.0050397892
000020 f1 45 a5 3c 67 9f fe 3c b0 ae e3 3c 08 04 e4 3d
       0.020174952 0.031081868 0.027793258 0.111335814
000030 e7 4a 9b 3d a5 d1 06 bd cd cc 50 3c f4 3f 9e bd
       0.07582646 -0.032914776 0.012744141 -0.07727042
000040 58 b0 a5 3d 4d 77 53 3c a9 a1 56 bd 2f 21 e8 3c
       0.080902755 0.0129068615 -0.052400265 0.028336136
000050 57 5a f7 bb c2 5e 3f 3d 02 09 9a 3d 86 a0 dd 3c
       -0.007548611 0.046721227 0.07521249 0.027054083
000060 12 b7 a8 3d f7 40 24 3d 29 67 8d bd 9c e2 e9 bc
       0.08238043 0.040101018 -0.06904442 -0.028550439
000070 aa 8e c3 3c 8d af a9 bc 0b e2 95 3d 1c a8 f3 b9
       0.023871738 -0.020713592 0.07318505 -0.00046473823
000080 03 b8 a3 bb 59 38 38 3c c0 fa be 3d 08 2c c9 3c
       -0.004996301 0.011243903 0.093251705 0.024557129
000090 3c 9b 0a 3e 0d d3 8a 3d de 8d 8c bd 89 0f f0 bd
       0.1353578 0.06778536 -0.068629965 -0.11721713
0000a0 e8 97 9a bd 55 ad ed bd 0e 09 1d bd d5 08 e3 bd
       -0.07548505 -0.11605326 -0.038338713 -0.11085669
0000b0 6c 0c ec bc 2b 1e e4 3c be 5c b0 bc 4e ee 2f 3c
       -0.028814517 0.027846416 -0.021528598 0.010737969
0000c0 2a 8c 00 3c d6 d4 eb bd e1 c8 85 bd dc 44 a0 3c
       0.007845918 -0.115152046 -0.06532455 0.019564085
0000d0 35 25 ce ba d4 e5 91 bd 3e aa 29 bd d1 db 92 3d
       -0.0015727641 -0.07123914 -0.04142212 0.07170833
0000e0 2b 30 c6 bc 53 c9 a7 bd be 65 32 bd 2a 5b 97 3c
       -0.02419289 -0.081926964 -0.04355406 0.018476088
0000f0 46 47 dc 3c d8 07 fe 3c e7 bb aa 3d 5c 95 e7 3d
       0.026889455 0.0310096 0.08336621 0.11307785
000100 e1 90 cb bb 11 2b 86 3c a2 76 dd 3d c2 4a bb 3d
       -0.0062123393 0.016377958 0.10813643 0.09145118
000110 ea a0 92 3c 25 97 92 bc 40 9e 8b bd 86 30 07 3c
       0.017898995 -0.017894337 -0.06817293 0.008251315
000120 97 af 4a 3d 22 fe 98 3c 61 d8 31 3c b3 a1 d7 3c
       0.04948386 0.018675867 0.010854811 0.026322221
000130 0a 9a 88 3b 2d df 86 3d 4d c1 85 bc a0 83 17 bd
       0.0041687535 0.06585536 -0.016327525 -0.03699076
000140 72 72 b4 3d 2b cd 9f 3c 23 05 81 bd 4d ca 90 bc
       0.08810891 0.019507011 -0.06299808 -0.01767459
000150 09 54 c0 bb b0 f7 3e 3d 89 b9 16 3d 58 6f 3b bd
       -0.005869393 0.046622932 0.036798034 -0.045760483
000160 15 bc 79 3d 30 44 58 3d b3 e1 56 bd da fc d1 3c
       0.060970385 0.052799404 -0.052461337 0.025633264
000170 47 c9 86 3c 36 a6 62 3d cc af 9c 3c 18 a1 8d bd
       0.016453398 0.055334292 0.019126795 -0.06915492
000180 94 ad 4e bd 86 8d 30 3d 2b db 35 bc 6e 36 a9 bc
       -0.050458506 0.043103717 -0.011099617 -0.020655837
000190 16 c0 cd 39 4b fe 00 3c 00 9b 03 bd 83 6f 84 3c
       0.00039243762 0.007873128 -0.03213024 0.016166454
0001a0 b9 20 57 bd d7 29 03 be 04 3f 1e 3d 52 2f 9f bd
       -0.05252144 -0.1280893 0.038634315 -0.077726975
0001b0 7d 31 dd bc 33 85 e4 bc 3f 7b 20 bd 1c fc 5f 3d
       -0.027001137 -0.027895546 -0.039180037 0.05468379
0001c0 51 6a 39 bc f0 6c 87 bd bb 60 9a bc 72 c7 83 3c
       -0.011316852 -0.06612575 -0.018844953 0.016086314
0001d0 85 70 83 bd a4 07 e0 bc 66 2d fc 3c a6 96 df bc
       -0.06417946 -0.027347393 0.030783366 -0.027293514
0001e0 35 18 86 bc ad 63 e7 bd 3f 0f be bd 26 c5 ee 3c
       -0.016368965 -0.112983085 -0.09280252 0.029146742
0001f0 00 24 d6 bc bc 0e 2b 3d 23 bd e3 3d ad cc e3 3d
       -0.026140213 0.0417621 0.11120059 0.11123023
000200 f3 97 5d 3b 48 15 22 bc 19 ef b2 3d 97 d2 bc 3d
       0.0033812493 -0.009892769 0.087370105 0.09219854
000210 de b5 85 3d ba 03 bc 3c 04 5c 11 be ab a6 af bc
       0.06528829 0.022950996 -0.14195257 -0.021441778
000220 93 04 42 3d 5e 8b 14 3d 1f 24 d7 bc 48 e8 62 3c
       0.047367644 0.036265723 -0.026262341 0.0138493255
000230 a2 85 78 3a 19 65 24 3d 71 dc 19 3d 5b eb 32 bd
       0.0009480362 0.040135477 0.037563745 -0.043681484
000240 30 df 18 3e 04 f2 be 3c 1e 78 9a bc 5a 7d b1 bc
       0.1492889 0.023308761 -0.018856104 -0.021666218
000250 90 dd e8 3c 47 a3 e6 3c 0c b0 ef 3c a4 b5 13 bd
       0.028425962 0.028154029 0.02925875 -0.036061898
000260 4a be d6 3d 59 e7 9a 3d d9 8d 9e bd 7b c7 1e bd
       0.104855135 0.07563657 -0.07741899 -0.03876446
000270 3d 6f a7 3b 9b 4a 80 3c 8a 00 c3 bc 91 7d 9e bd
       0.005109696 0.015660575 -0.023803968 -0.07738794
000280 49 bd bf bd ca b0 be bc 32 e4 67 3d 52 92 c3 3c
       -0.09362275 -0.023277659 0.05661411 0.023873482
000290 ea 22 a9 3d 04 82 e3 bb 75 8a b7 bd 01 b2 4f 3d
       0.082586125 -0.0069429893 -0.089619555 0.050706867
0002a0 29 be 87 bd 81 cf 9c bd b5 05 3a bd 62 48 06 bd
       -0.06628067 -0.07656766 -0.0454156 -0.032783873
0002b0 34 08 24 bd eb 47 2a bd 56 22 8b bd ba f8 88 3b
       -0.040046886 -0.041572493 -0.067936584 0.004180041
0002c0 26 de 25 bb 38 ec 88 bd b8 2b b8 bc d7 a5 94 3d
       -0.0025309413 -0.0668568 -0.022481784 0.07258194
0002d0 1d fa 04 3c b7 96 6c bb 8a a8 4d ba e3 ae 9b 3c
       0.008116272 -0.0036100575 -0.00078452437 0.01900429
0002e0 f8 f9 50 bd e1 4f 1e bb 98 35 ec bc 1e 1d 5f bd
       -0.05101964 -0.0024156498 -0.02883415 -0.054471128
0002f0 1e 85 38 3d 10 7c cd 3b 37 fb 37 3d b5 df ef 3d
       0.045048825 0.006270893 0.04491731 0.117125906
000300 4d 8d 2e bd c0 d7 be 3a 2a e8 30 3d 4a d2 09 3e
       -0.042615224 0.0014560148 0.04319016 0.13459125
000310 8c e2 c4 3d 23 32 fc 3c 43 df 33 3c 8b be 8e bd
       0.09613523 0.030785626 0.010978523 -0.06969937
000320 65 02 93 3d b5 73 80 3c a8 7f c8 3b 2f 6c 4f bc
       0.07178191 0.015680173 0.0061187334 -0.01266007
000330 a0 fa e1 3c b6 34 84 bd a4 94 c5 3d 14 08 f1 3c
       0.027585328 -0.06455366 0.096474916 0.029422797
000340 69 8c c6 3c 23 6a 76 3d 22 f3 48 bc 07 ff ec bd
       0.024236875 0.060159814 -0.012264999 -0.1157208
000350 1b 7e ff bb c7 c3 84 3d 0a a6 2d 3d 5a 9c 89 3c
       -0.0077970154 0.06482654 0.042394675 0.016798187
000360 c3 d1 29 3d 68 ec aa 3d 95 fd 30 3d fd 1b 13 bd
       0.04145981 0.08345872 0.043210585 -0.035915364
000370 64 d1 94 3d 5d 2f 54 3c b8 36 00 bb b8 80 df bd
       0.072665006 0.012950745 -0.0019563865 -0.10913223
000380 dd 4c 55 3d ec a1 0e bd fa b2 8e 3c 21 08 69 bd
       0.052075256 -0.03482239 0.017419327 -0.056892518
000390 35 e8 ba 3c 3f 33 dc 3c 06 eb 0a bd 8d ea 8a 3c
       0.022815803 0.026879905 -0.033915542 0.016957546
0003a0 e6 95 dd 3b 3b 8c a1 bd 83 c0 20 bd a0 ec 37 3d
       0.006762254 -0.07888075 -0.039246093 0.044903398
0003b0 8a 0f 18 bd 47 c5 e3 bd 24 fd bc bd ba e0 7b bc
       -0.037124194 -0.11121612 -0.0922797 -0.015373403
0003c0 e0 c2 b2 3b 11 be 3f bd 62 33 5f 3c 6f 3a 50 3d
       0.00545536 -0.04681212 0.01362309 0.050836977
0003d0 49 85 de 3c a5 6d c4 bc 22 3e 4a 3d da c7 44 3d
       0.027163165 -0.023978064 0.04937566 0.048042156
0003e0 13 76 cb 3b dc 43 48 bd 65 07 d8 bc d3 99 ce bc
       0.006209144 -0.04889284 -0.026370713 -0.025219833
0003f0 b6 db f3 3c 00 69 4f bd df 34 89 3d 2d 7a 8f 3d
       0.029767852 -0.050637245 0.066995375 0.07005725

features_extractor.policy_net.0.bias f4 [64]
000000 d4 94 11 3d 75 9f c8 bb 01 4f df bb b2 db 9e 3c
       0.035542324 -0.0061225244 -0.006814838 0.019391868
000010 eb c3 1f bd 95 15 c3 bc 61 1f 39 bb 84 d5 46 3c
       -0.0390052 -0.023814002 -0.0028247463 0.012135867
000020 2b 8e 45 bb 10 94 27 3d 0f 27 c2 3c cd d4 ed 3b
       -0.0030144553 0.040912688 0.023700265 0.007258034
000030 20 24 b3 3b 3b 96 04 3d a2 e3 20 bd 73 12 11 3c
       0.005466953 0.032369833 -0.039279588 0.008854496
000040 28 79 d7 3c 9f e9 68 bb 90 10 68 bb e7 73 99 bc
       0.026302889 -0.003553964 -0.0035410263 -0.018732024
000050 76 5a 02 3d 4c a6 da 3b 57 76 db bc 74 07 88 bd
       0.03182455 0.006672656 -0.026789827 -0.066420466
000060 3f 44 34 3d c7 79 07 3c da e7 66 bc 99 c8 30 bd
       0.044010397 0.00826878 -0.014093364 -0.043160055
000070 d0 8d 2d 3c 36 89 31 3b c3 29 d2 bc 60 29 a0 3c
       0.010592893 0.002708984 -0.02565468 0.01955098
000080 17 86 08 bc e1 31 3a 3d 86 f1 4e bb 81 fb 47 3c
       -0.008332751 0.045457724 -0.0031577065 0.012205959
000090 75 ab 9d b9 c7 2d 67 3b 9a d0 11 3d 02 25 b8 3c
       -0.0003007312 0.0035275088 0.03559933 0.022478584
0000a0 9f c5 a2 3c 6e 2c 30 3c 60 6d c0 bb 08 ad a6 bc
       0.019869624 0.01075278 -0.0058724135 -0.02034618
0000b0 af c6 c6 3c 4a 62 78 3c 31 f2 e0 3c 45 39 e9 3c
       0.024264662 0.015160153 0.027459236 0.028469691
0000c0 24 6a 9a bb b0 fa 18 bd b8 97 13 3d 38 c3 ed 3c
       -0.00471236 -0.03734845 0.036033362 0.029023752
0000d0 31 c3 3d 3d 89 65 1e 3c dd 89 5b bc 70 9d ad bb
       0.046328727 0.009667763 -0.013399568 -0.005298309
0000e0 17 50 e4 3b 23 fa 97 3c 10 01 aa 3b 23 c7 89 bc
       0.0069675553 0.018551892 0.005188115 -0.016818589
0000f0 48 58 ce bb a7 99 14 3d 51 36 a9 bb 9c a0 eb bb
       -0.006297145 0.036279347 -0.0051639457 -0.007190777

features_extractor.policy_net.2.weight f4 [64, 64]
000000 70 e3 04 bb ca de 96 bc 0f 8b 14 3d 79 b5 7d bd
       -0.0020277165 -0.018416781 0.03626543 -0.061940644
000010 bb d4 3e 3e 50 75 1b 3c 93 53 80 3d 72 ef d0 bc
       0.18635838 0.009488419 0.062659405 -0.025504801
000020 fb 4b ec bd c7 db c6 3c e6 f4 e9 3d 85 ef 01 3e
       -0.115379296 0.02427472 0.11423664 0.12689026
000030 11 ff 7e bd a1 3e 58 bd c7 05 c5 3d d0 25 d1 3d
       -0.06225497 -0.052794103 0.096202426 0.1021229
000040 0b 1e 59 bd 43 18 8c 3d 52 e3 53 3d 09 57 41 3e
       -0.053007167 0.06840565 0.05173046 0.18880858
000050 13 74 e9 bb 0f 63 18 3e 92 1d cd bd d4 55 74 bd
       -0.007124433 0.14881538 -0.10015406 -0.059652165
000060 9d 00 01 be 4f 1c 0c be 46 f5 74 bc 9c 40 46 3d
       -0.1259789 -0.13682674 -0.014951056 0.04840146
000070 6d 97 30 3d 75 7c 20 bd 9a 17 fd 3d f5 49 1f 3d
       0.04311316 -0.03918119 0.12358017 0.03888889
000080 cb 2b db bc b2 e5 75 3c 65 1c a0 bd e8 2b 80 bd
       -0.02675428 0.015008377 -0.07817916 -0.062583745
000090 67 01 2f be da 12 fe bd 3c 76 cf 3d 60 19 ce 3d
       -0.17090379 -0.124059394 0.10129973 0.10063434
0000a0 7b 94 70 3d 8b 63 e8 3c ec 94 35 bd bc ab 6b bd
       0.058735352 0.028367778 -0.044331476 -0.057536826
0000b0 85 5c 8b 3d a5 25 fc 3c e8 b2 1b 3e 4f bd 0b 3d
       0.06804756 0.030779669 0.15204966 0.034116086
0000c0 7c 37 3e 3d 96 0a f6 bd be 84 b0 bc 1c 43 6f bd
       0.046439633 -0.12013738 -0.021547671 -0.05841361
0000d0 ec 0c 12 3e d9 a8 08 3e be b4 68 bd 9e ef 92 bd
       0.14262742 0.1334566 -0.056812994 -0.071746096
0000e0 f8 f3 20 be f9 74 ae bc 4d db 72 bd e3 f8 88 bc
       -0.15718067 -0.021296011 -0.059291173 -0.016720241
0000f0 23 af 2d 3d 51 64 d9 3c 40 aa 6b 3d 83 59 2a be
       0.04240335 0.026537092 0.05753541 -0.16635709
000100 5e 6a 9b 3d 74 32 ba bd 5c 59 60 3d a3 39 6c 3d
       0.07588647 -0.090916544 0.05477272 0.057672154
000110 de e3 cb 3d 72 4f 34 3d 0f b5 4a 3e 06 09 44 bd
       0.099555716 0.044021077 0.19795631 -0.047860168
000120 bd cf a7 3c 06 4f a3 3c 7c bf 63 bd 6b 20 9f 3b
       0.0204848 0.019935142 -0.055602536 0.0048561594
000130 35 a0 2c bd da 23 e6 3c 96 18 25 bd 76 01 42 3d
       -0.042144973 0.028093267 -0.04030665 0.047364675
000140 9b 22 91 bd 3d 59 b7 3d 3c 77 08 be d8 f5 6a bd
       -0.070866786 0.08952568 -0.13326734 -0.05736336
000150 84 e9 a3 bd 69 b1 2b 3d ec 5d 6a bd a4 19 28 bd
       -0.08003524 0.04191724 -0.057218477 -0.041040078
000160 19 01 16 bd f1 ad dc 3c c3 20 90 bc 41 c3 db 3d
       -0.03662214 0.02693841 -0.017593747 0.10730601
000170 ea 08 9d 3d 1c 8f 97 3d b1 d3 0e 3e e3 05 05 3d
       0.07667716 0.07400343 0.13947941 0.032476317
000180 b8 fe 06 be 57 aa 53 bd f3 9b a7 bb 7e 89 6b 3c
       -0.13183105 -0.05167612 -0.005115026 0.014376042
000190 53 fd 05 be df 3e 11 bd f9 36 9e bd b3 e5 92 3d
       -0.13084917 -0.03546035 -0.07725329 0.07172718
0001a0 3d 57 59 bc 53 6f 8f bd 0d 5d 86 bd 22 8c 85 bd
       -0.013265428 -0.07003655 -0.06560717 -0.06520869
0001b0 21 87 63 ba 1e df 09 3e e9 59 53 3d 3a 7b 1b 3e
       -0.00086794986 0.13464019 0.051599417 0.15183726
0001c0 66 73 b6 bd 7a 84 b2 3b 48 d3 fa 3d dc 24 0b be
       -0.08908729 0.0054479213 0.1224733 -0.1358828
0001d0 91 66 8b bd bf ec cb 3d 49 43 cb bb e9 fa 40 3d
       -0.06806672 0.09957265 -0.0062030894 0.047114287
0001e0 49 f5 30 be d0 b0 b9 bd 0e 5e a5 3d 59 5d 9f bb
       -0.17281069 -0.090669274 0.0807458 -0.004863423
0001f0 81 49 0b 3e 68 21 0f be cb ec 55 bc df ee b7 bd
       0.13602258 -0.13977587 -0.013056944 -0.08981108
000200 d6 a7 30 3d ed 81 65 bd 4c 70 16 3d e1 7b 3d 3d
       0.04312881 -0.05603211 0.03672819 0.04626072
000210 d2 d0 99 3d ea 48 0e be 87 0d 5c 3c f9 63 58 3d
       0.075105324 -0.13895002 0.01343096 0.052829716
000220 16 67 0c be b5 74 c7 bc 5b 17 01 3d ca 1b 0f 3c
       -0.13711199 -0.024347642 0.031516414 0.008734653
000230 e4 c7 21 be fc 89 a3 bc 13 1f 35 3e c1 c6 d7 3d
       -0.15798908 -0.019963257 0.17687635 0.10535956
000240 bc f5 12 3e 36 57 ff 3d 8b e5 35 bc 90 2a 01 3e
       0.14351553 0.12467806 -0.011102091 0.12613893
000250 cc 4d b9 3d 26 93 09 3d b0 41 03 be 9d 68 05 be
       0.09048042 0.033587597 -0.12818027 -0.13028188
000260 23 56 21 bd 58 f8 90 bc 34 be d6 bb 59 de 0c 3d
       -0.039388787 -0.017696545 -0.0065534357 0.034391735
000270 1f a5 30 be 76 c8 22 be 43 e7 f1 3d 27 0b 77 3d
       -0.17250489 -0.15896782 0.11811688 0.06031337
000280 c6 91 90 bd ab a7 fd 3d 73 67 0d be c8 02 6e 3d
       -0.07059054 0.12385496 -0.13808994 0.05810812
000290 c5 ff f2 bd 9a 17 32 3d ba cc 8a bd 04 31 ac 3a
       -0.118651904 0.04347954 -0.0677733 0.0013137166
0002a0 c2 e3 0e 3d fd 08 c0 bd a4 ac 75 bd 25 a0 73 bd
       0.034885176 -0.093767144 -0.059979096 -0.059478898
0002b0 64 9a 59 bd 81 20 29 bd e3 ee 2d 3d c7 f0 dd 3d
       -0.053125754 -0.041290764 0.04246415 0.1083694
0002c0 4e 46 b5 bd a0 fd f9 bd 5d 94 e0 bc f9 e1 0d 3d
       -0.088513 -0.12206578 -0.027414495 0.034639332
0002d0 eb bf 0e bc b5 64 b2 3d 38 e6 85 bd 2c c1 0d be
       -0.008712749 0.087106146 -0.06538051 -0.1384322
0002e0 f2 de 93 bd 1b a5 27 bd 34 ae f5 3c 25 06 b4 3c
       -0.07220258 -0.04092894 0.029990293 0.021975586
0002f0 25 aa c7 bd 70 df d6 bd f2 30 3a 3d a7 d3 e6 bb
       -0.09749249 -0.10491836 0.045456834 -0.007044274
000300 4a d6 91 3b 69 b4 82 3d dd 40 eb 3c c2 48 27 3c
       0.004450594 0.06382067 0.028717453 0.010210218
000310 24 d8 41 3d 39 91 db 3c 34 75 69 3d ad f4 31 bd
       0.04732527 0.026802646 0.05699654 -0.04344623
000320 d7 03 7e bb a4 a2 4a bc d1 9c dd 3c 33 ca 55 bc
       -0.0038759613 -0.012367878 0.027052315 -0.013048696
000330 85 4c 34 be 1d 5a e2 3c 79 74 15 3e a1 6a 0c 3e
       -0.17607315 0.02763086 0.14595212 0.1371255
000340 d2 c9 14 bc d3 c6 70 bc 43 de 0c be 0e 65 0d 3e
       -0.009081321 -0.014695841 -0.13756661 0.1380808
000350 e8 59 f7 bd 18 93 1a bd 66 6e ac bd f7 c0 0d be
       -0.12077695 -0.037737936 -0.08419494 -0.13843141
000360 d3 21 c1 bc 92 16 3a bd fa bd 62 3d a7 b0 38 3e
       -0.023575699 -0.04543168 0.055356957 0.18036138
000370 58 0b 24 be 67 56 f4 bc b8 10 03 3e 37 29 99 3d
       -0.16019952 -0.029826356 0.12799346 0.07478564
000380 df ad d1 bc 88 d5 29 3e 36 fa 12 be 57 1b 76 bc
       -0.025595604 0.16585362 -0.1435326 -0.015021167
000390 89 a7 3d 3d 3f b5 a4 bb 47 85 5b 3d 46 0b e7 3d
       0.046302352 -0.005026489 0.0535939 0.11281447
0003a0 b5 dc ea 3d 7c 53 21 3d 07 1e 09 be 48 4d ba bb
       0.11467878 0.039386258 -0.13390361 -0.005685482
0003b0 c9 08 06 3d 2f f9 cc 3c ad 63 2e 3d c3 a7 29 3e
       0.032723222 0.025021164 0.042575527 0.16567902
0003c0 98 04 eb bd 8a 07 cd bd a1 e6 1c 3d 90 83 9c bd
       -0.114754856 -0.100112036 0.038305882 -0.07642281
0003d0 93 25 0d 3d 2b ce 81 bd 74 60 3f 3c 69 6e cd bd
       0.03445966 -0.063381515 0.011680711 -0.10030825
0003e0 15 6d 43 ba 8c d3 60 3d 51 13 7c 3b d6 8e 0c be
       -0.0007454914 0.054889247 0.0038463662 -0.13726363
0003f0 7b 99 06 3e 68 88 2e bc db 68 80 3d 7f d8 22 be
       0.13144486 -0.010652639 0.062699996 -0.15902899

features_extractor.policy_net.2.bias f4 [64]
000000 82 54 75 bd 3f ee c4 bd f6 b3 a6 bd 73 7e 5c 3d
       -0.059895046 -0.09615754 -0.081397936 0.05383153
000010 a0 70 ed bc 9f d6 ad 3d b6 59 85 3a 3c e5 38 3d
       -0.028984368 0.08488201 0.0010173831 0.04514049
000020 fe e3 73 3d cb 3b 27 bd 8f f9 78 3a a0 db 55 3c
       0.059543602 -0.040828507 0.00094976363 0.013052851
000030 77 4d 4a bd 9d a9 e1 3c 80 ce 3f bd ba 5d 85 3d
       -0.049390282 0.027546698 -0.046827793 0.065120175
000040 6f 0a 72 bd 37 c9 b0 3d 36 18 ae bc 06 40 28 3d
       -0.05909198 0.08632129 -0.021251779 0.041076683
000050 ef 71 bc 3d b8 bc 97 bd d0 68 fa 3b 7d c1 64 bd
       0.092014186 -0.07409042 0.007641889 -0.055848587
000060 90 47 67 3d a3 8f e6 bd a7 41 88 bc 18 67 26 3b
       0.05646473 -0.11257865 -0.016632868 0.0025391039
000070 72 70 76 3c 46 97 f8 bd 9b d7 b3 3a a8 53 3f bd
       0.0150414575 -0.12138228 0.0013720872 -0.04671064
000080 3d c2 11 bd 4a ca dd bd 0c 94 d1 bc 8e 51 cd bd
       -0.03558563 -0.10829599 -0.02558329 -0.10025321
000090 53 62 df bd 6d 4a 5d 3d 08 e0 f4 3d 3e 9f ac bd
       -0.10907426 0.054026056 0.11956793 -0.084288105
0000a0 c0 ff ec bd 08 a6 9b 3c 48 8d ba bd 7f 64 ac bd
       -0.11572218 0.019000068 -0.091089785 -0.084176056
0000b0 2e 9b 83 bd 1a da ed bc 3c 1c 44 bb 09 c0 dc 3d
       -0.064260826 -0.029034663 -0.0029924056 0.10778815
0000c0 e4 c5 02 be 4a 6d a8 bd df d8 b8 3c ff 03 fa 3c
       -0.12770802 -0.0822397 0.02256435 0.030519484
0000d0 38 b7 d7 bd ec 87 db bd 2c 4f c8 bd 4f 11 83 bc
       -0.10532993 -0.107192844 -0.09780726 -0.015999464
0000e0 55 a7 6e 3d 43 c6 61 bd 1f f1 b1 3c 00 d0 35 3d
       0.05826505 -0.055120718 0.02172142 0.044387817
0000f0 2a 36 a3 3c 5e 94 83 3d 44 89 ea 3d c1 2a 02 bd
       0.019923288 0.06424783 0.114519626 -0.031779055

features_extractor.value_net.0.weight f4 [64, 1024]
000000 0b 7d c8 bc 85 51 99 bd a6 ca 80 bd 2f de b8 bd
       -0.024473688 -0.07486252 -0.06288652 -0.09026753
000010 52 f0 9e 3d 56 cb a5 bb b6 51 20 bd fc 91 78 bd
       0.07760681 -0.00505964 -0.039140426 -0.060686097
000020 33 5a 63 3d 0e e7 db bc 99 c9 d2 bc 8f da b1 3c
       0.055505943 -0.026843574 -0.025730895 0.021710662
000030 96 e1 55 bc 18 91 17 bd 9c 8c 7a bd 64 73 08 be
       -0.013054272 -0.037003607 -0.06116925 -0.13325268
000040 40 af 13 3c e2 61 fa bc da c5 02 3d 1b cc 1a bd
       0.009013951 -0.030564252 0.031926967 -0.037792306
000050 62 fc 2d bc 13 7d 4e 3d 13 43 46 bd 88 40 30 be
       -0.010619255 0.05041225 -0.04840381 -0.17212117
000060 9b c7 7e bc 09 80 1a bd be c5 d7 bd 7e 72 80 bb
       -0.015550519 -0.03771976 -0.10535763 -0.0039198985
000070 11 50 0c 3d 18 3d 88 3b 55 e0 6f 3d da ab 2f 3c
       0.034256045 0.0041576736 0.05856355 0.010722125
000080 7d 12 1f bd 10 f8 8e bd 68 f5 50 bd dc ff 93 3c
       -0.03883599 -0.06980908 -0.051015288 0.01806634
000090 a4 8a a7 3b f6 b5 11 3d 09 99 0a 3d 05 1a ad bd
       0.005112963 0.035573922 0.033837352 -0.084522285
0000a0 9b 54 b7 3c 7e 33 ef 3c 27 a8 95 bd e8 90 c8 bd
       0.02237921 0.029199358 -0.07307463 -0.09793264
0000b0 49 1a 9e 3c f1 37 e4 3c 06 c2 f5 3c 02 99 44 bd
       0.019299643 0.027858706 0.029999744 -0.047997482
0000c0 02 b0 fa bc 5c 9c 5c bd b9 a8 2a bd 17 14 32 3c
       -0.030601505 -0.053860053 -0.041664813 0.010869048
0000d0 cf 50 a6 bc a7 0c 8c 3d 4c f9 26 3d 94 a1 45 bd
       -0.020302204 0.06838351 0.04076509 -0.048249796
0000e0 6f a9 72 bd 54 c3 f9 bb 9c ff 3c bd c3 3d c4 bc
       -0.059243616 -0.007622162 -0.046142206 -0.023955232
0000f0 2e 7b b6 bc 0b c9 82 3d 91 62 6a 3d b2 b1 ab 3d
       -0.022275534 0.06386002 0.057222907 0.08383502
000100 43 13 0d 3d 6f 7f da bc 5a 2d 48 bc 2b 1e 54 3c
       0.034442198 -0.026672093 -0.012217844 0.012946646
000110 4b 99 98 bb 3d 58 bb bc 9b 6d 97 bd 91 51 da bd
       -0.004656946 -0.022869224 -0.073939525 -0.10660089
000120 94 5b 80 3c d3 67 72 3d 6c 1f e1 3c 9d 6f 17 bc
       0.015668668 0.059181046 0.027480803 -0.009242919
000130 52 63 cd ba c4 ee 9e 3c d1 db f0 bd 67 38 ac bd
       -0.0015669859 0.019400962 -0.11760677 -0.084091954
000140 04 c4 13 3c 99 f2 97 3b 49 e5 ba bd 7a 31 28 3d
       0.009018902 0.004637074 -0.09125764 0.04106281
000150 9a 14 64 3c 36 52 70 ba 23 e2 f3 bb 63 22 7f bd
       0.013920927 -0.0009167524 -0.007442729 -0.062288653
000160 03 00 88 bd 8b cc d6 bc 1c 8a 9a bd 50 8d bf 3b
       -0.06640627 -0.02622058 -0.075458735 0.005845703
000170 64 41 6f 3c 84 4f d7 3c 37 f4 5e 3d d0 c5 7f bd
       0.014602993 0.026283033 0.05443212 -0.062444508
000180 f3 3e 62 bd bd e1 7e bd 98 e0 31 bd 88 dd b4 bd
       -0.055235814 -0.062227 -0.04342708 -0.08831316
000190 43 2e 70 3d 66 2c fd 3c 52 ab d8 3c 8a b4 c3 bd
       0.05863787 0.03090496 0.02644888 -0.095559195
0001a0 11 92 41 bd 71 f2 82 bd 75 ea 88 bd 1b 6e 44 bd
       -0.04725844 -0.06393898 -0.06685344 -0.047956567
0001b0 42 ae 28 3b f8 2e 47 3d 38 99 76 bd ec e8 ad bd
       0.0025738631 0.048628777 -0.060204715 -0.08491692
0001c0 56 2b f3 bc 13 7e 4e bd fd 5a 32 be 48 ca 06 bd
       -0.02968375 -0.050413202 -0.17417522 -0.032907754
0001d0 41 9e 30 3d 79 34 5c 3d 9c 2a 9f bb 9f cc 01 bd
       0.043119673 0.05376098 -0.0048573744 -0.031689283
0001e0 d6 20 b9 bb 01 3c ee bc 7e 6a 48 be 37 51 d4 bc
       -0.0056496663 -0.029081346 -0.19571874 -0.025917633
0001f0 a8 66 2e 3d 47 ad 91 3d de 08 57 3d ed bf c0 3d
       0.04257837 0.07113128 0.05249869 0.09411607
000200 41 8c 81 3d 12 c6 73 3d ac 1c c9 bb 15 b3 81 3d
       0.063255794 0.059515066 -0.006137451 0.06332985
000210 20 f7 1f 3c 35 ce 42 3d b2 b9 49 3c ef 9c a0 bc
       0.009763509 0.047559936 0.01231234 -0.019606082
000220 61 bb cd bc 34 73 f9 bc 92 c3 ce 3b 92 66 11 3c
       -0.025113763 -0.030450441 0.006309935 0.008874552
000230 d3 10 51 bc 02 76 33 bd 54 a1 e0 bd d0 86 07 be
       -0.012760359 -0.043813713 -0.10968271 -0.1323502
000240 aa 2d a0 39 24 9c a9 bc d7 c9 e8 bc 9f 83 c4 3c
       0.000305516 -0.020704336 -0.028416557 0.023988543
000250 ae 53 54 3d bb 88 6c 3b ca 68 cb 3b 77 d3 d6 bd
       0.051837616 0.003609224 0.00620756 -0.104895525
000260 19 c9 d5 bc e3 e9 dc bc e0 6b cc bc 66 ff 55 ba
       -0.026096867 -0.026966995 -0.024953783 -0.00081633625
000270 f1 26 75 3d 56 71 81 3d 28 5c 5d 3d 0f de 15 3d
       0.05985159 0.06320445 0.054042965 0.036588725
000280 b1 ef 5b 3d 03 e7 c7 3c d9 bb 68 bd 1b 68 0e bd
       0.053695384 0.024402147 -0.05681977 -0.03476725
000290 0c b3 b1 3d 48 92 67 3d 53 37 8b 3c a6 b1 8c bd
       0.086767286 0.05653599 0.016994154 -0.06869821
0002a0 fa 93 e8 3b a6 46 b2 3c 70 c8 8b bc dd 00 69 bc
       0.0070977183 0.021762203 -0.01706335 -0.014221397
0002b0 a7 a8 4a 3d 23 65 96 3d 9e 78 25 3c 2f a2 1f bd
       0.049477246 0.07343509 0.010099558 -0.03897303
0002c0 0b c8 71 bd 15 3a 44 bd 1f 32 8f bd c1 e3 ba bc
       -0.059028666 -0.047906954 -0.06991982 -0.02281368
0002d0 d6 14 29 3b 9c e2 3f 3c c0 77 66 3d 83 97 c1 3b
       0.0025799773 0.011711743 0.056266546 0.005907954
0002e0 49 70 6e 3d 0e 52 a7 bc da d0 13 bd e5 56 15 bd
       0.058212552 -0.020424869 -0.03608785 -0.036459822
0002f0 9d 92 04 3d 05 83 1c 3d 17 aa f2 3b 1d f0 6c 3d
       0.032366384 0.038210887 0.00740553 0.057846177
000300 21 47 c5 3c 8d d7 b8 3d 32 e8 b7 3c cc c2 4a bd
       0.024081768 0.09025488 0.022449587 -0.04950218
000310 ca 71 d3 ba 63 24 65 bc 8b 37 c3 3c d5 65 ef bd
       -0.0016131934 -0.013985726 0.023830196 -0.11689345
000320 74 bc 0d bd db dd 4c bc 98 1d 05 3d 3e 82 ad 3b
       -0.03460355 -0.012504066 0.032498926 0.005295067
000330 7f 44 1c 3d 75 9e 96 3c b0 45 ee bb 39 27 02 be
       0.03815126 0.018386105 -0.007271491 -0.12710275
000340 f5 16 08 bd ab 89 3f bd ce 56 50 bd e0 30 d0 3c
       -0.03322502 -0.04676215 -0.050864033 0.02541393
000350 ad 64 94 bc ea 67 06 3d 46 33 87 3b a1 ee d8 bd
       -0.018114412 0.032813944 0.0041259853 -0.1059239
000360 13 fc 42 bc 37 e3 5d 3c fc 47 b4 bd 62 8f 09 3c
       -0.0119009195 0.013542942 -0.088027924 0.0083960015
000370 9b 4b 30 bb e2 fd 9e 3d 51 76 74 3c e7 a6 2f bd
       -0.0026900533 0.07763268 0.014920787 -0.04288378
000380 19 bb a1 bc 53 5f 45 3a bc 9a 11 bd c6 7c b2 bd
       -0.019742535 0.0007529158 -0.035547957 -0.08715205
000390 ff 4c 1e bd 08 37 ad 3d fd 9f 36 3d ee 7f 02 bd
       -0.038647648 0.08457762 0.04458617 -0.031860285
0003a0 96 73 30 3d 44 34 45 3c 21 1b b6 bc f4 4b ce bc
       0.04307898 0.012036387 -0.022229733 -0.025182702
0003b0 1c 8b 24 bd 7d 18 9b 3d 9a 98 b7 bb 4a b5 e4 bb
       -0.040171728 0.0757303 -0.0056029083 -0.006979619
0003c0 c0 90 17 3d 18 0a f9 bc da 86 e4 bd c1 6b 7f bd
       0.03700328 -0.03040032 -0.111585334 -0.06235862
0003d0 19 ee 02 bd 6f 07 1b 3d 96 99 4f 3d 1a fd 13 3d
       -0.03196535 0.037848886 0.05068358 0.03613005
0003e0 58 09 5a bd 2c 0c 9f bc 4c bc 46 bd aa 39 68 bd
       -0.053231567 -0.019414984 -0.048519418 -0.056695618
0003f0 23 0e 99 bc b6 bf e2 3b ae 55 02 bb bc 8e 89 3d
       -0.018683499 0.0069198264 -0.0019887495 0.067166775

features_extractor.value_net.0.bias f4 [64]
000000 6b 53 69 bc 65 8a b9 bd f8 c1 85 bd 09 dd 51 3c
       -0.01424108 -0.090596 -0.06531137 0.012809047
000010 d5 16 40 bd a6 54 03 3c 9a 64 41 bc 94 b7 fb bc
       -0.046896774 0.008015787 -0.01180377 -0.030727185
000020 29 54 7f bc 47 d5 03 bd d6 6f 75 bd fd 20 43 bc
       -0.01558403 -0.03218582 -0.05992111 -0.0119097205
000030 9c 52 18 bd ee a8 26 3d db e2 04 3d 20 75 d4 bc
       -0.037188157 0.040688448 0.03244291 -0.025934756
000040 40 3d 76 bd e6 4e fb bc 31 c9 bc bc 34 ae 0b bd
       -0.060117006 -0.03067727 -0.023045154 -0.03410168
000050 a4 27 b6 bb 0b 0c 6a 3b 32 10 af 3a da 1b fb 3a
       -0.0055589247 0.0035712745 0.0013356267 0.0019158081
000060 96 f1 05 3c d0 45 b2 bc 11 c3 a3 bd 76 2f 91 bd
       0.008175274 -0.021761805 -0.0799619 -0.070891306
000070 76 5d 69 bd 82 99 12 bc 9e d0 63 bd be 15 bc b9
       -0.056973897 -0.008947732 -0.055618875 -0.00035874353
000080 62 ac a9 3c b9 cf 49 bd 5b 7c 24 3c 04 44 10 bd
       0.020712081 -0.049270365 0.010039414 -0.035221115
000090 71 7e f8 bc 2d cb b2 3c 67 b9 68 bc 4a 88 55 3c
       -0.03033373 0.021825397 -0.01420436 0.013032982
0000a0 bb bf 2c bd 8e 43 0c bc 63 10 b5 bd f4 24 54 bc
       -0.042175036 -0.008561028 -0.08841016 -0.012948263
0000b0 96 d7 98 bd 99 d1 81 bd 7d 7f a4 bd 83 47 59 bc
       -0.07462995 -0.06338806 -0.08032129 -0.013261679
0000c0 fb 49 e2 bc e7 4b b0 bd 9d fc bc bc f4 90 83 bd
       -0.027623167 -0.08608227 -0.023069674 -0.06424132
0000d0 67 12 aa 3c 20 a1 ca bd e1 13 1e bd b7 46 5a 3b
       0.020760728 -0.098940134 -0.038593177 0.003330631
0000e0 80 58 33 bd f8 44 22 bd 95 27 31 bb da 4a 4b bd
       -0.043785572 -0.039616555 -0.002703165 -0.04963193
0000f0 c2 b8 0d bd 20 df 34 bc 7c ec c1 bc ce e2 21 3c
       -0.034600027 -0.011039525 -0.023672335 0.009880735

features_extractor.value_net.2.weight f4 [1, 64]
000000 b9 6e 88 3d b9 39 91 bc f2 1e 19 3d 5b fe 0f 3b
       0.06661744 -0.01772772 0.037383027 0.0021971676
000010 16 f9 4d bd 53 0b 29 3d eb 19 08 3e 3f 3f 72 bd
       -0.050286375 0.041270565 0.13291137 -0.059142347
000020 e4 a2 ea 3c ed 2c 84 bb 9d bd ee 3b 5b 4a 6b 3c
       0.028642125 -0.004033676 0.0072857873 0.014360989
000030 e6 dd b0 3d 33 59 7e 3d 0d 8f 99 bc 5d b2 15 3d
       0.08636074 0.062096786 -0.01874497 0.036547054
000040 19 de 1d ba db c5 8b 3a 1a 06 28 3d 3e 9f b8 bc
       -0.000602217 0.0010663824 0.041021444 -0.02253687
000050 54 02 23 3e c9 c5 f7 bc 06 ca ab 3c 04 60 3f 3d
       0.15918857 -0.030245678 0.020970356 0.046722427
000060 0b 52 c2 3d 69 a0 72 bb 02 c6 7d bd cc 41 7d bc
       0.09488305 -0.0037021881 -0.061956413 -0.015457582
000070 6c 5c 6c bd 5e 05 db 3d b5 9b b6 bc 86 9e ef 3c
       -0.057705328 0.10694383 -0.022291044 0.029250395
000080 46 13 58 bd 30 1b 8a 3b 00 06 8a 3d 4f e3 40 bd
       -0.052752756 0.004214667 0.06739426 -0.04709178
000090 b5 a4 3c bd f3 d7 d2 3d 80 d6 1a 3b 64 9a 18 3e
       -0.046055514 0.10295095 0.0023626387 0.14902645
0000a0 15 18 9a bd 12 01 9a 3d 63 31 cf 3b 32 50 e9 3d
       -0.075241245 0.075197354 0.006323026 0.11392249
0000b0 99 73 59 bc 3b ea c1 3d d6 bc d6 bc 7a 4e 0d 3e
       -0.01327219 0.09468504 -0.02621309 0.13799468
0000c0 21 79 48 3d 3b cc 34 bd db 4d 82 3d ff c6 c8 bc
       0.048943643 -0.04414008 0.06362506 -0.024508951
0000d0 7f e3 c2 3d 3b 40 e3 bd d0 e2 9f 3d 8b 17 ea 3d
       0.09516048 -0.11096235 0.07806933 0.11430272
0000e0 e5 af a5 bd 9e ec d2 bb 81 46 24 3e 71 49 24 3d
       -0.0809019 -0.0064368984 0.1604252 0.0401091
0000f0 36 96 6f 3c 9f b8 c9 3d 97 d1 31 3b 4c f6 5c 3d
       0.014623215 0.09849667 0.0027132982 0.053945825
