weights/cnn-nd-2-eps-900.pth (torch, 568288 bytes, 16 tensors)

log_std f4 [2]
000000 14 08 20 3e 5a e6 81 3e
       0.15628082 0.25371057

features_extractor.encoder.0.weight f4 [16, 1, 3, 3]
000000 ee 3a 9d 3e d2 2c ad 3e a6 a1 0b bb 88 b2 bb 3e
       0.30709022 0.33823258 -0.0021306067 0.36659646
000010 d2 ec e6 3b ed f5 04 3e 9f 8c db bd af 09 82 3e
       0.007047274 0.12984438 -0.10720181 0.25398013
000020 a3 c6 b3 3e e5 a1 5e be 4f a4 a5 3e be f3 d2 3d
       0.35112485 -0.21741445 0.3235192 0.103003964
000030 6d 3d 94 3e ca 1b cd 3d 20 61 45 3e 48 bf 04 bc
       0.28953114 0.10015066 0.19275331 -0.008102246
000040 08 3c 9e 3e 99 50 ca 3d 39 db 19 be c6 0b 38 3e
       0.30905175 0.09878654 -0.15025033 0.17973241
000050 54 fe c3 bd 49 bb ab bd bf bf 0d be 5e 4e 95 3e
       -0.095699936 -0.08385331 -0.13842677 0.29161352
000060 25 da 02 3b ee ba 38 be 3c 69 0e bd 40 fc 8b be
       0.001996645 -0.18040058 -0.034768328 -0.2734089
000070 2b a8 82 bc 52 85 cf be fb c9 8f 3e c4 95 96 be
       -0.01594933 -0.40531403 0.28083786 -0.29411137
000080 a7 d8 81 3e 6b be b6 3d ef 12 b2 bd ab 72 80 3e
       0.25360605 0.08923038 -0.086950175 0.25087485
000090 31 c8 96 3d ee f2 94 3e b0 ff 4e 3d 24 18 87 bd
       0.07362402 0.2909159 0.05053681 -0.06596401
0000a0 59 d2 11 3e a0 cf 7f bd a8 e4 4b 3e 61 04 bf 3e
       0.14240398 -0.062453866 0.19911444 0.37308028
0000b0 a9 cf 84 3e e5 ed 17 be 0d b0 39 3e c3 b1 2c bd
       0.25939682 -0.14836843 0.18133564 -0.042161714
0000c0 4b 82 41 3e 2b 30 3c be 06 ff b5 be 1d 9b 8d be
       0.18897359 -0.1837775 -0.3554613 -0.27657405
0000d0 51 7c 0f be e6 98 f6 3e 79 d3 24 3e 17 c3 58 3e
       -0.14012267 0.48163527 0.16096295 0.21168171
0000e0 28 4e 5c 3e 42 f7 94 3d 0f 54 c4 3e f9 c6 0c be
       0.21514189 0.07273723 0.38345382 -0.13747777
0000f0 50 a6 5d 3d 7f 43 14 be 23 cc 51 3e dc e7 34 be
       0.054113686 -0.14478873 0.20488028 -0.17666572
000100 6a e7 fe 3d cf 80 b3 3b 6f 96 cd 3e ee 02 81 be
       0.124464825 0.0054780017 0.40153834 -0.25197548
000110 a5 4b e8 bd 60 8d 99 be de e8 9d 3e 59 7d e0 3d
       -0.11342553 -0.29990673 0.30841726 0.10961408
000120 87 7f c1 3e 6d d9 8c be 61 4f 9e be 18 6e af be
       0.37792608 -0.27509633 -0.30919936 -0.34263682
000130 c7 56 3e be 2f 78 98 3e a7 1d 07 3e 99 4e cd 3e
       -0.1858779 0.29779193 0.13194905 0.40099028
000140 7f ad d5 bd 83 6f 81 be fd af 75 3e cf fe ad bd
       -0.104334824 -0.2528039 0.23992915 -0.084958665
000150 a0 bb 7d 3e 20 11 4d bb 82 9c 91 3e 8d d6 65 be
       0.24778605 -0.0031290725 0.28439718 -0.22445126
000160 69 30 95 bd 73 62 3b 3e 02 4e 09 3e 0f 3e b9 bd
       -0.07284624 0.18299274 0.13408664 -0.0904504
000170 f2 7d 0a 3e 57 f5 88 3e 7e 22 67 be ca b1 6e be
       0.13524607 0.2674968 -0.22571751 -0.23310009
000180 e7 77 c6 3e fb ed 94 bd db 33 3a be db 22 a5 be
       0.38763353 -0.07271954 -0.18183844 -0.32253155
000190 b0 78 43 be 5c 88 aa 3d f8 36 34 bd e3 c4 77 be
       -0.19089007 0.0832679 -0.043997735 -0.241962
0001a0 e0 1a 00 3c 93 28 69 be 04 cb 90 be a3 f5 3b be
       0.0078189075 -0.22769384 -0.2827989 -0.18355422
0001b0 2f fc ae be 34 18 3d be 6f e0 cc 3e 51 d7 17 3e
       -0.34176776 -0.18466264 0.4001498 0.1482823
0001c0 cc a0 ae 3d 98 13 9f be 09 ae 19 be cd a1 9b bd
       0.08526763 -0.31069636 -0.15007795 -0.075992204
0001d0 a1 19 1c 3e 5a 2c 96 be ca ed 85 3c ea fc 57 be
       0.15244152 -0.29330713 0.016348738 -0.21092573
0001e0 a1 b0 ad bd c0 05 fe bd 63 a7 8b bc 30 4c 67 be
       -0.08480955 -0.124034405 -0.01704759 -0.22587657
0001f0 20 4a 6a be 01 a1 24 be 7b 23 28 be 6a 26 92 be
       -0.22879839 -0.16077043 -0.16419785 -0.28544933
000200 0b e1 91 3e 20 40 a3 bd 8c f6 99 3e 8c 80 00 3e
       0.28492007 -0.07971215 0.30070913 0.12549037
000210 d3 fb a2 be c1 ab 79 3e a1 28 84 bd 29 4a 80 bd
       -0.31832752 0.24381925 -0.06453062 -0.06264145
000220 bf e6 9a be f3 34 0b be 4c b9 58 3b 08 34 03 bd
       -0.3025417 -0.13594417 0.003306943 -0.032032043
000230 bc c6 a9 3e 95 0b 82 be 12 c2 0f 3f 27 ba a9 bd
       0.33159435 -0.2539946 0.561555 -0.08287459

features_extractor.encoder.0.bias f4 [16]
000000 aa e2 b0 bc e0 f7 d7 3c 7a c2 63 3e 27 16 81 3e
       -0.021592457 0.026363313 0.22242156 0.25212213
000010 98 52 6a 3e da 3c 84 bd 2f 1b 44 3d f3 1e e0 bd
       0.2288307 -0.06456919 0.047877487 -0.10943403
000020 af 1a 39 3c 82 d3 1f be af 23 79 3e 93 85 7a be
       0.011297866 -0.15608028 0.24330018 -0.24465017
000030 c7 71 6b 3e d6 91 3d 3e 99 55 af 3d a6 c5 9c 3c
       0.22992621 0.18512663 0.08561248 0.019137215

features_extractor.encoder.2.weight f4 [16, 16, 3, 3]
000000 da 1d 31 3d 64 5a 57 3d ce cc 89 3d 16 19 1e be
       0.04324136 0.052576438 0.067285165 -0.15439257
000010 69 9a f0 bc 91 c6 ac bd 9d e6 6c 3c c6 b4 25 bd
       -0.029370504 -0.08436311 0.014459279 -0.040455602
000020 2d 5a b1 bc 51 dd b3 bd 4a b3 21 3c 40 ae 10 3d
       -0.021649444 -0.08782447 0.009869406 0.035322428
000030 35 51 dd bc 5c 6a b1 bd 26 e9 ab bd 87 c5 b5 3b
       -0.027016262 -0.086628646 -0.08394079 0.0055472287
000040 dd 1a 16 be d1 25 83 3b 5a d8 e0 3d 32 5a 2b bd
       -0.14658685 0.004002311 0.10978766 -0.041834064
000050 fb c9 81 3b 31 d7 25 3d ae c1 43 3d dd dd 90 bc
       0.0039608455 0.040488426 0.04779213 -0.017683918
000060 0d a7 3b 3d b2 07 9e 3d 79 e0 65 3d 75 28 78 3c
       0.04581361 0.077163115 0.056122277 0.015146364
000070 5d 82 a7 bd 1a a6 be bc fb 56 b9 3c 5d f2 75 3b
       -0.08179162 -0.023272563 0.022624483 0.0037528493
000080 ee 8c 6b 3d bb f2 02 3e c6 72 f2 3c e4 f4 b6 3b
       0.057507448 0.12787907 0.029595744 0.0055833925
000090 d4 c1 10 bd 4c 6d 57 3c e6 8d ab 3c bc 7f c5 bc
       -0.0353411 0.013148617 0.020941686 -0.02410876
0000a0 13 a8 02 be 35 0d 84 bd cb 3b c1 3d 65 8c 90 bc
       -0.12759428 -0.064478315 0.09435233 -0.01764507
0000b0 92 5e bd bc 26 6c c3 bc 5b ad 26 be 28 27 10 be
       -0.023116384 -0.02385528 -0.16277067 -0.14077437
0000c0 21 0a e9 bd 02 e7 1c 3e 8d 25 73 bc 36 c0 cc 3d
       -0.11378885 0.15322497 -0.014840496 0.09997599
0000d0 e6 b8 c2 bb a2 2d 96 bd dc c3 8c bb 94 77 17 3e
       -0.005942452 -0.073329225 -0.004295809 0.14791709
0000e0 f4 e2 c8 3d fa 4e f0 bd 97 cf 97 bb 6e a8 a7 bd
       0.09808913 -0.117338136 -0.004632901 -0.08186422
0000f0 ee c2 02 bd 17 1d 45 bd 6d bd ac bd 62 4c fd 3c
       -0.03192418 -0.048123445 -0.084345676 0.030920211
000100 1c ff fb 3d 2e 05 73 3e 9a 0d 4e 3e 7e 89 2c 3e
       0.123045176 0.23732445 0.20122376 0.16849324
000110 82 62 9b bd 95 f7 fb 3d bb 36 49 bc 33 21 00 3e
       -0.07587148 0.12303082 -0.012281115 0.12512664
000120 5f e0 bc 3d e0 82 d7 3d 91 86 c9 3d ce ca 86 3e
       0.09222483 0.10523009 0.0984012 0.26326603
000130 b6 14 1c 3e 8b b9 b9 3c 6a ba 5a 3c 92 8e 19 3d
       0.15242276 0.022671482 0.013350109 0.03748948
000140 1f 1f f8 3d 20 58 2d bb ce 21 60 3d ff 5b de 3d
       0.12115311 -0.0026450232 0.05471974 0.108573906
000150 69 51 4f be 7b 5e 0d bd 09 70 5f bc 1c fc c6 bc
       -0.202459 -0.03451393 -0.013637551 -0.024290137
000160 88 3d 33 be 85 03 1a 3d 75 b1 6e 3c 68 5c 6a bd
       -0.17503941 0.037601013 0.014568676 -0.05721703
000170 ba 22 d0 3c aa bf 35 3b 25 23 39 bd a1 62 d5 bd
       0.025407184 0.002773265 -0.045199532 -0.104192026
000180 27 57 e0 3d 87 bc 13 bd 44 52 63 3c 46 e4 1a 3d
       0.10954123 -0.036068466 0.013874594 0.037815355
000190 16 dc 73 3d 04 e9 82 bd 62 7c 75 3d ab 5d 21 bd
       0.059536062 -0.063921005 0.059933074 -0.03939597
0001a0 0c 51 fd 3c 8d 46 a0 3d 38 8e 40 bc 80 f0 28 ba
       0.030922435 0.078259565 -0.011752658 -0.00064445287
0001b0 13 ac af 3c d5 33 a1 bd 06 98 14 3d de 1f 21 bd
       0.021444356 -0.07871214 0.036277793 -0.03933703
0001c0 92 60 3c 3d 46 13 df 3d 4f c8 a4 3d d0 f4 23 3d
       0.045990534 0.10892348 0.08046018 0.040028393
0001d0 62 61 a1 bd 51 71 59 bc 19 7f 8b bc 18 e1 1d be
       -0.078799024 -0.013271646 -0.017028378 -0.15417898
0001e0 2c 93 2b bb 4f 60 1a bd aa ef d0 3c d8 a9 47 bd
       -0.002618025 -0.037689503 0.025504906 -0.04874596
0001f0 63 cd a4 bc 57 3b 8a 3b d8 0d 5e bd 63 bd 35 3e
       -0.020117467 0.0042184996 -0.05421242 0.17748027
000200 8a 46 09 3e e9 5e 2c bd c0 37 84 bd 37 bd 06 bd
       0.13405815 -0.0420827 -0.06455946 -0.032895293
000210 ca 93 36 be 78 a4 09 be bc 39 00 3d 33 74 9a bd
       -0.17829815 -0.13441646 0.03130506 -0.075416945
000220 9b 34 a5 bd 21 9c 3e 3d 19 fa 9d bc cc a3 9e bd
       -0.08066674 0.046535615 -0.019284295 -0.077460855
000230 b8 a8 21 bc fe 3a bc bd 10 4a 66 3b c5 98 09 bc
       -0.009866886 -0.09190939 0.003513936 -0.0083982395
000240 50 ff 47 be ec b8 80 bd 47 b1 10 3d b4 6c c8 3c
       -0.19530988 -0.06285271 0.035325315 0.024465896
000250 74 a0 1a be a7 5a 45 be 9f a3 20 3e 54 77 80 3d
       -0.1510027 -0.19272862 0.15687416 0.0627276
000260 ce ce 83 be 30 29 b5 bd 9d 1b 09 bc 91 21 b6 3d
       -0.25743717 -0.088457465 -0.0083684 0.08893121
000270 af aa a0 3d df 3b b4 3b 21 d1 3a be 06 a5 bd 3d
       0.07845055 0.0055003013 -0.18243839 0.09259991
000280 c8 79 6c bd 1e f6 33 be 03 98 da 3d da 05 fb 3d
       -0.057733327 -0.17574355 0.10673525 0.122569755
000290 93 91 4c bd b9 e7 0a be 10 8d f6 bc e4 7f 49 bd
       -0.049943518 -0.13564958 -0.03009656 -0.04919423
0002a0 94 6e ac bd e2 e6 02 bc d3 e8 bf 3d 55 75 ca 3b
       -0.084195286 -0.007989617 0.093705796 0.006178538
0002b0 3d 02 c8 bd b2 f9 b0 bd 70 3a f5 3d e8 74 c5 bc
       -0.09766052 -0.086413756 0.11974037 -0.024103597
0002c0 45 6d f7 3a 67 98 38 3d 37 47 b9 bc cb 64 76 bc
       0.0018877169 0.045067217 -0.022616966 -0.015038679
0002d0 25 06 9d bd cb 72 7d bd f2 f6 40 bd e9 e5 70 bd
       -0.076671876 -0.061877053 -0.047110505 -0.05881301
0002e0 01 3a c9 bd a7 88 85 bd 45 f2 08 3e a1 04 14 bd
       -0.098255165 -0.06520205 0.13373668 -0.036137227
0002f0 77 13 c9 bd fc 93 32 bd 36 ed b9 bd 78 51 e3 bd
       -0.09818166 -0.04359816 -0.090784475 -0.11099523
000300 86 62 72 3e 85 92 06 3e f9 67 a8 bd 4c 8b 0d 3e
       0.23670396 0.1314183 -0.08222956 0.13822669
000310 52 a7 81 bd 2a 9d 4c be 59 40 25 be e8 0a ad 3d
       -0.06330742 -0.19981828 -0.16137828 0.08449346
000320 77 a7 fc 3c a7 ac a5 bd ff b9 30 be 52 af 94 bd
       0.030841572 -0.080895714 -0.17258452 -0.07260002
000330 a5 6c d9 3d 51 7d e5 3c f3 d8 0a be 6b c7 93 3e
       0.106164254 0.028013857 -0.13559322 0.2886308
000340 a5 17 fa bd b6 d6 2d 3d 21 be d0 3e d2 09 ac 3e
       -0.12211541 0.042441092 0.40770057 0.33601242
000350 cb 3b 94 bd dc 81 a8 3e f9 24 79 3e 36 18 b8 bd
       -0.07237967 0.32911575 0.2433051 -0.08988993
000360 3d 07 17 3d 2f 85 28 be f1 77 1c 3e 8e 35 db 3d
       0.036872137 -0.16457056 0.15280129 0.10703574
000370 a3 eb 4c 3d b9 a5 0e be f0 5d 00 3e ca 5d f9 3d
       0.05002941 -0.13930406 0.12535834 0.12176092
000380 0b 50 01 3e 0e 8e 78 be a7 55 ef bd ab 40 ea 3c
       0.1262819 -0.2427294 -0.11686259 0.02859529
000390 d9 d4 00 3e 78 e8 40 be a4 f5 b1 bd 64 70 6f 3c
       0.12581195 -0.1883868 -0.0868943 0.014614198
0003a0 b3 d8 0d 3d 53 89 ea 3c 8f e0 40 3d ff 66 e6 bd
       0.03463049 0.028629934 0.047089156 -0.11250114
0003b0 56 fe 82 bd 40 e3 2e 3d 62 6b f1 3c 3e 2f 45 bd
       -0.06396167 0.04269719 0.02947015 -0.048140757
0003c0 85 1f 03 ba 80 23 be 3d cd 65 47 3d 00 68 76 3b
       -0.000500195 0.09284115 0.04868107 0.003759861
0003d0 30 01 a8 bc d2 8d 9a bd 7a 78 a0 bd 98 29 23 bd
       -0.020508379 -0.07546581 -0.07835479 -0.03983459
0003e0 ce 81 2d bd f0 af d4 3c 4c bb c6 bc 83 89 05 bd
       -0.04236012 0.0259628 -0.024259232 -0.032601845
0003f0 9e de 19 3e 3f 9f d8 3d 42 e1 71 3d 34 9a a6 bd
       0.15026328 0.10577249 0.059052713 -0.08134881

features_extractor.encoder.2.bias f4 [16]
000000 64 db 6b 3c 87 10 c6 bc 4b c3 6d 3d af 9d 66 bd
       0.0143955685 -0.024177803 0.058047574 -0.056302723
000010 36 2a 46 3d 4b 45 b3 bd 2d d0 49 bd 59 c9 21 bd
       0.0483801 -0.08753451 -0.049270798 -0.03949866
000020 e1 da ba bc 19 05 2f 3c 89 fa 0a bd 00 14 8f bd
       -0.022809448 0.010682368 -0.033930335 -0.069862366
000030 98 01 30 3d 6d 84 9f 3d cc b6 b0 3b 2e 54 a1 bd
       0.04297027 0.0778893 0.005392885 -0.07877384

features_extractor.encoder.4.weight f4 [16, 16, 3, 3]
000000 9b 3d 6c bc 46 eb a3 bb ba ac 3e bc e5 e5 7c bd
       -0.014418985 -0.005002412 -0.011637861 -0.061742682
000010 a2 98 6f bd 3b fe 6b bd 9c a0 13 bc 38 cc e3 3d
       -0.05849517 -0.0576155 -0.00901046 0.11122936
000020 ac 71 e0 3d 56 5b f3 3a 70 54 80 bd 7f 55 bf 3d
       0.10959181 0.0018566649 -0.06266105 0.09342479
000030 37 3c bd 3d 3a a6 57 bd db 82 96 3c 4e f4 aa bb
       0.09240001 -0.05264876 0.018372944 -0.0052171117
000040 1f 4e 7d 3d 16 c6 b0 bc a9 11 82 3b 69 a3 5d 3d
       0.06184208 -0.02157883 0.0039693904 0.05411092
000050 c7 53 25 3c 97 50 2c be 22 d3 06 3c a1 12 19 be
       0.010090775 -0.16827618 0.008229049 -0.14948513
000060 e5 34 14 be d7 a1 0e bd 56 85 f9 bb fd 1f 71 bb
       -0.14473303 -0.03482231 -0.007614772 -0.0036792748
000070 0d 46 6d ba e7 b0 bb bc 25 ac 4a bd 14 d0 b5 3d
       -0.0009051271 -0.022911502 -0.049480576 0.088775784
000080 8b 92 01 bd d2 a9 22 3d 93 48 69 3d b8 60 60 bd
       -0.031633895 0.039712735 0.056953978 -0.05477974
000090 8e 0c 59 bd 92 88 33 3d 40 d2 0b 3e 66 9d 66 bd
       -0.05299049 0.043831415 0.13654423 -0.05630245
0000a0 46 cb ed 3c d6 2f 98 bd 0b fa 17 be 6e b9 b7 bd
       0.029027592 -0.07430999 -0.14841478 -0.08970915
0000b0 65 fb 1b be ab 98 a2 3d 70 16 61 3c 5f a0 82 3c
       -0.15232618 0.07939275 0.01373826 0.015945612
0000c0 ae b3 98 3d 04 27 bf 3d 82 a5 4a 3d 66 3b ec bd
       0.07456146 0.093336135 0.049474247 -0.11534767
0000d0 fe 46 11 be f3 d0 3f be 72 90 c4 3d ee 5d 2c 3d
       -0.14187238 -0.18732052 0.09597863 0.042081766
0000e0 90 25 19 3d 09 b2 0d 3d de 32 3a bb 37 fa 1a be
       0.037389338 0.034593616 -0.0028411667 -0.15134512
0000f0 e0 58 14 3c 73 f6 c4 bc 60 48 38 bd f9 bb 80 bb
       0.009054393 -0.024043297 -0.044990897 -0.003928658
000100 37 ca 63 3d d9 be 00 be 28 8b 0f be 8d a0 80 bc
       0.05561277 -0.12572803 -0.14017928 -0.015701557
000110 0a 85 2c be 7d 91 88 3b 4e 6b 6b 3d 43 e4 2d bd
       -0.16847625 0.004167734 0.05747538 -0.042454015
000120 a8 c2 23 3d bb ea f8 3c 28 e2 fe bd 26 ea d0 bd
       0.03998056 0.030385366 -0.1244548 -0.1020091
000130 6f 37 86 3d 03 35 b4 bc 10 ff 01 3d 41 b5 0a bc
       0.06553542 -0.021997934 0.031737387 -0.008466066
000140 62 77 12 be 1f 5c 68 3d 2b 9c dc 3d a8 ac cc 3c
       -0.14303353 0.05672848 0.10771974 0.024984673
000150 48 3a cd bd 70 c8 8b 3d 60 e8 57 bd 6e 88 d2 bb
       -0.10020882 0.0682534 -0.052711844 -0.006424955
000160 4d 77 ab bd 4c c3 b3 bd f6 7c 80 bd e4 c8 06 3e
       -0.08372364 -0.08777484 -0.062738344 0.13162571
000170 ca 93 16 be 5b c5 09 3d 50 dc 3e 3e 77 a9 a9 bd
       -0.14704815 0.03363548 0.1863873 -0.08284276
000180 2e 1b a9 bd 4c ff c9 bd 63 e0 f9 bd ed c7 ac bb
       -0.08257137 -0.09863147 -0.122010015 -0.0052728564
000190 4d f5 d0 3b 21 38 6f 3d d6 c7 85 3d 55 11 7a bd
       0.0063768984 0.058403138 0.06532256 -0.061051685
0001a0 76 98 1f 3b d2 27 82 bd d6 85 c0 bd d9 8f f1 bd
       0.0024352348 -0.06355251 -0.09400527 -0.11795015
0001b0 c5 44 85 3d 5b 11 73 bd 97 93 15 3c 47 50 b1 3b
       0.06507257 -0.059342723 0.009129426 0.005411181
0001c0 b6 db 55 3d ac 95 ad 3d 43 83 cc 3b 5f f4 3f bd
       0.052211486 0.08475813 0.0062412336 -0.04686391
0001d0 e9 da 36 bd 5e 9a 89 bc fe a4 81 3c 2b 34 e3 bc
       -0.044642363 -0.01679724 0.015825745 -0.027734837
0001e0 07 78 14 be a7 09 22 be 92 56 ad bd e1 57 11 3c
       -0.14498912 -0.15823995 -0.084637776 0.00887105
0001f0 ab fa 95 bd 05 be 1b 3d c9 21 8d bd 18 81 43 bd
       -0.07323202 0.038023014 -0.0689121 -0.047730535
000200 ba d3 5d 3d 49 39 a1 bd 65 c6 40 3d 5f 0c f7 ba
       0.054156996 -0.078722544 0.047064204 -0.0018848291
000210 3b 57 8c bc 88 6d 2b be 1f 89 2a be e3 40 d0 bc
       -0.017131438 -0.16741002 -0.1665387 -0.025421565
000220 fc b8 a0 3d 4e a7 df 3d 8b cd b1 bc 9a 34 bc bd
       0.07847783 0.10920583 -0.021704456 -0.091897205
000230 5f fa 69 3c a8 f3 a7 bd f0 33 1d be 30 aa cb bd
       0.0142808845 -0.082007706 -0.15351844 -0.0994457
000240 03 a7 5b be 93 93 bf 3d 8d c5 fc bd d2 67 c1 ba
       -0.21450429 0.093543194 -0.12342367 -0.0014755672
000250 2e 64 88 3d 74 c2 45 3c e3 60 d6 bc 09 65 e3 bc
       0.06659733 0.012070287 -0.026169246 -0.027758138
000260 ab 02 22 3d 48 1e 64 bd c5 0d b5 bd 61 19 3d 3d
       0.039553326 -0.05569294 -0.08840517 0.04616678
000270 69 f7 89 bd c3 f7 dd 3b b6 93 cc bd 1d ff dd 3d
       -0.06736643 0.0067739203 -0.09989111 0.108396746
000280 52 e6 5b bd 17 26 1f bb 1e 9f 09 3e 02 66 68 3d
       -0.053686447 -0.0024284178 0.13439605 0.056737907
000290 85 47 94 3d 35 4f 05 3b b1 86 cf bd db 82 82 3d
       0.07240204 0.00203414 -0.10133112 0.06372615
0002a0 5b 76 57 3c c8 24 e5 bd e3 a7 5b 3d 50 8e c1 3b
       0.013150777 -0.11188656 0.053626906 0.0059068576
0002b0 d0 d2 a6 3c b6 2d 54 bd c6 2e 66 bd e7 08 9d bd
       0.020364195 -0.051801406 -0.05619695 -0.076677136
0002c0 cc 63 b0 3c 03 3d 5c bd 80 19 d0 3b 1c af 98 bc
       0.021531962 -0.053769123 0.006350696 -0.018638186
0002d0 c8 ae 3b be 39 ab a0 bd 3b 23 47 bc c5 e5 73 be
       -0.18328393 -0.07845158 -0.012154396 -0.23818119
0002e0 f3 70 cb bd b3 4b 0b be 3f 4b 0e be 87 a9 82 bd
       -0.09933653 -0.13603096 -0.13895892 -0.06379991
0002f0 67 34 5e bd 09 05 b8 bd d2 a7 22 3d 71 ce 16 3e
       -0.054249194 -0.089853354 0.039710827 0.14727189
000300 9d 26 73 be 96 25 bf bd e4 78 c6 bd cb 05 1c be
       -0.23745199 -0.09333341 -0.09691027 -0.15236585
000310 26 b9 96 bd bc c7 f2 bd c3 ab f0 3c 2c a0 41 bd
       -0.07359533 -0.118545026 0.029378777 -0.047271892
000320 09 d1 f5 3d b3 aa 92 bd e4 e2 51 3c 32 27 e8 bb
       0.12002761 -0.071614645 0.012810443 -0.0070847506
000330 51 a8 08 be 4a bb e7 3a d2 7c 1c be 4b a7 43 bd
       -0.13345458 0.0017679718 -0.1528199 -0.047766965
000340 80 a7 f8 bc 20 38 bb bc 29 be a3 3d 9a ea 9e 3c
       -0.030353308 -0.02285391 0.079952545 0.019398976
000350 1a ab 77 3d be ed 98 bd 03 a9 80 3d 77 db 3e 3c
       0.06046591 -0.07467221 0.062822364 0.011649004
000360 6c 42 c6 3d 80 a9 5b 3d ac 50 4f 3c 5f 59 bb bc
       0.09680638 0.053628445 0.012653511 -0.022869764
000370 91 4c 13 3d de 0b 07 3d 4e d6 c3 bd ff 15 47 bd
       0.03596169 0.0329703 -0.0956236 -0.04860496
000380 09 ec 40 bc 97 16 4c bc 64 74 4d 3c 57 39 29 bd
       -0.011775025 -0.012456558 0.012539957 -0.04131445
000390 90 ba 37 bd e5 40 11 be d3 e4 a8 3a 4e 7a 55 be
       -0.044855654 -0.14184912 0.0012885578 -0.20847437
0003a0 12 56 ad bd 86 9d a4 3d 63 6b 3d 3e 6b f2 be 3d
       -0.08463682 0.08037858 0.18497996 0.09323581
0003b0 82 14 ee 3d 5d 10 be 3d 1d bf 05 bd b6 45 1a 3e
       0.11625005 0.09280465 -0.032652963 0.15065655
0003c0 d5 df 87 bd 95 34 be bc 0b ab f7 3d e3 03 0f be
       -0.066344894 -0.023218432 0.12093171 -0.13966326
0003d0 09 39 16 3b 43 9a 1d 3d b0 ca 5b be 37 29 02 be
       0.002292218 0.038477194 -0.21464038 -0.12711035
0003e0 23 a7 72 3c ce a7 a8 bd c0 23 be bd 12 f6 54 bd
       0.014810356 -0.08235131 -0.092841625 -0.051992483
0003f0 36 7b 54 bd 8a 0c 52 3d 3b 64 bc 3d ae b3 81 be
       -0.051875316 0.05128149 0.09198805 -0.25332397

features_extractor.encoder.4.bias f4 [16]
000000 02 8f b0 bd cb ca 55 bd b7 7f 98 3a ee f4 56 bd
       -0.086210266 -0.05219535 0.0011634742 -0.052479677
000010 cb a0 1e 3c 6c d8 a5 bd b3 a1 ae bc c0 53 36 bd
       0.009681891 -0.0809792 -0.021317339 -0.044513464
000020 3d 53 83 b9 fe 26 05 3d 0b 08 3a bd 6a 4a 26 bd
       -0.00025048284 0.03250789 -0.045417827 -0.04059831
000030 96 54 93 bd a3 f4 b0 bd f2 19 d5 bd 35 2c 52 bd
       -0.07193868 -0.08640411 -0.10405339 -0.05131169

features_extractor.policy_net.0.weight f4 [64, 1024]
000000 27 ed 23 bc 58 f2 cf 39 4f 3b 42 3c b5 08 5f 3c
       -0.010005272 0.00039662677 0.011854961 0.013612916
000010 33 3f 7c 3d a3 07 1c 3d 34 68 fc 3c ca c6 83 3c
       0.06158371 0.03809322 0.030811407 0.016086001
000020 15 4a 53 bd e1 a2 0c bd 22 80 4c bd fe 40 82 3d
       -0.051584322 -0.03433502 -0.049926884 0.063600525
000030 39 26 9e bd 60 04 ec bc 79 d2 e7 3c a9 54 7e 3a
       -0.07722134 -0.02881068 0.028298603 0.00097019464
000040 ec 00 b5 bd 46 fa 14 bd 53 4f 32 3d b2 3a e5 bb
       -0.088380665 -0.03637149 0.04353268 -0.0069955224
000050 61 99 f6 bc 17 fc 09 3d cc 5b b4 bc 96 43 c8 bc
       -0.030102434 0.033687677 -0.022016428 -0.02444629
000060 8b 00 1f 3e a0 35 3e bd dd 61 db bd a8 bf 7f bd
       0.15527551 -0.04643786 -0.10712025 -0.062438637
000070 ab 9b 27 bd 33 d0 52 bd 76 6f f7 3c b3 a7 09 3e
       -0.04091994 -0.051468085 0.030204516 0.13442878
000080 38 9b 61 bd 5f 04 54 3d 60 5a 4e bc 29 e2 26 bc
       -0.05507967 0.05176198 -0.012594789 -0.010185757
000090 85 5c 4f 3d eb 9c 0b 3c 5a 42 52 bc a1 11 83 bd
       0.050625343 0.008521299 -0.012833202 -0.06399847
0000a0 df c6 d1 3b b8 0b 09 3d 01 10 50 3d 91 c4 76 bd
       0.006401881 0.03345844 0.050796513 -0.060246054
0000b0 9a 00 57 3d 9b aa 09 3e 45 f5 d9 bd be f3 0c bd
       0.052490808 0.13443987 -0.106424846 -0.03441214
0000c0 58 47 c7 bd 81 e2 c1 bd 2f 95 c5 3d ea 7d 3a bd
       -0.097304046 -0.0946703 0.09647595 -0.045530237
0000d0 84 84 35 3d 0c 36 ed bb 35 ed 38 3c f1 b3 c8 3d
       0.04431583 -0.007239109 0.011287023 0.09799946
0000e0 37 38 2b bd e0 42 7e 3d 19 7c 07 3e 06 9b 03 bd
       -0.041801658 0.062075496 0.13230933 -0.032130264
0000f0 82 f9 b7 bd 21 57 4d bd b2 95 55 3c 72 65 1c bd
       -0.08983137 -0.05013192 0.013036178 -0.038182683
000100 b4 90 ab 3d 89 c2 10 3c 86 b5 e7 ba 71 f0 63 bc
       0.08377209 0.008835443 -0.0017678 -0.013912306
000110 ed 14 bc bd 7b a8 b8 bd cd 3d 98 3d 61 6f 73 3b
       -0.09183679 -0.0901651 0.074336626 0.0037145244
000120 1c a3 71 bd 87 88 20 3d e4 81 bb bd 65 75 9a 3b
       -0.058993444 0.039192703 -0.09155634 0.0047137015
000130 22 9b 93 bc f0 c9 fb 3d 8a b6 1c 3d 15 bc 02 be
       -0.018018309 0.12294376 0.03826002 -0.1276706
000140 12 f1 5d bb 65 50 14 bd eb b2 ab 3d b7 35 61 3b
       -0.0033865613 -0.036209483 0.08383735 0.0034364292
000150 64 64 98 3c 49 8d 08 3d b7 96 aa bc d7 9e bd bd
       0.018602557 0.033337865 -0.02082382 -0.09258812
000160 77 bc 17 3e 4f b8 14 bd 4d 21 d8 bd 44 20 dd bd
       0.14817987 -0.036308583 -0.105532266 -0.1079717
000170 63 f7 d5 bd 98 c1 2c bd 33 1c a1 3d 31 2b b6 bb
       -0.10447576 -0.042176813 0.07866707 -0.005559348
000180 41 57 a2 3d a0 5e e8 bc 80 69 0a 3d fd 9f 0c be
       0.079267986 -0.028365433 0.03379202 -0.13732906
000190 7a 48 bc 3d 1a 3c f6 bc 36 78 b3 3b 89 59 51 3d
       0.09193511 -0.030057956 0.0054769767 0.051110778
0001a0 e3 27 46 3d f9 3c 01 3d 11 aa d3 bd 66 00 44 bd
       0.048377883 0.03155229 -0.10335172 -0.047851942
0001b0 9d 4c 9a 3d e1 c7 51 be ca b8 43 bd e7 4f da 3d
       0.07534144 -0.20486404 -0.04778365 0.106597714
0001c0 9b 5b 55 3d 85 7b 6a 3d 1c 33 06 bd 13 5c b1 3b
       0.052089315 0.057246704 -0.032763585 0.0054125874
0001d0 7c 74 19 3c 55 f5 03 bd 7c 0e 9d bd be 2c 80 3d
       0.009366151 -0.03221639 -0.07668778 0.06258534
0001e0 1c 89 2e bd 74 a2 aa 3b 18 37 91 bd 86 18 3c 3c
       -0.042611226 0.005207354 -0.070905864 0.011480456
0001f0 48 97 a7 bd 2a 88 d4 bc 10 0b 80 3c 70 86 65 3d
       -0.081831515 -0.025943834 0.015630275 0.056036413
000200 71 30 c7 3b 33 15 6d bd a0 04 19 3d f9 ab ea bd
       0.0060787727 -0.057881545 0.037357926 -0.114585824
000210 b6 1c 04 3d 82 41 6b 3b 37 02 7d 3d 82 7f 1b 3d
       0.032253943 0.00358972 0.06176969 0.037963398
000220 8f aa 2b 3d 88 50 83 3d 70 9a be 3c 26 47 2d bc
       0.041910704 0.064118445 0.023267 -0.010576045
000230 ab 37 72 3d 64 ef 14 bd 91 34 23 3e 5c b7 68 3d
       0.05913512 -0.036361113 0.15938021 0.05681549
000240 74 57 8d 3d ab be c7 3d be 7b 09 bc b9 01 05 bb
       0.06901446 0.09753164 -0.008391319 -0.0020295216
000250 5b 28 ed 3c bc 89 52 bd 73 71 70 bb 84 be e2 3d
       0.028949907 -0.051400885 -0.0036688715 0.11071494
000260 5d d7 2f 3e fa 64 6f 3d 72 11 8b 3c 31 15 1f bd
       0.17171998 0.058445908 0.016976092 -0.03883857
000270 d4 14 8d bc ab 0e 47 3e 3d f7 12 bd 12 4b f7 3c
       -0.017221846 0.19439189 -0.035880316 0.030187164
000280 21 16 98 3d e2 ab 04 be 2b f3 13 3e 48 ef a4 3d
       0.07426096 -0.12956193 0.1444823 0.08053452
000290 68 64 ff bc c9 3b 78 bc e1 e2 c0 bd db ad a7 ba
       -0.031175807 -0.015150973 -0.09418274 -0.0012792902
0002a0 40 23 26 3d 87 ee ba bc 78 00 66 3d 2a a8 58 3d
       0.04056096 -0.022818817 0.05615279 0.05289475
0002b0 0e f8 d8 3d be 72 8e bc 86 0e 4c bd d1 7d 98 bd
       0.10594188 -0.017388698 -0.049818538 -0.074458726
0002c0 4e 76 a5 3d 07 c5 20 3d 3c a3 71 bd 47 ed 11 3d
       0.080792055 0.0392504 -0.058993563 0.035626676
0002d0 61 65 95 bd e1 43 2d bd 74 43 e3 bd 2d ed 91 bd
       -0.07294727 -0.042301062 -0.1109685 -0.07125316
0002e0 49 68 9b 3d 0e 89 00 3e 6f 4f 0e 3e 08 10 eb bd
       0.0758825 0.12552282 0.13897489 -0.11477667
0002f0 9c ef 95 bd 73 68 f8 3c 3b f3 a5 bd e1 83 8c bd
       -0.073210925 0.030323243 -0.08103033 -0.068610914
000300 b8 94 34 3d d2 df c8 bd c6 9b 01 bd 43 8a b3 3c
       0.04408714 -0.09808315 -0.031642698 0.021916514
000310 69 92 a6 3d da 03 a9 3d a8 cd 0c 3d 31 83 c0 3d
       0.08133394 0.08252688 0.034375817 0.09400023
000320 7b d1 a6 bc 7a 9c 1f 3d 18 c6 b3 3d 0a 09 9a 3c
       -0.02036356 0.038967587 0.08778018 0.018803138
000330 e9 30 bc 3d 24 54 7f bd 3f e1 70 bd 7c cd 32 bd
       0.09189016 -0.062336102 -0.05880856 -0.043652996
000340 fa dd 74 3d 43 84 62 bd 45 3a 2d bd 32 9a 89 bd
       0.059782006 -0.055301916 -0.0422919 -0.067188635
000350 a3 51 2b 3d 0f b9 9f bd 78 15 90 bd 2d e2 b8 3d
       0.0418259 -0.07798969 -0.07035345 0.090275146
000360 fa 9f 4a 3d c5 e0 56 3d 02 a0 c2 3c b5 b2 09 bd
       0.04946897 0.05246045 0.023757938 -0.033617694
000370 7c c2 bf bb 70 02 4b 3d 42 b1 ec 3c 4c 8f 9c bd
       -0.0058520418 0.04956287 0.028893117 -0.07644519
000380 98 6a 4b 3d d4 8f e0 bc 87 4d dc bd 9d 6c 06 3d
       0.049662203 -0.027412333 -0.10756975 0.032818425
000390 0c 3a 00 3e 19 26 7d bd 0b da 3b bd a9 9a 61 bd
       0.12522143 -0.06180391 -0.04586224 -0.055079136
0003a0 78 e0 5c ba 8b 90 86 3d 64 d3 a3 3d 6c 93 4d bd
       -0.00084257824 0.06570538 0.07999304 -0.05018942
0003b0 d9 38 0e 3d 1c 05 52 bc 74 96 22 be 66 21 ff 3b
       0.034722183 -0.012818601 -0.15877706 0.007785964
0003c0 16 65 bc bd f6 4e bc 3b c7 27 a3 bd 89 7c c2 3d
       -0.09198968 0.0057467176 -0.07966571 0.094964094
0003d0 1f 73 85 3d 12 ad 23 bc fe b5 34 3d da dd ea ba
       0.06516098 -0.009989994 0.044118874 -0.00179189
0003e0 2f 82 ec 3c 8b dd e6 bc 83 f1 c8 3d aa 0a 3f ba
       0.02887067 -0.028181812 0.0981169 -0.0007287661
0003f0 d0 6c 66 3d ec 00 bd bd 1b 22 29 3d cd 44 d6 bd
       0.056256115 -0.092286915 0.04129229 -0.104623415

features_extractor.policy_net.0.bias f4 [64]
000000 be 22 1d 3d 3b b3 f8 bc d6 3c 42 bc b7 7e 1b bd
       0.03836321 -0.030358901 -0.011855325 -0.03796264
000010 c0 ea 21 bd 1a 02 0a bd 2c 78 99 bb 85 99 3a 3d
       -0.039530516 -0.03369341 -0.004683515 0.045556564
000020 43 14 a1 bd 52 e6 35 3d 55 a8 22 3d 09 11 a2 ba
       -0.07865193 0.044409104 0.039711315 -0.0012364696
000030 e8 58 52 bc 75 e4 2f 3c 64 eb 9a bc f5 8f 98 3b
       -0.01283858 0.010735621 -0.018911071 0.004655833
000040 01 f0 f3 3c 22 d8 65 3a 57 6b 0b bd ee 42 96 3c
       0.029777529 0.0008767863 -0.034037914 0.018342461
000050 1f 2a 99 3c ab a7 0b bc 8a fe 5a 3b 3d 16 56 bd
       0.018696843 -0.008523862 0.0033415877 -0.0522673
000060 4e 56 b3 bc 93 fe f0 bb 70 6e 4c bc 42 55 37 bc
       -0.02189174 -0.0073545664 -0.012477502 -0.011189761
000070 54 a2 c0 3c c6 08 68 3c e2 69 74 3b 7c 08 c8 bc
       0.023514904 0.014162248 0.0037294556 -0.024418108
000080 a9 bf 13 bd fd 79 9a 3d 18 22 1b bb 60 3f 64 3d
       -0.036071453 0.07542799 -0.0023671445 0.0557245
000090 97 d9 70 bc 59 c1 83 3b ec c4 8f 3c 42 d2 c5 bc
       -0.014700315 0.0040208516 0.017549954 -0.02414811
0000a0 28 aa 24 3d d4 0e f8 b7 6f bc a3 3c a0 82 04 bd
       0.040201336 -2.9570809e-05 0.019987313 -0.032351136
0000b0 3c 32 16 3d ef 09 7c bc 9f fd 32 bb 1c e4 f8 3b
       0.036669 -0.015383228 -0.0027311814 0.007595552
0000c0 61 ec a0 3c 67 36 96 bc ed 6e 9e bc 19 3e 82 3d
       0.019643964 -0.018336488 -0.019340003 0.063595004
0000d0 db 87 6d 3c 90 3b 4b 3c 53 13 6d bb c0 5b ec bc
       0.0144977225 0.0124043375 -0.0036174848 -0.028852344
0000e0 e7 5f de 3c cf 6f 21 3d bf e3 a2 3a 5f 49 8f b8
       0.02714534 0.03941327 0.0012427493 -6.832438e-05
0000f0 fd a3 02 3b 26 3d d8 3c 8e 0a 1f 3c 32 18 c9 bc
       0.001993417 0.026396345 0.009707106 -0.02454767

features_extractor.policy_net.2.weight f4 [64, 64]
000000 0b 8a b7 3c ff 00 4e 3d 88 3a a7 3d 4c b9 a0 bd
       0.022404691 0.05029392 0.08165461 -0.078478426
000010 a1 0b 5f 3e 4a 37 cf bd a1 ad 2b bd 25 2f c1 3d
       0.2178178 -0.101179674 -0.041913632 0.0943282
000020 f3 71 0b be 97 9d 14 3d 6e d3 cb 3d ba bb fd 3d
       -0.13617687 0.036283102 0.099524364 0.123893216
000030 5e d9 bb bd c8 77 d3 bc 19 e0 c1 bd 0c 1e 8c 3d
       -0.09172319 -0.025813952 -0.09466571 0.068416685
000040 e9 76 86 bd 36 14 02 3e 09 b5 9e 3c 3d 3a 40 3e
       -0.06565649 0.12703022 0.019373434 0.18772216
000050 e5 90 12 3c b1 14 7a 3d 1e ff f7 bd 8f 52 ae bd
       0.008945678 0.06105489 -0.121092066 -0.085118406
000060 6b e5 2e bd ea ff 29 be 0c 14 b2 3c 8d a3 79 3d
       -0.04269926 -0.1660153 0.021738075 0.06094699
000070 57 43 89 3d aa 3a 17 be c3 eb fe 3d 65 ac 29 bd
       0.06702297 -0.14768472 0.12447312 -0.041424174
000080 e6 5c 10 bd b2 63 66 bd 12 3e f4 bb 34 93 8f bd
       -0.035244845 -0.05624742 -0.0074536884 -0.07010499
000090 5a ea 98 be 83 3a 2e be 04 f8 86 3d 70 b9 11 3e
       -0.29866296 -0.17014508 0.06590274 0.14230895
0000a0 62 ec e5 3d 7f 12 21 3e fa 79 4a bd 1e 6e 9f bd
       0.11226727 0.15729712 -0.049432732 -0.07784675
0000b0 b0 bf b1 3d d2 7e 3f 3d c6 2c 22 3d da d2 a1 3d
       0.086791396 0.046751805 0.03959348 0.07901545
0000c0 ef e8 a8 3d ee 54 2f 3d 84 ac a7 3d ee d7 2a bd
       0.082475536 0.042805605 0.081872016 -0.041709833
0000d0 01 34 3e 3e 75 8a 12 3e 68 92 a5 bd 8d 55 75 bd
       0.18574525 0.1431063 -0.080845654 -0.05989604
0000e0 68 22 f4 bd e5 ff 2b 3d 9a 02 e8 bd 03 c8 8c 3d
       -0.11920625 0.041992087 -0.11328621 0.06874087
0000f0 62 6e aa 3d 17 e2 41 bc 28 3e 3b 3e 3d 4e 47 bd
       0.08321835 -0.011833689 0.1828543 -0.0486586
000100 bf e5 a7 3d 8c c3 b0 bc e9 37 f5 3d 67 3e 6c 3d
       0.081981175 -0.021577619 0.11973555 0.0576767
000110 53 32 07 3e 36 44 4a 3c a6 e4 10 3e cf 26 a0 3d
       0.13202791 0.012345364 0.14149722 0.07819902
000120 51 f4 2c 3d 43 fc 0a 3d 1a 2c a3 bd bf 04 30 3d
       0.042225186 0.03393198 -0.07967396 0.042973276
000130 48 12 12 bd 74 be 84 3b 26 14 89 be 4b 33 73 bc
       -0.035661966 0.004051024 -0.26773185 -0.014843772
000140 85 02 a9 bd 75 68 13 3e 41 79 2a be f9 31 41 bd
       -0.08252434 0.14395316 -0.16647817 -0.0471668
000150 90 0f 15 be 1b 64 77 bd f4 85 74 bd f7 a2 8b bd
       -0.14556718 -0.060398202 -0.05969806 -0.068181925
000160 24 dd f1 3d 12 1b 67 b9 7c d3 01 3d 32 4a 3a 3e
       0.11809757 -0.00022039961 0.031695828 0.18192366
000170 fd c0 8e 3d 79 a8 ba bd 02 78 10 3e 42 38 2a bd
       0.06970403 -0.09114165 0.1410828 -0.041557558
000180 24 1c 03 be 28 12 f7 bd 89 95 8c 3d 35 ad f1 3c
       -0.12803704 -0.1206401 0.06864459 0.029501537
000190 d4 2c a3 be cd 44 fe bd be 82 1e be 8e bd a2 3d
       -0.3187014 -0.124154665 -0.15479562 0.07946311
0001a0 5f 9c 2d 3c 2a a8 41 3d 5d 30 24 bd 24 21 b7 bd
       0.010596364 0.047279514 -0.040085185 -0.08941868
0001b0 4e 62 14 3d b8 a4 1d 3e 89 bd 15 3c 49 61 3a 3e
       0.036226563 0.15394866 0.009139427 0.18201174
0001c0 98 7a 86 bd e3 6b b8 3d 51 4a 59 3e c6 68 c9 bd
       -0.06566352 0.09004953 0.21219756 -0.09834437
0001d0 de ab 4a bb cf a5 0f 3e fa 35 57 bd 13 ef 3f 3d
       -0.0030925195 0.14028095 -0.05254171 0.04685886
0001e0 6f c3 3c be cf ff 26 3d be b2 47 3d b7 39 83 3c
       -0.18433927 0.0407713 0.048754446 0.016018732
0001f0 df 33 37 3e f0 58 61 be e2 6b 0e 3e b9 59 da bb
       0.17890881 -0.22006583 0.13908342 -0.006663528
000200 30 d3 94 3d d2 56 87 3c e2 b9 8e 3d 2b 58 a5 3c
       0.07266843 0.016520891 0.06969048 0.020183643
000210 16 84 d2 3d e8 ca 8a be c6 3a db bd 77 6c 22 3e
       0.102791 -0.2710793 -0.107045695 0.15861689
000220 f3 8f 27 be 5e cf 53 bc 60 f4 c6 3c 06 6d cb bb
       -0.16363506 -0.012927858 0.024286449 -0.006208065
000230 74 25 51 be 1e 75 d6 3c a3 1a 35 3c d2 52 ba 3d
       -0.20424443 0.026178893 0.011053714 0.09097828
000240 4b 42 08 3e 6a 73 3d 3e 32 c9 26 bd 52 55 02 3e
       0.13306539 0.18501058 -0.04071922 0.1272786
000250 94 02 05 3e b9 7f 39 bd 12 01 22 be 67 a1 13 be
       0.12989265 -0.04528782 -0.15820721 -0.14417039
000260 d3 e4 90 3c 5d 7c f2 bc ad d2 08 3d 72 55 9a 3c
       0.017687237 -0.029600317 0.03340404 0.018839572
000270 1f b4 0d be 03 fe 6e be d3 51 d3 3d bf ed f8 bb
       -0.13838242 -0.23339085 0.10318341 -0.007596701
000280 e2 3d 9f bd 76 91 67 3d 2e 38 83 bd 30 25 4e 3d
       -0.07775475 0.056535207 -0.064072 0.050328434
000290 af 78 64 be 49 51 fc 3b d0 e1 8d bd 73 8a 34 3d
       -0.22311662 0.0077001196 -0.06927836 0.044077348
0002a0 0b 90 b4 3d a6 92 2b 3d 5f 74 9c bd c7 24 88 bd
       0.088165365 0.0418879 -0.076393835 -0.0664764
0002b0 9a 68 2c bd 6c a0 1f bd 32 ad af bd f1 12 18 3e
       -0.042091943 -0.03897135 -0.08577956 0.14850976
0002c0 ce d3 24 bd c2 aa 90 3d 36 be a3 3d 5a a2 29 3d
       -0.040241055 0.070638195 0.07995264 0.041414596
0002d0 54 e6 99 3c d4 e1 b6 3d f3 3e a4 bd f6 50 f6 bd
       0.018786587 0.08929792 -0.08019819 -0.12027161
0002e0 f3 92 80 bc be 2c 52 bc de 5b ec bc 20 b9 01 3e
       -0.01569507 -0.01282805 -0.0288524 0.12668276
0002f0 aa 40 66 bd 88 3b 0b be 4e 1b 0e 3e ae 58 ff 3d
       -0.056214012 -0.13596928 0.13877603 0.12468086
000300 83 04 d7 3c b6 16 0b 3e e3 d6 b1 3d 53 44 6f 3b
       0.026247269 0.13582882 0.086835645 0.003650923
000310 40 52 a7 3d a0 a3 4e bd f8 f7 a3 bc 2b 57 b1 3d
       0.08169985 -0.050449014 -0.020015702 0.08659204
000320 a3 d7 74 b9 29 cb 93 39 e2 f7 3f 3c ab c7 8b 3a
       -0.00023349984 0.0002818939 0.011716815 0.0010664364
000330 c2 13 35 be e9 e7 ff 3c 13 b9 79 bd b3 65 ae 3d
       -0.17683318 0.031238513 -0.060967516 0.08515491
000340 3c 6a ad bc 9d 8f 38 3d 4c 64 2c be e0 ed 0d 3e
       -0.02116882 0.045058835 -0.16835135 0.13860273
000350 26 30 10 be b0 21 08 be 85 e5 cb bd 49 5d 37 be
       -0.14080867 -0.13294101 -0.09955887 -0.17906679
000360 41 09 af 3d 9b 44 9e bd d0 35 cc 3d 04 4f 60 3e
       0.08546687 -0.07727929 0.099712014 0.21905142
000370 7d 02 1b be b8 f4 29 be 15 92 0b 3e e6 d9 89 bb
       -0.15137668 -0.16597259 0.13629945 -0.0042068837
000380 ad f5 c4 bc a3 0c c7 3d 72 48 9f bd fb fb cd bb
       -0.024042929 0.09719207 -0.0777749 -0.006286142
000390 bc 03 e0 bd 3c 4a 8b bd 72 57 67 bb 0b 64 12 3e
       -0.10938212 -0.068012685 -0.0035299924 0.14295976
0003a0 31 06 24 3e 1f bd 2b 3e 1e 5a f8 bd 2f e5 eb bc
       0.16017987 0.16771363 -0.121265635 -0.028795807
0003b0 9b 05 85 3d 01 21 58 3d f5 6b 46 bd b4 22 51 3e
       0.0649521 0.05276585 -0.0484428 0.20423394
0003c0 0d 65 a9 bd 4d 0f 1a 3d c4 0e 09 3e 93 d4 3c bd
       -0.08271227 0.03761225 0.13384539 -0.046101164
0003d0 e4 48 c2 3d 8d 7f 20 bd f2 69 ec bc 9b 8d be bd
       0.09486559 -0.039184142 -0.028859112 -0.09304353
0003e0 b8 b0 7a 3c d5 bd 19 3e f6 bc 2a bd f3 5c 9d bd
       0.015300922 0.15013821 -0.041684113 -0.07683744
0003f0 7f 8c 2e 3e e0 ef 7a bd 58 5d 58 3e bd 8f 69 bd
       0.17045783 -0.06126392 0.21129358 -0.057021845

features_extractor.policy_net.2.bias f4 [64]
000000 00 1f 7c bd 9d b8 c4 bd 56 fa ad bd 73 13 5d 3d
       -0.061553 -0.09605525 -0.084950134 0.053973626
000010 65 98 91 bc 23 51 99 3d 53 dd 2e 3c 83 c2 37 3d
       -0.017772863 0.07486179 0.010672885 0.044863235
000020 87 18 7b 3d 9f ea 36 bd b8 47 22 bb 66 27 8c 3b
       0.061302688 -0.044657346 -0.0024761986 0.0042771576
000030 70 f2 3c bd cb ab 09 3d 57 68 4c bd 8a 63 98 3d
       -0.046129644 0.0336111 -0.049904194 0.074408606
000040 4b 4a 8f bd f9 71 99 3d d7 ab fb bc 28 10 d8 3c
       -0.06996592 0.07492442 -0.030721588 0.026374891
000050 20 e4 b7 3d 69 09 82 bd f8 78 38 bb 4e 92 54 bd
       0.08979058 -0.06349451 -0.0028148275 -0.05189734
000060 53 d7 66 3d 44 74 e8 bd 0d 72 04 bc 44 20 4b 3c
       0.056357693 -0.11350301 -0.008083832 0.012397829
000070 f1 3e a6 3c bb 4b fd bd bd 87 08 3c cb ac 36 bd
       0.020293685 -0.1236796 0.008333144 -0.044598382
000080 b4 9f 39 bd 95 32 f3 bd 88 a6 0e bd 99 0a b2 bd
       -0.04531832 -0.11874882 -0.034826785 -0.086934276
000090 25 44 e3 bd 6f d1 84 3d 11 ab 03 3e f9 f0 97 bd
       -0.11096982 0.06485259 0.12858225 -0.07419009
0000a0 38 e0 ff bd 95 c8 9b 3c 78 50 ca bd 7c c5 a8 bd
       -0.12493938 0.019016543 -0.098786294 -0.08240792
0000b0 59 0d 6a bd 86 d3 cb bc fc 85 46 bc 92 31 db 3d
       -0.057141636 -0.024881136 -0.012116905 0.10702814
0000c0 71 00 0c be 93 1a 9f bd dc d3 9f 3c e0 6b d9 3c
       -0.13672043 -0.077687405 0.019510202 0.026540697
0000d0 d6 5b c1 bd 56 9a d8 bd 5a 61 c4 bd b9 bf ac bc
       -0.094413444 -0.10576312 -0.09588881 -0.021087514
0000e0 3d 0e 6c 3d 57 3c 81 bd 27 99 9f 3c b2 20 70 3d
       0.057630766 -0.06310337 0.019482208 0.05862493
0000f0 76 21 ca 3c 72 61 85 3d 35 79 f6 3d da b8 e5 bc
       0.024674159 0.06512727 0.12034837 -0.028042246

features_extractor.value_net.0.weight f4 [64, 1024]
000000 74 0e 2e 3d ef 17 71 3d ad 88 81 3d 72 b7 d9 3c
       0.042494252 0.058860715 0.06324897 0.026576731
000010 12 1e bc bd 88 33 c4 bc 6e ba a0 bd a6 78 af bc
       -0.09185423 -0.023950353 -0.07848059 -0.021419834
000020 10 0d 01 3d 39 b3 02 bd 49 07 a2 3d c8 c5 1e 3c
       0.031506598 -0.0319092 0.07911546 0.009690709
000030 2c fc 85 bd 93 41 90 bd b4 f0 7a bd 60 26 9b bd
       -0.065422386 -0.07043757 -0.06126471 -0.07575679
000040 86 4c fe 3b f6 6f 10 bd 8d 3b cd 3d c2 0d e8 bb
       0.007760587 -0.035263024 0.10021124 -0.007081718
000050 62 9f 8b 3b 0c 6b 22 bc d4 d3 39 bc 34 29 d7 bd
       0.0042609433 -0.009913217 -0.011342008 -0.10505906
000060 8b 2d 60 3d 7b c3 a8 3d f8 90 a2 3c 63 2c 0c 3d
       0.054730933 0.0824041 0.019844517 0.034222018
000070 10 f1 7c 3c 2b d3 7e bb f5 14 3d 3d c2 65 4b bd
       0.015438333 -0.003888319 0.046162564 -0.04965759
000080 ac d0 0d bc 4e bd 1c 3d 3c 95 7d 3d c1 0e 1c 3d
       -0.008655708 0.038266473 0.0619099 0.038100008
000090 24 7b 18 3d e5 ea 2d bd b3 a3 45 bc a3 53 aa bd
       0.03722681 -0.04246034 -0.012062955 -0.08316734
0000a0 65 f5 61 3c 6f e8 db 3b be bf 12 3d ec c4 7f bd
       0.013791417 0.006711058 0.03582739 -0.06244366
0000b0 a9 d7 83 3d a6 eb 06 bd 28 08 09 bc 3b 25 a1 bd
       0.06437618 -0.032939576 -0.008363761 -0.07868429
0000c0 4a 84 bb 3b cc f4 01 bd bb df c8 bc d5 36 09 bd
       0.005722557 -0.031727597 -0.024520746 -0.033499558
0000d0 e8 d9 ff bc 13 06 26 bd b5 25 97 bd c2 33 d9 bd
       -0.031231835 -0.040533137 -0.07380239 -0.10605575
0000e0 7d 63 ce bb f8 61 b3 bd 7b 7a f2 3c ee 66 1c bd
       -0.006298481 -0.087589204 0.029599419 -0.0381841
0000f0 23 86 0f bd 28 6d ed 3c 2f f3 66 3c 65 e9 33 3c
       -0.035040032 0.028982714 0.014096065 0.010980939
000100 32 e9 1d 3e 01 6f e5 bc c8 78 08 bd 22 76 fd bc
       0.15420988 -0.028007032 -0.03331831 -0.03094012
000110 3c e8 4f bb 0b 24 92 bd 0a b3 8d bd e7 05 86 3c
       -0.0031724116 -0.07135781 -0.069189146 0.016360236
000120 83 e5 6f 3d f2 c1 cc 3c eb b3 59 3c 78 2f e3 bc
       0.05856849 0.024994824 0.013287525 -0.027732596
000130 12 e6 9e bd eb bb aa bd 84 bc 10 be 6f 97 d6 bc
       -0.07758726 -0.08336624 -0.14134413 -0.026195256
000140 ec 78 8a 3d 14 6c 81 3c af 62 60 3d 7d b5 fb 3c
       0.06761345 0.015798606 0.054781612 0.030726189
000150 db 5a 0f bd 56 d4 bd 3b 1f 8a 26 bd 2a bd 12 3c
       -0.034998756 0.0057931347 -0.040659066 0.008956233
000160 c7 b1 2e 3d 29 87 ff 3c 97 a0 1c bd 4b 6d 7b bd
       0.04265001 0.03119238 -0.038239088 -0.061383527
000170 ae c0 91 3d 83 46 f2 3c 4b 36 a5 bd 7b e0 2f bd
       0.07116829 0.029574638 -0.08066996 -0.04293869
000180 b7 de d5 bc f1 ec a6 3a 62 db 0e 3d 06 b9 aa 3c
       -0.026107175 0.0012735409 0.03487719 0.02084018
000190 3d 99 66 3d d7 fa 73 bd 3a 77 5d 3c d9 6f 9f bc
       0.056298483 -0.05956539 0.013517195 -0.019462513
0001a0 db 74 1a 3d 01 92 de 3c d9 e7 97 3d a2 77 51 bd
       0.0377091 0.02716923 0.07417268 -0.05113948
0001b0 26 f6 ff 3c 2e be 94 3d 29 89 b5 bc 0d 4a 13 3d
       0.031245302 0.072628364 -0.02216013 0.035959292
0001c0 b5 08 89 3d c6 3a c8 3d 0a ab 34 bc 49 da 46 3d
       0.06691114 0.09776835 -0.011027107 0.048548017
0001d0 65 69 85 3c 69 7d 9b 3d 0c 81 73 3b 51 1b cb bc
       0.016285608 0.075922795 0.0037155775 -0.024793299
0001e0 74 8b 09 3b 87 1b 9e bd af 19 59 3b 5d fe 09 bd
       0.0020987662 -0.07720094 0.003312688 -0.033689845
0001f0 66 c8 ca bb c0 01 ac 3a 0c 36 82 3d 4f 54 01 3d
       -0.00618844 0.001312308 0.06357965 0.031574544
000200 68 f8 38 3b cc 84 cc bd f8 96 5e 3d 97 e6 a2 3d
       0.0028224234 -0.099862665 0.054343194 0.07954138
000210 22 b6 8e bd 52 c7 9c ba 09 5c 6c 3d 5a 23 b5 bd
       -0.06968333 -0.0011961258 0.05770496 -0.088446334
000220 ce 16 55 bd e2 75 ab bd 2b 7b c8 3d 74 1c 9b 3c
       -0.0520237 -0.08372094 0.097891174 0.018934466
000230 0f 15 a6 bb 67 30 aa bc 03 c5 36 bd 41 de 92 bc
       -0.0050684283 -0.020775033 -0.04462148 -0.017928245
000240 96 17 5b bd 87 29 8f 3d 24 b0 af 3d 8e db 39 3d
       -0.05348929 0.069903426 0.08578518 0.0453754
000250 15 f4 56 ba b3 93 97 3d 86 2b 09 bd 85 89 fe bd
       -0.0008199823 0.07401218 -0.033488773 -0.124285735
000260 c6 38 07 3e 6c 92 0f bc cd 20 b3 3d bb 4d 57 3c
       0.13205251 -0.008762937 0.08746491 0.013141091
000270 e6 c2 ab 3b 13 d2 de bb 95 5b b5 bc 31 5b 9d bc
       0.0052417396 -0.006799945 -0.022138396 -0.019208523
000280 20 ae 73 3d cf 43 ea 3c 7a 67 af bd d0 de cf bb
       0.05949223 0.028596787 -0.085646585 -0.0063437
000290 ac 88 f0 3c b9 a6 42 bd 46 84 80 bd b1 5a 4b bd
       0.029362045 -0.04752228 -0.06275229 -0.049647037
0002a0 92 a3 88 3c d9 19 68 3c 8e de a7 bd 8a bb 94 bc
       0.016679559 0.014166319 -0.08196746 -0.018155832
0002b0 6c 3f 9c bd 80 b4 d9 3b d5 ac 9f bd 63 2f 11 be
       -0.07629284 0.0066438317 -0.07796637 -0.14178233
0002c0 e1 97 b8 bd f3 50 8d 3d 2e 40 ed bd 05 42 2f 3c
       -0.090133436 0.069002055 -0.11584507 0.010696893
0002d0 3d b3 5c bd aa a1 09 be 0a 4d d3 bc b6 d5 81 bd
       -0.053881872 -0.13440576 -0.025793571 -0.0633959
0002e0 09 e6 6b bb 2d 5e 85 bd d1 4a 16 bd b4 5f 7e 3b
       -0.0035995266 -0.06512103 -0.036692444 0.0038814368
0002f0 84 cd 71 3c 24 51 13 bd a3 1a 2a be f8 b6 6b bd
       0.014758471 -0.035966054 -0.16611724 -0.05754754
000300 c0 77 26 3d f7 f7 ae bd a8 4a 7e bd ea 10 ed 3a
       0.040641546 -0.08543389 -0.062082916 0.0018086706
000310 bd 26 f3 bd 53 ea 77 bd b4 89 54 bd a3 b7 d7 bd
       -0.11872623 -0.060526203 -0.051889136 -0.10533073
000320 75 b8 00 bc 8a 0f 38 be 73 c6 24 bc 88 5d 3c 3d
       -0.007856478 -0.17974678 -0.01005708 0.045987636
000330 42 9f 3a 3d 72 7f 21 bc 72 9b 1a 3d c5 a0 91 3a
       0.045562036 -0.0098570455 0.0377459 0.0011110535
000340 71 06 b6 3d cb af fb bc e2 24 0c bc c7 2d 4b 3c
       0.08887947 -0.030723473 -0.008553715 0.012401051
000350 3b 4a 5a bd ae f8 9b bd 24 9a e7 bc ff 91 f2 bd
       -0.053293448 -0.07615791 -0.028271742 -0.11844253
000360 78 ca 9b 3b 9b 13 98 3a 9f 0a 6b bc 23 28 dc 3c
       0.0047543608 0.0011602523 -0.014345794 0.026874607
000370 d2 d2 a5 bb 1f 16 22 3d 1c bd e1 3d d6 aa 9e bc
       -0.005060532 0.039571878 0.11022398 -0.01936857
000380 52 d5 25 3c d5 a1 8c 3d f8 a1 4a bd c1 4f 97 3d
       0.01012166 0.068668045 -0.04947087 0.07388259
000390 27 9d 8e bd 02 44 23 3c b2 70 84 ba 9b 70 2b 3c
       -0.06963568 0.009964945 -0.0010104387 0.010463859
0003a0 2f 22 ae 3d f4 44 1b bc 99 0e d9 3d 30 e3 fd bc
       0.08502614 -0.009476889 0.105984874 -0.03099212
0003b0 0c 4f ee 3b 5f 49 b2 3d e9 4f 0f bb 3b ef b3 bb
       0.0072726067 0.08705401 -0.0021867699 -0.005491165
0003c0 cc 9c 74 3d b1 c0 ae 3c e9 06 0b be d8 4a 9f 3d
       0.059719846 0.021332117 -0.13576855 0.07777947
0003d0 79 1c f4 bc 60 c8 59 bb de a1 ab 3c ff 70 8c 3b
       -0.029798733 -0.0033231005 0.020951208 0.004285931
0003e0 36 d1 02 3c 5c f8 24 bd b6 76 bb 3c e7 f5 71 bd
       0.00798445 -0.040275916 0.022883754 -0.0590724
0003f0 e9 66 84 3d b7 45 16 bc 2d a5 1c 3e 7a 0b 6f 3d
       0.06464941 -0.009171895 0.15297385 0.058360554

features_extractor.value_net.0.bias f4 [64]
000000 9c 31 01 ba 87 1d 85 bd bc 38 b6 bc f4 b8 12 bd
       -0.0004928352 -0.064997725 -0.02224385 -0.035820916
000010 af 1b 95 bd 40 90 19 3b 8f 17 1b bd 17 c7 e6 bd
       -0.07280671 0.0023431927 -0.037864264 -0.11268442
000020 18 60 81 bd fd 3e 0b be ac c7 cd bd 89 75 25 bd
       -0.063171566 -0.13598247 -0.1004785 -0.040395293
000030 a7 1b 6e bc ae fd 8d 3d 99 96 9b bd cb aa 00 bc
       -0.01453296 0.06933151 -0.075970836 -0.00785322
000040 89 c8 fc bd be 2e ec bd f5 41 17 bd aa 6f d6 bd
       -0.123429365 -0.11532353 -0.036928136 -0.10470517
000050 6c cd 87 bc 11 71 6f bd 33 39 aa bd 16 e0 e0 bd
       -0.016577445 -0.058457438 -0.08311691 -0.10980241
000060 b1 24 5f 3d ea fe 97 bd f9 79 0a be 98 0b cf bd
       0.05447835 -0.07421668 -0.13523091 -0.10109633
000070 2c be f6 bd 2b b0 da bc ff b5 ce bd 25 5e d6 bd
       -0.12047991 -0.026695332 -0.10093307 -0.104671754
000080 0d 53 38 bd 72 c3 9a bd c1 19 90 3d e9 5c 9a bd
       -0.04500108 -0.075568095 0.07036162 -0.075372525
000090 25 4c 2a be f9 2d e3 3c 5d 81 9e bd d7 91 cb 3c
       -0.1663061 0.027731882 -0.07739518 0.024849815
0000a0 9b e5 83 bd 36 5f 90 3d e6 51 e7 bd 03 04 90 3c
       -0.06440278 0.0704941 -0.11294918 0.017580038
0000b0 c4 ec 1d be fe 23 df bc 1a 5d e1 bd 5f a7 a1 bb
       -0.1542235 -0.027238842 -0.11004086 -0.0049332823
0000c0 49 ec 4f bd 03 d2 ca bd 80 1c 59 bd 7e 24 10 be
       -0.05076245 -0.09903338 -0.053005695 -0.1407642
0000d0 6d b9 35 3d b4 4b bb bd 84 5f 27 bd 98 0f 8d 3a
       0.04436629 -0.091452986 -0.040862575 0.0010762094
0000e0 2c 32 ce bd 5d e0 0a be 99 b9 13 3c c4 54 93 3c
       -0.10068163 -0.1356215 0.009016418 0.017984755
0000f0 f6 2f 0e be 5e 1f 6e bd d8 af bc bd 0d e0 ac 3b
       -0.13885483 -0.058135383 -0.09213227 0.0052757324

features_extractor.value_net.2.weight f4 [1, 64]
000000 b1 50 8e 3d 10 2b 0f 3d 54 35 ff bb 7a 7b fc 3c
       0.069489844 0.034953177 -0.0077883396 0.030820597
000010 60 c0 74 bc 4b f7 ed 3c 50 aa 10 3d 60 45 5a bd
       -0.014938444 0.029048583 0.035318673 -0.053288817
000020 34 5e 56 3b 51 c9 9e 3b d8 1f 41 3a 8d aa 14 bb
       0.0032709958 0.004845776 0.0007367111 -0.0022684664
000030 5d c4 ae 3c 6a 82 02 3d bd f1 54 bc 39 b5 12 3c
       0.021333868 0.031862654 -0.012997088 0.00895434
000040 31 77 4e bc 13 a9 e7 bc 68 a5 5b 3d 17 34 7f bb
       -0.01260166 -0.028278863 0.05362454 -0.003894096
000050 2b a9 aa 3d 5a 9c a2 bc 59 45 cb 3c 87 ef a9 3c
       0.083330475 -0.019849945 0.024813341 0.020744098
000060 0a 0f 0f 3d 88 15 58 bc 5e 9d 3c bd c1 17 b9 3c
       0.03492645 -0.013188727 -0.046048515 0.022594335
000070 19 3f b1 bc 4a c8 bd 3c 4c 4c eb bc 56 e4 24 3b
       -0.021636533 0.023166794 -0.028722905 0.0025160513
000080 af 38 8a bc 05 86 3a bd 4c 48 be 3c 07 9c 5a bd
       -0.016872732 -0.045537967 0.023227833 -0.053371456
000090 fd 50 94 bc 8f e0 a0 3d 95 1b 78 bb 22 37 57 3d
       -0.018105024 0.07855331 -0.0037858237 0.052542813
0000a0 d6 a4 5a bd 30 87 4e 3d 29 e9 c0 bc 97 ff 1a 3d
       -0.053379856 0.050421894 -0.02354868 0.037841406
0000b0 24 76 69 bc fc d2 92 3d 7b 02 b3 3c bc 6f a5 3c
       -0.014249358 0.07169148 0.021851769 0.02019488
0000c0 9e 06 16 3c 9e af 62 bd 01 0e 37 3c 48 ab 6a 3c
       0.009156851 -0.055343263 0.011172772 0.014323063
0000d0 fa 2b 9d 3c aa 99 6e bb da ee 88 bc 0c 49 c8 3c
       0.019186009 -0.003640751 -0.016715456 0.024448894
0000e0 d7 be 9d bc 60 6e 00 bd c8 b3 1a 3d 41 28 08 3d
       -0.019256039 -0.03135526 0.03776911 0.033241514
0000f0 04 7d 18 bd 56 01 cf 3c 86 d2 fa b9 35 0c a5 bc
       -0.0372286 0.025269192 -0.00047840568 -0.020147422
