weights/decoder-ns-1-e-100-nt-100-rew-h.pt (torch, 737884 bytes, 13 tensors)

fc.weight f4 [128, 64]
0	0xbee43cae	-0.44577545
1	0xbdfc55f3	-0.12321081
2	0x3e2a1817	0.16610752
3	0xbde66f67	-0.11251717
4	0xbe96ff97	-0.29491875
5	0xbdbc8d4a	-0.09206636
6	0xbbc17365	-0.0059036487
7	0x3e65c698	0.22439039
8	0x3d91b55b	0.07114669
9	0xbde750c4	-0.11294702
10	0x3c3b064b	0.011415075
11	0xbc9cf128	-0.019157961
12	0xbe8d107b	-0.27551636
13	0x3c583efc	0.01319861
14	0x3cc85517	0.024454636
15	0xbde80919	-0.1132986
16	0x3e42b10a	0.19012848
17	0x3e1758f9	0.14780034
18	0xbe23ba97	-0.15989147
19	0x3d0858c3	0.033287775
20	0x3db1109f	0.08645748
21	0x3dc4eb7a	0.09615226
22	0x3c7b82e4	0.015351031
23	0x3ec6481b	0.38726887
24	0xbdd4950f	-0.10379993
25	0x3e1d0f27	0.15337811
26	0xbd9b9028	-0.07595855
27	0xbe2ec3ee	-0.17066929
28	0x3eab3486	0.3343851
29	0xbe4e93a3	-0.20173506
30	0x3e804343	0.25051317
31	0xbdc418e3	-0.09575059
32	0xbe05553a	-0.13020793
33	0xbe25a5b6	-0.16176495
34	0xbd1dd451	-0.03853256
35	0xbe9890b8	-0.29797912
36	0xbd874426	-0.06604795
37	0x3e6b4e61	0.22979118
38	0x3e421d5e	0.18956515
39	0x3e861f00	0.26195526
40	0x3d9363b8	0.07196754
41	0x3c60b407	0.013714797
42	0xbcce9910	-0.02521947
43	0x3db87ce8	0.09008199
44	0xbd809a5a	-0.0627944
45	0x3e96b388	0.29433846
46	0xbe30977c	-0.17245287
47	0x3ceb05cd	0.02868929
48	0x3e5aa0c8	0.21350396
49	0xbe9127dc	-0.28350723
50	0x3e88cb35	0.26717535
51	0xbdcf0cc4	-0.10109857
52	0xbe445d5f	-0.19176243
53	0x3e8faeec	0.28063142
54	0x3d89ed42	0.067347065
55	0xbe1d5b51	-0.15366866
56	0x3e0d4937	0.1379746
57	0x3d240eb3	0.04005308
58	0x3eb13c8b	0.34616503
59	0xbe729e18	-0.2369312
60	0x3e8e4c10	0.27792406
61	0xbea6176b	-0.32439741
62	0x3e7fcef5	0.24981292
63	0x3ead71be	0.3387584
64	0xbe2c807a	-0.16845885
65	0x3e82f380	0.255764
66	0xbcd0f282	-0.025506262
67	0x3d835aad	0.064137794
68	0xbe192076	-0.14953789
69	0xbcd7ea4c	-0.026356839
70	0xbd9e496f	-0.0772885
71	0x3e3f6e4b	0.18694417
72	0xbe84fed8	-0.2597568
73	0xbcf80cff	-0.030279635
74	0x3db49cc9	0.08818967
75	0xbe4aa416	-0.19789156
76	0xbcb13026	-0.021629404
77	0x3e2df726	0.16988811
78	0x3d5c7c61	0.053829554
79	0xbc841fda	-0.01612847
80	0x3e2d4643	0.16921334
81	0xbdf1644a	-0.11786707
82	0xbe0adcbc	-0.13560766
83	0xbe35b0f1	-0.17743279
84	0x3e39ee70	0.18157363
85	0xbe498d20	-0.19682741
86	0xbe6bd291	-0.23029543
87	0x3e8a5953	0.27021274
88	0xbd6393b6	-0.05556079
89	0x3d884ed0	0.06655657
90	0xbe2ab0e5	-0.16669042
91	0xbd347557	-0.044057216
92	0xbea219e1	-0.3166037
93	0x3cb41b79	0.021985756
94	0xbe73c95a	-0.23807278
95	0x3dd1c17e	0.10241984
96	0x3d9a8657	0.075451545
97	0x3dc576b2	0.0964178
98	0x3e450ab4	0.19242364
99	0x3e3fb9be	0.18723199
100	0x3cd43226	0.025902819
101	0xbc29d47a	-0.0103656
102	0x3df53502	0.11973001
103	0xbdfbc03a	-0.12292524
104	0x3ef22c1c	0.47299278
105	0x3dcf4f95	0.10122601
106	0x3e0c881b	0.13723795
107	0x3df78366	0.12085609
108	0x3e029b07	0.1275445
109	0x3d3db4a9	0.04631487
110	0x3d5abcc2	0.05340267
111	0x3d891832	0.06694068
112	0xbdad567c	-0.08463761
113	0x3de1201a	0.10992451
114	0x3dd308c6	0.10304408
115	0x3eb805fe	0.35942072
116	0x3e2be779	0.16787519
117	0xbcf59d27	-0.029982163
118	0x3c15276f	0.00910364
119	0xbd199213	-0.037492823
120	0x3dd8a087	0.10577493
121	0x3e84920d	0.25892678
122	0x3ecc2149	0.39869145
123	0x3d2e7736	0.042594157
124	0x3e10d1c1	0.14142515
125	0x3c870898	0.01648359
126	0xbe9000c6	-0.2812559
127	0x3e565ea4	0.2093454
128	0xbc2b7792	-0.0104655195
129	0x3c8da4cd	0.017290497
130	0x3df6bd8d	0.12047873
131	0xbd6ddc20	-0.058071256
132	0xbe39bd35	-0.18138583
133	0x3d9cacaf	0.07650124
134	0xbda42e30	-0.08016622
135	0x3de771bf	0.11300992
136	0x3e295840	0.16537571
137	0xbd4d7af8	-0.0501661
138	0x3cd22f25	0.025657246
139	0x3e1db326	0.15400371
140	0x3e19c826	0.15017757
141	0x3db5e692	0.088818684
142	0x3d268833	0.040657233
143	0x3db3c301	0.087774284
144	0xbdfa313f	-0.12216424
145	0xbe1bce79	-0.15215482
146	0x3e5b37dd	0.21408029
147	0xbd57d552	-0.052693672
148	0x3e91e384	0.28493893
149	0x3d0986e1	0.033575896
150	0x3e4373dd	0.19087167
151	0x3e0d273b	0.13784496
152	0xbe2447c9	-0.16043009
153	0x3ddc00c8	0.107423365
154	0x3e481b52	0.19541672
155	0xbe2423ef	-0.16029333
156	0xbe12c86a	-0.14334264
157	0x3d8fb979	0.07017798
158	0xbe2b1fd0	-0.16711354
159	0x3e0c8da2	0.13725904
160	0xbd475b50	-0.048671067
161	0xbe8c9b63	-0.274623
162	0x3b078037	0.0020675787
163	0x3d1b0c65	0.037853617
164	0xbe27ce68	-0.16387331
165	0x3e2f9f6e	0.17150661
166	0xbe134563	-0.14381938
167	0xbd9907c7	-0.074721865
168	0x3df2de85	0.118588485
169	0x3dc69d88	0.096980155
170	0x3dca232c	0.0986999
171	0xbb69a61b	-0.0035651985
172	0xbe00ec29	-0.12590088
173	0x3e6aed62	0.22942117
174	0xbe0d602d	-0.1380622
175	0xbe1cbd49	-0.15306582
176	0x3d36ed6d	0.04466002
177	0x3d14d474	0.036335424
178	0xbe31e947	-0.17374144
179	0xbcb60d9c	-0.022223286
180	0xbe8f2116	-0.2795493
181	0xbd8e1edf	-0.06939482
182	0xbed2dcb0	-0.41183996
183	0xbde178ac	-0.110093445
184	0xbedba7c1	-0.42901424
185	0xbde6a1a7	-0.112613015
186	0xbea5e010	-0.3239751
187	0x3e4e679e	0.20156714
188	0x3d208605	0.03919031
189	0x3e7b25f6	0.245262
190	0x3cbe8ec6	0.023261439
191	0x3d7c2238	0.06155607
192	0xbb663920	-0.0035129264
193	0xbe917d21	-0.28415778
194	0xbe94c86c	-0.2905916
195	0x3dbc2499	0.09186668
196	0x3eb6474f	0.3560128
197	0xbaa4c1b2	-0.0012569933
198	0x3d178ce2	0.03699959
199	0x3e2d47cc	0.1692192
200	0xbaa156ed	-0.0012309231
201	0xbd7a6e9b	-0.061140638
202	0xbe01e40a	-0.12684646
203	0xbd133580	-0.035939693
204	0x3e5889ed	0.21146365
205	0xbd49ccaf	-0.049267467
206	0x3ec28518	0.37992167
207	0xbc16dfcb	-0.00920863
208	0x3e0eb05d	0.13934465
209	0x3d6245c6	0.055242322
210	0xbe0287a0	-0.1274705
211	0x3dc5ad36	0.09652178
212	0xbe35e692	-0.17763737
213	0x3e02b0ca	0.12762752
214	0x3da6d041	0.0814519
215	0xbe31255c	-0.17299408
216	0x3e967f98	0.2939422
217	0xbe73f21c	-0.23822826
218	0xbee748c7	-0.45172712
219	0x3d08a973	0.033364724
220	0xbe06876e	-0.131376
221	0x3e995b8a	0.2995265
222	0x3ed39c24	0.41330063
223	0xbce536a9	-0.027980166
224	0x3dfd6bab	0.12374052
225	0xbd945569	-0.07242853
226	0x3b24cbe5	0.0025145945
227	0x3ecb8e08	0.397568
228	0xbe3914bc	-0.18074316
229	0x3d80f307	0.06296354
230	0xbdce3be7	-0.10070019
231	0x3d94ae7a	0.07259841
232	0xbd4a929a	-0.049456216
233	0xbe5a99bf	-0.21347712
234	0xbcf4d8a7	-0.029888464
235	0x3d7d8f92	0.061904497
236	0x3d1d1cc5	0.038357515
237	0x3ea4b17d	0.32166663
238	0x3c36ceb2	0.011157678
239	0x3ed6cf05	0.41954818
240	0x3da0c44c	0.07849941
241	0x3d8bfdc0	0.06835508
242	0xbdf0521e	-0.117344126
243	0xbe522202	-0.20520785
244	0x3d67452c	0.05646245
245	0x3ddd4572	0.10804261
246	0x3d45b37b	0.04826687
247	0x3d927ce9	0.07152731
248	0xbd84318b	-0.06454762
249	0x3e5cce7b	0.21563141
250	0x3aa6545e	0.0012689938
251	0xbe10f6e4	-0.14156681
252	0xbe5a1fb8	-0.21301162
253	0xbd1064a6	-0.035252236
254	0xbdea9599	-0.11454315
255	0x3e0231b2	0.1271427

fc.bias f4 [128]
0	0xbb8f71a3	-0.00437756
1	0xbdddb75c	-0.10825989
2	0xbd209df6	-0.039213143
3	0xbd1da78b	-0.03848986
4	0xbb4b9961	-0.0031066763
5	0xbc873221	-0.016503396
6	0xbc0be700	-0.008538961
7	0xbd5c2187	-0.05374291
8	0xbd733ef2	-0.0593862
9	0xbcfe3975	-0.031033257
10	0xbd8dec09	-0.06929786
11	0xbcb46490	-0.022020608
12	0xbd8fd50f	-0.070230596
13	0xbd116883	-0.03550006
14	0xbbb28bb5	-0.0054487833
15	0x3c64dc9a	0.013968611
16	0xbd1db5d3	-0.03850348
17	0xbd44d8ac	-0.048058197
18	0x3c5a90a5	0.01334015
19	0xbd271c79	-0.040798638
20	0xbcdafa96	-0.026730817
21	0xbbc88966	-0.006119895
22	0xbc16add5	-0.009196718
23	0xbca2c52d	-0.019869411
24	0xbd0440f3	-0.032288503
25	0xbc00eb66	-0.007868623
26	0xbd771ff7	-0.06033322
27	0x3636ec80	2.7257774e-06
28	0xbd423428	-0.04741302
29	0xbcfd4442	-0.030916337
30	0xbd1eaa42	-0.03873659
31	0xbce0bd29	-0.027433949
32	0xbbb6aae7	-0.0055745724
33	0xbd2d3f18	-0.0422965
34	0xbda4cd45	-0.080469646
35	0xbabfb92f	-0.0014627333
36	0xbd0c36d2	-0.03423197
37	0xbcc7ff40	-0.024413705
38	0xbaebeb91	-0.0017999281
39	0x3c5b532a	0.013386527
40	0xbdbdea32	-0.09273185
41	0xbd44c256	-0.048036896
42	0xbd308d0f	-0.043103274
43	0xbd5c1f99	-0.05374107
44	0xbce2f201	-0.027703287
45	0x3cd0d230	0.02549085
46	0xbd46a686	-0.048498653
47	0x3c70227e	0.014656661
48	0xbda20a88	-0.07912165
49	0xbc232fa9	-0.009960094
50	0xbb449123	-0.0029993735
51	0xbd35681e	-0.044288747
52	0xbd49d97e	-0.049279682
53	0xbdb8f9b5	-0.09032003
54	0xbc9f902d	-0.019477928
55	0xbcf0ab37	-0.029378517
56	0xbd7791c6	-0.060441755
57	0x3c78bd0d	0.015181792
58	0xbbe2aade	-0.0069173416
59	0xbd58c40a	-0.052921332
60	0xbaefa9f2	-0.00182849
61	0x3d0a2d2b	0.03373448
62	0xbc187f52	-0.009307699
63	0xbd627010	-0.055282652
64	0x3d4f8001	0.050659183
65	0x39dda88e	0.00042277988
66	0xbd3dce16	-0.046339117
67	0xbd5f634e	-0.054538064
68	0xbcfca708	-0.030841365
69	0xbcc0c7d4	-0.023532785
70	0xba7f9fe8	-0.0009751306
71	0xbc4af6fc	-0.012387987
72	0xbdd71b0d	-0.105032064
73	0xbd4a994a	-0.049462594
74	0xbc18aca5	-0.009318505
75	0xbc21afd0	-0.009868577
76	0x3af5992a	0.0018737663
77	0xbda2cf95	-0.079497494
78	0xbce658be	-0.028118487
79	0xbcf87202	-0.0303278
80	0x3c318cf0	0.010836825
81	0x00000000	0.0
82	0xbd642181	-0.055696014
83	0x3c89da88	0.016827837
84	0xbbf7cd9a	-0.0075623514
85	0xbd987275	-0.07443706
86	0xbd25c234	-0.04046841
87	0xbd2fbdfe	-0.0429058
88	0xbcec446a	-0.028841216
89	0xbc1aaa2b	-0.009439985
90	0xbd08575a	-0.03328643
91	0xbc6d1ce8	-0.014472224
92	0x3c32e063	0.010917756
93	0xbd55c02b	-0.05218522
94	0xbd4a9216	-0.049455725
95	0xbc178c08	-0.009249695
96	0xbc0f8100	-0.008758783
97	0xbce1a282	-0.02754331
98	0xbd257203	-0.040391933
99	0xbd2a025b	-0.041506153
100	0xbcef57c7	-0.02921666
101	0x3d9f6649	0.07783181
102	0xbcf00423	-0.029298848
103	0x3b9afeb5	0.0047300705
104	0xbc3d4e10	-0.011554256
105	0xbdc550bf	-0.09634542
106	0xbc4c97ac	-0.012487333
107	0xbce16e5b	-0.027518442
108	0xbd25740d	-0.040393878
109	0xbc265be5	-0.010153745
110	0xbc750d18	-0.014956735
111	0xbc7aaf39	-0.015300565
112	0x3915e398	0.00014294533
113	0xbd96f001	-0.07369996
114	0xbd963e26	-0.073360726
115	0xbc9a8645	-0.018862853
116	0x3d04386c	0.03228037
117	0xbd605c4d	-0.054775525
118	0x00000000	0.0
119	0xbd879fbe	-0.06622265
120	0xbd66e968	-0.056374937
121	0x3ca23ec3	0.019805318
122	0xbcb3d512	-0.021952186
123	0x3bac869f	0.0052650715
124	0xbd4f9a42	-0.05068422
125	0x3ce47e47	0.027892245
126	0xbdaf485c	-0.08558723
127	0xbcdaed86	-0.026724588

deconv.0.weight f4 [128, 64, 4, 4]
0	0xbcd024cc	-0.025408171
1	0xbccc60f1	-0.024948569
2	0x3d4c11c8	0.049821645
3	0xbd2566f6	-0.040381394
4	0xbaa00764	-0.0012209234
5	0xbd5eb409	-0.054370914
6	0xbb91ccf6	-0.004449482
7	0x3aee469d	0.0018179003
8	0x3ce43e10	0.027861625
9	0x3d1ad42f	0.03780001
10	0xbe8437e2	-0.25823885
11	0xbd747122	-0.059678204
12	0x3d638c14	0.05555351
13	0x3d5065f5	0.050878484
14	0x3d7a45d3	0.061101746
15	0x397e2e35	0.00024240541
16	0x3d7381bb	0.059449892
17	0x3cb3c71b	0.021945527
18	0x3c30b6ac	0.01078574
19	0x3cb001c6	0.02148522
20	0x3c2f5871	0.010702238
21	0xbe3dfd20	-0.18553591
22	0x3cb3df39	0.021957027
23	0x3d7af01c	0.061264142
24	0x3d0aaa22	0.033853658
25	0xbd91bf79	-0.07116599
26	0x3d0f8d50	0.035046875
27	0xbc5d2454	-0.013497431
28	0x3b985711	0.004649051
29	0xbcf9cde4	-0.030493684
30	0xbbf4259b	-0.007450772
31	0xbd255b42	-0.040370233
32	0xbd1bd548	-0.038045198
33	0xbbf55c62	-0.0074878195
34	0xbc24da1f	-0.01006177
35	0x3c22d8ad	0.009939355
36	0xbb8c0073	-0.0042725145
37	0xbd16068a	-0.03662733
38	0x3b990efa	0.004670975
39	0x3b9425ad	0.004521093
40	0x3d7b9fa7	0.061431553
41	0xbdd7efc0	-0.105437756
42	0x3cd45444	0.025919087
43	0x3d9d23dd	0.07672856
44	0xbc1ac7d4	-0.009447057
45	0xbd029512	-0.031880446
46	0xbd9c82f6	-0.07642166
47	0x3bb8ee64	0.0056436528
48	0xbd83ccbb	-0.064355336
49	0xbd0e2dfa	-0.034711815
50	0x3bde40b6	0.0067826165
51	0xbd13c135	-0.03607293
52	0xbc50643a	-0.012719208
53	0xbb31ad0a	-0.0027111196
54	0xbdebba28	-0.11510116
55	0xbcc963aa	-0.024583656
56	0xbcb224b8	-0.021746024
57	0xbe2abc20	-0.16673326
58	0x3ce3851a	0.027773429
59	0xbccb9e37	-0.024855716
60	0xba58127e	-0.00082425016
61	0xbd135cbd	-0.035977114
62	0x3d9f3beb	0.077751
63	0x3b9df5b6	0.004820551
64	0xbce2f366	-0.027703952
65	0xbcda65a9	-0.026659803
66	0xbcd88043	-0.026428347
67	0x3d234ed5	0.039870102
68	0xbdae0c85	-0.08498482
69	0xbe0c6c8d	-0.13713284
70	0x3dae88c5	0.085221805
71	0x3d435499	0.0476881
72	0x3c7f94d2	0.015599446
73	0x3da3cc18	0.07997912
74	0xbe237b69	-0.15965046
75	0x3b11c4b8	0.0022242498
76	0xbc30525c	-0.0107618235
77	0x3d129d37	0.035794463
78	0xbbff2d59	-0.0077873883
79	0x3d3525be	0.044225447
80	0x3cde3347	0.02712406
81	0xb76d4657	-1.4142678e-05
82	0xbd77d388	-0.060504466
83	0xbc539b4b	-0.012915443
84	0x3cc2b36e	0.0237672
85	0xbdf35ad6	-0.1188256
86	0x3cb7b41d	0.022424752
87	0x3d81e6a5	0.0634282
88	0x3d5b22cc	0.05349998
89	0x3d9bf994	0.076159626
90	0x3d6ed6a5	0.05831017
91	0xbbe26e3b	-0.006910113
92	0xbce08476	-0.027406912
93	0xbd1c0f19	-0.038100336
94	0x3d9decdc	0.07711193
95	0x3d3f35b1	0.046682063
96	0x3d6d894f	0.057992276
97	0x3cb90e3a	0.022589792
98	0xbb72ce0f	-0.003704909
99	0xbcf0ee52	-0.029410515
100	0x3d88df28	0.06683189
101	0x3de0a0f7	0.109682016
102	0xbcbc64ec	-0.022997342
103	0x3d1ae6dd	0.037817825
104	0x3c114ef5	0.0088689225
105	0xbc6c0c7a	-0.0144072715
106	0xbd20ad85	-0.03922798
107	0xbdc9f39c	-0.09860918
108	0x3b9c6b5f	0.004773542
109	0xbd847a9e	-0.064687
110	0x3c1d0074	0.009582628
111	0xbbe107ae	-0.0068673706
112	0x3d77f8ea	0.060540117
113	0xbd02ec62	-0.031963713
114	0x3ce81bbb	0.028333535
115	0x3d9a67c6	0.075393245
116	0x3c6e8ba8	0.014559664
117	0xbd934fd2	-0.07192959
118	0xbb0498ad	-0.0020232603
119	0x3d587d5e	0.052853934
120	0x3ca95b60	0.020673454
121	0xbe2b1d5c	-0.16710418
122	0x3c24f87f	0.010069012
123	0x3c098c02	0.008395197
124	0xbd239784	-0.03993942
125	0xbd0d5d03	-0.03451253
126	0x3d970db0	0.073756576
127	0xbdb3cc50	-0.08779204
128	0xbd1fb64d	-0.038992215
129	0xbc376640	-0.011193812
130	0x3b30d51c	0.0026982492
131	0xbd268a31	-0.040659133
132	0x3d09c31e	0.033633344
133	0x3e20ab45	0.15690334
134	0x3ca540c6	0.020172488
135	0xbcb9d6db	-0.022685459
136	0xbc1d381a	-0.009595895
137	0x3d22865d	0.03967892
138	0x3e000ae5	0.12504156
139	0x3ca354fb	0.019937983
140	0x3d9eecf1	0.07760037
141	0x3d21585b	0.039390903
142	0xbd1d4024	-0.038391247
143	0x3cf372f0	0.029717892
144	0x3cb5fb5f	0.02221459
145	0x3d4bec80	0.04978609
146	0x3d54a124	0.05191149
147	0xbca534f8	-0.020166859
148	0xbd791d57	-0.060818996
149	0xbc9cd825	-0.019146034
150	0xbd5d71e0	-0.054063678
151	0x3d0cc08f	0.034363326
152	0xbd2ef701	-0.04271603
153	0x3e00a839	0.12564172
154	0xbd354b29	-0.04426113
155	0xbc9c29fc	-0.019062988
156	0xbd0b9e94	-0.03408678
157	0x3d54b251	0.05192787
158	0xbd320865	-0.043465037
159	0x3d65053e	0.055913202
160	0x3d08025e	0.033205383
161	0xbb74b26b	-0.003733779
162	0xbd04fc2d	-0.032467056
163	0xbb87d13f	-0.004144817
164	0xbd2c3d62	-0.042050727
165	0xbde0baa6	-0.109731
166	0xbd64f3a0	-0.0558964
167	0xbd7b56f4	-0.06136222
168	0x3dde7518	0.108621776
169	0x3c79018c	0.015198123
170	0xbd03069a	-0.031988718
171	0x3d4102f5	0.04712196
172	0x3a9590e4	0.0011410979
173	0xbcd951cd	-0.026528263
174	0x3d62ebe3	0.05540074
175	0xbd168e6e	-0.036756925
176	0xbcafc9e4	-0.021458574
177	0xbc035c59	-0.008017623
178	0x3d162046	0.036651872
179	0xbb88a7dd	-0.0041704015
180	0x3cb3422d	0.021882141
181	0xbb6ab445	-0.0035813015
182	0xbd5ca57b	-0.053868752
183	0xbce88b57	-0.028386755
184	0xbce5aeda	-0.028037477
185	0x3d18e206	0.037324928
186	0xbd57cf53	-0.052687954
187	0x3d8982d4	0.067144066
188	0xbd07ddcd	-0.03317051
189	0xbb6607ef	-0.0035099944
190	0xbc8a8ea1	-0.016913714
191	0x3d297f4e	0.041381173
192	0x3d53483e	0.051582567
193	0xbc749f3e	-0.014930544
194	0x3c98e19f	0.018662272
195	0x3d3b203f	0.04568505
196	0xbdd0d40a	-0.10196693
197	0x3d018da8	0.031629235
198	0x3df36ed7	0.118863754
199	0x3d9c9668	0.07645875
200	0x3da61d39	0.081110425
201	0x3d15f2de	0.03660857
202	0x3d1cd61b	0.038290124
203	0x3d116671	0.035498086
204	0xbb71afad	-0.0036878393
205	0xbd3b852a	-0.045781292
206	0x3d8c0468	0.06836778
207	0x3bab2ae9	0.005223621
208	0xbcf7610d	-0.030197645
209	0x3b1dc5c0	0.0024074167
210	0xbcdd0a59	-0.026982473
211	0x3d5f11bd	0.054460276
212	0xbd8068d7	-0.062699966
213	0xbe09cc0d	-0.13456745
214	0xbc6fc9db	-0.014635528
215	0xbbfc75e0	-0.0077044815
216	0x3cd2f969	0.025753694
217	0xbd351125	-0.044205803
218	0xbd9a92a5	-0.075475015
219	0x3ca81b8d	0.02052095
220	0x3c22c3a9	0.009934344
221	0xbd47fb86	-0.048823856
222	0x3aef5e63	0.0018262382
223	0xbd55ebc0	-0.05222678
224	0xbd121ea0	-0.035673738
225	0xbd16c18e	-0.036805682
226	0x3d48c7f7	0.049018826
227	0x3c52c054	0.012863237
228	0x3d1cdf55	0.038298924
229	0xbda2831a	-0.07935162
230	0xbd9d4c84	-0.0768061
231	0xbc822ef5	-0.015891531
232	0x3d2773eb	0.040882032
233	0xbd45fc77	-0.048336472
234	0xbd5a8577	-0.05334994
235	0x3ca46737	0.020068748
236	0x39500cad	0.00019841148
237	0x3d147ae5	0.036250014
238	0x398b7ef5	0.00026606736
239	0xbc2e35ec	-0.010632973
240	0xbd5198e1	-0.051171187
241	0xbcddac0b	-0.027059576
242	0x3bbf6b87	0.0058416757
243	0xbbbdd124	-0.005792754
244	0xbc46b685	-0.012128477
245	0xbe4648aa	-0.19363657
246	0x3cb2d4e0	0.021830022
247	0xbd6ff56c	-0.058583662
248	0xbd32dfc0	-0.043670416
249	0xbd64c2bb	-0.055849772
250	0x3e495f8b	0.19665353
251	0xbcd9484e	-0.026523735
252	0x3c9a8988	0.018864408
253	0x3d3cb1c2	0.04606796
254	0x3d603bca	0.05474452
255	0xbd07b37e	-0.03313016

deconv.0.bias f4 [64]
0	0xbd20b2c0	-0.03923297
1	0xbd7a02c4	-0.061037794
2	0x3a4b8aee	0.00077645376
3	0xbd2f0080	-0.042725086
4	0x3d54aa1f	0.051920053
5	0xbc53e2c4	-0.012932483
6	0xbd45679c	-0.048194513
7	0x3d86a235	0.06573907
8	0x3d3414cb	0.043965142
9	0xbd1c25bd	-0.038121928
10	0xbd65f95c	-0.05614601
11	0xbd3501df	-0.044191238
12	0xbd7f60af	-0.062348064
13	0xbdfb3e00	-0.12267685
14	0xbcf59413	-0.029977834
15	0xbda7dabe	-0.08196019
16	0xbc51a91b	-0.012796666
17	0x3c85b887	0.016323341
18	0xbd59efad	-0.05320709
19	0xbd5254ca	-0.051350392
20	0xbd42935c	-0.047503814
21	0xbd867249	-0.06564767
22	0xbd2d2905	-0.042275447
23	0x3d862d02	0.06551553
24	0xbd7ece6c	-0.062208578
25	0xbc569677	-0.013097397
26	0xbd7446ce	-0.059637837
27	0xbc792431	-0.015206383
28	0x3b89a7f2	0.004200929
29	0xbd7bb83a	-0.06145499
30	0xbd9ba750	-0.07600272
31	0xbdee7e01	-0.11645127
32	0xbd3f28d1	-0.046669785
33	0x3c33345c	0.010937776
34	0xbce0616c	-0.027390204
35	0x3ca95dee	0.020674672
36	0xbd3908ab	-0.045174282
37	0xbd99142f	-0.07474553
38	0x3cdbcef8	0.026832089
39	0xbdbf62e6	-0.09345035
40	0xbc1af47a	-0.009457702
41	0xbda6e318	-0.081487834
42	0xbc9b8489	-0.018984096
43	0xbd3c480e	-0.045967154
44	0xbd2d275d	-0.042273868
45	0xbcb0125f	-0.021493135
46	0x3ce2c76e	0.027682986
47	0xbd189ac8	-0.037256986
48	0xbd9ec276	-0.07751934
49	0xbd0ea17d	-0.034821976
50	0xbdd05a03	-0.101734184
51	0xbd34db73	-0.044154596
52	0x3c459700	0.012059927
53	0x3c238841	0.009981216
54	0xbd8eccd0	-0.06972659
55	0x3c467576	0.012112966
56	0xbd3c43a8	-0.04596296
57	0xbd9cf98b	-0.07664784
58	0xbda27f04	-0.079343826
59	0x3c3424a1	0.010995061
60	0xbbc12617	-0.0058944332
61	0xbca78851	-0.020450743
62	0xbd921a3a	-0.071339086
63	0xbd5d7508	-0.054066688

deconv.2.weight f4 [64, 32, 4, 4]
0	0xbd818cfc	-0.06325719
1	0xbe26418a	-0.16235939
2	0xbd9d4522	-0.07679202
3	0xbe3243df	-0.17408703
4	0x3d96369d	0.073346354
5	0xbdc05ab2	-0.09392299
6	0xbd9a76bc	-0.07542178
7	0xbd31e94a	-0.043435372
8	0x3d8ec2fc	0.06970784
9	0xbe368360	-0.17823553
10	0x3e0ff0de	0.14056727
11	0xbe0edd0c	-0.1395151
12	0xbca9eb5b	-0.020742109
13	0xbd04be75	-0.032408196
14	0xbb958948	-0.0045634843
15	0xbca14590	-0.01968649
16	0xbd0459e7	-0.0323123
17	0xbd388261	-0.045046214
18	0xbd48b3c5	-0.048999567
19	0x3dd30a71	0.10304726
20	0x3ce3e723	0.027820176
21	0x3b890ad7	0.0041822004
22	0xbe00dd5f	-0.12584446
23	0xbcefa784	-0.029254682
24	0x3ca42000	0.02003479
25	0xbdaf08da	-0.0854661
26	0xbde58e33	-0.11208763
27	0xbd6c3158	-0.057664245
28	0xbd38c6b8	-0.045111388
29	0xbe1f94da	-0.15584126
30	0x3c3e6dbb	0.0116228415
31	0x3d815634	0.0631527
32	0xbdc0cd50	-0.0941416
33	0x3d173619	0.036916826
34	0xbb8f2a48	-0.004369054
35	0xba861d14	-0.0010232055
36	0xbe0cd604	-0.13753515
37	0x3d0722ee	0.032992296
38	0x3d3da28c	0.046297595
39	0x3d8e3eaf	0.0694555
40	0x3da4d534	0.08048478
41	0x3d9cb1c3	0.07651093
42	0xbe5e6b87	-0.21720706
43	0x3dc36727	0.09541159
44	0xbddb0a82	-0.106953636
45	0x3e4ef336	0.20209965
46	0xbdaee40b	-0.085395895
47	0xbd8c1731	-0.06840361
48	0xbe008855	-0.12552007
49	0x3d475197	0.048661795
50	0x3dc8653c	0.09784934
51	0x3d395848	0.045250207
52	0xbcd8b614	-0.02645401
53	0xb9009f85	-0.00012266457
54	0x3d633b56	0.05547651
55	0xbde9eb2c	-0.114218086
56	0xbb39b410	-0.0028336085
57	0x3d14bc8f	0.036312636
58	0x3d91d733	0.07121124
59	0x3cb35199	0.021889495
60	0xbd62f2b6	-0.05540725
61	0xbdcebe67	-0.1009491
62	0xbdd1af8d	-0.10238562
63	0xbd54965f	-0.051901218
64	0xbdb3351f	-0.087503664
65	0x3d61625e	0.05502545
66	0x3d0d6508	0.03452018
67	0xbd2113f2	-0.039325662
68	0xbe26b9e4	-0.16281849
69	0x3c655eb9	0.013999634
70	0xbb3ea5da	-0.0029090554
71	0x3e0e22e9	0.13880505
72	0x3b891a82	0.004184068
73	0x3c8693a0	0.016427815
74	0xbdbea2b7	-0.09308379
75	0xbe1036ab	-0.14083354
76	0x3d83a4d1	0.064279206
77	0xbd6da6a7	-0.05802026
78	0x3ed8808b	0.4228557
79	0x3dae8bde	0.08522771
80	0xbddcd375	-0.1078252
81	0xbd966231	-0.07342947
82	0x3c738464	0.014863107
83	0xbd037ecc	-0.032103345
84	0x3e40e317	0.18836628
85	0x3d6f4895	0.05841883
86	0xbe16fcda	-0.14744893
87	0xbd2fd102	-0.042923935
88	0xbde73364	-0.11289099
89	0xbcb0ac44	-0.021566518
90	0x3dcb1c38	0.09917492
91	0x3c2a267f	0.010385155
92	0xbd3a64ae	-0.045506172
93	0xbe11e381	-0.14246942
94	0x3ccecff8	0.025245652
95	0xbd39c614	-0.045354918
96	0x3b8f3e74	0.0043714587
97	0x3dd978cc	0.10618743
98	0xbd7cf882	-0.061760433
99	0xbd7664d6	-0.06015476
100	0xbcfbc016	-0.030731242
101	0x3dc8c891	0.0980388
102	0xbd91736b	-0.07102092
103	0x3c93bfad	0.018035734
104	0xbd861b15	-0.06548134
105	0x3df2442d	0.1182941
106	0x3b75fdbc	0.003753527
107	0x3d4dd1f9	0.050249074
108	0x3d21aefa	0.03947351
109	0x3e613c97	0.2199577
110	0x3d17f6b1	0.037100498
111	0x3dde6b69	0.108603306
112	0xbaa38981	-0.0012476892
113	0x3e214326	0.15748271
114	0xbe88d893	-0.26727733
115	0xbde692a3	-0.112584375
116	0xbd91bac2	-0.07115699
117	0x3e2c4b1e	0.1682553
118	0xbda37802	-0.07981874
119	0x3d6cf4a6	0.057850502
120	0xbdadb988	-0.08482653
121	0x3e170300	0.14747238
122	0xbd8dd80e	-0.06925975
123	0x3d411696	0.04714068
124	0x3c8c099b	0.017094424
125	0x3dce9aad	0.10088096
126	0xbd45edd8	-0.04832253
127	0x3d5de473	0.054172944
128	0x3d145182	0.036210544
129	0xbdec8555	-0.115488686
130	0x3cb8e2da	0.022569109
131	0xbd21d401	-0.039508823
132	0x3ded472f	0.11585843
133	0x3db162c3	0.086614154
134	0xbd30ab1c	-0.043131933
135	0xbce6c7aa	-0.02817138
136	0xbdc867e1	-0.09785438
137	0xbb78f539	-0.003798796
138	0x3d6a5400	0.057209015
139	0xbd5d9000	-0.054092407
140	0x3d69fd04	0.05712606
141	0xbc752b98	-0.014964007
142	0x3e5291ad	0.20563383
143	0xbd5c7925	-0.05382647
144	0x3d9f8631	0.07789267
145	0xbbb5dafa	-0.0055497857
146	0xbd9cf10f	-0.07663166
147	0xbd568e3d	-0.052381743
148	0x3df89998	0.12138671
149	0xbd50f14a	-0.05101136
150	0x3caf4f1c	0.021400027
151	0xbd162595	-0.036656935
152	0x3d84c328	0.064825356
153	0x3dc416e5	0.09574679
154	0xbe4fd180	-0.20294762
155	0xbd84c51e	-0.064829096
156	0x3d936c91	0.07198442
157	0x3e1869d8	0.14884126
158	0xbb26a25c	-0.0025426364
159	0x3d6608f6	0.05616089
160	0x3d2e806e	0.04260295
161	0xbda305b6	-0.07960074
162	0xbcd5b802	-0.026088718
163	0xbd25d2fd	-0.040484417
164	0xbc6c3b3c	-0.014418419
165	0x3c22fbc8	0.009947725
166	0x3d1414dd	0.03615271
167	0x3db6c671	0.089245684
168	0xbe0bd264	-0.13654476
169	0xbc9296ed	-0.017894233
170	0xbd8a567f	-0.06754779
171	0xbce5e257	-0.028062029
172	0x3db77a27	0.089588456
173	0xbd9488b2	-0.07252635
174	0xbd1c6eac	-0.038191482
175	0xbd0cd268	-0.034380347
176	0xbddca690	-0.10773957
177	0xbd96baa7	-0.0735982
178	0xbbdfcc48	-0.006829772
179	0xbe4b36c0	-0.19845104
180	0xbd069094	-0.032852724
181	0x3d09843b	0.03357337
182	0xbc74bf51	-0.0149381915
183	0x3cdbcff9	0.026832568
184	0xbd2718f5	-0.040795285
185	0xbd95530a	-0.07291229
186	0xbd732884	-0.05936481
187	0x3d18b32b	0.037280243
188	0xbe25174b	-0.16122167
189	0xbd658c58	-0.056042045
190	0xbe05451a	-0.13014641
191	0x3dd97997	0.106188945
192	0xbd65b4c5	-0.0560806
193	0xbe07dda7	-0.13268147
194	0x3dd23161	0.102633245
195	0xbe67e978	-0.22647655
196	0x3dd1eb1b	0.10249921
197	0x3b0b3235	0.0021239643
198	0x3d716b0b	0.058939975
199	0xbda2fe55	-0.07958666
200	0xbcbaefee	-0.022819486
201	0x3cf84be7	0.03030963
202	0x3d26550b	0.040608447
203	0xbe5687cb	-0.20950238
204	0xbe5a6fcd	-0.21331711
205	0xbd99d0a2	-0.07510497
206	0xbb974000	-0.0046157837
207	0xbd708db6	-0.058728896
208	0xbcfd7f61	-0.030944528
209	0xbe87aa52	-0.26497132
210	0x3c426d9a	0.011866951
211	0xbd831882	-0.06401159
212	0xbd9ce59e	-0.076609835
213	0xbd55cf1d	-0.05219947
214	0xbd95ef68	-0.07321054
215	0xbd851fd8	-0.06500214
216	0x3e1f8706	0.15578851
217	0xbe83ebdb	-0.2576588
218	0x3db6bc50	0.089226365
219	0x3c146d7c	0.009059306
220	0xbdf1bc26	-0.118034646
221	0x3e0d2049	0.13781847
222	0xbe931bc2	-0.28732115
223	0xbe493edb	-0.19652884
224	0x3d8510db	0.064973556
225	0x3dfff666	0.12498169
226	0x3c869c87	0.01643206
227	0x3c7e48cf	0.015520289
228	0x3d186686	0.03720715
229	0xbd45bc21	-0.048275117
230	0x3db93718	0.090437114
231	0xbdfc469d	-0.12318156
232	0x3baca8f2	0.0052691633
233	0xbc540256	-0.01294001
234	0x3e107804	0.14108282
235	0xbe3ed3cb	-0.1863548
236	0xbd4aa7de	-0.049476497
237	0x3c42181c	0.011846568
238	0xbe165812	-0.14682034
239	0x3d134098	0.035950273
240	0x3e231d54	0.15929157
241	0xbd91d800	-0.07121277
242	0xbdced31d	-0.100988604
243	0x3d1a579d	0.03768121
244	0xbd06788b	-0.032829802
245	0x3e1c15f6	0.15242752
246	0x3d21469c	0.03937398
247	0x3d0e90ac	0.03480594
248	0x3d957fd4	0.07299772
249	0xbd0f7d6a	-0.035031714
250	0xbd86c36e	-0.06580244
251	0xbd862865	-0.065506734
252	0x3d502295	0.05081423
253	0x3c777e2b	0.015105764
254	0xbd321485	-0.0434766
255	0x3dca4775	0.098769106

deconv.2.bias f4 [32]
0	0x3df335c3	0.118754886
1	0xbd336454	-0.043796852
2	0xbd32343b	-0.043506842
3	0x3d331f0c	0.04373078
4	0xbd9b776d	-0.07591138
5	0xbc479b1f	-0.01218298
6	0xbce06e0f	-0.02739623
7	0x3df0e925	0.11763219
8	0xbdea4ec6	-0.11440806
9	0xbd187ecf	-0.03723031
10	0x3ddb23ff	0.10700225
11	0xbc4eece3	-0.01262972
12	0x3d3d91e2	0.046281703
13	0x3d9a0b30	0.07521665
14	0x3cc6397f	0.024197338
15	0x3c1e74c9	0.009671398
16	0xbd5dbba3	-0.054134022
17	0x3d83935d	0.06424592
18	0xbcb018c9	-0.021496193
19	0x3d766abb	0.06016038
20	0x3c1f1fc7	0.009712166
21	0xbc63e823	-0.013910326
22	0xbe0d68b8	-0.13809478
23	0x3bf18db9	0.007371631
24	0x3d9372ac	0.07199606
25	0x3d0bafbe	0.034103148
26	0x3e1c0946	0.15237913
27	0xbe1ff922	-0.1562238
28	0xbdcbda3e	-0.09953736
29	0xbc1094de	-0.008824555
30	0xbcda43a4	-0.026643582
31	0xbc018206	-0.007904535

deconv.4.weight f4 [32, 16, 4, 4]
0	0x3e772e2a	0.24138704
1	0x3e1c2c2a	0.15251222
2	0xbcce4f12	-0.025184188
3	0x3e021382	0.12702754
4	0x3d977693	0.07395663
5	0xbe5502ca	-0.20801845
6	0xbdbaf30f	-0.09128391
7	0xbd1e1e41	-0.03860307
8	0x3e1b7611	0.15181758
9	0xbc2de317	-0.0106132245
10	0xbd1c77c0	-0.03820014
11	0xbdbda2d7	-0.09259575
12	0x3e20f5e5	0.15718801
13	0x3b904a0e	0.0044033593
14	0xbde2e23d	-0.11078308
15	0xbd93dd0a	-0.07219894
16	0xbdf9f2ef	-0.12204539
17	0xbe3882c4	-0.18018633
18	0xbcd28046	-0.025695931
19	0xbde4ab45	-0.111654796
20	0x3d127dd0	0.035764515
21	0xbe377521	-0.17915775
22	0xbdf480a7	-0.11938601
23	0x3d4cee71	0.050032083
24	0x3ca409cf	0.020024208
25	0x3bf7fe39	0.0075681475
26	0x3c3b5753	0.011434394
27	0xbd123180	-0.035691738
28	0x39e78d40	0.00044164993
29	0xbdab933b	-0.08377691
30	0xbda569f4	-0.080768496
31	0x3e605cdb	0.21910422
32	0x3dca99db	0.09892627
33	0xbc8e82c1	-0.017396333
34	0x3c889fbd	0.016677732
35	0xbd8c3766	-0.06846504
36	0x3d055978	0.032556027
37	0x3e18a88c	0.14908046
38	0xbdc47479	-0.09592528
39	0x3c087a15	0.008329888
40	0x3d700efb	0.058608036
41	0x3b8958fd	0.0041915164
42	0xbd98af4f	-0.074553125
43	0x3d38ede0	0.04514873
44	0x3e3fc262	0.18726495
45	0x3c28d931	0.010305689
46	0xbd997712	-0.07493414
47	0x3d986ad2	0.07442249
48	0x3d1321d5	0.035920937
49	0x3e488ee9	0.19585766
50	0x3e086e64	0.1332336
51	0xbddde8cd	-0.10835419
52	0x3c883fcf	0.016631989
53	0x3d06ce0c	0.032911345
54	0xbdacce23	-0.08437755
55	0xbcee5bef	-0.029096572
56	0xbde06109	-0.10956008
57	0xbd5765d2	-0.052587338
58	0xbe29a063	-0.16565089
59	0xbc90d7f7	-0.017681105
60	0x3e122f91	0.14275958
61	0x3e30b1bf	0.17255305
62	0x3e34f8a6	0.17672977
63	0xbbd4c74e	-0.0064934855
64	0x3ce1f2e9	0.027581649
65	0xbc26cc50	-0.010180548
66	0x3ddae91a	0.10688992
67	0x3c6d05ce	0.014466716
68	0xbe2cbdec	-0.16869324
69	0xbd10184e	-0.03517943
70	0x3e138b5a	0.14408627
71	0xbd6a1640	-0.057150126
72	0xbe4071ba	-0.18793383
73	0xbdc9d169	-0.09854395
74	0x3e012b91	0.12614276
75	0x3c58508e	0.0132027995
76	0xbe284b1f	-0.16434906
77	0x3c80352a	0.01565035
78	0x3db6e451	0.08930267
79	0xbd8f4c42	-0.06996967
80	0x3d934945	0.071917094
81	0x3e124db8	0.1428746
82	0xbe22fae6	-0.15916023
83	0xbd2268a9	-0.039650593
84	0x3e28e31e	0.16492888
85	0x3cc2ae1d	0.023764664
86	0xbd0a8224	-0.033815518
87	0x3d318960	0.0433439
88	0xbd9202a5	-0.07129411
89	0xbccefb20	-0.02526623
90	0xbe699a44	-0.22812754
91	0xbddd5683	-0.108075164
92	0x3d370c13	0.04468925
93	0x3deb1bf8	0.11479944
94	0xbda2750e	-0.07932483
95	0xbda59338	-0.080847204
96	0x3d763401	0.06010819
97	0xbd9c9980	-0.07646465
98	0x3dc7af40	0.09750223
99	0xbe194f6b	-0.14971702
100	0xbdcdc067	-0.100464635
101	0x3c8a9414	0.016916312
102	0xbda61b64	-0.08110693
103	0xbccb230a	-0.024796981
104	0xbe24e6da	-0.16103688
105	0xbd614c7e	-0.05500459
106	0xbd8aa9f7	-0.067706995
107	0xbd10dcd2	-0.03536684
108	0x3aa684b2	0.0012704341
109	0x3dba34a4	0.09092072
110	0xbd81e726	-0.06342916
111	0xbcd2c98e	-0.025730874
112	0x3e1d6267	0.15369569
113	0xbe266256	-0.1624845
114	0xbde26766	-0.11054878
115	0xbd00a176	-0.03140398
116	0xbe2581c1	-0.16162778
117	0xbd1d5d13	-0.03841884
118	0xbde67eb3	-0.11254635
119	0xbe62a57d	-0.22133441
120	0xbddfb2fd	-0.10922811
121	0x3d2a0736	0.041510783
122	0xbe66142a	-0.2246863
123	0x3db9f1e4	0.0907934
124	0x3c7982bb	0.0152289225
125	0xbc252019	-0.010078453
126	0x3d96e76d	0.0736836
127	0xbda0a9cf	-0.078448884
128	0xbbb60b92	-0.0055555785
129	0xbce84842	-0.028354768
130	0xbe36ed23	-0.17863898
131	0xbcb787b9	-0.022403585
132	0x3e11ee61	0.1425109
133	0x3cd06eeb	0.025443515
134	0xbe467fd3	-0.19384699
135	0xbe1298f4	-0.1431616
136	0xbe7afed6	-0.24511275
137	0xbdbe4faa	-0.092925385
138	0xbe2371db	-0.15961401
139	0xbce8ef4f	-0.028434424
140	0x3d90b647	0.07066017
141	0xbba11cc0	-0.0049167573
142	0xbdab0721	-0.08350969
143	0xbd75bc4f	-0.05999404
144	0x3b6eb5f3	0.0036424368
145	0x3da6ef49	0.08151109
146	0xbd9383b1	-0.072028525
147	0x3e0d7ead	0.13817854
148	0x3dbb0758	0.0913226
149	0x3ce7e89d	0.02830916
150	0xbda8ae6c	-0.08236393
151	0xbd50644d	-0.050876904
152	0xbe2cbb9d	-0.16868444
153	0x3e0655b5	0.13118632
154	0xbdbaac56	-0.09114902
155	0x3e335184	0.17511564
156	0x3cc9c69c	0.024630837
157	0x3dbf6002	0.09344484
158	0xbe110177	-0.14160715
159	0xbdacad45	-0.08431486
160	0xbdc80398	-0.097663105
161	0xbe1ac9df	-0.1511607
162	0xbcb53612	-0.02212051
163	0xbdd78ba7	-0.105246834
164	0x3d5bda2b	0.053674858
165	0x3dadbc01	0.084831245
166	0xbd8dd01c	-0.06924459
167	0x3d824b73	0.06362047
168	0x3d27e7f7	0.040992703
169	0x3dc66f08	0.09689146
170	0x3db209a0	0.08693242
171	0x3d8b5b80	0.068045616
172	0x3d58fe2c	0.052976772
173	0x3d6dfce5	0.058102507
174	0xbdaa555e	-0.08317064
175	0xbe01ccdb	-0.12675802
176	0xbda7ba81	-0.0818987
177	0x3cb4b66f	0.022059647
178	0x3b92b8e5	0.0044776076
179	0x3cfae97c	0.030628912
180	0xbdaae17f	-0.08343791
181	0xbdd7c182	-0.105349556
182	0xbd277764	-0.040885344
183	0xbddfc2c7	-0.10925823
184	0xbd9ec263	-0.0775192
185	0xbd2ce846	-0.0422137
186	0xbe48a40d	-0.1959383
187	0xbd60d330	-0.054888904
188	0xbe9bb855	-0.30414072
189	0x3da92897	0.08259695
190	0xbc438394	-0.011933226
191	0x3d50dd3a	0.050992228
192	0x3e167c3a	0.14695826
193	0x3d8e615e	0.06952165
194	0x3e1f4bfa	0.15556327
195	0x3da55367	0.08072548
196	0xbd159713	-0.03652103
197	0xbca67738	-0.02032052
198	0xbd99f299	-0.07516975
199	0xbe0a6361	-0.13514473
200	0x3a99046f	0.0011674295
201	0xbd9ddcf4	-0.07708159
202	0x3cf0f1c0	0.02941215
203	0x3ddcabc1	0.10774947
204	0xbe51458c	-0.20436686
205	0xbe505211	-0.20343806
206	0xbdd2a910	-0.10286152
207	0xbe614f79	-0.22002973
208	0xbe660131	-0.22461392
209	0xbd3a9941	-0.04555631
210	0x3d9a73ff	0.07541656
211	0x3d6fd4e3	0.058552634
212	0xbc632d69	-0.013865807
213	0xbe67dea7	-0.22643529
214	0xbe30a38f	-0.17249893
215	0xbd883282	-0.066502586
216	0xbd0f3325	-0.034960885
217	0x3d301557	0.0429891
218	0xbdce154b	-0.10062655
219	0xb933e67b	-0.00017156631
220	0x3cea81c3	0.028626328
221	0x3e0dc676	0.13845238
222	0xbe302cd8	-0.17204607
223	0x3ccc5c99	0.024946498
224	0x3e4a8865	0.19778593
225	0xbd631798	-0.055442423
226	0xbe28deea	-0.16491285
227	0xbcb15600	-0.021647453
228	0xbe1f9d87	-0.15587436
229	0x3d72971b	0.059226137
230	0xbe40dbd9	-0.18833865
231	0xbe0ec57f	-0.13942526
232	0xbc6ca294	-0.0144430585
233	0x3d9bcf29	0.07607872
234	0xbe1eb345	-0.15498073
235	0xbe88daf3	-0.26729545
236	0x3e668375	0.22511084
237	0x3e028602	0.12746432
238	0xbe55b6e8	-0.20870554
239	0xbdeba666	-0.11506347
240	0x3d28cd0d	0.041211177
241	0xbcdb95a3	-0.02680475
242	0x3db5e748	0.08882004
243	0xbe27b1a4	-0.16376358
244	0x3d2ad952	0.04171116
245	0x3e8aee1a	0.27134782
246	0x3b955145	0.004556807
247	0xbd823760	-0.06358218
248	0xbd1017e7	-0.035179045
249	0xbe65c75d	-0.22439332
250	0xbc8cb5ff	-0.017176626
251	0xbd93c205	-0.07214741
252	0x3c7499ad	0.014929217
253	0x3d37d588	0.044881374
254	0x3a07e1ce	0.0005183489
255	0x3dcd4d51	0.100245126

deconv.4.bias f4 [16]
0	0x3d77cc16	0.060497366
1	0xbcd80749	-0.026370661
2	0x3cf045ed	0.029330218
3	0x3dc41035	0.09573404
4	0xbdc79c95	-0.097466625
5	0x3d77eb49	0.06052712
6	0x3cad4eb4	0.021155693
7	0xbe4b7425	-0.19868524
8	0xbbebb5d8	-0.0071933083
9	0xbdc347ca	-0.09535177
10	0xbe023761	-0.12716438
11	0x3d5cd3ac	0.053912804
12	0x3d6cc7aa	0.057807602
13	0xbcd91434	-0.026498891
14	0x3c5750b2	0.013141798
15	0xbd85e133	-0.06537094

deconv.6.weight f4 [16, 8, 4, 4]
0	0xbdbe1923	-0.09282138
1	0xbd8d2595	-0.06891934
2	0xbd319682	-0.043356426
3	0xbd12dfd8	-0.035858005
4	0xbd10e787	-0.03537705
5	0xbe1c17ef	-0.15243505
6	0x3d58f7d3	0.05297072
7	0xbda65321	-0.08121324
8	0xbd60810b	-0.054810565
9	0x3cc94166	0.024567317
10	0xbe309290	-0.17243409
11	0xbc9eb497	-0.019373221
12	0xbc85b2d7	-0.016320629
13	0xbe758e2e	-0.23980018
14	0xbc59e20e	-0.013298525
15	0xbc3f0a45	-0.011660163
16	0xbd9571b3	-0.07297077
17	0x3d9674a6	0.07346468
18	0xbdeb7487	-0.11496835
19	0x3c583a9f	0.01319757
20	0x3db71599	0.08939666
21	0xbddcb5a4	-0.10776833
22	0xbd91c03f	-0.07116746
23	0xbdb76dc3	-0.08956482
24	0xbd3a4476	-0.045475446
25	0x3d955001	0.0729065
26	0xbe068e66	-0.13140258
27	0xbe2afd38	-0.16698158
28	0xbdf2b184	-0.11850265
29	0x3d6d26e9	0.057898436
30	0xbe20e60e	-0.15712759
31	0xbd5da139	-0.054108832
32	0xbcb498c6	-0.022045504
33	0x3b73aad2	0.0037180674
34	0x3bff8360	0.0077976435
35	0xbd1c5c21	-0.0381738
36	0x3c1a77c2	0.009427967
37	0x3e158bf3	0.14604168
38	0xbd28621f	-0.0411092
39	0xbe8da0a5	-0.27661625
40	0xbd5bbb67	-0.053645518
41	0xbde17f9e	-0.11010669
42	0x3e09a7a7	0.1344286
43	0xbe2c634f	-0.16834758
44	0xbe151187	-0.14557467
45	0xbd8e80d0	-0.06958163
46	0x3db2ec74	0.08736506
47	0xbc90313c	-0.017601602
48	0x3dec6e50	0.11544478
49	0x3c7e8f6d	0.015537125
50	0xbd941d36	-0.07232134
51	0xbe892e96	-0.26793355
52	0xbc95edd6	-0.018301886
53	0xbccdbd9a	-0.025114823
54	0xbe032a36	-0.12809071
55	0xbde444d9	-0.11145944
56	0xbe6c52fa	-0.23078528
57	0xbdd68d65	-0.104761876
58	0x3ce250aa	0.027626354
59	0x3cec61ac	0.028855167
60	0xbe5ff518	-0.2187084
61	0xbdc4cf66	-0.096098706
62	0xbe22ca2b	-0.15897433
63	0xbe5f31e1	-0.21796371
64	0xbdf615c1	-0.12015868
65	0x3dc90626	0.09815626
66	0x3e07e832	0.13272169
67	0xbdccad2b	-0.09993967
68	0x3e47faca	0.19529262
69	0x3dc7b159	0.09750623
70	0x3db28f0d	0.08718691
71	0xbcd9ab1f	-0.026570855
72	0x3c75449d	0.014969972
73	0xbe035810	-0.12826562
74	0x3d86ac7f	0.0657587
75	0xbd13d9f4	-0.03609653
76	0x3dc73cd5	0.097284
77	0x3e2bb443	0.16767983
78	0x3e8cbe0c	0.27488744
79	0xbe319326	-0.17341289
80	0xbc513b0e	-0.012770427
81	0xbd376db4	-0.044782355
82	0x3d877d74	0.06615725
83	0x3dc4f2e0	0.09616637
84	0xbd8f53eb	-0.06998428
85	0xbc9e5b12	-0.019330535
86	0xbe4ddaf7	-0.2010306
87	0x3c21c054	0.009872515
88	0xbe46d97a	-0.19418898
89	0xbe2c80b1	-0.16845967
90	0xbd50ecef	-0.051007207
91	0xbe044ba2	-0.12919477
92	0xbe65ed48	-0.22453797
93	0x39b74c4a	0.0003496132
94	0xbdbda16d	-0.09259305
95	0xbea338be	-0.31879228
96	0xbe33a4ac	-0.17543286
97	0xbe25ae5c	-0.16179794
98	0xbe20257e	-0.15639302
99	0x3cd0f0c8	0.025505438
100	0x3e0ce0b8	0.13757598
101	0xbe260d32	-0.16215971
102	0xbc42961b	-0.011876608
103	0xbe5ff330	-0.21870112
104	0xbe335788	-0.1751386
105	0xbe112ace	-0.14176485
106	0xbd4a7fda	-0.049438335
107	0xbd1fcb04	-0.03901197
108	0xbe45b8ad	-0.1930873
109	0x3b11d501	0.0022252204
110	0x3d769f25	0.060210366
111	0xbc9477dc	-0.01812356
112	0xbde75a3a	-0.11296506
113	0x3d832cb7	0.06405013
114	0xbdaa8787	-0.08326631
115	0x3d8823df	0.06647467
116	0xbe33d225	-0.17560633
117	0x3b9d4a94	0.00480015
118	0xbe58d2f1	-0.21174218
119	0xbe027d6a	-0.12743154
120	0x3dc27195	0.0949432
121	0xbdfd1af8	-0.123586595
122	0xbea6f7bc	-0.3261088
123	0x3e20406c	0.15649575
124	0xbe79005b	-0.24316542
125	0x3dcb725d	0.099339224
126	0xbe1a0672	-0.15041521
127	0xbd168e94	-0.036757067
128	0xbe60b271	-0.2194307
129	0xbd9629de	-0.07332204
130	0x3ce00160	0.027344406
131	0xbe0d19bc	-0.13779348
132	0xbdd33c3f	-0.103142254
133	0xbe603266	-0.21894225
134	0x3c039756	0.008031687
135	0xbe6322a9	-0.2218119
136	0x3d18db52	0.037318535
137	0x3db63b45	0.088980235
138	0x3b6efa83	0.0036465235
139	0x3db214cf	0.08695375
140	0x3e130c25	0.14360102
141	0x3ba9054f	0.0051581035
142	0x3c8114ff	0.015757082
143	0xbdd77e61	-0.10522152
144	0x3d454344	0.048159853
145	0x3d7b102d	0.061294723
146	0xbd8231ee	-0.063571796
147	0x3dbdb82e	0.09263645
148	0x3e82b86b	0.25531325
149	0x3d29f859	0.04149661
150	0x39c47f7b	0.00037479014
151	0x3e8b519c	0.272107
152	0xbcf1db0b	-0.029523393
153	0x3daf5a1c	0.08562109
154	0xbd69ac3c	-0.05704902
155	0x3e42c5d2	0.19020775
156	0x3d8d9ed1	0.069150575
157	0x3db98de7	0.09060269
158	0xbd3109f2	-0.043222375
159	0xbd9b5fc3	-0.075866245
160	0xbe941d36	-0.28928536
161	0x3c3e15cf	0.011601879
162	0x3e15d314	0.14631301
163	0xbd81c4ed	-0.06336389
164	0xbde2a89d	-0.11067317
165	0xbd69357a	-0.056935765
166	0xbdc995ad	-0.098430015
167	0x3dd19c80	0.10234928
168	0xbde6b7ae	-0.11265503
169	0xbe32dcd0	-0.17467046
170	0x3dfc2b08	0.12312895
171	0xbe1edf18	-0.15514791
172	0x3d5c8e24	0.053846493
173	0xbe6479f1	-0.22312142
174	0xbc8af62e	-0.01696309
175	0xbea1c01a	-0.31591874
176	0xbd5249f9	-0.051340077
177	0x3d1815fe	0.03713035
178	0xbdef0f85	-0.11672882
179	0xbdcc4c3f	-0.0997548
180	0x3d048843	0.03235651
181	0x3e236ae9	0.15958752
182	0xbd6060eb	-0.05477993
183	0x3b03d83b	0.0020117897
184	0xbde4a5e7	-0.11164456
185	0xbd75cccd	-0.060009766
186	0xbd31a746	-0.043372415
187	0xbdef9b42	-0.11699535
188	0xbc6148f7	-0.013750306
189	0x3da968e0	0.082719564
190	0xba3c42e2	-0.0007181597
191	0xbea281d2	-0.3173967
192	0xbdc276b1	-0.09495295
193	0xbd01f53d	-0.031728018
194	0xbe1c591e	-0.1526837
195	0xbd3c2e6e	-0.045942716
196	0xbdc34740	-0.09535074
197	0x3ea193f1	0.31558183
198	0xbc225e71	-0.009910212
199	0xbd982042	-0.07428028
200	0xbd63aed9	-0.05558667
201	0x3db9f4e7	0.090799145
202	0xbd0807d9	-0.03321061
203	0xbdb3b171	-0.08774079
204	0xbe222823	-0.15835623
205	0x3c9274a1	0.017877879
206	0x3d30dd14	0.043179587
207	0x3cdfcc6e	0.02731916
208	0xbc8e50b1	-0.017372461
209	0xbe890690	-0.2676282
210	0xbd381be2	-0.044948466
211	0xbc9ac8d4	-0.01889459
212	0x3de67610	0.112529874
213	0xbd8ae79e	-0.06782459
214	0x3c9914ce	0.018686678
215	0xbd0a7bef	-0.0338096
216	0x3e0ab74e	0.13546488
217	0x3c9fb0f5	0.01949356
218	0xbe406c6f	-0.18791364
219	0xbdf270f5	-0.11837951
220	0x3dbf064e	0.093273744
221	0xbd78df22	-0.06075967
222	0x3db860a9	0.090028115
223	0xbc3442b5	-0.011002232
224	0x3e6ec334	0.23316652
225	0x3e6d2e51	0.231622
226	0xbbcfdd4c	-0.0063435193
227	0x3c9c5b27	0.019086434
228	0xbe71296f	-0.23550962
229	0xbe1eff8e	-0.15527174
230	0xbd3ab686	-0.045584224
231	0x3d1f4068	0.038879782
232	0xbce7bf60	-0.028289497
233	0x3def91d5	0.11697737
234	0xbdd7f910	-0.10545552
235	0xbb837137	-0.004011299
236	0x3dbaa245	0.09112982
237	0xbd9ae22c	-0.0756267
238	0xbdee6c55	-0.116417564
239	0xbdfcf8aa	-0.123521164
240	0x3d866590	0.0656234
241	0x3c19cc08	0.009387024
242	0x3e44a938	0.19205177
243	0xbe1aa854	-0.15103275
244	0xbcbd5eda	-0.023116518
245	0x3d8d4118	0.06897181
246	0x3e54474f	0.20730327
247	0x3d15c741	0.036566976
248	0xbdd1a88c	-0.10237226
249	0x3dac86ab	0.084241234
250	0x3e62ffa0	0.22167826
251	0xbdc8b4dd	-0.09800122
252	0xbc64b32f	-0.013958736
253	0x3e3ee366	0.18641433
254	0x3e5ba677	0.2145022
255	0x3db545aa	0.08851178

deconv.6.bias f4 [8]
0	0xbd5fd5c6	-0.05464723
1	0xbcedf919	-0.029049443
2	0xbe49fd85	-0.19725616
3	0xbcc6f43a	-0.024286378
4	0x3c947dfb	0.018126478
5	0xbd70d7c1	-0.05879951
6	0xbbf510eb	-0.0074788234
7	0xbd7f4264	-0.062319174

deconv.8.weight f4 [8, 4, 4, 4]
0	0x3e911e0a	0.2834323
1	0x3e3ba999	0.18326415
2	0xbc7d81ae	-0.015472813
3	0xbe2ed862	-0.17074731
4	0xbdb8002e	-0.08984409
5	0xbe7eec0c	-0.24894732
6	0xbe29ff3c	-0.1660127
7	0xbd0d90d0	-0.034561932
8	0xbd343948	-0.04399994
9	0x3ea17b77	0.3153951
10	0x3d16172a	0.036643185
11	0xbd43f0b4	-0.047836974
12	0xbe82c91c	-0.2554406
13	0xbb6ba99f	-0.0035959256
14	0x3e632756	0.22182974
15	0x3db38544	0.08765653
16	0xbe56f682	-0.20992473
17	0xbe027f53	-0.12743883
18	0x3d99b51f	0.07505249
19	0xbdb4f7d9	-0.08836336
20	0x3e78c3ee	0.24293491
21	0xbdda5018	-0.10659808
22	0x3c800e70	0.015631884
23	0x3e0b9c8a	0.13633934
24	0x3d0b8daa	0.03407065
25	0xbe7dde33	-0.24791794
26	0xbd70fd51	-0.05883533
27	0x3a1f1e76	0.00060699077
28	0xbd65162f	-0.05592936
29	0x3dde3061	0.10849071
30	0x3e0afeec	0.13573807
31	0x3cc8cc42	0.02451146
32	0x3e4429ef	0.19156621
33	0xbe88e992	-0.267407
34	0xbd5ed6f9	-0.054404233
35	0x3dfe9083	0.12429907
36	0xbe2911b1	-0.16510655
37	0xbde79875	-0.11308376
38	0x3db01b1c	0.08598921
39	0x3e32b3ac	0.17451352
40	0x3dd285be	0.102794155
41	0xbec783ec	-0.38967836
42	0xbd2d91ec	-0.04237549
43	0xbece3970	-0.40278196
44	0xbe4fc739	-0.20290841
45	0xbe1a1bce	-0.15049669
46	0xbd6614b0	-0.056172073
47	0x3e03313b	0.12811749
48	0x3d94fab0	0.07274377
49	0x3d94c575	0.072642244
50	0x3d88c777	0.0667867
51	0x3e93c6d6	0.28862637
52	0x3dd02c7a	0.10164733
53	0x3d8f74b9	0.07004685
54	0x3d82f7f2	0.06394948
55	0x3b7b47af	0.0038342287
56	0x3d9f1f81	0.07769681
57	0xbe84f751	-0.25969937
58	0x3e5aad6b	0.21355216
59	0xbd0a49f6	-0.03376194
60	0xbe083b04	-0.13303763
61	0xbd485bcf	-0.04891568
62	0x3dfa2907	0.122148566
63	0x3d620b05	0.05518629
64	0xbe762ddb	-0.2404093
65	0x3e92aae1	0.28645995
66	0xbc12916b	-0.008945803
67	0xbdecc154	-0.11560312
68	0xbe481397	-0.19538723
69	0x3e3add2b	0.18248431
70	0x3eb90222	0.3613444
71	0xbe7703b6	-0.2412251
72	0x3e4b6ad0	0.19864964
73	0xbcdf8d3b	-0.027289024
74	0xbd85d359	-0.06534452
75	0xbd1a0f8e	-0.03761249
76	0xbc23fb70	-0.010008678
77	0x3dec0ee5	0.115262784
78	0xbdeaddd5	-0.11468092
79	0x3dced1e9	0.10098631
80	0xbda2c3af	-0.0794748
81	0xbe817592	-0.25285012
82	0xbd1c35e2	-0.038137324
83	0xbdac224f	-0.08404981
84	0xbd8abecc	-0.06774673
85	0xbd4eced8	-0.05049023
86	0x3d7d2d6c	0.061810896
87	0xbd6ba9f3	-0.057535123
88	0xbcd85dc3	-0.026411897
89	0x3db47cee	0.08812891
90	0x3e2b6c62	0.16740564
91	0xbe24fc9c	-0.16111988
92	0xbdae6a13	-0.08516326
93	0x3e948e78	0.29014945
94	0x3dd72f91	0.105071194
95	0xbe14734e	-0.1449711
96	0x3e0b6381	0.13612176
97	0x3de2f9e9	0.11082823
98	0xbd35525a	-0.04426799
99	0x3df2c69d	0.11854289
100	0x3de4f9a1	0.111804254
101	0xbd5d0979	-0.053964112
102	0x3e326e3b	0.17424862
103	0x3d4c627e	0.049898617
104	0xbc5747cf	-0.013139679
105	0xbdc36c79	-0.09542174
106	0xbe1b6e7a	-0.15178862
107	0xbdba7d8c	-0.091059774
108	0x3de819f0	0.11333072
109	0xbe0349ce	-0.12821123
110	0xbe12e8f6	-0.1434668
111	0x3d2b32b6	0.04179641
112	0x3dec764a	0.11545999
113	0x3d3bb1c8	0.045823842
114	0x3de97c7d	0.114006974
115	0x3e8270bb	0.25476632
116	0xbc3af638	-0.011411242
117	0x3e75e9b1	0.24014927
118	0x3df032c7	0.11728435
119	0x3d421395	0.047381956
120	0xbdf89f82	-0.12139799
121	0x3dcda83c	0.10041854
122	0x3d496463	0.049168
123	0x3e34200c	0.1759035
124	0x3cba9e0b	0.022780439
125	0xbe73d0ec	-0.23810166
126	0xbd5c8c33	-0.053844642
127	0x3adf680c	0.0017044558
128	0xbe820f1a	-0.25402147
129	0xbe19ab52	-0.1500676
130	0x3e44600e	0.19177267
131	0xbe3bfc48	-0.18357956
132	0xbe363d0d	-0.17796727
133	0xbec4f2b5	-0.3846642
134	0x3decdca7	0.115655236
135	0x3ecb5e7f	0.39720532
136	0x3c74b0bc	0.014934715
137	0x3e47a9c3	0.19498353
138	0x3dcaaeb8	0.09896606
139	0x3be9f0a4	0.0071392823
140	0xbde5c078	-0.11218351
141	0xbdf3f44d	-0.11911831
142	0xbe0042fd	-0.12525554
143	0xbe8a432e	-0.2700438
144	0xbd88c37c	-0.06677911
145	0xbd497a9b	-0.04918919
146	0xbe66c5bf	-0.22536372
147	0xbdc0fe9d	-0.09423564
148	0xbe1092cf	-0.14118503
149	0x3ba2c0cc	0.004966831
150	0x3c10ae1d	0.008830574
151	0xbdafacd4	-0.08577886
152	0xbd3199aa	-0.043359436
153	0xbca88977	-0.02057336
154	0xbd49d8e5	-0.049279112
155	0xbe4865c3	-0.19570069
156	0xbdffb91b	-0.12486478
157	0xbe300e6d	-0.17193003
158	0xbe38bf2b	-0.18041675
159	0xbe7cfff2	-0.2470701
160	0xbd0b042a	-0.033939518
161	0x3dfb1865	0.12260512
162	0xbe03d201	-0.12873079
163	0xbd2e2f91	-0.04252583
164	0xbcda6699	-0.02666025
165	0xbec7eceb	-0.39047942
166	0xbca8dc43	-0.020612841
167	0xbea99981	-0.33124927
168	0xbd809a0d	-0.06279383
169	0xbcf42e64	-0.029807277
170	0xbc1dbe2c	-0.00962786
171	0x3e008556	0.12550864
172	0xbc09014c	-0.008362126
173	0xbc920e53	-0.017829096
174	0xbe0f1eaf	-0.13976549
175	0xbdba26b9	-0.09089417
176	0xbdde64f3	-0.10859098
177	0xbe0d654d	-0.13808174
178	0xbd63050c	-0.055424735
179	0x3e1f962e	0.15584633
180	0xbd56f0c9	-0.052475724
181	0xbc248ae0	-0.010042876
182	0xbdd9f017	-0.10641497
183	0xbe5f91a2	-0.21832898
184	0x3daf81a8	0.08569652
185	0xbe266eb3	-0.16253166
186	0xbcced0cc	-0.025246046
187	0xbe190d7e	-0.14946553
188	0x3da22c20	0.079185724
189	0x3d75b129	0.059983406
190	0x3dc3ec26	0.09566526
191	0xbe7fe5db	-0.24990027
192	0xbe23618b	-0.15955178
193	0xbe0b4217	-0.1359943
194	0x3dd10198	0.10205382
195	0x3e110b3c	0.14164442
196	0xbe4770c0	-0.19476604
197	0x3e12b768	0.14327776
198	0xbec0b877	-0.37640736
199	0xbd24ed9d	-0.04026567
200	0xbd529412	-0.051410742
201	0xbe4438af	-0.19162248
202	0xbe1583d9	-0.14601077
203	0x3e5202bb	0.20508854
204	0xbe90d902	-0.28290564
205	0xbd6c736b	-0.05772726
206	0xbe31c128	-0.1735884
207	0x3d2243b1	0.039615337
208	0xbd6a8c99	-0.05726299
209	0xbb259838	-0.0025267731
210	0x3d56b5b0	0.052419364
211	0xbda92a3c	-0.08260009
212	0x3c87d6ce	0.016581919
213	0x3d77b759	0.06047759
214	0x3e0f9b1f	0.14024018
215	0x3cc56911	0.024097951
216	0xbdf6a938	-0.12043995
217	0xbba81a6a	-0.005130102
218	0x3a7b6320	0.0009589661
219	0xbdbfd176	-0.093661234
220	0xbd105d5b	-0.03524528
221	0x3d5e6f78	0.054305524
222	0x3e12bdf4	0.14330274
223	0xbc2f3164	-0.010692928
224	0x3dbe7019	0.09298725
225	0x3dd39a13	0.10332122
226	0xbdbdf5d5	-0.09275404
227	0xbe3c5e7d	-0.1839542
228	0x3c9441d9	0.018097805
229	0xbe8ac7c1	-0.27105525
230	0x3e2849bc	0.16434377
231	0xbdaa9ab4	-0.083302885
232	0x3c82f6ce	0.015986826
233	0x3dc91a6a	0.09819491
234	0xbe2aab15	-0.16666825
235	0x3e32df5e	0.1746802
236	0xbe543266	-0.2072235
237	0xbcbbca5b	-0.022923639
238	0xbd094c3d	-0.033519972
239	0xbe07da73	-0.13266926
240	0x3d72ca5d	0.05927502
241	0xbdb04de1	-0.08608604
242	0xbb676ffb	-0.0035314548
243	0x3ddb8722	0.10719134
244	0x3cd125aa	0.025530655
245	0xbe73054a	-0.23732486
246	0x3d99f764	0.07517889
247	0x3d5a8428	0.05334869
248	0xbc368a96	-0.01114144
249	0x3d2fdec2	0.042937048
250	0x3d60adbb	0.054853182
251	0xbcbad3e9	-0.022806125
252	0x3dd73ffa	0.105102494
253	0x3db21ce3	0.08696916
254	0x3d6858d0	0.056725323
255	0xbe5e4d48	-0.21709168

deconv.8.bias f4 [4]
0	0xbdb51015	-0.08840958
1	0xbbf5eacf	-0.007504798
2	0xbb99951c	-0.0046869647
3	0xba840daa	-0.0010074873

deconv.10.weight f4 [4, 1, 4, 4]
0	0xbbf8d24c	-0.0075934287
1	0xbdd831ad	-0.1055635
2	0xbe2bc59a	-0.16774598
3	0xbe45579a	-0.19271699
4	0xbce3c265	-0.027802655
5	0xbde49c9b	-0.111626826
6	0xbe664c9d	-0.22490163
7	0xbe9c4eb0	-0.30528784
8	0xbd2816a6	-0.041037224
9	0xbe23c138	-0.15991676
10	0xbe359a64	-0.17734677
11	0xbe1fb577	-0.15596567
12	0xbd0f666e	-0.035009794
13	0xbe03beec	-0.128658
14	0xbe78f324	-0.24311501
15	0xbe7dc2ca	-0.24781337
16	0x3e3aa9f5	0.18228896
17	0x3dd0d094	0.10196033
18	0xbca8a72d	-0.020587528
19	0x3d62acfa	0.055340745
20	0x3de80b79	0.11330313
21	0xba360716	-0.0006943805
22	0x3e392f7d	0.18084522
23	0x3e80b06b	0.25134596
24	0x3df139bb	0.11778589
25	0x3eabc553	0.33548984
26	0x3e1a2d94	0.15056449
27	0xbdb242ac	-0.08704123
28	0x3de5bc01	0.112174995
29	0x3e925839	0.28582934
30	0x3d7f8522	0.062382825
31	0xbe025722	-0.12728551
32	0xbe54ddb5	-0.207877
33	0xbd5364a1	-0.05160964
34	0xbd951004	-0.07278445
35	0x3d60e55f	0.054906245
36	0xbe39f792	-0.18160847
37	0x3d2049e8	0.039132982
38	0x3cae3232	0.02126417
39	0x3e88e1d2	0.26734787
40	0xbe6c6dbc	-0.23088735
41	0xbd36b3ba	-0.044604994
42	0xbdc06cce	-0.09395753
43	0xbd430455	-0.047611553
44	0xbdc5b372	-0.09653367
45	0x3d966b4d	0.07344685
46	0x3d8dcceb	0.069238506
47	0x3e4db430	0.20088267
48	0x3d4fcaff	0.0507307
49	0x3dfb2631	0.12263144
50	0x3db95de7	0.090511136
51	0x3e441741	0.19149496
52	0x3e876d0b	0.2645038
53	0x3de92540	0.11384058
54	0x3e192d93	0.14958791
55	0x3d8a1526	0.06742315
56	0xbca21863	-0.01978702
57	0xbe409543	-0.18806939
58	0x3e087fc3	0.13329987
59	0x3e5ae64f	0.21376918
60	0xbe6ced2a	-0.23137346
61	0xbd1a77ac	-0.037711784
62	0xbe18b8f9	-0.14914311
63	0x3df91dac	0.121638626
