weights/image_reconstruction_finetune-nd-0-eps-400.pth (torch, 463426 bytes, 24 tensors)

log_std f4 [2]
000000 6e 0b 57 3e 3c c8 2f 3e
       0.21000454 0.17166227

features_extractor.encoder.conv.0.weight f4 [4, 1, 3, 3]
000000 18 9c 23 3e 92 12 29 be 30 54 4d 3f 07 37 5c bf
       0.15977514 -0.1651099 0.80206585 -0.86021465
000010 e1 41 00 bf 09 f6 7a bf d8 ea 35 3e 0f 79 e8 bd
       -0.50100523 -0.9803167 0.17765367 -0.11351215
000020 44 63 88 3e fe 4f 80 3e 6c 8f d6 be 3e 04 b8 be
       0.26638234 0.2506103 -0.41906297 -0.35940737
000030 bc f3 8e be 24 8f 00 bf b0 35 be be b5 97 5b 3e
       -0.2792033 -0.50218415 -0.37150335 0.2144459
000040 eb a5 fb 3d bc d5 cf 3d 7f ad e9 be 9a f1 8c bd
       0.12287506 0.101481885 -0.4564018 -0.06882019
000050 9f 4b b2 3d fe c3 20 be 44 d7 98 3e cb 42 05 3e
       0.0870583 -0.15699765 0.29851735 0.13013761
000060 84 c3 6b be 89 cb d6 be 5b 8f b7 be 89 fc f1 3e
       -0.23023802 -0.4195216 -0.3585156 0.47262982
000070 cd 70 a9 3d d7 f8 66 3e ef 0e 23 be 88 72 b4 3d
       0.08273468 0.22555862 -0.15923665 0.088109076
000080 e4 ff 9a bd b5 a8 a2 3e 3b 4e a0 3e b3 cf 26 be
       -0.075683385 0.31769338 0.31309685 -0.16290168

features_extractor.encoder.conv.0.bias f4 [4]
000000 49 aa 23 be e2 4d 6b be 24 b7 2c bd 2f da c0 bc
       -0.15982927 -0.22978929 -0.042166844 -0.023541538

features_extractor.encoder.conv.2.weight f4 [8, 4, 3, 3]
000000 d1 ef c4 3d 5b 48 5c 3e 1d bb 2f 3d e4 d3 9c b9
       0.09616054 0.21511976 0.042903055 -0.0002991251
000010 b4 df 74 3e 48 46 78 3d 99 86 b7 be 8c 50 12 3d
       0.23913461 0.0606139 -0.35844877 0.035721347
000020 ca b1 c6 3d b9 72 6d 3c ad 2b 90 3e 21 da fb 3d
       0.09701879 0.014492684 0.28158322 0.12297464
000030 2e 78 c0 bd cc 80 d4 3d 73 58 ca be 31 67 b4 3b
       -0.093979225 0.103761286 -0.39520606 0.0055054654
000040 de 61 08 3e 4a e1 02 3d cf a3 a7 bd b4 ec 99 be
       0.13318583 0.031953134 -0.08185541 -0.30063403
000050 84 07 96 be bd 9a 7c 3e 39 ea 74 be 30 92 5f be
       -0.2930261 0.24668403 -0.23917474 -0.2183311
000060 03 14 0a bd 2f 46 8e be 35 68 2e be 05 f1 31 3d
       -0.03371049 -0.2778792 -0.1703194 0.043442745
000070 b0 ed 45 be de de ed bd 79 a9 40 bd 12 73 e7 bc
       -0.19328952 -0.11614774 -0.04703662 -0.028253112
000080 ac ca 93 bd 79 7b 4d 3e 9d ea b6 3d 8f 6e b1 bd
       -0.07216391 0.20066632 0.08931468 -0.086636655
000090 28 11 9c be b9 48 5d 3e 8e 88 48 be 25 9d b0 3c
       -0.3048184 0.21609773 -0.19583341 0.021559307
0000a0 d1 c5 9a 3d 9e 99 69 bd a1 b8 f7 3c 60 74 79 bd
       0.07557262 -0.057031266 0.030239405 -0.060902
0000b0 c2 03 bc 3d e9 c4 02 3d d7 3f 4c bd 69 c6 01 be
       0.09180404 0.03192607 -0.04986557 -0.12673344
0000c0 78 4c 8b 3e ca e9 4d be d2 e6 f7 3d d5 73 a6 be
       0.2720678 -0.20108715 0.12104572 -0.32510248
0000d0 eb 22 7d 3e d5 52 0d be de cd 3a be 49 93 e0 3e
       0.24720351 -0.13801129 -0.18242595 0.4386237
0000e0 90 21 9d 3c 36 b6 c4 3b 0e e0 15 be fd 34 74 be
       0.019181043 0.0060031665 -0.14636251 -0.23848338
0000f0 dd e6 5f 3d d0 1e 0d be 58 65 c9 3d 55 78 56 3e
       0.054663528 -0.13781285 0.09833783 0.2094434
000100 bd fb 4c 3e 77 dd 0b be 79 f5 fa bd 44 55 15 be
       0.20017906 -0.13658701 -0.122538514 -0.14583308
000110 2c 35 e4 3e 4e a9 fc bc 80 27 92 bd 80 50 fb 3d
       0.44571817 -0.03084245 -0.0713644 0.122712135
000120 d8 f6 d1 bd ef 13 93 be 33 00 e4 bc 40 1f 04 be
       -0.1025216 -0.28726146 -0.027832126 -0.12902546
000130 bb e8 83 be 81 be d7 be 24 dc 2e bd 43 44 67 be
       -0.25763497 -0.4213753 -0.04269041 -0.22584634
000140 2e fb 07 be c0 1b 30 be a5 f9 eb 3b 37 ff 47 3e
       -0.13279411 -0.17198086 0.007201391 0.1953095
000150 13 10 de be 64 b3 2c be 02 c9 e6 3d ce 45 86 be
       -0.4337164 -0.16865307 0.11268808 -0.26225132
000160 7c 28 3f 3d e2 d0 9e 3e d0 fa 56 3e 1e e9 31 be
       0.04666947 0.3101874 0.20994115 -0.17374083
000170 7f 2e 24 be af e9 99 3d 08 e1 c3 be b6 6d e1 bd
       -0.16033362 0.07515275 -0.38257623 -0.11007254
000180 22 e7 5e 3e 02 a2 ba 3e 55 bc 72 bc 3a 33 1d 3c
       0.21767858 0.36451727 -0.01481541 0.009594733
000190 8d 48 a1 3d 03 00 11 bd 62 60 47 3e 00 21 73 bd
       0.07875166 -0.0354004 0.19470361 -0.059357643
0001a0 1e d4 b8 3d e3 02 03 be dc 5f 98 3e b9 fc 77 3e
       0.09024833 -0.1279407 0.29760635 0.242175
0001b0 0e f5 32 bd 48 ce a8 3d 28 79 a2 be 4e 9f 2e 3d
       -0.043690734 0.0824247 -0.3173306 0.042632394
0001c0 dc bc b2 3c 78 05 33 be 0f 06 3e 3c e9 84 0e be
       0.02181857 -0.17482555 0.011598124 -0.13917889
0001d0 e4 30 42 be e4 30 1e 3d 8e d3 65 be d0 04 85 3e
       -0.18963963 0.038620844 -0.22443983 0.25980234
0001e0 d4 7c 09 3e d0 69 69 bd 0f 9f 82 3e 3c 23 b0 bd
       0.13426524 -0.056985676 0.25511977 -0.086004704
0001f0 52 f6 2e 3e cd 15 24 3d f2 11 dd be c6 ad 67 3e
       0.17086151 0.040059853 -0.43177754 0.22624883
000200 b4 a0 68 3e be 4b 78 3a 7e 72 d3 bd 0f c4 96 be
       0.22717553 0.00094717357 -0.10324572 -0.29446456
000210 96 2d 3c 3e c0 93 03 be 85 45 82 3e 82 3d 70 3e
       0.18376765 -0.12849331 0.25443664 0.23460963
000220 4d 27 9b be 3c 46 2a 3e 9a 49 e6 be a3 9b 0e 3e
       -0.30303422 0.16628355 -0.4497803 0.13926558
000230 00 a0 39 3e fd 1a 48 3d 71 e2 58 3e 4d c8 66 bd
       0.18127441 0.048853863 0.2118013 -0.056343365
000240 c9 1a fd 3c 63 35 83 3e 59 88 ae 3d 2c 99 ef 3c
       0.030896561 0.25626668 0.085221 0.029247843
000250 43 16 5f bd ad 29 fd 3d bb 4f cc 3d 43 29 ff bd
       -0.05446459 0.12361465 0.09976145 -0.12459042
000260 77 48 1d 3e b3 30 96 3c 9f 5a fd bc 5e cb 56 be
       0.15359674 0.018333768 -0.030927 -0.20976016
000270 76 d4 09 be 01 d6 d6 bd 7d 13 25 bf ca 1d d5 3d
       -0.13459954 -0.10490037 -0.6448286 0.104060724
000280 d7 22 00 3d 98 65 ba bd dc 10 10 3e 07 ed be 3b
       0.031283226 -0.09101409 0.14068931 0.0058265957
000290 c9 23 2b 3e 09 bb f8 3e 42 48 10 bf 15 41 bc 3e
       0.1671287 0.48580196 -0.56360257 0.36768404
0002a0 1f c9 e2 be 3a 85 29 3d 5c 60 a1 3e 69 1e ba 3e
       -0.44294068 0.04138682 0.3151883 0.36351326
0002b0 e0 b6 d9 be 40 aa d0 be ca 1e 23 be 4b fa fd 3c
       -0.42522335 -0.4075489 -0.15929714 0.031003138
0002c0 43 10 25 3e 7f fe 3d be 98 1a bd 3d 51 b9 51 3e
       0.16119485 -0.18554114 0.09233588 0.20480849
0002d0 d1 28 f3 3d 2b 35 80 be 70 6f 8c bd af 0c 66 3e
       0.118730195 -0.25040564 -0.068571925 0.22465776
0002e0 75 10 71 3d 42 e0 65 3d 36 33 68 3e 5c 13 d6 3d
       0.058853585 0.056122072 0.22675785 0.10452911
0002f0 a8 bb d4 bd 49 27 45 3e d5 ae f3 3c 12 9f 65 3e
       -0.10387355 0.19253267 0.029746452 0.22423962
000300 e2 8a b6 bd d9 a6 99 3e aa 66 76 3e e3 f9 22 3e
       -0.089132085 0.30010107 0.240626 0.15915637
000310 43 88 0f bb 83 26 91 3e 50 af 02 bc 35 e3 ef bc
       -0.0021901287 0.28349695 -0.007976368 -0.029283145
000320 2d 42 41 be 8d 07 4e bf ad ab 0b 3e 80 8f b4 be
       -0.188729 -0.8048027 0.13639708 -0.35265732
000330 2f ef 87 3e 97 29 c1 3d 00 37 6f bc 55 74 5d 3c
       0.2654967 0.09431761 -0.014600515 0.013516505
000340 c7 67 f0 bc 5d 5e 64 3e dd 31 7f 3a 08 1f 7c bd
       -0.02934636 0.22301622 0.0009734908 -0.06155303
000350 c7 b2 8e 3d fb 50 d0 3d 8a 49 0c bf 1d 52 ec 3d
       0.06967693 0.10171696 -0.5479971 0.11539099
000360 f2 7c 4e be 13 64 b2 bc bc cb bc bc 83 30 1e bf
       -0.2016485 -0.021776235 -0.023046367 -0.61792773
000370 62 96 c3 be f9 d3 a9 3d bb 70 91 3a ad 2e 99 3d
       -0.3820067 0.08292384 0.0011096218 0.07479606
000380 95 4c de bc c8 04 8d 3e a0 3b 9c be e5 79 06 be
       -0.027136127 0.2754271 -0.3051424 -0.13132437
000390 e8 d8 b0 3e e1 9c 4f be f8 02 86 3e 1f 56 38 3e
       0.34540486 -0.20274688 0.2617414 0.18001603
0003a0 d9 81 60 be 2f 5e d9 3e 0e e4 43 be 21 2d 81 bd
       -0.21924533 0.4245467 -0.19129965 -0.06307436
0003b0 2a 25 7f 3e 2d 21 81 be 71 62 4c be 2f d2 b0 be
       0.2491652 -0.25220624 -0.19959427 -0.34535357
0003c0 2e ee 3b be df 2f 99 bd b8 ce 9a bd 1f 85 d5 bd
       -0.18352577 -0.07479834 -0.0755896 -0.104257815
0003d0 fc a4 f3 3c a7 7c a1 be 97 b2 28 3e 47 e4 82 3e
       0.029741757 -0.31540415 0.16474377 0.25564787
0003e0 27 c5 08 be 33 31 ad bd 4f d4 96 3d fb 93 2d 3d
       -0.13356458 -0.0845665 0.073647134 0.042377453
0003f0 5a c5 ac bd 8c 4d fb be 29 5d 38 be 44 3e fb 3c
       -0.08436079 -0.490826 -0.18004288 0.030669339

features_extractor.encoder.conv.2.bias f4 [8]
000000 22 c3 cb bc 7a a9 e4 bc fd 13 33 3c cd 8c 50 bc
       -0.02487332 -0.027912844 0.010930059 -0.012728882
000010 0d 1c b7 3b 03 23 c4 bd 06 3c 6c bc 3e c2 9b bc
       0.0055880607 -0.095769905 -0.014418608 -0.01901352

features_extractor.encoder.conv.4.weight f4 [16, 8, 3, 3]
000000 32 30 34 3e e8 73 ac 3e ea 30 8a 3c 4b ab 12 be
       0.1759651 0.3368218 0.016869027 -0.14323156
000010 19 e9 8d bd 24 a7 8d 3c 60 4f ff ba 3b 29 04 bf
       -0.069292255 0.017291613 -0.0019478612 -0.5162541
000020 c8 58 5d bd 2e 1a df bd 5d 46 22 be 5f 16 c4 bc
       -0.054039747 -0.10893665 -0.15847154 -0.023936449
000030 04 19 20 bc 6a aa 39 be a9 20 a1 3e 18 42 34 3d
       -0.009771589 -0.18131414 0.3147023 0.044008344
000040 6e 4f 07 be c8 4d 96 bd 25 e7 63 3e d3 87 0e be
       -0.13213894 -0.07339054 0.22256143 -0.13919
000050 90 9b 1b 3e 43 75 78 3d 67 4f 62 bd 8c 1c aa 3d
       0.15196061 0.060658704 -0.055251505 0.08306226
000060 92 0e e2 be fe 18 45 bd 24 4b 1b 3e 35 ad 18 3e
       -0.4415174 -0.048119538 0.15165383 0.14909823
000070 9f cb 10 3d ff 13 b2 ba a7 5f 49 3e 2b 3c e3 3d
       0.03535044 -0.0013586282 0.19665395 0.110954605
000080 d6 98 78 3e fb a7 29 be 90 75 ee 3d 19 64 34 bc
       0.24277052 -0.16567986 0.11643517 -0.011010193
000090 71 b4 d5 3d 91 37 87 be 76 3f 9f bd dc ec 22 3e
       0.10434807 -0.2640958 -0.07775776 0.15910667
0000a0 35 7a 32 be c4 1d 91 3d 9a 6d 1a be f4 c2 13 be
       -0.17429431 0.070857555 -0.15080872 -0.14429837
0000b0 90 58 97 3d 78 82 d9 bd 6c 0a 03 3e 2a dd 75 be
       0.07389939 -0.10620588 0.12796944 -0.24010149
0000c0 cb 7d 76 bd f7 32 91 be 5b 00 94 be cc 0b 21 3e
       -0.06017856 -0.28359196 -0.2890652 0.15727156
0000d0 f6 a5 cc bd 3e 0b f9 bb 88 87 98 bd b3 19 fb 3c
       -0.09992592 -0.007600217 -0.074477255 0.030651903
0000e0 cc 29 12 be 58 a5 68 3e 9f ab ef 3e 98 8a 3b 3c
       -0.14273757 0.22719324 0.46810624 0.011446618
0000f0 f9 27 15 bd dc 0f dd bc b3 49 94 bc e6 7d 0d bc
       -0.036415074 -0.026985101 -0.018101549 -0.008635974
000100 e0 d5 cd bc 1b aa 63 be ce 76 2b ba 8b 84 c7 bd
       -0.025126398 -0.22232859 -0.00065408356 -0.097420774
000110 ca 89 12 3e 72 90 17 bd 3b 7f 3f bc 47 c9 9f be
       0.14310375 -0.03700299 -0.011688049 -0.3120825
000120 1c 3a c5 3d 19 64 80 be 97 e9 99 bc 16 33 ab bd
       0.09630224 -0.25076368 -0.018788142 -0.08359353
000130 b7 f5 e0 bd d1 0a 13 bd 30 74 9a 3c 25 ed 1c be
       -0.109843664 -0.035898987 0.01885423 -0.15324838
000140 94 89 3f 3d b9 24 6c 3d 9b 74 d7 bd aa 84 5c 3e
       0.046762064 0.05765221 -0.105202876 0.21534982
000150 f6 51 c4 bd cb d0 a0 3d 5f 11 e7 bd 2c 28 73 be
       -0.09585945 0.07852324 -0.1128261 -0.23745793
000160 f4 da 2e be e0 d7 8b be 22 6b f7 3d ee d3 d2 3e
       -0.17075711 -0.27313137 0.12080981 0.41177315
000170 18 2f 81 3d f6 56 6e be 0f 16 05 be 47 f9 2c 3d
       0.063078105 -0.2327536 -0.12996696 0.042229917
000180 53 f7 59 be 13 cf af 3c 0e 10 16 be 2f c3 51 bd
       -0.21285753 0.021461045 -0.14654562 -0.051211532
000190 d1 ce 33 be c7 22 25 3e 61 0c d8 bd fc 3a 9e be
       -0.17559363 0.16126548 -0.10549236 -0.30904377
0001a0 0e c6 15 3e bb 22 33 be 7b 74 e5 bd 30 96 88 3c
       0.14626333 -0.17493717 -0.112038575 0.016673177
0001b0 53 42 2c be f8 f4 02 3e f6 77 1b 3e 11 8b 52 3d
       -0.16822176 0.1278876 0.1518248 0.051402155
0001c0 47 62 a4 3e a2 61 9e bd e1 7a df bd 1c 6e 82 3d
       0.3210623 -0.07733466 -0.10912109 0.06368658
0001d0 6d 3f cf bd 60 da 0d 3e 9b 47 76 bd 10 e1 86 be
       -0.101195194 0.13852835 -0.060126882 -0.26343584
0001e0 c0 03 6a bb ae 0c 01 3c 31 4f de 3c 42 77 b3 3d
       -0.0035707802 0.007876558 0.02713737 0.08762981
0001f0 d0 76 f7 bd f9 65 bb 3d a9 93 db bd f5 de 42 3c
       -0.120832086 0.09150309 -0.10721523 0.011893977
000200 85 95 8e bd 5d 2b 84 be da af a3 3e d9 e9 9c bd
       -0.06962112 -0.25814334 0.31970102 -0.076617904
000210 f7 70 80 be 30 ff c1 3e d9 03 38 be 32 7b be bd
       -0.25086185 0.37890005 -0.17970218 -0.093008414
000220 fb 75 8e 3e a8 09 1b 3e 83 76 3a be 2b 21 52 be
       0.27824387 0.15140402 -0.18209271 -0.20520465
000230 40 90 aa 3e a6 a3 0c be 63 a4 96 be 94 91 96 3d
       0.3331318 -0.13734302 -0.29422292 0.073519856
000240 78 b5 9c be c3 03 88 be 3a 4f 64 3d f7 6f 12 be
       -0.306072 -0.2656537 0.05573962 -0.14300524
000250 64 01 58 be 34 bd b5 be 1b e9 c1 3d fd 39 4a be
       -0.2109428 -0.35495913 0.094682895 -0.19748683
000260 82 8a 11 be f0 d2 4d 3e bc 24 b4 3d dd 0c d4 bd
       -0.14212993 0.20099998 0.08796069 -0.10354016
000270 24 23 71 3e 30 cc 8d be 37 ed c4 3d f9 39 6c be
       0.23548561 -0.27694845 0.09615558 -0.2306899
000280 a6 11 fd 3d ac e5 12 be 7b 2e 0e 3e 9a 10 b4 bd
       0.12356882 -0.14345425 0.13884918 -0.08792229
000290 3d a5 88 be 21 cd 7e bd 54 1f 45 bd 5b 43 a8 be
       -0.26688567 -0.062207345 -0.04812558 -0.32863888
0002a0 e5 ac aa bc 79 f7 84 3c 71 d4 e0 3c 38 8a d0 3e
       -0.020834396 0.016231285 0.02744505 0.40730453
0002b0 d9 76 86 3e c5 ae 5c bd e4 d9 c4 3e a4 2d 5b 3e
       0.2626255 -0.05387761 0.38447487 0.2140413
0002c0 71 86 63 3e b7 4c 07 3e 38 9b 45 be 8a d7 4c be
       0.22219254 0.13212858 -0.19297493 -0.20004097
0002d0 69 34 eb 3e 9f 46 5b be 98 0c 16 bd f1 0c 0c 3d
       0.45938423 -0.21413659 -0.036633104 0.03419203
0002e0 bb 21 ac bc 6e 07 6d bd a9 9e 3f be dc 2c 00 3c
       -0.021012178 -0.057868414 -0.18712868 0.007823195
0002f0 5e 24 82 be 4c 02 a5 3e 1d 2b e2 3c 69 8b f7 3d
       -0.2541837 0.32228315 0.027608449 0.12087137
000300 fe 5e 93 be bb 2a 75 3d 7a b7 36 3c 87 74 a1 bc
       -0.2878341 0.059855204 0.011152143 -0.019708885
000310 25 c0 14 3e 91 9a 5c 3e ea ca 69 3d fe 2a 31 3c
       0.14526422 0.21543337 0.05707828 0.010813473
000320 d8 89 1a be a8 13 21 3e c4 d9 d0 bc 5e 38 53 3d
       -0.15091646 0.15730155 -0.025494464 0.051567428
000330 8b 78 45 3e f5 cf 9e bd 3a dc ab bd 3c 96 a4 3b
       0.19284265 -0.077545084 -0.08391614 0.005022792
000340 aa 5b f5 3c 17 25 a0 be 78 d3 b3 bc d6 c5 59 bd
       0.029950935 -0.31278297 -0.021951422 -0.053167187
000350 c1 0a c6 bd 18 b2 12 be 70 3b 10 be 26 34 c8 be
       -0.0967002 -0.1432575 -0.14085174 -0.39102286
000360 4b 9c e7 bc 1c 78 81 3e da 53 ce 3d 1b 91 f1 bd
       -0.028272768 0.2528695 0.10074587 -0.11795255
000370 e3 10 00 bd 1d d2 a3 3e 21 84 09 be bc 17 cd 3d
       -0.031266104 0.3199624 -0.1342931 0.100142926
000380 83 f4 b7 3d 59 bf 02 3c 21 3c fb 3c e9 de 52 3d
       0.08982184 0.007980191 0.03066832 0.051482115
000390 4b 70 0c be d5 da 24 be f2 cb 01 be 87 fc 22 3e
       -0.13714711 -0.16099103 -0.12675455 0.15916644
0003a0 a8 d0 b7 bd 70 e5 92 3d f2 94 01 be bc ee 0e be
       -0.08975345 0.07172668 -0.12654474 -0.13958257
0003b0 37 bf 0b be bc d1 d0 bd 9a d0 6b be 99 b7 9f be
       -0.13647161 -0.10196254 -0.23028794 -0.3119476
0003c0 c4 ad 12 3e 9f 0a 64 3e 72 3a 92 bd 17 c1 ec bd
       0.14324099 0.22269677 -0.07140054 -0.115602665
0003d0 c9 a9 6f bd a9 4e 37 3c 9d 13 e7 bd e2 1a 6f be
       -0.05851153 0.011188188 -0.11283038 -0.23350099
0003e0 dc 4e 3c bd 6e 55 13 bc c0 42 76 3e 63 ae 2a 3e
       -0.045973644 -0.008992536 0.240489 0.16668086
0003f0 de 79 03 be 3d 54 4a bb 16 bc 93 be 02 a8 32 be
       -0.12839457 -0.0030872964 -0.28854436 -0.17446902

features_extractor.encoder.conv.4.bias f4 [16]
000000 84 4b 10 bc c8 ad 19 bc 16 95 e2 bc b5 53 2a 3c
       -0.008807067 -0.009379812 -0.02765898 0.010395934
000010 76 f8 00 bd 34 b2 dc 3b 0b b7 20 bd b3 8b 8b bc
       -0.03148695 0.0067351107 -0.039237063 -0.017034387
000020 0e 00 7a bd 10 eb b9 bc 7a 2e 1d bc 61 1e 41 bc
       -0.06103521 -0.022695094 -0.0095936 -0.011787028
000030 82 3d ad bc 46 95 7f bc 56 dc 93 bd 80 c5 65 3d
       -0.021147493 -0.015599554 -0.0721976 0.056096554

features_extractor.encoder.conv.6.weight f4 [32, 16, 3, 3]
000000 c2 ba 49 3d 7f 85 61 be 2b 96 1e 3d 93 d7 f7 3d
       0.04925037 -0.22023581 0.03871743 0.121016644
000010 44 d5 2f 3e eb ec d6 3d 67 4b 65 bc 91 b5 b3 3d
       0.17171198 0.10494407 -0.013995028 0.087748654
000020 77 93 0a bd a3 c7 da 3c 0f b2 37 3c 3d c4 43 bd
       -0.03383204 0.026706522 0.011211886 -0.04779457
000030 ed 88 f9 3d ab 7f be 3d ef e8 bc bd e4 c8 88 bd
       0.1218432 0.093016945 -0.09224116 -0.06678942
000040 53 85 9d bd 50 e1 21 be ee 48 12 3e 99 28 fb 3c
       -0.07691445 -0.15808606 0.14285633 0.030659007
000050 d6 e5 5b bd e7 18 3e be d7 de f7 bd 1b 12 9d 3d
       -0.053685986 -0.18564187 -0.1210305 0.07669469
000060 10 0d 30 3e fc 4e c6 3c 94 22 1c 3c 39 a3 c6 3d
       0.17192483 0.024207585 0.009529728 0.09699101
000070 1d 1d 52 bd 3e 3a 30 3e 0c cb 31 3e c0 79 a1 3e
       -0.051297296 0.17209718 0.17362612 0.315382
000080 8a c0 29 be ef 53 96 bd 31 8e 13 3e 83 9c b0 bd
       -0.16577354 -0.07340228 0.1440971 -0.08623602
000090 19 0e 93 bc c5 c3 17 be 05 6f 24 3e 6c 04 b1 3c
       -0.017951058 -0.14820774 0.16057976 0.021608554
0000a0 54 14 70 3e 6e 8c 4d bd 1e 67 eb 3d 62 81 57 3d
       0.23445255 -0.050182752 0.114942774 0.052613623
0000b0 b1 bf 1c bd 19 29 6d bd 5d b9 0c 3e 1c 25 33 3e
       -0.03826875 -0.057900522 0.13742585 0.17494625
0000c0 db 92 54 be 91 6f c5 3d 9c 25 7b be 00 87 19 bc
       -0.20759146 0.0964042 -0.24526066 -0.009370565
0000d0 bc f6 3f 3e 4a 3b b7 bd 08 b7 92 3d 86 93 31 be
       0.18746465 -0.08946855 0.07163817 -0.17341432
0000e0 c7 cf f2 bd d9 d4 b2 3d 3b 0f 90 3c cd 77 06 3e
       -0.11856037 0.08732004 0.017585387 0.13131638
0000f0 47 a8 00 be 87 57 ca bc 32 ab b1 bd df 81 50 be
       -0.12564193 -0.02469994 -0.08675231 -0.20362042
000100 b9 b6 31 3d 4f 90 87 bc 91 d0 ca bd 80 ff aa bd
       0.04338715 -0.016548304 -0.09903062 -0.08349514
000110 fc ca 5b bd 6f df 45 bd 0b 23 54 3e 84 40 f8 bd
       -0.053660378 -0.048308786 0.20716493 -0.121216804
000120 5f 68 f6 3b 30 ce 14 be e9 47 2a be 8c ce 89 bd
       0.007519766 -0.1453178 -0.16628994 -0.06728849
000130 0d 15 2c 3c c0 35 1b be e9 e9 99 3d 57 63 f2 3c
       0.010503066 -0.15157223 0.07515318 0.029588385
000140 d9 e1 d5 3a f6 0a bd 3d ac d6 18 bd e1 9a 24 3e
       0.0016317918 0.09230606 -0.037314102 0.16074707
000150 40 55 2d 3e eb f4 68 3e eb 4d 3a 3d d0 a9 11 be
       0.16927052 0.22749679 0.045484465 -0.14224935
000160 93 d8 21 3e 94 80 dd bd c1 ad 6f 3c f2 5a 19 3d
       0.15805273 -0.1081554 0.0146288285 0.037440248
000170 a4 80 c0 3d b4 ac af 3d 19 86 4b 3d 83 78 e4 bc
       0.09399536 0.085778624 0.049688432 -0.027889496
000180 3d 4f b4 3c 31 61 7d bc d7 fa 72 3c 63 b8 a1 be
       0.02201044 -0.015465067 0.014830313 -0.31585988
000190 03 2d ce 3c 3e 63 8b 3c bc 7b 1d 3e 9b 44 7f 3e
       0.025167948 0.017015096 0.15379232 0.24928515
0001a0 21 48 2c bd 18 59 28 3e 63 e5 85 3b 95 ed 7d 3d
       -0.042060975 0.16440237 0.004086183 0.061994154
0001b0 e2 ca a0 3c c3 98 a4 3d 0f 92 e2 3d c4 1b d6 3d
       0.019627992 0.080369495 0.11063015 0.104545146
0001c0 6d d8 28 3e 1b 20 66 3d 34 40 f3 3d 35 32 ae bc
       0.1648881 0.056182962 0.1187748 -0.021264175
0001d0 28 cf 4a bc 4b d9 83 3d 9c bc e4 3c fe 47 a7 3b
       -0.012378491 0.0643793 0.027921967 0.0051050177
0001e0 ac 16 fd bd eb 56 ac 3d 45 f6 c0 3d 64 58 04 bc
       -0.1235784 0.08415016 0.09421972 -0.008077715
0001f0 79 32 17 3f 81 91 36 3d 10 82 c2 3d bb 55 57 be
       0.5906139 0.044572357 0.09497464 -0.21028797
000200 00 78 6f bd d7 19 71 3d 79 88 66 3e 12 6f 8c be
       -0.05846405 0.058862533 0.22512998 -0.2742849
000210 55 6e 69 be 22 5f ae bd 5d 67 e8 bd d5 be 40 bd
       -0.22795995 -0.08514239 -0.1134784 -0.04705699
000220 de bd 41 be 24 34 ff 3c 3b a2 66 3e 8a 34 3c bd
       -0.18920085 0.031152792 0.22522824 -0.045948543
000230 d6 79 b2 3d 5c 21 56 be 77 eb 2b be cf 0e 66 be
       0.087146446 -0.20911163 -0.16789041 -0.22466587
000240 52 cf 90 3d 60 14 dc bd 71 90 e0 bd 4e da 1b 3e
       0.07070793 -0.10746074 -0.1096505 0.15219995
000250 b1 0f 56 be 9c 25 35 be 2e 42 8b 3d df f9 dc 3d
       -0.20904423 -0.17690128 0.06799732 0.10789847
000260 be db 2a be 93 77 06 bd e5 02 85 be 8f 84 d5 3d
       -0.16685387 -0.03282888 -0.2597877 0.10425674
000270 f0 48 6a 3e 94 c7 e3 bd 00 c8 fb 3d a3 82 26 be
       0.22879386 -0.11122051 0.12294006 -0.16260771
000280 36 d0 27 bd 43 5f 3b be 1e cc 0d 3e f3 a3 d9 bb
       -0.04097005 -0.18298058 0.13847396 -0.0066418587
000290 04 c4 70 bc 79 c6 bf bd 97 8d 85 3d 7d 64 ec bd
       -0.014695171 -0.093640275 0.06521147 -0.11542604
0002a0 2e 89 1e 3d eb d2 8d 3e c9 4e 8a bc db 09 37 3e
       0.038705043 0.2769998 -0.01688327 0.17874853
0002b0 bf 41 91 be a2 f8 70 3d 03 c0 ff 3d 5d 11 08 3e
       -0.28370473 0.058830865 0.12487795 0.13287874
0002c0 27 1f 23 be f5 8d 3a 3d a8 ea 5f 3c ac 18 4a b9
       -0.15929852 0.045545537 0.013666786 -0.00019273412
0002d0 52 51 7f bd fa 7d 0b be e3 c9 07 3e 8f 7e 25 3e
       -0.062333412 -0.13622275 0.13260607 0.1616156
0002e0 44 70 09 be 67 f9 a5 bd 3c be 11 3e 6a 60 84 3c
       -0.13421732 -0.0810421 0.14232725 0.016159255
0002f0 9f c2 da bd fc 76 77 3d 2c 80 67 be 85 8f b6 bc
       -0.10681652 0.060416207 -0.22607487 -0.022285232
000300 92 95 90 3c 3a dd 2b 3e 43 20 a1 bd 38 42 91 bd
       0.017649446 0.1678361 -0.078674816 -0.07092708
000310 1c 76 df 3d 15 80 af bd 47 f7 26 3d fa aa 76 3e
       0.109111995 -0.085693516 0.040763166 0.2408866
000320 ad fc 0c 3d 30 d7 36 3d 1b 16 80 bd 8d 98 38 3b
       0.034420658 0.044638813 -0.06254216 0.00281671
000330 91 53 01 3c 52 e6 c7 3d 53 39 dc bd b2 ba 0b 3e
       0.007893459 0.09760727 -0.10753121 0.13645437
000340 c5 53 f6 bc 5f f4 be 3e 25 5a b7 3d 0f 63 8e be
       -0.030069241 0.37295815 0.089527406 -0.2780995
000350 21 b6 62 3b 66 6c 1b be 15 21 b2 be 3d 88 0e bd
       0.003459342 -0.1517807 -0.34790865 -0.034797896
000360 b7 6f 67 3c c1 b1 0b be 64 26 4c 3d 66 e4 70 3d
       0.014125756 -0.13642026 0.0498413 0.058811568
000370 5b 0f 35 bd 0c d0 17 be 2b 82 20 bd 3a a7 39 be
       -0.044204097 -0.14825457 -0.039186638 -0.18130198
000380 f8 1b 8e be 1b 70 3d 3e ae d8 83 3d 69 cb ea bc
       -0.27755713 0.18499796 0.06437813 -0.028661447
000390 0f de 20 3e 09 52 69 3d e0 b7 cc bd 18 96 c6 bd
       0.15709709 0.056963 -0.09996009 -0.09696597
0003a0 9d 03 23 3e ae 84 4d bc ac 89 89 3c 32 15 c2 bd
       0.15919347 -0.01254384 0.01678928 -0.09476699
0003b0 93 53 36 3e 92 c8 bd 3c e6 d5 2f be 81 1e a6 3d
       0.17805319 0.023166928 -0.1717144 0.08111287
0003c0 0b c1 35 be 55 8d 85 3d 36 86 83 be f1 af 8e 3d
       -0.17749421 0.065210976 -0.25688332 0.06967152
0003d0 b4 8e bf bd f8 f7 8d 3e f7 b3 cc bd e8 11 8e be
       -0.0935339 0.27728248 -0.09995263 -0.27748036
0003e0 ef f5 96 bc a2 69 1a be 0a 39 b0 bd 8e 5f 8b be
       -0.018427817 -0.15079358 -0.08604629 -0.2722134
0003f0 e5 33 de 3d c1 c8 3c 3e 65 7a 87 3e 2d 69 26 bd
       0.10849742 0.18435957 0.26460567 -0.040627647

features_extractor.encoder.conv.6.bias f4 [32]
000000 7b 6d 72 bb d9 0b 64 bc 32 69 bc bb b4 fa e5 3d
       -0.0036991525 -0.01391884 -0.005749845 0.112294585
000010 2f f6 be bc 1b a0 ca 3c c5 f2 43 bb 79 90 5e bc
       -0.023310749 0.024734547 -0.002989934 -0.01358425
000020 73 b0 1d bd de cb 13 bd c9 67 ab bd c1 2d 1f bd
       -0.038498353 -0.036083095 -0.08369405 -0.038861994
000030 61 45 79 bd 7e 3f 08 bb 42 9b fe bc 3d de e0 3c
       -0.06085718 -0.0020789797 -0.031079892 0.027449721
000040 de 10 60 bc f4 86 66 3c 53 24 00 bc ae c2 89 bb
       -0.013675896 0.014070261 -0.00782116 -0.004204116
000050 30 57 32 3c 31 7b 15 bd 55 4d c2 bb 38 63 2e bd
       0.010885045 -0.036494438 -0.005929629 -0.04257509
000060 60 0c 9c bc 9c 31 84 bc 7d 4b 3b 3c 1c b4 f4 bb
       -0.01904887 -0.016136937 0.011431572 -0.00746776
000070 1e 1e 9f bc 09 39 af 3c 5c 21 c7 bc b6 0d e6 bc
       -0.01942354 0.021389501 -0.0243079 -0.02808271

features_extractor.encoder.conv.8.weight f4 [64, 32, 3, 3]
000000 96 57 14 bd fd 29 c2 3d 34 4c 09 be 48 6c 36 3d
       -0.03621634 0.09480665 -0.13407975 0.04453686
000010 d3 9c b1 3d 41 bb 8a 3d a1 f8 07 bd 23 c8 27 be
       0.0867249 0.06773997 -0.033196095 -0.1638494
000020 f8 80 0f 3d ca e1 15 be ab 0f 49 be 6a 0a 92 bd
       0.035035104 -0.14636913 -0.19634883 -0.071308926
000030 01 1d 20 3e 39 f3 88 bb 01 f3 dd bc b6 75 67 bd
       0.15636064 -0.004179385 -0.027093412 -0.056508742
000040 6a a4 8f bd c4 53 dd 3d 92 f7 95 bd ca f6 97 bd
       -0.07013781 0.10806993 -0.07322611 -0.07420118
000050 82 a1 62 bd 98 f2 91 bd 11 56 b3 b9 ff 8b dc bd
       -0.055329807 -0.07126349 -0.00034205665 -0.1076889
000060 22 ea 97 bd e1 14 b9 bc ad 39 31 3c 3a c9 d1 3d
       -0.07417704 -0.022592964 0.010816974 0.10243459
000070 13 51 16 3d a3 c4 0c 3d 97 8f 8f 3d cf 04 e0 bd
       0.036698412 0.034367215 0.070098095 -0.10938417
000080 81 35 a0 3d 60 86 5d 3e ed 20 10 bc 2b 1d 48 3d
       0.07822705 0.21633291 -0.008796913 0.04885594
000090 03 a4 68 bd a2 71 1e be 31 90 c9 bd 50 f1 d1 3c
       -0.05679704 -0.15473035 -0.098419555 0.025627762
0000a0 f0 c8 c6 3d 55 33 84 3d f3 2d ae bd 2d 40 5a 3c
       0.097062945 0.06455103 -0.08504858 0.013320965
0000b0 e9 37 06 bd 4a 39 eb 3d d6 1c e4 bb 55 44 07 be
       -0.032768164 0.114855364 -0.0069614453 -0.1320966
0000c0 7b bb 94 bd f9 b2 d9 3c dd 81 7a 3c 3e 04 82 3b
       -0.072623216 0.026574599 0.015289751 0.003967791
0000d0 33 ff 0d 3d 05 4d 39 bd 2e 1c 7a 3d d2 3b e6 bc
       0.034667205 -0.045239467 0.06106203 -0.028104696
0000e0 92 61 cf bd e3 6c f4 bc 5f 7e 63 3d d0 7d c9 bd
       -0.10126032 -0.029837077 0.05554044 -0.0983845
0000f0 9a b4 36 be fc 91 22 3e 6f a1 46 bc de 3e fd bd
       -0.17842332 0.15876001 -0.01212345 -0.123655066
000100 36 9e c0 3d 26 63 b1 bd f8 41 3f 3d 94 b3 80 ba
       0.09405176 -0.08661489 0.046693772 -0.0009819143
000110 e9 e6 3e bd ad 31 f7 bd a8 3e 6e 3d 83 85 65 3e
       -0.04660693 -0.12070022 0.058165222 0.22414212
000120 89 bd 4b 3d 4e ec d5 3d dd eb 85 be 92 e2 7b bc
       0.0497413 0.10445462 -0.26156512 -0.015373843
000130 7f 4b c3 3d 57 a2 db 3d d0 57 49 bd ae b4 53 bc
       0.09535884 0.10724323 -0.04915601 -0.012921495
000140 0e 7a 30 3b 1b 48 92 3d b5 84 2a 3d 4a fc 11 be
       0.002692822 0.07142659 0.041630466 -0.14256397
000150 46 66 bc bd 18 66 ec 3d e3 34 ef bd 74 bb 25 3d
       -0.091991946 0.1154291 -0.11680009 0.040461972
000160 37 37 03 bd 76 10 ad bc 6c ad 24 be a9 af 9a 3d
       -0.03203508 -0.021126013 -0.1608178 0.07553036
000170 42 7f 8a 3b 4a 1e a1 3c f9 45 2c 3e ca 89 a0 bd
       0.004226596 0.019667763 0.16823567 -0.07838781
000180 1f 00 17 3c ed a2 3f be f9 26 18 bb 37 77 85 3c
       0.009216337 -0.18714495 -0.002321659 0.016292198
000190 a8 5b 4c 3e 05 2a d1 bd 7f 5d b9 bc e3 b1 00 be
       0.19956839 -0.10213093 -0.02262759 -0.12567858
0001a0 4d b3 de bd c7 d7 ab 3c 42 f7 0a bd f2 75 d7 bc
       -0.10874043 0.020976914 -0.03392721 -0.026301358
0001b0 61 11 93 3b 5c 68 d4 3d 25 08 16 be 9f 67 61 bd
       0.0044881557 0.103714675 -0.14651544 -0.05503046
0001c0 2c 6d 83 3d 16 52 0c be da d2 5d bd 64 97 87 3d
       0.06417307 -0.13703188 -0.05415616 0.06620672
0001d0 ad 6e 17 bb 7c 54 9f 3d ac 6d 75 be b3 2b ad bd
       -0.002310674 0.07779786 -0.23967618 -0.084556006
0001e0 2b db 12 bc c2 fd 26 bd 12 46 5a bd 7d 12 d1 bc
       -0.0089633865 -0.040769346 -0.05328948 -0.025521511
0001f0 06 47 21 be be 51 42 bc cf f0 a1 3d 70 af c3 3a
       -0.1574975 -0.011860309 0.07907259 0.0014929604
000200 78 b2 61 be 85 13 6b bd 1f 5d 59 3e fb ae 92 bd
       -0.22040737 -0.057391662 0.21226929 -0.07162281
000210 5b cb 28 3d 16 b0 7e bd 69 14 0c be 6a df e3 bd
       0.04120956 -0.062179647 -0.13679661 -0.11126597
000220 31 32 97 3d 94 1d d8 3d d2 af 24 3d 9b c5 6b bd
       0.0738262 0.105525166 0.040206738 -0.057561498
000230 06 81 ae bd b2 33 83 3d 1d 16 95 bd 71 7f b4 bd
       -0.08520703 0.064063445 -0.072796084 -0.0881337
000240 2e bf 24 be 99 db c1 3c 65 a5 9f 3d 38 16 fb bd
       -0.16088554 0.023664283 0.077952184 -0.12260097
000250 72 aa 47 3e de 7a 56 bd 77 96 a0 3d ba c6 cf 3d
       0.19498613 -0.05236327 0.07841199 0.10145326
000260 50 8a 70 bd 15 34 ac 3d 63 1d 10 3d b6 a7 16 3d
       -0.058725655 0.08408371 0.035184275 0.036781035
000270 32 84 2c 3d 1d 6a 90 3e 1a 4b 31 be be 32 78 3c
       0.04211826 0.28205958 -0.17313805 0.015148817
000280 5d 09 41 bc 52 7f 8c 3c 38 aa cc bc 86 f3 5a bd
       -0.011782018 0.017150555 -0.02498351 -0.0534549
000290 cd 8f 40 bd bf 49 bd bd 3b c0 08 3e 59 74 e6 3d
       -0.04701214 -0.092425816 0.1335458 0.1125266
0002a0 b0 3e ed bd fa ff 04 3e 50 df ce bc 98 92 12 3d
       -0.11584222 0.12988272 -0.025252968 0.035784334
0002b0 08 75 f5 3d 8c b0 af 3d e4 9e 93 bd 6c 0f 66 3e
       0.119852126 0.085785955 -0.0720804 0.2246682
0002c0 4c 8d 77 3c 23 86 1b be 29 e4 8a 3d aa f7 d7 bd
       0.015109371 -0.15187888 0.06781799 -0.10545285
0002d0 29 2a 06 3e 00 17 37 bd 2e 0f 95 3c d2 12 fc bc
       0.1310202 -0.04469967 0.018195715 -0.030770693
0002e0 d8 d3 bc 3d 05 7e 1c be a1 12 e2 bb 02 c7 94 bc
       0.092200935 -0.15282448 -0.0068991934 -0.0181613
0002f0 f2 19 a8 bd 8f 11 ff bd 66 6c 8e 3c 3e 7a ce bd
       -0.08208074 -0.12454521 0.017385673 -0.100819096
000300 ca c7 42 3e cf ec b2 3c a5 ed d2 3d b5 45 74 bd
       0.19021526 0.021841435 0.10299233 -0.05963679
000310 fb e6 43 bd 3d 45 4f 3e ad 1c 53 bd 77 18 a8 bc
       -0.047827702 0.20241256 -0.05154102 -0.020519478
000320 af 32 1b 3d ad c9 ba bd a7 1f 3d 3e 33 f3 5e 3d
       0.037890133 -0.09120498 0.18469106 0.05443115
000330 34 52 8a 3b c3 a4 20 3e 6b 66 93 bd 63 4c 53 3e
       0.004221225 0.15687852 -0.07197269 0.20634608
000340 4a a6 21 bd 57 a2 71 be 66 d5 ea 3c ea 99 1d be
       -0.039465226 -0.23597084 0.02866621 -0.15390745
000350 82 0d f1 bc 8a 36 1e 3e ee e9 f4 bc 3d c0 de bd
       -0.029425386 0.15450493 -0.029896703 -0.1087651
000360 30 d8 94 bd 31 07 3f be 74 f6 a8 3b 22 ba 35 3d
       -0.07267797 -0.18655087 0.0051563326 0.044366963
000370 74 03 02 3e c0 65 07 3e 5b c5 d6 3b ad 83 5d be
       0.1269663 0.13222408 0.0065542883 -0.21632262
000380 79 f3 5c bc 44 e7 83 3d 45 9a e4 bd 12 32 11 3d
       -0.013485783 0.06440595 -0.11162237 0.03544814
000390 d2 42 b2 3d e1 9d 85 3e 17 b4 6d be 88 b7 45 3c
       0.08704151 0.26097015 -0.2321323 0.012067683
0003a0 c1 c3 01 be f9 5b 89 3c 61 e4 fd bb e7 f3 38 be
       -0.1267233 0.016767489 -0.007748172 -0.18061791
0003b0 61 7a 11 be d1 aa 30 bd 9f f2 04 be b7 b0 6f be
       -0.1420684 -0.043131653 -0.12983178 -0.23407255
0003c0 12 26 cd bc 3b df a8 3d f0 5f bc bd b2 cf a1 bb
       -0.025042567 0.08245703 -0.09197986 -0.0049380893
0003d0 90 e2 34 be 9f c7 1d 3c 57 12 dc bc fa c9 3e bc
       -0.17664552 0.009630113 -0.026864214 -0.011644835
0003e0 55 7e fd bd dc b6 a0 3d 39 f0 f1 bd 8b 21 16 3e
       -0.123776115 0.07847378 -0.11813397 0.14661233
0003f0 5e 23 82 bd 77 5d e0 bd 03 b5 74 3d 84 40 ba 3d
       -0.06354402 -0.10955327 0.05974294 0.09094337

features_extractor.encoder.conv.8.bias f4 [64]
000000 69 cf d7 bc 71 bf 68 bc 4a 81 3d bd c6 90 da bc
       -0.026344018 -0.014205799 -0.046265878 -0.026680361
000010 02 29 fd bc 5c f2 38 bd 07 53 4b bd bb ba a1 bb
       -0.030903343 -0.045153007 -0.049639728 -0.00493559
000020 36 54 56 bd 26 5e 4e bd 7c e2 f8 bc 4f 76 3f bd
       -0.052326404 -0.050382756 -0.030381434 -0.046743687
000030 b1 31 5a bd 9a 89 98 bd 78 66 b3 3c 0e cc 2f bc
       -0.053270046 -0.074481204 0.021899447 -0.010729803
000040 de c6 6c bd 96 69 85 3c 67 cc 39 bb 35 bf b7 bc
       -0.057806842 0.016285699 -0.0028350593 -0.022430042
000050 f0 52 29 bd 1c eb 43 bd 7e 6c ee bc 70 7f 09 bd
       -0.04133886 -0.04783164 -0.029104467 -0.0335688
000060 6d ec e0 bb d1 49 06 bd 46 1f d0 bc d1 8e 16 3c
       -0.0068641216 -0.03278524 -0.025405537 0.0091893235
000070 f6 0c 98 bd fe 8b d3 3c bc 1a b8 ba f0 b1 89 bd
       -0.07424347 0.02582359 -0.0014046053 -0.06723392
000080 4f 69 13 bd af 44 2d bd b6 1a 6c bd f2 ed a7 3b
       -0.035989102 -0.04230183 -0.05764266 0.005124801
000090 7e f2 da bc 9e 97 27 bd 6a 21 d8 bc 9c 29 0a bd
       -0.026726957 -0.040916078 -0.02638312 -0.033731088
0000a0 cf 02 38 3d 4d dc 91 bc 87 a1 c4 bc 1a b1 06 3c
       0.044924553 -0.017805243 -0.024002803 0.008220935
0000b0 95 b2 16 bd 99 fc 89 3d ce a4 29 bc f9 f9 57 3c
       -0.036791403 0.06737632 -0.010354234 0.013182157
0000c0 69 e9 5d bc 7f 35 8b bc 4e 20 8e bd 68 ca c7 bc
       -0.013544419 -0.016993282 -0.069397554 -0.024388507
0000d0 e6 1f 1b bd 04 b9 eb bb 5c 79 65 bc 82 b3 1c bd
       -0.037872218 -0.0071936864 -0.014005985 -0.03825713
0000e0 92 3e db bb 72 6f 91 bb 1b 24 25 bd dc d7 59 bb
       -0.0066908086 -0.004438334 -0.040317636 -0.0033240234
0000f0 18 ae 8b bd 95 90 02 bd dd f9 2c bc 2d 20 45 bd
       -0.06820315 -0.031876165 -0.010557619 -0.04812639

features_extractor.encoder.conv.10.weight f4 [128, 64, 3, 3]
000000 f2 a7 b9 3d b1 cc e2 bb 8c bf 62 3d 2b 08 2a 3d
       0.09065236 -0.006921374 0.055358455 0.041511696
000010 fe 7f fb 3a 70 ed 64 bd 49 30 0f 3d c7 88 cb bd
       0.0019187925 -0.0558905 0.034958158 -0.099381976
000020 5a f9 f1 bd 8f 7a c8 3c 8c 1f 3d bd 8d 03 e6 bc
       -0.11815138 0.024472503 -0.046172664 -0.028077865
000030 7a 0a f1 3b 5e 39 30 bb 2c 33 8f 3d d4 c2 81 3d
       0.007355985 -0.0026889662 0.06992182 0.06335989
000040 44 fd 07 bd fb dc d9 bd 8f 78 a8 3d 16 64 b5 3d
       -0.033200517 -0.10637852 0.0822612 0.088569805
000050 2d 14 c5 bd ee 12 bf 3d 3c 35 0a bd 53 14 a7 bd
       -0.09622989 0.093297824 -0.033742175 -0.081581734
000060 46 e7 e6 3d e5 24 eb ba 2b 11 17 3e f4 39 42 bd
       0.11274581 -0.0017940073 0.14752643 -0.04741855
000070 49 92 21 3d 6b 1f 1b bc 72 5f 6c bc d5 00 69 3c
       0.03944615 -0.00946794 -0.014427053 0.01422139
000080 33 37 e9 bd 07 4d 03 bd 36 d7 6c 3d ff 27 94 3c
       -0.113874815 -0.03205588 0.05782243 0.018085478
000090 49 7d 9e 3c ab d0 03 3e b8 19 bd bc 8c 4c 87 bd
       0.01934685 0.1287257 -0.023083553 -0.06606397
0000a0 ce 73 0f 3e ad 55 cc bd ca 62 9d bd 3f c1 55 3d
       0.1400902 -0.09977279 -0.07684858 0.052186247
0000b0 27 e0 42 be 6f a4 bd 3d aa 9b 75 bd ea bb 47 bd
       -0.1903082 0.09259879 -0.059962906 -0.048763193
0000c0 e6 59 8c 3c 40 d7 e9 bc 5a fc 12 be 8e 65 a2 3c
       0.01713271 -0.028545022 -0.14354077 0.019823816
0000d0 af 4e ae bd 4e 49 29 3c 4d 41 05 3e a1 cf bc bd
       -0.085111015 0.010332419 0.13013192 -0.092192896
0000e0 6f 3a c6 bd 97 33 87 3d 9b 10 34 bd 55 f4 3a 3d
       -0.09679114 0.06601637 -0.04396115 0.04564317
0000f0 8e 2d 95 3b 03 47 bd bd bb ff 2c be 88 5d 62 ba
       0.0045525497 -0.0924206 -0.16894428 -0.0008635153
000100 6c c7 c6 bd d9 6d 06 be ca 2c 4d bd 93 6a 28 3d
       -0.097060055 -0.13127841 -0.050091542 0.041117262
000110 76 15 8c bd d9 14 a4 bd 27 d5 57 be 5b 94 ed bd
       -0.06840031 -0.08011789 -0.21077405 -0.11600562
000120 57 57 c3 3c 7c fb e8 bc 38 51 fc 3a 37 01 22 3d
       0.023845358 -0.02844023 0.0019250279 0.03955194
000130 9d 54 75 bd d5 ae 29 be 8d 1d 76 3d bd ad 9e 3c
       -0.059895147 -0.165706 0.060086776 0.019369954
000140 0e 24 98 3c 0c 96 e6 3b cc 61 33 3c f7 69 a1 3d
       0.01857188 0.00703693 0.01094861 0.07881539
000150 18 e9 b4 bb 8d fc eb bd 3b 04 f7 bc 4b 81 f2 3d
       -0.005520951 -0.115227796 -0.030153384 0.11841067
000160 d1 96 21 3d 33 64 80 3d 96 e9 a7 3d f1 36 8e bd
       0.03945047 0.062691115 0.0819885 -0.06944073
000170 ec 1b aa bd 29 01 43 bd e2 f5 96 bd d9 5b 30 bd
       -0.08306107 -0.04760853 -0.07371117 -0.043056343
000180 a5 28 b9 3d f9 02 8b bd 56 e1 ce 3d 9f ba f2 3c
       0.090409555 -0.06787676 0.10101573 0.029630003
000190 fc e0 53 bd c8 62 db bc f0 d2 6d bd 42 45 84 3d
       -0.051728234 -0.026780501 -0.058062494 0.064585224
0001a0 63 ea 34 be e3 b3 43 3d 2e 82 1b bd 1a ac e6 bd
       -0.17667536 0.047778975 -0.037965946 -0.112632945
0001b0 20 9e 38 bd 4b 3e 86 3c 53 54 9b 3c 3c 56 d3 bd
       -0.045072675 0.016387125 0.018961107 -0.10319182
0001c0 fb 1d 7b be 29 21 a5 bd f5 c1 37 3d 79 c8 ea 3d
       -0.24523155 -0.080629654 0.044862706 0.114640184
0001d0 4a 93 ae 3c 38 e4 5b 3d 0c a5 6f bd 50 22 38 3d
       0.021310467 0.053684443 -0.05850701 0.044954598
0001e0 8b 25 94 bd 02 5a c6 bd 0d 8c 5d bc 62 2f 4a 3c
       -0.07233723 -0.096851364 -0.01352216 0.0123403985
0001f0 d4 a2 d4 bc 30 a1 aa bb 70 82 04 be 7c b1 54 3d
       -0.025956549 -0.0052072033 -0.12940383 0.051927075
000200 83 30 85 3d 81 bc 45 3d a9 6b 10 3d bd b2 4d bc
       0.065033935 0.048275474 0.035258923 -0.012554822
000210 3c 98 9b 3d c1 17 fb bd 9a ce 8c 3d 9c c5 82 3d
       0.07597396 -0.1226039 0.068753436 0.06385347
000220 5a fd 45 bc 5d 88 34 bd 84 8a c7 3d 1a ff b4 3d
       -0.0120843295 -0.04407536 0.09743217 0.08837719
000230 f2 d8 46 bd eb d8 62 bd 2f 83 07 bd 19 24 01 bc
       -0.04854674 -0.05538265 -0.03308409 -0.0078821415
000240 4e 9b fe bc 90 e8 c7 ba ae 21 a2 ba a2 04 61 bc
       -0.031079914 -0.0015251804 -0.0012369656 -0.013734015
000250 54 90 1f be 72 ae 84 bd fd 32 bc bc d7 6c 0c 3e
       -0.155824 -0.06478585 -0.022973532 0.13713394
000260 49 24 f7 bd a8 92 88 bc ed 2e dc 3d e7 25 2e 3d
       -0.12067468 -0.016671494 0.10751138 0.042516615
000270 a6 85 17 bd 7c eb d3 bd 46 b0 a7 bd 1c 1a 69 3c
       -0.03699269 -0.103476495 -0.08187918 0.014227416
000280 f7 61 4d be 5f 2e 35 be 71 0f ed ba d6 48 90 3d
       -0.20056902 -0.1769347 -0.0018086267 0.07045142
000290 1b f0 45 3c fb e0 b2 3c 0c fc fc bd bb 65 27 be
       0.012081171 0.021835795 -0.123527616 -0.16347401
0002a0 23 c8 0f 3e dc 4b 2f be 05 32 98 be 60 37 c0 3c
       0.1404119 -0.17118782 -0.29725662 0.023463905
0002b0 85 2b 07 3d 3d 98 b3 3c 90 46 09 3e f9 ee d4 bd
       0.033000488 0.021923179 0.13405824 -0.10397143
0002c0 8f 55 f8 bd 1f 0c 4e 3d 36 7e 64 3d e4 ad 40 be
       -0.12125694 0.05030453 0.055784427 -0.18816334
0002d0 82 bc 89 b8 51 0e bb bb bb 43 1f bd 43 18 dd 3c
       -6.5677814e-05 -0.0057084938 -0.038882952 0.026989108
0002e0 32 ab a0 bd 8e 39 0c bd 02 f9 6f 3d f4 c6 6b 3d
       -0.07845153 -0.034234576 0.05858708 0.057562783
0002f0 31 45 c6 3c f5 b0 16 bd 62 63 84 3d d2 98 c0 b9
       0.024202915 -0.036789853 0.06464268 -0.00036734954
000300 45 6f 35 bc bb af 6c be 39 9d 30 be a2 83 c8 bc
       -0.011073892 -0.23113911 -0.17247476 -0.02447683
000310 7b 55 81 3d 14 46 4a 3d 1c 51 45 3d 55 72 9d 3b
       0.06315132 0.049383238 0.048173055 0.004804889
000320 69 2d af 3d ad 98 38 3c 9f 0d d9 bd bb 39 25 be
       0.08553583 0.0112668695 -0.10598301 -0.16135304
000330 f1 d1 2c 3c 50 aa 21 3d 2e 15 e2 bc cf c1 61 3d
       0.010548101 0.039469063 -0.02759799 0.05511647
000340 57 7f 5b bc 10 ac e4 3d b5 eb 72 bd 87 79 0b be
       -0.013397059 0.11165631 -0.05930682 -0.13620578
000350 be 67 3e bd 1f c0 6d 3d 1f 5f 43 bd 73 4d ed bd
       -0.046485655 0.05804455 -0.047698136 -0.11587038
000360 0a b2 d3 bc da 5f 6e bd 3a 0b be bd 9c 90 72 3c
       -0.025841732 -0.05819688 -0.09279485 0.014804985
000370 5d bf 3f 3b 8b e2 5c bd f6 57 d0 bc 3a 4b d7 bd
       0.0029258349 -0.053926986 -0.025432568 -0.10512395
000380 15 eb c3 bc 9e 59 a3 3d ec b6 0f 3e f0 dd 12 bd
       -0.023915807 0.079760775 0.14034623 -0.035856187
000390 1e d7 53 3d f9 38 16 be ec a0 24 be ef bb cc 3d
       0.051718824 -0.14670171 -0.16077012 0.09996783
0003a0 d9 ff 88 3d c7 7f 2d bd db 47 ce 3d 31 8a 22 3c
       0.06689424 -0.042358186 0.10072299 0.009920643
0003b0 15 6b da 3c 5e 2e 2e bd 75 d4 f8 bd ac f9 f7 bd
       0.026662389 -0.042524688 -0.12149898 -0.12108168
0003c0 4c cc 09 be 9e 7e 6b bd 39 45 1c be 01 76 40 bd
       -0.1345684 -0.0574938 -0.15260781 -0.046987537
0003d0 8c 91 69 3d a4 31 90 3d 0a 7b 68 bd 3b 9a a7 3c
       0.05702357 0.07040718 -0.056757964 0.020459285
0003e0 91 43 29 bb e1 7e 22 bd 46 63 3a be 88 05 45 3d
       -0.0025827626 -0.039671782 -0.18201932 0.048100978
0003f0 e6 d9 03 3e ad c0 d7 3b 20 58 df 3c b8 02 77 bd
       0.1287609 0.006584248 0.027263701 -0.060305327

features_extractor.encoder.conv.10.bias f4 [128]
000000 e7 36 ca bc 5b f0 65 bb 76 b5 dd bc 3c 5e 4c bc
       -0.024684383 -0.003508589 -0.027064066 -0.012473639
000010 b2 56 83 bc 8f 1e 1b 3d 8e 32 4c bc 53 eb 53 3d
       -0.01603255 0.03787094 -0.012463225 0.051738095
000020 c3 ed 02 bc 67 7b 86 bc 30 a7 29 3d 8f b1 46 3b
       -0.007991257 -0.016416265 0.041419208 0.0030318236
000030 26 12 fb 3c 3c 45 d0 bc f6 b2 cf bc 2e ce a4 3c
       0.030648302 -0.025423639 -0.02535389 0.020117845
000040 d3 dd 0c 3c f0 a1 19 3d ce eb 4f 3d 09 a7 28 bd
       0.008597809 0.03750795 0.05076199 -0.041174922
000050 f9 f2 7b 3d d8 28 67 3c 64 9b 90 bc b1 0b 89 3c
       0.061511014 0.014108859 -0.017652221 0.016729208
000060 9f f5 9b ba 71 c0 04 3d fd a2 31 bc 90 f7 2b 3d
       -0.0011898762 0.03241009 -0.010842082 0.04198414
000070 f3 8e 20 bd 7d 1e a0 bc 20 55 e2 3c 74 04 4f 3d
       -0.039198827 -0.019545788 0.027628481 0.050541356
000080 46 84 5d 3c 03 42 15 3d 5e e1 80 bb c9 7b fa 3c
       0.013520306 0.036439907 -0.003933116 0.030576603
000090 d0 83 0d 3d 06 d6 ed bc fc 68 06 3d 14 73 e5 bb
       0.034549534 -0.029032718 0.032814965 -0.007002244
0000a0 b0 e4 90 3c 77 66 a2 3c 60 1b 4f bd 82 de d4 3c
       0.017687172 0.01982425 -0.050563216 0.025985006
0000b0 88 74 8c 3a bf 9a 37 3c 8f 46 2b bc 7d b2 0c bd
       0.0010715881 0.011206328 -0.010453834 -0.034349907
0000c0 90 c6 18 3d f2 de 4c 3c 01 df f4 3b 0c 9b 25 3d
       0.03729874 0.012504326 0.007472873 0.040431067
0000d0 3c 09 8a bd 4a 31 fa 3c 3f 1e ea 3c f1 a2 c5 3b
       -0.067400426 0.030541081 0.028578876 0.006031387
0000e0 bd c2 d7 bc 08 68 7d 3c 18 ee 09 bb 12 65 1d bd
       -0.026337976 0.0154666975 -0.0021046456 -0.038426466
0000f0 f1 86 cd bb e1 18 74 3c 36 8d 91 3c 6d 23 f3 bc
       -0.00627219 0.01489851 0.01776753 -0.029679978
000100 16 41 b4 3c 14 45 b0 bc 11 b6 bb 3c d4 8b 9d 3c
       0.022003692 -0.021517314 0.022913964 0.019231714
000110 c6 f3 45 3c e0 dd 59 bc 9d 4f fb 3c 7b 4d ee bc
       0.012082046 -0.013297528 0.030677611 -0.02908968
000120 84 c8 04 3b 92 fa ec bb 17 a3 69 3c 67 90 d2 bc
       0.0020261118 -0.0072320187 0.014260075 -0.025703622
000130 63 f7 10 bd 25 56 da bc 81 6e 07 3d 13 9d 11 3d
       -0.035392176 -0.026652405 0.03306437 0.03555019
000140 1a 2b 63 bd 98 dd 4e bc 07 2a 05 3d da 91 66 3d
       -0.055461027 -0.012626074 0.032510784 0.05629144
000150 1e d9 16 3d 0b fa d5 3a 31 71 b0 3b 62 fd 13 3c
       0.036828153 0.0016325129 0.005384587 0.009032579
000160 03 a6 ab 3c 57 eb a6 bc a3 00 61 3a 57 d6 0f 3d
       0.020953184 -0.02037589 0.0008583164 0.03511652
000170 16 30 fb bb 92 1a 9c 3c ea 31 57 3b 89 fa 17 3d
       -0.0076656444 0.019055638 0.0032836148 0.037104163
000180 0f d4 bb 3c d4 5b 34 3d 38 94 cf 3c 1c f2 d2 3c
       0.022928266 0.044032887 0.02533923 0.025750212
000190 04 2f e3 3c b2 90 0b bc d6 a5 d9 3b 03 eb 1e bc
       0.02773238 -0.008518385 0.0066420836 -0.009699586
0001a0 0d a4 0e 3d a8 65 09 bd 3a 43 8b 3c 99 32 fb 3c
       0.03482442 -0.033544213 0.01699983 0.030663775
0001b0 b7 97 74 3a d5 b9 3f 3d 0c d3 5c 3c 69 44 92 3b
       0.00093304686 0.046808083 0.013478052 0.0044637215
0001c0 19 89 01 3d 8f ee 36 3d a3 49 ba 3c 58 79 81 3c
       0.031624887 0.0446611 0.02274019 0.015804932
0001d0 b4 95 32 3c 9c eb 10 3d d0 ec 49 3c ad 0c 23 3d
       0.01089995 0.035380945 0.012324527 0.03980701
0001e0 4b 76 c6 3b 2e 7b 1c 3c 24 9b d7 bc d9 b9 e1 bb
       0.006056582 0.009550853 -0.026319094 -0.00688861
0001f0 8d 9e 86 bd 8c c4 67 bc 02 a2 bf 3c 2d fb 22 3d
       -0.0657321 -0.0141459815 0.023392681 0.03979032
