weights/image_reconstruction_finetune-nd-0-eps-300.pth (torch, 463426 bytes, 24 tensors)

log_std f4 [2]
0.20480783 0.097459644
00000000: 25b9 513e ec98 c73d

features_extractor.encoder.conv.0.weight f4 [4, 1, 3, 3]
0.1870953 -0.14566265 0.80885005 -0.81316364 -0.4811677 -0.9791386 0.1865859 -0.08622869
0.28232995 0.2953271 -0.41795415 -0.35940737 -0.2506633 -0.49759325 -0.37135482 0.22296982
0.13502453 0.08980653 -0.4564018 -0.086306795 0.099878244 -0.15603155 0.29704088 0.13730448
-0.24777304 -0.4195298 -0.35430646 0.4715259 0.087118834 0.23036154 -0.15679061 0.082684785
-0.07456319 0.317522 0.30566454 -0.17206575
00000000: e995 3f3e 9728 15be cc10 4f3f 7e2b 50bf
00000010: 9d5b f6be d4a8 7abf 6010 3f3e ab98 b0bd
00000020: 8d8d 903e 1d35 973e 16fe d5be 3e04 b8be
00000030: f156 80be 8bc4 febe 3822 bebe 3352 643e
00000040: df43 0a3e 7cec b73d 7fad e9be 9ec1 b0bd
00000050: f78c cc3d bcc6 1fbe be15 983e 8c99 0c3e
00000060: 37b8 7dbe 9ccc d6be a867 b5be d86b f13e
00000070: 5c6b b23d e5e3 6b3e b88d 20be a456 a93d
00000080: 96b4 98bd 3e92 a23e 1080 9c3e 0132 30be

features_extractor.encoder.conv.0.bias f4 [4]
-0.15193722 -0.20096686 -0.032547753 -0.023979653
00000000: 6e95 1bbe 42ca 4dbe cb50 05bd fa70 c4bc

features_extractor.encoder.conv.2.weight f4 [8, 4, 3, 3]
0.0713169 0.20748952 0.033141036 -0.0017186827 0.24903117 0.06440655 -0.34016266 0.053925905
0.092235625 -0.0013333283 0.28622335 0.109446205 -0.0870066 0.10882141 -0.3797415 0.035326447
0.14255315 0.046018563 -0.07438054 -0.29308006 -0.27012628 0.24668403 -0.23636085 -0.24678576
-0.03371049 -0.26427343 -0.18323041 0.027929215 -0.213969 -0.11992871 -0.05505115 -0.048208028
-0.08134096 0.18980287 0.08156739 -0.07546591 -0.31359363 0.20552528 -0.19324139 0.0035680954
0.078553714 -0.046943523 0.017943213 -0.07142918 0.045908693 0.04861182 -0.031316467 -0.13437861
0.23418705 -0.22752115 0.104206234 -0.31295937 0.27570868 -0.127494 -0.15063155 0.42135203
0.0024056335 0.0028168338 -0.13224725 -0.20726107 0.07048676 -0.12977368 0.0818684 0.20900956
0.19171578 -0.13616683 -0.124132596 -0.1632629 0.44531602 -0.03904571 -0.08822201 0.11864047
-0.0968715 -0.2527208 -0.007359381 -0.09686013 -0.2615715 -0.45117438 -0.050199933 -0.23276669
-0.16290353 -0.16402411 0.016246853 0.20669173 -0.45824474 -0.19638835 0.087911345 -0.24124578
0.043022834 0.3116312 0.24331407 -0.13638687 -0.13088284 0.071253635 -0.3994997 -0.12155685
0.22773969 0.37431678 -0.038072985 -0.0029531263 0.06865081 -0.04041069 0.18509632 -0.06988536
0.08830435 -0.12472002 0.28922817 0.24534032 -0.031415235 0.058985896 -0.30502814 0.062564485
0.0019552945 -0.1789771 0.006606131 -0.13337852 -0.2067694 0.03233937 -0.23014316 0.26535025
0.1230231 -0.08943364 0.23662587 -0.07989504 0.16362359 0.04981619 -0.3984031 0.26244044
0.2543693 -0.02335652 -0.12051953 -0.25388172 0.16464823 -0.1087999 0.2275655 0.203868
-0.30883765 0.15917847 -0.48316044 0.1224253 0.16829963 0.033740632 0.207313 -0.05988818
0.05978053 0.2699766 0.100142345 0.015862891 -0.06533559 0.10750919 0.12234787 -0.12186742
0.15744175 0.010169156 -0.0191426 -0.20252761 -0.12468312 -0.11408468 -0.64535946 0.12369892
0.034962565 -0.08977504 0.14222814 0.0048794104 0.1965169 0.48567867 -0.5553659 0.35553524
-0.45303652 0.040115494 0.31965074 0.3503458 -0.40837497 -0.37874085 -0.18378319 0.036921527
0.17670421 -0.189579 0.09760955 0.21624051 0.10791197 -0.2883842 -0.093951024 0.2114485
0.058036156 0.07916695 0.19941969 0.07486095 -0.1113138 0.1887225 0.022196343 0.19911397
-0.07609362 0.3040942 0.2591551 0.14471853 -0.04028385 0.27347738 -0.040613495 -0.023827534
-0.17142096 -0.78602856 0.13922335 -0.35016468 0.27892837 0.0648185 -0.0077414787 -0.0048545743
-0.04196418 0.21359222 8.840911e-05 -0.05533713 0.05519899 0.09531338 -0.52624375 0.09198972
-0.17194444 0.013859628 0.012363512 -0.66317743 -0.42836946 0.041643336 -0.026752302 0.0777441
-0.034942668 0.30422848 -0.26994535 -0.101280555 0.31178403 -0.23972623 0.216537 0.15970524
-0.2420213 0.4177257 -0.17973846 -0.06797782 0.26536202 -0.25220624 -0.19959427 -0.3235263
-0.16541971 -0.076617755 -0.080125414 -0.12135662 0.02253402 -0.30880365 0.16094807 0.25842363
-0.11573071 -0.08956654 0.06838773 0.05888257 -0.039209813 -0.4780244 -0.19075996 0.0025124468
00000000: 980e 923d 2278 543e e5be 073d 6c45 e1ba
00000010: 0702 7f3e 95e7 833d cd29 aebe 69e1 5c3d
00000020: 08e6 bc3d 13c3 aeba de8b 923e 5525 e03d
00000030: 8430 b2bd c2dd de3d 7a6d c2be 77b2 103d
00000040: 74f9 113e f67d 3c3d d354 98bd 970e 96be
00000050: fe4d 8abe bd9a 7c3e 9408 72be 68b5 7cbe
00000060: 0314 0abd d94e 87be c1a0 3bbe cfcb e43c
00000070: b11a 5bbe 2f9d f5bd 517d 61bd c875 45bd
00000080: 1796 a6bd af5b 423e ce0c a73d df8d 9abd
00000090: 588f a0be 3875 523e 12e1 45be b5d6 693b
000000a0: c5e0 a03d da47 40bd a5fd 923c 7649 92bd
000000b0: c10a 3c3d 301d 473d b245 00bd 8c9a 09be
000000c0: bbce 6f3e 4efb 68be 146a d53d 363c a0be
000000d0: b029 8d3e ca8d 02be 283f 1abe 74bb d73e
000000e0: d5a7 1d3b a19a 383b d36b 07be 3f3c 54be
000000f0: 5d5b 903d 64e3 04be 9faa a73d 9a06 563e
00000100: 2451 443e 516f 0bbe 3b39 febd 642e 27be
00000110: 7600 e43e 65ee 1fbd bead b4bd c6f9 f23d
00000120: 9164 c6bd 9f64 81be f626 f1bb 9b5e c6bd
00000130: b3ec 85be 5400 e7be 729e 4dbd 645a 6ebe
00000140: 2fd0 26be f0f5 27be 1f18 853c ffa6 533e
00000150: 0e9f eabe 071a 49be dd0a b43d 2209 77be
00000160: b638 303d 208e 9f3e 5327 793e 00a9 0bbe
00000170: 2706 06be 6ded 913d 3a8b ccbe ccf2 f8bd
00000180: 9834 693e 73a6 bf3e 6bf2 1bbd 3d89 41bb
00000190: cc98 8c3d ae85 25bd e489 3d3e 0e20 8fbd
000001a0: e9d8 b43d 366d ffbd b715 943e 7e3a 7b3e
000001b0: 43ad 00bd 329b 713d a62c 9cbe cf21 803d
000001c0: 6624 003b c645 37be 3e78 d83b 6194 08be
000001d0: 5cbb 53be 4a76 043d a6aa 6bbe fddb 873e
000001e0: 89f3 fb3d fc28 b7bd 0d4e 723e 03a0 a3bd
000001f0: f18c 273e 100c 4c3d 7efb cbbe 985e 863e
00000200: b13c 823e 2c56 bfbc f1d2 f6bd c9fc 81be
00000210: 8c99 283e 7bd2 debd ee06 693e c6c2 503e
00000220: f81f 9ebe aeff 223e ce60 f7be 1eba fa3d
00000230: bd56 2c3e 9e33 0a3d dc49 543e 4f4d 75bd
00000240: 6edc 743d 5f3a 8a3e 6e17 cd3d e5f2 813c
00000250: aace 85bd c72d dc3d 8591 fa3d a095 f9bd
00000260: 6938 213e 889c 263c f1d0 9cbc 6663 4fbe
00000270: dd59 ffbd 3ba5 e9bd 4736 25bf dc55 fd3d
00000280: e834 0f3d fadb b7bd 41a4 113e 76e3 9f3b
00000290: ba3b 493e e0aa f83e 762c 0ebf b708 b63e
000002a0: 67f4 e7be 2550 243d 43a9 a33e 8660 b33e
000002b0: 8616 d1be 52ea c1be a931 3cbe 073b 173d
000002c0: f3f1 343e ff20 42be 84e7 c73d 276e 5d3e
000002d0: f300 dd3d 18a7 93be 6569 c0bd f585 583e
000002e0: 52b7 6d3d 4822 a23d ad34 4c3e b350 993d
000002f0: 7df8 e3bd 7940 413e 1bd5 b53c 88e4 4b3e
00000300: f9d6 9bbd 3cb2 9b3e faaf 843e 1831 143e
00000310: ae00 25bd 3a05 8c3e 565a 26bd f631 c3bc
00000320: fa88 2fbe 2b39 49bf 9190 0e3e c948 b3be
00000330: b3cf 8e3e 90bf 843d 3bac fdbb 1f13 9fbb
00000340: a2e2 2bbd ebb7 5a3e 4868 b938 30a9 62bd
00000350: 5618 623d a933 c33d e9b7 06bf 1b65 bc3d
00000360: 3412 30be 7e13 633c 5490 4a3c ffc5 29bf
00000370: 3e53 dbbe 3492 2a3d a527 dbbc 4c38 9f3d
00000380: 0b20 0fbd d6c3 9b3e 4736 8abe 2e6c cfbd
00000390: 28a2 9f3e cb7a 75be e0bb 5d3e c589 233e
000003a0: 6fd4 77be 25e0 d53e 5c0d 38be f537 8bbd
000003b0: 88dd 873e 2d21 81be 7162 4cbe 3da5 a5be
000003c0: c963 29be c5e9 9cbd cb18 a4bd d289 f8bd
000003d0: 4499 b83c 831b 9ebe 92cf 243e 1a50 843e
000003e0: 3904 edbd aa6e b7bd de0e 8c3d da2e 713d
000003f0: 789a 20bd 9dbf f4be 9456 43be dda7 243b

features_extractor.encoder.conv.2.bias f4 [8]
-0.013665574 -0.03020062 0.011892002 -0.007079543 0.017283918 -0.1122088 -0.015740782 -0.008813921
00000000: 92e5 5fbc 4a67 f7bc acd6 423c 83fb e7bb
00000010: 0197 8d3c bacd e5bd d0f2 80bc 4468 10bc

features_extractor.encoder.conv.4.weight f4 [16, 8, 3, 3]
0.1715525 0.36670965 0.040901672 -0.13937692 -0.043538094 0.013031268 0.024497986 -0.47555238
-0.03419178 -0.09518427 -0.13375242 -0.01767593 0.0020186321 -0.1490318 0.30150744 0.07759284
-0.121969745 -0.058998585 0.25666916 -0.12836097 0.16053656 0.08009499 -0.03618951 0.09329901
-0.4022505 -0.019107064 0.16387168 0.17060125 0.07454508 0.0049442262 0.18381728 0.122473635
0.22273816 -0.18566506 0.10418941 -0.008204487 0.10064917 -0.2533379 -0.061633125 0.14963931
-0.14440106 0.06549008 -0.1263057 -0.12743609 0.08711117 -0.06512653 0.10738497 -0.22198755
-0.026588943 -0.3328698 -0.2724162 0.15260473 -0.1252829 -0.024698028 -0.037954956 0.006307365
-0.110975064 0.21690124 0.44913828 0.04134942 -0.04668237 0.0071765175 0.01108743 0.017399427
-0.0118210055 -0.20616427 0.029622464 -0.08653271 0.16181482 0.0054743914 0.009764335 -0.2939807
0.07990822 -0.28140846 0.01557299 -0.095837794 -0.11445262 -0.025241347 0.030932056 -0.10944887
0.08565835 0.0360612 -0.12091751 0.20273931 -0.08981319 0.07725876 -0.10972833 -0.18800727
-0.16531286 -0.26752448 0.11987112 0.41449836 0.05609907 -0.18655916 -0.13776289 0.046691407
-0.21071643 0.03959982 -0.13812943 -0.021749362 -0.19961096 0.17601277 -0.1088159 -0.32284668
0.13783228 -0.15611921 -0.104046814 0.026090166 -0.12822679 0.121451385 0.16859761 0.024531724
0.2832348 -0.060423948 -0.13034117 0.095660396 -0.08559875 0.09915433 -0.085121 -0.2585198
-0.013164457 -0.010689822 0.012021508 0.12302009 -0.11561407 0.06532441 -0.1056097 0.024946595
-0.050759148 -0.25671166 0.3577541 -0.053530168 -0.27003166 0.41709432 -0.1514235 -0.13421738
0.27245718 0.14738956 -0.1458664 -0.19199434 0.3307846 -0.1497132 -0.2867151 0.07604882
-0.2544777 -0.26159206 0.05242785 -0.09597064 -0.1715485 -0.3040279 0.075073905 -0.21106529
-0.15573505 0.19379084 0.09315078 -0.08900303 0.22052337 -0.2880309 0.0899252 -0.24201584
0.122655615 -0.11411063 0.12635788 -0.09789762 -0.26100346 -0.073179476 -0.053688787 -0.3389059
0.00082652486 0.006881057 0.022531768 0.3964798 0.27393782 -0.086175896 0.3908269 0.18917735
0.22380061 0.1183481 -0.20091428 -0.17882696 0.453017 -0.19149108 -0.019140497 0.04359796
-0.005167085 -0.06590372 -0.20272565 0.0005733451 -0.23382081 0.33662146 0.041457828 0.1138821
-0.2677379 0.05070517 0.011612853 0.00089264783 0.16763178 0.19949508 0.025113326 -0.011724605
-0.1439121 0.18316342 -0.053793304 0.04296386 0.2256556 -0.076826625 -0.10868262 -0.00851643
0.022206102 -0.309698 -0.036423985 -0.06064985 -0.09297932 -0.09620244 -0.14570634 -0.383103
-0.07592447 0.26431355 0.09307025 -0.16493092 -0.06156728 0.29483792 -0.10113629 0.093369424
0.051389266 0.019704629 0.029841691 0.00415167 -0.14254841 -0.1659864 -0.106998034 0.11600983
-0.13668561 0.08298276 -0.15729243 -0.1654058 -0.18305723 -0.13912815 -0.24179633 -0.33649477
0.11238603 0.18460733 -0.106092125 -0.15192401 -0.048773523 0.03313562 -0.12719177 -0.26155192
-0.07645297 -0.027823435 0.22640292 0.14127602 -0.16456243 0.011172333 -0.28802338 -0.18577246
00000000: 75ab 2f3e 5ec1 bb3e 8388 273d d3b8 0ebe
00000010: 0055 32bd 1981 553c 00b0 c83c 9a7b f3be
00000020: ae0c 0cbd f8ef c2bd 65f6 08be 1dcd 90bc
00000030: 074b 043b cb9b 18be 2f5f 9a3e ffe8 9e3d
00000040: 46cb f9bd 80a8 71bd 246a 833e 0f71 03be
00000050: b263 243e d808 a43d 743b 14bd 8d13 bf3d
00000060: c7f3 cdbe 6b86 9cbc facd 273e 18b2 2e3e
00000070: 17ab 983d 2d03 a23b 993a 3c3e 75d3 fa3d
00000080: 7915 643e fb1e 3ebe 4261 d53d 1d6c 06bc
00000090: 2721 ce3d 81b5 81be 0473 7cbd 0c3b 193e
000000a0: dfdd 13be aa1f 863d 4856 01be 9b7e 02be
000000b0: 5767 b23d 0f61 85bd a7ec db3d b450 63be
000000c0: 0ed1 d9bc e96d aabe 237a 8bbe 6a44 1c3e
000000d0: 294a 00be 8553 cabc a876 1bbd 03ae ce3b
000000e0: e546 e3bd 5c1b 5e3e 74f5 e53e 025e 293d
000000f0: 0336 3fbd fe28 eb3b 0da8 353c 3e89 8e3c
00000100: e4ac 41bc ba1c 53be cfaa f23c 1038 b1bd
00000110: c9b2 253e 8662 b33b 97fa 1f3c a384 96be
00000120: eca6 a33d c514 90be db25 7f3c 9b46 c4bd
00000130: 2366 eabd f1c6 cebc 3965 fd3c bb26 e0bd
00000140: a56d af3d e9b4 133d 99a3 f7bd e59a 4f3e
00000150: faef b7bd d739 9e3d 3fb9 e0bd fa84 40be
00000160: c647 29be f8f8 88be fd7e f53d 2139 d43e
00000170: 23c8 653d 5d09 3fbe b711 0dbe 7d3f 3f3d
00000180: 0cc6 57be 6c33 223d cd71 0dbe b82b b2bc
00000190: d166 4cbe b13c 343e dfda debd 294c a5be
000001a0: e823 0d3e b7dd 1fbe 7f16 d5bd 0bbb d53c
000001b0: e24d 03be 81bb f83d daa4 2c3e c1f6 c83c
000001c0: 2704 913e 1a7f 77bd 2878 05be 99e9 c33d
000001d0: 664e afbd 6d11 cb3d eb53 aebd b55c 84be
000001e0: bcaf 57bc 5d24 2fbc dcf5 443c f5f1 fb3d
000001f0: 12c7 ecbd cec8 853d e649 d8bd cd5c cc3c
00000200: d3e8 4fbd b66f 83be 8c2b b73e 7342 5bbd
00000210: 9741 8abe 638d d53e c30e 1bbe 4870 09be
00000220: 827f 8b3e 4aed 163e 005e 15be 2a9a 44be
00000230: 995c a93e 6b4e 19be 52cc 92be 7cbf 9b3d
00000240: e74a 82be 65ef 85be 96be 563d 418c c4bd
00000250: 69aa 2fbe 8ba9 9bbe 59c0 993d 8021 58be
00000260: 0279 1fbe 1b71 463e d6c5 be3d 3847 b6bd
00000270: e1d0 613e c978 93be b42a b83d 00d3 77be
00000280: de32 fb3d d5b2 e9bd f663 013e 8c7e c8bd
00000290: 3fa2 85be 1fdf 95bd c6e8 5bbd 1385 adbe
000002a0: 25ab 583a 7d7a e13b 8b94 b83c 66ff ca3e
000002b0: 9441 8c3e fd7c b0bd 771a c83e b5b7 413e
000002c0: fd2b 653e 7d60 f23d 79bc 4dbe 6a1e 37be
000002d0: d8f1 e73e 3d16 44be 88cc 9cbc c693 323d
000002e0: a750 a9bb 88f8 86bd 5097 4fbe 8a4c 163a
000002f0: b96e 6fbe a659 ac3e afcf 293d 053b e93d
00000300: f114 89be 39b0 4f3d d643 3e3c 9500 6a3a
00000310: aaa7 2b3e 7048 4c3e 76ba cd3c 8f18 40bc
00000320: b25d 13be 318f 3b3e 5e56 5cbd dffa 2f3d
00000330: 4312 673e 4757 9dbd fe94 debd 7f88 0bbc
00000340: 92e9 b53c bc90 9ebe 5131 15bd fa6b 78bd
00000350: f16b bebd c905 c5bd 0b34 15be 1426 c4be
00000360: 4a7e 9bbd 1b54 873e 9d9b be3d a7e3 28be
00000370: f92d 7cbd fff4 963e 8b20 cfbd 7838 bf3d
00000380: 8d7d 523d 9a6b a13c 9076 f43c bb0a 883b
00000390: 36f8 11be 57f8 29be c921 dbbd 9096 ed3d
000003a0: 50f7 0bbe def2 a93d 4411 21be 2360 29be
000003b0: 5b73 3bbe 9c77 0ebe 7599 77be 0b49 acbe
000003c0: a62a e63d b409 3d3e d446 d9bd f891 1bbe
000003d0: bfc6 47bd 37b9 073d 8f3e 02be 22ea 85be
000003e0: 6093 9cbd f9ed e3bc 2bd6 673e a9aa 103e
000003f0: 0e83 28be 290c 373c cd77 93be 233b 3ebe

features_extractor.encoder.conv.4.bias f4 [16]
0.0026311364 -0.021501983 -0.0277092 -0.011062187 -0.024026465 -0.010279684 -0.046638865 -0.011712923
-0.037415586 -0.013791132 -0.032255705 -0.028993197 -0.007116634 -0.018088182 -0.05863568 0.052865792
00000000: 256f 2c3b ed24 b0bc 67fe e2bc 2d3e 35bc
00000010: 26d3 c4bc 1f6c 28bc 6508 3fbd 8fe7 3fbc
00000020: 1641 19bd 33f4 61bc 8f1e 04bd 2483 edbc
00000030: a732 e9bb ab2d 94bc f72b 70bd cd89 583d

features_extractor.encoder.conv.6.weight f4 [32, 16, 3, 3]
0.0053365002 -0.22859505 0.03240773 0.06461968 0.14411335 0.08379386 0.017807916 0.06257224
-0.07220745 -0.011065818 0.022173604 -0.05041303 0.11738274 0.10399313 -0.08571016 -0.09662084
-0.11330834 -0.20153947 0.06412325 -0.017750116 -0.07452603 -0.19158076 -0.11624718 0.09644728
0.17890055 -0.01353085 -0.008205447 0.079011016 -0.05875073 0.11417635 0.16371533 0.27946505
-0.1674532 -0.098716855 0.12759757 -0.07584959 -0.014435111 -0.15367815 0.16594826 -0.014481791
0.20512284 -0.059696842 0.11089129 0.0636105 -0.04043547 -0.11311003 0.0994503 0.1870928
-0.20758711 0.09249682 -0.26678738 -0.008918797 0.18296784 -0.0938161 0.03769157 -0.21454664
-0.13174288 0.055326592 0.01505483 0.05257734 -0.106419496 -0.00445686 -0.06774379 -0.22133544
0.022686502 -0.027594153 -0.09074964 -0.089339346 -0.05236877 -0.06931638 0.2083256 -0.09199777
0.0035393431 -0.15805654 -0.16277692 -0.0874144 -0.011867928 -0.16743235 0.0758739 0.03742918
0.005078949 0.087584056 -0.03349129 0.13209227 0.16198376 0.21589208 0.015830887 -0.16267295
0.16422312 -0.08754672 0.05045409 0.08042735 0.113970935 0.08650176 0.01290327 -0.0056478567
-0.002589024 -0.017532427 -0.029402586 -0.2955433 0.021675479 0.008374452 0.108785965 0.18801758
-0.045995135 0.1452951 -0.028319817 0.0335255 0.0020730903 0.058273286 0.09168471 0.10106958
0.13960037 0.059546996 0.08195724 -0.035553493 -0.016352676 0.057827312 0.017047992 0.021612506
-0.16159077 0.061099928 0.059752405 -0.014244153 0.5899758 0.034610216 0.04347136 -0.2397904
-0.0874137 0.07788427 0.20164776 -0.30592105 -0.23412322 -0.11793791 -0.10118922 -0.06212671
-0.22128384 0.01968306 0.20846058 -0.056512475 0.06782677 -0.23751749 -0.15324381 -0.23230761
0.09902161 -0.05494446 -0.13092923 0.1445481 -0.1869763 -0.17265446 0.055750497 0.1292197
-0.16075343 0.01118721 -0.24108784 0.09359388 0.22995917 -0.10040979 0.14186682 -0.15390533
-0.04510592 -0.19884719 0.1433823 0.009434906 -0.027746394 -0.106523946 0.09481988 -0.1315369
0.04503456 0.27477807 -0.021473413 0.15213081 -0.2589606 0.005411739 0.11530797 0.052701246
-0.10556686 0.052276477 0.06918372 0.0012282558 -0.07575282 -0.1253513 0.13803822 0.18510613
-0.15530519 -0.10325089 0.15725356 0.025735164 -0.11264679 0.04241348 -0.18787923 -0.021244137
-0.015996547 0.15789934 -0.093214065 -0.012475706 0.10311731 -0.09326973 0.07433068 0.2606979
0.04683857 0.016571868 -0.06868958 -0.03636197 0.0050880164 0.05661986 -0.09665405 0.14577065
-0.028760035 0.34091595 0.10109932 -0.28477612 -0.013701677 -0.15554337 -0.33688512 -0.012114054
-0.004303211 -0.14002356 0.05371798 0.05135317 -0.04724996 -0.1280679 -0.009311551 -0.16278002
-0.27924287 0.16818786 0.0808965 -0.04534898 0.17337655 0.004423308 -0.10550828 -0.09654911
0.1817419 -0.01200974 0.02753801 -0.092458956 0.17664474 0.022693772 -0.18029837 0.02806786
-0.15833066 0.04335055 -0.24492754 0.07980865 -0.09310969 0.20549217 -0.09063944 -0.2671859
-0.024603905 -0.165062 -0.097740695 -0.246709 0.099332266 0.18007977 0.23728873 -0.056688447
00000000: cfdd ae3b d214 6abe f8bd 043d 5357 843d
00000010: 7392 133e 1e9c ab3d e8e1 913c e025 803d
00000020: 80e1 93bd 684d 35bc 6ba5 b53c e57d 4ebd
00000030: 5d66 f03d 5afa d43d cf88 afbd 26e1 c5bd
00000040: 340e e8bd 5d60 4ebe 0d53 833d b168 91bc
00000050: 1aa1 98bd bf2d 44be 0013 eebd 2786 c53d
00000060: b531 373e 80b0 5dbc 2470 06bc 87d0 a13d
00000070: 9ba4 70bd 4ad5 e93d fea4 273e 0b16 8f3e
00000080: da78 2bbe 102c cabd f0a8 023e 0857 9bbd
00000090: 3e81 6cbc ce5d 1dbe 57ee 293e 0945 6dbc
000000a0: b90b 523e ad84 74bd f91a e33d 3946 823d
000000b0: aa9f 25bd 3ba6 e7bd 99ac cb3d 4195 3f3e
000000c0: b791 54be f96e bd3d 5b98 88be 2520 12bc
000000d0: ec5b 3b3e a822 c0bd 7a62 1a3d 1db2 5bbe
000000e0: 9be7 06be 239e 623d 89a8 763c 565b 573d
000000f0: 77f2 d9bd da0a 92bb 42bd 8abd c2a5 62be
00000100: 0bd9 b93c 220d e2bc f2da b9bd 8cf7 b6bd
00000110: a380 56bd bff5 8dbd 4e53 553e 5469 bcbd
00000120: 53f4 673b 93d9 21be feae 26be 5206 b3bd
00000130: b371 42bc 6373 2bbe c663 9b3d 574f 193d
00000140: 506d a63b 455f b33d 2a2e 09bd 3243 073e
00000150: 12df 253e d012 5d3e c7af 813c bd93 26be
00000160: 1b2a 283e b24b b3bd f3a8 4e3d 18b7 a43d
00000170: 9869 e93d d627 b13d 3d68 533c a811 b9bb
00000180: 9dac 29bb 2aa0 8fbc b1dd f0bc 7451 97be
00000190: c690 b13c ff34 093c 2dcb de3d ae87 403e
000001a0: 6565 3cbd 3dc8 143e f6fe e7bc 0952 093d
000001b0: afdc 073b f8af 6e3d 31c5 bb3d 91fd ce3d
000001c0: 66f3 0e3e 8de7 733d 33d9 a73d 8aa0 11bd
000001d0: 0cf6 85bc 55dc 6c3d 3ba8 8b3c b60c b13c
000001e0: 0d78 25be eb43 7a3d f0be 743d 4f60 69bc
000001f0: a708 173f 71c3 0d3d 060f 323d 9d8b 75be
00000200: f405 b3bd ca81 9f3d c07c 4e3e afa1 9cbe
00000210: ffbd 6fbe 6e89 f1bd 4b3c cfbd 9478 7ebd
00000220: 3b98 62be 5e3e a13c b176 553e a079 67bd
00000230: c3e8 8a3d c937 73be f2eb 1cbe 0ce2 6dbe
00000240: d8cb ca3d 710d 61bd 5012 06be 6b04 143e
00000250: b776 3fbe 55cc 30be a25a 643d 2b52 043e
00000260: 8c9c 24be 8f4a 373c bbdf 76be 26ae bf3d
00000270: 6b7a 6b3e a6a3 cdbd 8945 113e 5c99 1dbe
00000280: fcc0 38bd 999e 4bbe cfd2 123e dd94 1a3c
00000290: 684c e3bc 3a29 dabd ed30 c23d 9cb1 06be
000002a0: 2976 383d b6af 8c3e 03e9 afbc 2ec8 1b3e
000002b0: 7c96 84be f554 b13b 9626 ec3d 43dd 573d
000002c0: 7033 d8bd dc1f 563d 32b0 8d3d 6dfd a03a
000002d0: 4b24 9bbd 175c 00be e459 0d3e 768c 3d3e
000002e0: 5308 1fbe 3475 d3bd 1407 213e 8dd2 d23c
000002f0: 5cb3 e6bd c2b9 2d3d 6a63 40be 2f08 aebc
00000300: 310b 83bc 5db0 213e 04e7 bebd e766 4cbc
00000310: 2b2f d33d 3304 bfbd af3a 983d 327a 853e
00000320: cdd9 3f3d bac1 873c 1fad 8cbd 4af0 14bd
00000330: 60b9 a63b 3aea 673d 8ff2 c5bd e744 153e
00000340: 2a9a ebbc 898c ae3e 290d cf3d 2dce 91be
00000350: 007d 60bc c346 1fbe 357c acbe 067a 46bc
00000360: f301 8dbb 5662 0fbe 6207 5c3d b457 523d
00000370: 2d89 41bd 3b24 03be 7a8f 18bc ceaf 26be
00000380: ecf8 8ebe 7039 2c3e 10ad a53d dabf 39bd
00000390: 9f89 313e 66f1 903b ba14 d8bd 8abb c5bd
000003a0: 8c1a 3a3e 80c4 44bc 6597 e13c 1f5b bdbd
000003b0: 5ce2 343e 4ae8 b93c 23a0 38be 92ee e53c
000003c0: 6f21 22be 5990 313d 49ce 7abe b872 a33d
000003d0: 4bb0 bebd 8a6c 523e 2ca1 b9bd 97cc 88be
000003e0: 218e c9bc 0306 29be 462c c8bd 49a1 7cbe
000003f0: b76e cb3d d566 383e d1fb 723e 2532 68bd

features_extractor.encoder.conv.6.bias f4 [32]
-0.019295285 -0.0067790505 -0.015375052 0.091347136 -0.031442385 0.026859544 0.0029214441 -0.007396017
-0.020292092 -0.031072473 -0.08362578 -0.029376402 -0.038912904 -0.01989882 -0.022445181 0.02353803
-0.01995622 -0.009763567 -0.0026226018 -0.0021880195 -0.018299947 -0.027170978 -0.0037392296 -0.026290689
-0.010443387 -0.004393581 -0.007986441 -0.031372637 -0.02930239 0.021895029 -0.012225735 -0.02322781
00000000: 2511 9ebc cc22 debb a4e7 7bbc 3514 bb3d
00000010: bbc9 00bd 8c08 dc3c b375 3f3b 4a5a f2bb
00000020: 9a3b a6bc b38b febc fe43 abbd c8a6 f0bc
00000030: 2363 1fbd da02 a3bc f5de b7bc d4d2 c03c
00000040: 3a7b a3bc 5ef7 1fbc f5df 2bbb e064 0fbb
00000050: c5e9 95bc ac95 debc dd0d 75bb 925f d7bc
00000060: bd1a 2bbc 07f8 8fbb 90d9 02bc 9880 00bd
00000070: 910b f0bc 345d b33c 734e 48bc 4048 bebc

features_extractor.encoder.conv.8.weight f4 [64, 32, 3, 3]
-0.029272074 0.10171953 -0.12711808 -6.5994995e-05 0.059436023 -0.0017702997 -0.052091513 -0.15444824
0.010843883 -0.15068564 -0.19585143 -0.12452419 0.14691436 0.035188634 -0.026721492 -0.06567049
-0.07353208 0.10187386 -0.13524187 -0.10959995 -0.106080234 -0.059455507 -0.04119251 -0.06705205
-0.055892505 -0.05366722 -0.032899223 0.07069047 0.024386281 0.00441218 0.061572596 -0.09960794
0.05590993 0.19571455 -0.03934828 0.010231773 -0.040330075 -0.13123912 -0.09980782 0.01439349
0.015057667 0.04373847 -0.03418524 0.011212138 -0.0024021345 0.080966674 -0.033963427 -0.1536942
-0.07900534 -0.0019830882 -0.010749709 0.012422279 0.06316554 -0.029995605 0.088714525 -0.058042485
-0.13074183 -0.014617694 0.05287781 -0.11487104 -0.11552789 0.15523183 0.0034583788 -0.13155168
0.108715385 -0.08991029 0.042270754 -5.6160115e-07 -0.09462895 -0.15908393 0.10041584 0.16810757
0.07346388 0.109996475 -0.2615316 -0.008536839 0.06634801 0.07479899 -0.045072127 -0.000606456
-0.019576298 0.091995165 0.04512441 -0.08501447 -0.08587819 0.09334598 -0.09546922 0.08999036
-0.052978978 -0.054348715 -0.1582718 0.05418706 0.0069115283 0.026435517 0.14227948 -0.0837742
0.036546335 -0.21185642 -0.011755901 0.017107677 0.19772801 -0.10305332 -0.031972755 -0.12547475
-0.060237765 0.050496124 -0.03991733 -0.06544903 0.007168471 0.08701942 -0.14154653 -0.054835156
0.034047097 -0.12241401 -0.0027741157 0.046477783 0.01869208 0.05539083 -0.23359717 -0.15313423
-0.035862613 -0.11506643 -0.060229916 0.025301393 -0.12920213 0.008464617 0.079796955 -0.04466078
-0.24968247 -0.06506799 0.17252664 -0.052996427 0.09854838 -0.04999717 -0.1356597 -0.11140175
0.050525565 0.087749235 0.0035706714 -0.053305086 -0.10331855 0.03274194 -0.07628317 -0.084317
-0.18275349 -0.013411123 0.030100713 -0.12929147 0.16049846 -0.0478379 0.114773795 0.09546551
-0.07027418 0.07721125 0.04651004 0.0015234097 0.004124415 0.2795125 -0.14615586 0.05404401
-0.028618556 -0.024062004 -0.037097264 -0.08674675 -0.09045575 -0.09225199 0.10633977 0.10185259
-0.09674539 0.11953028 -0.03265321 0.008165791 0.08311399 0.04359598 -0.06453355 0.21903838
-0.041872602 -0.1765563 0.07247205 -0.11393343 0.07945524 -0.065548874 0.016238412 -0.04805636
0.08205636 -0.17114457 -0.017789658 -0.028144725 -0.11322902 -0.09886601 -0.019067418 -0.107763164
0.17805785 0.033758298 0.07861049 -0.07300932 -0.06299359 0.19196865 -0.076591656 -0.055301726
0.0031038334 -0.09758653 0.19956785 0.031943277 -0.012878824 0.15528968 -0.097235456 0.1687432
-0.062022943 -0.22691542 0.039776403 -0.15512829 -0.034257185 0.13499103 -0.07969852 -0.14721142
-0.08193983 -0.19344485 -0.042563796 0.037817087 0.07184908 0.12287034 0.024187896 -0.20504482
-0.0342534 0.05124483 -0.10543853 0.059197046 0.1022646 0.24464145 -0.21208219 0.018647159
-0.16507211 -0.053613942 -0.02524476 -0.19538079 -0.14995247 -0.030180821 -0.14232038 -0.19103423
0.034455877 0.018859426 -0.1003797 -0.005588821 -0.18385424 0.016021464 -0.02427877 -0.046181224
-0.15378712 0.09393588 -0.13386086 0.11841503 -0.060302436 -0.112207495 0.06675535 0.107836135
00000000: fdcb efbc 5452 d03d 3e2b 02be cb66 8ab8
00000010: 3073 733d 6709 e8ba e95d 55bd ae27 1ebe
00000020: 8baa 313c 564d 1abe 478d 48be 8a06 ffbd
00000030: b870 163e f521 103d 08e7 dabc 407e 86bd
00000040: fd97 96bd 3ea3 d03d d87c 0abe f075 e0bd
00000050: 9840 d9bd 9e87 73bd 7ab9 28bd 9652 89bd
00000060: 8aef 64bd 29d2 5bbd 56c1 06bd 2ac6 903d
00000070: bdc5 c73c 0c94 903b 8c33 7c3d 3fff cbbd
00000080: d001 653d 6569 483e a92b 21bd 2ba3 273c
00000090: 2631 25bd 8c63 06be 0b68 ccbd acd2 6b3c
000000a0: 6fb4 763c 1c27 333d d205 0cbd 1eb3 373c
000000b0: 216d 1dbb dbd1 a53d 3c1d 0bbd 0362 1dbe
000000c0: 8dcd a1bd b3f6 01bb 8c1f 30bc d186 4b3c
000000d0: ef5c 813d 58b9 f5bc f6af b53d f5bd 6dbd
000000e0: 30e1 05be 0d7f 6fbc 6796 583d 8241 ebbd
000000f0: e399 ecbd 18f5 1e3e f8a5 623b 7cb5 06be
00000100: 2ca6 de3d e322 b8bd 1924 2d3d f0c0 16b5
00000110: d3cc c1bd e6e6 22be d2a6 cd3d 6424 2c3e
00000120: 3b74 963d d545 e13d 78e7 85be 19de 0bbc
00000130: 77e1 873d 3630 993d 8d9d 38bd 93fa 1eba
00000140: 795e a0bc f667 bc3d 60d4 383d 111c aebd
00000150: e8e0 afbd 2d2c bf3d 5e85 c3bd de4c b83d
00000160: 7c00 59bd c29c 5ebd 0112 22be 40f3 5d3d
00000170: 1a7a e23b 4c8f d83c b6b1 113e cf91 abbd
00000180: 9cb1 153d e4f0 58be d39b 40bc 6625 8c3c
00000190: 3679 4a3e 9e0d d3bd ddf5 02bd 747c 00be
000001a0: e0bb 76bd 06d5 4e3d 5b80 23bd 240a 86bd
000001b0: 7ee5 ea3b 3d37 b23d 93f1 10be d49a 60bd
000001c0: f874 0b3d 32b4 fabd f0cd 35bb 7d5f 3e3d
000001d0: 2220 993c 7fe1 623d 1934 6fbe 38cf 1cbe
000001e0: ade4 12bd f3a7 ebbd a5b3 76bd de44 cf3c
000001f0: 904d 04be 2daf 0a3c 966c a33d 39ee 36bd
00000200: c3ac 7fbe 5e42 85bd d3aa 303e c812 59bd
00000210: bcd3 c93d d5c9 4cbd 60ea 0abe 9a26 e4bd
00000220: e5f3 4e3d dfb5 b33d ed01 6a3b 6f56 5abd
00000230: ad98 d3bd 6a1c 063d 5a3a 9cbd 64ae acbd
00000240: bb23 3bbe 54ba 5bbc c595 f63c fc64 04be
00000250: b559 243e adf1 43bd 860e eb3d 6c83 c33d
00000260: e9eb 8fbd ef20 9e3d 5081 3e3d 26ad c73a
00000270: 1a26 873b 431c 8f3e e2a9 15be 405d 5d3d
00000280: 7671 eabc ae1d c5bc 4df3 17bd 48a8 b1bd
00000290: dd40 b9bd 9dee bcbd aac8 d93d 1798 d03d
000002a0: 7222 c6bd 4bcc f43d 5fbf 05bd cfc9 053c
000002b0: ab37 aa3d b391 323d 2a2a 84bd 994b 603e
000002c0: 9b82 2bbd 2dcb 34be 3a6c 943d ee55 e9bd
000002d0: 6eb9 a23d 7d3e 86bd 6b06 853c bfd6 44bd
000002e0: 2a0d a83d 8640 2fbe 9ebb 91bc c48f e6bc
000002f0: 9ee4 e7bd 437a cabd 4633 9cbc efb2 dcbd
00000300: cc54 363e 2446 0a3d 89fe a03d e985 95bd
00000310: c902 81bd 6e93 443e 16dc 9cbd 1084 62bd
00000320: af69 4b3b 72db c7bd 845b 4c3e f4d6 023d
00000330: b401 53bc 4204 1f3e 6223 c7bd 04cb 2c3e
00000340: c50b 7ebd 845c 68be 95ec 223d f3d9 1ebe
00000350: 4351 0cbd 173b 0a3e fa38 a3bd 97be 16be
00000360: 12d0 a7bd 6816 46be 6057 2ebd 17e6 1a3d
00000370: 9c25 933d 72a3 fb3d b225 c63c 45f7 51be
00000380: 4b4d 0cbd 19e6 513d 28f0 d7bd 9a78 723d
00000390: 1a70 d13d 4a83 7a3e 132c 59be edc1 983c
000003a0: aa08 29be 4b9a 5bbd 19ce cebc e711 48be
000003b0: 248d 19be c53d f7bc 6fbc 11be 7a9e 43be
000003c0: 9b21 0d3d 157f 9a3c df93 cdbd 6e22 b7bb
000003d0: 4944 3cbe 723f 833c 45e4 c6bc 8628 3dbd
000003e0: 5f7a 1dbe 7461 c03d d212 09be 9483 f23d
000003f0: b0ff 76bd 0bcd e5bd 07b7 883d 31d9 dc3d

features_extractor.encoder.conv.8.bias f4 [64]
-0.057230525 -0.021453805 -0.025790907 -0.027564501 -0.038733333 -0.04299481 -0.05077933 0.0012710481
-0.03630063 -0.04641908 -0.023930566 -0.035339557 -0.056789126 -0.0724499 0.031487428 -0.019908937
-0.04284471 0.018063093 0.008103836 0.0012263862 -0.051617067 -0.057560313 -0.01564343 -0.043122195
-0.005763711 -0.012636797 -0.033071343 0.016396267 -0.07577364 0.030468559 0.013989952 -0.051609103
-0.036266897 -0.04214234 -0.053407893 0.009210771 -0.03442351 -0.030415267 -0.0089093065 -0.01950198
0.03208016 -0.015017759 -0.023775911 0.0136519475 -0.041246094 0.06627773 -0.012396445 0.027702123
-0.0052311867 -0.0076043233 -0.055820428 -0.01705965 -0.022595935 -0.023925845 -0.024218852 -0.037480623
-0.035507873 -0.010380829 -0.03837171 -0.004137893 -0.06902522 -0.020887716 -0.0068681473 -0.0662813
00000000: 8e6a 6abd e4bf afbc 7447 d3bc f3ce e1bc
00000010: d8a6 1ebd 531b 30bd fdfd 4fbd 4c99 a63a
00000020: f8af 14bd ef21 3ebd 090a c4bc 36c0 10bd
00000030: b79b 68bd 9d60 94bd f6f8 003d 1118 a3bc
00000040: ef7d 2fbd 0df9 933c f4c5 043c b1be a03a
00000050: 6b6c 53bd 5dc4 6bbd a726 80bc e6a0 30bd
00000060: 83dd bcbb 910a 4fbc d175 07bd 7751 863c
00000070: 362f 9bbd 3399 f93c 1d36 653c 1164 53bd
00000080: 998c 14bd 729d 2cbd 3cc2 5abd c6e8 163c
00000090: abff 0cbd 7029 f9bc 57f8 11bc 9ec2 9fbc
000000a0: 7c66 033d 0c0d 76bc b3c5 c2bc 6bac 5f3c
000000b0: aaf1 28bd 9ebc 873d 751a 4bbc 90ef e23c
000000c0: 606a abbb b02d f9bb f6a3 64bd aec0 8bbc
000000d0: 1c1b b9bc 2200 c4bc 9d66 c6bc 4885 19bd
000000e0: b470 11bd 5a14 2abc a72b 1dbd 2a97 87bb
000000f0: 185d 8dbd b71c abbc 320e e1bb 7dbe 87bd

features_extractor.encoder.conv.10.weight f4 [128, 64, 3, 3]
0.09065236 -0.006921374 0.055358455 0.041511696 0.0023555977 -0.056592256 0.034958158 -0.093697645
-0.14378287 0.024472503 -0.046172664 -0.028077865 0.007355985 0.0051026703 0.07639242 0.06335989
-0.027155668 -0.10164344 0.0822612 0.088569805 -0.09622989 0.093297824 -0.033407733 -0.080551624
0.11274581 -0.0022990054 0.14752643 -0.04741855 0.03944615 -0.00946794 -0.014427053 0.018590076
-0.1135734 -0.03205588 0.057934325 0.02005418 0.01934685 0.1287257 -0.023083553 -0.06606397
0.14512704 -0.10041239 -0.07684858 0.069669634 -0.17837094 0.09259879 -0.059962906 -0.048763193
0.01713271 -0.028585022 -0.1436756 0.019823816 -0.085111015 0.004586693 0.13013192 -0.092192896
-0.09679114 0.06601637 -0.046580084 0.04631059 0.0045525497 -0.09678076 -0.18236688 -0.0008635153
-0.097060055 -0.13127841 -0.050091542 0.048157305 -0.05884859 -0.08011789 -0.1979533 -0.090937085
0.023845358 -0.02844023 0.0019250279 0.03955194 -0.06480561 -0.16530591 0.060086776 0.0063413517
0.017954499 0.00703693 0.01094861 0.07881539 -0.005520951 -0.11088639 -0.030184213 0.11841067
0.026584584 0.05302686 0.0819885 -0.06944073 -0.08306107 -0.04760853 -0.07093428 -0.04344255
0.090409555 -0.055127285 0.101861395 0.029630003 -0.051728234 -0.026780501 -0.058062494 0.064585224
-0.17667536 0.047778975 -0.037965946 -0.112632945 -0.045072675 0.016387125 0.018961107 -0.10319182
-0.23464222 -0.07785196 0.044862706 0.121729486 0.022162179 0.053684443 -0.05850701 0.044954598
-0.07233723 -0.096851364 -0.01352216 0.0123403985 -0.025956549 -0.0052072033 -0.12940383 0.051927075
0.065033935 0.048275474 0.047696732 -0.014707347 0.07597396 -0.14441286 0.07281211 0.06385347
-0.0120843295 -0.04407536 0.09743217 0.097764984 -0.047787674 -0.05538265 -0.0071509304 -0.0011880301
-0.031079914 -0.0015251804 -0.0012369656 -0.013734015 -0.15591088 -0.06457109 -0.022973532 0.13816129
-0.12067468 -0.016671494 0.10751138 0.042516615 -0.03699269 -0.09040033 -0.06657685 0.014227416
-0.19044253 -0.14617594 -0.0018086267 0.07045142 0.012081171 0.021835795 -0.10983313 -0.16313879
0.1404119 -0.15205397 -0.2976712 0.023463905 0.033000488 0.021923179 0.13405824 -0.093814954
-0.1248524 0.05030453 0.062473208 -0.1867149 -6.5677814e-05 -0.0057084938 -0.038882952 0.026989108
-0.07845153 -0.034125384 0.05858708 0.068224944 0.022778181 -0.036789853 0.06464268 -0.00036734954
-0.011073892 -0.23429438 -0.17480032 -0.02447683 0.058134582 0.048413258 0.048173055 0.004804889
0.08553583 0.0112668695 -0.10568195 -0.16844809 0.010548101 0.06574811 -0.024179826 0.05511647
-0.013397059 0.11165631 -0.05930682 -0.12782739 -0.049492925 0.05804455 -0.022603817 -0.11603443
-0.025841732 -0.05819688 -0.09279485 0.014804985 0.004119917 -0.056788225 -0.025432568 -0.110394254
-0.009462679 0.079760775 0.14034623 -0.035856187 0.051718824 -0.14602788 -0.15887871 0.09996783
0.08418552 -0.042797104 0.10072299 0.009920643 0.026662389 -0.042524688 -0.10969878 -0.12827832
-0.1345684 -0.06872404 -0.1475794 -0.046987537 0.05702357 0.07040718 -0.056757964 0.020438349
0.0052482863 -0.039671782 -0.18235688 0.051434614 0.1287609 0.006584248 0.027263701 -0.060305327
00000000: f2a7 b93d b1cc e2bb 8cbf 623d 2b08 2a3d
00000010: 5f60 1a3b 48cd 67bd 4930 0f3d 8de4 bfbd
00000020: d13b 13be 8f7a c83c 8c1f 3dbd 8d03 e6bc
00000030: 7a0a f13b 4d34 a73b a173 9c3d d4c2 813d
00000040: 9075 debc 702a d0bd 8f78 a83d 1664 b53d
00000050: 2d14 c5bd ee12 bf3d 8cd6 08bd 40f8 a4bd
00000060: 46e7 e63d e9aa 16bb 2b11 173e f439 42bd
00000070: 4992 213d 6b1f 1bbc 725f 6cbc 374a 983c
00000080: 2c99 e8bd 074d 03bd 8b4c 6d3d aa48 a43c
00000090: 497d 9e3c abd0 033e b819 bdbc 8c4c 87bd
000000a0: 2f9c 143e 03a5 cdbd ca62 9dbd f4ae 8e3d
000000b0: dfa6 36be 6fa4 bd3d aa9b 75bd eabb 47bd
000000c0: e659 8c3c 232b eabc b21f 13be 8e65 a23c
000000d0: af4e aebd f84b 963b 4d41 053e a1cf bcbd
000000e0: 6f3a c6bd 9733 873d c2ca 3ebd 2cb0 3d3d
000000f0: 8e2d 953b fe34 c6bd 62be 3abe 885d 62ba
00000100: 6cc7 c6bd d96d 06be ca2c 4dbd 9840 453d
00000110: 380b 71bd d914 a4bd 45b4 4abe 393d babd
00000120: 5757 c33c 7cfb e8bc 3851 fc3a 3701 223d
00000130: ceb8 84bd f445 29be 8d1d 763d 1dcb cf3b
00000140: 5015 933c 0c96 e63b cc61 333c f769 a13d
00000150: 18e9 b4bb 6718 e3bd e244 f7bc 4b81 f23d
00000160: eac7 d93c b132 593d 96e9 a73d f136 8ebd
00000170: ec1b aabd 2901 43bd fe45 91bd d1f0 31bd
00000180: a528 b93d 26cd 61bd b59c d03d 9fba f23c
00000190: fce0 53bd c862 dbbc f0d2 6dbd 4245 843d
000001a0: 63ea 34be e3b3 433d 2e82 1bbd 1aac e6bd
000001b0: 209e 38bd 4b3e 863c 5354 9b3c 3c56 d3bd
000001c0: 0d46 70be d970 9fbd f5c1 373d 4f4d f93d
000001d0: 758d b53c 38e4 5b3d 0ca5 6fbd 5022 383d
000001e0: 8b25 94bd 025a c6bd 0d8c 5dbc 622f 4a3c
000001f0: d4a2 d4bc 30a1 aabb 7082 04be 7cb1 543d
00000200: 8330 853d 81bc 453d a65d 433d 16f7 70bc
00000210: 3c98 9b3d f7e0 13be 841e 953d 9cc5 823d
00000220: 5afd 45bc 5d88 34bd 848a c73d 0239 c83d
00000230: 02bd 43bd ebd8 62bd 5a52 eabb adb7 9bba
00000240: 4e9b febc 90e8 c7ba ae21 a2ba a204 61bc
00000250: 1aa7 1fbe d93d 84bd fd32 bcbc 277a 0d3e
00000260: 4924 f7bd a892 88bc ed2e dc3d e725 2e3d
00000270: a685 17bd cf23 b9bd 7259 88bd 1c1a 693c
00000280: 5e03 43be 25af 15be 710f edba d648 903d
00000290: 1bf0 453c fbe0 b23c 31f0 e0bd db0d 27be
000002a0: 23c8 0f3e 09b4 1bbe 5c68 98be 6037 c03c
000002b0: 852b 073d 3d98 b33c 9046 093e 0e22 c0bd
000002c0: 9db2 ffbd 1f0c 4e3d e8e3 7f3d 3132 3fbe
000002d0: 82bc 89b8 510e bbbb bb43 1fbd 4318 dd3c
000002e0: 32ab a0bd 0fc7 0bbd 02f9 6f3d 85b9 8b3d
000002f0: 4f99 ba3c f5b0 16bd 6263 843d d298 c0b9
00000300: 456f 35bc deea 6fbe dbfe 32be a283 c8bc
00000310: 871e 6e3d fb4c 463d 1c51 453d 5572 9d3b
00000320: 692d af3d ad98 383c c76f d8bd a87d 2cbe
00000330: f1d1 2c3c f2a6 863d c514 c6bc cfc1 613d
00000340: 577f 5bbc 10ac e43d b5eb 72bd 2fe5 02be
00000350: 18b9 4abd 1fc0 6d3d a42b b9bc 76a3 edbd
00000360: 0ab2 d3bc da5f 6ebd 3a0b bebd 9c90 723c
00000370: 5e00 873b c59a 68bd f657 d0bc 6216 e2bd
00000380: 5a09 1bbc 9e59 a33d ecb6 0f3e f0dd 12bd
00000390: 1ed7 533d 5588 15be 1ab1 22be efbb cc3d
000003a0: 7569 ac3d 044c 2fbd db47 ce3d 318a 223c
000003b0: 156b da3c 5e2e 2ebd c1a9 e0bd 645b 03be
000003c0: 4ccc 09be 31bf 8cbd 0e1f 17be 0176 40bd
000003d0: 8c91 693d a431 903d 0a7b 68bd 536e a73c
000003e0: d1f9 ab3b e17e 22bd c3bb 3abe 1aad 523d
000003f0: e6d9 033e adc0 d73b 2058 df3c b802 77bd

features_extractor.encoder.conv.10.bias f4 [128]
-0.012786668 -0.029708896 -0.027878253 0.01365021 -0.0037638685 0.031143155 -0.014648596 0.059315767
-0.010094744 -0.0127359405 0.04880063 -0.004247637 0.035745565 -0.029185025 -0.010824703 0.0053309347
0.008615996 0.047133822 0.039049894 -0.034747753 0.06278534 0.010469182 -0.0018149238 0.002065184
0.007580243 0.02855145 9.828449e-06 0.03836456 -0.042514566 -0.022134561 0.021976452 0.058460988
0.019026559 0.042820305 -0.00808379 0.030440053 0.028334405 -0.016903538 -0.028142985 -0.016976686
0.019533373 0.026701048 -0.042825297 0.033960417 0.008357904 0.009327069 0.008150794 -0.03844193
0.03093105 0.0064171194 -0.008621199 0.0026165622 -0.04657558 0.03829632 0.029085608 0.0046000592
-0.026263608 0.023049448 0.016631732 -0.038426466 -0.007262327 0.025450066 0.033264548 -0.027203074
0.023564212 -0.021517314 0.023834527 0.009110299 0.017573744 -0.048861988 0.012433393 -0.014929091
0.012879115 -0.012809107 0.024308426 0.0019044239 -0.036401138 -0.015466979 0.034197997 0.0399619
-0.060816687 0.0014453429 0.032822713 0.0589105 0.04463433 0.0070249424 0.023708213 0.0067427405
0.011324554 -0.020441314 0.0061868476 0.03218031 0.017603692 0.019440942 0.00060946814 0.041595746
0.021650704 0.04501187 0.0149551425 0.021284927 0.03156968 -0.015677415 0.0032635978 -0.0059257676
0.030464767 -0.008416525 0.013883431 0.030752419 0.0042344136 0.056404416 0.010291047 0.0068106516
0.032874484 0.04310113 0.021886826 0.021966277 0.014547379 0.047028255 0.007907754 0.052452438
-0.0064651715 0.0041036783 -0.020182407 -0.01132696 -0.06438427 -0.024660543 0.009756409 0.04269072
00000000: 2c7f 51bc 1260 f3bc ef60 e4bc 21a5 5f3c
00000010: 3cab 76bb ee1f ff3c aa00 70bc 17f5 723d
00000020: 6d64 25bc 68aa 50bc 2be3 473d c32f 8bbb
00000030: f169 123d 6f15 efbc 185a 31bc 1faf ae3b
00000040: 1b2a 0d3c 650f 413d c8f2 1f3d a953 0ebd
00000050: 9a95 803d ef86 2b3c bde2 edba 0a58 073b
00000060: b063 f83b bbe4 e93c dee4 2437 2824 1d3d
00000070: c123 2ebd 8a53 b5bc f607 b43c ca74 6f3d
00000080: 96dd 9b3c 5864 2f3d df71 04bc 6b5d f93c
00000090: 8e1d e83c 4a79 8abc 1e8c e6bc b112 8bbc
000000a0: 7404 a03c 28bc da3c 9469 2fbd 141a 0b3d
000000b0: 97ef 083c 90d0 183c e88a 053c 4975 1dbd
000000c0: 1d63 fd3c b346 d23b ee3f 0dbc a17a 2b3b
000000d0: 09c6 3ebd 9adc 1c3d f144 ee3c 18bc 963b
000000e0: c726 d7bc 32d2 bc3c 453f 883c 1265 1dbd
000000f0: d0f8 edbb a87c d03c 6840 083d fbd8 debc
00000100: bc09 c13c 1445 b0bc a040 c33c 5d43 153c
00000110: d0f6 8f3c 8223 48bd 6eb5 4b3c 2599 74bc
00000120: ec02 533c 4add 51bc 7722 c73c dd9d f93a
00000130: 5c19 15bd 3669 7dbc 3313 0c3d 17af 233d
00000140: eb1a 79bd a971 bd3a 1c71 063d 234c 713d
00000150: 7dd2 363d 7d31 e63b ba37 c23c 35f2 dc3b
00000160: 9f8a 393c 8b74 a7bc 0abb ca3b 80cf 033d
00000170: 9e35 903c 9c42 9f3c b7c4 1f3a 4d60 2a3d
00000180: d15c b13c 5e5e 383d 6a06 753c ba5d ae3c
00000190: 354f 013d ec6d 80bc 16e2 553b f12c c2bb
000001a0: 3f91 f93c 77e5 09bc 5577 633c 7fec fb3c
000001b0: d6c0 8a3b 5108 673d c89b 283c e32b df3b
000001c0: 65a7 063d cf8a 303d 004c b33c 9ff2 b33c
000001d0: 2158 6e3c b3a0 403d 868f 013c 5ed8 563d
000001e0: cad9 d3bb 2678 863b 9355 a5bc b794 39bc
000001f0: e6db 83bd e804 cabc 58d9 1f3c 77dc 2e3d

features_extractor.encoder.fc.weight f4 [64, 128]
0.0362112 0.21046929 -0.04068326 0.08879542 0.11549222 0.20157629 0.01887544 -0.2580187
-0.27142873 -0.06541682 0.081467204 0.27607596 -0.11675171 0.011639593 0.041348115 0.16077055
0.16664098 -0.09065607 0.066917874 -0.07184003 -0.026028885 -0.07968291 0.066055596 -0.029209029
0.0753162 0.10265921 0.35921705 -0.0009148303 -0.032462776 0.09301376 -0.14205223 0.16677877
-0.35450307 -0.1655269 -0.30434963 0.15701571 -0.2749288 -0.019239502 -0.3700946 0.014598528
-0.10990991 0.0035472452 0.118807614 0.023643268 0.09129905 -0.018152045 -0.13535237 0.08297346
0.24593215 0.08789311 -0.39807957 0.08155948 -0.09747006 -0.11272996 -0.16157746 0.02366733
0.033816572 0.0872156 0.041986432 0.09633355 0.15157482 0.066225156 -0.29399136 -0.17762962
-0.28558853 -0.007816362 -0.13694589 -0.013275177 -0.06262539 -0.055410765 0.22711703 -0.09905421
-0.092784144 -0.05773854 0.06576696 0.0908854 -0.13787073 -0.2449913 -0.25349385 0.2824172
-0.025450192 -0.013446608 -0.1548879 0.19279101 -0.12775324 -0.054679807 0.11239182 0.042977493
0.34666932 -0.00086457696 -0.15970255 0.19025856 -0.13004173 0.21071842 -0.1503904 0.14115568
0.17497113 -0.2029005 0.0149892 0.105073944 0.031354338 -0.010871841 0.12545608 0.09329956
-0.24040172 -0.21743698 -0.007322865 -0.115364574 -0.16143507 -0.12232754 0.012997214 -0.019356163
0.067819245 0.10476163 -0.0757658 -0.16750038 -0.32147735 0.2051061 -0.059763882 -0.08402201
0.31188694 0.32031894 0.017951379 0.20375562 -0.06827845 0.08729655 0.14059974 0.008749689
-0.052278813 0.045302104 -0.21794474 0.007016972 0.009249141 -0.00026767826 -0.1466314 -0.10133533
-0.12087458 -0.12170225 -0.004549505 -0.031706717 -0.049673133 0.024233527 -0.02639297 -0.14626588
0.021950273 -0.03167978 -0.06649922 0.24422514 0.042578354 0.116307564 -0.013396663 0.35406804
-0.17834193 -0.1467855 0.13487712 0.06904922 0.18194544 0.08829284 0.027491806 0.08255791
-0.05082015 -0.31960455 -0.068246014 0.077068746 0.24288832 -0.1962356 0.11541497 0.020163344
-0.15127017 0.12609057 0.06984971 -0.0554424 -0.28207672 0.09663766 -0.36632007 -0.012988183
0.072541215 -0.08066465 0.09539099 0.15102802 -0.0043683005 -0.33859557 0.007294663 0.22183985
0.10257127 0.024914294 -0.11642741 -0.20195678 0.102671005 -0.10869973 -0.1454547 0.052964687
0.11105256 -0.0677069 -0.011653549 0.13983302 0.12443549 0.095960766 0.19580947 -0.017442867
-0.018813694 -0.037378866 0.17423692 0.057041362 0.11080724 0.042577732 0.013495279 0.1001881
0.058729965 -0.024537144 0.012864346 -0.09653574 -0.023337603 -0.18955386 0.1257927 -0.0860926
0.03887857 -0.1236185 -0.04099358 -0.09467154 -0.035584982 0.18593311 -0.06780676 -0.09769828
-0.051894482 -0.15816548 0.20920858 0.1853278 -0.08372026 -0.1036193 0.021919567 0.046690747
0.04153871 -0.2112981 -0.14871022 -0.0039454713 0.01595712 -0.22078669 0.1165546 -0.014901928
0.050015043 0.09990773 0.12731682 -0.12218758 -0.11609408 -0.17281473 -0.003260202 -0.07176059
-0.09382268 0.039621122 -0.012084797 0.007907067 0.118571825 -0.03996944 0.112076655 0.011301965
00000000: 3252 143d 4385 573e 7da3 26bd 60da b53d
00000010: 2f87 ec3d 046a 4e3e aba0 9a3c 071b 84be
00000020: b5f8 8abe 41f9 85bd 47d8 a63d d459 8d3e
00000030: 851b efbd feb3 3e3c a45c 293d 09a1 243e
00000040: efa3 2a3e e4a9 b9bd 3d0c 893d de20 93bd
00000050: 873a d5bc cb30 a3bd 2848 873d c647 efbc
00000060: 613f 9a3d fe3e d23d 4ceb b73e 39d1 6fba
00000070: b0f7 04bd 007e be3d 2476 11be 0ec8 2a3e
00000080: 6d81 b5be e27f 29be b7d3 9bbe bac8 203e
00000090: 78c3 8cbe 299c 9dbc 0a7d bdbe aa2e 6f3c
000000a0: 7218 e1bd e678 683b 6851 f33d 87af c13c
000000b0: fffa ba3d 99b3 94bc d099 0abe fded a93d
000000c0: a3d5 7b3e 4e01 b43d 16d1 cbbe a808 a73d
000000d0: 629e c7bd f7de e6bd 9074 25be fde1 c13c
000000e0: 3f83 0a3d 189e b23d f7f9 2b3d 864a c53d
000000f0: 6e36 1b3e 0ea1 873d 0986 96be 8ae4 35be
00000100: a938 92be 3310 00bc 8b3b 0cbe 2180 59bc
00000110: be41 80bd 66f6 62bd 5e91 683e efdc cabd
00000120: 9d05 bebd 3f7f 6cbd d4b0 863d 2022 ba3d
00000130: fc2d 0dbe 00df 7abe f2c9 81be fd98 903e
00000140: ec7c d0bc 294f 5cbc ef9a 1ebe 026b 453e
00000150: bfd1 02be eff7 5fbd af2d e63d 2b09 303d
00000160: a47e b13e c7a4 62ba 1189 23be 24d3 423e
00000170: a929 05be 92c6 573e f1ff 19be 1d8b 103e
00000180: a22b 333e 26c5 4fbe 4395 753c 0231 d73d
00000190: 686d 003d ce1f 32bc 8f77 003e d713 bf3d
000001a0: de2b 76be cda7 5ebe a5f4 efbb 4344 ecbd
000001b0: 3c4f 25be dc86 fabd 44f2 543c d190 9ebc
000001c0: d1e4 8a3d 448d d63d 1a2b 9bbd 3885 2bbe
000001d0: ae98 a4be 5507 523e f9ca 74bd bb13 acbd
000001e0: a5af 9f3e d800 a43e c50e 933c 50a5 503e
000001f0: 92d5 8bbd 89c8 b23d 61f9 0f3e db5a 0f3c
00000200: 4f22 56bd b38e 393d e82c 5fbe a1ee e53b
00000210: b689 173c 2b57 8cb9 8b26 16be e688 cfbd
00000220: 188d f7bd 073f f9bd 0414 95bb e7de 01bd
00000230: 0e76 4bbd 6485 c63c 1236 d8bc b9c6 15be
00000240: 0fd1 b33c a8c2 01bd be30 88bd 2816 7a3e
00000250: a466 2e3d a932 ee3d ad7d 5bbc 6848 b53e
00000260: 449f 36be f04e 16be 3a1d 0a3e ad69 8d3d
00000270: e84f 3a3e e0d2 b43d 7f36 e13c 1f14 a93d
00000280: ca28 50bd 35a3 a3be 91c4 8bbd 38d6 9d3d
00000290: b7b7 783e fcf1 48be af5e ec3d 992d a53c
000002a0: 91e6 1abe e31d 013e 5d0d 8f3d 9217 63bd
000002b0: 5c6c 90be f7e9 c53d 4e8e bbbe 63cc 54bc
000002c0: 7d90 943d 8233 a5bd 5a5c c33d 17a7 1a3e
000002d0: f623 8fbb 665c adbe 1208 ef3b fc29 633e
000002e0: e310 d23d 1019 cc3c 7e71 eebd c2cd 4ebe
000002f0: 2d45 d23d f79d debd 14f2 14be 80f1 583d
00000300: 866f e33d eaa9 8abd 87ee 3ebc 6330 0f3e
00000310: 09d8 fe3d 1487 c43d 4782 483e 58e4 8ebc
00000320: 2d1f 9abc 951a 19bd 2a6b 323e 34a4 693d
00000330: e8ee e23d fd65 2e3d 4d1b 5d3c 6b2f cd3d
00000340: d58e 703d 1f02 c9bc fac4 523c 88b4 c5bd
00000350: 802e bfbc 681a 42be cdcf 003e 5151 b0bd
00000360: 233f 1f3d b22b fdbd e2e8 27bd 27e3 c1bd
00000370: 8fc1 11bd 4065 3e3e 45de 8abd 0916 c8bd
00000380: 4f8f 54bd 22f6 21be c63a 563e 92c6 3d3e
00000390: 8775 abbd 5b36 d4bd aa90 b33c cc3e 3f3d
000003a0: 7f24 2a3d 875e 58be 7e47 18be 0349 81bb
000003b0: 82b8 823c e815 62be 2eb4 ee3d 3727 74bc
000003c0: 93dc 4c3d 6d9c cc3d 575f 023e 7b3d fabd
000003d0: bcc2 edbd 58f6 30be 1da9 55bb 37f7 92bd
000003e0: 1b26 c0bd c249 223d 50ff 45bc a58c 013c
000003f0: c9d5 f23d ffb6 23bd 7288 e53d e12b 393c

features_extractor.encoder.fc.bias f4 [64]
-0.00033709838 0.018202955 -0.0097845495 -0.039625008 0.03795504 -0.00054048555 0.020876963 0.028970677
0.02448746 0.037826627 -0.033666488 0.007525953 -0.04174556 0.022981986 -0.011928567 -0.012702174
-0.0015574798 0.00882467 -0.009833795 0.026657378 -0.0004822654 -0.0023882613 -0.006226059 -0.009440644
0.02386887 -0.013524703 -0.025819961 -0.013584215 0.0007680932 -0.0035956958 -0.02824566 0.02337081
-0.00023435967 -0.015503126 -0.025460124 0.051650472 0.0022600216 0.027584646 0.0031507872 0.042161297
-0.006748723 -0.042726252 -0.016531456 0.012333941 -0.009344235 -0.015154444 0.012102054 -0.019968297
-0.021643337 -0.012351832 -0.016375456 -0.0011952686 -0.038048275 0.017539026 0.0053413105 -0.016329873
0.008769692 -0.035807077 0.02465813 -0.016464194 -0.03783328 0.0059152264 0.015283064 0.0073014414
00000000: 94bc b0b9 5d1e 953c 604f 20bc d54d 22bd
00000010: be76 1b3d 5faf 0dba 2a06 ab3c ea53 ed3c
00000020: ed99 c83c 18f0 1a3d dfe5 09bd 459c f63b
00000030: 64fd 2abd b844 bc3c 0970 43bc c71c 50bc
00000040: 5a24 ccba 5995 103c ed1d 21bc 9360 da3c
00000050: 91d8 fcb9 6084 1cbb f803 ccbb eeac 1abc
00000060: a688 c33c b796 5dbc 6284 d3bc 5490 5ebc
00000070: dd59 493a c4a5 6bbb 7163 e7bc 2474 bf3c
00000080: 72be 75b9 d300 7ebc c091 d0bc 728f 533d
00000090: df1c 143b 32f9 e13c 707d 4e3b 53b1 2c3d
000000a0: 6424 ddbb b901 2fbd fa6c 87bc 4c14 4a3c
000000b0: 9018 19bc 584a 78bc b247 463c 8e94 a3bc
000000c0: 5e4d b1bc 575f 4abc d225 86bc 8faa 9cba
000000d0: 82d8 1bbd 01ae 8f3c 2906 af3b 3ac6 85bc
000000e0: c1ae 0f3c 71aa 12bd d9ff c93c ebdf 86bc
000000f0: 12f7 1abd 84d4 c13b d165 7a3c ee40 ef3b
