weights/image_reconstruction_finetune-nd-1-eps-300.pth (torch, 463426 bytes, 24 tensors)

log_std f4 [2]
00000000: 85dd 283e 02c4 f13d
0.16490753 0.11804964

features_extractor.encoder.conv.0.weight f4 [4, 1, 3, 3]
00000000: 244a b13e 4994 b9bd e19b 623f a0ae 2bbf
00000010: a451 1dbf 24fb 66bf d782 9e3e 538b 4d3d
00000020: 24db a63e fdc2 953e 2c38 e9be f66a ddbe
00000030: 8d23 c4be c775 fbbe 2c5b c2be 01e2 663e
00000040: 39fe 573e bdec 793e eab2 f8be a252 92bd
00000050: f5c4 ed3d cbe4 9cbe 4f3a b23e ae1f 0e3e
00000060: 9b84 85be 30c6 f6be 7c21 8fbe 50f0 fd3e
00000070: 39b0 c53d 184f 8f3e 9af5 14be 921d c63d
00000080: 0006 67bd 818b a93e 8101 983e 5712 30be
0.34626877 -0.09061486 0.885191 -0.6706333 -0.614527 -0.9022696 0.30959198 0.050181698
0.32589066 0.29250327 -0.45550668 -0.43245667 -0.38308373 -0.49113294 -0.37960184 0.22547151
0.21093072 0.24406715 -0.48574 -0.07144667 0.11609832 -0.30643305 0.3481011 0.13879272
-0.26077732 -0.4819808 -0.27955234 0.49597406 0.096527524 0.2799003 -0.14546815 0.09673609
-0.056402206 0.33114246 0.29688647 -0.17194496

features_extractor.encoder.conv.0.bias f4 [4]
00000000: cd71 5abd be9b 24be 2dc5 30bd fabf febb
-0.053331185 -0.16075036 -0.04315679 -0.0077743502

features_extractor.encoder.conv.2.weight f4 [8, 4, 3, 3]
00000000: a7c3 d43d caf9 5e3e d645 ed3c 77cc 753e
00000010: 5174 903e 71e5 e93d bf9a c6be 17a6 d73c
00000020: 4b31 fd3d 6fe3 90bd f251 ed3e 8b28 843e
00000030: 2409 8dbd b880 8d3d 2c33 9ebe 0245 edbc
00000040: e9ad 933d ff6b ad3d 595a 13be 26f5 62be
00000050: 5b66 a5be 4cb0 b83e cdd4 9ebe 2a48 a4be
00000060: f232 bd3c eb09 a9be 5322 39be 7926 9a3d
00000070: a53b e4bd 2187 9fbd 9c75 bdbd 42e8 32bd
00000080: bd46 4dbc d876 dc3d c0f5 823d 222e 4fbc
00000090: 354a 9fbe 8d50 813e f1fd 17be 9942 8e3d
000000a0: 6c81 483e 9627 093e bae7 f03d 8ff1 803d
000000b0: edb5 6f3d f64d cf3c 5f67 4dbc 3809 15be
000000c0: 700c 993e 6dcc 30be 8f9e 383e 5637 a0be
000000d0: 5094 663e 93e1 2dbe 8383 56be 3e5b cc3e
000000e0: 892c 1b3d 1fda c83d 1061 8e3d da8e 0cbd
000000f0: e43b b43d f29e 99bc 86bb 823e 4bef 8d3e
00000100: 6d11 5f3e 2fa0 f7bd 76cf 89bd 9216 0abe
00000110: 36d0 f83e fa4f 1fbd 402b debd 1d5a b63d
00000120: 15a2 52be bc87 89be 94b2 81bd ed36 29be
00000130: e752 76be 2304 05bf 83b6 963c aef6 aabd
00000140: 3a16 9bbd 1a17 72be 2bc5 e83c e2f1 c73d
00000150: d346 ecbe 8e08 91be 5c06 243c 84d7 c1be
00000160: 7b49 8dbd 7da7 ff3d a5ce 983e b3b2 50bd
00000170: 908a 33be c768 783e 538b b3be 51fe 5abe
00000180: 7889 b03e 5875 bb3e 8760 c1bd 66a2 56bd
00000190: 2b29 523d b1c3 2abd 4a5e 543e 8ddc 73bd
000001a0: 9b4a ec3d 92a1 b7bd a499 943e ca49 743e
000001b0: bf61 d23d 40e4 8a3d 0bb0 eabe 878f 213e
000001c0: 4a2b 1a3d aa97 81bd 99fe 2b3d ab18 44bd
000001d0: a769 52be f218 80bd bc7f 1bbe 76cf 3f3e
000001e0: 0992 963e 2b6a ec3c 949a bb3e 972f 83bd
000001f0: 4419 243d 390b 01bc 06de 8bbe 79a3 0b3e
00000200: cbed 153e f427 4ebb dbba 1ebe b4f7 35be
00000210: d0ee 603e 99b9 bbbd 8b24 a83e 9f0a 313e
00000220: 2560 8cbe e30b f23d 5ba0 fcbe f77d 2d3e
00000230: 6531 433e 1518 4a3b 85a8 6b3e 3fc3 a4bd
00000240: e0a4 8cbd 1242 8d3e 4fab 7ebc b29b 953b
00000250: b459 b6bc d753 2f3e d197 1e3d 506a 45bd
00000260: 34b1 753e 8a66 54be 3bf8 bebd 0e8b cdbe
00000270: 2a68 bfbd 6937 2cbe 452c 2ebf 8368 1c3d
00000280: 7b7c 99bd 8ba1 eebd 697e a5bb 5f28 0abd
00000290: 862d 5d3e 8fac 713e c77d fcbe dd5b c73e
000002a0: c3b8 cdbe be42 133d b1bc 973e 498d 863e
000002b0: 792d fdbe 2b2f a4be f31a 6abe 1192 033d
000002c0: a882 6d3e c838 56be d665 7c3d 2b99 633e
000002d0: 51dc 003e 540c 8ebe 7730 d43c d87d 403e
000002e0: 2657 cfbd f8ea 14bc 2bb4 883e 4118 073e
000002f0: 4d4c 883b 4696 1a3e 5ea4 083d 8e68 933e
00000300: 51bc b43c d109 c63e 830d 703e d646 8b3e
00000310: 7d1e 043e 637b fe3e 9bb6 07be 2d5d fabc
00000320: d99a 49bd 2e92 51bf c660 c539 a32d 94be
00000330: 73fd 773e 8696 7b3c e1f7 9f3d 6414 acbd
00000340: bd09 c3bd 93b8 a73d 3d88 573a f5de 00be
00000350: 8b23 9cbd c493 583e 8fff ecbe 9065 873d
00000360: c6df 42be 31e8 9ebc 405a b3bd f789 11bf
00000370: 0bb2 f7be 9866 be3d d3f5 f73c 0ccd c93d
00000380: 407d 19be 9632 813e 53ab b1be 1de1 35be
00000390: 2d52 c83e 9633 49be efbb 943e 6702 393d
000003a0: bd3c a5be 068f 723e 08dc 37be 3691 c4bd
000003b0: d6f0 293e bd98 70be 2bfe 7cbe 6dab 9dbe
000003c0: 16c3 04be 890d 26be 4783 a0bc 3795 d5bd
000003d0: da7b 7a3d 12e5 a7be 31d5 353e 395c 9a3e
000003e0: d281 c7bd f505 5fbd ae34 df3d cb40 4d3d
000003f0: 44f1 103d 852d e5be 7a83 59be d84e ae3d
0.1038888 0.21774974 0.028963964 0.24003778 0.28213742 0.114207156 -0.38789937 0.026324315
0.123629175 -0.070746295 0.46351582 0.25812182 -0.06886509 0.06909317 -0.30898416 -0.02896357
0.07210905 0.08467864 -0.14389934 -0.22163829 -0.32304654 0.36072004 -0.3102173 -0.32086307
0.023095582 -0.3301538 -0.180795 0.07526869 -0.11144189 -0.07789446 -0.09250948 -0.04367853
-0.012529072 0.10764855 0.06394529 -0.012645276 -0.31111303 0.25256768 -0.14842965 0.06946296
0.1958062 0.13394007 0.11762948 0.06296074 0.058523107 0.02530573 -0.012536853 -0.14554298
0.29892302 -0.17265482 0.18029235 -0.31292218 0.22517514 -0.16980581 -0.20948605 0.39913362
0.03788427 0.09807228 0.06952107 -0.03431592 0.08800486 -0.018752549 0.25533694 0.2772163
0.21783991 -0.120910995 -0.06729023 -0.13485172 0.48596352 -0.03889463 -0.10848093 0.089039065
-0.20569642 -0.2686137 -0.06332889 -0.16524859 -0.24055062 -0.5195944 0.018397575 -0.08347832
-0.07572599 -0.23641625 0.02841433 0.09762932 -0.46147785 -0.2832684 0.010011282 -0.37859738
-0.06898781 0.12483118 0.29845157 -0.05095167 -0.17533326 0.2425872 -0.35067233 -0.21386077
0.3447988 0.36612964 -0.09442239 -0.05240097 0.051308792 -0.041690532 0.20739093 -0.059536505
0.11537667 -0.08966364 0.29023468 0.23856273 0.1027255 0.067818165 -0.45837435 0.15777408
0.03763894 -0.06327756 0.04199085 -0.047875088 -0.20548116 -0.06254758 -0.15185446 0.18731484
0.2940829 0.028859219 0.3664137 -0.064055614 0.040063158 -0.007876211 -0.27317828 0.13636579
0.14641492 -0.003145692 -0.15500967 -0.17770272 0.219661 -0.09166259 0.3284038 0.17289208
-0.27417102 0.118186735 -0.49341092 0.16942583 0.19061811 0.0030837108 0.23013504 -0.08045053
-0.06867385 0.2758947 -0.015543773 0.0045656795 -0.02225957 0.17121826 0.038719002 -0.04819709
0.23993379 -0.2074224 -0.0932469 -0.40145153 -0.093460396 -0.16818012 -0.680363 0.038185608
-0.07494446 -0.116519056 -0.0050504697 -0.033729907 0.21599397 0.23600982 -0.4931471 0.38937274
-0.40180025 0.035952322 0.29636148 0.26279667 -0.49448755 -0.32067236 -0.22861843 0.03212172
0.23194373 -0.20920098 0.061620556 0.22226398 0.12584044 -0.2774378 0.025902016 0.18798006
-0.10124044 -0.009089224 0.26699957 0.13192846 0.0041594864 0.15096387 0.033359878 0.28790706
0.022062453 0.38679364 0.23442654 0.2720248 0.12902255 0.49703512 -0.13253252 -0.030562008
-0.04921994 -0.8186368 0.0003764687 -0.28941068 0.24217777 0.015355712 0.07810951 -0.08402327
-0.09523342 0.081895016 0.00082219 -0.12585051 -0.07623967 0.21150118 -0.46288726 0.066111684
-0.19030675 -0.019397827 -0.08757448 -0.5685114 -0.48378024 0.09296912 0.030268585 0.09853563
-0.14989185 0.25233907 -0.34701023 -0.17761655 0.39125195 -0.19648585 0.29049632 0.045168307
-0.32272902 0.23687372 -0.17955029 -0.09598009 0.16595778 -0.23495765 -0.24706332 -0.3079485
-0.12965044 -0.16216101 -0.019593848 -0.10428851 0.06115327 -0.32791954 0.17757107 0.30148485
-0.09741558 -0.05444904 0.1089872 0.05011062 0.03538634 -0.4476129 -0.2124156 0.08511132

features_extractor.encoder.conv.2.bias f4 [8]
00000000: 1c06 8f3c db23 553b 14f8 9b3c 84ce 48bc
00000010: be8e b63c ea24 ccbd e910 2abc 678c 60bd
0.017458968 0.0032522592 0.019039191 -0.012256268 0.022284862 -0.09967978 -0.010380008 -0.054821398

features_extractor.encoder.conv.4.weight f4 [16, 8, 3, 3]
00000000: 21dd 523e 8982 a93e 3f82 11bd 5e8c 46be
00000010: f80c 853d 439c 29bd bafc 103d 17f5 dbbe
00000020: 3f74 bfbc d515 7fbd 229b 43be 28e5 84bc
00000030: 11c4 443c 6db8 6abe 69a7 b83e 28b0 b63d
00000040: 95fc 2bbe db20 f33c 8362 913e cc66 6fbe
00000050: e456 253e 7b83 af3d a92d 33be d6eb eb3d
00000060: e3a3 d0be 3f3d b0bc e9ba 223e aaf4 a33d
00000070: 76f4 47bc 3ef6 903c 8644 89b9 55a3 0a3e
00000080: df15 3c3e fff1 42be 10d1 023e 5113 c73d
00000090: bbc0 3bba a23d 8ebe c046 edbc 63da e33b
000000a0: 0d86 eabd bb93 463e 9ac1 18be ad7e 8b39
000000b0: 7441 b53d 1238 04be feb5 093e f946 5cbe
000000c0: 5388 f7bc b4c9 76be cbfe 8fbe 9b53 dc3d
000000d0: bf5a 59ba 3abd 7d3d ddc6 adbc ce66 32be
000000e0: 5130 2ebe 94c9 353e 58e9 833e 2c8f 5a3d
000000f0: 7c2d 1abe 6051 223c cf7e 09bd 8f07 953c
00000100: 4b01 d0bd 0767 86be ebf8 843d 24c7 50be
00000110: bf29 003e 9c28 88bd d1f9 b0bd 0e68 8fbe
00000120: 2eea e23b 6e44 70be cc0e ca3c f67d 3bbe
00000130: 5687 b9bc 9c47 fbbc d94c b23c a732 00be
00000140: 2618 d83d a359 8d3d 3deb acbb 92fe 873e
00000150: e66d 43bd cdb5 ba3d c660 a4bd 3846 4ebe
00000160: 1522 0bbe d32c 5cbe b428 113e 2e43 cf3e
00000170: 776f 0d3d 75dc 21be 423d 03be 4dbd c83d
00000180: 411e dfbd 804a 14bd bcf3 29be 9cf8 643c
00000190: ac3c e6bd e130 493e 85c1 fbbd 926f 88be
000001a0: fdee 033e 3181 87be e168 a6bb b0db 9f3c
000001b0: a478 3ebe 0fa9 5a3e cad3 3c3e 2544 3bbd
000001c0: 8097 623e 68fe 70bd 44e6 6bbe c863 a03d
000001d0: db7e b4bd 5864 553e ad13 b53c 354d 23be
000001e0: 8f90 f2bc 3ae0 d43d 6f0f 96bd a1f7 293e
000001f0: 13c0 aaba b14a 223e 3603 66be bdfd 193d
00000200: 27ff 2fbc d631 5bbe e01b 8e3e 118f bebc
00000210: 6a63 84be cd38 cd3e 37a3 5ebe b0af 8abd
00000220: 02ad 913e 1011 593e 54f1 39be c2c6 5ebe
00000230: 64e2 a83e 034c 0bbe d3e3 94be 8546 a13d
00000240: d427 53be f5de 84be e514 163e 30bd 52bd
00000250: 3dc0 f3bd aef3 e2bd 4e34 ec3d 588e 22be
00000260: 332f 9fbd 123f de3d 5515 8a3d 733e 06be
00000270: e7cf 0b3e 1383 48be 58e1 4a3e 2537 ccbd
00000280: fa97 6c3e be68 1ebd 7ab2 7c3d 1e89 4ebc
00000290: b604 4abe a05d ff3c 0af7 b6ba 16c3 3fbe
000002a0: 2128 c43d 2d38 b53d e96b 353d 2733 c73e
000002b0: 2ac0 a43e e044 42be 2250 0c3f 5e20 823e
000002c0: 21b5 6d3e 6814 633e ffa3 8bbe 7be0 32bd
000002d0: 67a7 0c3f 3c6d 58be 829d a2bd d735 053e
000002e0: 5c8e 803d 3ecd 513d d0cb e0be 6c1f 26bd
000002f0: 7c44 5cbe ee11 953e 5588 adbd b51a 2f3e
00000300: 104e b8be d480 d03d 1caf c1bc 35b1 e1bc
00000310: b461 82bc 008d 153e 72f5 bc3d 2aed 02ba
00000320: a5e1 c73d 19d6 4b3e 0ac4 06be 2fc2 8c3e
00000330: 08c7 893e 6656 f2bd 14af d9bc 4992 35be
00000340: 7ac4 6fbc fd86 9fbe 79c8 ecbd e9b0 12bd
00000350: 75bb 2c3e ebee c83c fade 943c c317 11be
00000360: 2820 86bd 6b50 e33e 72bd 443e cc86 0dbe
00000370: 8bd5 cebd 37dc 943e 2881 6b3d cba1 1d3e
00000380: e0be 0c3c 53d3 7a3d 706f 1e3e 7011 a33d
00000390: 1404 6abe e991 35bc e5db 6dbe 6f8d d13d
000003a0: fe99 30be 47b2 9abc 129d 03be 4d72 31be
000003b0: 11a0 88be d771 8ebd 627c f7bd 418d 9abe
000003c0: 1aff 353e fb64 f03d 2b55 31be 0d74 1fbe
000003d0: c874 08be fe06 983d f027 edbd 2ac7 2bbe
000003e0: e11d 15be 4eee 5bbb df34 ff3d 275f c13d
000003f0: 92d3 73bd 0bcc c43d 05ae 47be 285c c6bd
0.20592166 0.33107403 -0.035524603 -0.19389483 0.06496614 -0.04140879 0.03539727 -0.42960426
-0.02337086 -0.06227668 -0.19102147 -0.016222551 0.0120096365 -0.22921915 0.36065224 0.08920318
-0.16795571 0.029678753 0.2839547 -0.23379058 0.16146427 0.0857 -0.17497887 0.115195915
-0.40750036 -0.02151358 0.15891613 0.0800565 -0.01220428 0.017695542 -0.0002618173 0.13538869
0.18367718 -0.19037627 0.12775064 0.09720481 -0.0007162203 -0.27781397 -0.0289644 0.006953524
-0.114513494 0.19392292 -0.14917603 0.00026606527 0.08850375 -0.12912014 0.13448331 -0.21511449
-0.030216372 -0.24100381 -0.2812408 0.10758134 -0.0008291415 0.06194804 -0.02121299 -0.1742203
-0.17010619 0.17752677 0.25763965 0.053359196 -0.15056413 0.009907097 -0.0335682 0.01819208
-0.101564966 -0.2625048 0.0649279 -0.20388466 0.12515925 -0.066483706 -0.08641399 -0.28009075
0.006924889 -0.23463604 0.024665259 -0.18309769 -0.022647541 -0.030673794 0.02176516 -0.12519322
0.10551481 0.069018625 -0.005277066 0.2656141 -0.04771223 0.09116707 -0.080262706 -0.20143974
-0.1358722 -0.21501474 0.14175683 0.40480942 0.03453013 -0.15806754 -0.12816337 0.09801731
-0.10894442 -0.03620386 -0.16596884 0.013975289 -0.11242041 0.19647552 -0.1229277 -0.2664762
0.12884136 -0.26465753 -0.0050784205 0.019513935 -0.18600708 0.21353553 0.18440166 -0.045719285
0.22128105 -0.05883637 -0.23037058 0.07831532 -0.08813258 0.2083906 0.022104109 -0.15947421
-0.029609947 0.1039433 -0.073271625 0.16598369 -0.0013027213 0.15848805 -0.22462162 0.0375955
-0.010741985 -0.2140573 0.27755642 -0.023261579 -0.25857097 0.40082398 -0.21741949 -0.06771791
0.28452307 0.21197915 -0.18158466 -0.21755508 0.32985222 -0.13603215 -0.29080066 0.07874779
-0.20620662 -0.25951353 0.14656408 -0.051449955 -0.11901901 -0.110816345 0.11533414 -0.15874612
-0.077726744 0.108518735 0.0674235 -0.1310976 0.13653527 -0.19581251 0.19812524 -0.099714555
0.2310485 -0.03867411 0.061693646 -0.0126059335 -0.1972836 0.031172574 -0.0013959121 -0.18726763
0.095779665 0.08848605 0.044292364 0.38906214 0.3217786 -0.18971586 0.5480977 0.2541532
0.23213626 0.22175753 -0.27273557 -0.043671113 0.54942936 -0.2113542 -0.079401985 0.1300882
0.06277153 0.051221125 -0.43905497 -0.04055731 -0.215105 0.29115242 -0.08473269 0.17100032
-0.35997057 0.10180822 -0.023643069 -0.02755032 -0.01591573 0.14604568 0.092265025 -0.00049944466
0.09759835 0.1990589 -0.1316072 0.274919 0.2690966 -0.118328854 -0.026572742 -0.17731585
-0.014634246 -0.31157675 -0.115616746 -0.035813246 0.16868384 0.024527987 0.01817273 -0.1416922
-0.06549102 0.44397292 0.19212893 -0.13820952 -0.10099324 0.2907426 0.05749622 0.1539375
0.00859043 0.06123669 0.15472198 0.0796231 -0.22853118 -0.011082151 -0.23228414 0.102320544
-0.17246243 -0.018883837 -0.12852886 -0.17328759 -0.2668462 -0.06955307 -0.12084271 -0.30185893
0.17773095 0.117380105 -0.17317645 -0.15571614 -0.13325799 0.07423209 -0.11579883 -0.16775194
-0.14562179 -0.0033558789 0.12461256 0.09441977 -0.05952794 0.096092306 -0.19499977 -0.09685546

features_extractor.encoder.conv.4.bias f4 [16]
00000000: 56b0 0e3c ae7a 46bb 73a7 9a3b f106 023d
00000010: 7711 eebc e6df 8bbd 9063 44bd 353d 2d3d
00000020: b86f 51bb 1608 e03c 7008 f73b 7158 953c
00000030: f3fd c7bc dc30 26bd 2837 c4bb 7232 ba3c
0.008709034 -0.0030285525 0.0047196685 0.0317449 -0.029061062 -0.068298146 -0.047946513 0.0422947
-0.0031957459 0.027347606 0.0075388476 0.018230649 -0.024413085 -0.04057394 -0.0059880204 0.022729132

features_extractor.encoder.conv.6.weight f4 [32, 16, 3, 3]
00000000: 45c3 673d ed97 a5bd 874d 59bd 5d5f 183e
00000010: 5c45 813d 59ca ff3d 6136 2fba 3aa7 f13c
00000020: 3661 d6bc 9806 dc3d 91cb 033e 6d58 ce3d
00000030: fda1 273e 3eef 893d be4b 3abe eef3 9cbd
00000040: 8dfa 27bd e7e2 03be f079 62bd 790e b7bd
00000050: 5409 9e3c bb7f abbd 218f 12be 19d8 613e
00000060: 75fe 7b3e d802 613b 5a4a 023d 34a0 883d
00000070: 5f6a 12be eac8 e73b 9f56 513e 992b a33e
00000080: 8d03 76be 4668 12be db8f 073e e590 c33c
00000090: be00 11bc af8f 05be a33b d73c 5856 1d3d
000000a0: 01cd 903e b625 d5bd 94e1 b83d 5c2e c1bc
000000b0: 8b07 b4bd 6ed1 05be d7da 013e 43b8 493e
000000c0: 72d6 9abe e0f9 623d 34b4 18be 810f 72bd
000000d0: b699 363e fdbc b2bd 8fad aa38 a7ab 13be
000000e0: ccad dfbd c6c8 31bd af47 aa3d 3676 1c3d
000000f0: 6a59 d8bd 2c1d 89bd ccaf 4cbd 6a26 38be
00000100: 9f70 bb3c 78f6 61be d2d1 b7bd 7f12 b4bc
00000110: a50f f93c 4fc7 26bd d01f 4f3e ff67 673d
00000120: 5438 d0b9 0cad fcbd 16cb 15be 450a ce3c
00000130: 979f f63d 850e 22be 5c3d 963d 35f2 8d3b
00000140: ae4f f63b 38d4 aabd cb11 3e3c 6b1d fc3c
00000150: 35ff 653e cbc5 313e 3f78 b0bc c967 1dbe
00000160: 5f6c 203e f047 dcbd 196f 48bd 8db1 653c
00000170: ed05 9e3c b57a 90bd bc19 bdbd 9e9d 33bd
00000180: f178 053c 3652 9c3d e92d 3abd 93b3 10be
00000190: 604a 953d 7ac4 e4bc 67f4 9e3d b1a9 283e
000001a0: b060 d53c ca54 8c3d e94d 9abc cb4b e03c
000001b0: 86ec 303c f3e0 e73d 53fb 83bc 100b 953d
000001c0: 30a2 d43d c5d9 ca3c 4afa 5c3d aa73 74bd
000001d0: 40ae 993d d6e3 633c e7d8 253e 6944 ac3d
000001e0: bb80 b3bd 1b3c 193e d8de 413d 8e26 dabb
000001f0: 4495 0d3f b8b0 90bc 5826 c53d fce8 89be
00000200: dca5 9f3c b3f5 c53d c8d3 8b3e b1b6 85be
00000210: 9bbf 2bbe 3448 88bd f09a 29be 91c5 263d
00000220: 6fe7 0bbe 05cf 2bbd f0be da3d 5cd8 0ebe
00000230: f290 453d c1e6 99be 1053 dabd e614 35be
00000240: 5a38 503d abb3 563d ec5d afbd f50f 383e
00000250: 0905 22be e0c0 84bc 9cd8 3e3d 71a7 0abd
00000260: 7efe fdbd 0ced b03d 2f00 4bbe 9f56 9c3d
00000270: 9057 653e d767 49be 2f53 113e f863 56be
00000280: 5974 7e3d 7591 0fbe 9bd6 883d ad74 923d
00000290: ec9b d1bd c332 67bd 5eed 153e ae86 16be
000002a0: 2bb2 9f3d 7207 3b3e 2f78 8bbc d35a a23d
000002b0: 5da8 41be 1a71 c13d da77 413e 8faa 4f3d
000002c0: 5075 d0bd 9f9e d23c 2776 073d d704 05be
000002d0: e60d d0bd 364e 10be f941 033e 6b0e 213e
000002e0: af17 10be 1532 57bc cb87 403e ebdd a63d
000002f0: 4862 f6bd 8376 a93c f76e f5bc 2e6b 35bb
00000300: 8309 80bd 400c 013e f185 a4bd 0242 183d
00000310: d3c8 aa3d ec4b 8d3b 73b1 a23c 5adf 853e
00000320: 50fb 4f3d 3e2c 7fbb 5c94 48bd 59fa 90bd
00000330: dd55 32bd 5d82 c0bd 6ee9 2ebe 43ff 1e3e
00000340: a9da c4bd f23c d63e 04fb ab3d e8b8 8abe
00000350: 1746 743d 1cf7 9ebd a755 cdbe 5997 0dbd
00000360: 867d 903d f6ed c7bd ac98 cd3d d09b 64bc
00000370: 57b5 a8bd c00b 3ebe ca2c 893d cc58 c5bd
00000380: 8d0b 98be 23d3 783e 3f5d bcbc 61d9 2cbd
00000390: 4cc1 703d 796f 22bd deb3 eebc 4eba d7bd
000003a0: 357b 323e 9dea bbbd 3c65 453d b195 46bd
000003b0: 6294 6a3e f6d2 51bc 848a 43be 0659 503d
000003c0: 53ce 56bd 241d 623d bcf0 2abe df89 80bc
000003d0: 407c 7ebd ef65 4e3e 3354 94bd 1adf b0be
000003e0: 8ad9 b13d 17ba 53be 12ed efbd 5ad8 58be
000003f0: cec1 ec3d 245d 943d 344b a73e b5d8 833d
0.056582708 -0.08085618 -0.05305245 0.14880128 0.063120574 0.12489767 -0.00066838233 0.029498685
-0.0261694 0.10743445 0.12870623 0.1007546 0.16370387 0.06735085 -0.18192956 -0.076637134
-0.04101043 -0.12879525 -0.05529207 -0.08938307 0.019291557 -0.08373972 -0.14312412 0.22055091
0.24608786 0.003433397 0.03180919 0.06671181 -0.1429839 0.0070735114 0.204432 0.318692
-0.24024792 -0.1429759 0.1323847 0.023872802 -0.008850275 -0.13043092 0.026273554 0.038412422
0.28281406 -0.104075834 0.090274006 -0.023581676 -0.08790501 -0.13068172 0.12681137 0.19699197
-0.30241734 0.05541408 -0.14912492 -0.059096817 0.17832074 -0.08727453 8.1385595e-05 -0.14420949
-0.10921821 -0.043404363 0.08314454 0.038198672 -0.105639294 -0.06695017 -0.04997234 -0.17983404
0.02288085 -0.22066677 -0.08975567 -0.021981476 0.030402968 -0.04071742 0.2022698 0.056495663
-0.0003971482 -0.123376936 -0.14628252 0.025151381 0.12042158 -0.15825851 0.07335922 0.004331852
0.007516823 -0.08341259 0.011600922 0.030775746 0.22460635 0.17360608 -0.021541713 -0.15371622
0.1566634 -0.107559085 -0.048934076 0.014019382 0.019289935 -0.070546545 -0.09233424 -0.043851487
0.00814651 0.07632868 -0.04545394 -0.14131002 0.072895765 -0.027925719 0.0776146 0.16470982
0.02604708 0.0685211 -0.018835979 0.02737989 0.010798579 0.113222025 -0.016111052 0.07277501
0.10382497 0.024762044 0.05394963 -0.05968062 0.07503939 0.013909301 0.16196023 0.08411486
-0.08764788 0.14964335 0.04733166 -0.006657428 0.55305886 -0.017662391 0.09626454 -0.26935565
0.019488268 0.09666004 0.27310014 -0.26115945 -0.1677231 -0.06654397 -0.1656301 0.040715758
-0.13662504 -0.041945476 0.1068095 -0.13949722 0.048233934 -0.30058864 -0.10660374 -0.17683753
0.05083499 0.05241744 -0.08562836 0.17974837 -0.15822233 -0.016205251 0.046593294 -0.03385109
-0.12402056 0.08638963 -0.19824289 0.07633709 0.22396684 -0.19668518 0.14191888 -0.20936573
0.062122677 -0.14020331 0.06681558 0.071511604 -0.10234818 -0.056444895 0.1464133 -0.14699814
0.07797655 0.18264559 -0.017025081 0.079274796 -0.18911882 0.094454005 0.18893376 0.050699767
-0.101786256 0.025710402 0.033071663 -0.12990128 -0.10158901 -0.14092335 0.12818135 0.15728156
-0.14071535 -0.013134499 0.18801801 0.08147796 -0.120304644 0.020686394 -0.029960139 -0.0027682292
-0.06251814 0.12602329 -0.0803336 0.037172325 0.083390854 0.004312029 0.019860005 0.26146966
0.05077678 -0.0038936283 -0.04896961 -0.07079 -0.043538917 -0.09399865 -0.17081234 0.15527062
-0.096120186 0.41843373 0.08397487 -0.27094197 0.059637155 -0.07761976 -0.4010441 -0.034568164
0.07055192 -0.09762184 0.100388855 -0.013953164 -0.08237713 -0.1855917 0.06697996 -0.09636077
-0.29696313 0.24299292 -0.022993682 -0.042199496 0.058778092 -0.03965709 -0.029138502 -0.10533582
0.17429812 -0.09175608 0.048192248 -0.0484826 0.22908166 -0.012806645 -0.19095808 0.05086615
-0.05244286 0.055203572 -0.16693395 -0.015690742 -0.062130213 0.20156072 -0.07242622 -0.34545213
0.086840704 -0.20676456 -0.117151394 -0.21176282 0.11560403 0.07244328 0.32674563 0.06437818

features_extractor.encoder.conv.6.bias f4 [32]
00000000: fa92 55bd 327c 7539 5f7e 033d eebf b83c
00000010: 788d 58bc 532d 59bd 09e5 a8bb 234e 30bd
00000020: f744 66bd 617f ea3b 7181 28bd 3f77 313b
00000030: 337f 2cbd 14c6 df3c 0806 b3bc 5044 50bc
00000040: 86bf 12bd 6d77 12bd 18ea a1bc 868b d9bc
00000050: bee0 b8bc 117b 1dbc 8bc1 4e3d f15d 63bb
00000060: a672 8a3b 0a26 3bbd 8e4f 00bd 8d31 5a3c
00000070: 1937 3fbc 03fa 483d c2ed f8bc b43c 083c
-0.05214212 0.00023411287 0.03210294 0.022552457 -0.0132173225 -0.05302174 -0.0051542562 -0.043043267
-0.056218114 0.007156298 -0.04113907 0.0027079133 -0.042113494 0.02731613 -0.021853462 -0.0127115995
-0.035827182 -0.035758425 -0.019764945 -0.026555788 -0.022568103 -0.009611861 0.050477546 -0.0034693445
0.004225093 -0.045690574 -0.03132587 0.013317478 -0.011670851 0.049066555 -0.03038681 0.008315254

features_extractor.encoder.conv.8.weight f4 [64, 32, 3, 3]
00000000: 4b1e c1bd 4f3a 023c efc5 b93c 0980 913c
00000010: 6020 043d 72ff 173d 0af6 94bd ac85 57be
00000020: 6ba1 53bd 3c33 babd 229d ecbd 2d48 00bd
00000030: b71f f53d 650c ff3d 6426 513a 66e8 c1bc
00000040: 285a 683d 2861 263d 2857 36bd e211 a5bc
00000050: 49b6 09bd 2412 0a3d d180 5bbd 0f3a 36be
00000060: 5c0b 8d3c 13e3 edbd f2d8 18bc 7fb4 fa3c
00000070: 98cb c73d 2ad4 a43c c5a2 a23d 3bb6 29bd
00000080: 7594 83ba 210a 083e 13f8 8b3c e1aa 56bd
00000090: fb63 4cbd b128 a6bd 192a fcbd 6188 b03d
000000a0: e371 7e3d 35d7 f03c 246b e4bd ab0e 653d
000000b0: 12b7 e13b 3fcb 3dbb 828f 0f3d 0525 2dbd
000000c0: fb32 fabb d171 ef3d 6eb4 1c3d c7b8 7fbb
000000d0: 0322 6a3d d40e 1d3c 376f 163e 2403 0d3b
000000e0: 20f8 123c 1eee 38bd 21d5 7c3a 03d9 073d
000000f0: c7f4 30bd 52d2 2bbd f365 f03d 2372 f7bd
00000100: 5f94 db3d 588b 603b e305 6a3d 0d81 b1bd
00000110: aa70 c1bd 162d c7bd 70ae 213d d166 013e
00000120: b2f5 053e e18e 203e 0965 dbbd 0824 a9bb
00000130: c192 2c3d 0f39 dd3d de4b 1ebc 5edd be3b
00000140: 51b6 abbc 8576 b53d fc37 cb3d ff7e bebd
00000150: 359a 72bd 6cfe 273d a9d5 823d c935 0fbc
00000160: aa5c 31be d946 0bbd 6cf9 22bd 6c32 193e
00000170: 1577 413d ad9e 16bd 6f36 4d3e 2b93 eabd
00000180: 007f 5e3d d285 69be 6003 983d fd11 ea3b
00000190: c7ec ec3d d865 d3bc 9fdc 87bb 51bf 08be
000001a0: 69df a639 a390 803c 93ce 273c 9a9f 423c
000001b0: 4208 573c 8e96 193e 7bd5 04bd 306f b0bd
000001c0: 057f f93d 9846 8bbd 9ddf 773c 3a8a a4bd
000001d0: abc1 963d 983f b53d 4962 cdbd cfe3 c1bd
000001e0: ab50 9ebb 4c59 9f38 d781 b9bc 10cc 96bd
000001f0: e701 05be e8ac b3bc e04b 9a3d 5ef5 903d
00000200: f2e1 3ebe 39a4 85bd dd8d 553e 253b 03b9
00000210: dfdb 273e 5060 0bbd 44ee 42bd d15d 89bd
00000220: 288f 9e3d adb6 4f3d 3949 11bd 9c5d c6bd
00000230: 4304 81bd c8d6 b73d fda3 a2bd 7d50 3ebd
00000240: 846f e1bd 649e f43d 9e73 003e b07c d7bd
00000250: 314a 5f3e d4f5 2abb 5c8c c63d 088d 2b3c
00000260: 09a0 a43c 26f8 c93d f649 953d 1f68 2bbc
00000270: d7ed c83b 4d60 733e 642d cf3c 9399 713d
00000280: bc24 0ebe b44c 53bc 9e44 12bd d238 543c
00000290: cdb0 6c3c 4d03 56bd 4dcd 343e 9561 243e
000002a0: dc67 ec3a a2c4 793c aee4 b73c f891 49bc
000002b0: cbd4 173e 77a3 2b3e e76c b4bd 766e 983e
000002c0: f75d 843d 85b4 6ebd a35f b8bd cdb8 8fbd
000002d0: 0602 883d 2d81 e1bb 37be f73b 5b19 0cbd
000002e0: 3b3d e63c 7a65 cebd cdf2 c23c 4a75 9a3a
000002f0: 8c69 15be 1a8f eabc 4520 80bd a8ec 0abd
00000300: 56ab 123d d93f 623d cb10 1d3d 5cc8 b1bd
00000310: fee0 e6bd ad1a 5f3e 2acb 9bbd 9849 513c
00000320: 755c ff3d 01eb b1bd 7229 453e 6120 9d3d
00000330: d0a3 d03d 36ef fe3c 9a8a 9cbd 354c b43d
00000340: 4d8f c0bd a884 75be 7de3 a43d a790 0bbe
00000350: 0e7e 5e3d 86de e73d 7556 263d d329 ccbd
00000360: 1c1b 823c 8132 72bc 9092 afbd ed15 693d
00000370: 0ffc 343e bfe9 a73d f961 2ebd 824f 5fbe
00000380: 45e2 b93c 6ea7 d6bc 60f8 17be 6442 33bd
00000390: de35 8c3c 8e65 653e 2e5c 40be 9636 8d3b
000003a0: 6916 82be 3ebf 0abd 11b5 793d f5bc cabc
000003b0: a743 12be c125 24ba 2302 a0bd 4895 efbd
000003c0: 5c30 333d fb48 183d 4e89 d43c 5245 503d
000003d0: c939 3cbe 0a28 ea3d 8184 14bd 192e 143c
000003e0: e33c 34be 192b bf3d 2ab2 39be bd81 323e
000003f0: d3de c9bd 0bfb 55bc f126 2e3d d3f2 093d
-0.09429606 0.007948472 0.02267739 0.017761247 0.032257438 0.037108846 -0.07273491 -0.21047086
-0.051667612 -0.090918034 -0.11553408 -0.031318832 0.1196894 0.12453536 0.0007978438 -0.023670387
0.056726605 0.04062 -0.044516712 -0.020150129 -0.033621106 0.033708706 -0.053589646 -0.17795585
0.01721733 -0.116155766 -0.009329068 0.030603645 0.09755629 0.020120699 0.07941202 -0.041433554
-0.001003875 0.13285114 0.017086064 -0.052409057 -0.049900036 -0.0811323 -0.12312717 0.08619762
0.06212033 0.029399494 -0.11153248 0.05592219 0.0068882788 -0.0028960255 0.03504897 -0.042271633
-0.007635472 0.11691631 0.03825801 -0.0039020048 0.057161342 0.009586055 0.14690863 0.0021516765
0.00897029 -0.04514896 0.0009644796 0.033165943 -0.043202188 -0.041948624 0.11738195 -0.12082317
0.10721659 0.0034262743 0.05713452 -0.086671926 -0.09445317 -0.09725396 0.039472997 0.12636878
0.13082007 0.15679504 -0.1071263 -0.005161766 0.042132143 0.10801899 -0.009661643 0.005824729
-0.020960959 0.088604964 0.099227875 -0.09301566 -0.059229095 0.04101412 0.06388409 -0.008740851
-0.17320505 -0.034003112 -0.03978865 0.1496064 0.047232706 -0.03677242 0.20040296 -0.11453851
0.054320335 -0.22804955 0.07422519 0.0071432577 0.11568599 -0.025805399 -0.004146173 -0.13354231
0.0003182844 0.015693968 0.010242122 0.011878872 0.013124527 0.14998838 -0.032430153 -0.08614957
0.1218243 -0.06800574 0.015128997 -0.08034177 0.07361158 0.0885002 -0.10028512 -0.09467279
-0.0048313937 7.598344e-05 -0.02264492 -0.073631406 -0.12989007 -0.021933034 0.07534003 0.0707805
-0.18640879 -0.065254636 0.20854898 -0.00012515167 0.16392468 -0.034027398 -0.04759051 -0.06707347
0.07742149 0.050711323 -0.03547022 -0.09685823 -0.06299641 0.08976513 -0.079414345 -0.04646348
-0.11007598 0.11944273 0.12544104 -0.10521829 0.21805646 -0.0026086466 0.0969474 0.010470636
0.020095842 0.09861784 0.072894976 -0.010461836 0.0061318683 0.23767205 0.025290199 0.05898435
-0.138812 -0.012896705 -0.03570997 0.012953 0.0144464495 -0.05224924 0.17656441 0.1605285
0.0018036324 0.015244635 0.02244791 -0.012302868 0.14827268 0.16761576 -0.08809834 0.29771775
0.06463235 -0.058277626 -0.09002616 -0.0701767 0.06641011 -0.006881854 0.007560517 -0.03420387
0.028105369 -0.10077949 0.023797417 0.0011784222 -0.14591044 -0.02863269 -0.06256155 -0.0339171
0.03580793 0.05523667 0.038346093 -0.08680794 -0.112733826 0.2178752 -0.0760711 0.012773894
0.12468807 -0.086874016 0.19254091 0.076721914 0.10187495 0.031119924 -0.07643624 0.08803598
-0.094023325 -0.23976386 0.080512024 -0.13629399 0.054319434 0.1132174 0.040609796 -0.09968915
0.015882067 -0.014782549 -0.085728765 0.056905676 0.17674278 0.081988804 -0.042573903 -0.21807674
0.022690902 -0.026202884 -0.14840841 -0.043764487 0.01711553 0.22402021 -0.18785164 0.0043094857
-0.25407723 -0.03387379 0.060963694 -0.024748305 -0.1428362 -0.0006261729 -0.078129075 -0.11698395
0.04374729 0.037178975 0.025944378 0.05084736 -0.18381418 0.11433418 -0.036259178 0.009044194
-0.17601351 0.09334392 -0.1813437 0.17432304 -0.098569535 -0.013060342 0.042517606 0.03367884

features_extractor.encoder.conv.8.bias f4 [64]
00000000: 1738 27bd f0da 293c 8b1a 643c bd73 02bc
00000010: b087 01bd 58ba f6bc 481e 49bd 12dc 773c
00000020: 7091 0abd 91a4 9cbc c353 71bd 6659 6b3c
00000030: 319e 6bbb 82bb ed3c fe75 aebb b979 14bd
00000040: fb8d 0cbd 9dd1 ac3c dd04 28bc bac6 bf3a
00000050: 8aea eabb 185e 45bd c81b 5bbc 8dd0 45bc
00000060: 5ccc 363d 8ccb 28bd fec5 c43b c173 f9bc
00000070: 6f13 92bd e750 1d3d 4c74 11bd b9a1 16bc
00000080: 0c13 70bb 9099 1e3c 6591 16bc cbe8 9a3c
00000090: 27ad e8bc 305c 2c3c 32a6 1dbd 5976 253d
000000a0: 5f97 02bd dff3 99ba bc5a 81bc aafc 0a3c
000000b0: 454d 30bd 31fb 4d3d f8c9 a2bb 05c1 803c
000000c0: c775 f8bb b00b f23c 23b2 69bc 950a 243b
000000d0: 3a27 90bc b34c be3b 0a2d 183d eac3 113d
000000e0: 618b e8bc 9075 93bc 3f16 17bb e51a 42bd
000000f0: 7b20 6abd 9d99 16bb f315 78bd 2e6f 283d
-0.040824976 0.01036714 0.013922344 -0.0079621645 -0.031623542 -0.030118152 -0.049101144 0.015128152
-0.033830106 -0.01912144 -0.058917772 0.014364576 -0.0035952444 0.029020075 -0.0053241244 -0.036248896
-0.03431509 0.021096045 -0.010255066 0.0014631369 -0.0071690725 -0.048185438 -0.013373323 -0.012073648
0.044628486 -0.041209742 0.006005048 -0.030450704 -0.07132613 0.038407233 -0.0355113 -0.009193831
-0.0036632447 0.009680167 -0.009189938 0.018909832 -0.028402878 0.010520026 -0.038488574 0.04039607
-0.03188264 -0.0011745653 -0.015790336 0.008483091 -0.04304244 0.050288383 -0.004967924 0.015717039
-0.0075823995 0.029546589 -0.0142636625 0.0025030721 -0.01759683 0.005807483 0.037152328 0.03558723
-0.028386774 -0.018000394 -0.0023054031 -0.04738893 -0.057159882 -0.0022979744 -0.060567807 0.041121654

features_extractor.encoder.conv.10.weight f4 [128, 64, 3, 3]
00000000: f2a7 b93d b1cc e2bb 8cbf 623d 2b08 2a3d
00000010: 7b3e 10bd e6f7 63bd 4930 0f3d 903f c539
00000020: c377 dbbd 8f7a c83c 8c1f 3dbd 8d03 e6bc
00000030: 7a0a f13b 47a9 4d3d d931 f73d d4c2 813d
00000040: 71b0 313d 7eab eebc 8f78 a83d 1664 b53d
00000050: 2d14 c5bd ee12 bf3d ed95 ae3d 8380 f03a
00000060: 46e7 e63d 5226 483c 1021 f2bc f439 42bd
00000070: 4992 213d 6b1f 1bbc 725f 6cbc ae9a 64bd
00000080: c684 49be 074d 03bd 0396 95bc 57f1 bebc
00000090: 497d 9e3c abd0 033e b819 bdbc 8c4c 87bd
000000a0: d1f0 0c3e 5ac3 e4ba ca62 9dbd a6e7 483c
000000b0: 01f9 17be 6fa4 bd3d aa9b 75bd eabb 47bd
000000c0: e659 8c3c c25f b0bd f28a 01be 8e65 a23c
000000d0: 4967 d53c 599d 9e3d 4d41 053e a1cf bcbd
000000e0: 6f3a c6bd 9733 873d 9fff a4bd 4722 953c
000000f0: 8e2d 953b bd92 b1bd 48cb 25be 885d 62ba
00000100: 6cc7 c6bd d96d 06be ca2c 4dbd 940f 87bc
00000110: 21e8 f4bd d914 a4bd 161c 9cbd d250 76be
00000120: 5757 c33c 7cfb e8bc 3851 fc3a 3701 223d
00000130: 205a a7bd d545 24be 8d1d 763d 4b32 643c
00000140: 342d 933d 0c96 e63b cc61 333c f769 a13d
00000150: 18e9 b4bb 3f90 5dbd d614 993d 4b81 f23d
00000160: 04f1 d93d d098 e33d 96e9 a73d f136 8ebd
00000170: ec1b aabd 2901 43bd 33c2 9fbd 7c72 9cbd
00000180: a528 b93d 4f70 ba3c b1a2 613e 9fba f23c
00000190: fce0 53bd c862 dbbc f0d2 6dbd 3a24 24bc
000001a0: fa5d 20be e3b3 433d 4dd2 87bc a5fb 3bbe
000001b0: 209e 38bd 4b3e 863c 5354 9b3c 3c56 d3bd
000001c0: 440d c5bd eba6 17bd f5c1 373d 57aa 543e
000001d0: 340b 843c 38e4 5b3d 0ca5 6fbd 5022 383d
000001e0: 8b25 94bd 9028 c9bd 8c4f 31bc 622f 4a3c
000001f0: 07d7 863b 2c07 31bd 7082 04be 7cb1 543d
00000200: 8330 853d 81bc 453d f098 92bd ab34 b03d
00000210: 3c98 9b3d 342c 20bd a2ec da3d 9cc5 823d
00000220: 5afd 45bc 5d88 34bd 848a c73d 1a33 883d
00000230: 23a0 9ebc ebd8 62bd a871 43bc f453 1dbb
00000240: 4e9b febc 90e8 c7ba ae21 a2ba a204 61bc
00000250: 364f b0bd b4a8 f1bc fd32 bcbc 7059 e73d
00000260: d811 13be a892 88bc ed2e dc3d e725 2e3d
00000270: a685 17bd 5db5 8ebb e30c bebc 1c1a 693c
00000280: 3ba1 e7bb a5f4 45be 710f edba d648 903d
00000290: 1bf0 453c fbe0 b23c 9917 c9bd 7a8c 53be
000002a0: 23c8 0f3e e824 3cbd c2d4 59be 6037 c03c
000002b0: 852b 073d 3d98 b33c 9046 093e 473c 27bb
000002c0: 7a3e a7bd 1f0c 4e3d e5e3 f43d b8fd 1ebe
000002d0: 82bc 89b8 510e bbbb bb43 1fbd 4318 dd3c
000002e0: e125 04be a967 cbbb 02f9 6f3d 183d 803d
000002f0: 3d7b 0b3d f5b0 16bd 6263 843d d298 c0b9
00000300: 456f 35bc 7540 dabd 1a6d a2bd a283 c8bc
00000310: 2aeb 663d 1a5f b03d 1c51 453d 5572 9d3b
00000320: 692d af3d ad98 383c f4c7 c1bc b60e c8bd
00000330: f1d1 2c3c 1bef d13d bc0e 813d cfc1 613d
00000340: 577f 5bbc 10ac e43d b5eb 72bd 67dc f6bd
00000350: 2b12 ebbd 1fc0 6d3d fa98 84bd aa0c 55bd
00000360: 0ab2 d3bc da5f 6ebd 3a0b bebd 9c90 723c
00000370: 1a3f 383d e924 0d3d f657 d0bc 8193 41be
00000380: c795 de3b 9e59 a33d ecb6 0f3e f0dd 12bd
00000390: 1ed7 533d 2d63 463c 7ed4 f1bd efbb cc3d
000003a0: 1baa a53d 8d35 a73d db47 ce3d 318a 223c
000003b0: 156b da3c 5e2e 2ebd 5d9b 5dbd 36f5 8ebc
000003c0: 4ccc 09be 60f3 08bd 2582 b0bd 0176 40bd
000003d0: 8c91 693d a431 903d 0a7b 68bd bd83 4c3b
000003e0: 9ba0 fb3d e17e 22bd 62a6 2cbd 0f94 de3d
000003f0: e6d9 033e adc0 d73b 2058 df3c b802 77bd
0.09065236 -0.006921374 0.055358455 0.041511696 -0.035215836 -0.055656336 0.034958158 0.00037622126
-0.10716202 0.024472503 -0.046172664 -0.028077865 0.007355985 0.050210264 0.120700546 0.06335989
0.04338116 -0.029134508 0.0822612 0.088569805 -0.09622989 0.093297824 0.0852469 0.0018348846
0.11274581 0.0122161675 -0.029556781 -0.04741855 0.03944615 -0.00946794 -0.014427053 -0.055811577
-0.19679555 -0.03205588 -0.018260008 -0.02330844 0.01934685 0.1287257 -0.023083553 -0.06606397
0.13763739 -0.0017453239 -0.07684858 0.012262261 -0.14841081 0.09259879 -0.059962906 -0.048763193
0.01713271 -0.08612014 -0.1265066 0.019823816 0.026050227 0.077448554 0.13013192 -0.092192896
-0.09679114 0.06601637 -0.08056568 0.018204821 0.0045525497 -0.08670566 -0.16190827 -0.0008635153
-0.097060055 -0.13127841 -0.050091542 -0.01648692 -0.119583376 -0.08011789 -0.076225445 -0.24054268
0.023845358 -0.02844023 0.0019250279 0.03955194 -0.08171487 -0.16042264 0.060086776 0.013928006
0.07186356 0.00703693 0.01094861 0.07881539 -0.005520951 -0.054092642 0.07474677 0.11841067
0.10641673 0.11113131 0.0819885 -0.06944073 -0.08306107 -0.04760853 -0.078007124 -0.07639024
0.090409555 0.022758631 0.22034718 0.029630003 -0.051728234 -0.026780501 -0.058062494 -0.010018403
-0.15660849 0.047778975 -0.016579771 -0.18357714 -0.045072675 0.016387125 0.018961107 -0.10319182
-0.09621671 -0.03702442 0.044862706 0.20768104 0.016118623 0.053684443 -0.05850701 0.044954598
-0.07233723 -0.0982219 -0.010822188 0.0123403985 0.0041149887 -0.04321973 -0.12940383 0.051927075
0.065033935 0.048275474 -0.07158077 0.086037956 0.07597396 -0.039104655 0.106896654 0.06385347
-0.0120843295 -0.04407536 0.09743217 0.06650372 -0.019363469 -0.05538265 -0.011928953 -0.0024006339
-0.031079914 -0.0015251804 -0.0012369656 -0.013734015 -0.08608858 -0.02949939 -0.022973532 0.11296356
-0.14362276 -0.016671494 0.10751138 0.042516615 -0.03699269 -0.0043551163 -0.023199504 0.014227416
-0.0070687807 -0.19331606 -0.0018086267 0.07045142 0.012081171 0.021835795 -0.09818954 -0.20659056
0.1404119 -0.045933634 -0.21272567 0.023463905 0.033000488 0.021923179 0.13405824 -0.0025518106
-0.08166213 0.05030453 0.1195753 -0.15526474 -6.5677814e-05 -0.0057084938 -0.038882952 0.026989108
-0.12905075 -0.0062074256 0.05858708 0.06261653 0.034053076 -0.036789853 0.06464268 -0.00036734954
-0.011073892 -0.106568255 -0.07930966 -0.02447683 0.056376614 0.08611889 0.048173055 0.004804889
0.08553583 0.0112668695 -0.023654915 -0.09768431 0.010548101 0.10250684 0.063016385 0.05511647
-0.013397059 0.11165631 -0.05930682 -0.12053757 -0.11478075 0.05804455 -0.064744905 -0.05201403
-0.025841732 -0.05819688 -0.09279485 0.014804985 0.044982053 0.03445903 -0.025432568 -0.18903925
0.006792757 0.079760775 0.14034623 -0.035856187 0.051718824 0.012108606 -0.11808108 0.09996783
0.08089086 0.08164511 0.10072299 0.009920643 0.026662389 -0.042524688 -0.054103244 -0.01745091
-0.1345684 -0.033435225 -0.08618573 -0.046987537 0.05702357 0.07040718 -0.056757964 0.0031206452
0.122864924 -0.039671782 -0.042150863 0.10868084 0.1287609 0.006584248 0.027263701 -0.060305327

features_extractor.encoder.conv.10.bias f4 [128]
00000000: a26b 853d 70b2 87bc 1174 16bc 8735 a93c
00000010: 9f78 2dbc d301 aa3c 0eda 2a3c 0582 b93d
00000020: 737e 19bc 5e04 2d3b 776b 8e3d c59c 00bd
00000030: fbbf 2b3d 734a 6a3c fdde 173d 6803 7b3d
00000040: 17c9 9fba 2fa0 0d3d cca5 cebb 3165 32bd
00000050: e7f5 253d e0c2 033d 587e 193d 3f51 8ebc
00000060: aa3d 943c 2fd5 063d 9848 19bd 6cfc db3c
00000070: 8c5d ae3c 67c4 b03b ade3 fc3b 80c9 3e3d
00000080: 431f 2d3d 054c 6d3d 99de 3e3d a049 593c
00000090: 1b95 3a3d 952f 613b f504 a73c ba23 11b8
000000a0: ecb2 123c 010a 6f3d be03 71bb cfe6 233d
000000b0: 3c89 9f3d a9ca 2e3d e7d0 943c 6064 1abc
000000c0: 5b04 323d d6a6 8b3c 0eac 393d 55e1 9dbc
000000d0: d32c 98bc 2fb7 41bc 5868 9939 cc34 0f3c
000000e0: 6358 16bc 473c 613c c71d 7e3d ffeb 05bd
000000f0: 976e 4c3c 7ca6 2bbc c93d 3f3d 02e6 ddbb
00000100: e097 343d 1445 b0bc 865a cebc 4432 de3c
00000110: 9e8b 0f3d d5fe 9e3c e980 5a3c 98eb c13b
00000120: 8a6f 88bc 2142 91bb 6e92 493d c248 283d
00000130: 7584 c2ba 4c36 33bd eaa6 463c f752 10bd
00000140: 12f2 9cbd e148 60bc e893 193c 5cb0 a73d
00000150: 0215 553d 1560 593d 48b9 843c aca3 2a3c
00000160: 1c5e a03c 1579 4b3c 2633 0b3c f9bd 253d
00000170: 4c89 b73c 98b7 c43c d789 22bc 6c19 c93c
00000180: ba29 303d 7d9c 2b3d bfba f63a b959 e6ba
00000190: 432e dabb acc3 a23c fd43 713c 60ea 91bc
000001a0: e53a 423d 8a38 a23c c8ce c23c c448 113d
000001b0: 100f bebc 15dc a23d e25c 063c bace b5bc
000001c0: 95a3 0abd 9d8c ed3c 8f61 243d 5578 263d
000001d0: 6eec 0bbd 030a 633d 1609 21bd 01bd 923d
000001e0: 5883 173c b3f2 c43c 8e78 913c 7c28 653c
000001f0: 76be 1cbc afc1 c2bb 1742 6f3d 70eb b43c
0.0651467 -0.016564578 -0.009182946 0.020655407 -0.01058784 0.020752823 0.010427965 0.090580024
-0.009368527 0.0026400308 0.06954091 -0.031399507 0.041931134 0.014299977 0.037077893 0.061282545
-0.0012190667 0.03457659 -0.0063063856 -0.043553535 0.040517714 0.03216827 0.037474006 -0.017372726
0.01809581 0.03291815 -0.037422746 0.026853763 0.021284841 0.0053945067 0.0077175708 0.046578884
0.04226614 0.057933826 0.046599004 0.0132621825 0.045552354 0.0034360636 0.020388106 -3.4603967e-05
0.008953791 0.05835915 -0.0036775912 0.040015038 0.07789847 0.04267374 0.018166019 -0.009423345
0.043461185 0.017047327 0.0453301 -0.019272486 -0.018576061 -0.0118234595 0.00029260176 0.008740615
-0.0091763465 0.013747281 0.062040117 -0.032695767 0.012477539 -0.010476705 0.046689782 -0.006771804
0.04409015 -0.021517314 -0.02518965 0.027123578 0.03504526 0.019408623 0.013336399 0.0059179775
-0.016654748 -0.004432932 0.04921191 0.041085012 -0.0014840501 -0.043752953 0.012124756 -0.03523537
-0.07663359 -0.013689251 0.0093736425 0.08187935 0.052021988 0.053070147 0.01620163 0.010414999
0.019576125 0.012419005 0.008496081 0.040464375 0.022404335 0.024013326 -0.009920559 0.024548255
0.043008544 0.041897286 0.0018823965 -0.0017574347 -0.006658347 0.019868694 0.014725682 -0.017811954
0.047419447 0.01980235 0.023780242 0.035469785 -0.023200542 0.079521336 0.008200856 -0.022193301
-0.03384741 0.028997714 0.0401321 0.0406421 -0.034161024 0.05542947 -0.039315306 0.07164956
0.009247623 0.02404151 0.01775768 0.013986703 -0.009566894 -0.005943499 0.058412638 0.022084922

features_extractor.encoder.fc.weight f4 [64, 128]
00000000: 4a9c 183d a734 4b3e bd21 2cbd db26 a33d
00000010: fbcd c23d 8754 1b3e 0aeb 0cbc 9aa3 4dbe
00000020: 92b7 64be c332 1bbd 158f 633d e740 753e
00000030: fc43 d2bd d9ec 8e3d d15b 8c3d 2d17 553e
00000040: 3927 093e 361a 77bd b497 023e f906 a0bd
00000050: fc0b 97bc 909d b3bd d739 623d 502c cebc
00000060: ea68 d33d 932f c93d 1d34 643e ec72 933b
00000070: 36cb 6ebd 174e 023e f3f2 24be f2ea 193e
00000080: 78c6 a1be a9ef 2cbe c01e 9abe 7be4 fb3d
00000090: bf8f 83be 889d 113d adf6 8bbe d304 aebc
000000a0: 6289 b9bd f12c 3ebb e3a6 193e db48 6f3c
000000b0: d2cb 253e 09da 5a3d 4af0 ddbd 3773 683c
000000c0: 538b 663e b04f a73d f786 d2be ffba 3c3e
000000d0: 64a6 cbbd 4d10 e4bd aae9 c6bd bd0d 1b3c
000000e0: f24d 0c3d d952 8c3d c192 193d 890e 5f3d
000000f0: ee66 023e a52f 6c3d 643f 7cbe 0f84 7ebe
00000100: 2fc0 79be 3310 00bc 913d b0bd 2830 84bc
00000110: 8eea abbd ab7f f5bd 4da5 433e 3846 c0bd
00000120: d83a 27be d67b 9dbd 55e2 c83d c904 9d3d
00000130: 9e3b 00be 3e86 e1bd 6362 91be d1c6 893e
00000140: 629f 47bd f162 a0bb 7089 1ebe a546 2c3e
00000150: 5a5c d8bd fb38 473b ebdd ad3d a3a4 653d
00000160: acc9 a13e 4bce 5d3c 9387 19be 7137 3d3e
00000170: 4e19 f1bd 4ac3 773e 80ff 19be d90b f03d
00000180: e74b 183e 11b7 00be 312c 22bc 2c44 ec3c
00000190: b121 87bb 4097 ebbb 070d b43d 0cfc 883d
000001a0: 2b88 86be f80a 40be 134a 933b 5dc7 a2bd
000001b0: 1db2 36be 0b6c 2cbe 6ee0 dd3c e388 efbc
000001c0: 2755 493b 020b 063e 55ec 8ebd 4792 24be
000001d0: eb75 94be 3289 623e dca5 4abd 140b 82bd
000001e0: 6630 9d3e ca40 a13e ec12 61bc 646e 553e
000001f0: 77c1 c0bd 9ffd f03d 7e7e 0f3e 2422 bebc
00000200: cb1d 0abe 8825 363c 0b65 78be b9f0 3d3c
00000210: c776 b43b f1a8 a73b 8767 13be ce0f ccbc
00000220: 5a2b edbd b9b7 babd a566 083d f184 71bd
00000230: 5fb3 bbbc 1bde 263d b6e6 10bc f26f 17be
00000240: 62a8 b23c 20d9 933c 492a 7fbd 6f97 5f3e
00000250: 61e2 cb3c 69cd 1e3e 4047 3a3c 2a02 c43e
00000260: bad2 0dbe 8aed 20be 9111 683e 23d5 e03d
00000270: 6d04 773e a202 dc3d 5948 d6bc d541 ce3d
00000280: 2d05 54bb ea12 8bbe c497 75bd 9176 013d
00000290: 023b 9d3e 5c92 17be 2100 14bd 68f8 7f3d
000002a0: c3e7 65be 1500 2f3e 4371 9d3c 88f0 49bd
000002b0: 4b2f 51be 9fb9 093e e247 9ebe dc10 1d3d
000002c0: 4129 bc3d 6d0c c5bd 8e27 e03d 48b5 0d3e
000002d0: efc3 d53a 7309 8ebe 2787 b9bc 2a52 833e
000002e0: e289 4f3d ce44 18bd ee84 4cbd 0c1d 4dbe
000002f0: 85d6 6b3d 96db bdbc 7548 bcbd b6cd bc3d
00000300: ea8f ed3d eaa9 8abd 1afa 07bd de82 213e
00000310: af0c 003e 2454 0e3e 3088 583e daa8 273b
00000320: a048 f3bd f3f9 16bd e041 1c3e 11ed 883d
00000330: edba 7b3d 56e6 b83d b4b6 c23c 6478 933d
00000340: 2b7e a43d 139e 42bd c9c2 523d eab2 66bd
00000350: d8e7 423d 4a4c 2bbe a7e6 663e e318 93bd
00000360: fc12 a43d 6c72 03be 7dee 22bd e9de babc
00000370: beb6 963b 43c3 4e3e 17f8 b9bd 58c3 f7bd
00000380: 0115 62bd 5226 0abe d1f4 3c3e 7a79 833e
00000390: 3609 88bd 22e6 62bd 8982 a33d 8fa6 ab3b
000003a0: 215a 8c3d 09c4 10be eb18 e8bd bc15 83bd
000003b0: 49bf 1f3d 8521 1cbe 06eb 233e 8ef7 b63c
000003c0: 532e 2e3c 6639 e23d f133 2b3e 5008 aabd
000003d0: 65e0 afbd 3fb7 40be a154 ab3c 5a56 39bd
000003e0: 7d7e dabc 5b52 113d 69a7 403d c399 11bd
000003f0: be52 913d 6084 4dbd 9e43 043e 3137 773a
0.037258424 0.19844304 -0.042024363 0.079663955 0.09511944 0.15168963 -0.00860096 -0.2008194
-0.22335652 -0.037890207 0.055556376 0.2395054 -0.10266873 0.06978769 0.0685345 0.20809622
0.13393869 -0.06032773 0.12753183 -0.0781383 -0.018438332 -0.08770287 0.05523094 -0.025167614
0.10322745 0.09823527 0.22285505 0.0044997837 -0.058299266 0.12725101 -0.16108303 0.15031031
-0.31596732 -0.16888298 -0.30101585 0.122994386 -0.25695607 0.035550624 -0.27336636 -0.021242535
-0.09059407 -0.0029018486 0.15005068 0.014604772 0.16191033 0.05343059 -0.10836847 0.014187626
0.22514085 0.08169496 -0.41118595 0.18430708 -0.09943846 -0.111359216 -0.09712537 0.009463725
0.034254022 0.068517394 0.03749347 0.05445722 0.12734577 0.057662625 -0.24633557 -0.24855064
-0.24389718 -0.007816362 -0.08605493 -0.016136244 -0.08394347 -0.11987241 0.19106026 -0.09388393
-0.16331041 -0.076896355 0.098087944 0.07666928 -0.12522742 -0.11011933 -0.28395376 0.26909497
-0.048735984 -0.0048946072 -0.15482116 0.16823824 -0.1056449 0.0030398953 0.08489593 0.056065213
0.31599176 0.013537954 -0.14993124 0.1847818 -0.117724046 0.2419559 -0.15038872 0.1172101
0.14872704 -0.12569834 -0.009898231 0.0288411 -0.0041238894 -0.0071896613 0.08791547 0.06688699
-0.26275763 -0.18754184 0.0044949143 -0.07948182 -0.17841382 -0.1683809 0.027084555 -0.029240077
0.003072092 0.13090137 -0.069786705 -0.16071425 -0.28996214 0.22122648 -0.049474582 -0.06349769
0.30700988 0.31494743 -0.0137374215 0.20842892 -0.094119005 0.117671244 0.14013097 -0.023209639
-0.13487928 0.011117347 -0.24257295 0.011593037 0.0055073234 0.005116575 -0.14394961 -0.02490988
-0.11580534 -0.091170736 0.033301014 -0.058964673 -0.02291268 0.04073916 -0.008844068 -0.14788797
0.021808807 0.01804787 -0.062296186 0.21835111 0.02488822 0.15508045 0.011369526 0.382829
-0.13849917 -0.15715614 0.22662951 0.109781526 0.24122782 0.1074269 -0.026157545 0.1007115
-0.0032351718 -0.27162868 -0.059959188 0.031607214 0.30709082 -0.14801925 -0.036132935 0.062492758
-0.22451691 0.17089875 0.019219046 -0.049301654 -0.20428197 0.13449715 -0.30914217 0.038346156
0.09187556 -0.09621511 0.109450445 0.13838685 0.0016309003 -0.27741584 -0.022647453 0.25648624
0.050668605 -0.037174992 -0.04993146 -0.20030612 0.05757763 -0.023175996 -0.091935076 0.09218924
0.11599715 -0.0677069 -0.0331975 0.15772578 0.12504838 0.13899285 0.21145701 0.002558282
-0.118790865 -0.036859464 0.15259504 0.06685842 0.061457563 0.09028308 0.02376876 0.07200697
0.08031877 -0.047514033 0.051455293 -0.05632297 0.047584385 -0.1672832 0.22548924 -0.07182481
0.080114335 -0.12836617 -0.03977822 -0.02281137 0.0045994213 0.20191674 -0.090805225 -0.12097806
-0.055195812 -0.1349118 0.18452765 0.25678617 -0.06642382 -0.055395253 0.07983882 0.005238361
0.06853128 -0.14137281 -0.11332878 -0.0640063 0.039000783 -0.15247162 0.16007623 0.02233484
0.010631162 0.11046104 0.16719033 -0.08302367 -0.08587722 -0.18819903 0.020914378 -0.045248367
-0.026671642 0.03547893 0.047034655 -0.03554703 0.0709586 -0.05017507 0.12916419 0.00094305264

features_extractor.encoder.fc.bias f4 [64]
00000000: 7662 a13c f28c d43c 469e da3c 7858 22bd
00000010: ba0c 103d a485 723c 52ee 053d 5ea8 26bb
00000020: e1d8 31bc 866f 00bd f85a 43bd 8d1c e23c
00000030: d8ac 6ebd f8eb 113d 2d63 01bd 0d1a 0a3c
00000040: a03b 823b a762 f63b 7b01 ed3c c4ae f53c
00000050: 7d40 943c 9594 35bc 774c 2fbb 75ca 00bd
00000060: 64e7 653d 7059 2fbb 99fc 78bb 5d5c 1d3d
00000070: 5755 0e3d 39a7 d8bb 23bd 63bb 80fb d23c
00000080: 612a 8cbc 877a e8bb bc93 63bd f040 363c
00000090: 7384 afbc 9673 bd3c dda7 9e3d f6a1 6e3d
000000a0: d1d8 0dbd 3c22 55bd 810c c53b 94d0 9f3c
000000b0: df6f 993c 0ab5 8cbc 973d 02bc 7f3e 7738
000000c0: 121e f9bc ccec 8bbb 6f62 c5bc 05ec 76ba
000000d0: 6d4b a2bc 3122 2f3c a5a5 a03c 35ca 32bc
000000e0: 6598 c13b 47df ecbc b9da 1e3b 1258 0f3c
000000f0: 4a99 fbbc b9ce e03c d7ad 893d b719 7d3c
0.01970027 0.025946114 0.026686799 -0.03963515 0.035168387 0.01480237 0.032697983 -0.0025429945
-0.010854931 -0.031356357 -0.047694176 0.027601505 -0.058270305 0.035625428 -0.031588722 0.008429063
0.003974393 0.0075190845 0.02893137 0.029990561 0.018097157 -0.011082788 -0.0026748457 -0.031443078
0.056128874 -0.002675619 -0.0037992357 0.038418163 0.034749355 -0.0066117314 -0.0034750185 0.02575469
-0.017110052 -0.0070946845 -0.055560812 0.011123881 -0.021425461 0.023126405 0.07746861 0.058259927
-0.0346306 -0.0520346 0.0060134535 0.019508637 0.018730102 -0.01717617 -0.0079492545 5.8947593e-05
-0.030409846 -0.0042701717 -0.024094788 -0.0009419325 -0.019811356 0.010689304 0.019610235 -0.010912468
0.0059080594 -0.02891506 0.0024239256 0.008749025 -0.030712742 0.027442323 0.067226104 0.015448025
