weights/image_scratch-nd-2-eps-600.pth (torch, 462898 bytes, 24 tensors)

log_std f4 [2]
0.4034099 0.17713982
00000000: be8b ce3e 2464 353e

features_extractor.encoder.conv.0.weight f4 [4, 1, 3, 3]
0.29639405 0.3350211 -0.0014894053 0.29896176 -0.037727498 0.116408356 -0.17838393 0.22620048
0.33465204 -0.20224118 0.3501522 0.10196199 0.30954406 0.14103706 0.2267983 0.033654027
0.3574403 0.12428661 -0.2295095 -0.09279034 -0.25348476 0.07690553 -0.1379014 0.066560045
-0.2631234 -0.18172845 -0.17251486 -0.23551686 0.2176182 -0.553212 0.26482227 -0.40012175
0.26980028 -0.10704703 -0.23458996 0.113945864
00000000: f6c0 973e e387 ab3e 2638 c3ba 8411 993e
00000010: 2688 1abd 8167 ee3d 47aa 36be 19a1 673e
00000020: 8357 ab3e 5018 4fbe 2647 b33e 73d1 d03d
00000030: 8f7c 9e3e 056c 103e d03d 683e ced8 093d
00000040: 6a02 b73e fa89 fe3d 8a04 6bbe dd08 bebd
00000050: c1c8 81be a680 9d3d 0636 0dbe a250 883d
00000060: 1cb8 86be 0617 3abe bca7 30be 552b 71be
00000070: 4ed7 5e3e 4d9f 0dbf c996 873e c2dc ccbe
00000080: 4323 8a3e 793b dbbd 5a38 70be 735c e93d

features_extractor.encoder.conv.0.bias f4 [4]
0.012910577 0.22490846 0.09115541 -0.064938374
00000000: e286 533c 674e 663e b0af ba3d 69fe 84bd

features_extractor.encoder.conv.2.weight f4 [8, 4, 3, 3]
0.036088664 -0.068086356 0.04856166 0.117707185 0.06594828 -0.10967839 0.05816713 -0.011923814
0.04112162 -0.123104386 -0.19303308 -0.10279893 -0.1601359 0.096282184 0.0042981473 0.027142776
0.009795245 -0.046255678 0.08918166 -0.17321593 -0.033858474 -0.099916086 0.049823295 -0.08909022
0.050458796 -0.039465655 0.119647756 -0.10136171 -0.10799325 -0.11018572 0.1323331 0.01987648
0.12977782 -0.17111768 -0.17898476 -0.14657639 -0.06100833 0.09255812 0.06997741 0.18357167
-0.016429894 -0.077001646 0.11164049 -0.018339345 0.15003225 -0.014342495 0.0889052 -0.15159492
-0.050601754 0.074115455 0.053077888 -0.047151394 0.11173577 0.13391808 -0.13901995 -0.15003024
0.14232658 -0.064814486 -0.11580163 -0.18883711 -0.09148668 -0.0848523 -0.07670797 -0.12045618
-0.06431104 -0.17491443 0.038134314 0.0946675 0.019537833 0.021117365 0.31134418 0.07127285
0.09400143 -0.08984743 -0.088072054 0.0028239493 0.10404997 0.0051695057 -0.15234847 -0.04156398
0.034411542 -0.039709873 0.024419779 -0.06277265 -0.085437074 -0.017255895 0.017934894 -0.10824632
0.20700556 0.043489475 0.15542835 0.06948527 -0.14459273 0.158133 0.0144532975 -0.009595393
-0.09584179 -0.11769704 0.0839122 -0.08050896 0.20076422 -0.20547588 0.012156729 -0.13239063
0.07677544 0.003953964 0.24657299 0.14863946 0.21654852 -0.050324164 0.033007998 -0.016310535
0.06980524 -0.15118447 0.19849822 -0.046804216 0.08933658 0.105257496 0.10592586 -0.12749542
0.18318118 0.09490685 -0.016447004 -0.12039814 0.11917222 -0.06806921 -0.08266695 0.09983655
0.047281303 -0.14385287 -0.13723043 -0.08429869 0.025672099 -0.07708464 -0.11743863 0.11367961
0.08424468 0.18314624 0.33036542 -0.08057235 0.29065683 0.2567703 0.0351837 0.24709792
0.12007207 0.11787468 0.092094876 0.010796676 0.014830037 0.061764922 0.0061555146 -0.0019005777
0.17874628 0.16282763 -0.0035570678 -0.015754176 0.053412948 0.05034533 0.09212683 0.061004505
-0.12708746 -0.028819336 0.22413114 0.09716416 0.070737205 -0.080378234 -0.13368888 -0.17243126
-0.09353992 -0.0009796256 0.08418702 0.12890922 -0.12302151 -0.053234924 0.11941648 0.26243046
0.14813116 -0.030386169 -0.007230099 -0.0797365 -0.07098028 0.20757918 -0.028032074 0.040293552
-0.06901158 0.18909292 0.17559327 0.14397578 -0.056068476 -0.118941694 -0.064867415 0.17742616
0.14024791 0.24119727 0.14946842 0.08786487 0.06785725 -0.089713566 -0.029737351 -0.19921672
0.14687487 -0.03612169 -0.07972791 -0.051201053 -0.020243686 -0.21946229 -0.1377411 0.21175753
0.01994112 0.060569126 0.15834267 0.019750025 0.11882538 -0.036977746 -0.055763688 -0.027185384
0.17152017 -0.0453943 0.08212391 0.12874939 0.18227808 -0.13185675 0.15661974 -0.03780299
0.062893994 0.18599468 -0.008559794 -0.023329178 -0.013402706 -0.11227808 0.05715582 -0.17554708
0.09635676 0.0778984 0.11194085 -0.098766156 -0.14845692 -0.016107284 -0.009203924 -0.21534686
-0.119971626 -0.16342308 -0.060825862 0.03524743 -0.10927202 -0.21669634 -0.18438135 -0.021096407
0.0852983 -0.058492534 -0.19205694 -0.03382269 -0.15051048 -0.16219074 0.06194307 -0.091507696
00000000: b5d1 133d dc70 8bbd 97e8 463d 7710 f13d
00000010: e40f 873d 109f e0bd a840 6e3d 1a5c 43bc
00000020: 256f 283d 271e fcbd 77aa 45be 3f88 d2bd
00000030: aafa 23be 982f c53d 79d7 8c3b 875a de3c
00000040: 3c7c 203c 9876 3dbd e0a4 b63d 845f 31be
00000050: 2faf 0abd cea0 ccbd 8313 4c3d ef74 b6bd
00000060: e2ad 4e3d bda6 21bd e209 f53d ba96 cfbd
00000070: 912b ddbd 0da9 e1bd 5482 073e 00d4 a23c
00000080: 7ae4 043e 7939 2fbe c847 37be 1f18 16be
00000090: dfe3 79bd 1d8f bd3d 5150 8f3d 36fa 3b3e
000000a0: fc97 86bc 0ab3 9dbd c5a3 e43d 653c 96bc
000000b0: 0ea2 193e c9fc 6abc ee13 b63d b33b 1bbe
000000c0: c943 4fbd d8c9 973d 3368 593d d221 41bd
000000d0: b9d5 e43d d221 093e 3f5b 0ebe 87a1 19be
000000e0: 0fbe 113e 75bd 84bd 6829 edbd 845e 41be
000000f0: 5e5d bbbd 0bc7 adbd 1119 9dbd bbb1 f6bd
00000100: 82b5 83bd c51c 33be ba32 1c3d 09e1 c13d
00000110: ce0d a03c 53fe ac3c 8168 9f3e 80f7 913d
00000120: d283 c03d ee01 b8bd 1f5f b4bd 0212 393b
00000130: 2718 d53d f564 a93b 3d01 1cbe fe3e 2abd
00000140: 1ef3 0c3d d2a6 22bd fd0b c83c f28e 80bd
00000150: a2f9 aebd 3c5c 8dbc 33ec 923c 3fb0 ddbd
00000160: 44f9 533e 0522 323d 9c28 1f3e 4b4e 8e3d
00000170: 1e10 14be 9eed 213e 86cd 6c3c ff35 1dbc
00000180: b348 c4bd 250b f1bd 29da ab3d e2e1 a4bd
00000190: 2395 4d3e 4568 52be 042d 473c 6991 07be
000001a0: 713c 9d3d 4190 813b a17d 7c3e f134 183e
000001b0: e5be 5d3e b620 4ebd 6533 073d ac9d 85bc
000001c0: 0df6 8e3d 1ad0 1abe 1e43 4b3e c7b5 3fbd
000001d0: 19f6 b63d 3e91 d73d a8ef d83d 298e 02be
000001e0: d993 3b3e 865e c23d debb 86bc 4d93 f6bd
000001f0: 9110 f43d df67 8bbd 4a4d a9bd 1b77 cc3d
00000200: 0aaa 413d 2b4e 13be 2286 0cbe cba4 acbd
00000210: 4b4e d23c 8dde 9dbd aa83 f0bd dbd0 e83d
00000220: 7a88 ac3d b08a 3b3e a825 a93e 1e03 a5bd
00000230: f9d0 943e 6677 833e c91c 103d 3d07 7d3e
00000240: 58e8 f53d 4868 f13d 3d9c bc3d 8be4 303c
00000250: aff9 723c 37fd 7c3d 33b4 c93b ce1c f9ba
00000260: 4409 373e 49bc 263e b21d 69bb e70e 81bc
00000270: 89c7 5a3d e836 4e3d feac bc3d dcdf 793d
00000280: 3723 02be 8716 ecbc a282 653e 01fe c63d
00000290: abde 903d 589d a4bd bde5 08be d291 30be
000002a0: dc91 bfbd c866 80ba 3f6a ac3d c700 043e
000002b0: b4f2 fbbd dd0c 5abd a190 f43d 495d 863e
000002c0: b2af 173e 6aec f8bc 77ea ecbb e44c a3bd
000002d0: 1c5e 91bd a38f 543e 85a3 e5bc da0a 253d
000002e0: f155 8dbd 93a1 413e b9ce 333e 636e 133e
000002f0: 0fa8 65bd b497 f3bd 35d9 84bd 34af 353e
00000300: 269d 0f3e 6bfc 763e 400e 193e 7ff2 b33d
00000310: bef8 8a3d bfbb b7bd bf9b f3bc 78ff 4bbe
00000320: 5e66 163e 56f4 13bd 6348 a3bd 32b8 51bd
00000330: 16d6 a5bc b9ba 60be 010c 0dbe f7d6 583e
00000340: 8f5b a33c 5517 783d 9524 223e ceca a13c
00000350: b95a f33d fa75 17bd 7768 64bd e2b3 debc
00000360: fca2 2f3e 60ef 39bd 9530 a83d e1d6 033e
00000370: 1ba7 3a3e 7505 07be ed60 203e 4fd7 1abd
00000380: 91ce 803d 6475 3e3e 613e 0cbc d51c bfbc
00000390: 0697 5bbc 0df2 e5bd 391c 6a3d 9dc2 33be
000003a0: b156 c53d 3289 9f3d 3f41 e53d e945 cabd
000003b0: 1705 18be 6cf3 83bc 0ecc 16bc e383 5cbe
000003c0: afb3 f5bd 6158 27be 8a24 79bd 9c5f 103d
000003d0: 02ca dfbd a5e5 5dbe 77ce 3cbe 5fd2 acbc
000003e0: e0b0 ae3d de95 6fbd 93aa 44be a989 0abd
000003f0: 6b1f 1abe 5415 26be 04b8 7d3d 6368 bbbd

features_extractor.encoder.conv.2.bias f4 [8]
-0.1701355 -0.06085411 0.1766628 0.022923645 -0.1223924 -0.100129664 0.040218588 -0.12397355
00000000: 0038 2ebe 2942 79bd 18e7 343e 5eca bb3c
00000010: dea8 fabd c810 cdbd 3fbc 243d d8e5 fdbd

features_extractor.encoder.conv.4.weight f4 [16, 8, 3, 3]
-0.0182766 0.08424066 -0.028887141 -0.012156353 0.014359505 -0.012981055 -0.07083143 -0.0907994
-0.06610364 -0.09851786 0.14955983 -0.06893717 -0.06429326 0.06979152 0.023128306 0.024686156
0.102189004 0.008231135 -0.087539665 0.0001242412 0.10629813 0.05444499 -0.07793622 0.13384333
-0.06281875 -0.085575856 -0.07885861 -0.11242509 0.05944282 -0.0060616396 -0.102712385 -0.06577605
-0.09063086 -0.06292551 0.15780528 0.04773183 -0.12989339 0.034482457 -0.102179654 -0.08742496
0.060079284 0.07462323 0.076787785 -0.048823755 0.06640831 -0.14376812 0.099849425 0.10119535
0.025052823 0.20017724 -0.09463583 -0.019241909 0.08415567 -0.088455684 -0.066301405 -0.020298686
0.08269142 0.014188573 0.044697855 -0.072878644 -0.11951569 0.03018425 0.00922019 -0.054413266
-0.032974474 0.07959285 0.009387992 0.0053172484 -0.029003225 -0.10672477 -0.1108104 -0.056334615
-0.044594355 0.06426477 -0.015178767 -0.040167026 0.125419 0.056419697 0.08162462 -0.048109453
-0.04404893 0.08645109 -0.0068296893 -0.07280299 -0.046535484 0.0025570642 -0.025952848 -0.019334517
0.013695136 -0.021214085 -0.00874791 -0.16357341 -0.086868756 -0.007468315 0.019117834 -0.01867511
-0.050487455 0.026422877 -0.08028444 -0.025120921 0.029378142 0.06538938 -0.08841164 0.093995355
-0.029765211 0.010385084 -0.019124322 0.05012126 0.14002219 0.061816968 -0.031023923 0.12571798
0.18541394 -0.10388875 -0.046134453 -0.1056477 -0.112632066 0.06914922 0.14223474 -0.011732654
-0.01059517 0.15004133 0.018842041 -0.09374202 -0.080475084 0.005022189 0.006867965 -0.023057655
0.09752068 -0.10622717 -0.044573095 -0.097740084 0.044357534 0.07047109 0.07979421 0.06917993
0.089030586 -0.015774347 -0.06484498 0.05888509 -0.061068423 -0.0795337 -0.037633874 0.02473215
0.040500224 -0.052821655 -0.051353868 0.0375714 -0.070649266 -0.078660384 0.06315617 -0.019448174
0.11613684 0.029090844 0.038179792 0.008559266 -0.006535968 0.07242979 0.057507135 -0.060856577
0.014170959 0.09805101 -0.09018854 -0.091026895 -0.016109271 -0.09477451 0.0017674774 0.033738714
0.07029067 0.033044636 -0.14612353 -0.009977265 -0.00803863 0.0019107503 -0.08153924 -0.16823979
0.1086897 -0.18882214 -0.10290039 -0.032445423 0.10159988 -0.072281845 0.081299774 -0.088622734
-0.006986482 0.0969769 -0.09026527 0.10108745 0.16996981 -0.17887057 0.02586243 0.038697455
-0.06831827 0.052469004 0.087011114 -0.09836037 0.011797173 0.12446424 0.11569555 0.023308521
-0.10011866 -0.037985604 -0.09960564 0.1370221 -0.13665111 -0.0035327089 0.046853412 0.020972066
0.11090117 0.011198126 0.068255134 0.09147859 0.095142536 -0.040700063 -0.026358187 0.056796916
-0.0188034 0.08845758 -0.014815257 -0.08497908 0.04219753 0.014663047 0.041613452 0.1130984
0.07013269 0.17456616 0.09325239 -0.08190793 -0.068493076 0.014090309 -0.14696956 -0.26135233
-0.18974534 -0.110152274 0.056938592 -0.011974289 -0.07680163 0.05981839 0.118513785 -0.056773927
-0.06580108 0.16486117 -0.026425155 -0.092222944 0.12483922 -0.116482005 0.033862762 0.20818458
0.09992348 -0.051000535 -0.05072231 0.017003508 -0.041522875 0.040163845 -0.043643758 0.1671151
00000000: cfb8 95bc 5e86 ac3d baa4 ecbc 712b 47bc
00000010: 2144 6b3c 7eae 54bc 1210 91bd 09f5 b9bd
00000020: 5861 87bd bbc3 c9bd 3626 193e ee2e 8dbd
00000030: 2fac 83bd dbee 8e3d 9377 bd3c 9f3a ca3c
00000040: 7848 d13d e2db 063c ff47 b3bd be46 0239
00000050: d5b2 d93d b601 5f3d 069d 9fbd 3a0e 093e
00000060: 1ea7 80bd 6542 afbd 9f80 a1bd 203f e6bd
00000070: 507a 733d b8a0 c6bb df5a d2bd 98b5 86bd
00000080: ac9c b9bd 17df 80bd b597 213e 7482 433d
00000090: c602 05be 7a3d 0d3d 9143 d1bd dc0b b3bd
000000a0: b215 763d 10d4 983d ea42 9d3d 6bfb 47bd
000000b0: 1401 883d f337 13be db7d cc3d 823f cf3d
000000c0: 943b cd3c 43fb 4c3e 6ed0 c1bd 35a1 9dbc
000000d0: cf59 ac3d 4128 b5bd 08c9 87bd 6e49 a6bc
000000e0: 1f5a a93d 3077 683c 1915 373d 6641 95bd
000000f0: a4c4 f4bd f644 f73c 4810 173c 72e0 5ebd
00000100: 3e10 07bd 9301 a33d 18d0 193c 503c ae3b
00000110: 2c98 edbc 8492 dabd 90f0 e2bd 20bf 66bd
00000120: 92a8 36bd 3f9d 833d 5db0 78bc 2e86 24bd
00000130: d76d 003e 5718 673d cf2a a73d 6b0e 45bd
00000140: a76c 34bd 450d b13d 96cb dfbb bc19 95bd
00000150: fe9b 3ebd 6b94 273b 119b d4bc 6c63 9ebc
00000160: 9061 603c 29c9 adbc 6553 0fbc ca7f 27be
00000170: 3fe8 b1bd c4b8 f4bb 019d 9c3c 8bfc 98bc
00000180: efcb 4ebd ca74 d83c 2b6c a4bd 64ca cdbc
00000190: 6eaa f03c deea 853d 2911 b5bd a380 c03d
000001a0: 2cd6 f3bc 3326 2a3c 9caa 9cbc f34b 4d3d
000001b0: fa61 0f3e ca33 7d3d e225 febc 37bc 003e
000001c0: 27dd 3d3e a0c3 d4bd 7bf7 3cbd d25d d8bd
000001d0: a4ab e6bd 1b9e 8d3d fca5 113e 513a 40bc
000001e0: 5d97 2dbc 6fa4 193e a05a 9a3c d1fb bfbd
000001f0: 1fd0 a4bd 2d91 a43b ab0c e13b 68e3 bcbc
00000200: ecb8 c73d a18d d9bd 4792 36bd f42b c8bd
00000210: 3fb0 353d 2653 903d 266b a33d 35ae 8d3d
00000220: ab55 b63d 3439 81bc 72cd 84bd 7e31 713d
00000230: e222 7abd 91e2 a2bd fa25 1abd 149b ca3c
00000240: 90e3 253d 855b 58bd 6f58 52bd 78e4 193d
00000250: 90b0 90bd b218 a1bd 0658 813d c751 9fbc
00000260: 27d9 ed3d ec4f ee3c 6a62 1c3d 2a3c 0c3c
00000270: ac2b d6bb 1256 943d 9a8c 6b3d bf44 79bd
00000280: 4f2d 683c f8ce c83d c5b4 b8bd 4f6c babd
00000290: 97f7 83bc 2319 c2bd b3aa e73a 9b31 0a3d
000002a0: 8ef4 8f3d d059 073d 68a1 15be af77 23bc
000002b0: 75b4 03bc 2472 fa3a 0cfe a6bd 0d47 2cbe
000002c0: b598 de3d 975a 41be 71bd d2bd 7ee5 04bd
000002d0: 9913 d03d 8108 94bd 7f80 a63d d67f b5bd
000002e0: dcee e4bb d39b c63d ffdc b8bd f006 cf3d
000002f0: 910c 2e3e d929 37be 72dd d33c 3981 1e3d
00000300: 73ea 8bbd bde9 563d e232 b23d 2971 c9bd
00000310: ee48 413c 1ce7 fe3d caf1 ec3d 83f1 be3c
00000320: 030b cdbd cb96 1bbd 0bfe cbbd 854f 0c3e
00000330: 45ee 0bbe 0585 67bb 5de9 3f3d 9ccd ab3c
00000340: 2720 e33d 5878 373c 59c9 8b3d 2159 bb3d
00000350: 17da c23d 1cb5 26bd 20ed d7bc e2a3 683d
00000360: 9709 9abc 3f29 b53d b1bb 72bc 8309 aebd
00000370: 51d7 2c3d 473d 703c de72 2a3d 22a0 e73d
00000380: baa1 8f3d 79c1 323e 1cfb be3d 58bf a7bd
00000390: 1946 8cbd 0adb 663c 307f 16be f9cf 85be
000003a0: 9a4c 42be 8497 e1bd 7138 693d cf2f 44bc
000003b0: 2c4a 9dbd 2104 753d 5bb7 f23d c78b 68bd
000003c0: b7c2 86bd 5ed1 283e 9179 d8bc 62df bcbd
000003d0: b4ab ff3d 1e8e eebd aeb3 0a3d 572e 553e
000003e0: aea4 cc3d f0e5 50bd 32c2 4fbd f14a 8b3c
000003f0: e413 2abd d882 243d ccc3 32bd 3920 2b3e

features_extractor.encoder.conv.4.bias f4 [16]
-0.014172571 0.068865955 -0.054602202 -0.0389686 -0.0531133 -0.1588357 -0.08184505 -0.110911876
-0.08328052 0.004237154 -0.00194178 0.09449516 0.064508684 -0.06638643 0.0065774964 -0.044881806
00000000: 1234 68bc 9809 8d3d 8fa6 5fbd 8a9d 1fbd
00000010: 558d 59bd d3a5 22be 619e a7bd c425 e3bd
00000020: fa8e aabd d3d7 8a3b 5383 feba ae86 c13d
00000030: 211d 843d 9cf5 87bd 0a88 d73b fcd5 37bd

features_extractor.encoder.conv.6.weight f4 [32, 16, 3, 3]
0.10511639 -0.23028877 0.06942407 0.06048125 0.045387894 0.12707716 -0.07957904 0.11265056
0.0021953962 0.095279165 -0.027348772 0.06093364 0.08972306 -0.008453735 0.025380444 -0.012030345
0.05985554 0.06453111 -0.024686988 0.013786382 -0.093183294 -0.008519535 0.06911777 -0.048413638
0.0027596639 -0.022376845 0.06988349 0.16229576 0.005163781 0.184505 -0.008725066 -0.002632118
0.1087823 0.03760966 0.17508693 0.17469567 0.030582642 0.0047315727 0.077665806 0.122819394
0.05476069 0.1557496 0.052696366 0.13908319 -0.09308243 -0.015534263 -0.11887513 -0.08055232
-0.056176417 -0.00065702846 0.023033626 -0.010291066 -0.02837202 -0.114347406 0.04162176 -0.05014745
0.049659092 0.12459408 0.0016993912 -0.03536866 0.13456427 0.091972075 -0.036644492 0.12043765
-0.13884182 0.024514679 0.06002238 0.03433978 0.013618645 -0.049761087 0.055930343 0.042442165
0.01359058 -0.062294938 -0.00747897 0.06525796 -0.067789905 -0.059747208 -0.0033538472 0.10802635
-0.006841751 0.06906017 -0.11388602 0.026950853 0.050585628 0.06282623 0.10247946 0.041027494
0.04783344 -0.09933767 0.016375346 -0.14894257 -0.02825898 -0.08799247 -0.023033986 0.16664502
-0.08834224 0.082759164 -0.12735453 0.020549072 -0.114921376 0.11348906 -0.03040776 -0.026811348
0.08612787 -0.04656598 0.026107581 0.08784178 -0.055179354 -0.089178875 0.056220416 -0.07899985
0.0040403865 0.059653472 0.08203012 0.03593307 -0.07392864 -0.001789925 0.012115916 0.04209227
0.043091733 -0.040040962 0.106033444 -0.01066685 0.027297307 0.07848077 0.121603034 -0.08600433
0.025643488 0.003497818 0.02151434 -0.03133958 -0.023150116 0.06727347 0.10537708 0.09634083
0.020271918 0.031559974 -0.061518926 0.14025526 0.031178005 -0.072409585 0.0061517297 -0.06196962
0.047782715 -0.07694781 0.01004005 0.0034304662 0.055183653 -0.100813106 0.056513462 -0.031911884
-0.0008071489 -0.11344475 0.02307341 -0.0017806038 0.062432468 0.011698962 0.066929065 0.03527766
0.0052495506 -0.041924417 -0.14484023 0.0037989912 0.08035011 -0.014115316 -0.06287766 -0.037546325
0.02926498 0.023367096 0.06197398 0.023141023 0.100409806 -0.01251392 0.055734154 0.01365277
0.01668727 0.111957766 0.18941261 0.03749824 0.06488507 0.007673827 -0.1707214 0.08554719
-0.05370627 -0.05241012 -0.09244273 0.05502248 -0.005144023 0.016294677 -0.16619936 -0.112537704
0.012177445 -0.034225542 -0.07617466 -0.051424704 -0.15524039 0.027733173 0.10824829 -0.09019166
-0.015901592 0.09244316 0.10255754 0.01798761 -0.023441955 0.17944957 -0.036152676 0.07367354
-0.04643097 0.050769754 0.11345448 -0.09603612 -0.01684775 0.017942935 0.052065454 -0.097954266
-0.08481202 0.06375629 -0.16832405 -0.057718728 -0.05984241 0.04405295 0.12609714 -0.10869188
0.05495135 0.018234136 -0.06555678 0.0319777 0.119606934 -0.044894107 -0.08800841 -0.031537898
0.075209714 -0.05175438 -0.039803196 0.008692446 -0.019516349 0.078977875 -0.03118144 -0.03648293
0.042270306 0.07964114 -0.010376938 0.0570868 -0.04793178 -0.04543771 0.08155715 0.079027
-0.08155608 0.12309674 0.105160564 -0.04192674 0.10389527 -0.07741675 0.013409302 0.13898326
00000000: 4347 d73d d2d0 6bbe 352e 8e3d 30bb 773d
00000010: a8e8 393d 8420 023e 56fa a2bd 56b5 e63d
00000020: a3e0 0f3b b921 c33d 880a e0bc 8d95 793d
00000030: b9c0 b73d 8981 0abc a6ea cf3c ed1a 45bc
00000040: 152b 753d e328 843d 5e3c cabc 47e0 613c
00000050: e2d6 bebd 8595 0bbc 9e8d 8d3d 614d 46bd
00000060: 7adb 343b a54f b7bc 131f 8f3d dc30 263e
00000070: ef34 a93b e1ee 3c3e 94f3 0ebc 9d7f 2cbb
00000080: 41c9 de3d 960c 1a3d fd49 333e 6ce3 323e
00000090: 7388 fa3c 4f0b 9b3b 400f 9f3d bc88 fb3d
000000a0: bf4c 603d d37c 1f3e 25d8 573d d36b 0e3e
000000b0: 00a2 bebd 6c83 7ebc ce74 f3bd 9df8 a4bd
000000c0: 3e19 66bd 6f3c 2cba 04b1 bc3c dc9b 28bc
000000d0: 706c e8bc f92e eabd 947b 2a3d 6a67 4dbd
000000e0: 5567 4b3d 2e2b ff3d 1bbe de3a bade 10bd
000000f0: 37cb 093e db5b bc3d 8918 16bd 04a8 f63d
00000100: 8d2c 0ebe 02d3 c83c 07da 753d dfa7 0c3d
00000110: bd20 5f3c 48d2 4bbd 3717 653d d6d7 2d3d
00000120: 06ab 5e3c fa28 7fbd 2612 f5bb f7a5 853d
00000130: 6fd5 8abd 7db9 74bd 38cc 5bbb eb3c dd3d
00000140: c430 e0bb 6b6f 8d3d 133d e9bd 09c8 dc3c
00000150: e032 4f3d 0aab 803d c0e0 d13d 720c 283d
00000160: ffec 433d 8c71 cbbd 9725 863c 6784 18be
00000170: 607f e7bc 6535 b4bd c5b1 bcbc fea4 2a3e
00000180: c7ec b4bd a37d a93d 3a69 02be 8756 a83c
00000190: e65b ebbd f46c e83d b219 f9bc 79a3 dbbc
000001a0: cf63 b03d f8bb 3ebd 91df d53c 64e6 b33d
000001b0: bf03 62bd 6aa3 b6bd 6147 663d acca a1bd
000001c0: 3865 843b 3357 743d 68ff a73d 8e2e 133d
000001d0: e667 97bd eb9b eaba d681 463c f268 2c3d
000001e0: f580 303d fe01 24bd 1028 d93d 03c4 2ebc
000001f0: 9a9e df3c 87ba a03d 030b f93d 0a23 b0bd
00000200: 4b12 d23c a63b 653b d73e b03c ee5d 00bd
00000210: 50a5 bdbc acc6 893d f0cf d73d 574e c53d
00000220: 4b11 a63c 0845 013d 45fb 7bbd 139f 0f3e
00000230: 0469 ff3c 7a4b 94bd 7394 c93b dbd3 7dbd
00000240: cfb7 433d d096 9dbd 067f 243c acd1 603b
00000250: 4108 623d 1a77 cebd a97a 673d 09b6 02bd
00000260: d996 53ba b955 e8bd 7304 bd3c 2663 e9ba
00000270: 30b9 7f3d 01ad 3f3c 1b12 893d 4f7f 103d
00000280: 6c04 ac3b f0b8 2bbd ff50 14be 7ff8 783b
00000290: 998e a43d ed43 67bc 01c6 80bd 2dca 19bd
000002a0: 1dbd ef3c 5a6c bf3c 6ed8 7d3d 3e92 bd3c
000002b0: a8a3 cd3d 2f07 4dbc 7f49 643d deaf 5f3c
000002c0: beb3 883c 1d4a e53d 61f5 413e c197 193d
000002d0: 77e2 843d ba74 fb3b 97d1 2ebe 5d33 af3d
000002e0: 1bfb 5bbd feab 56bd 9d52 bdbd 415f 613d
000002f0: 318f a8bb 6a7c 853c 2a30 2abe 2b7a e6bd
00000300: e883 473c 1530 0cbd 7601 9cbd b6a2 52bd
00000310: 56f7 1ebe ae30 e33c 48b1 dd3d 68b6 b8bd
00000320: 0e44 82bc d752 bd3d b009 d23d c15a 933c
00000330: 5809 c0bc a1c1 373e d414 14bd 27e2 963d
00000340: 672e 3ebd f2f3 4f3d d35a e83d 96ae c4bd
00000350: 4b04 8abc 10fd 923c 9642 553d 3f9c c8bd
00000360: edb1 adbd a892 823d 245d 2cbe 796a 6cbd
00000370: 511d 75bd de70 343d 9c1f 013e d999 debd
00000380: ab14 613d c15f 953c a242 86bd 0cfb 023d
00000390: 7bf4 f43d e2e2 37bd c13d b4bd e22d 01bd
000003a0: 8d07 9a3d 67fc 53bd ad08 23bd c36a 0e3c
000003b0: c0e0 9fbc 27bf a13d 3870 ffbc 206f 15bd
000003c0: a123 2d3d e51a a33d 0804 2abc d9d3 693d
000003d0: 1d54 44bd e41c 3abd 6f07 a73d e8d8 a13d
000003e0: e006 a7bd 251a fc3d 6c5e d73d 60bb 2bbd
000003f0: 0bc7 d43d ac8c 9ebd b0b2 5b3c a151 0e3e

features_extractor.encoder.conv.6.bias f4 [32]
-0.002134039 -0.043615952 -0.0029721116 -0.07124403 -0.05698811 0.06774357 -0.010901906 -0.061985984
-0.10133044 -0.10665859 0.0060103084 -0.1593977 -0.03625694 -0.0771985 -0.013055167 0.03308131
-0.08981716 -0.017651828 -0.05692364 -0.058609933 0.17082384 -0.041659426 -0.10592086 -0.016051754
-0.026900185 -0.06517138 -0.023921147 -0.051236197 0.036663737 -0.13263181 -0.02744715 -0.031866793
00000000: 3cdb 0bbb a4a6 32bd c2c7 42bb 64e8 91bd
00000010: 5d6c 69bd 24bd 8a3d e89d 32bc 04e5 7dbd
00000020: 5586 cfbd d26f dabd 1ff2 c43b 2739 23be
00000030: 2882 14bd 3f1a 9ebd 57e5 55bc 4580 073d
00000040: 0ff2 b7bd 919a 90bc c328 69bd f810 70bd
00000050: 72ec 2e3e 13a3 2abd 09ed d8bd f87e 83bc
00000060: c75d dcbc 9378 85bd 48f6 c3bc 0cdd 51bd
00000070: b72c 163d a2d0 07be d8d8 e0bc c186 02bd

features_extractor.encoder.conv.8.weight f4 [64, 32, 3, 3]
-0.037167117 -0.10931521 -0.054492727 -0.038304076 -0.21594253 -0.093518205 -0.09492624 0.008559212
-0.10026872 -0.06409255 -0.052415486 0.0043210103 -0.130063 0.08678044 -0.067822635 0.008544933
-0.08706054 -0.18382095 -0.086761914 0.0069827577 0.08689168 -0.111588985 -0.12699185 0.07520482
0.012138303 0.1593894 -0.026754245 0.06725986 -0.0249966 -0.106322505 -0.03981494 0.1889237
0.059825886 -0.04190063 0.122201905 -0.02968654 0.11126556 -0.048643526 0.03101666 -0.020031307
-0.18741348 0.0010939771 -0.013257124 -0.07487599 -0.08001556 0.06390273 -0.12951808 0.0769547
-0.0035126295 -0.1377584 -0.21340396 -0.07995333 -0.07967981 -0.10311942 0.08892726 -0.029910298
0.09099233 -0.015348705 -0.13304952 0.02236049 -0.16762741 -0.20659734 -0.12941068 0.12511846
-0.06541989 0.02340707 -0.100445725 -0.13838261 -0.07666213 -0.015740996 -0.031952363 -0.061338745
0.015245018 0.09058874 -0.09449118 -0.069921166 -0.10281453 0.057200383 0.16130212 0.11135862
0.0493005 6.389363e-05 -0.043064155 0.029529594 -0.16169648 -0.14294384 0.015639164 0.07990175
0.01748168 0.015047957 0.10699753 0.06947709 0.03525855 -0.18567237 0.13915424 -0.23251112
0.0043109814 -0.07586476 -0.15393344 0.049168374 -0.08515053 0.07300621 -0.089776635 -0.063037656
-0.01892189 -0.0131444875 -0.004156816 0.042417683 -0.17528045 0.0063044876 -0.106084965 0.0053242543
0.0032531999 -0.20810652 0.08093078 -0.09970696 0.03581356 -0.05422503 -0.12300585 -0.12660341
-0.05685106 0.002920782 -0.12556994 -0.105769224 0.065652445 0.03205313 0.06893175 0.0025916938
0.023256367 -0.019956542 -0.07677918 -0.0036933864 0.08643992 -0.00028205695 -0.020484736 -0.031910587
-0.12634704 -0.018674936 0.014730206 -0.02584607 -0.0754199 -0.040331896 -0.083388284 -0.15022624
0.049906515 0.018820286 -0.065895356 -0.05870491 -0.15532649 -0.055823613 -0.07708051 0.062841475
-0.05399737 -0.03888277 -0.10362923 -0.07573186 0.051907584 -0.015319278 -0.106713295 0.03340758
-0.027144443 -0.17564477 0.0014495978 -0.00022237944 0.0759147 -0.03371114 -0.093265824 -0.025684088
0.046770588 -0.01422331 -0.13888228 0.012098474 -0.020543078 -0.03279367 -0.06074483 0.19301027
-0.047367763 -0.022933219 0.028583726 -0.10524643 -0.03400116 -0.025789421 0.007340446 -0.054368924
0.027289711 -0.030556703 -0.095214 -0.12540114 -0.037554882 0.094377555 0.08158655 0.1715169
-0.046840098 -0.07279855 -0.032179512 -0.0020803686 -0.039217833 -0.0040551843 0.0040149754 -0.06099379
0.083672136 0.06583965 -0.091400065 0.05284097 -0.00844241 -0.052539166 0.03558323 -0.027454037
-0.05919491 -0.044307917 -0.11946478 0.00390706 -0.13807303 -0.036161497 0.004949856 -0.16638209
0.064897284 0.050110772 -0.040373243 -0.09486408 -0.03246592 -0.0034567157 -0.01460953 -0.094532356
0.01281967 0.13565846 -0.063528195 0.05429652 -0.093988895 -0.074730836 -0.06311598 -0.102812335
-0.06626985 -0.11776893 -0.06652446 -0.052499894 0.057979636 -0.03923585 -0.07659676 -0.1356031
-0.10266876 -0.1303237 -0.063224345 0.13907845 0.029341774 0.124924816 -0.19870506 0.010030029
0.022125905 -0.06786082 -0.028743893 -0.10378495 0.051077258 -0.063270316 0.043145232 -0.023616543
00000000: 8c3c 18bd a7e0 dfbd c433 5fbd bce4 1cbd
00000010: 0a20 5dbe 7986 bfbd b068 c2bd f03b 0c3c
00000020: b059 cdbd f442 83bd 9fb1 56bd 4397 8d3b
00000030: 3c2f 05be f1b9 b13d 98e6 8abd 0c00 0c3c
00000040: cc4c b2bd 8f3b 3cbe 3bb0 b1bd 9ecf e43b
00000050: 44f4 b13d c488 e4bd 270a 02be fc04 9a3d
00000060: bcdf 463c fa36 233e b82b dbbc 8abf 893d
00000070: abc5 ccbc 9dbf d9bd fe14 23bd 3775 413e
00000080: fd0b 753d ff9f 2bbd fe44 fa3d 3031 f3bc
00000090: 33df e33d 6f3e 47bd a716 fe3c b218 a4bc
000000a0: 52e9 3fbe c863 8f3a 6934 59bc 9558 99bd
000000b0: 33df a3bd 6fdf 823d 63a0 04be 6d9a 9d3d
000000c0: 2534 66bb 8a10 0dbe 9186 5abe 92be a3bd
000000d0: 2b2f a3bd 4630 d3bd 7f1f b63d 7106 f5bc
000000e0: 305a ba3d 2379 7bbc 223e 08be 592d b73c
000000f0: 85a6 2bbe 418e 53be 3c84 04be 0e1f 003e
00000100: ddfa 85bd 2fc0 bf3c 7db6 cdbd 2cb4 0dbe
00000110: 0901 9dbd 43f3 80bc 7be0 02bd 563e 7bbd
00000120: 3dc6 793c 9786 b93d 9784 c1bd d432 8fbd
00000130: 6d90 d2bd f34a 6a3d 622c 253e fd0f e43d
00000140: 52ef 493d a2fe 8538 0a64 30bd 0ce8 f13c
00000150: c393 25be df5f 12be b41d 803c 87a3 a33d
00000160: bd35 8f3c b58b 763c 8521 db3d 014a 8e3d
00000170: 456b 103d e620 3ebe 737e 0e3e 6517 6ebe
00000180: 2243 8d3b fc5e 9bbd baa0 1dbe c764 493d
00000190: 6763 aebd 4884 953d d0dc b7bd e319 81bd
000001a0: 1402 9bbc fa5b 57bc e635 88bb 2abe 2d3d
000001b0: b87c 33be e095 ce3b 1343 d9bd 1577 ae3b
000001c0: a333 553b e019 55be 09bf a53d 2a33 ccbd
000001d0: 3db1 123d 111b 5ebd 7eea fbbd 53a4 01be
000001e0: a8dc 68bd 976a 3f3b 6895 00be 899d d8bd
000001f0: ca74 863d 254a 033d 172c 8d3d 68d9 293b
00000200: 2384 be3c e77b a3bc 673e 9dbd be0c 72bb
00000210: 6a07 b13d 0be1 93b9 9bcf a7bc adb4 02bd
00000220: 1e61 01be 2efc 98bc f656 713c 23bb d3bc
00000230: c075 9abd 0f33 25bd 7ac7 aabd e8d4 19be
00000240: c66a 4c3d 002d 9a3c 25f4 86bd 8f74 70bd
00000250: e80d 1fbe 4da7 64bd 63dc 9dbd 08b3 803d
00000260: 592c 5dbd 8a43 1fbd 903b d4bd 4e19 9bbd
00000270: 0c9d 543d b6fd 7abc 808c dabd 63d6 083d
00000280: 065e debc 39dc 33be 6e00 be3a 872e 69b9
00000290: 2b79 9b3d b114 0abd 2702 bfbd 7067 d2bc
000002a0: 8492 3f3d e308 69bc 2837 0ebe ae38 463c
000002b0: f549 a8bc a852 06bd 92cf 78bd 7ca4 453e
000002c0: b304 42bd 72de bbbc 6b28 ea3c 718b d7bd
000002d0: cd44 0bbd 5644 d3bc 2088 f03b f3b1 5ebd
000002e0: ac8e df3c 0d52 fabc 8fff c2bd 2869 00be
000002f0: 26d3 19bd 0549 c13d d916 a73d 20a2 2f3e
00000300: 67db 3fbd 6817 95bd aace 03bd cb56 08bb
00000310: e1a2 20bd 5ae1 84bb 0e90 833b a0d4 79bd
00000320: 4c5c ab3d f0d6 863d f52f bbbd c66f 583d
00000330: 0952 0abc 4f33 57bd b9bf 113d 4ae7 e0bc
00000340: 5d76 72bd 387c 35bd f3a9 f4bd cb06 803b
00000350: 0463 0dbe 141e 14bd 6732 a23b 1160 2abe
00000360: dee8 843d f440 4d3d 6a5e 25bd 1948 c2bd
00000370: fcfa 04bd 118a 62bb cf5c 6fbc 2e9a c1bd
00000380: 9809 523c 0dea 0a3e 121b 82bd 0766 5e3d
00000390: 407d c0bd 7b0c 99bd f342 81bd 468f d2bd
000003a0: 7db8 87bd d630 f1bd fa3d 88bd 210a 57bd
000003b0: 0e7c 6d3d c5b5 20bd c3de 9cbd 8adb 0abe
000003c0: 0044 d2bd 9373 05be c47b 81bd 956a 0e3e
000003d0: 295e f03c 95d8 ff3d 5779 4bbe fe54 243c
000003e0: 6341 b53c 9dfa 8abd 5078 ebbc 348d d4bd
000003f0: 6336 513d de93 81bd 0eb9 303d 7b77 c1bc

features_extractor.encoder.conv.8.bias f4 [64]
-0.040105112 -0.065437235 0.033454042 -0.0025658612 -0.0009179615 0.004365307 -0.084721915 0.023390006
-0.052828804 -0.008930716 -0.04642691 0.014506794 -0.0073477323 -0.0563862 -0.046085607 -0.0032774876
-0.0005791781 -0.080652416 -0.01101231 -0.0798347 -0.025711946 -0.0015325212 -0.104099356 0.0261366
0.00041135759 0.011731476 0.007953101 0.020485055 -0.016811121 0.09429161 -0.05942406 0.0414697
-0.06309141 -0.061752845 -0.051575877 0.0011740592 -0.041547544 0.07523468 -0.02678015 -0.038098734
-0.022105014 0.01281896 -0.031114487 -0.040953085 -0.0025561112 0.0039861468 0.006186462 -0.043726955
-7.920321e-05 -0.048887264 0.023448478 -0.0341327 -0.07507569 -0.057208586 -0.13778736 -0.0810802
-0.02776836 -0.0760576 -0.029528407 0.08194792 -0.038823593 -0.018953525 0.00520689 0.058477465
00000000: 4245 24bd f503 86bd 1b07 093d 0228 28bb
00000010: 5aa3 70ba d90a 8f3b af82 adbd 669c bf3c
00000020: 0463 58bd 2352 12bc 252a 3ebd e7ad 6d3c
00000030: 3fc5 f0bb 37f5 66bd 43c4 3cbd 1ecb 56bb
00000040: fcd3 17ba 182d a5bd fa6c 34bc 6080 a3bd
00000050: dca1 d2bc e1de c8ba 0b32 d5bd 6c1c d63c
00000060: 7bab d739 6035 403c b94d 023c 46d0 a73c
00000070: 7ab7 89bc f61b c13d a566 73bd 22dc 293d
00000080: 1236 81bd 8df0 7cbd 3a41 53bd e4e2 993a
00000090: c22d 2abd a414 9a3d 0c62 dbbc 6b0d 1cbd
000000a0: 9315 b5bc 9d06 523c cfe3 febc 6cbe 27bd
000000b0: 6e84 27bb 399e 823b ceb7 ca3b 091b 33bd
000000c0: e619 a6b8 033e 48bd 0617 c03c bbce 0bbd
000000d0: 49c1 99bd 8d53 6abd 2118 0dbe 600d a6bd
000000e0: 797a e3bc 16c4 9bbd 8fe5 f1bc 50d4 a73d
000000f0: 7d05 1fbd 6c44 9bbc 8f9e aa3b 1186 6f3d

features_extractor.encoder.conv.10.weight f4 [128, 64, 3, 3]
0.0013301782 -0.014929419 -0.028874885 0.007239759 0.06842326 -0.026050081 -0.011175439 -0.0011597355
-0.09743658 -0.0025961846 -0.02008532 0.023678143 0.010663811 -0.03711024 0.07751992 -0.011905244
0.026331281 0.031679083 0.027099233 0.004911881 0.03518338 0.0018823929 0.04328006 -0.0019633328
0.03279281 -0.02956522 0.121834464 0.010667641 0.01710704 -0.020593714 -0.0393863 0.021247469
0.035195697 0.013029691 -0.026454657 0.006073556 -0.0361002 -0.024653029 -0.005055595 -0.028356811
0.06192702 0.030399544 0.027988773 -0.021381523 0.049916513 -0.04051749 -0.004088562 -0.011102051
0.0043210685 0.01589385 0.08543683 -0.0017806701 0.08747552 0.010214694 -0.022770112 -0.0041893125
-0.004648011 -0.020286506 0.055332612 -0.018768141 0.03952721 0.006195285 -0.099376574 0.02592032
0.015498742 -0.03769402 0.02175415 0.03517946 0.026105948 -0.028602451 -0.008509349 0.05302595
0.013000261 0.01763871 -0.037418213 -0.017063733 -0.10759634 -0.043386843 0.02003419 0.14377724
-0.10912043 0.0012121685 -0.011970004 0.0011209808 -0.035387702 0.05074163 -0.017823683 0.03523386
0.031051628 -0.13539428 -0.035069715 0.034699608 0.010777589 0.021336082 0.013252044 0.076813176
-0.035184324 0.18281455 0.012934179 -0.013177425 0.028072458 -0.0028037839 0.0026543736 0.05296837
0.038361765 -0.00902079 0.028783403 0.029849108 -0.0075743236 -0.0032196455 -0.021860927 -0.013572887
0.049075495 -0.00693713 0.038332153 0.011761738 0.013080706 0.03988022 0.010181818 0.022443045
-0.032160252 0.03445076 0.019013051 -0.0055841208 0.028032666 -0.0031744535 -0.014367398 -0.026540434
0.02191523 0.011961892 0.025030846 0.0106482655 -0.00318845 -0.053395968 -0.07342728 0.039420303
-0.009986147 0.0049561597 0.022246394 0.05920256 0.042254683 0.03740717 -0.0035669315 0.038570322
0.028777558 0.03374772 -0.037844606 0.03002632 0.086523466 0.028561043 -0.025822025 0.0328605
0.04103894 0.016204074 -0.041424673 0.037610073 -0.033781063 0.05950564 0.037164897 0.023274977
0.02652927 -0.0051984037 -0.026420426 -0.022302678 -0.018816313 0.023876477 0.07959954 0.0059943376
0.013900932 0.019408174 0.0035546636 0.028273989 -0.029038817 0.008364562 0.009824455 -0.009782809
-0.014106789 0.026865829 0.029101895 -0.011456581 0.013458308 0.018124033 -0.01605774 -0.029623931
0.09868645 -0.023920644 0.028564762 0.017674524 0.04702134 0.017461061 0.03233744 -0.013621097
0.018846083 -0.010629982 0.0039790226 -0.038291454 0.07529077 0.1290267 0.030566517 0.033776265
-0.013218921 -0.0043139644 -0.0662749 -0.07877156 0.0012357645 0.029236807 0.05905272 0.03028329
0.027792905 -0.03638567 -0.037516754 0.047236394 0.014167583 -0.004725162 0.019925525 0.037355386
-0.0049794875 0.028872792 -0.012114158 0.030068833 0.008927609 0.015051274 0.0048096217 -0.0016077191
0.01694142 0.011427503 0.037026767 0.041360024 0.0031047575 0.012214789 0.016762054 -0.023875326
0.022761583 -0.01860328 0.034391914 0.017800525 -0.003050562 0.02488548 0.051297676 0.08673263
-0.024220463 -0.012966834 -0.007356638 0.026521701 0.024239969 -0.013281446 -0.00967304 0.09602667
-0.036188237 0.018408656 0.032544605 0.031549636 -0.040609997 0.0020770133 0.005547896 0.032192092
00000000: 6059 ae3a 869a 74bc 068b ecbc 803b ed3b
00000010: 7e21 8c3d fb66 d5bc 3019 37bc 4402 98ba
00000020: d48c c7bd c024 2abb f889 a4bc aaf8 c13c
00000030: 44b7 2e3c e800 18bd c4c2 9e3d 360e 43bc
00000040: b3b4 d73c edc1 013d 36ff dd3c d8f3 a03b
00000050: 731c 103d a0ba f63a 6f46 313d 42ab 00bb
00000060: c151 063d c332 f2bc 5984 f93d 54c7 2e3c
00000070: 1024 8c3c 26b4 a8bc 8753 21bd 2c0f ae3c
00000080: 5d29 103d 7c7a 553c 70b7 d8bc ae04 c73b
00000090: cedd 13bd 26f5 c9bc 68a9 a5bb 8b4c e8bc
000000a0: 30a7 7d3d 7708 f93c b648 e53c 4e28 afbc
000000b0: 4275 4c3d abf5 25bd 58f9 85bb 60e5 35bc
000000c0: c097 8d3b d233 823c 81f9 ae3d 6065 e9ba
000000d0: 5e26 b33d 885b 273c 6388 babc 8046 89bb
000000e0: 584e 98bb e32f a6bc 73a4 623d a5bf 99bc
000000f0: 49e7 213d d101 cb3b f285 cbbd da56 d43c
00000100: 70ee 7d3c 0b65 1abd c235 b23c 5618 103d
00000110: 24dc d53c b04f eabc cc6a 0bbc bd31 593d
00000120: 0cff 543c 0e7f 903c d743 19bd 3ec9 8bbc
00000130: 785b dcbd 67b6 31bd be1e a43c 573a 133e
00000140: 887a dfbd a0e1 9e3a d61d 44bc e0ed 923a
00000150: b2f2 10bd 75d6 4f3d f902 92bc 6151 103d
00000160: fc5f fe3c cca4 0abe 43a5 0fbd 2d21 0e3d
00000170: 7c94 303c 02c9 ae3c 1a1f 593c 3a50 9d3d
00000180: 701d 10bd bd33 3b3e e1e9 533c 20e6 57bc
00000190: 36f8 e53c b0bf 37bb 00f5 2d3b 5df5 583d
000001a0: 3a21 1d3d f0cb 13bc 2ccb eb3c 1e86 f43c
000001b0: 0832 f8bb b000 53bb b015 b3bc d060 5ebc
000001c0: 6303 493d dd50 e3bb 2d02 1d3d 4eb4 403c
000001d0: 7550 563c 7159 233d a4d1 263c 7ada b73c
000001e0: 78ba 03bd 3d1c 0d3d 42c1 9b3c 00fb b6bb
000001f0: c3a4 e53c 7e0a 50bb 3c65 6bbc 536b d9bc
00000200: 9287 b33c d0fb 433c 7d0d cd3c 1076 2e3c
00000210: 50f5 50bb bbb5 5abd 0b61 96bd 2f77 213d
00000220: f09c 23bc 4867 a23b 123e b63c 627e 723d
00000230: 3f13 2d3d 4338 193d 2ec3 69bb eafb 1d3d
00000240: eabe eb3c 0d3b 0a3d f202 1bbd c2f9 f53c
00000250: 3733 b13d d9f8 e93c b688 d3bc bb98 063d
00000260: 7318 283d 68be 843c ebac 29bd 050d 1a3d
00000270: 035e 0abd 30bc 733d 383a 183d 2aab be3c
00000280: e953 d93c 5f57 aabb a66f d8bc 1bb4 b6bc
00000290: ab24 9abc 9a98 c33c 1505 a33d 266c c43b
000002a0: bcc0 633c e4fd 9e3c 5cf5 683b da9e e73c
000002b0: d0e2 edbc 840b 093c c0f6 203c 1348 20bc
000002c0: 2920 67bc ba15 dc3c 1967 ee3c 62b4 3bbc
000002d0: 3c80 5c3c da78 943c 868b 83bc e3ad f2bc
000002e0: 1f1c ca3d 3af5 c3bc a600 ea3c 2aca 903c
000002f0: 7399 403d 800a 8f3c 4374 043d 062b 5fbc
00000300: 1a63 9a3c 6029 2ebc 7662 823b 80d7 1cbd
00000310: 0c32 9a3d 931f 043e a266 fa3c fb58 0a3d
00000320: 2c94 58bc 285c 8dbb 23bb 87bd fc52 a1bd
00000330: 60f9 a13a 0782 ef3c 44e1 713d aa14 f83c
00000340: f2ad e33c 2409 15bd 2bab 19bd f37a 413d
00000350: 261f 683c 88d5 9abb db3a a33c f601 193d
00000360: f82a a3bb a286 ec3c 767a 46bc ea52 f63c
00000370: 1b45 123c 9e99 763c 089a 9d3b 1aba d2ba
00000380: bcc8 8a3c 6c3a 3b3c 61a9 173d 2169 293d
00000390: 3079 4b3b 8a20 483c 9350 893c 3096 c3bc
000003a0: 8076 ba3c e865 98bc 89de 0c3d 68d2 913c
000003b0: f0eb 47bb a2dc cb3c 831d 523d e1a0 b13d
000003c0: fe69 c6bc d872 54bc f40f f1bb 0a44 d93c
000003d0: e692 c63c 6c9a 59bc ac7b 1ebc a1a9 c43d
000003e0: 1e3a 14bd c0cd 963c 7e4d 053d 313a 013d
000003f0: ab56 26bd 801e 083b 20cb b53b dbdb 033d

features_extractor.encoder.conv.10.bias f4 [128]
0.05303684 -0.064231604 -0.02024826 -0.05832698 -0.05521949 0.030294834 -0.0558231 0.03524931
0.034627467 0.0002618031 0.0828084 -0.03877584 0.0064764223 0.012252179 -0.019995527 0.07117506
0.036452334 -0.02814238 -0.05149168 -0.0041652033 0.00965368 0.045436133 -0.031033263 -0.053807706
-0.0027843735 -0.047453772 0.037115723 -0.044362728 0.005208952 -0.043487 0.018797968 0.039218552
0.04478798 -0.01791883 -0.04976807 -0.012037031 0.075456485 -0.029444102 -0.02700509 -0.021369342
-0.038927276 -0.10016511 -0.01637249 0.069585025 0.054111324 0.03430844 0.04359807 0.0019664955
-0.019881077 -0.046803985 -0.04902127 0.010227871 -0.048802976 -0.029606845 -0.038055435 0.039286565
0.0028123944 0.010386919 0.03704897 -0.031089736 -0.007831553 0.04194214 0.014304519 -0.008885624
0.046881918 -0.028423555 -0.05994087 -0.029358212 0.027385801 0.06009122 0.03108154 -0.030493444
-0.022510411 0.09971729 0.0042420393 -0.0032820685 0.05280019 0.014345277 -0.008482663 0.060027804
0.096888036 -0.0015211981 0.03464464 0.054619167 0.08534323 -0.059575018 -0.04272557 0.013079434
0.039916705 -0.030872105 0.061590232 -0.027004605 0.019145843 -0.02153221 -0.031162703 -0.043149333
6.3331427e-06 0.0147193475 -0.033644695 0.06688044 -0.05593153 -0.026451431 -0.052648496 0.0627171
0.017283967 0.01897676 0.0022215573 0.08677097 -0.031948075 0.010986218 0.0267581 0.008320261
0.08229595 0.060141977 0.023296934 0.05045765 0.05131856 -0.018383412 0.054963637 0.045650054
0.005926208 -0.03805167 0.010481736 0.044137552 0.061806157 -0.048335887 0.029449038 -0.020200083
00000000: 283d 593d dc8b 83bd aedf a5bc 45e8 6ebd
00000010: d52d 62bd df2c f83c c3a6 64bd 9561 103d
00000020: 88d5 0d3d 9e42 8939 7397 a93d 6ad3 1ebd
00000030: 2b38 d43b 5dbd 483c a9cd a3bc 3bc4 913d
00000040: 0b4f 153d d98a e6bc f1e8 52bd 427c 88bb
00000050: 782a 1e3c 3d1b 3a3d 7839 febc 7865 5cbd
00000060: 097a 36bb e35e 42bd a806 183d b1b5 35bd
00000070: dbaf aa3b 6d1f 32bd 32fe 993c a2a3 203d
00000080: 9a73 373d 83ca 92bc 9bd9 4bbd f836 45bc
00000090: ee88 9a3d c234 f1bc c739 ddbc c20e afbc
000000a0: 3572 1fbd 5d23 cdbd 9a1f 86bc 9882 8e3d
000000b0: d6a3 5d3d 0287 0c3d e493 323d 52e0 003b
000000c0: a4dd a2bc 89b5 3fbd 87ca 48bd cd92 273c
000000d0: a1e5 47bd 0e8a f2bc 04e0 1bbd f3ea 203d
000000e0: 2650 383b e52d 2a3c a9c0 173d e7af febc
000000f0: ea4f 00bc 85cb 2b3d 805d 6a3c 0295 11bc
00000100: 4107 403d 84d8 e8bc 8f84 75bd a280 f0bc
00000110: 3058 e03c 3622 763d b79e fe3c 63cd f9bc
00000120: c167 b8bc 9438 cc3d ce00 8b3b f917 57bb
00000130: 0345 583d 7408 6b3c defa 0abc b7df 753d
00000140: 3c6d c63d f062 c7ba 8ae7 0d3d 59b8 5f3d
00000150: 6ec8 ae3d ef04 74bd 0201 2fbd 1f4b 563c
00000160: b37f 233d 7fe7 fcbc 0a46 7c3d c338 ddbc
00000170: bed7 9c3c 5164 b0bc ed48 ffbc 5bbd 30bd
00000180: 4881 d436 6b29 713c 05cf 09bd 9df8 883d
00000190: 7618 65bd acb0 d8bc f3a5 57bd d371 803d
000001a0: 1b97 8d3c 2675 9b3c 8c97 113b fab4 b13d
000001b0: fcdb 02bd 8aff 333c ce33 db3c b451 083c
000001c0: c78a a83d 6f57 763d 36d9 be3c aeac 4e3d
000001d0: 6933 523d cf98 96bc 8d21 613d 8dfb 3a3d
000001e0: a330 c23b 11dc 1bbd 96bb 2b3c 94c9 343d
000001f0: 7428 7d3d dafb 45bd 1c3f f13c a57a a5bc

features_extractor.encoder.fc.weight f4 [64, 128]
-0.016613364 -0.054272734 -0.056369502 -0.09243308 -0.04100094 -0.010885623 0.061586022 -0.035707667
-0.07956339 0.059104867 -0.008907827 0.031446643 0.040656332 -0.061822403 0.016712142 -0.06106781
0.07915407 0.040546376 0.0026714192 0.18146326 0.09044406 0.053133853 0.020608481 -0.07461934
0.00027978385 -0.033692777 -0.061873302 -0.08572113 -0.041929916 0.10122168 0.010195906 0.0033147656
0.03440554 0.0057199313 -0.02004267 0.040045165 0.09368196 0.0071255337 -0.044261467 0.083690666
-0.028352698 0.03756598 -0.034706365 -0.10243203 0.04440778 -0.027343553 0.052211303 0.102690965
-0.112700574 0.117678344 -0.13125886 -0.017702002 0.069580495 -0.059133437 0.045885075 0.059885453
0.051667005 -0.058517575 -0.035616037 0.044906482 0.003408663 0.025140801 0.09226173 -0.09643905
-0.0377805 0.11397181 0.07783152 -0.04101255 -0.062541835 0.002444713 0.0018757455 -0.066889726
0.10667489 -0.14264451 -0.008319672 0.056579586 -0.08445929 -0.02979929 0.14493725 -0.09092925
-0.081209525 -0.062442824 -0.045363106 0.048270434 -0.07092544 0.046568904 -0.01765765 -0.036384948
-0.06265841 0.059531104 0.007390094 0.007970098 0.10625839 -0.091161035 -0.07466018 -0.0821451
-0.049884222 -0.053602144 -0.090950616 -0.05157596 -0.09329261 0.0031378805 -0.01618534 -0.079159304
0.07472866 0.04125925 -0.0998382 -0.10099826 -0.0728307 0.08467377 -0.064199425 0.078200236
-0.03789309 -0.07722583 0.0014259884 0.117319584 0.052592516 0.063495055 -0.08115985 -0.011456897
-0.07505539 0.013596325 -0.05076876 -0.08725714 0.14779459 -0.038658712 0.039200082 -0.09687136
-0.061008446 0.10290168 0.07126452 -0.12511124 0.052047774 0.06968393 0.070557654 -0.013178343
-0.06724531 0.11961759 0.045216165 0.018314788 -0.1275513 -0.051181287 -0.0005437265 -0.052383434
0.11453744 0.00039144018 -0.05491163 0.11972488 0.058081236 -0.052408952 0.05864656 0.06278477
0.08505644 0.03399795 0.090609565 -0.0014319207 -0.0964754 0.13203251 0.012050559 0.008190403
-0.014046608 0.14882538 -0.051259294 0.12180802 0.03503133 0.13995832 0.08518428 -0.04311138
-0.0872484 -0.049110178 0.039984703 0.0147407735 0.002867745 0.10350104 0.056277413 0.089129016
-0.06092291 0.09780499 -0.08034281 0.021836612 0.061800804 -0.018026222 0.04218447 0.013704878
0.01863023 0.17578268 0.107527636 0.071987964 0.08106124 0.025543047 0.0003042393 -0.012306301
-0.017003369 0.09777103 0.038949344 0.11346616 0.067956485 0.012066403 0.053084437 -0.10308683
0.07575769 0.0633926 -0.044552065 -0.018791858 -0.00035077243 0.069016 0.16443767 0.032032225
0.04627631 -0.03483708 -0.0027162284 -0.055738185 -0.046867564 0.13611016 0.08709087 -0.11503318
-0.054699767 0.049812544 -0.022545148 0.106968135 0.01859359 -0.041596167 -0.10521655 0.027852422
-0.019853951 -0.06453698 -0.081985235 -0.019338699 -0.08135516 -0.07018929 0.022453599 -0.051954817
0.0034258063 0.07044884 -0.05081085 -0.048957758 0.022635669 -0.06632522 -0.031975064 -0.022265486
-0.082717866 -0.0022751233 0.047249623 -0.031185806 -0.024072943 0.08154766 -0.005970199 -0.21671464
-0.03363406 -0.017391246 0.0042053484 -0.042813182 0.041902076 0.084521234 0.016760241 -0.06447481
00000000: c018 88bc 164d 5ebd b5e3 66bd 8e4d bdbd
00000010: 9af0 27bd 9d59 32bc a041 7c3d 3442 12bd
00000020: 21f2 a2bd f217 723d 22f2 11bc 32ce 003d
00000030: 4187 263d 7d39 7dbd e7e7 883c 3d22 7abd
00000040: 871b a23d f513 263d fa12 2f3b 81d1 393e
00000050: bc3a b93d e2a2 593d 1ed3 a83c 06d2 98bd
00000060: f4af 9239 7001 0abd dc6e 7dbd 8f8e afbd
00000070: b4be 2bbd 504d cf3d bb0c 273c 8a3c 593b
00000080: d3ec 0c3d 436e bb3b 8730 a4bc 6606 243d
00000090: 54dc bf3d 4f7d e93b 834b 35bd 0366 ab3d
000000a0: eb43 e8bc c9de 193d 4328 0ebd e2c7 d1bd
000000b0: efe4 353d 96ff dfbc 85db 553d a44f d23d
000000c0: 8fcf e6bd 5801 f13d b968 06be ca03 91bc
000000d0: 3880 8e3d e735 72bd fdf1 3b3d 734a 753d
000000e0: c8a0 533d 20b0 6fbd 1fe2 11bd dcef 373d
000000f0: e063 5f3b 15f4 cd3c b8f3 bc3d d681 c5bd
00000100: babf 1abd 0d6a e93d 2266 9f3d c7fc 27bd
00000110: ef15 80bd 7a37 203b 93db f53a 7bfd 88bd
00000120: 5d78 da3d 6711 12be 3c4f 08bc ffbf 673d
00000130: fef8 acbd a41d f4bc 6e6a 143e 1d39 babd
00000140: 2e51 a6bd 0cc4 7fbd aace 39bd 38b7 453d
00000150: 5b41 91bd 09bf 3e3d c7a6 90bc 6208 15bd
00000160: 0d53 80bd e3d6 733d 9a28 f23b 0495 023c
00000170: 009e d93d a3b2 babd 70e7 98bd b13b a8bd
00000180: 6653 4cbd ec8d 5bbd 5144 babd 5041 53bd
00000190: 3210 bfbd e6a4 4d3b 1e97 84bc 461e a2bd
000001a0: 570b 993d 76ff 283d f877 ccbd 2dd8 cebd
000001b0: 4328 95bd 7169 ad3d fd7a 83bd 7227 a03d
000001c0: c935 1bbd 9328 9ebd 3be8 ba3a 4045 f03d
000001d0: 406b 573d b209 823d 2337 a6bd b5b5 3bbc
000001e0: a4b6 99bd 1fc3 5e3c e7f2 4fbd dfb3 b2bd
000001f0: 7757 173e 9958 1ebd 4490 203d 7e64 c6bd
00000200: fee3 79bd 1ebe d23d 22f3 913d 291d 00be
00000210: 0c30 553d 73b6 8e3d 8880 903d fae9 57bc
00000220: e9b7 89bd 11fa f43d 9634 393d e508 963c
00000230: cf9c 02be 78a3 51bd de88 0eba 0390 56bd
00000240: 9b92 ea3d 363a cd39 04eb 60bd 5132 f53d
00000250: 97e6 6d3d c5aa 56bd 6037 703d 4d95 803d
00000260: 1232 ae3d 6f41 0b3d 8291 b93d 49af bbba
00000270: e594 c5bd 8833 073e b56f 453c 0a31 063c
00000280: be23 66bc ae65 183e 44f5 51bd 7c76 f93d
00000290: 037d 0f3d 3c51 0f3e 1975 ae3d 8f95 30bd
000002a0: 4aaf b2bd c127 49bd 00c7 233d 4983 713c
000002b0: c7f0 3b3b 5af8 d33d 2583 663d 4689 b63d
000002c0: 4d8a 79bd fc4d c83d c58a a4bd b2e2 b23c
000002d0: d722 7d3d baab 93bc 9fc9 2c3d 6d8a 603c
000002e0: 6d9e 983c 6000 343e 7337 dc3d 6d6e 933d
000002f0: 6f03 a63d a73f d13c 4f82 9f39 5ea0 49bc
00000300: a64a 8bbc 2e3c c83d 5989 1f3d f260 e83d
00000310: c52c 8b3d 2ab2 453c 116f 593d 301f d3bd
00000320: d926 9b3d fbd3 813d 3a7c 36bd 62f1 99bc
00000330: e1e7 b7b9 4358 8d3d 5962 283e 3934 033d
00000340: 3a8c 3d3d 53b1 0ebd c002 32bb b94d 64bd
00000350: 34f8 3fbd 7660 0b3e b35c b23d 8496 ebbd
00000360: dd0c 60bd 3d08 4c3d 9ab0 b8bc 1c12 db3d
00000370: 9651 983c be60 2abd c67b d7bd c32a e43c
00000380: c1a4 a2bc f72b 84bd e0e7 a7bd 316c 9ebc
00000390: 899d a6bd 67bf 8fbd 9cf0 b73c 93ce 54bd
000003a0: 7e83 603b 7b47 903d 0a1f 50bd ee87 48bd
000003b0: 706e b93c 84d5 87bd 49f8 02bd 1c66 b6bc
000003c0: fc67 a9bd 3c1a 15bb d288 413d 6079 ffbc
000003d0: 9f34 c5bc 7602 a73d a9a1 c3bb 71ea 5dbe
000003e0: dec3 09bd 1678 8ebc 05cd 893b e05c 2fbd
000003f0: 83a1 2b3d 7819 ad3d c64c 893c 5f0b 84bd

features_extractor.encoder.fc.bias f4 [64]
-0.08779258 -0.10994005 0.013887568 -0.055412456 0.04939968 -0.09346214 -0.05311846 0.06329099
0.03372429 0.09342088 -0.015792001 0.018141888 0.026422491 0.09766636 0.14551885 -0.014202267
0.076062515 -0.07174856 0.026633624 0.06998864 0.029996796 -0.0066791414 0.07194704 0.009895879
0.04167818 -0.022888107 0.05697084 0.0028915568 -0.033039995 0.03430148 0.0013834533 -0.011327647
-0.04334802 -0.00903561 0.07641494 -0.060353417 -0.012025537 -0.057313558 -0.07129195 -0.05359757
0.11060264 0.008294239 0.09131837 0.019472927 0.048844654 0.12730266 0.027421774 0.11059463
-0.014259261 0.015875611 -0.06428582 -0.0123404 0.094871715 0.010844968 -0.049046207 0.010141168
0.056150973 -0.007561662 0.09730991 -0.024540503 -0.043411672 0.04076908 0.04155431 0.01385759
00000000: 99cc b3bd 4028 e1bd af88 633c 2cf8 62bd
00000010: 5257 4a3d 1469 bfbd be92 59bd b59e 813d
00000020: 7b22 0a3d 7253 bf3d 3a5e 81bc 4c9e 943c
00000030: fb73 d83c 4d05 c83d e502 153e a0b0 68bc
00000040: aac6 9b3d e9f0 92bd c22e da3c 3456 8f3d
00000050: d7bb f53c b3dc dabb f858 933d 5322 223c
00000060: bdb6 2a3d d77f bbbc 415a 693d 4680 3d3b
00000070: f254 07bd b57f 0c3d fd54 b53a 9897 39bc
00000080: b28d 31bd 180a 14bc 707f 9c3d 2535 77bd
00000090: c206 45bc 9fc1 6abd 8401 92bd 2089 5bbd
000000a0: a383 e23d 8fe4 073c 2005 bb3d b085 9f3c
000000b0: 5511 483d a15b 023e a1a3 e03c 707f e23d
000000c0: ad9f 69bc 920d 823c 49a8 83bd 642f 4abc
000000d0: 1a4c c23d 18af 313c ade4 48bd 2427 263c
000000e0: 90fe 653d d1c7 f7bb 6b4a c73d 2a09 c9bc
000000f0: 70d0 31bd 7bfd 263d da34 2a3d f20a 633c
