weights/image_scratch-nd-2-eps-1700.pth (torch, 462927 bytes, 24 tensors)

log_std f4 [2]
000000 6a 38 7a 3f 65 cd 6c be
       0.9774233 -0.23125227

features_extractor.encoder.conv.0.weight f4 [4, 1, 3, 3]
000000 7a 32 9a 3e d7 f3 ae 3e dc 68 77 3b 70 92 92 3e
       0.30116636 0.3417041 0.003775171 0.28627348
000010 05 b0 6e bc a4 e5 f4 3d 9b fa 40 be 7a c6 79 3e
       -0.0145683335 0.11957863 -0.18845598 0.24392119
000020 fe 0e ab 3e 97 ca 5e be cb 5f c4 3e 91 68 db 3d
       0.33409876 -0.2175697 0.38354334 0.10713304
000030 22 69 92 3e 3f 0b 25 3e f9 81 77 3e 34 18 3f 3d
       0.28595835 0.16117571 0.24170674 0.04665394
000040 18 04 c5 3e 61 cc 13 3e 0a 85 66 be e6 ad f8 bd
       0.38479686 0.14433433 -0.22511688 -0.121425435
000050 84 64 65 be 73 9f cc 3d 1d d4 31 be b2 44 b2 3d
       -0.22401625 0.0999135 -0.17366071 0.08704509
000060 13 a0 8f be 25 2d be bd c9 f8 69 be 68 8f 6f be
       -0.28051814 -0.092859544 -0.2284881 -0.23394549
000070 44 c1 33 3e 9d c3 10 bf 75 52 91 3e 94 84 f7 be
       0.17554194 -0.5654848 0.28383222 -0.48343337
000080 6e a7 9f 3e b9 2a 80 bd 98 f6 a3 be b5 37 43 3d
       0.31182426 -0.06258149 -0.32024074 0.04766055

features_extractor.encoder.conv.0.bias f4 [4]
000000 bc d5 b0 bb c7 19 44 3e 7c 2b ec 3d 8f 51 80 bd
       -0.005396573 0.19150458 0.115317315 -0.06265556

features_extractor.encoder.conv.2.weight f4 [8, 4, 3, 3]
000000 b5 d1 13 3d dc 70 8b bd 97 e8 46 3d dd 5d ed 3d
       0.036088664 -0.068086356 0.04856166 0.115901686
000010 86 a4 82 3d 10 9f e0 bd 7a 00 5d 3d 42 84 79 bc
       0.063790366 -0.10967839 0.053955533 -0.015229287
000020 87 39 1e 3d 27 1e fc bd 77 aa 45 be 3f 88 d2 bd
       0.03862908 -0.123104386 -0.19303308 -0.10279893
000030 11 dc 26 be ab 2a bf 3d 74 99 35 3b 48 4c b9 3c
       -0.16294886 0.0933431 0.0027709873 0.022619382
000040 b3 6b b3 3b fa e0 42 bd e0 a4 b6 3d 84 5f 31 be
       0.005475485 -0.047577836 0.08918166 -0.17321593
000050 2f af 0a bd ce a0 cc bd 83 13 4c 3d ef 74 b6 bd
       -0.033858474 -0.099916086 0.049823295 -0.08909022
000060 e2 ad 4e 3d bd a6 21 bd e2 09 f5 3d ba 96 cf bd
       0.050458796 -0.039465655 0.119647756 -0.10136171
000070 91 2b dd bd 0d a9 e1 bd 54 82 07 3e 00 d4 a2 3c
       -0.10799325 -0.11018572 0.1323331 0.01987648
000080 7a e4 04 3e 79 39 2f be c8 47 37 be 1f 18 16 be
       0.12977782 -0.17111768 -0.17898476 -0.14657639
000090 2d 89 ad bd bb 9a a8 3d 5c c1 48 3d d3 c5 36 3e
       -0.0847343 0.082326375 0.049012527 0.17848901
0000a0 a5 5d 81 b9 bd cb 98 bd bc 73 0f 3e 7d b7 59 3c
       -0.00024674568 -0.07460735 0.14008993 0.013288376
0000b0 c5 20 31 3e 1f 35 12 bd de 21 a0 3d 03 29 2d be
       0.17297657 -0.03569519 0.0781896 -0.16910176
0000c0 59 8a 2d bd b0 61 b9 3d 57 75 86 3d 38 98 ba bc
       -0.042368267 0.090518355 0.065653495 -0.022777662
0000d0 4c ed 0a 3e 71 18 19 3e ba 68 1a be a6 df 26 be
       0.13567084 0.1495073 -0.15079013 -0.16296253
0000e0 fb 11 0b 3e d4 44 b9 bd 8e 34 20 be 89 0d 5f be
       0.13581078 -0.09046331 -0.15645048 -0.21782507
0000f0 63 ce 2f be 8d aa cf bd be dc ba bd 28 44 f9 bd
       -0.17168574 -0.10139952 -0.091241345 -0.12171203
000100 f1 2f 06 be 4e f5 7b be b3 0a 92 3d 2c b7 1d 3e
       -0.13104226 -0.24605295 0.07130947 0.15401906
000110 41 15 8a bc 69 9d f7 bd ce 9f 95 3e 96 ab 17 3e
       -0.016855838 -0.120905705 0.29223484 0.14811549
000120 92 e3 12 3e 41 6a b0 bd e2 c9 96 bd 37 af 24 3d
       0.14344624 -0.08614016 -0.07362725 0.04020616
000130 0c c8 f3 3d bf e6 da 3c 69 6f 28 be c7 c0 32 bd
       0.1190339 0.026721356 -0.1644875 -0.043640878
000140 72 29 10 3d 47 3b d1 bb 7c 92 0a 3d 79 92 53 bd
       0.035195775 -0.0063852402 0.033831105 -0.05165336
000150 7c e8 97 bd 2b 53 6b bc 88 df c2 3c d3 31 fa bd
       -0.0741739 -0.0143630905 0.023788229 -0.122165345
000160 d0 ad 58 3e 88 fa 24 3d 3b ee 0f 3e bd cd 67 3d
       0.21160054 0.040277988 0.14055721 0.05659269
000170 e7 45 30 be 97 71 f4 3d 31 90 3d bc ea 15 c2 bc
       -0.17214166 0.11935728 -0.011570022 -0.02369209
000180 a4 50 d8 bd c8 be 06 be 25 81 a0 3d 01 dd 84 bb
       -0.10562256 -0.13158715 0.07837132 -0.004054666
000190 6e 27 86 3e 10 4b c2 bd 49 b1 d3 bc 20 61 00 be
       0.26201957 -0.09486973 -0.025841372 -0.1253705
0001a0 d0 12 fb 3d 47 f2 48 3e f5 af 4a 3e 26 1d 5b 3e
       0.122594476 0.19623671 0.19793685 0.21397838
0001b0 a6 f2 7d 3e f8 12 29 bc 8f 7e c5 3d 51 20 66 3c
       0.24799594 -0.010319464 0.0964328 0.014045791
0001c0 53 e5 fb 3d a0 07 01 be e8 73 43 3e 85 df 95 bd
       0.122995995 -0.12600565 0.19087183 -0.073180236
0001d0 17 8c c3 3d 9d ba 0e 3e 94 05 0f 3e 65 c1 b9 bd
       0.095482044 0.13938375 0.13966972 -0.0907009
0001e0 a1 cd 56 3e fa 86 e0 3d ea d1 fe 3b 27 fc 0c be
       0.20976879 0.10963245 0.0077764886 -0.13768063
0001f0 e1 c2 b2 3d 18 a0 d2 bd 70 0e 06 be 71 d0 91 3d
       0.087285765 -0.10284442 -0.13091445 0.07119835
000200 cf ee 48 3d ab d0 3f be 9a dc 1c be 22 6f de bd
       0.04905587 -0.18731944 -0.15318528 -0.10861041
000210 32 bb f1 bc e6 6f ea bd ef 61 1f be 3d 6a 30 3e
       -0.029508207 -0.11447124 -0.15564702 0.17228027
000220 3f e3 f7 bc 83 78 24 3e 56 0a a3 3e b7 46 90 bd
       -0.030259727 0.16061597 0.31843823 -0.07044738
000230 a4 9f 8a 3e 4c c4 67 3e 35 cf 16 bd b3 67 70 3e
       0.2707492 0.22633475 -0.0368187 0.23477058
000240 8a 4b 12 3e 85 28 f0 3d ef 44 a8 3d 85 d7 0a 3d
       0.14286628 0.117264785 0.08216273 0.03389694
000250 d0 37 f8 3c 61 af 37 3d fb 3a 28 3d 69 79 9d 3c
       0.030300051 0.04484499 0.041071873 0.019222932
000260 6e 26 23 3e 19 52 38 3e 3e 79 9b ba 5f 8b c1 bc
       0.15932629 0.18000068 -0.0011861695 -0.023626028
000270 96 16 ae 3d e2 29 82 3d a0 6b ba 3d 01 18 c3 3d
       0.08500402 0.06355645 0.09102559 0.09526063
000280 d1 02 02 be 44 fc 4d bd 4a d5 5a 3e 7e 69 b9 3d
       -0.12696387 -0.050289407 0.21370426 0.09053324
000290 6b f1 f4 3d 21 4a c3 bd c6 61 e1 bd 0e d9 2d be
       0.11960109 -0.09535623 -0.11004977 -0.16977331
0002a0 bc 0b 1e be 7f b6 b3 bb 55 1f 8e 3d 24 f7 1e 3e
       -0.15434164 -0.0054844017 0.0693957 0.15523964
0002b0 db 83 90 be 33 9a 33 3b e3 49 63 3e 69 05 2e 3e
       -0.28225598 0.0027405142 0.22196154 0.16994251
0002c0 ff 45 ed 3d d1 24 2b be 2e 19 f1 ba a1 3f e1 bd
       0.11585616 -0.16713263 -0.0018394345 -0.109984644
0002d0 50 04 91 bd d3 0d 47 3e 06 ce 39 bd 57 a3 33 3d
       -0.07080901 0.19438867 -0.045362495 0.043856945
0002e0 76 79 80 bd 65 52 2b 3e 8b f6 3b 3e 56 0f 2b 3e
       -0.06273167 0.1673065 0.18355767 0.16705069
0002f0 65 71 1a bd be c9 fe bd 7d 77 9b bd e0 bc 1c 3e
       -0.037705798 -0.12440823 -0.0759115 0.15306425
000300 1a ea 13 3e e1 1f 76 3e 7b 79 0f 3e 8a 0c cc 3d
       0.14444771 0.24035598 0.14011185 0.09963329
000310 fd f0 a4 3d 68 eb a1 bd 59 d0 72 bd ac d4 61 be
       0.08053777 -0.07906228 -0.059280727 -0.22053784
000320 15 72 36 3e cf 7e f9 bc cd 9c b9 bd d9 dc 86 bd
       0.17816956 -0.030455975 -0.090631105 -0.06585092
000330 bc ab 38 bd 0d f3 92 be 5c df 4d be 99 ce 85 3e
       -0.045085654 -0.28701058 -0.20104736 0.26134184
000340 1c 6b 63 be e2 fb a2 3d 5a 59 31 3e b0 2f 8b bd
       -0.22208828 0.07958199 0.17319241 -0.06796205
000350 ab be 03 3e 90 18 15 be 88 d3 e3 bd 0f ff 00 bc
       0.12865703 -0.14560151 -0.11124331 -0.007873311
000360 27 62 55 3e 0c 82 df bc 81 6d 00 3e 9a a1 b8 3d
       0.20838223 -0.02728369 0.12541772 0.09015198
000370 16 94 1f 3e f6 46 10 be f5 b7 d4 3d a9 94 bd bd
       0.15583834 -0.1408957 0.103866495 -0.0925687
000380 7e 2c 9b 3c d7 77 4a 3e 62 90 3a 3c fd d6 e9 3a
       0.018942114 0.19772278 0.011386963 0.0017840561
000390 47 8a 41 bd 0a a6 15 be 6f 32 28 3d 85 8c 5a be
       -0.047251012 -0.1461412 0.041063722 -0.21342666
0003a0 eb 4a 58 3d c2 c5 54 3d 5c c1 85 3d 15 a8 01 be
       0.052805822 0.05194641 0.06531021 -0.12661774
0003b0 2f db ee bd a9 26 ef bb af 9a b8 3c 89 90 24 be
       -0.116629 -0.00729831 0.022534696 -0.16070761
0003c0 f6 9d ea bd c9 17 10 be 8c e6 b5 bd 18 68 1b 3d
       -0.1145591 -0.14071573 -0.08881864 0.03794107
0003d0 68 8a ea bd 51 cf 80 be 7e 3e 47 be ad 44 63 be
       -0.1145218 -0.2515817 -0.19457433 -0.22194166
0003e0 83 d8 7b 3d 38 22 dc bc 19 d5 3f be ed d0 23 bd
       0.06148578 -0.026871786 -0.18733634 -0.03999417
0003f0 6b 1f 1a be 54 15 26 be 04 b8 7d 3d 63 68 bb bd
       -0.15051048 -0.16219074 0.06194307 -0.091507696

features_extractor.encoder.conv.2.bias f4 [8]
000000 3d 4e 32 be 0c 28 9a bd 38 dc 36 3e ec 62 17 39
       -0.17412658 -0.075271696 0.17857444 0.00014437333
000010 37 eb 02 be e2 06 fb bd ba 55 0a 3d d8 e5 fd bd
       -0.1278504 -0.12257172 0.03377316 -0.12397355

features_extractor.encoder.conv.4.weight f4 [16, 8, 3, 3]
000000 cf b8 95 bc 5e 86 ac 3d ba a4 ec bc 32 93 46 bc
       -0.0182766 0.08424066 -0.028887141 -0.012120055
000010 59 29 6b 3c a7 36 53 bc 12 10 91 bd 09 f5 b9 bd
       0.01435312 -0.012891448 -0.07083143 -0.0907994
000020 58 61 87 bd 1d 8f ce bd fc 48 1b 3e a8 14 92 bd
       -0.06610364 -0.100858904 0.1516456 -0.07132846
000030 51 4b 94 bd 13 78 bc 3d 27 4b 86 3b 48 b2 23 3d
       -0.07240928 0.0920259 0.0040983143 0.039964944
000040 30 93 f3 3d f5 1e c3 bc 16 84 d0 bd b4 b9 2e 37
       0.11893308 -0.023818472 -0.101814434 1.0414446e-05
000050 05 e5 d0 3d 07 ef 7b 3d 9e 2f e7 bd 3f b4 39 3c
       0.10199932 0.06150725 -0.11288379 0.011334478
000060 b5 da 98 bd a3 99 11 be 5e f9 00 be a7 a4 d5 bd
       -0.0746359 -0.14218764 -0.12595126 -0.104317956
000070 0d b4 74 3d 73 62 86 3c db 8e a0 bd 25 64 b4 bd
       0.059742022 0.016404366 -0.078397475 -0.088081636
000080 d5 78 a9 bd d2 13 c1 bd ff de 25 3e 0a 5e 94 3d
       -0.08275 -0.094276085 0.16198348 0.07244499
000090 85 fd 08 be e2 e2 b3 3c 3d b7 fa bd 95 f8 af bd
       -0.1337796 0.021958772 -0.12241981 -0.08592335
0000a0 b4 94 6f 3d 63 c1 94 3d f0 42 85 3d 93 c7 21 bd
       0.058491424 0.07263448 0.06506908 -0.03949697
0000b0 86 b3 8a 3d 07 4d f1 bd f4 d7 c2 3d 12 1d a5 3d
       0.06772523 -0.1178227 0.09513846 0.08062185
0000c0 70 cc 13 bc 8f 9a 4d 3e 4f e7 ac bd 53 a6 df bb
       -0.00902091 0.2007849 -0.08442556 -0.0068252473
0000d0 cb 88 dc 3d 0b d0 09 be f1 3c e9 bd 47 7a d7 bc
       0.10768279 -0.13458268 -0.11388577 -0.026303424
0000e0 4b 9c c0 3d 7f ba bd 3d 3e af 97 3c 84 de b8 bd
       0.094048105 0.09264087 0.01851618 -0.090268165
0000f0 8a db 0f be 11 9c 0c 3d 69 06 66 3c 72 e0 5e bd
       -0.14048591 0.034328524 0.014039614 -0.054413266
000100 3e 10 07 bd 93 01 a3 3d 18 d0 19 3c 50 3c ae 3b
       -0.032974474 0.07959285 0.009387992 0.0053172484
000110 2c 98 ed bc 84 92 da bd 90 f0 e2 bd 20 bf 66 bd
       -0.029003225 -0.10672477 -0.1108104 -0.056334615
000120 92 a8 36 bd 3f 9d 83 3d 5d b0 78 bc 2e 86 24 bd
       -0.044594355 0.06426477 -0.015178767 -0.040167026
000130 d7 6d 00 3e 57 18 67 3d cf 2a a7 3d 6b 0e 45 bd
       0.125419 0.056419697 0.08162462 -0.048109453
000140 a7 6c 34 bd 97 43 c1 3d 35 27 9d bc 2b ed 9d bd
       -0.04404893 0.0943672 -0.019183734 -0.07711252
000150 f2 65 8f bd 2b be c0 3c 41 4f 0c 3c af aa 3a be
       -0.070018664 0.02352818 0.0085638175 -0.18229173
000160 02 4c 5e 3d 60 26 90 3a 84 a2 81 3c 48 b3 1c be
       0.054271705 0.0010997765 0.015824564 -0.15302765
000170 84 54 ae bd ae c7 bd bc 24 3e 90 3d dd 0d 62 bc
       -0.08512214 -0.023166504 0.070431024 -0.013797251
000180 ad 02 52 bd 81 78 83 3d cf b2 a7 bd b3 ed 97 bc
       -0.051272083 0.06419469 -0.08188402 -0.018545961
000190 b9 80 1c 3b 90 6e a7 3d ef 72 ad bd 11 76 c4 3d
       0.0023880436 0.08175385 -0.084691875 0.09592832
0001a0 ca 31 17 bd 10 d9 1e bd a6 79 da bc 5e ab 9d 3d
       -0.036912717 -0.038781226 -0.026669335 0.07698701
0001b0 1b 68 02 3e 2a 8f f3 3c 4e e6 e1 bc 07 a3 0b 3e
       0.12735026 0.029731352 -0.027575638 0.13636409
0001c0 36 a9 41 3e 58 08 be bd 1c 62 a9 bd 4d 0a c1 bd
       0.18912205 -0.09278935 -0.08270666 -0.09425793
0001d0 ec 49 95 bd 6c d3 81 3d 1f 49 15 3e 78 d3 6a bd
       -0.0728949 0.06339154 0.14578675 -0.05733058
0001e0 23 a3 4d bc 2e 3f 33 3e d3 d1 29 3d 9b 5b 3f be
       -0.012551102 0.1750457 0.04145987 -0.18687288
0001f0 99 ec 6c bd 12 74 23 3d e3 71 66 3c 77 e0 75 bd
       -0.057842825 0.039905615 0.014065239 -0.06002852
000200 8d 63 ec 3d 59 c8 01 be 35 e5 5d bd 31 62 cd bd
       0.11542425 -0.12674083 -0.054173667 -0.10028494
000210 7a 04 0d 3d e5 bc 5d 3d 73 3a ac 3d 35 ae 8d 3d
       0.034428097 0.054135222 0.08409586 0.06917993
000220 ab 55 b6 3d 34 39 81 bc 72 cd 84 bd 7e 31 71 3d
       0.089030586 -0.015774347 -0.06484498 0.05888509
000230 e2 22 7a bd 91 e2 a2 bd fa 25 1a bd 14 9b ca 3c
       -0.061068423 -0.0795337 -0.037633874 0.02473215
000240 90 e3 25 3d 85 5b 58 bd 6f 58 52 bd 78 e4 19 3d
       0.040500224 -0.052821655 -0.051353868 0.0375714
000250 90 b0 90 bd 51 ac a0 bd 06 58 81 3d c7 51 9f bc
       -0.070649266 -0.07845367 0.06315617 -0.019448174
000260 27 d9 ed 3d 3b 49 f3 3b 35 d6 81 3d 58 50 17 3d
       0.11613684 0.0074245012 0.06339685 0.036941856
000270 ce ba 1f bc c4 ea 7b 3d ff 08 46 3d 70 ba 7b 3c
       -0.009749128 0.061503187 0.048348423 0.015364274
000280 0b ca 7e bc 8e 0f e7 3d fd 6d 56 bd 29 61 e2 bd
       -0.0155511005 0.11282264 -0.052350987 -0.11053688
000290 de c5 a2 3c e4 eb 99 bd eb 51 70 bc 16 0c 0e 3c
       0.019869741 -0.07515696 -0.014667968 0.008669874
0002a0 83 11 d7 3d 1b 2b 54 3c f1 87 c0 bd bb 2d 25 3c
       0.10501387 0.01294973 -0.09400929 0.010081704
0002b0 99 35 3f bc 91 56 35 3d 63 78 9f bd 10 07 26 be
       -0.0116704935 0.04427201 -0.07786634 -0.16213632
0002c0 b5 e1 0a 3e 93 46 46 be 79 04 c4 bd 5b f8 0d bd
       0.13562663 -0.1936286 -0.095711656 -0.03466068
0002d0 13 d0 e9 3d ca 87 63 bd f6 3c cf 3d 45 62 f4 bd
       0.1141664 -0.05554942 0.10119049 -0.11932806
0002e0 39 43 55 3b 16 dd e7 3d 90 50 64 bd 24 36 bd 3d
       0.0032541289 0.11321466 -0.055740893 0.09238842
0002f0 e0 b5 2e 3e 42 6d 5b be 85 0e 30 3d eb 06 65 3d
       0.17061567 -0.21428397 0.042982597 0.0559148
000300 ef 49 be bd b0 f0 4d 3d 0e 2a ac 3d e9 47 22 bd
       -0.092914455 0.050278366 0.08406459 -0.03961936
000310 a9 25 34 bc 0c 0f 04 3e 89 0f 1c 3e 4f 4a 79 3c
       -0.010995307 0.12896365 0.15240301 0.01521547
000320 63 9d af bd bc f3 f5 ba b2 df a7 bd a0 00 2a 3e
       -0.08574941 -0.0018764655 -0.08196963 0.16601801
000330 ba 4b 13 be 67 d3 b7 3b b7 d0 12 3d 9c cd ab 3c
       -0.14384356 0.005609918 0.035843577 0.020972066
000340 27 20 e3 3d 58 78 37 3c 59 c9 8b 3d 21 59 bb 3d
       0.11090117 0.011198126 0.068255134 0.09147859
000350 17 da c2 3d 1c b5 26 bd 20 ed d7 bc e2 a3 68 3d
       0.095142536 -0.040700063 -0.026358187 0.056796916
000360 97 09 9a bc 3f 29 b5 3d b1 bb 72 bc 83 09 ae bd
       -0.0188034 0.08845758 -0.014815257 -0.08497908
000370 51 d7 2c 3d 47 3d 70 3c de 72 2a 3d 22 a0 e7 3d
       0.04219753 0.014663047 0.041613452 0.1130984
000380 ba a1 8f 3d e1 a3 58 3e f1 ae cb 3d 67 f6 ab bd
       0.07013269 0.21156265 0.09945477 -0.08396607
000390 00 d8 dd bd b2 75 04 3c 1a af 05 be 50 e8 bb be
       -0.10832214 0.008084701 -0.13055077 -0.36700678
0003a0 58 e9 54 be 23 fe 19 be 80 95 8d 3d 1f db d4 bc
       -0.20792139 -0.15038352 0.069132805 -0.025983391
0003b0 f2 bd a2 bd ae af f6 3c f9 78 3d 3e b3 5c df bd
       -0.079463854 0.030113067 0.18503179 -0.10906353
0003c0 28 0b 4e bd b0 0c 27 3e 75 4f 9b bc 7b 38 ab bd
       -0.05030361 0.16313434 -0.018958787 -0.08360382
0003d0 dc 2d b5 3d ff 62 28 be c1 9c c0 3d 1d 6d 5c 3e
       0.088466376 -0.16444014 0.094048984 0.21525998
0003e0 97 7c f4 3d 25 79 3a bd 00 00 e6 bd ae 12 2a 3d
       0.11937826 -0.04552569 -0.11230469 0.04152172
0003f0 c0 1a 87 bd a9 e5 e0 bb 2d 14 e9 bd c1 3a 50 3e
       -0.06596899 -0.006863315 -0.11380801 0.20334913

features_extractor.encoder.conv.4.bias f4 [16]
000000 cc 35 17 bd cb 87 aa 3d 0e 8e 4c bd 8c 3c 2e bd
       -0.03691654 0.08326682 -0.04994016 -0.04253821
000010 6e 7a a0 bd fa 86 25 be 41 18 eb bd 39 57 16 be
       -0.078358516 -0.1616477 -0.114792354 -0.1468171
000020 22 11 b9 bd 42 6d 10 bc c7 41 97 3b 3c 8b fd 3d
       -0.09036471 -0.008815112 0.0046159956 0.123800725
000030 ce ae ae 3d c7 5a a4 bc 83 f1 5c 3c a1 51 3c bd
       0.08529435 -0.020062817 0.013485315 -0.045976285

features_extractor.encoder.conv.6.weight f4 [32, 16, 3, 3]
000000 61 6a d4 3d e1 4c 64 be 4d 01 b6 3d f1 e4 65 3d
       0.10371853 -0.22294952 0.08886967 0.05612654
000010 ec f7 8b bc ee ac 0b 3e b9 6d cc bd 28 12 51 3d
       -0.017085992 0.13640186 -0.099818654 0.051042706
000020 6e 6e d3 bd f7 d0 b9 3d 77 db f6 bc 1c e3 75 3c
       -0.10323797 0.0907306 -0.030133946 0.01500776
000030 2f cd c2 3d e2 af cf bb 27 c3 76 3d f9 14 00 bc
       0.09511792 -0.0063381055 0.060244706 -0.0078175
000040 06 53 90 ba a7 0e 6a 3d fb 16 3a 3d 6f 98 05 bd
       -0.0011011071 0.05714288 0.045432072 -0.032616075
000050 5f 6d e2 bd c7 bb 44 3d fa c8 a5 3c 69 56 7a bd
       -0.11056017 0.04803064 0.020237435 -0.061117563
000060 7b 4a 6a bc ae 52 86 bd 01 86 c6 3c 8c 2a 3a 3e
       -0.014299984 -0.06558739 0.02423382 0.18180293
000070 d1 df 10 3d f3 f4 15 3e bc f5 f3 bc 67 78 e4 3c
       0.035369698 0.14644222 -0.029780261 0.027889444
000080 fd 77 22 3e 26 53 ac 3c 3f 1e fd 3d 81 96 3f 3e
       0.15866084 0.021035742 0.123592846 0.18709756
000090 d1 00 47 3d dd b3 71 bd 32 a6 cb 3d 9d ae a4 3d
       0.048584763 -0.05900942 0.099438086 0.08041117
0000a0 11 90 07 3d 0c 69 06 3e de 53 93 3c c0 41 81 3d
       0.033096377 0.1312601 0.017984327 0.06311369
0000b0 63 99 f1 bd cf 56 25 bd da 7b 13 be c6 28 de bd
       -0.11796834 -0.04036599 -0.14402714 -0.10847621
0000c0 df 33 e6 bc 3b 34 32 bc a4 41 66 bc d3 dd 60 3d
       -0.028100906 -0.0108767105 -0.014053736 0.054899048
0000d0 0e 7f 13 bd 49 b2 20 be 49 ae 2b 3d 32 c1 8c bd
       -0.03600984 -0.1569301 0.04191426 -0.068727866
0000e0 93 ea 2c 3b 4c 00 de 3d 76 a3 c5 bb e8 33 49 bd
       0.0026384934 0.108399004 -0.006031449 -0.049121767
0000f0 4b 69 03 3e 1e e0 86 3d 62 63 5e bd a8 1c cc 3d
       0.12833135 0.06585716 -0.054293998 0.09966403
000100 1b 63 7e be 57 d2 72 bc 52 16 94 3d 12 e4 9b bb
       -0.24842493 -0.014820657 0.0723082 -0.0047574127
000110 c6 e9 05 3d b0 de 98 bd 39 44 68 3c b6 dd 65 3c
       0.032693647 -0.07464349 0.014176422 0.014029911
000120 72 76 8a bd a4 61 b3 bd 7c 04 4e bd 9a f5 66 3d
       -0.06760873 -0.08758858 -0.050297245 0.056386568
000130 9a d0 19 be 46 69 1d be 7a fc 4f 3c d9 98 aa 3b
       -0.15020981 -0.1537219 0.012694472 0.005206209
000140 bc 63 58 3d 0d 13 b1 3d df e6 d8 bd d8 bb 90 3c
       0.05282949 0.08646212 -0.1059091 0.017667696
000150 d5 8f 54 3d b4 6a 34 bc bc aa e3 3d a0 99 2f 3d
       0.05189498 -0.011011768 0.111165494 0.042871118
000160 50 7a 02 bd 96 11 10 be 23 0c c5 3c 6a ed 38 be
       -0.031854928 -0.14069209 0.024053639 -0.18059316
000170 d7 93 fe bb b9 0b 22 bd 2c 76 af bd e8 e6 20 3e
       -0.0077690887 -0.03956196 -0.08567461 0.15713084
000180 19 2c e3 bd e0 b6 64 3d 49 08 52 be 02 8f 92 bd
       -0.11092395 0.055838466 -0.20510973 -0.07156183
000190 eb 8c e2 bd a4 2a 00 3e 06 48 c1 bd a4 91 a6 bd
       -0.11062034 0.12516266 -0.094375655 -0.081332475
0001a0 9f 29 ce 3d 69 b0 14 be 43 3b 7c bd f0 ed b2 3d
       0.10066532 -0.1452042 -0.061579954 0.08736789
0001b0 d3 24 c4 bc 2d 11 20 bd be 2c b4 3d 91 39 01 be
       -0.02394334 -0.03907888 0.087975964 -0.12619616
0001c0 1f 29 41 bd b6 a6 20 3c 8b 23 aa 3d 3b 6c 8e 3c
       -0.047158357 0.009805372 0.083075605 0.017385593
0001d0 2e c2 7f bd 59 f8 af bd cf 5d 03 3d 7b 4d b6 bd
       -0.062441044 -0.085922904 0.032071885 -0.08901497
0001e0 1b 14 25 bc 02 e1 8d bd b0 90 3d bd c4 2d 33 bd
       -0.010075594 -0.069276825 -0.046280563 -0.043744817
0001f0 83 51 86 3d 50 46 19 3e c4 71 2b 3e 6e de 23 be
       0.06558516 0.14968228 0.16742617 -0.16002819
000200 1d 71 80 3b d7 4d 19 3d da 2d c4 bc bf 46 10 3d
       0.003919734 0.03742775 -0.023947645 0.03522372
000210 10 32 cd bd bb 73 43 3d 50 b1 c3 3d a7 0d 80 3d
       -0.10019314 0.04771779 0.09555304 0.06252604
000220 1d e2 a1 3b b5 e4 ca 3d a4 1d 95 bd a8 38 92 3d
       0.004940285 0.09906904 -0.07281044 0.071397126
000230 49 d3 a8 3c af 6b fb bd c3 e5 2c bc e7 be 2e bd
       0.020608561 -0.122763984 -0.010552826 -0.042662527
000240 81 3c 46 3d 22 00 06 be 5a ba d1 bc 6f ea 3d 3a
       0.048397545 -0.13085988 -0.025601555 0.0007244711
000250 95 48 a2 3c ea 58 15 be 1d c6 b6 3d 59 d1 b5 bc
       0.01981 -0.145847 0.08924506 -0.022194551
000260 8a 67 ac bd 05 31 91 bc d7 da 4f bd ec 09 dd bc
       -0.08418186 -0.01772357 -0.05074581 -0.02698227
000270 54 6a 3d 3c 0d 35 3b bd fe 2b a3 3d c8 0a 54 3d
       0.011560995 -0.04570489 0.07967375 0.051768094
000280 16 93 7c 3c 9b 81 9b bd 6f 8d f4 bd 08 79 e3 bc
       0.015415927 -0.0759308 -0.11941039 -0.027767673
000290 cc 6d 95 3d 1c 2b b3 3c 1a a9 8f bd 13 12 74 3c
       0.07296333 0.021871142 -0.070146754 0.014896887
0002a0 24 f8 33 3d 9c 51 41 3d be 80 cf 3d 4b 85 4d 3e
       0.043937817 0.04719697 0.101319775 0.20070378
0002b0 7d 0a c2 3d 99 04 a8 bd ed 9d 85 bc 4c 9c 44 bd
       0.09474657 -0.08204002 -0.016310656 -0.04800062
0002c0 d6 81 ad bc 3f f6 29 3e aa cb 6a 3e 7b 5e 35 ba
       -0.021180075 0.16597842 0.22929254 -0.0006918681
0002d0 2c 61 91 3d 45 d7 ae bc 32 3c 3a be 9e 05 5e 3c
       0.07098612 -0.021342883 -0.18187025 0.013551144
0002e0 f0 aa 83 bd d6 ae d7 bd a5 56 63 bd 03 14 65 3d
       -0.06429088 -0.10531394 -0.055502553 0.055927288
0002f0 dc c6 06 3d cf ac e7 bc c8 c4 68 be b2 bf 1c be
       0.03290449 -0.028280644 -0.22731316 -0.15307501
000300 8e 96 07 3c 16 52 97 bd 0a 2d b8 bd f2 00 19 bd
       0.008275641 -0.073887035 -0.089929655 -0.037354417
000310 0d 93 d0 bd c3 f6 ba 3d 93 51 c6 3d 2e 9e fb bd
       -0.10184298 0.09129097 0.09683528 -0.1228603
000320 dc ef 0c bd de c5 b6 3d d6 94 e9 3d 0e c2 8b bc
       -0.034408435 0.08924459 0.11405341 -0.017060306
000330 17 b3 1e bd f7 11 3d 3e c9 bc 69 bd a6 0b e7 3d
       -0.038745012 0.18463884 -0.057064805 0.11281519
000340 3b 28 23 be 1e 27 2c 3d 6a 9f 06 3e 26 5f 2b be
       -0.15933315 0.042029493 0.13146749 -0.16735515
000350 dd 94 38 bd 81 cf 43 3d 3e 10 b0 3d 69 48 e0 bd
       -0.045063842 0.047805313 0.08596848 -0.10951311
000360 9a c9 7f 39 a6 87 b4 3d 9d a2 a7 bd d5 39 58 be
       0.00024393798 0.088149354 -0.08185313 -0.21115811
000370 da c6 be bd ce 3f a1 3d ab 9b 89 3e 57 86 4f be
       -0.09315272 0.07873498 0.26876578 -0.2026609
000380 bc 02 8e 3d 9e f0 98 3c 90 74 ae bd 6c a3 cf 3c
       0.06934115 0.018669423 -0.08518326 0.02534648
000390 b0 f8 b0 3d 70 26 6c bd 72 89 1c be a9 7c 55 3d
       0.086411834 -0.057653844 -0.15286806 0.05212084
0003a0 b4 b9 c6 3d 84 f9 9e bd 3c 19 4e bd 17 42 5f bd
       0.09703389 -0.07762435 -0.050317034 -0.054506388
0003b0 16 01 71 3a 9c 25 a8 3d 7c 6c 8e bd 11 6f 56 bd
       0.0009193582 0.082102984 -0.069542855 -0.052352015
0003c0 cf 4c 82 3d a1 0d cd 3d 9e 4f dd 3c 83 fc 07 3e
       0.06362306 0.10012365 0.027015503 0.1327992
0003d0 44 24 f5 bd 5b 05 83 bd dc 8c 12 3d 13 c8 23 bd
       -0.11969808 -0.06397506 0.035778865 -0.039985728
0003e0 94 ac c7 bd 82 60 8e 3d b8 a4 ab 3b b7 17 10 bd
       -0.097497135 0.06952001 0.005238142 -0.035178866
0003f0 ef 8a de 3d f2 86 e9 bc 0f 26 6f 3d f1 01 e7 3b
       0.10866343 -0.02850673 0.058385905 0.007049792

features_extractor.encoder.conv.6.bias f4 [32]
000000 7f b5 d9 bc e7 b3 76 bd dd 64 84 3c ed 19 bf bd
       -0.026575802 -0.060230162 0.016161377 -0.09331117
000010 af fc 8d bd 54 f5 83 3d 22 e6 6f bc 00 cd 99 bd
       -0.06932961 0.06443277 -0.01464227 -0.07509804
000020 fe e0 bc bd b6 62 0d be 05 c4 51 bc e3 d8 4d be
       -0.09222601 -0.13807186 -0.012803082 -0.20102267
000030 d7 a0 3d bd da 8a f7 bc 90 6a 8f bd e5 10 8b 3c
       -0.046295967 -0.030217577 -0.07002747 0.01697583
000040 e9 57 aa bd 8a 1b fc bc ec 07 aa bd 61 1d 8c bc
       -0.08317549 -0.03077485 -0.08302292 -0.017103853
000050 ee 6a 5a 3e 2d 6f 20 bd 38 7d b4 bd 0a 63 22 bc
       0.21329853 -0.039168525 -0.08812946 -0.009911308
000060 c7 96 a5 bc ae f9 6f bc fb ec 11 bd e3 c4 b4 bc
       -0.020213498 -0.014646931 -0.035626393 -0.02206654
000070 4c 5e 79 3b 21 eb 05 be 52 21 21 bd e9 2b 6f bd
       0.003805059 -0.13077976 -0.039338417 -0.058391485

features_extractor.encoder.conv.8.weight f4 [64, 32, 3, 3]
000000 4b fd 6b 3d 76 29 da bd 30 63 2c 3c 98 91 b2 bd
       0.057614606 -0.10652439 0.010521695 -0.08719176
000010 17 9a 4a be ba aa 41 be ba 02 1d be 05 ba cc 3d
       -0.19785343 -0.18912783 -0.15333071 0.09996418
000020 ae 17 a1 bd 24 fe 23 be 04 49 39 3d 68 1b 39 bb
       -0.07865845 -0.16014916 0.04523565 -0.0028245095
000030 4a d6 e3 bd 9e 61 78 3c 38 f5 e2 bd ed f4 4c 3d
       -0.11124857 0.0151599925 -0.11081928 0.050038267
000040 da ff a7 bd 90 43 bb bd d1 48 f8 bd 2d e5 47 bd
       -0.08203097 -0.09143746 -0.121232636 -0.048802543
000050 5e a4 51 bd 5a 52 26 be 2d 68 35 be 8e 81 39 3d
       -0.051182143 -0.16242352 -0.17715521 0.04528957
000060 65 e9 9d 3d 3f 49 0c 3e 2a 6a ba bd d3 16 36 3d
       0.07710532 0.13699816 -0.091022804 0.04445536
000070 db d9 9f bd 99 e2 ec bd e1 0c 5a be c5 af a3 3e
       -0.078052245 -0.115666576 -0.21293975 0.3197004
000080 52 77 87 3d bc 37 9d bd e9 a4 2b 3e 3b 46 62 3b
       0.066145554 -0.07676646 0.16762127 0.0034526724
000090 9f 97 30 3e 3e d3 9b 3b d3 da d0 3d e6 fa 7f bd
       0.17245339 0.0047554066 0.101979874 -0.062495135
0000a0 d8 89 1c be f0 69 9c 3c ef d5 af bd 17 5b 1c 3c
       -0.15286958 0.019093484 -0.085857265 0.009543202
0000b0 e0 fd 26 be 6a 28 43 ba 79 df 17 be d7 ba 75 bc
       -0.16307783 -0.0007444682 -0.14831342 -0.014998159
0000c0 65 91 c8 bd b7 8d 11 bd c9 c6 0b be 78 62 e7 bc
       -0.09793357 -0.03553554 -0.1365005 -0.028245196
0000d0 b3 a6 cb 3c b3 cd 08 be 22 18 3e 3e 35 0c 19 bd
       0.024859762 -0.13359718 0.18563893 -0.037365157
0000e0 b7 0b 0e 3e 4e 7b c7 bd 9a 52 3e be a4 8e 5e 3d
       0.13871656 -0.097403154 -0.18586197 0.05433525
0000f0 84 a4 2c be 4e 9d 2a be d0 aa 03 be c2 81 2b 3e
       -0.16859633 -0.1666157 -0.12858129 0.16748717
000100 a1 3b 15 bd e3 8a 1a 3d d6 85 44 be af 06 0d be
       -0.03643382 0.03773011 -0.1919168 -0.13772081
000110 2a f6 42 bd e8 3b 99 bd c2 3c 44 3b bb 7f 0c be
       -0.04759804 -0.07482129 0.002994344 -0.137206
000120 66 08 a7 bd 17 3e e0 3d 6e 6e 03 be 41 ad 62 bd
       -0.08155899 0.10949343 -0.12835094 -0.05534101
000130 a4 35 97 bd 40 c2 c8 3d 0c e7 6a 3e 2a 84 00 3e
       -0.07383278 0.09802675 0.229397 0.12550417
000140 d7 8c 23 3d fb a9 74 3b db 66 70 bc d7 66 95 3d
       0.039929237 0.0037332762 -0.01467296 0.07295006
000150 23 43 ee bd 08 1f 9a bd cb 91 86 3d d2 f4 b9 3d
       -0.11633899 -0.0752545 0.065707766 0.09079899
000160 cf 98 f7 3c 2a d9 ab bd 77 ec 81 3d 4d 88 d7 3d
       0.030224232 -0.0839103 0.0634393 0.10524044
000170 a8 58 a7 3d f6 be 32 be 68 78 48 3e 61 6c 91 be
       0.08171207 -0.17455658 0.19577181 -0.28403
000180 e0 3e 23 bd 30 8b a0 3d c6 eb 32 be 6d 4f 4b 3d
       -0.039854884 0.07839048 -0.17472753 0.049636293
000190 df 8c b9 bd 80 72 ed 3d f7 d8 cc b8 7b 80 12 bd
       -0.09060072 0.11594105 -9.767891e-05 -0.03576706
0001a0 1f c6 3f 3b 4b 0a 79 3c 8e 13 79 3d f7 3a 61 bd
       0.0029262376 0.015200208 0.060809664 -0.054987874
0001b0 a6 c4 b3 bd ea d5 66 3b 03 e4 c9 bc 49 f3 2b bc
       -0.08777742 0.0035222718 -0.024644857 -0.010495015
0001c0 af 95 13 3d b2 4a 6b be 2d 37 80 3d 38 9c 23 be
       0.03603142 -0.22977713 0.06260524 -0.15977561
0001d0 b6 fd 0a bd c7 10 0c be 1a c7 03 be a7 8a aa bd
       -0.033933364 -0.13678275 -0.1286892 -0.08327227
0001e0 7a 1f 39 bd 05 b3 08 bc a3 2b 2e be e0 ec 81 bd
       -0.045196034 -0.008343463 -0.17008834 -0.063440084
0001f0 23 2b 34 3d fc 34 30 bc d1 7d ac 3d 0f 71 0e 3d
       0.04398645 -0.01075482 0.08422435 0.03477579
000200 da 53 6c 3d f9 e3 8c bd 1c 12 36 bb fc bb ab 3a
       0.057697155 -0.0687942 -0.002778179 0.0013102288
000210 2a 28 18 3d 23 dd e4 3b ae 07 31 bd cd 01 43 3b
       0.03714768 0.0069843694 -0.043220215 0.0029755712
000220 fe 6f 69 be b4 93 9f bd 1d 12 a5 3c fc df 40 be
       -0.22796628 -0.07791844 0.020150239 -0.18835443
000230 c8 9e a9 bc a7 f5 93 bd eb 4f 88 bd 18 25 32 be
       -0.020705596 -0.07224589 -0.06655868 -0.17396963
000240 e6 a7 d3 3d 26 a6 24 bd 11 49 05 bd 60 f0 14 bd
       0.103347585 -0.040197514 -0.032540385 -0.036362052
000250 0e b5 3b be 8c 9e 75 bc 67 a6 45 be e1 63 9d 3d
       -0.18330786 -0.014991414 -0.19301759 0.07685066
000260 3d ed 1f be 7f 93 b0 bc 39 21 dd bd a8 a7 e6 bd
       -0.15617843 -0.021554707 -0.10797352 -0.11262447
000270 47 6e 60 ba ef 32 25 bd 87 d5 d7 bd 91 0b 8f 3d
       -0.00085613545 -0.040331777 -0.10538774 0.06984628
000280 c5 7a 85 3a a0 ab 52 be c1 33 1a bb 65 2a bc bd
       0.0010183683 -0.20573282 -0.0023529383 -0.091877736
000290 a7 37 a4 3d 48 4b 1c bd 8c d2 a2 bd b7 b5 83 bd
       0.08018427 -0.03815773 -0.07950315 -0.06431144
0002a0 30 ae 38 3c ba b9 70 bc 48 91 4c be 97 56 b3 bd
       0.011271998 -0.014692718 -0.19977295 -0.0875675
0002b0 38 71 8b 3c f5 dc b0 bd 24 97 b2 bb 43 9d 38 3e
       0.01702176 -0.08635894 -0.0054501463 0.1802874
0002c0 21 7d 11 be 83 ce cd bd 80 1b 88 3d a9 ff 8e bd
       -0.14207889 -0.100491546 0.0664587 -0.06982357
0002d0 df 99 cc bd 7f 8d 00 be e3 03 c5 bd 77 ab 1d bc
       -0.09990286 -0.12553976 -0.09619882 -0.0096234
0002e0 74 04 0e 3d 41 65 c0 bc 85 5e 10 be fb ac 1e be
       0.034672216 -0.023485782 -0.14098556 -0.15495674
0002f0 08 d5 cd bc 4d 29 51 3d 5b cf 24 3d ba ba 65 3e
       -0.025125995 0.051064778 0.040236812 0.22434512
000300 64 a5 ec bc 3a 13 b0 bd f7 b7 82 bd ab e6 29 3d
       -0.028887458 -0.08597417 -0.06382745 0.041479748
000310 a6 c4 db 3b 7e 2c 0a 3d de cf 9a 3d 65 1c 9a bc
       0.006706792 0.033733837 0.07559179 -0.018812368
000320 c3 32 28 3e 9c dd bf 3c 89 3d 4d be e3 c7 52 3d
       0.16425614 0.023421101 -0.20043005 0.051460158
000330 3c 2e 8c 3d 07 db 90 3c 29 be 58 3c 91 28 cf bd
       0.06844756 0.017682565 0.013228931 -0.10115159
000340 28 e1 0f bd a0 65 99 bd a6 93 13 be a5 d5 cc bd
       -0.035126835 -0.074900866 -0.14411792 -0.10001687
000350 89 33 9e bd 41 19 85 3c 1b 37 03 bd d6 93 ea bd
       -0.07724673 0.016247394 -0.032034975 -0.11453979
000360 78 ad d3 3c 37 ee 96 bc e7 dd 4f bd a7 78 1c be
       0.025839552 -0.018424137 -0.050748732 -0.152804
000370 55 7c 9b bd e9 00 07 bc 60 84 93 bd 5f 3f 6c bc
       -0.07592074 -0.008239963 -0.07202983 -0.014419406
000380 48 66 4d 3a 71 34 e8 3d 3c fa 3b 3d 2a 59 ac 3d
       0.00078353705 0.113381274 0.04589294 0.08415444
000390 77 ab 92 bd 87 27 49 bd 98 6e 07 be 81 98 06 be
       -0.071616106 -0.04910996 -0.13225782 -0.13144113
0003a0 00 ed f4 bc 1d dd c5 bd 73 7a a4 3c 4a 96 aa bb
       -0.029898167 -0.09661315 0.02007792 -0.005205904
0003b0 5a df a4 3d 51 79 a0 bd 5f 18 13 bd b1 32 14 be
       0.080504134 -0.07835639 -0.035911914 -0.14472462
0003c0 99 c5 e5 bd 54 20 d3 bd 33 94 81 bd c6 4b 30 3e
       -0.112193294 -0.103089005 -0.06327095 0.17216405
0003d0 3d 89 e1 bc 49 9c a3 3d 47 7e 6c be 05 a2 0f 3d
       -0.02753126 0.079887934 -0.23095046 0.035066623
0003e0 65 35 d4 bd 9b 42 f8 bd 81 26 be bb 4b 0d 1f be
       -0.10361747 -0.12122079 -0.00580293 -0.15532415
0003f0 fc 74 66 3d 68 51 ee bc cb 13 df b9 26 6a 1d bd
       0.05626391 -0.029091552 -0.0004254862 -0.03843131

features_extractor.encoder.conv.8.bias f4 [64]
000000 63 53 2e bd 69 e4 aa bd 17 60 ce bb b8 a8 ac bb
       -0.042559993 -0.08344347 -0.006298076 -0.0052691363
000010 63 01 d2 3b a7 2b 8b 3b ce 4f c1 bd fd 13 37 3c
       0.0064088567 0.004247147 -0.0943905 0.011174199
000020 4a ed 10 bd ea 26 7d bc fc 5d 54 bd 59 63 9b bb
       -0.035382546 -0.015451172 -0.051847443 -0.004742068
000030 5e 8b b7 3a 40 45 a1 bc f8 8a 86 bd 66 50 2c 3d
       0.0014003327 -0.019686341 -0.06569475 0.04206886
000040 c5 7d 2c bd 91 e6 ae bd 64 18 83 bd 08 83 b6 bd
       -0.04211213 -0.08540071 -0.064011365 -0.08911711
000050 3d 86 d3 bc 19 d5 1b bb f2 17 dc bd 58 81 01 bc
       -0.025820846 -0.002377814 -0.10746755 -0.007904373
000060 c9 15 58 bb f0 61 cc 3c 43 58 a0 bc f4 f3 1e 3c
       -0.003297197 0.024949044 -0.019573336 0.009701718
000070 bd a0 a3 bc b8 e5 65 3d ff db 86 bd 84 e1 14 3d
       -0.019974107 0.05612728 -0.0658493 0.03634788
000080 02 e3 04 bd b7 5e a3 bd 88 d6 29 bd 08 de d6 bc
       -0.032443054 -0.0797705 -0.04146436 -0.02622892
000090 0a f2 8e bd 61 8e 9c 3d 0a 61 ea bc 1e f6 5b bd
       -0.06979759 0.07644344 -0.028610725 -0.053701513
0000a0 09 12 9d bc 0b d8 69 3b 33 d2 35 bb 96 6c 9d bd
       -0.019173639 0.003568175 -0.0027743697 -0.07686727
0000b0 b1 49 c9 bb 60 48 a2 3b 4f 35 d9 bc 0d aa 11 bd
       -0.006142818 0.0049524754 -0.026514677 -0.035562564
0000c0 44 c7 a7 3b ca d8 56 bd f8 28 43 3d c2 7b 16 bd
       0.00512019 -0.05245284 0.047646493 -0.03673912
0000d0 68 20 89 bd a9 31 8c bd 52 9b 07 be 7c 5a a4 bd
       -0.06695634 -0.068454094 -0.13242844 -0.08025071
0000e0 a3 04 f1 bc 9e d3 b4 bd 25 e1 c1 bd 6f 91 e5 3d
       -0.029421156 -0.08829425 -0.09466771 0.1120938
0000f0 51 dd e2 bc 05 9c 10 bd 6c 0d f8 bc 26 02 46 3d
       -0.027693423 -0.03530504 -0.030279838 0.048341893

features_extractor.encoder.conv.10.weight f4 [128, 64, 3, 3]
000000 60 59 ae 3a 86 9a 74 bc 06 8b ec bc 80 3b ed 3b
       0.0013301782 -0.014929419 -0.028874885 0.007239759
000010 30 83 85 3d 69 1e 12 be 30 19 37 bc d0 d6 e4 3c
       0.06519163 -0.14269413 -0.011175439 0.027934462
000020 4d dd 43 be c0 24 2a bb f8 89 a4 bc aa f8 c1 3c
       -0.19127388 -0.0025961846 -0.02008532 0.023678143
000030 44 b7 2e 3c b9 67 62 bc fe f7 38 3d 36 0e 43 bc
       0.010663811 -0.013818675 0.04515838 -0.011905244
000040 7d 04 81 3c 8c 31 35 3d 36 ff dd 3c d8 f3 a0 3b
       0.01574921 0.044236705 0.027099233 0.004911881
000050 73 1c 10 3d a0 ba f6 3a f1 f9 22 3c 89 0f 91 bd
       0.03518338 0.0018823929 0.009947286 -0.07083041
000060 c1 51 06 3d 1a 61 c1 bd 1c 86 ec 3d 54 c7 2e 3c
       0.03279281 -0.09442349 0.11549017 0.010667641
000070 10 24 8c 3c 26 b4 a8 bc 87 53 21 bd e2 ba ef 3b
       0.01710704 -0.020593714 -0.0393863 0.0073159793
000080 2d df 85 3c 7c 7a 55 3c 3e 35 f2 3c a1 87 04 3d
       0.01634177 0.013029691 0.029566403 0.03235591
000090 ce dd 13 bd 26 f5 c9 bc 68 a9 a5 bb 8b 4c e8 bc
       -0.0361002 -0.024653029 -0.005055595 -0.028356811
0000a0 21 70 56 3d 99 98 f8 3c b6 48 e5 3c 2b 2f 0b bd
       0.05235303 0.030346202 0.027988773 -0.03398053
0000b0 1b 54 8f 3c ab f5 25 bd 58 f9 85 bb 60 e5 35 bc
       0.01749616 -0.04051749 -0.004088562 -0.011102051
0000c0 c0 97 8d 3b d7 10 b2 3c ec 3b ac 3d 60 65 e9 ba
       0.0043210685 0.021736545 0.08409867 -0.0017806701
0000d0 66 db db 3d 17 58 61 3d 63 88 ba bc 80 46 89 bb
       0.10735206 0.05501565 -0.022770112 -0.0041893125
0000e0 58 4e 98 bb e3 2f a6 bc 5c 30 44 3d 00 25 5c bd
       -0.004648011 -0.020286506 0.04789768 -0.053746223
0000f0 49 e7 21 3d ba 2d cc 3c 66 1b 06 be da 56 d4 3c
       0.03952721 0.024924148 -0.13096389 0.02592032
000100 70 ee 7d 3c 0b 65 1a bd c2 35 b2 3c 85 82 03 3d
       0.015498742 -0.03769402 0.02175415 0.032106895
000110 ce d2 1b 3d b0 4f ea bc a6 41 8b bb 9b b8 a2 3d
       0.038042836 -0.028602451 -0.0042497693 0.07945367
000120 0c ff 54 3c 0e 7f 90 3c d7 43 19 bd 3e c9 8b bc
       0.013000261 0.01763871 -0.037418213 -0.017063733
000130 78 8a 20 be 67 a1 85 bd be 1e a4 3c b3 c5 3e 3e
       -0.15677822 -0.06524926 0.02003419 0.18630104
000140 65 7b b1 bd a0 e1 9e 3a d6 1d 44 bc e0 ed 92 3a
       -0.08666114 0.0012121685 -0.011970004 0.0011209808
000150 b2 f2 10 bd 5d 58 a6 bc cc e7 d8 bd 61 51 10 3d
       -0.035387702 -0.020305807 -0.10591087 0.03523386
000160 0a c8 a4 3c 77 03 28 be 43 a5 0f bd 2d 21 0e 3d
       0.020114917 -0.16407572 -0.035069715 0.034699608
000170 7c 94 30 3c 02 c9 ae 3c 88 34 97 3c d0 cc fa 3b
       0.010777589 0.021336082 0.018457666 0.00765381
000180 70 1d 10 bd 80 29 4f 3e 0d d7 93 3c 20 e6 57 bc
       -0.035184324 0.20230675 0.01804688 -0.013177425
000190 36 f8 e5 3c b0 bf 37 bb 00 f5 2d 3b 79 82 b5 3c
       0.028072458 -0.0028037839 0.0026543736 0.02215694
0001a0 fc 9f 19 3d f0 cb 13 bc 3a 58 f3 3c 97 06 58 3d
       0.03750609 -0.00902079 0.029705156 0.05274066
0001b0 08 32 f8 bb b0 00 53 bb b0 15 b3 bc d0 60 5e bc
       -0.0075743236 -0.0032196455 -0.021860927 -0.013572887
0001c0 3b 30 a6 3c 82 ca 83 bc 2d 02 1d 3d 20 e6 00 bd
       0.02028667 -0.016087774 0.038332153 -0.031469464
0001d0 20 47 99 bb 71 59 23 3d a4 d1 26 3c 7a da b7 3c
       -0.004677668 0.03988022 0.010181818 0.022443045
0001e0 78 ba 03 bd 15 d6 22 bd 14 61 bb 3d 00 fb b6 bb
       -0.032160252 -0.039754946 0.091493756 -0.0055841208
0001f0 e5 49 d1 3c c9 1b 10 bc 3c 65 6b bc 53 6b d9 bc
       0.025547931 -0.008795687 -0.014367398 -0.026540434
000200 92 87 b3 3c d0 fb 43 3c e2 9b b5 3c db 96 70 bd
       0.02191523 0.011961892 0.022169057 -0.058737617
000210 50 f5 50 bb 56 cc 72 bd 10 0f 99 bd 2f 77 21 3d
       -0.00318845 -0.0592769 -0.07473576 0.039420303
000220 f0 9c 23 bc 48 67 a2 3b 12 3e b6 3c cb c3 15 3d
       -0.009986147 0.0049561597 0.022246394 0.036563676
000230 75 62 d0 3b 43 38 19 3d 4d 31 1d bc 59 71 18 3d
       0.0063593932 0.03740717 -0.009594274 0.03721747
000240 ea be eb 3c 0d 3b 0a 3d f2 02 1b bd c2 f9 f5 3c
       0.028777558 0.03374772 -0.037844606 0.03002632
000250 4a 45 7a 3d 9c 29 b2 3c b6 88 d3 bc 9d 0b 9f 3c
       0.061101235 0.021748357 -0.025822025 0.019414717
000260 ea ee 95 3d 68 be 84 3c eb ac 29 bd 05 0d 1a 3d
       0.0732096 0.016204074 -0.041424673 0.037610073
000270 03 5e 0a bd 30 bc 73 3d 38 3a 18 3d 2a ab be 3c
       -0.033781063 0.05950564 0.037164897 0.023274977
000280 e1 34 d2 3c 21 a6 1c bb a6 6f d8 bc 1b b4 b6 bc
       0.02565998 -0.0023902731 -0.026420426 -0.022302678
000290 ab 24 9a bc 9a 98 c3 3c 67 94 d1 3d 7d dd ec bc
       -0.018816313 0.023876477 0.102333836 -0.028914208
0002a0 bc c0 63 3c d2 3f 06 3c 00 f0 29 b9 da 9e e7 3c
       0.013900932 0.008193927 -0.00016206503 0.028273989
0002b0 d0 e2 ed bc 84 0b 09 3c c0 f6 20 3c 2e f8 93 bd
       -0.029038817 0.008364562 0.009824455 -0.07225071
0002c0 5a 5b e9 bc ba 15 dc 3c 90 dc d7 3c 59 fd 5b bd
       -0.028485943 0.026865829 0.02635029 -0.053708408
0002d0 3c 80 5c 3c da 78 94 3c 86 8b 83 bc e3 ad f2 bc
       0.013458308 0.018124033 -0.01605774 -0.029623931
0002e0 b4 aa b4 3d 3e 1b b7 bc a6 00 ea 3c f4 b3 13 bd
       0.088216215 -0.022351857 0.028564762 -0.03606029
0002f0 2b 82 06 3d 80 0a 8f 3c 43 74 04 3d 06 2b 5f bc
       0.03283898 0.017461061 0.03233744 -0.013621097
000300 1a 63 9a 3c cb 74 93 bb 35 b0 82 3b 80 d7 1c bd
       0.018846083 -0.004500007 0.0039882907 -0.038291454
000310 8e e7 c5 3d a1 64 14 3e a2 66 fa 3c fb 58 0a 3d
       0.09663306 0.14491512 0.030566517 0.033776265
000320 2c 94 58 bc 28 5c 8d bb c3 4c 9a bd f7 87 f2 bc
       -0.013218921 -0.0043139644 -0.075341724 -0.029605849
000330 60 f9 a1 3a 2f fd 0e 3d cf 4b 80 3d aa 14 f8 3c
       0.0012357645 0.034909423 0.06264459 0.03028329
000340 f2 ad e3 3c 24 09 15 bd 2b ab 19 bd f1 37 09 3d
       0.027792905 -0.03638567 -0.037516754 0.033500616
000350 8a 1c f5 39 88 d5 9a bb 25 c5 38 bc e6 8c 4f 3d
       0.00046751305 -0.004725162 -0.011277472 0.05067148
000360 f8 2a a3 bb a2 86 ec 3c 76 7a 46 bc ea 52 f6 3c
       -0.0049794875 0.028872792 -0.012114158 0.030068833
000370 53 e8 b3 3b fc 1d 09 bc 08 9a 9d 3b 0c dd 78 bc
       0.0054903417 -0.008368965 0.0048096217 -0.01518942
000380 e2 31 60 3d 6c 3a 3b 3c 61 a9 17 3d 21 69 29 3d
       0.054735072 0.011427503 0.037026767 0.041360024
000390 30 79 4b 3b ed ef 9e 3c ed 11 8a 3b 30 96 c3 bc
       0.0031047575 0.019401515 0.0042135627 -0.023875326
0003a0 02 cd 35 3d 55 82 ac bc 89 de 0c 3d 68 d2 91 3c
       0.044384964 -0.02105824 0.034391914 0.017800525
0003b0 f0 eb 47 bb a2 dc cb 3c 80 de 69 3d 89 e9 77 3d
       -0.003050562 0.02488548 0.05709696 0.06052545
0003c0 fe 69 c6 bc e5 74 46 bc 2f 05 24 3c 0a 44 d9 3c
       -0.024220463 -0.012112831 0.0100110015 0.026521701
0003d0 e6 92 c6 3c 6c 9a 59 bc ac 7b 1e bc 11 5e c6 3d
       0.024239969 -0.013281446 -0.00967304 0.096859105
0003e0 55 60 3c bd c0 cd 96 3c ae 8f 8a 3c 34 82 b3 3c
       -0.045990307 0.018408656 0.016914215 0.021912672
0003f0 ab 56 26 bd 80 1e 08 3b 20 cb b5 3b db db 03 3d
       -0.040609997 0.0020770133 0.005547896 0.032192092

features_extractor.encoder.conv.10.bias f4 [128]
000000 a2 66 69 3d da 30 c3 bc 09 e4 12 bd 72 ec c1 bd
       0.056982644 -0.023827005 -0.035862003 -0.094689265
000010 27 2c 78 bd 63 66 e7 3c c3 a6 64 bd 81 44 d8 3c
       -0.060588982 0.028247064 -0.0558231 0.026399853
000020 71 e8 c4 3c 2a 57 01 bc b2 17 b3 3d 4f 53 34 bd
       0.024036618 -0.007894317 0.08744754 -0.04402476
000030 97 dc e5 3c aa c0 8e 3c 45 7f 55 bd a7 3b f7 3d
       0.028059287 0.017425854 -0.052123327 0.12071925
000040 b9 e9 80 3c fb 62 51 bd ec d8 ee bc eb 8d 42 bd
       0.015736448 -0.051119786 -0.02915617 -0.047498625
000050 ff 1d 25 bc 7b b4 16 3d ea b2 53 bd b3 d9 7a bd
       -0.010077952 0.036793213 -0.051684298 -0.06124277
000060 63 41 0b bc e3 5e 42 bd 9c 68 f2 3a 59 c9 24 bd
       -0.008499476 -0.047453772 0.0018494311 -0.040231083
000070 54 fd 1e 3c 4a 4e 82 bd 94 c6 1c 3b d7 c6 1d 3d
       0.009703953 -0.06362589 0.0023922073 0.038519707
000080 c1 7c 44 3d 5f e6 12 bd cf 5b 80 bc 07 51 b9 bb
       0.047970537 -0.03586423 -0.015668778 -0.005655411
000090 6b db a3 3d 14 45 8c bd f3 0e 68 bc e1 4b 93 bc
       0.08000835 -0.06849113 -0.01416372 -0.017980518
0000a0 be 38 ba bb 4f 4b d3 bd 75 86 bb bc cc 3b 91 3d
       -0.0056830337 -0.10317098 -0.022891263 0.070914835
0000b0 da d8 55 3d 92 a8 03 3d 7d 94 26 3d 1c ba c3 3b
       0.05220876 0.032143183 0.040668953 0.0059731137
0000c0 2b 26 0b bd 0a aa 79 bd b1 52 0e bd 89 be 66 bc
       -0.033971947 -0.060953178 -0.03474683 -0.014083513
0000d0 ee c8 6d bd fd e0 f5 bb 8e d7 af bc 61 43 45 3d
       -0.05805295 -0.0075036273 -0.02146509 0.04815996
0000e0 2e f7 bf bc 9d 65 6e 3b 38 37 22 3d e9 7f 79 bc
       -0.023433294 0.0036376484 0.039603442 -0.01522825
0000f0 e3 c8 87 bc 22 da 43 3c ed 1d e3 bb 83 4a d1 bb
       -0.016575282 0.011953862 -0.0069310577 -0.0063870563
000100 83 ab 15 3d 2c 5a 58 bd 24 04 99 bd 83 5f 49 bc
       0.03654052 -0.05282037 -0.07471493 -0.012290838
000110 e6 19 f9 3c 67 30 7c 3d 58 36 13 3d b7 7f 13 bd
       0.030407857 0.061569598 0.035940498 -0.03601047
000120 fb 75 f2 bc 4d 12 c8 3d df 88 21 bc 03 b8 a5 bb
       -0.029597273 0.097691156 -0.009859293 -0.0050573363
000130 a9 25 67 3d 4b ec b3 bb 02 55 9c bc 21 f3 72 3d
       0.0564324 -0.005490815 -0.019083504 0.059313897
000140 55 f7 c3 3d 4f 5a e6 ba 8a 18 24 3d 62 ce 70 3d
       0.09568659 -0.0017574521 0.040062465 0.058790572
000150 bb 3f ab 3d a1 71 aa bd f2 9b 99 bc 5f f1 19 3c
       0.08361765 -0.08322454 -0.018751118 0.009395926
000160 a0 dd 3b 3d 2f be ac b9 b3 34 bd 3d 05 f1 b5 bc
       0.045865655 -0.00032948094 0.09238567 -0.022209654
000170 bd b9 bb ba d8 92 1c bc c2 4d 14 bd 5f 38 57 bd
       -0.0014322322 -0.009556495 -0.036206968 -0.052543994
000180 db aa e8 bc e3 79 13 3d 58 7b 0f bd 65 a3 82 3d
       -0.028401783 0.036004912 -0.03502974 0.06378821
000190 b3 00 97 bd 48 c9 0b bd 3f ea 81 bd 16 dc 75 3d
       -0.0737318 -0.034127504 -0.06343507 0.060024343
0001a0 0e f1 a0 3c 5d 9b 0b 3c 1e cc 90 bc 45 08 cb 3d
       0.019646194 0.008520928 -0.017675456 0.09913687
0001b0 29 2f 1f bd 84 a6 54 bd f1 30 16 3d da fd 94 bc
       -0.038863335 -0.051916614 0.036667768 -0.018187452
0001c0 e9 de bc 3d e1 c4 56 3d 5a e1 d4 3c 3a 10 65 3d
       0.09222204 0.052433852 0.025986362 0.055923678
0001d0 bb ac 28 3d a8 20 88 3b 16 9c 08 3d 1e 50 30 3d
       0.041180354 0.0041542836 0.03335198 0.043045156
0001e0 93 1f 89 bc a9 f8 63 bc 1a d5 82 3c f0 68 59 3d
       -0.016738689 -0.013914266 0.015970755 0.05307859
0001f0 75 a0 4d 3d 31 48 b5 3c c2 3d 34 3d de 3c 72 bc
       0.050201852 0.02212915 0.04400421 -0.01478502
