weights/image_scratch-nd-2-eps-1800.pth (torch, 462927 bytes, 24 tensors)

log_std f4 [2]
00000000: a3dd 793f 7f29 88be
0.97603816 -0.2659416

features_extractor.encoder.conv.0.weight f4 [4, 1, 3, 3]
00000000: 2f07 9d3e ad24 b03e b7d3 64bb bd8b 953e
00000010: e503 11bc fdef f23d fd18 36be 4947 7c3e
00000020: 65e2 aa3e ba3b 5cbe 2cc3 c33e aeb7 d83d
00000030: 8734 943e b44d 2a3e ee6e 773e ddf6 583d
00000040: 6654 c93e 5a70 123e e517 65be 2c49 e2bd
00000050: 9600 67be 5d9c ea3d 1dd4 31be 5b5e aa3d
00000060: 5889 9bbe 28e3 f1bd 12af 72be a4e1 60be
00000070: 58ba 3b3e 38db 0ebf 5270 9d3e 7223 00bf
00000080: 7266 953e 638a 2bbd db70 a3be 62c6 6c3c
0.30669543 0.3440298 -0.003491623 0.29208174 -0.008851026 0.118621804 -0.1778297 0.24636568
0.3337585 -0.21507159 0.38234842 0.10581909 0.28946325 0.16631204 0.2416341 0.052969802
0.39322203 0.14300671 -0.22372396 -0.11049113 -0.22558817 0.11455605 -0.17366071 0.08318778
-0.30378222 -0.11810905 -0.23699597 -0.21961075 0.18332803 -0.5580325 0.30749756 -0.50054085
0.29179722 -0.041880023 -0.3192204 0.014451595

features_extractor.encoder.conv.0.bias f4 [4]
00000000: 3008 87bb 5aa1 423e c321 fb3d e1c5 79bd
-0.004120849 0.19006863 0.12262299 -0.060979728

features_extractor.encoder.conv.2.weight f4 [8, 4, 3, 3]
00000000: b5d1 133d dc70 8bbd 97e8 463d dd5d ed3d
00000010: 86a4 823d 109f e0bd 7a00 5d3d 4284 79bc
00000020: 8739 1e3d 271e fcbd 77aa 45be 3f88 d2bd
00000030: 11dc 26be ab2a bf3d 7499 353b 484c b93c
00000040: b36b b33b fae0 42bd e0a4 b63d 845f 31be
00000050: 2faf 0abd cea0 ccbd 8313 4c3d ef74 b6bd
00000060: e2ad 4e3d bda6 21bd e209 f53d ba96 cfbd
00000070: 912b ddbd 0da9 e1bd 5482 073e 00d4 a23c
00000080: 7ae4 043e 7939 2fbe c847 37be 1f18 16be
00000090: ed77 b0bd b25f b33d 4607 503d c349 353e
000000a0: eb05 203a 6394 9cbd 9ad9 103e 4764 813c
000000b0: b6e2 303e 317a 1ebd 7e89 9e3d aa4c 2dbe
000000c0: 51d7 2fbd 59f7 bf3d 75ad 803d 5798 bdbc
000000d0: 66a7 0b3e 3a6a 163e 47a9 28be e162 41be
000000e0: 31c1 053e 890e e4bd e0aa 44be 5b53 69be
000000f0: 674b 41be 661f dbbd fffa b6bd 3789 18be
00000100: 908b fcbd b1c2 5cbe 630d bc3d 94c0 f03d
00000110: a4ce 21bd cd9e 11be 0b28 903e 0638 0e3e
00000120: 3ecf 143e 4fa6 b2bd 0e5f 92bd 7b38 253d
00000130: deb0 ee3d d572 c43c a691 27be e1ed 32bd
00000140: 7c57 133d fec1 f1bb c23c 073d 932c 50bd
00000150: 7f29 98bd f738 8fbc c8db bb3c 7c83 fbbd
00000160: d0e0 573e 2743 263d e243 0d3e 4e1b 653d
00000170: dfde 31be 3e30 e93d c60d 82bc 1500 c4bc
00000180: 1f6d e2bd cf32 0cbe f010 9e3d 6791 923c
00000190: 2adb 853e d947 b4bd 9a38 c9bc c512 cbbd
000001a0: 3acf ed3d 44c0 263e b59f 5a3e c4af 613e
000001b0: 8765 833e 608d 1abc e5e6 c53d 83a2 8d3c
000001c0: c37e fe3d ed3a f6bd 218a 3f3e d304 b1bd
000001d0: f263 b83d 866a 1a3e c029 123e ef3d b3bd
000001e0: b72c 523e b59a de3d 0ba8 073c fffb 16be
000001f0: 83d3 a23d 633b d7bd 2711 08be caca 823d
00000200: d680 223d 490e 46be 0e29 1ebe 97cb f0bd
00000210: 0676 dabc 2425 e6bd 1109 1ebe cb56 373e
00000220: 6d04 82bc ce2b 3a3e 26f3 a43e 3625 5bbd
00000230: 564a 893e 83ad 723e 75e5 09bc 0c53 813e
00000240: 31bd 163e da0d ee3d b22e 9f3d 9d7d 213d
00000250: 85de 0b3d 90e4 2d3d 7098 363d bff2 ba3c
00000260: 64d6 213e c179 3c3e 3170 73bb 4183 dbbc
00000270: 099f b13d 7be3 893d 7c3b b33d 7d14 c53d
00000280: e1de ffbd 410a 59bd afb4 4c3e 2e86 a33d
00000290: a948 ef3d aba2 dabd 2fb1 e6bd b6c7 2dbe
000002a0: bcc8 2cbe c61e 8bbc c3eb 8f3d 88cb 083e
000002b0: af81 91be 8e3c 0dbc 0f98 6d3e aaa9 1f3e
000002c0: 69d4 123e 26d4 11be db1f ddbc 2e30 adbd
000002d0: 3be3 9ebd 2ffc 443e 33d8 47bd 1db3 1c3d
000002e0: b101 7ebd 2a40 273e 5c45 3c3e c948 2e3e
000002f0: 2755 11bd 749d 04be 7a3d a2bd a1f4 1a3e
00000300: 6f8b 103e d98c 793e 1c75 0d3e e81a ce3d
00000310: 7aa6 af3d 6e44 9ebd f2e8 57bd 50cf 5abe
00000320: cd45 3f3e d74b c6bc 1810 9ebd f496 7abd
00000330: 8fa8 18bd 5c57 8fbe da84 46be b70e 7c3e
00000340: 0000 62be 6bc5 d23d 4918 4a3e c293 debd
00000350: 5e56 1c3e ba58 f0bd 7222 f0bd fda7 f03b
00000360: 67e1 603e 9d76 b7bc 6723 053e f5e4 da3d
00000370: ee86 253e 3f21 07be 44d0 e93d 0070 c2bd
00000380: 08d3 a73c 5a3a 573e 6f43 953c 2f27 003c
00000390: 7326 1cbd 72d1 11be 8ca8 383d 51df 56be
000003a0: 342a 4a3d 241e 653d 5c60 7d3d d9ef 05be
000003b0: 0d08 04be 1903 a3bc 8af9 5b3c 15a8 29be
000003c0: 162c f9bd c189 1cbe 966f ccbd 2980 bb3c
000003d0: f6fd fabd 1dde 72be 23c4 3cbe b302 4dbe
000003e0: f552 a23d 61c4 a6bc 0372 10be 16e6 48bd
000003f0: 6b1f 1abe 5415 26be 04b8 7d3d 6368 bbbd
0.036088664 -0.068086356 0.04856166 0.115901686 0.063790366 -0.10967839 0.053955533 -0.015229287
0.03862908 -0.123104386 -0.19303308 -0.10279893 -0.16294886 0.0933431 0.0027709873 0.022619382
0.005475485 -0.047577836 0.08918166 -0.17321593 -0.033858474 -0.099916086 0.049823295 -0.08909022
0.050458796 -0.039465655 0.119647756 -0.10136171 -0.10799325 -0.11018572 0.1323331 0.01987648
0.12977782 -0.17111768 -0.17898476 -0.14657639 -0.08616624 0.08758487 0.050788186 0.17703919
0.00061043975 -0.0764549 0.14145508 0.015794886 0.17273983 -0.03869075 0.07741068 -0.16923776
-0.04292995 0.0937335 0.06283084 -0.02314393 0.13638076 0.1468896 -0.16470824 -0.18885376
0.13061978 -0.11135585 -0.19205809 -0.22785704 -0.1887642 -0.10699348 -0.089345925 -0.14896093
-0.12331307 -0.21558644 0.09182241 0.11755481 -0.03950371 -0.14220734 0.2815555 0.13888559
0.14532182 -0.08723127 -0.071470365 0.040337067 0.116548285 0.023980537 -0.16364154 -0.04368389
0.035972103 -0.007377862 0.033016928 -0.05082376 -0.0742979 -0.017483218 0.022931948 -0.12280938
0.21081853 0.040591385 0.13795426 0.055934243 -0.17370175 0.113861546 -0.015875708 -0.02392582
-0.110559694 -0.13691257 0.07718074 0.017891599 0.2614377 -0.08802766 -0.024563123 -0.099156894
0.11611791 0.16284281 0.21349986 0.22039706 0.25663397 -0.0094331205 0.0966318 0.017289406
0.12426522 -0.12022958 0.18705036 -0.08643498 0.09003438 0.15079698 0.14273739 -0.08752047
0.2052487 0.10869352 0.008279811 -0.14744566 0.07950499 -0.10509374 -0.13287793 0.06386335
0.03967365 -0.19341387 -0.15445349 -0.11757582 -0.026667606 -0.11237553 -0.15433146 0.17904203
-0.015871251 0.18180773 0.32216758 -0.053502284 0.26814526 0.23699002 -0.008416523 0.25258672
0.14720608 0.11623736 0.07772578 0.039426435 0.034147758 0.042454302 0.04457897 0.022820828
0.1580444 0.1840582 -0.0037145729 -0.026795985 0.08672912 0.067328416 0.0875158 0.096230485
-0.12493683 -0.052988295 0.199908 0.07984577 0.11683781 -0.10675558 -0.11264264 -0.16970715
-0.16873449 -0.016982447 0.0702739 0.13358891 -0.28419253 -0.008620394 0.23202537 0.15592065
0.1433884 -0.14241084 -0.026992729 -0.08456455 -0.077581845 0.19236825 -0.048790168 0.038256753
-0.06201333 0.1633307 0.18385834 0.17019953 -0.0354816 -0.12950689 -0.07921882 0.15132381
0.1411569 0.24370135 0.13814205 0.10063726 0.08576675 -0.07727896 -0.05271239 -0.21368146
0.1867897 -0.024206085 -0.077179134 -0.061179116 -0.037270125 -0.27996337 -0.19386616 0.24614988
-0.22070312 0.10291561 0.19735827 -0.10868026 0.15267321 -0.11735673 -0.1172532 0.0073442445
0.21960984 -0.022395426 0.13001786 0.10688201 0.16164753 -0.13196276 0.11416677 -0.094940186
0.02048637 0.21018353 0.018220631 0.007821842 -0.038122606 -0.14240053 0.045082614 -0.20983626
0.049356654 0.055936947 0.061859474 -0.13079776 -0.12893696 -0.019898938 0.013426194 -0.16568024
-0.12166612 -0.15286924 -0.09982221 0.02288826 -0.122554705 -0.23717542 -0.18434195 -0.20020561
0.07925979 -0.020357313 -0.14105992 -0.049047552 -0.15051048 -0.16219074 0.06194307 -0.091507696

features_extractor.encoder.conv.2.bias f4 [8]
00000000: 3d4e 32be 56ad a2bd 145f 343e d025 17bb
00000010: d3b3 05be f314 f3bd ea46 f63c d8e5 fdbd
-0.17412658 -0.079432175 0.17614394 -0.002306331 -0.13056879 -0.1186923 0.030063111 -0.12397355

features_extractor.encoder.conv.4.weight f4 [16, 8, 3, 3]
00000000: cfb8 95bc 5e86 ac3d baa4 ecbc 3293 46bc
00000010: 5929 6b3c a736 53bc 1210 91bd 09f5 b9bd
00000020: 5861 87bd c3ad d1bd 6bf0 203e 81a6 95bd
00000030: 27b9 8fbd b4d4 c93d afb3 8f3b 23f7 343d
00000040: 71a1 f43d cfc6 04bd c7ce c4bd 59cf d53b
00000050: a698 de3d fd22 9b3d f23d cebd 03b1 bc3c
00000060: 3c8c 8dbd 9a2a 0bbe cdc3 eebd 3d6d debd
00000070: d63a 7e3d 28f6 873c d0df 99bd d800 aebd
00000080: e814 a9bd 8dc0 b4bd f6f2 2c3e bf57 963d
00000090: 0871 0bbe dc2a dd3c 4dce f3bd 3814 afbd
000000a0: f6a1 793d 3d25 973d 3260 8e3d c40b 08bd
000000b0: 66ce 933d 66f0 f9bd 72b1 cb3d 71f3 ab3d
000000c0: 9e05 41bc e00a 513e 5162 afbd b35b 963b
000000d0: 923b e13d b42b 0abe 0a71 eebd 9a7f 0abd
000000e0: 66af c93d 65c6 cf3d e3db bf3c 2c38 abbd
000000f0: 7498 1abe 72d9 383d b928 b03c 72e0 5ebd
00000100: 3e10 07bd 9301 a33d 18d0 193c 503c ae3b
00000110: 2c98 edbc 8492 dabd 90f0 e2bd 20bf 66bd
00000120: 92a8 36bd 3f9d 833d 5db0 78bc 2e86 24bd
00000130: d76d 003e 5718 673d cf2a a73d 6b0e 45bd
00000140: a76c 34bd 2d88 cb3d 1cbd d6bc 2825 9ebd
00000150: b0c6 80bd 280b b03c 2daa d43c 4377 30be
00000160: 31b8 4d3d bf7d 99bb e674 4c3c 610c 1dbe
00000170: f9a1 a0bd e7c6 a8bc 9cb2 973d 35f5 0abc
00000180: 229a 49bd 73a5 803d aa0b a8bd 2a86 6abc
00000190: 8afc 213c ba07 ad3d 7929 9abd 4435 b93d
000001a0: 663b 25bd 28b8 06bd 0091 bdbc 2390 ae3d
000001b0: 74d6 063e 0a4b 0f3d dc96 c5bc 981c 0d3e
000001c0: 94d0 3a3e 5d0c bebd cdd5 9dbd 0788 babd
000001d0: 8db5 74bd 57e6 9b3d 3a81 143e a67c 5fbd
000001e0: f2f0 6dbc 0548 2e3e 2133 523d 23d2 31be
000001f0: 9c83 52bd 714d 473d 065a b73b dfe7 41bd
00000200: 913e f23d 5917 e9bd e877 6dbd bb88 dfbd
00000210: 3e46 043d 2ada 4f3d 4713 b93d 35ae 8d3d
00000220: ab55 b63d 3439 81bc 72cd 84bd 7e31 713d
00000230: e222 7abd 91e2 a2bd fa25 1abd 149b ca3c
00000240: 90e3 253d 855b 58bd 6f58 52bd 78e4 193d
00000250: 90b0 90bd 51ac a0bd 0658 813d c751 9fbc
00000260: 27d9 ed3d 7a29 b23b 6392 953d 7f0c 223d
00000270: e63c 91bc 2c94 883d 699b 5f3d 2c4b 5a3c
00000280: 8450 9abc e433 e13d 808f 27bd f455 b3bd
00000290: 5405 b53c be27 7cbd 29c3 a83b 4a87 d23c
000002a0: 5240 f93d e02b ad3c 4918 94bd ef7b d83c
000002b0: b747 adba ca09 433d 0355 99bd 7372 26be
000002c0: e6e9 0d3e 999d 39be db9c bdbd 527c bcbc
000002d0: c1ff 073e fec5 35bd 08b6 d13d b36d f9bd
000002e0: a774 163b 181f f33d 9dfe 33bd 237e c53d
000002f0: 1339 363e 422e 55be 6758 423d cfca 603d
00000300: 0e31 dfbd 4460 513d d346 b73d 61b1 f7bc
00000310: 0b9f 95bb 1990 083e 3ff2 373e 2d52 ff3c
00000320: b681 a5bd 0b6f 653c 8009 a9bd 06de 2e3e
00000330: eb4b 13be 57be a13b 2444 343d 9ccd ab3c
00000340: 2720 e33d 5878 373c 59c9 8b3d 2159 bb3d
00000350: 17da c23d 1cb5 26bd 20ed d7bc e2a3 683d
00000360: 9709 9abc 3f29 b53d b1bb 72bc 8309 aebd
00000370: 51d7 2c3d 473d 703c de72 2a3d 22a0 e73d
00000380: baa1 8f3d e2eb 613e 3c19 c23d fdd8 cdbd
00000390: bdb6 d7bd 98aa 2b3c f312 06be 0ce8 acbe
000003a0: d7f3 56be a61f 29be 1034 843d 7de1 f0bc
000003b0: 09b0 acbd 8ad4 1b3d ba25 463e b609 e4bd
000003c0: 98eb 3cbd ea76 273e 60b0 5cbc 8410 a1bd
000003d0: 164d a43d 4f03 34be 9d44 dd3d 1d71 583e
000003e0: 0c96 ec3d 89e0 53bd 02ef e0bd 67a3 493d
000003f0: 68ea 86bd 8fcd 62bc d764 01be 3835 583e
-0.0182766 0.08424066 -0.028887141 -0.012120055 0.01435312 -0.012891448 -0.07083143 -0.0907994
-0.06610364 -0.102382205 0.15716712 -0.07307149 -0.07017737 0.09855023 0.0043854336 0.044181
0.11944855 -0.03241616 -0.09609752 0.006524962 0.10868959 0.07575033 -0.10070409 0.023033625
-0.06911513 -0.1359047 -0.1165844 -0.10860679 0.06206783 0.016596869 -0.07513392 -0.08496255
-0.08255941 -0.08825789 0.16889557 0.07340955 -0.13617337 0.026997976 -0.11904583 -0.08548778
0.060945474 0.073801495 0.069519415 -0.033214346 0.07217102 -0.122040555 0.099459544 0.08396042
-0.011781124 0.20414305 -0.08563674 0.004588568 0.1099769 -0.13493234 -0.11642654 -0.033813097
0.09847908 0.10145263 0.02342028 -0.08360323 -0.15097219 0.045129247 0.021503793 -0.054413266
-0.032974474 0.07959285 0.009387992 0.0053172484 -0.029003225 -0.10672477 -0.1108104 -0.056334615
-0.044594355 0.06426477 -0.015178767 -0.040167026 0.125419 0.056419697 0.08162462 -0.048109453
-0.04404893 0.09938083 -0.026213221 -0.07721931 -0.06287897 0.021489695 0.025960052 -0.17232995
0.050224487 -0.0046841796 0.012479043 -0.15336753 -0.07843394 -0.020602657 0.07407114 -0.0084813135
-0.049219258 0.06281557 -0.0820535 -0.014314214 0.00988687 0.08448739 -0.075274415 0.09043363
-0.04033985 -0.03289047 -0.02314043 0.08523586 0.13167745 0.034983672 -0.024119787 0.13780439
0.18243629 -0.09279702 -0.07706795 -0.091079764 -0.059743453 0.07612293 0.14502421 -0.054562233
-0.014522778 0.17019661 0.05131829 -0.17365317 -0.051395044 0.04865784 0.0055954484 -0.04734027
0.1182834 -0.11381406 -0.05797568 -0.10914751 0.03229355 0.050745167 0.0903688 0.06917993
0.089030586 -0.015774347 -0.06484498 0.05888509 -0.061068423 -0.0795337 -0.037633874 0.02473215
0.040500224 -0.052821655 -0.051353868 0.0375714 -0.070649266 -0.07845367 0.06315617 -0.019448174
0.11613684 0.0054370733 0.07303312 0.0395627 -0.017729234 0.066688865 0.05459157 0.013323586
-0.018837221 0.109962255 -0.040908337 -0.08756629 0.022097267 -0.06156134 0.005150218 0.025699276
0.12170471 0.021139085 -0.072311945 0.026426284 -0.0013220225 0.047616757 -0.07486918 -0.16254596
0.13858756 -0.18126525 -0.092584334 -0.0230085 0.13281156 -0.044378273 0.10239798 -0.121791266
0.0022957714 0.11871165 -0.04394399 0.09643199 0.1779521 -0.20818427 0.04744759 0.054880913
-0.10898028 0.051117197 0.089490555 -0.030235948 -0.0045660785 0.13336219 0.17963503 0.031167114
-0.08081381 0.0140035255 -0.08253765 0.17076883 -0.14384429 0.0049360204 0.044010296 0.020972066
0.11090117 0.011198126 0.068255134 0.09147859 0.095142536 -0.040700063 -0.026358187 0.056796916
-0.0188034 0.08845758 -0.014815257 -0.08497908 0.04219753 0.014663047 0.041613452 0.1130984
0.07013269 0.22062638 0.09477469 -0.10051153 -0.105329014 0.010477684 -0.13093166 -0.33770788
-0.20991455 -0.16515979 0.06455243 -0.029404396 -0.084320135 0.03804449 0.19350329 -0.11134665
-0.046123117 0.16353956 -0.013469785 -0.07864478 0.080225155 -0.17579387 0.108041026 0.211369
0.11552057 -0.051727805 -0.10983087 0.0492281 -0.06587678 -0.013842954 -0.12636124 0.21114051

features_extractor.encoder.conv.4.bias f4 [16]
00000000: 05f3 cfbc 0d89 ab3d 7cdd 01bd 8eee 1fbd
00000010: ee3c 8fbd 6dcc 24be bb1e ecbd 2884 17be
00000020: 825f d4bd a578 3f3a 2479 b1ba 5178 013e
00000030: 9fec a53d beb5 87bc a924 c13c 9dae 45bd
-0.025384435 0.0837575 -0.031705365 -0.039045863 -0.06994043 -0.16093607 -0.11529299 -0.14796507
-0.10369779 0.0007304049 -0.0013540131 0.12643553 0.081017725 -0.016566154 0.023577051 -0.048262227

features_extractor.encoder.conv.6.weight f4 [32, 16, 3, 3]
00000000: d010 dd3d 3761 89be 7bfb 863d be61 9c3d
00000010: d94d a7bc c80a 0c3e de32 cabd 37b6 1e3d
00000020: 7401 d5bd 68f9 b43d 9df7 26bd 63ee 173d
00000030: f4d7 bb3d 840d 9bbc 0fd6 523d 1ea3 e53b
00000040: 984b c23b 78fe 5d3d 8b62 193d bc92 c5bc
00000050: 8caa 0bbe b4a8 5f3d 5fdb 843c b3a0 81bd
00000060: 0c7c b73a 4c7d 7bbd 319d 163d 50b5 373e
00000070: 4201 ad3c 4cc2 253e de8b 3fbd 7e66 393b
00000080: 2c84 263e cd44 183d de9e 083e 57a9 453e
00000090: bed8 503d 5dce 88bd 0436 c93d b245 b23d
000000a0: a4be 473d 1815 0a3e 58e2 703c 9f76 613d
000000b0: 0c8f f0bd 7234 7bbd 74c5 14be 4798 fabd
000000c0: 9ed8 f4bc 63dd 45bc 4ac1 d2bc e0e8 723d
000000d0: 3df4 38bd 2a88 23be 55b1 2b3d eabc 8cbd
000000e0: a060 203b 5400 de3d fe74 c6bb d039 49bd
000000f0: 2067 033e 2fb4 863d c561 5ebd 7497 c53d
00000100: 38f1 81be 61e2 8ebc ac52 8e3d 8b94 87bc
00000110: 6e31 ed3c 023b 75bd a855 983c 34f1 893c
00000120: 6921 aabd 1014 c5bd b578 3fbd 8ed0 223d
00000130: 2e9f 15be 7a12 22be 40ec b1bb 14b6 0e3c
00000140: c57e 703d 980f c13d 90d6 febd 938d 47bb
00000150: ed3f 923d a88f c0bc e306 e13d c78f 643d
00000160: 1077 22bd 0c2a 0cbe a99d b53c 3323 35be
00000170: 4f11 c9bc 66e6 00bd 4592 bdbd c4c2 1e3e
00000180: 8df4 d3bd 7f77 5b3d 5482 49be 2b5f 8cbd
00000190: e8fd e6bd 33c8 053e 033e bcbd fc00 bdbd
000001a0: f578 bc3d 2776 07be 649c 5dbd ad2c a73d
000001b0: e1b7 00bd 27d4 25bd 2ea5 b43d 4904 03be
000001c0: d035 2ebd 2d37 a73b 54dc 973d 1c91 703b
000001d0: f8a7 7ebd e774 97bd 2d08 df3c c3d8 8cbd
000001e0: cb35 59ba de13 94bd 0ef4 3dbd ad14 16bd
000001f0: 8c5f ae3d 9842 153e 55b3 2f3e 6e71 12be
00000200: 9b74 fcbb 1d8e 323d 4022 1abd 540b 2a3d
00000210: 2399 83bd 43db 473d 93a9 db3d cd69 403d
00000220: 3785 4abc 5a34 b63d 4382 83bd 17ec c03d
00000230: 9884 173d 5b02 1fbe c493 79bc 9506 3ebd
00000240: 6892 3b3d 6650 11be 8acd eabc 4684 5fbc
00000250: c964 ac3c 46f3 33be 6bcf 923d beda b1bb
00000260: 9667 8cbd eb54 32bd 4afc 63bd c469 11bd
00000270: 991a 583c 0a4a 40bd dddc 983d 94bd 323d
00000280: 18c9 d93b 3c0a bdbd e2da 21be 7859 05bd
00000290: a844 7e3d a0c3 c7bb b21c a7bd 5e9e 333c
000002a0: bb32 d43c a2d6 7b3d af64 b93d 8a61 423e
000002b0: 7593 bd3d 89d2 e6bd 8081 183b 89cd 16bd
000002c0: c37f 4a3c 41d7 263e 1f3e 6b3e 9dff 92bc
000002d0: 1b6f ce3d 3e4a 44bd 505a 38be 021d ac3c
000002e0: ff31 98bd f4a2 f0bd 20e3 68bd d5be 673d
000002f0: f5b2 503d 6329 44bd 7ea1 7cbe 4246 12be
00000300: 59e1 26bb ba2c c9bd cc73 e0bd 8fd3 73bd
00000310: 42ef e7bd 6490 d23d 8363 c73d c29f fbbd
00000320: dcef 0cbd 8ccc b63d 7ea5 e93d 27cd 87bc
00000330: 2bb3 1ebd f711 3d3e f6bc 69bd 7b6c c93d
00000340: 2210 1dbe 563b ba3c c245 f63d 0ffe 47be
00000350: ceb3 4ebd 466b 0b3d be8e ba3d 08c2 c3bd
00000360: 8570 273a 573a be3d 774e 91bd 8f18 57be
00000370: 1b2e bcbd 9b37 963d 5da7 883e 7479 4cbe
00000380: 6a7a 993d 9361 963c 98e6 d0bd e789 b93a
00000390: ad4f a73d f540 6abd b59d 35be d8ee 3d3d
000003a0: a611 cc3d 901e 51bd 0c44 4fbd ec2a 9bbd
000003b0: 09a8 34bc 1eaf 8c3d ac37 a6bd b40e 97bd
000003c0: 27df 4c3d 015e ee3d 2bb6 4c3d 7b85 053e
000003d0: e6ab 00be 67c2 81bd 6b1c 223d a69a 21bd
000003e0: 7374 c9bd 515f 853d b8e9 603c 5c95 31bd
000003f0: aa5b fa3d 1daa d2bc 15ac 6d3d db9e b03b
0.10794222 -0.26831982 0.06590935 0.0763583 -0.020422863 0.13675988 -0.098729834 0.038747992
-0.10400668 0.08836633 -0.040763486 0.037092578 0.09172049 -0.018927343 0.051473673 0.0070079705
0.0059294216 0.05419776 0.037447494 -0.02411782 -0.13639277 0.054604247 0.016217886 -0.06329479
0.0013998761 -0.06139879 0.036771003 0.17940259 0.021118764 0.161874 -0.046764247 0.002828985
0.16261357 0.03717499 0.13341853 0.1930288 0.05098795 -0.06679986 0.09824756 0.087046996
0.048765793 0.13484609 0.014702402 0.055044767 -0.11746034 -0.061329313 -0.14528447 -0.12236076
-0.029888447 -0.0120767085 -0.025726933 0.05930412 -0.0451548 -0.15969911 0.041917164 -0.0687197
0.0024471655 0.10839906 -0.006056427 -0.0491274 0.12832308 0.06577336 -0.05429246 0.09648028
-0.25379348 -0.01744193 0.06949362 -0.016550323 0.028954234 -0.059870727 0.018595532 0.016838647
-0.08307154 -0.09622967 -0.046745975 0.039749674 -0.14611503 -0.15827361 -0.0054297745 0.008710403
0.058714647 0.094268024 -0.12443268 -0.0030449375 0.07141099 -0.023506 0.10987642 0.05580118
-0.039664328 -0.13687915 0.022169905 -0.17689209 -0.024544386 -0.031469725 -0.09256414 0.15503985
-0.10349379 0.053580757 -0.19678622 -0.06854089 -0.112788975 0.13064651 -0.09191515 -0.092287034
0.09202758 -0.13228665 -0.054104224 0.08162818 -0.03142536 -0.040485527 0.08820568 -0.12794603
-0.04253179 0.005103013 0.07415071 0.0036707586 -0.062171906 -0.07395344 0.027225578 -0.068772815
-0.0008285909 -0.07230352 -0.046375327 -0.03664081 0.08514318 0.14576185 0.17158253 -0.14301082
-0.00770433 0.04359256 -0.03763032 0.04151471 -0.06425693 0.04879309 0.10725703 0.0469759
-0.012360862 0.08896704 -0.0642133 0.094200306 0.036991686 -0.15528242 -0.015232984 -0.046392996
0.04579392 -0.14190826 -0.028662462 -0.013642376 0.021044152 -0.1757327 0.07168468 -0.0054276874
-0.06855695 -0.043538015 -0.055660523 -0.035501257 0.013189935 -0.04694561 0.07464001 0.043637827
0.0066462867 -0.09230468 -0.15806153 -0.032556027 0.062077194 -0.0060963184 -0.0815977 0.010963051
0.025903096 0.061483987 0.09052407 0.1898252 0.09256641 -0.11270625 0.0023270547 -0.036817107
0.012359562 0.1629305 0.22972916 -0.017944152 0.100797854 -0.047922365 -0.18003201 0.021009926
-0.07431411 -0.11749831 -0.05685723 0.056578476 0.050951917 -0.047891032 -0.2467098 -0.14284614
-0.0025463908 -0.09822984 -0.109595865 -0.05952793 -0.11324932 0.102814466 0.09735777 -0.12286331
-0.034408435 0.08925733 0.11408518 -0.016577316 -0.038745087 0.18463884 -0.057064973 0.09835144
-0.15338185 0.022733372 0.12025024 -0.1953051 -0.050464444 0.03403785 0.09109257 -0.09558493
0.0006387311 0.09288471 -0.07095044 -0.21005462 -0.091884814 0.07334825 0.26690188 -0.19968206
0.07494052 0.018357074 -0.10200232 0.0014155478 0.08169494 -0.057190854 -0.17735942 0.046370357
0.09964304 -0.051054537 -0.050602004 -0.07576546 -0.011026391 0.068693385 -0.08116087 -0.07375851
0.050017502 0.116390236 0.049978416 0.130392 -0.12565574 -0.063359074 0.039577883 -0.039454125
-0.09836664 0.06512321 0.013727598 -0.04335533 0.12224515 -0.025715882 0.05802544 0.005390031

features_extractor.encoder.conv.6.bias f4 [32]
00000000: e62b dbbc 1bd0 82bd 067a 213c 393b cbbd
00000010: e83b 92bd 5b23 803d fffd 13bc 7eb1 98bd
00000020: 982f c9bd 2542 10be ee53 95bc 5c57 4cbe
00000030: 7883 42bd e8d0 f3bc 2c44 92bd 788e cc3c
00000040: cc16 a9bd 2862 0dbd 82a8 a2bd df98 a3bc
00000050: 2aa2 563e c455 07bd 6ebb bfbd bcb5 30bc
00000060: d549 b7bc 250c bebb 3f4e f7bc a151 81bc
00000070: 2251 003c d513 07be a757 2ebd d178 52bd
-0.02675433 -0.06387349 0.009855753 -0.09923405 -0.071403325 0.062567435 -0.009032725 -0.07455729
-0.09823531 -0.14087732 -0.018228497 -0.199552 -0.04748866 -0.0297627 -0.07141909 0.024970278
-0.08256301 -0.034517437 -0.079422966 -0.019970356 0.20960298 -0.033040777 -0.09361921 -0.010785516
-0.022374073 -0.0057997876 -0.030188678 -0.015785994 0.007831844 -0.13191159 -0.04256406 -0.05138475

features_extractor.encoder.conv.8.weight f4 [64, 32, 3, 3]
00000000: 9b77 363d f2d5 acbd 9138 a53c 5c8d 9fbd
00000010: c8c4 4ebe 1ada 31be 9c5d 0bbe 9ea5 a93d
00000020: 1cba a4bd a9a1 3fbe d708 0c3d f92e abbc
00000030: 6cde d0bd 2f56 ec3b 66f1 d4bd 40ff 613d
00000040: 7a72 bcbd daea c0bd fe03 08be 0da7 98bd
00000050: 8861 6abd 3225 2abe 38ae 3dbe e45c 293d
00000060: 0166 ce3d 9d70 033e 1413 a5bd 4c88 a93b
00000070: 1ca4 58bd fe74 00be e986 71be c4d3 993e
00000080: c8f9 953d 5464 b1bd a688 1c3e 4497 aa3c
00000090: 282f 273e 73e4 c93c 4225 ee3d 43b8 8cbd
000000a0: fa03 2ebe a16d 213d 5688 98bd 6cf5 94bb
000000b0: 2e15 15be 409e 21bc b32f 0cbe cb15 ddbc
000000c0: 16d6 c5bd 6d44 36bd fa2f f9bd 8a78 b2bc
000000d0: 29be 903c cdd4 0ebe fd17 373e 31b0 c4bc
000000e0: 395d 283e 97e4 cdbd 5f45 44be dc75 a33d
000000f0: d576 36be 1703 3ebe ddfe 10be 9d5c 233e
00000100: ddc7 793c 577d 313d ae3a 47be fa1c 1abe
00000110: 23d5 40bd 8b76 9abd b865 66bb 4f0e d9bd
00000120: c38c c5bd d287 cc3d 7710 01be 77ac 67bd
00000130: 52d9 abbd 6fcc b63d 77ee 693e a957 d53d
00000140: 9e86 003d ac53 043b 0fda 5dbc 64e1 b03d
00000150: 26ec fcbd 8273 cfbd 29f5 6f3d b466 b43d
00000160: e853 873c a60e b3bd 5839 8e3d 0ee2 df3d
00000170: 3168 d43d 43ea 34be d225 303e 7635 91be
00000180: c466 37bd e57f 943d 2b2e 1fbe 2143 723d
00000190: 2894 9dbd 3046 f83d 4634 30bb 27db 30bd
000001a0: 947b 6dbc d76b 803c 5ac5 573d 5a84 63bd
000001b0: 2ce3 8dbd 3320 de3c 0b18 a6bc 7bf9 0d3c
000001c0: 4019 533d 4dcd 54be aa85 663d 27da 26be
000001d0: 7b79 f3bc 7274 10be eb5d 11be 2b76 8dbd
000001e0: 3fde 2cbd 9a1c fbbc 23b9 3ebe 7920 70bd
000001f0: 03d0 183d b698 a8bc ae6e 6e3d 4a39 163d
00000200: 64d3 723d ba73 92bd 7238 70bc 19df 6d3b
00000210: 7787 383d 0d2b 82bc 4401 07bd 13ec f8bb
00000220: f176 75be eeae 9bbd f316 aa3c 1711 36be
00000230: 54c1 0f3a 2db6 90bd 4cd0 8bbd 7266 31be
00000240: d4c5 d63d de26 d1bb dcee bcbc b7d8 14bd
00000250: b184 3cbe bea8 27bc 89e9 2ebe 5651 913d
00000260: 1f9c 0dbe 0027 c4bc 9128 fabd 0104 dcbd
00000270: f933 84bc 0db9 34bd 6c09 dbbd 94bb 843d
00000280: 6ab4 c0bb 34dd 55be e63c 3abc f43b 9dbd
00000290: d427 a73d c846 1ebd 87f6 bbbd ec1a 7dbd
000002a0: 7175 a43c e95e 84bc 9d38 3cbe 4298 b8bd
000002b0: 49f8 a33c 52d3 9abd 96b5 8fbc 6715 383e
000002c0: 21a8 13be 95bd e7bd 3655 763d 3e2a 8bbd
000002d0: 0f59 aabd c0d7 eebd abec e9bd 0288 72bc
000002e0: 07af 093d 923a c9bc 9d35 1cbe 5cd3 18be
000002f0: d7a2 e5bc f2da 373d c0b3 143d 68a5 6d3e
00000300: 162d 92bc e1f7 debd 314d a6bd b943 733d
00000310: 7f79 73bb 38c7 bb3c fc73 893d 47ad aebc
00000320: 7417 3b3e 0007 c03c dcb3 56be 33a7 643d
00000330: a5c7 a33d 0fec 003c ed97 d83b 337d eebd
00000340: a317 24bd 45cb 2fbd 0099 18be 66e9 e4bd
00000350: 0aa8 a1bd 14a6 cf3b b74b f7bc 7710 08be
00000360: db08 203d 9a86 82bc a246 29bd b93b 28be
00000370: 4736 a6bd 556a 2cbc 13fc abbd 37a7 d4bc
00000380: 81ae b7bc d48d bd3d c408 233d 70cc b53d
00000390: f77b 8ebd fcad 8abd 4d53 09be bc9b f6bd
000003a0: 23ec 35bd efa1 a9bd 1150 723c cb07 40ba
000003b0: dbd8 bc3d ade3 97bd a568 37bd 7e31 0fbe
000003c0: c187 debd dc6e f3bd 0904 62bd b5d6 1c3e
000003d0: 709e f0bc c11e b43d b26a 6dbe b372 773c
000003e0: 1874 bfbd d5d1 0cbe 3145 c63b 13a7 23be
000003f0: 92e4 283d 3d63 b3bc 6ed9 2d3c e350 16bd
0.04454766 -0.08439244 0.020168575 -0.07790634 -0.20192254 -0.17368355 -0.13609928 0.08283542
-0.0804331 -0.18714012 0.034188118 -0.020896422 -0.101986736 0.0072124223 -0.103976056 0.055175066
-0.09201522 -0.094197944 -0.13282773 -0.074537374 -0.05722192 -0.16615751 -0.1852349 0.041348353
0.100780495 0.12835927 -0.080602795 0.0051737186 -0.052890882 -0.12544629 -0.2358662 0.30044377
0.073230326 -0.08661714 0.15286502 0.020824082 0.16326582 0.024645066 0.116282 -0.06871083
-0.16993704 0.03941119 -0.07447879 -0.004545858 -0.1455886 -0.00986439 -0.13690071 -0.02698793
-0.09659974 -0.04449885 -0.12167354 -0.021785993 0.0176688 -0.13948365 0.17880245 -0.024009796
0.16441812 -0.10053366 -0.19167088 0.07981464 -0.17818768 -0.18555866 -0.14159723 0.15953298
0.015245405 0.043332424 -0.19455978 -0.15050116 -0.047078263 -0.075421415 -0.0035155844 -0.10598432
-0.09645989 0.09986843 -0.12603937 -0.05656096 -0.0839106 0.08925711 0.22844873 0.104171105
0.03137838 0.0020191474 -0.013540759 0.0863674 -0.12349729 -0.10129453 0.058583412 0.088086516
0.016519502 -0.08743028 0.06944531 0.109317884 0.103714354 -0.17667489 0.17201927 -0.283611
-0.04477574 0.072509564 -0.15544955 0.05914605 -0.07694274 0.12122762 -0.0026886626 -0.04317775
-0.014494795 0.015676422 0.052678443 -0.055546142 -0.06928095 0.027114963 -0.020275136 0.008665438
0.051537752 -0.20781441 0.056279816 -0.16294156 -0.029721012 -0.1410692 -0.14195983 -0.069073044
-0.042204138 -0.030653287 -0.18625312 -0.05862472 0.03730775 -0.02058063 0.05821102 0.03667573
0.05928363 -0.07150979 -0.014661895 0.0036296307 0.045051064 -0.015889669 -0.03296019 -0.0075965016
-0.23971154 -0.076017246 0.020762896 -0.17779957 0.0005483825 -0.07065997 -0.06826839 -0.17324236
0.104869515 -0.006382807 -0.023063116 -0.036339488 -0.18409993 -0.010233102 -0.17081274 0.07095592
-0.13829087 -0.023944378 -0.12214769 -0.10742951 -0.016138064 -0.04412179 -0.106951565 0.0648109
-0.005880882 -0.20885164 -0.011367058 -0.07677451 0.081618935 -0.03864172 -0.09177881 -0.061793253
0.020075532 -0.016158538 -0.18380971 -0.09013416 0.020015853 -0.075598374 -0.017542642 0.17976914
-0.14419605 -0.11315457 0.060139857 -0.067951664 -0.08317768 -0.11662245 -0.11422094 -0.014802935
0.033614185 -0.024564061 -0.15254827 -0.14924377 -0.02803175 0.044886537 0.036304235 0.23207629
-0.017843764 -0.10887123 -0.08120192 0.059390757 -0.0037151275 0.022922143 0.067115754 -0.02132286
0.18270665 0.023440838 -0.20967048 0.055823516 0.079970635 0.007868781 0.006609908 -0.116449736
-0.040061604 -0.042918462 -0.14902115 -0.1117733 -0.07893379 0.0063369367 -0.03018747 -0.13287531
0.039070945 -0.015933324 -0.041327126 -0.16429032 -0.08115821 -0.010523398 -0.08397689 -0.02595864
-0.022422077 0.09255567 0.03980328 0.08876884 -0.06957238 -0.06771466 -0.13410683 -0.12041423
-0.04441465 -0.082828395 0.014789597 -0.000732538 0.092210494 -0.074164726 -0.04477753 -0.13983724
-0.10865737 -0.11886379 -0.05517963 0.15316279 -0.029372424 0.08794928 -0.23185232 0.01510303
-0.09348315 -0.1375192 0.0060507287 -0.15981703 0.041233607 -0.021897906 0.010610921 -0.036698233

features_extractor.encoder.conv.8.bias f4 [64]
00000000: 86b4 36bd b272 9ebd 7a0f 19bc f7ed c8bb
00000010: 9cfd 1b3c e4bc d83b 89dd b5bd 0d30 c43b
00000020: 834d 23bd 9d07 0ebc 1204 6abd e501 833a
00000030: 1dff 973b 6f35 f0bc cc90 91bd 0595 2e3d
00000040: 7a5d 4dbd 3620 c9bd 9d20 4fbd dfe9 d1bd
00000050: c76a d5bc 0d01 703a d2ac dfbd c2e2 f5bb
00000060: eb40 f2bb 8331 c83c 088c 30bc b825 b63c
00000070: 5c3a f0bc d594 633d 0a6f 86bd 39f7 0a3d
00000080: 7841 1bbd f487 a7bd 47b5 27bd 933c c7bc
00000090: 3510 80bd dd0c a03d cfce e0bc b1a6 5dbd
000000a0: d659 f4bc d630 f83a c9f9 31bc 6767 99bd
000000b0: a0cf 90bb 3c2e 3b3b 6b3f ecbc 0841 12bd
000000c0: 918a 0fbb 968a 66bd 588c 243d afbc 11bd
000000d0: 2348 7fbd 7e2a 90bd 0381 09be 97df 9fbd
000000e0: 07c2 c9bc b538 a4bd 1780 d1bd adb1 f33d
000000f0: 2af3 f8bc 06b0 1ebd 9308 eabc 7e0b 743d
-0.044605754 -0.0773672 -0.009342069 -0.0061318832 0.009520914 0.0066143144 -0.08880145 0.0059871734
-0.039868843 -0.008668807 -0.057132788 0.0009995071 0.004638566 -0.029322354 -0.07107696 0.042622585
-0.050137974 -0.09820597 -0.05056821 -0.102496855 -0.026051892 0.000915543 -0.10921635 -0.0075038383
-0.0073929927 0.024437672 -0.010775574 0.022234783 -0.029324703 0.05556186 -0.06564148 0.033927176
-0.037904233 -0.08180228 -0.040944364 -0.024320876 -0.06253091 0.078149535 -0.027442364 -0.054114047
-0.029827993 0.0018935453 -0.010862776 -0.074904256 -0.004419282 0.0028561493 -0.028838834 -0.03570655
-0.002190266 -0.05628451 0.040172905 -0.035580333 -0.062324654 -0.07039355 -0.1342812 -0.07806318
-0.024628652 -0.080186285 -0.10229509 0.11899123 -0.030389387 -0.038742088 -0.028568542 0.059581272

features_extractor.encoder.conv.10.weight f4 [128, 64, 3, 3]
00000000: 6059 ae3a 869a 74bc 068b ecbc 803b ed3b
00000010: e10a b83d 6a6f 13be 3019 37bc 2a34 6b3d
00000020: 0139 37be c024 2abb f889 a4bc aaf8 c13c
00000030: 44b7 2e3c 5fb7 22bc 730d 2a3d 360e 43bc
00000040: 7347 983c 9fc8 3f3d 36ff dd3c d8f3 a03b
00000050: 731c 103d a0ba f63a 453a 033d 734e 91bd
00000060: c151 063d 55a2 c9bd 6f73 e83d 54c7 2e3c
00000070: 1024 8c3c 26b4 a8bc 8753 21bd 0b77 203c
00000080: 1a6d 823c 7c7a 553c 1c2a e93c 93fb be3c
00000090: cedd 13bd 26f5 c9bc 68a9 a5bb 8b4c e8bc
000000a0: 0aed 553d f9cd ee3c b648 e53c 40b2 29bd
000000b0: 8cb3 913c abf5 25bd 58f9 85bb 60e5 35bc
000000c0: c097 8d3b 4122 d13c 667f ac3d 6065 e9ba
000000d0: 9885 dd3d 3446 5a3d 6388 babc 8046 89bb
000000e0: 584e 98bb e32f a6bc abbb 393d 1b13 8cbd
000000f0: 49e7 213d 6e3d bb3c a0b2 ffbd da56 d43c
00000100: 70ee 7d3c 0b65 1abd c235 b23c e3c1 163d
00000110: f4c6 343d b04f eabc 7c81 b7bc 56de 8b3d
00000120: 0cff 543c 0e7f 903c d743 19bd 3ec9 8bbc
00000130: 9ebb 1dbe 1d16 8ebd be1e a43c 8f67 3c3e
00000140: c0ba b2bd a0e1 9e3a d61d 44bc e0ed 923a
00000150: b2f2 10bd f8d7 7ebc 72b2 fcbd 6151 103d
00000160: 0203 aa3c 012d 1cbe 43a5 0fbd 2d21 0e3d
00000170: 7c94 303c 02c9 ae3c d752 a33c 1f2a 863c
00000180: 701d 10bd 12a0 503e be3b b63c 20e6 57bc
00000190: 36f8 e53c b0bf 37bb 00f5 2d3b 6adb bb3c
000001a0: 16aa 133d f0cb 13bc d52d f43c fd13 513d
000001b0: 0832 f8bb b000 53bb b015 b3bc d060 5ebc
000001c0: 7cf2 e23c 26cb fdbb 2d02 1d3d c3f5 00bd
000001d0: 105f 23bc 7159 233d a4d1 263c 7ada b73c
000001e0: 78ba 03bd 0c3a 2cbd 3579 cd3d 00fb b6bb
000001f0: f7f2 c23c 9c4b 4ebc 3c65 6bbc 536b d9bc
00000200: 9287 b33c d0fb 433c 345f b83c db51 56bd
00000210: 50f5 50bb 0394 72bd a4dc b4bd 2f77 213d
00000220: f09c 23bc 4867 a23b 123e b63c c728 1c3d
00000230: 531f 133c 4338 193d a2b9 febb 4e59 143d
00000240: eabe eb3c 0d3b 0a3d f202 1bbd c2f9 f53c
00000250: 3068 903d ef24 c03c b688 d3bc 3668 9c3c
00000260: dad6 9c3d 68be 843c ebac 29bd 050d 1a3d
00000270: 035e 0abd 9325 983d 9f9e 433c 2aab be3c
00000280: 1788 783d 7107 b13b a66f d8bc 1bb4 b6bc
00000290: ab24 9abc 9a98 c33c b236 df3d 365e fbbc
000002a0: bcc0 633c 3dae 5d3c bd8b 28bb da9e e73c
000002b0: d0e2 edbc 840b 093c c0f6 203c 1e1f 8ebd
000002c0: 8e17 08bd ba15 dc3c 0af4 873c f5d7 71bd
000002d0: 3c80 5c3c da78 943c 868b 83bc e3ad f2bc
000002e0: f9e6 b03d 978c c3bc a600 ea3c d67f 14bd
000002f0: ef86 e03c 800a 8f3c 4374 043d 062b 5fbc
00000300: 1a63 9a3c cd25 28bc 3107 643a 80d7 1cbd
00000310: 4503 c13d 651d 123e a266 fa3c fb58 0a3d
00000320: 2c94 58bc 285c 8dbb 25e3 a0bd 6052 09bd
00000330: 60f9 a13a 8e0c 193d 6caf 6f3d aa14 f83c
00000340: f2ad e33c 2409 15bd 2bab 19bd 2b33 1f3d
00000350: a0e4 a73a 88d5 9abb 19cb 1ebc 6dd4 523d
00000360: f82a a3bb a286 ec3c 767a 46bc ea52 f63c
00000370: f21b a23b 3ca9 d2bb 089a 9d3b d479 42bc
00000380: 0755 553d 6c3a 3b3c 61a9 173d 2169 293d
00000390: 3079 4b3b 76cc 943c 2fa3 d03b 3096 c3bc
000003a0: d45e 3d3d 42c6 82bc 89de 0c3d 68d2 913c
000003b0: f0eb 47bb a2dc cb3c 6fa5 693d bbd5 8f3d
000003c0: fe69 c6bc c737 c6bb c519 0f3c 0a44 d93c
000003d0: e692 c63c 6c9a 59bc ac7b 1ebc 8a2e c83d
000003e0: 6cbc 3bbd c0cd 963c fa65 223b 0370 bb3c
000003f0: ab56 26bd 801e 083b 20cb b53b dbdb 033d
0.0013301782 -0.014929419 -0.028874885 0.007239759 0.0898645 -0.1439797 -0.011175439 0.057422794
-0.17892839 -0.0025961846 -0.02008532 0.023678143 0.010663811 -0.009931414 0.041516732 -0.011905244
0.018588757 0.046822187 0.027099233 0.004911881 0.03518338 0.0018823929 0.032037992 -0.07095041
0.03279281 -0.098454155 0.11350142 0.010667641 0.01710704 -0.020593714 -0.0393863 0.009794007
0.015921164 0.013029691 0.028462462 0.02331332 -0.0361002 -0.024653029 -0.005055595 -0.028356811
0.05222801 0.02915095 0.027988773 -0.041429758 0.01778581 -0.04051749 -0.004088562 -0.011102051
0.0043210685 0.025529029 0.08422737 -0.0017806701 0.108164966 0.053289607 -0.022770112 -0.0041893125
-0.004648011 -0.020286506 0.04534499 -0.068395816 0.03952721 0.02285644 -0.12485242 0.02592032
0.015498742 -0.03769402 0.02175415 0.036806 0.04413505 -0.028602451 -0.02240061 0.068295166
0.013000261 0.01763871 -0.037418213 -0.017063733 -0.15403602 -0.069378115 0.02003419 0.1839888
-0.08727026 0.0012121685 -0.011970004 0.0011209808 -0.035387702 -0.015554421 -0.12338723 0.03523386
0.020753387 -0.15251543 -0.035069715 0.034699608 0.010777589 0.021336082 0.019936962 0.016377507
-0.035184324 0.20373562 0.022245284 -0.013177425 0.028072458 -0.0028037839 0.0026543736 0.022931773
0.03605088 -0.00902079 0.02980701 0.051044453 -0.0075743236 -0.0032196455 -0.021860927 -0.013572887
0.027703516 -0.0077451644 0.038332153 -0.031484377 -0.009971395 0.03988022 0.010181818 0.022443045
-0.032160252 -0.042047545 0.10032884 -0.0055841208 0.023797495 -0.012591269 -0.014367398 -0.026540434
0.02191523 0.011961892 0.022506334 -0.052324157 -0.00318845 -0.059223186 -0.08831146 0.039420303
-0.009986147 0.0049561597 0.022246394 0.038124826 0.008979636 0.03740717 -0.007773594 0.03621798
0.028777558 0.03374772 -0.037844606 0.03002632 0.07051122 0.023455111 -0.025822025 0.01909266
0.07658167 0.016204074 -0.041424673 0.037610073 -0.033781063 0.07429042 0.011939674 0.023274977
0.06067666 0.0054024984 -0.026420426 -0.022302678 -0.018816313 0.023876477 0.10899104 -0.030684572
0.013900932 0.013530311 -0.0025718056 0.028273989 -0.029038817 0.008364562 0.009824455 -0.06939529
-0.03322559 0.026865829 0.01659586 -0.059043843 0.013458308 0.018124033 -0.01605774 -0.029623931
0.086378045 -0.02387075 0.028564762 -0.036254726 0.027408091 0.017461061 0.03233744 -0.013621097
0.018846083 -0.010262919 0.00086985814 -0.038291454 0.09424452 0.14269026 0.030566517 0.033776265
-0.013218921 -0.0043139644 -0.078558244 -0.033525825 0.0012357645 0.03736549 0.058516905 0.03028329
0.027792905 -0.03638567 -0.037516754 0.038867157 0.0012809224 -0.004725162 -0.009691977 0.051472116
-0.0049794875 0.028872792 -0.012114158 0.030068833 0.004947179 -0.0064288657 0.0048096217 -0.011869866
0.05208304 0.011427503 0.037026767 0.041360024 0.0031047575 0.0181639 0.0063671093 -0.023875326
0.046233013 -0.015963677 0.034391914 0.017800525 -0.003050562 0.02488548 0.057042535 0.07023188
-0.024220463 -0.0060491296 0.008734171 0.026521701 0.024239969 -0.013281446 -0.00967304 0.097745016
-0.04583399 0.018408656 0.002478002 0.02288056 -0.040609997 0.0020770133 0.005547896 0.032192092

features_extractor.encoder.conv.10.bias f4 [128]
00000000: a570 6b3d 999c f6bc 1006 ffbb 72ec c1bd
00000010: 272c 78bd acdf a33c c3a6 64bd 056b ee3c
00000020: 840a c73c fdf4 8cbb ebb5 b23d 4f53 34bd
00000030: 1cff e33c 6d46 843c d25a 53bd 18e7 f73d
00000040: 3516 6b3c 0857 39bd f23e 08bd e0e1 3dbd
00000050: 7ab1 50bc 018a 1c3d 15aa 48bd 8cb1 90bd
00000060: dc02 02bc e35e 42bd 171f b4bb 9202 2dbd
00000070: c01f db3b 60f8 7cbd f892 6bba efd4 1c3d
00000080: e625 433d b8c9 10bd 4a45 7ebc 9642 c7bb
00000090: ef14 a03d 9add 97bd feaa 6fbc 6a94 5bbc
000000a0: e60b bbbb 4f4b d3bd 7586 bbbc 2b00 9f3d
000000b0: 0ddd 623d 9559 063d fe93 1c3d 645e c83b
000000c0: b798 0ebd 7bd1 87bd 45de 02bd a2f9 8dbc
000000d0: eec8 6dbd 09d5 8abb e3ef d1bc f240 453d
000000e0: b2ec aabc 68d4 333b 84a8 293d a20a 8fbc
000000f0: 87d0 6bbc fe99 eb3b 0a9f 12bc 8bec c8bb
00000100: ea74 0a3d e4a5 6abd 5806 a1bd 012a 94bc
00000110: 7b38 cc3c 08c3 7f3d f7ca 133d 9d03 18bd
00000120: d022 fbbc c6d5 c73d 4679 6bba 4180 533b
00000130: 4f1f 683d 8079 56bb dc52 90bc f9b4 523d
00000140: 7963 c03d 4f5a e6ba 42bc 2a3d 4793 6d3d
00000150: ae2a a73d 8a05 b6bd 914c a1bc b926 933c
00000160: e570 383d 24b9 1b39 5705 c33d 70cc c8bc
00000170: 1ed3 1fbb fb3a 4abc cc33 19bd b03d 7bbd
00000180: 5dfc b4bc abc9 0b3d b0c8 ecbc 85c1 843d
00000190: b300 97bd 3529 02bd 15e0 85bd 5373 643d
000001a0: 6b31 953c 3da6 2c3c a194 91bc 035f c93d
000001b0: 292f 1fbd 3e41 61bd ed66 003d 3919 ffbb
000001c0: b733 bc3d 966e 573d 9414 cf3c 43d5 633d
000001d0: df58 2a3d f533 7539 8b81 063d f2a4 443d
000001e0: 7299 a0bc 588e 82bc e4c7 903c 8fa3 563d
000001f0: 72b8 503d c8fe be3c 78d3 343d 80d0 94bc
0.057480473 -0.030103968 -0.007782705 -0.094689265 -0.060588982 0.020004116 -0.0558231 0.029103765
0.024297006 -0.004301666 0.08726104 -0.04402476 0.027831607 0.016146863 -0.051600285 0.121046245
0.014348556 -0.045249015 -0.033263154 -0.04635799 -0.012737626 0.03821755 -0.048990328 -0.070651144
-0.007935252 -0.047453772 -0.0054968703 -0.04223878 0.0066871345 -0.061760306 -0.00089864386 0.038289007
0.047643565 -0.035348624 -0.0155194495 -0.0060809357 0.07816493 -0.07415314 -0.01462817 -0.013402084
-0.0057082055 -0.10317098 -0.022891263 0.07763704 0.05538659 0.032800276 0.038227074 0.006114768
-0.03481361 -0.06631752 -0.031950254 -0.017330948 -0.05805295 -0.0042368216 -0.025627082 0.04815764
-0.020864818 0.0027439836 0.041420475 -0.017461125 -0.0143929785 0.007189988 -0.008949051 -0.0061317137
0.033802904 -0.057287112 -0.07862538 -0.018086435 0.024929276 0.062441856 0.036082234 -0.03711282
-0.030656248 0.09757571 -0.000898261 0.003227249 0.056670483 -0.0032726228 -0.017617635 0.05144212
0.09393973 -0.0017574521 0.041683443 0.058001783 0.081624374 -0.08887775 -0.01968983 0.0179628
0.04502954 0.00014850922 0.09522503 -0.024511546 -0.002438731 -0.012343164 -0.037402913 -0.061338127
-0.022092992 0.034127872 -0.028904289 0.064822234 -0.0737318 -0.03177758 -0.06536881 0.055774044
0.01821204 0.010537681 -0.017771067 0.09832575 -0.038863335 -0.05499386 0.031348158 -0.007784989
0.09189551 0.052595697 0.025278367 0.055623304 0.04158866 0.00023384376 0.032838386 0.048008867
-0.019604418 -0.015937015 0.01767344 0.052402075 0.05095715 0.023314849 0.044146985 -0.018165827

features_extractor.encoder.fc.weight f4 [64, 128]
00000000: 0032 9ebc c5bb 41bd d7f4 12bd 0291 5cbd
00000010: 0383 2abd 0a73 383c a041 7c3d dc68 32bd
00000020: e70c bcbc 945a c03d 22da a4bc 9d08 093d
00000030: 9b62 443a 744a 2c3d 1220 3bbd 5bb7 babd
00000040: af1f b63d 3dee e43c bdcc abbc a251 5f3e
00000050: 3bed 0b3e bb2e 843d ca3b 3f3d f2dd b9bd
00000060: 1364 a53c 7001 0abd a506 6fbd 6d03 85be
00000070: b969 f3bc 98e2 193e 087d 23bd 2da1 1cbc
00000080: 73d4 223d 41c8 543d c224 3fbd 21fe 0b3c
00000090: db4a 073e f741 c33c 4337 07bd bbe2 013e
000000a0: 128f 2a3c 1caf 1a3d cd18 0ebd 4274 0dbe
000000b0: 4064 0a3d b11c 20bd 4bf4 b23c 4a6f bc3d
000000c0: ef2e 96bd 5c6b 1a3e c762 4abe 1d0f cc3d
000000d0: a047 903d d99c 82bd dfa3 7b3d 1dc0 3f3c
000000e0: 74e4 0e3d 34ad 2abd 5cda 1b3c 3b4d 5e3d
000000f0: 2eb3 2f3c db75 6c3d d1f7 d43c 8115 98bd
00000100: bf8b 87bc b0ae 1b3e 898c 843d c871 0cbd
00000110: 1e16 6abc 90e6 743c 172f 5a3b a079 5cbd
00000120: 6aa9 003e 157b 14be e236 643c 8f9e dabc
00000130: 851d a8bd f96f 9cbc 3afd 2f3e 5117 15be
00000140: 75fe edbd f5bd 7fbd 2ba2 90bd 0c9b 9e3d
00000150: 7035 d9bd 43b9 313e 80f0 b83c 69a0 b6bd
00000160: 7336 81bd b9cb b3bd 8d5c 25bd 147e 45bc
00000170: c442 023e d711 8cbd d1e3 03be c590 a1bd
00000180: 8f55 33bd f17f bbbd c1b6 37bd 60c4 5fbd
00000190: b654 c4bd d6d5 d33c e814 e63b 7f76 5fbd
000001a0: 8bd0 8c3d af15 3e3d e8e4 33bd 12d2 debd
000001b0: fdd6 93bd 1ae8 c83d 485e c63d df16 493d
000001c0: 2d94 4fbd 9fd4 a2bd 452a 103c bcf4 973d
000001d0: 4d5b 733d a74b 093e e03c a4bd dbc7 28bd
000001e0: fbfe cdbd 57ef 17be b202 1abd 8a60 aabd
000001f0: 958d 333e 8785 18bc 5c89 9c3c cb9f 84bd
00000200: ef63 87bd 944f fe3d b11c f03d 5c23 c6bd
00000210: cc9f 513d 7423 c13d 8880 903d 8db3 84bc
00000220: dca4 b0bc 6c68 173e 872d 253d f544 b43b
00000230: 0e92 1abe 738f 513d 4760 81bc 56e6 a1bd
00000240: a190 043e feb4 9ebc 3773 0ebb 8617 053e
00000250: a7df f03d db9e 74bd c622 af3d 855f 2d3d
00000260: 2d17 cb3d 6f41 0b3d 7c8a c83d cdb3 1fbe
00000270: 56b4 ccbd 3671 283e 1d06 e5bc 990e 473a
00000280: bac2 69bc b241 393e aff7 05bd a964 cb3d
00000290: 1013 853d 4ebd 1f3e fec9 bb3d f218 963c
000002a0: ff8d cabd a5ce 46bd edc5 253d 900a 0cbc
000002b0: bc37 5f3b a8e3 af3d 8796 343d 4640 9f3d
000002c0: 1007 0bbd 1529 033e 213c 00be 2e5b 0e3e
000002d0: a51f 7f3d 81f8 75bd 5f57 733d 6c61 8ebc
000002e0: 67e6 853a 6e6b 3f3e 4db6 243e 3af9 b33d
000002f0: 757c 923d 5eb2 ab3d dcf2 38bc 2013 203c
00000300: 1383 8c3c 9a6a f73d 5b93 343d ef45 6b3d
00000310: 7ad4 bc3d 6b51 a03c 2b7a 413d 40f9 a8bd
00000320: ba31 bc3d 05ab 7d3d 427f 17bd beb5 60bd
00000330: 7e63 a03b 42fc 9e3d 245c 353e 1c54 8b3a
00000340: 860b c53c 00b0 0ebd b663 09bd 06d7 9fbc
00000350: af73 8dbd 94c5 933e 8400 263e fea1 3dbe
00000360: cf2e 76bd f12b 3dbd ec3c 5bbd bb94 ae3d
00000370: 2d4e 2a3d c26f 22bd 80df 3dbe cecf 003d
00000380: b31c 813c ef28 b3bd 2c67 cdbc 2e9c edbc
00000390: 70c4 bfbd 421a 75bd 14ce 153d ae79 09bd
000003a0: da36 3cbc 9afb 433d a3a9 7b3b 145e 45bd
000003b0: c13b c03c 0ada 4dbd 7498 af3d bdcf 2dbd
000003c0: aac4 b1bd 60d9 c23b 1f7a 303d 5bf0 3dbd
000003d0: 8c37 a9bc 664b 193e 040a 2fbc aadd 79be
000003e0: d4c4 4dbd 3333 1ebe 8d1d d7bc 1f86 98bc
000003f0: a121 533d 6dff 063e b4ed c5b9 02c8 91bd
-0.019310951 -0.04729821 -0.03587803 -0.053849228 -0.04162885 0.011257896 0.061586022 -0.043557033
-0.022955371 0.093922764 -0.020123545 0.03345548 0.00074915 0.04206319 -0.04568488 -0.091170035
0.08892762 0.027945632 -0.02097165 0.21808484 0.13664715 0.06454226 0.04668788 -0.09075536
0.02018932 -0.033692777 -0.058355946 -0.25979176 -0.029713498 0.15027845 -0.03991416 -0.009559912
0.03975339 0.05194879 -0.046665914 0.008544476 0.13212149 0.023835165 -0.033011686 0.12684147
0.010410087 0.037764654 -0.03469162 -0.1381388 0.033787012 -0.039089862 0.021845004 0.09200914
-0.073331706 0.15080017 -0.19764243 0.0996382 0.070449114 -0.063775726 0.061435577 0.011703518
0.03488584 -0.041669086 0.00951251 0.05427287 0.010723872 0.057729583 0.025997074 -0.074259765
-0.016546128 0.15203357 0.064721175 -0.034288198 -0.0142875 0.0149475485 0.0033292228 -0.05382693
0.12564626 -0.14500077 0.013929101 -0.026686935 -0.082087554 -0.019096361 0.17186442 -0.14559676
-0.116207995 -0.062437017 -0.07062181 0.077444166 -0.106058955 0.17355828 0.022575617 -0.089173146
-0.063092135 -0.087790914 -0.040371466 -0.012053985 0.12720782 -0.0683934 -0.12879874 -0.07888941
-0.043782767 -0.09155262 -0.044852022 -0.054630637 -0.0958647 0.0258588 0.007021535 -0.054556366
0.06875714 0.046407398 -0.043919474 -0.108799115 -0.0721874 0.09809895 0.096859515 0.049094077
-0.05067842 -0.079507105 0.00879914 0.07419726 0.059413243 0.13407765 -0.080194235 -0.041206222
-0.10058399 -0.14837395 -0.037600227 -0.083191946 0.17534478 -0.009309179 0.019108467 -0.064757906
-0.06610858 0.12417522 0.117242225 -0.09674713 0.051177785 0.0943059 0.070557654 -0.016198898
-0.021562986 0.14785928 0.04032662 0.0055013844 -0.15094778 0.051162194 -0.015792979 -0.07905261
0.12945797 -0.019373413 -0.0021736154 0.12997255 0.11761408 -0.05972181 0.085515544 0.042327423
0.0991653 0.03399795 0.09792039 -0.15595932 -0.09995334 0.16449437 -0.027957017 0.0007593423
-0.014267618 0.18091467 -0.032706913 0.09931309 0.064977765 0.15599558 0.09169386 0.018322442
-0.09890365 -0.048536915 0.04047196 -0.00854744 0.003406032 0.08588344 0.044088867 0.07775931
-0.033942282 0.1280864 -0.12522937 0.1390197 0.062286038 -0.060051445 0.059409495 -0.017380439
0.001021576 0.18693325 0.16085167 0.087877706 0.071526445 0.0838363 -0.011288371 0.009770185
0.017152345 0.120808795 0.04408584 0.05743974 0.09220214 0.019570073 0.04723565 -0.08250666
0.09189172 0.061930675 -0.036986597 -0.054860823 0.004894673 0.07762958 0.1771093 0.0010629925
0.024053346 -0.034835815 -0.033542357 -0.01951171 -0.069068305 0.28861678 0.16211134 -0.18518826
-0.060103234 -0.046184484 -0.053524897 0.08524462 0.04157846 -0.03965736 -0.1854229 0.031448178
0.015760755 -0.08748042 -0.02507361 -0.029005136 -0.09363639 -0.059839495 0.036573485 -0.03356331
-0.011487687 0.047847368 0.0038400672 -0.048185423 0.023465993 -0.050256766 0.08574 -0.042434443
-0.08680089 0.0059463233 0.043085214 -0.0463718 -0.02065637 0.14970168 -0.01068354 -0.24400964
-0.050236538 -0.15449218 -0.026259208 -0.018618641 0.051545743 0.13183375 -0.0003775187 -0.071182266

features_extractor.encoder.fc.bias f4 [64]
00000000: 17b2 cdbd a1c6 00be c95f a23c de0d 6ebd
00000010: 8b08 563d 8f9f e9bd 533d 69bd 5651 033e
00000020: 2b99 0d3d b212 ea3d 536a 64bc eba6 973c
00000030: 8e8f b33c 123b e43d 0d5b 2c3e 02fb 89bc
00000040: 3257 a23d 2ea7 a7bd 8c3d f73c fdac 8d3d
00000050: 2474 133d 1022 19bc 08a5 8c3d 1103 fd3b
00000060: 1b1c 4b3d c76c 88bc 7b86 6d3d ca4b 8d3a
00000070: 2f96 1ebd e76d 0a3d 2a63 483a 4359 97bc
00000080: d974 3dbd aca1 b0bc 1b6e 9d3d 9285 87bd
00000090: b30a 75bc 3de6 69bd e390 8fbd 80cf 6dbd
000000a0: 632b ee3d 5386 ce3b e922 d73d 2a11 e33b
000000b0: c909 493d 244f 173e c8e8 043d 9728 023e
000000c0: c431 99bc 6fa6 933c 6cdc 82bd 855e 50bc
000000d0: 9ea8 ee3d 8d77 763c d8f1 5bbd 413e 36ba
000000e0: 7d87 8c3d fa26 5ebc e973 e43d 2b3c ecbc
000000f0: 1643 3abd 8752 1f3d 4cde 413d 4bed b73b
-0.100437336 -0.12575771 0.019821065 -0.058118694 0.05225424 -0.114073865 -0.05694325 0.12823996
0.0345699 0.11429347 -0.013941365 0.01851221 0.021919038 0.11144079 0.16831608 -0.016843323
0.079267874 -0.08186184 0.030180715 0.069177605 0.035999432 -0.0093465 0.06867415 0.007721313
0.04958735 -0.016653432 0.05798958 0.0010780033 -0.038717445 0.033796217 0.0007644171 -0.01847518
-0.046254013 -0.021561466 0.076870166 -0.066172734 -0.014956164 -0.057104338 -0.07010057 -0.058059216
0.11629369 0.006302634 0.105047055 0.0069295364 0.049081597 0.14776284 0.03244856 0.12710796
-0.018700488 0.018023698 -0.063896984 -0.012717848 0.11653255 0.015043152 -0.053697437 -0.00069520256
0.0686178 -0.013559097 0.111549206 -0.028837284 -0.045474134 0.038897064 0.04733114 0.0056130043
