weights/image_scratch-nd-1-eps-400.pth (torch, 462898 bytes, 24 tensors)

log_std f4 [2]
000000 ae 4d 54 3e f3 7e 73 3e
       0.20732757 0.23778896

features_extractor.encoder.conv.0.weight f4 [4, 1, 3, 3]
000000 4c ec a1 3e e0 84 ab 3e b1 c2 ae bc 90 20 b3 3e
       0.31625593 0.33499813 -0.02133307 0.3498578
000010 1e f7 83 bc 2f 9b da 3d b9 52 ec bd 9a f1 73 3e
       -0.016109046 0.1067413 -0.115392156 0.23822632
000020 81 12 b0 3e 73 41 26 be b9 ec bd 3e 53 18 14 3e
       0.34389117 -0.16235904 0.37094668 0.14462404
000030 2d 9d a9 3e 74 5e 05 3e 9c 2f 74 3e 0e cf f6 3c
       0.33127728 0.13024312 0.23846287 0.030128028
000040 45 24 ab 3e 6f ef ee 3d 3c 54 93 bc 8f 6a 43 3e
       0.3342611 0.11666762 -0.017984502 0.19083618
000050 a9 e0 0c be 6b 09 a9 bd 1f 2b 15 3e 2a 90 4f 3e
       -0.13757576 -0.082537495 0.1456723 0.20269838
000060 5c f9 af be 87 3f aa bd 8a 29 75 bd a7 0b 52 be
       -0.34369934 -0.08312898 -0.059854068 -0.20512258
000070 3e e7 82 3d 65 18 df be a5 51 8b 3e 60 88 a9 be
       0.06391762 -0.435733 0.27210727 -0.33111858
000080 cb db 7f 3e 69 da 9a 3a 5c d6 f7 bd e9 f5 23 3e
       0.24986188 0.0011814359 -0.12101433 0.16011776

features_extractor.encoder.conv.0.bias f4 [4]
000000 c5 c5 0f bc c9 2a 60 3e 74 4e 00 3e 21 49 0a be
       -0.008775179 0.21891321 0.12529927 -0.13504459

features_extractor.encoder.conv.2.weight f4 [8, 4, 3, 3]
000000 96 7e 26 bd 5f 08 ee bd 41 a5 fb 3d 8e 40 d9 3d
       -0.040648066 -0.116226904 0.12287379 0.10608016
000010 ab 70 91 3d 34 a7 85 bd 8d fe 9f 3d 86 c8 46 3d
       0.07101568 -0.06526032 0.078122236 0.048531078
000020 c2 00 03 3e 18 0d 2c be ba 50 3d be 8c ee ba bc
       0.12793258 -0.1680187 -0.18487826 -0.022818826
000030 8a e6 22 be 0b 99 0b 3e 1a 6f 97 3d 5d 8e 84 3d
       -0.15908256 0.136326 0.07394238 0.06472466
000040 fa 0b ad 3d dc 35 15 3d 15 48 40 3e 32 ea 32 3d
       0.0844955 0.036428317 0.18777497 0.043680377
000050 c7 db 84 3d 62 c4 2c bc aa db fc 3d 9e d4 fb bd
       0.06487232 -0.010544868 0.12346585 -0.12296413
000060 eb 73 91 3e 11 cc 81 3d e4 4a 20 3e ce 0d f4 bd
       0.2840875 0.06337751 0.15653569 -0.119166955
000070 08 53 0b bd 41 ff 56 3d 2d fc 6e 3e a3 f7 25 3e
       -0.03401473 0.052489523 0.23338385 0.16207747
000080 9d 24 1b 3e 65 4e 2c bd e4 e4 ad bd bf 58 e0 bc
       0.15150686 -0.04206695 -0.08490923 -0.027386067
000090 91 f4 a5 bd bd 93 ef 3d b3 e0 cf 3d 7f 5d 3c 3e
       -0.08103288 0.11698101 0.1015028 0.18395041
0000a0 6f 8b 0e bc 7c d9 67 bd 75 cf 08 3e ad d8 2f 3b
       -0.008700236 -0.056603894 0.13360389 0.002683203
0000b0 8b 85 20 3e b4 17 5d bd 91 22 d7 3d f2 27 05 be
       0.15675943 -0.053977683 0.1050464 -0.13003519
0000c0 4b 6c 94 bd d4 e4 ad 3d b3 a8 63 3d 66 7b 0e bd
       -0.07247218 0.08490911 0.055580806 -0.03478565
0000d0 9f c9 02 3e a3 fd 00 3e 0a 20 53 be 58 74 31 be
       0.12772225 0.12596755 -0.2061769 -0.17329538
0000e0 5f 94 57 3d 0d 19 0f be 30 06 2d be a8 0d 8e be
       0.052631732 -0.139744 -0.16896892 -0.27744794
0000f0 02 ff 35 be 00 80 fa bc e5 00 15 be f5 f7 18 bd
       -0.17773059 -0.030578613 -0.14551122 -0.037345845
000100 d6 5b 96 3c ed 33 c6 bd c5 5d 62 bd 1f 02 6b 3d
       0.018354338 -0.09677873 -0.055265207 0.05737507
000110 c5 b0 c2 bd 49 d6 86 3d 2d 52 6a 3e 6e e0 7e 3d
       -0.09506372 0.065838404 0.2288291 0.06222575
000120 23 ee b0 bd d1 03 16 be 11 a9 bd bd 51 c3 e5 bd
       -0.08639171 -0.14649893 -0.092607625 -0.11218894
000130 a5 79 11 bd 22 e9 16 be 58 bb 05 be c6 3f bc bd
       -0.0355164 -0.1473737 -0.13059747 -0.09191851
000140 50 74 1c bd 78 55 70 bd 77 c6 8e bb 51 92 e9 bd
       -0.03819686 -0.05867526 -0.004357155 -0.11404861
000150 65 44 fb bd 49 c1 a9 bd 9e ea 22 bd 4d 98 0d be
       -0.122689046 -0.08288819 -0.03977453 -0.1382763
000160 e1 2b 20 3e 74 d2 11 bc a8 40 20 3e 60 23 83 3d
       0.15641738 -0.008900274 0.15649664 0.064032316
000170 c7 60 02 be a8 df e2 3d d0 48 9f bc 57 6b 3b bd
       -0.1273223 0.11077815 -0.0194439 -0.045756664
000180 da eb 03 be 14 3f 14 be 51 6f a0 3d 9d 42 99 bd
       -0.12882939 -0.14477187 0.07833732 -0.074834086
000190 dd 98 88 3d 97 73 04 be 8f 51 f5 3d 44 29 f7 bd
       0.06669781 -0.12934719 0.11978447 -0.12068418
0001a0 48 ac 00 bd 1e 74 c7 bd 93 a5 42 3d 55 4e b5 3d
       -0.0314143 -0.097389445 0.047521185 0.08852831
0001b0 bf 71 63 3e cf af cb bd de ef 45 3d 1a 9a 3c bd
       0.2221136 -0.09945642 0.04832446 -0.0460454
0001c0 84 5a 22 bc 90 b3 1c be 91 ac 23 3e 3f dd 02 be
       -0.009909276 -0.15302873 0.15983798 -0.12779711
0001d0 c9 a7 97 3d 78 02 9f 3d c7 7b 3e 3d e8 e6 02 be
       0.07405049 0.07764143 0.046504762 -0.12783396
0001e0 01 9e 16 3e 79 d9 46 3c 21 70 ce bc c9 49 2c be
       0.14708711 0.01213681 -0.025199952 -0.16825022
0001f0 8b 07 32 3d a8 1d 84 bd de e7 c7 bd 01 c5 fe 3d
       0.043464225 -0.06450969 -0.09761022 0.12439919
000200 8b 86 72 bc b7 f0 04 be d3 4c d0 bd 98 fc 14 bd
       -0.014802585 -0.1298245 -0.10170903 -0.036373705
000210 96 60 79 3d bb a6 8c bd f5 fe 10 be 4c c5 a4 ba
       0.060883127 -0.06867739 -0.14159758 -0.0012571006
000220 89 c6 95 bd e1 d4 5f 3e db e1 87 3e 50 e4 57 bd
       -0.07313258 0.2185855 0.26539502 -0.05270797
000230 c2 6b 1e 3e 9d 77 c8 3d a7 d6 7f bc 2e 0f b9 3d
       0.15470794 0.097884394 -0.015615142 0.090360984
000240 ec ae 17 3e 36 a3 31 3e 01 f1 09 3e a9 9e c9 3c
       0.14812821 0.17347416 0.13470842 0.024611788
000250 1e b0 28 3d 0c fb a1 3d 2b ea 09 bc 2d 1f 2d bc
       0.041183583 0.079092115 -0.008417646 -0.010566515
000260 6c 4b 18 3e a4 c2 3b 3e e9 22 55 3d 2e 18 4a 3c
       0.14872521 0.18335968 0.052035246 0.012334866
000270 47 92 44 3d 29 7a 57 3d e6 5e af 3d 75 f7 5e 3d
       0.047991063 0.052606735 0.08563022 0.054435212
000280 7f a0 fc bd 06 2b 12 bd 31 d1 7d 3d 11 82 2e bd
       -0.123353 -0.03568556 0.06196708 -0.04260451
000290 e5 ba a6 bd 9d 58 6c be 38 fc 54 be e3 dc 83 be
       -0.08141116 -0.23080678 -0.20799339 -0.2575446
0002a0 e7 21 ea bd 8e 2d b2 3b 4d 53 e1 3c 61 5e 2b 3e
       -0.114322476 0.0054375594 0.027505541 0.16735221
0002b0 ce 7a 04 be 5c 3c f6 bd 08 f9 30 bd 04 e8 5d 3e
       -0.12937471 -0.120232314 -0.043206245 0.21670538
0002c0 f4 42 27 3d 06 d4 4f be 70 0e dd bd bc 3c 45 be
       0.040835336 -0.20295724 -0.10793769 -0.1926145
0002d0 4a 67 82 bd 43 f7 51 3e dc 47 0f 3b 8c 28 f9 3c
       -0.06367357 0.20504479 0.00218629 0.030414842
0002e0 3e 78 9e bd 4b 55 42 3e 0b 79 3c 3e fc e8 01 3e
       -0.07737778 0.18977849 0.18405549 0.12686533
0002f0 38 78 88 bd b6 90 04 be b5 ed 85 bd f1 10 3b 3e
       -0.06663555 -0.12945828 -0.0653948 0.18268181
000300 ff f8 0b 3e bb e8 60 3e eb 4b 1a 3e db 49 ad 3d
       0.13669203 0.2196378 0.15068023 0.084613524
000310 f1 7e 61 3d 36 43 b0 bd a3 50 34 be 28 76 21 be
       0.0550527 -0.086065695 -0.17608885 -0.1576773
000320 75 98 1c 3d 6e 3d f8 bd 3a 36 47 bd 5e 61 03 be
       0.03823133 -0.12121092 -0.0486357 -0.12830111
000330 44 c4 87 bd c7 43 01 be ce 4e 18 be 64 f3 37 3e
       -0.066292316 -0.12623511 -0.14873812 0.1796394
000340 a5 98 68 bd df c5 d7 3d 5b 0c 61 3c 0a 03 f7 bc
       -0.0567862 0.10535788 0.013735856 -0.030152816
000350 23 c7 4b 3c 5b bc 94 bd ba 8a 33 bd 8b 5e 15 be
       0.012437615 -0.072624885 -0.04383347 -0.14586847
000360 8d 75 08 3e 5e a4 ad bd b5 f1 f8 3d 6e 93 d3 3d
       0.13326092 -0.08478616 0.12155477 0.10330854
000370 c3 e3 19 3e ac 94 af bd f7 d4 21 3e 84 b3 4f bd
       0.1502829 -0.08573279 0.15803896 -0.05070831
000380 f5 a4 96 3d 73 d9 0b 3e e5 84 12 bd ea c9 93 bc
       0.07355682 0.13657169 -0.03577127 -0.018040616
000390 f8 02 4d bd 27 93 16 be 71 9c ae 3d 54 58 31 be
       -0.05005166 -0.14704572 0.085259326 -0.17318851
0003a0 e8 07 bd 3d 52 ce ce 3d b6 fe e6 3d 16 0b da bd
       0.092300236 0.10097946 0.11279051 -0.10646646
0003b0 d6 b8 76 be 55 09 da bd b5 ff 4e bd e4 a1 87 be
       -0.24093947 -0.10646311 -0.05053683 -0.264907
0003c0 5c 39 c2 bd 7a 14 5e be 96 de d2 bd e1 e7 8e 3b
       -0.09483597 -0.21687499 -0.10296361 0.004361138
0003d0 ec 19 37 3d 67 f5 13 3b b0 2e 07 be 03 a5 e4 3d
       0.044702455 0.002257669 -0.13201404 0.11164286
0003e0 b7 fa 0f 3e cb 7a 3e be 9c 4b 34 be e2 ac 4d be
       0.14060484 -0.1860153 -0.17606968 -0.20085481
0003f0 6b 1f 1a be 54 15 26 be 04 b8 7d 3d 63 68 bb bd
       -0.15051048 -0.16219074 0.06194307 -0.091507696

features_extractor.encoder.conv.2.bias f4 [8]
000000 32 82 a8 bd 24 92 a9 bd 8f 08 0b 3e 16 51 2e 3c
       -0.08227958 -0.08279827 0.13577484 0.01063945
000010 cb ef 0e be e1 0b e5 bd ea a0 02 3d d8 e5 fd bd
       -0.13958661 -0.11183906 0.03189174 -0.12397355

features_extractor.encoder.conv.4.weight f4 [16, 8, 3, 3]
000000 a6 be 68 3c 38 42 0c 3e f5 3f a2 bd 44 40 64 3d
       0.01420561 0.13697135 -0.07922355 0.05572535
000010 bc 3b bc 3c e2 9e 6e bc f3 2f b4 bd 0b f7 c5 bd
       0.022977702 -0.014564248 -0.08798208 -0.0966626
000020 03 24 80 bd 3a 8a 33 bd 09 03 0a 3e 64 f3 23 bd
       -0.06256869 -0.043832995 0.1347772 -0.040027037
000030 97 b9 ef bc 3c 60 dc 3d a9 6d 9a 3d ab 5b 85 3d
       -0.0292633 0.10760543 0.07540447 0.06511625
000040 7f f9 16 3e 8d 44 e2 3d 8c 51 0a be e7 04 20 bd
       0.14743613 0.11048231 -0.1350767 -0.039067175
000050 48 57 e7 3d 76 4a a3 bd 82 32 cd bd 63 b1 62 3d
       0.112959445 -0.07973187 -0.10019399 0.05534495
000060 6e f4 83 bc 5a 66 58 be f7 ab 16 be 16 65 90 3c
       -0.016107764 -0.21132794 -0.14714037 0.017626327
000070 3a d3 ff 3c 48 27 1c bd f7 35 67 3c 05 23 fe bc
       0.03122865 -0.0381234 0.014111987 -0.031022558
000080 6c 90 00 be 59 b5 32 3b d3 59 1e 3e 11 7f ae 3d
       -0.12555093 0.0027268736 0.15463953 0.0852033
000090 b3 08 c2 bd 89 0f 41 bc 7d 09 9f bd 95 5a 37 bd
       -0.094743155 -0.011783489 -0.077654816 -0.04476412
0000a0 11 f4 c7 3d ae 39 dd 3d f0 2f e9 3d 34 60 06 bd
       0.09763349 0.10802017 0.113860965 -0.03280659
0000b0 f5 0f 07 3e 28 11 f7 bd 2a 2f 9e 3d 72 de 04 3e
       0.13189681 -0.12063819 0.077238396 0.12975481
0000c0 ab 01 2a 3d e8 00 4b 3e 41 cd 2d bd a9 d1 26 bd
       0.041505497 0.19824564 -0.042432074 -0.04072729
0000d0 59 8e e3 3d a1 5c 7c 3c 16 a8 b4 bc 30 2a a3 bd
       0.11111135 0.015402944 -0.022052806 -0.07967031
0000e0 39 59 7d 3d 45 a3 84 3d f9 b0 a6 3d fa 8f 7c bd
       0.061852667 0.06476454 0.081392236 -0.061660744
0000f0 dc 0a 0e be c5 3d 50 3d a6 5b 44 3d 72 e0 5e bd
       -0.1387133 0.050840158 0.047938965 -0.054413266
000100 3e 10 07 bd 93 01 a3 3d 18 d0 19 3c 50 3c ae 3b
       -0.032974474 0.07959285 0.009387992 0.0053172484
000110 2c 98 ed bc 84 92 da bd 90 f0 e2 bd 20 bf 66 bd
       -0.029003225 -0.10672477 -0.1108104 -0.056334615
000120 a7 34 24 bd da 59 9a 3c bf 81 09 3e 88 a3 a8 bd
       -0.040089276 0.018841673 0.134284 -0.08234316
000130 e3 47 11 bd 96 46 0e 3c 07 32 32 3e f3 fb 47 3b
       -0.035468947 0.008683821 0.17401896 0.0030515164
000140 bf 03 48 3c ec 96 6b 3d 89 39 c7 bd 66 4e 5d bc
       0.012207924 0.057516977 -0.09727771 -0.013507461
000150 47 20 2f bb 37 2f af bd 0e 18 d5 bd f4 db d8 3d
       -0.002672212 -0.085539274 -0.10404979 0.10588828
000160 33 bb b3 3d 80 87 85 3c fb 19 12 b9 d8 d7 dd bd
       0.0877594 0.016299963 -0.00013933323 -0.108321846
000170 1a 42 c4 b9 0d 4b 66 3d ad 08 b1 3c 6a 5b dd 3b
       -0.00037433283 0.056223918 0.021610582 0.006755282
000180 f2 19 84 bc 3e 8f 36 3d f0 25 2f bd f2 2b 99 3d
       -0.016125653 0.0445702 -0.04276079 0.07479085
000190 f2 e4 33 be 24 f7 ff 3c 71 63 50 bb 7f 7d a1 bd
       -0.17567804 0.031245776 -0.0031797553 -0.078852646
0001a0 ef 98 5c bc b4 a1 c4 3d 3b a6 60 bd 61 8c 0b 3e
       -0.013464197 0.09601155 -0.05484603 0.13627769
0001b0 72 03 c5 3d 89 74 da bd b1 81 39 bd 17 18 15 3e
       0.09619798 -0.106667586 -0.0452897 0.14559971
0001c0 b5 85 c5 3d 09 d5 1a bc a8 ca 49 bc f8 95 3b be
       0.09644643 -0.009450206 -0.012316383 -0.18318927
0001d0 b8 dc 27 be a9 79 80 3d 25 da ce bb c7 f2 c0 3d
       -0.16392791 0.06273205 -0.006312626 0.09421306
0001e0 ca eb db 3b 93 2e db 3d f2 2d 3e bc a5 61 48 bd
       0.006711458 0.10702243 -0.011607634 -0.048921246
0001f0 f3 e8 f4 bc 48 38 43 3d a4 79 73 3c e3 53 f7 bd
       -0.029896235 0.047661096 0.014860544 -0.12076547
000200 46 7c b1 3d bd 96 b8 bc 31 27 f0 bd f6 15 6c bc
       0.086662814 -0.022532815 -0.11726225 -0.014409533
000210 8c dc 04 3e a0 8f d4 3d ea 18 aa 3d 35 ae 8d 3d
       0.12974757 0.10378957 0.08305533 0.06917993
000220 ab 55 b6 3d 34 39 81 bc 72 cd 84 bd 7e 31 71 3d
       0.089030586 -0.015774347 -0.06484498 0.05888509
000230 e2 22 7a bd 91 e2 a2 bd fa 25 1a bd 14 9b ca 3c
       -0.061068423 -0.0795337 -0.037633874 0.02473215
000240 3d f4 ac 3d ae 76 aa bc 50 e2 22 be 43 ef b0 3d
       0.08445022 -0.020808544 -0.15906644 0.086393856
000250 85 07 37 bd 8c 46 a5 bd c0 13 aa 3d 00 a8 e3 bc
       -0.044684906 -0.080700964 0.08304548 -0.02779007
000260 61 12 09 3d 4c fe e5 3d 33 c8 ac 3c 18 e4 06 3c
       0.033464793 0.11230144 0.021091556 0.008233093
000270 35 e2 91 3c 72 36 fa 3c 60 ee a3 bc f9 5f 1e 3d
       0.01780806 0.03054354 -0.020011127 0.038665745
000280 9b d1 b8 3d b2 95 f6 3d a0 cf 29 be d1 3a 02 be
       0.09024354 0.12040271 -0.16583109 -0.12717749
000290 76 10 0b bd 83 08 0f be 59 78 29 bd 9b 43 d3 bc
       -0.033951245 -0.1396809 -0.041374538 -0.025789073
0002a0 f4 66 55 3d a9 2c 57 bd ad c3 98 bd 51 2b 3c 3d
       0.052100137 -0.052532826 -0.07459197 0.045939747
0002b0 2a 9f 4c bb 1c 8c d8 bd 69 f6 70 bd ab d3 13 bd
       -0.00312228 -0.10573599 -0.058828745 -0.036090534
0002c0 ef fd a0 3b 26 8c c3 bd 1b 8b 51 bd 4c 80 da bd
       0.0049130837 -0.095482156 -0.051158052 -0.10669002
0002d0 0f 70 07 3e bd 68 cc bd 53 44 8e 3d a4 02 a0 bc
       0.1322634 -0.09980915 0.069466256 -0.01953251
0002e0 24 80 ba bb 70 10 4e 3d a7 ce 01 3c 10 4d e7 3d
       -0.005691545 0.050308645 0.007922805 0.112939954
0002f0 58 3a 9f 3d 41 2e 00 be 21 6e 80 3d 17 4e 2d bb
       0.077748 -0.12517644 0.062710054 -0.002644425
000300 1a 1b 3f 3d f4 cb 30 3d 6d c3 b2 3c 64 3f 47 bd
       0.046656705 0.043163255 0.021821702 -0.04864444
000310 f4 0e 2a 3d d3 b2 db 3d 2f 23 f9 3d e7 aa d4 b9
       0.041518167 0.107274674 0.12164914 -0.00040563123
000320 29 89 03 be a0 65 04 bd 2d c5 39 bd 2d 01 8d 3d
       -0.12845291 -0.03232348 -0.045354057 0.0688499
000330 ab 22 94 bd a5 3a 46 3c 34 0f 16 bd 9c cd ab 3c
       -0.07233175 0.012098943 -0.036635593 0.020972066
000340 27 20 e3 3d 58 78 37 3c 59 c9 8b 3d 21 59 bb 3d
       0.11090117 0.011198126 0.068255134 0.09147859
000350 17 da c2 3d 1c b5 26 bd 20 ed d7 bc e2 a3 68 3d
       0.095142536 -0.040700063 -0.026358187 0.056796916
000360 3c d1 c2 3d 2d d8 7b 3e 8f 9d 1a ba 48 85 c4 bd
       0.095125645 0.24594183 -0.0005898112 -0.09595734
000370 e5 78 43 3d f4 ff 3c 3c b2 4c 8e 3d da c4 53 3e
       0.047722716 0.011535633 0.06948222 0.20680562
000380 1c 61 53 3e 71 e3 50 3e ca 98 98 3d 2d b4 d7 bd
       0.20642513 0.20399262 0.07451017 -0.10532413
000390 f8 20 37 bb 7e 59 89 ba 6c 61 0c be 1b 3a a7 bd
       -0.0027943235 -0.0010478941 -0.13709038 -0.081653796
0003a0 91 97 da bd cf d2 f5 bd 86 57 ea 3c 5e 59 14 be
       -0.1067344 -0.12003099 0.028606188 -0.14487216
0003b0 76 56 0d be 7d 02 7e 3d 0d 22 f7 3d 31 bf ac bd
       -0.13802513 0.06201409 0.120670415 -0.08434904
0003c0 d6 48 3f 3d e0 b6 93 3d 70 d8 5b 3c 8b 00 20 bd
       0.04670032 0.07212615 0.013418302 -0.039063018
0003d0 38 e4 11 3e 86 3c 08 be aa 83 71 3d f8 78 67 3e
       0.14247215 -0.13304338 0.058963455 0.2260474
0003e0 a9 db 71 3d a8 2e 55 bb 98 4b f2 bc 8d b7 ef bc
       0.059047375 -0.003252903 -0.029577062 -0.029262329
0003f0 50 07 e3 3b 58 5b 2d 3d 04 b8 69 3d 79 b0 41 3e
       0.006928362 0.04232344 0.057060257 0.18914975

features_extractor.encoder.conv.4.bias f4 [16]
000000 30 59 78 bd 5f 79 38 3e ea 0c cd bd 8d da 4b bc
       -0.06063193 0.1801505 -0.10012229 -0.012442243
000010 23 bd 98 bb 72 00 dc bd 8d 87 6e bd ba 6b 07 be
       -0.0046612187 -0.107422724 -0.05823474 -0.13224688
000020 17 51 1e bd 9a 00 b0 3c db f8 38 3c d0 22 6e 3d
       -0.038651552 0.021484662 0.0112898005 0.05813867
000030 37 95 00 3d f3 b0 cc bc f4 ff 74 bc 18 b8 b8 bd
       0.031392302 -0.02498672 -0.014953602 -0.09019488

features_extractor.encoder.conv.6.weight f4 [32, 16, 3, 3]
000000 2f a7 29 3d 63 dd d7 bc 5b ae ae 3c 4a 9e 9a 3d
       0.041419204 -0.026350683 0.021323374 0.075497225
000010 bc d1 88 3d f7 b7 4a 3d 45 bf 2c bd 29 23 b5 3c
       0.06680629 0.04949185 -0.042174596 0.022111492
000020 e6 23 f3 bc 0d 68 79 3c 96 64 2e bd 52 39 af 3c
       -0.029680204 0.015222562 -0.042576395 0.021389637
000030 f2 2f 75 bc ac a1 09 bd 5a 66 9d 3d 41 4c 96 bd
       -0.014965044 -0.033601448 0.07685538 -0.07338763
000040 90 40 13 3d f9 1e 7b bc 35 9e aa 3d cf 07 d5 3d
       0.035950243 -0.015327209 0.08330957 0.1040188
000050 25 40 9d 3c ed 9d 09 bd 8b 1b 15 3d c2 0a 99 3d
       0.019195626 -0.033597875 0.03640322 0.07472755
000060 fd 4f 7b 3c ca 09 f5 bd ec d6 12 bd 66 c5 12 bd
       0.015338895 -0.11964758 -0.035849497 -0.035832785
000070 af 7d cd bc d2 04 b7 bb 06 0d 06 3d c1 38 8a 3d
       -0.025084345 -0.0055852914 0.032727264 0.06749106
000080 f9 89 0d 3d f0 8a 6c bd 30 72 14 3d 0b 66 33 bd
       0.03455541 -0.05774969 0.03624171 -0.043798488
000090 ca 3e 83 bd 8b e4 0d 3e 6f 9a ef 3b 3b be f7 3d
       -0.064084604 0.13856713 0.007312111 0.120968305
0000a0 3c b1 bd 3d 78 0d a1 3d d1 52 4f 3d 62 fe 2a bd
       0.092623204 0.07863897 0.05061609 -0.041746505
0000b0 7f 63 13 be 63 f2 b4 bd 72 25 90 bc a0 eb c4 bc
       -0.14393423 -0.08835294 -0.01759598 -0.024038136
0000c0 3b 06 b3 3d a6 3e d0 3d e2 5a 06 3d 79 f9 d8 bc
       0.08741423 0.10168199 0.032801516 -0.026486145
0000d0 5b 12 85 bc 0b f4 0f be 49 15 b0 bd 4f a6 51 bd
       -0.016244104 -0.14057939 -0.0859781 -0.051183995
0000e0 aa 8c 29 bd 30 15 dc 3d 60 25 4c 3e 23 68 ff bc
       -0.041393913 0.10746229 0.19936132 -0.031177586
0000f0 43 5f 4d bd 6f 71 6f 3d b5 30 b3 3d f9 4d 50 3c
       -0.050139677 0.058457788 0.087495245 0.012713903
000100 0a c2 9e bb c7 ea f7 3b a3 00 11 3b f8 25 dd 3d
       -0.0048449086 0.0075658294 0.0022125624 0.107982576
000110 fa 42 e4 bc 62 9a bc bd 9e f3 b6 3c 51 e7 50 bd
       -0.027863968 -0.09209134 0.022332963 -0.05100185
000120 89 ee 0b bd 01 93 7c bd 60 e2 a4 3d a6 16 5b be
       -0.03416303 -0.06166363 0.0805099 -0.21395358
000130 b0 67 87 bc 34 f0 29 be 01 c6 97 bd eb 58 12 3e
       -0.016528934 -0.16595536 -0.07410813 0.14291732
000140 8a b9 6c bc 8c f0 66 3c 84 34 88 3d 5b a1 09 bc
       -0.014448533 0.014095437 0.066506416 -0.008400287
000150 07 88 0c 3d 7b 5f ff 3d b4 6b 00 bd 16 40 9a bc
       0.034309413 0.12469383 -0.031352714 -0.018829387
000160 5b 60 56 3c 87 88 30 be 1b 2c 07 3d 34 01 8a bc
       0.013084496 -0.17239581 0.033001047 -0.016846277
000170 af f3 03 bd 79 73 80 bc f4 24 7d bc 2d 46 a8 3d
       -0.032214817 -0.015680062 -0.015450705 0.0821651
000180 67 99 c7 bd fa e9 ee 3c 51 08 28 be 3b 13 99 bd
       -0.09746056 0.029164303 -0.16409422 -0.07474371
000190 1f f1 dd ba 0c 6d e4 3c 4d 15 63 bd a4 78 56 3d
       -0.0016932822 0.027884029 -0.055440236 0.052361146
0001a0 56 68 15 3b 11 c4 a0 bb 03 ab 81 bd 4f b7 08 bd
       0.0022797785 -0.0049061854 -0.06331446 -0.03337794
0001b0 16 69 a2 bd 9b 1b 97 bc 17 9f 26 3d 7c b6 cd bd
       -0.079302 -0.01844578 0.040679064 -0.10044572
0001c0 0c 07 d4 3a 54 34 c4 3c 33 62 6b 3d 59 52 58 bd
       0.0016176417 0.023950733 0.057466697 -0.052812908
0001d0 5e e8 31 be 3b 7b 48 bb 4e 49 76 3d ab fd d8 3c
       -0.17373797 -0.003059103 0.060128503 0.026488146
0001e0 97 f2 ca 3c b0 22 48 bd c9 a6 00 3d 9d 2e 6b bd
       0.024773879 -0.048861206 0.03140906 -0.0574175
0001f0 e0 b2 a2 3c 5e be 31 3d e1 3c a8 3d c5 b1 56 bc
       0.019860685 0.04339444 0.08214737 -0.013103907
000200 f3 b2 cc bb 4b 2e a2 3d 35 66 38 bc c9 11 48 bd
       -0.0062469183 0.07918986 -0.011254837 -0.048845086
000210 10 ef cb bd 94 33 23 bd 12 17 97 bc dc 03 99 3d
       -0.09957707 -0.03984411 -0.018443618 0.07471439
000220 5c 0f ff 3c 08 08 64 3d 1c ef 1a bd 68 82 59 3d
       0.031135254 0.05567172 -0.03782569 0.05310288
000230 27 6e 54 bd 1a 62 a9 bd ab 54 00 3d df 1d b1 bd
       -0.051862862 -0.082706645 0.031330746 -0.086482756
000240 cb f0 ce 3c f4 d0 bc bd 91 bf 40 bd 34 a0 d1 bc
       0.025261303 -0.09219542 -0.047057692 -0.025589086
000250 d7 cf 89 3d 37 63 1f bd 12 4b a7 3d 7c 17 eb bc
       0.067290954 -0.038912978 0.081686154 -0.028697722
000260 f0 56 53 3c d4 5e bd bd 49 62 0e 3c 3a 8d c3 bd
       0.0128991455 -0.09246603 0.008690425 -0.09548421
000270 c7 d5 76 3b 31 20 b0 bd e6 dd 84 3c 8e 5e 87 3c
       0.0037664042 -0.0859989 0.01621909 0.01652458
000280 eb f0 fd bd f6 3c dc 3b dd d9 af bd fb c2 e5 3b
       -0.12399467 0.0067211343 -0.08586476 0.007011769
000290 c7 e7 8a bc bc a6 73 bd 67 ba 29 3c 3a f8 81 3d
       -0.016956223 -0.059485182 0.010359383 0.063461736
0002a0 0e 1f e9 bb 79 67 11 bc d9 e5 a7 3d 8b 5b 38 3d
       -0.0071142977 -0.008874767 0.08198137 0.045009177
0002b0 f8 3b 7d 3d d9 9b dc bd 93 33 5b 3d 7d 0d db 3b
       0.06182477 -0.10771913 0.053515982 0.0066849575
0002c0 3a 9e ab bd fc 64 e3 3d ad fa a2 3d d3 11 12 3e
       -0.08379789 0.111032456 0.07957969 0.14264612
0002d0 03 82 19 3c 18 22 87 3c 35 59 01 be 6d 41 05 3b
       0.009369376 0.01649575 -0.12631686 0.0020333186
0002e0 7a 76 9e bd 51 4b bd 3d 66 bd 4e bc 2b 00 60 bd
       -0.07737441 0.09242881 -0.012618398 -0.05468766
0002f0 10 92 b7 3d af 6c 70 bc 70 5d 10 be 9a ad ef bd
       0.08963406 -0.01467435 -0.14098144 -0.11703034
000300 37 0f 3a bd 13 86 88 3c 7c 89 02 bd 8f 92 81 bd
       -0.045424666 0.016665494 -0.031869397 -0.06326782
000310 e2 a2 82 3d 30 4c 27 3d 78 68 f8 3b 88 d9 30 be
       0.06378724 0.040844142 0.007580813 -0.17270482
000320 26 68 ad bd 60 32 83 3d 0f be c5 bc b8 a6 e0 bd
       -0.0846713 0.06406093 -0.024138479 -0.10969299
000330 9c fc b7 3d 8c 46 c1 3d 94 f7 15 3e c3 89 b2 3c
       0.08983728 0.09437284 0.14645225 0.021794206
000340 c3 f8 29 bd a1 e0 25 bd a0 b0 e2 3b 9c 8a 09 bd
       -0.041497003 -0.040497426 0.006918028 -0.033579454
000350 a4 f0 c6 39 84 63 e6 bc 23 5e 72 3d 68 5a 31 3d
       0.00037944794 -0.028123625 0.059171807 0.04329911
000360 a4 fe 00 bc 7c b6 69 3d 62 15 af bd 33 a9 bb bd
       -0.007873211 0.057058796 -0.08549 -0.091631316
000370 eb e4 01 bb 9a c0 da ba 8a a6 43 3e f1 8e 72 bc
       -0.0019820284 -0.001668948 0.19106498 -0.014804588
000380 46 14 c9 bd 50 a5 5b bd 93 ce 82 bd bf 31 fa 3b
       -0.0981832 -0.05362445 -0.06387057 0.0076353247
000390 36 bf c8 3c cb 0d e9 bc 81 19 03 3d e6 8a 4e 3d
       0.024505239 -0.02844896 0.032006744 0.050425433
0003a0 21 5c f4 bb fc a1 9d 3a 22 06 84 bd c1 a9 9b 3c
       -0.0074572717 0.0012026425 -0.06446482 0.019001843
0003b0 08 2b bb bc e7 f7 ec 3c 41 c5 17 bd 91 6a 8c 3d
       -0.022847667 0.028926803 -0.03705335 0.068562634
0003c0 c5 20 85 3d ce 31 a0 3d e4 a0 f6 3c de 60 80 3d
       0.06500391 0.078219995 0.030106016 0.06268476
0003d0 e6 d5 94 bc 4e 35 31 bd 2c 9b 13 3d 99 9c 04 3d
       -0.018168401 -0.043263726 0.036036655 0.032375906
0003e0 77 a7 cb bd fd 06 f5 3d e7 71 9f bb eb 34 48 3d
       -0.09944051 0.119642235 -0.004865873 0.04887859
0003f0 fc 4b 30 3d 36 d1 4f bd 0e 68 0b bc 39 b7 9d 3d
       0.043041214 -0.05073663 -0.008508695 0.077009626

features_extractor.encoder.conv.6.bias f4 [32]
000000 b1 2c 1e bd c6 ac 46 bd 90 b4 14 3d 09 36 cb ba
       -0.03861684 -0.048504613 0.03630501 -0.0015503775
000010 30 26 91 bc 2f d6 94 3d 31 1a 85 3c 6c 71 8f bd
       -0.017718405 0.07267415 0.01624784 -0.070040554
000020 1f c1 06 be c1 61 04 be f9 8f ac bd 94 21 d0 bd
       -0.13159607 -0.12927915 -0.08425898 -0.101626545
000030 75 b0 0d bd d4 aa 3e bd df 79 66 bd 86 1e 90 3c
       -0.03459211 -0.046549633 -0.05626857 0.01759268
000040 2d 0a 26 be f9 ff 07 bd 8c d4 13 bc 8e 25 de 3c
       -0.16214819 -0.0332031 -0.009022843 0.027117517
000050 d1 f6 d4 3d 16 fd 97 bd 8b a1 00 be 3e 94 37 bd
       0.10398639 -0.07421319 -0.12561624 -0.04481911
000060 e7 44 04 bd b9 61 7d bc b8 a8 fc bc 57 d8 a9 bd
       -0.032292273 -0.015465193 -0.03084217 -0.08293217
000070 5d 78 b9 3d 8d 5b 01 be a7 be a1 bd 86 cd 72 bb
       0.090561606 -0.1263258 -0.07897692 -0.003704877

features_extractor.encoder.conv.8.weight f4 [64, 32, 3, 3]
000000 19 d2 17 bd 9b 1d c9 bd 97 fb 9e bd 1a a8 ff bb
       -0.0370656 -0.098201 -0.07762831 -0.0078020217
000010 1b 4f b7 bd c0 47 00 3d d1 76 3f 3c a8 d6 fc 3c
       -0.08950635 0.031318426 0.011686043 0.030864075
000020 e1 1e 3d 3d ca 0d da 3d 5f a3 e1 bc ca 58 f1 3c
       0.046172027 0.10647161 -0.027543722 0.029461283
000030 e4 c7 17 3d 3e d4 5b bd 5a d2 c1 bd 94 26 cf bb
       0.037055865 -0.053669207 -0.094639495 -0.0063217375
000040 52 09 d0 3c fc 64 09 bd a2 6e 7d bd 11 aa 8c bb
       0.02539507 -0.03354357 -0.061873086 -0.0042927344
000050 dc 7b 7f 3d d6 bb 07 3d ea 9c de 3c 54 7f 8e bd
       0.06237398 0.03313812 0.027174432 -0.0695788
000060 28 cd c0 3d 3e b1 0c be c0 8c e4 bc 68 3a 0b 3e
       0.094141304 -0.13739488 -0.027899146 0.13596499
000070 70 93 5d 3d 89 8b 9d bc d6 08 0f 3e d7 0b d1 3c
       0.054095685 -0.019231575 0.13968214 0.025518341
000080 64 74 05 bd 12 a8 c9 3c 96 27 ae bd f1 48 81 bc
       -0.032581702 0.024616275 -0.08503644 -0.015781851
000090 be 26 c4 bd 74 a8 71 3d 61 b2 dd bc f2 4e 15 bb
       -0.09577702 0.05899854 -0.027062597 -0.002278265
0000a0 a5 94 de 39 c2 32 ce 3d 8f d7 14 bd 1f fc 19 be
       0.00042453888 0.10068275 -0.036338385 -0.15037583
0000b0 fe 75 12 3d 82 e5 28 bd c1 59 91 bc 2d a7 6d 3b
       0.035757057 -0.0412345 -0.017742993 0.0036262975
0000c0 cd 88 c3 bb 62 b7 60 bb e2 22 67 bd 04 74 89 3d
       -0.0059672357 -0.0034288992 -0.05642975 0.06711581
0000d0 2e 39 a9 bb 12 d7 92 bd f9 3a f9 3c df 3f 6a 3b
       -0.005164287 -0.07169928 0.030423628 0.0035743637
0000e0 c2 f8 ed 3c 7d 94 89 3d 54 3c 0e 3a 31 31 2e bb
       0.029049281 0.06717775 0.00054258597 -0.0026579613
0000f0 8c 30 3e 3d 89 6c 05 bd 6d fb bd 3b ec 21 70 3d
       0.046433017 -0.03257421 0.0057977946 0.0586261
000100 5a 8f 1d be 9b 8a f3 bd c8 48 24 3a fd d9 a5 bd
       -0.15386716 -0.11891671 0.0006266949 -0.080982186
000110 fd 6b 32 bd 4a 6c 09 bc 33 7a fe bd 61 fc 22 3d
       -0.043560017 -0.0083876345 -0.124256514 0.03979147
000120 7e 1c 07 3e 70 3b 5a 3c 68 b1 03 be 09 65 c6 bd
       0.13194463 0.013319835 -0.12860644 -0.0968724
000130 fb d5 17 bd c2 f1 77 bd a6 ea fc 3c 75 b6 94 bd
       -0.037069302 -0.060533293 0.030873608 -0.072613634
000140 87 3c 79 3d 40 ac 07 3d f5 cf bc bd a2 c6 2a bd
       0.06084874 0.033123255 -0.09219352 -0.041693337
000150 d2 e1 f7 3c 5b 60 85 bd fc ef ab 39 45 99 ee 3b
       0.030259047 -0.06512519 0.00032794464 0.0072814547
000160 55 fb 78 bc 29 ce e1 3b 1c a3 81 3d a4 6e 64 bb
       -0.015196641 0.0068910313 0.06329939 -0.0034855986
000170 cc ed 12 bd 65 17 93 3b aa b1 0d 3c e8 7e 38 bd
       -0.035871312 0.004488873 0.008648315 -0.045042902
000180 6c 4a 47 bd 15 8b a7 3c 1d 8f 51 3c a7 1c 6b 3d
       -0.04865496 0.020452062 0.0127904685 0.057400372
000190 c4 b7 d7 bd e5 07 0c bd 8d 63 63 3d d5 e4 1d bd
       -0.105330974 -0.034187216 0.05551486 -0.03854831
0001a0 bf ca 46 3c aa 8d 51 bd f5 6e b3 bd a8 ac c3 3d
       0.012133299 -0.051160492 -0.08761398 0.09554416
0001b0 ce 38 26 bd 52 e0 f4 bd c9 d8 60 3d 8f a4 e2 bd
       -0.040581517 -0.11956848 0.054894242 -0.11066543
0001c0 33 45 51 bd 86 a9 eb bc 44 bc dc bc b5 ba da 3b
       -0.051091384 -0.028767359 -0.02694524 0.0066750892
0001d0 3a 14 88 bd d2 a3 12 bc df 46 9a bc 4f 22 82 bd
       -0.06644483 -0.008950191 -0.018832622 -0.063542
0001e0 16 87 38 3d e7 d5 0b be 87 3f 1a 3d 26 60 60 bd
       0.045050703 -0.13655816 0.03765824 -0.054779194
0001f0 bf be 27 bd 40 87 8a 3d c1 b1 83 3d 3f 89 37 bd
       -0.040953394 0.06764078 0.06430388 -0.044808622
000200 e8 6f 89 bd 15 49 a8 3d f6 6c 82 3d 1a 3c d1 bb
       -0.067107975 0.08217064 0.06368439 -0.0063853385
000210 6b 99 27 bd ac 54 0f bc 0e 45 a6 3b 74 aa ac bd
       -0.040917795 -0.008748215 0.00507415 -0.08430949
000220 c6 22 ed bd 10 3b 99 3d 55 7e a0 bc 53 0e a2 bd
       -0.11578898 0.074819684 -0.01959149 -0.079128884
000230 8b 46 c0 3d 5f 80 37 3d 59 8c 34 3a 2b a9 a9 3d
       0.09388455 0.04480016 0.00068873685 0.08284219
000240 23 11 b6 3d cd cc 82 3d cd e3 ca bd c5 1f 10 bd
       0.08889987 0.06386719 -0.09906731 -0.035186548
000250 44 85 97 bd 50 a4 df bd 42 06 bc bc d6 58 41 3d
       -0.07398465 -0.10920012 -0.022952203 0.04720386
000260 9e 1a f9 3c e0 05 d0 3c 52 bc b5 3c 56 8b d5 bc
       0.0304082 0.025393426 0.022184525 -0.026067417
000270 1b a3 04 be 7e 46 70 3d 11 8a 95 bd a1 57 7d 3d
       -0.12952845 0.058660977 -0.07301725 0.061851148
000280 bb ef 34 3c 7d c3 64 3c cc 78 0b 3c 41 bb ba bd
       0.011043484 0.013962624 0.008512687 -0.09117747
000290 b5 bb 13 bc cb 90 60 3d 35 c0 0f be 9b 6b a5 3c
       -0.009016921 0.054825585 -0.14038165 0.020192912
0002a0 e1 6f 3b 3d 00 3c 6f bc c9 57 41 3d 4c be 73 3c
       0.045760993 -0.014601707 0.04720286 0.014876913
0002b0 18 5d 14 bb d0 9c b1 bd b1 d2 ab bc 71 75 92 3d
       -0.0022638496 -0.08672488 -0.020974489 0.071513064
0002c0 69 83 c6 bd 2d 99 34 3d d7 53 6e 3d 3d bd f5 bc
       -0.09693033 0.044091392 0.058185425 -0.029997462
0002d0 ce 2d 7b bd cc 23 6d bd a9 aa 31 3d 2d f2 9a bb
       -0.06132298 -0.057895467 0.043375645 -0.0047285766
0002e0 ae af b2 3b 2a 6b 3f 3d 7f cc a6 3d 4f dd 05 bc
       0.0054530716 0.04673306 0.08144473 -0.00817044
0002f0 2c ce c3 3c 30 72 3e 3d e1 22 23 bd 07 1d 19 3d
       0.023902021 0.046495616 -0.039828185 0.0373812
000300 0a 75 85 3d a7 bf 92 bd bb 26 91 3d 42 41 39 bd
       0.06516464 -0.07165461 0.070874654 -0.04522825
000310 ef 25 6b 3c ed 6e 03 ba 58 15 77 3d 68 82 95 bc
       0.014352306 -0.00050137826 0.06032309 -0.01825066
000320 86 47 30 bd b0 92 37 3d 73 45 75 bd 14 e8 b5 bd
       -0.04303696 0.044817626 -0.059880685 -0.08882156
000330 dc 49 24 3c c0 6c 90 bd f9 ba 79 3d d1 20 32 3d
       0.010027375 -0.070519924 0.060969327 0.043488327
000340 ec 3d 17 bd e9 a9 a7 bc 70 a9 94 3d 78 81 e3 bc
       -0.036924288 -0.020466762 0.0725888 -0.027771696
000350 62 37 c6 bd 9f af 15 3d 08 0b 56 3b fd 84 92 3c
       -0.09678532 0.03654444 0.0032660384 0.01788568
000360 8e 8f aa bb f1 09 59 3c 78 39 eb bd d7 d7 25 bd
       -0.0052051013 0.013246999 -0.11485571 -0.040489044
000370 d0 48 d7 bd a3 49 c0 3d 0f 74 42 3d fd 69 3e bd
       -0.10511935 0.09389045 0.047473963 -0.046487797
000380 3f 86 5e 3d c5 34 e3 3c 3a bf 58 bd 15 07 1b bd
       0.054327246 0.027735123 -0.052916743 -0.03784855
000390 f3 6f 24 3d 1a 92 c7 bd ad 3d 8e 3d 3b b0 7a bd
       0.040145826 -0.097446635 0.069453575 -0.061203223
0003a0 06 75 ba bd af 77 b0 3c 79 58 90 bc ea 8e 54 bc
       -0.09104352 0.021541445 -0.017620312 -0.0129735265
0003b0 fc 20 27 3d bd 65 e6 3c fd 61 41 bd 01 57 3b 3b
       0.04080294 0.028124684 -0.04721259 0.0028585794
0003c0 9b 44 30 bd 1b 34 8b bd 1c 3c ba 3c 6c 8a 6b 3d
       -0.043034177 -0.06797048 0.02273374 0.057505056
0003d0 ff 5b 53 bc b9 42 35 bc 9b e9 9f 3d 40 20 9c 3c
       -0.012900352 -0.011063271 0.078082286 0.019058347
0003e0 7d c9 0c 3c a6 38 8e bd 42 34 4c bc 1c 45 0c 3d
       0.00859296 -0.069443986 -0.012463631 0.034245595
0003f0 08 66 01 3d 5e ef a8 3c cb de f9 bb 73 0b 76 3d
       0.031591445 0.020621952 -0.007625436 0.060069513

features_extractor.encoder.conv.8.bias f4 [64]
000000 0e 1a f1 3c 9d c6 01 be 37 00 8b 3d 9f e4 b8 bb
       0.02943137 -0.12673421 0.0678715 -0.005642488
000010 49 8e 2a bd bd 64 f0 bb e7 25 bc bd f2 32 9d 3c
       -0.0416396 -0.0073362277 -0.09186917 0.019189332
000020 eb 02 0f bc b7 5c 06 3d 83 4c 9f bd 90 88 ee 3c
       -0.008728723 0.032803264 -0.07778265 0.029117852
000030 aa 1f 39 bb ef 3e d4 bc 1c 45 0c bd f4 8c 78 3d
       -0.0028247633 -0.025908915 -0.034245595 0.0606813
000040 4e 42 95 3b 8c 75 87 bd 02 a0 26 3b 94 50 44 bd
       0.0045550233 -0.06614217 0.0025424962 -0.047928408
000050 c5 a7 fa 3c 7e 25 38 bc 78 a4 eb bc 60 8d 22 bc
       0.030597577 -0.011239408 -0.028764948 -0.009921402
000060 87 3e 27 3c 13 17 da 3c 0a 0c 35 3d c9 ee 97 3d
       0.010207779 0.02662233 0.044200934 0.074185915
000070 bf 06 23 3d 63 6b fb 3a f8 f6 f1 bd 80 bd 8d 3d
       0.039801355 0.0019181784 -0.11814684 0.0692091
000080 78 8b 56 bd 58 09 7d bd 32 b1 8b bc d8 7d b2 bc
       -0.0523791 -0.06177649 -0.017052267 -0.021788523
000090 97 3a d4 3c f3 0b c3 3d 31 e5 c3 bc fa 7f 83 bb
       0.025906844 0.095237635 -0.023912998 -0.0040130587
0000a0 42 2f c1 bd f5 d6 a2 bd a6 c1 15 bd d9 7d c5 bc
       -0.09432842 -0.07951156 -0.03656163 -0.02410786
0000b0 04 a2 6a bd 1e c9 6c 3d 97 95 c3 3d 3b 1b 50 bb
       -0.057283416 0.057808988 0.095500164 -0.0031754512
0000c0 7b ef 92 3d 1a 50 d7 ba b4 53 34 bd fe 3c c3 bd
       0.071745835 -0.001642707 -0.044025138 -0.09533118
0000d0 77 e1 9e bd d3 6e e6 bd 47 b4 e5 bd 73 0f 94 bd
       -0.07757848 -0.11251607 -0.11216026 -0.07229509
0000e0 0e 15 88 bd 46 5f d9 bc 86 c6 cf bc 53 8d d0 3d
       -0.06644641 -0.026534688 -0.025363218 0.101832055
0000f0 7f ee 88 bd 1c 4f af bd 9c b8 c5 bc 5c 13 10 3d
       -0.066861145 -0.08560011 -0.02413588 0.035174713

features_extractor.encoder.conv.10.weight f4 [128, 64, 3, 3]
000000 60 59 ae 3a 86 9a 74 bc 06 8b ec bc 80 3b ed 3b
       0.0013301782 -0.014929419 -0.028874885 0.007239759
000010 cf 54 1b 3d d2 24 1e 3d 30 19 37 bc 56 2a bb bd
       0.037922677 0.038609333 -0.011175439 -0.09138934
000020 7a d6 c4 bc c0 24 2a bb f8 89 a4 bc aa f8 c1 3c
       -0.024028052 -0.0025961846 -0.02008532 0.023678143
000030 44 b7 2e 3c b2 57 5d bc 28 02 a9 3d 36 0e 43 bc
       0.010663811 -0.013509678 0.082523644 -0.011905244
000040 e4 56 7a bd 21 0d eb 3c 36 ff dd 3c d8 f3 a0 3b
       -0.06111802 0.028692784 0.027099233 0.004911881
000050 73 1c 10 3d a0 ba f6 3a 83 a6 dd 3b f7 b8 b4 3c
       0.03518338 0.0018823929 0.0067642345 0.022060854
000060 c1 51 06 3d c9 8a 0a bd cb d2 ec 3c 54 c7 2e 3c
       0.03279281 -0.033823762 0.028909108 0.010667641
000070 10 24 8c 3c 26 b4 a8 bc 87 53 21 bd 84 ae 74 bc
       0.01710704 -0.020593714 -0.0393863 -0.014934186
000080 2e 79 2a 3d 7c 7a 55 3c f3 a7 d6 bc 7c 4b cf bc
       0.041619472 0.013029691 -0.026203131 -0.025304548
000090 ce dd 13 bd 26 f5 c9 bc 68 a9 a5 bb 8b 4c e8 bc
       -0.0361002 -0.024653029 -0.005055595 -0.028356811
0000a0 b0 b1 69 3d 19 13 8f 3c b6 48 e5 3c 3a 9f 9c bc
       0.05705422 0.017465161 0.027988773 -0.019118894
0000b0 c3 69 24 3c ab f5 25 bd 58 f9 85 bb 60 e5 35 bc
       0.010034981 -0.04051749 -0.004088562 -0.011102051
0000c0 c0 97 8d 3b fd 3a 06 bd b0 59 91 3d 60 65 e9 ba
       0.0043210685 -0.0327711 0.07097185 -0.0017806701
0000d0 ba fa 3b 3d 2b b6 94 bc 63 88 ba bc 80 46 89 bb
       0.04589341 -0.01815327 -0.022770112 -0.0041893125
0000e0 58 4e 98 bb e3 2f a6 bc 42 65 64 3d 09 6f 74 3b
       -0.004648011 -0.020286506 0.05576063 0.0037297627
0000f0 49 e7 21 3d 7c 6c 88 3d b4 fd 00 bd da 56 d4 3c
       0.03952721 0.06661317 -0.03149195 0.02592032
000100 70 ee 7d 3c 0b 65 1a bd c2 35 b2 3c 4a 4c c9 3b
       0.015498742 -0.03769402 0.02175415 0.0061431276
000110 8f 73 91 3b b0 4f ea bc 4b 9c ac bc 64 bd 11 3d
       0.0044388245 -0.028602451 -0.02107062 0.035581008
000120 0c ff 54 3c 0e 7f 90 3c d7 43 19 bd 3e c9 8b bc
       0.013000261 0.01763871 -0.037418213 -0.017063733
000130 b2 12 df bd 13 a4 7f 3b be 1e a4 3c 5b fb 10 bc
       -0.10892238 0.0039007708 0.02003419 -0.00884899
000140 df 30 85 bc a0 e1 9e 3a d6 1d 44 bc e0 ed 92 3a
       -0.016258655 0.0012121685 -0.011970004 0.0011209808
000150 b2 f2 10 bd 7c 94 e6 3c 08 fb 48 3d 61 51 10 3d
       -0.035387702 0.028146975 0.049067527 0.03523386
000160 dd 6f 4e 3d 49 c5 01 be 43 a5 0f bd 2d 21 0e 3d
       0.05039965 -0.12672915 -0.035069715 0.034699608
000170 7c 94 30 3c 02 c9 ae 3c a4 57 d6 3d d1 40 e6 bb
       0.010777589 0.021336082 0.10465935 -0.0070267697
000180 70 1d 10 bd de 32 49 3d c2 63 de bd 20 e6 57 bc
       -0.035184324 0.049120776 -0.10858871 -0.013177425
000190 36 f8 e5 3c b0 bf 37 bb 00 f5 2d 3b 27 98 16 bd
       0.028072458 -0.0028037839 0.0026543736 -0.036766198
0001a0 3b cf 18 3d f0 cb 13 bc c9 95 9d 3c cc ac 09 3c
       0.037307005 -0.00902079 0.019236462 0.008403014
0001b0 08 32 f8 bb b0 00 53 bb b0 15 b3 bc d0 60 5e bc
       -0.0075743236 -0.0032196455 -0.021860927 -0.013572887
0001c0 17 23 e7 3b 01 c0 97 bc 2d 02 1d 3d 71 91 c9 3c
       0.0070537436 -0.018524172 0.038332153 0.024605485
0001d0 cf f3 eb 3c 71 59 23 3d a4 d1 26 3c 7a da b7 3c
       0.02880278 0.03988022 0.010181818 0.022443045
0001e0 78 ba 03 bd 1a fb c4 3c ae c3 81 3d 00 fb b6 bb
       -0.032160252 0.024045516 0.06336151 -0.0055841208
0001f0 22 f2 2c bd 8c 3d 2f bd 3c 65 6b bc 53 6b d9 bc
       -0.042223103 -0.042783305 -0.014367398 -0.026540434
000200 92 87 b3 3c d0 fb 43 3c 3f 04 c8 3c 80 18 80 bd
       0.02191523 0.011961892 0.024416087 -0.06254673
000210 50 f5 50 bb f5 e3 9e 3c bf 3a f9 3c 2f 77 21 3d
       -0.00318845 0.019395808 0.03042352 0.039420303
000220 f0 9c 23 bc 48 67 a2 3b 12 3e b6 3c 6b 24 c8 3b
       -0.009986147 0.0049561597 0.022246394 0.006107857
000230 15 a0 9b 3c 43 38 19 3d 27 38 17 bd 4b 73 53 3d
       0.018997231 0.03740717 -0.036918785 0.051623624
000240 ea be eb 3c 0d 3b 0a 3d f2 02 1b bd c2 f9 f5 3c
       0.028777558 0.03374772 -0.037844606 0.03002632
000250 f7 24 17 3d ff a8 29 3d b6 88 d3 bc a6 2d 4e 3c
       0.036900487 0.041420933 -0.025822025 0.012584126
000260 31 60 53 3d 68 be 84 3c eb ac 29 bd 05 0d 1a 3d
       0.051605407 0.016204074 -0.041424673 0.037610073
000270 03 5e 0a bd 51 c6 d3 3d 6d 49 ac 3d 2a ab be 3c
       -0.033781063 0.1034056 0.08412442 0.023274977
000280 5f 99 22 bc cb 44 87 3a a6 6f d8 bc 1b b4 b6 bc
       -0.009924262 0.0010320185 -0.026420426 -0.022302678
000290 ab 24 9a bc 9a 98 c3 3c 45 6d 19 3d 12 a4 34 bc
       -0.018816313 0.023876477 0.037457723 -0.011025446
0002a0 bc c0 63 3c 1e 05 29 bb 63 5a f9 bc da 9e e7 3c
       0.013900932 -0.0025790404 -0.030438608 0.028273989
0002b0 d0 e2 ed bc 84 0b 09 3c c0 f6 20 3c 1c d4 f9 bb
       -0.029038817 0.008364562 0.009824455 -0.0076241624
0002c0 36 c2 1e bc ba 15 dc 3c e4 e9 b7 3c 8d f4 70 bd
       -0.009689858 0.026865829 0.022450395 -0.05882697
0002d0 3c 80 5c 3c da 78 94 3c 86 8b 83 bc e3 ad f2 bc
       0.013458308 0.018124033 -0.01605774 -0.029623931
0002e0 36 09 e6 3c 4f 84 9e bc a6 00 ea 3c d0 ff b9 3c
       0.028080564 -0.019350199 0.028564762 0.022704989
0002f0 99 f1 76 bd 80 0a 8f 3c 43 74 04 3d 06 2b 5f bc
       -0.060289 0.017461061 0.03233744 -0.013621097
000300 1a 63 9a 3c 1b 12 1e b9 9c 42 35 bd 80 d7 1c bd
       0.018846083 -0.00015074799 -0.044252977 -0.038291454
000310 30 89 8b 3d 1f 60 9b 3d a2 66 fa 3c fb 58 0a 3d
       0.06813276 0.07586693 0.030566517 0.033776265
000320 2c 94 58 bc 28 5c 8d bb f4 22 ad 3a 90 cb a0 3c
       -0.013218921 -0.0043139644 0.0013209269 0.019628316
000330 60 f9 a1 3a 9f a4 41 bd 95 43 df bc aa 14 f8 3c
       0.0012357645 -0.047276136 -0.027253905 0.03028329
000340 f2 ad e3 3c 24 09 15 bd 2b ab 19 bd 15 e1 c4 3b
       0.027792905 -0.03638567 -0.037516754 0.006008277
000350 1c d4 f7 3c 88 d5 9a bb c6 4f 2c 3d 5e 05 01 bd
       0.030252509 -0.004725162 0.042068265 -0.03149926
000360 f8 2a a3 bb a2 86 ec 3c 76 7a 46 bc ea 52 f6 3c
       -0.0049794875 0.028872792 -0.012114158 0.030068833
000370 53 e3 82 bc 67 fa 77 bd 08 9a 9d 3b 48 2f 0b be
       -0.015977537 -0.060541537 0.0048096217 -0.13592255
000380 94 e5 17 3e 6c 3a 3b 3c 61 a9 17 3d 21 69 29 3d
       0.14833671 0.011427503 0.037026767 0.041360024
000390 30 79 4b 3b 92 56 2a bb c6 b8 5f 3c 30 96 c3 bc
       0.0031047575 -0.0025991541 0.013654893 -0.023875326
0003a0 cb 81 80 bd 49 73 ec bd 89 de 0c 3d 68 d2 91 3c
       -0.06274756 -0.115454264 0.034391914 0.017800525
0003b0 f0 eb 47 bb a2 dc cb 3c b2 17 91 3c f6 b2 53 3c
       -0.003050562 0.02488548 0.017711494 0.012921086
0003c0 fe 69 c6 bc 0e fe 33 bd 54 2c 0f bd 0a 44 d9 3c
       -0.024220463 -0.043943457 -0.034954384 0.026521701
0003d0 e6 92 c6 3c 6c 9a 59 bc ac 7b 1e bc cb a5 5b 3d
       0.024239969 -0.013281446 -0.00967304 0.05362491
0003e0 61 5e cd bb c0 cd 96 3c bc 51 c4 3d 61 56 d3 3c
       -0.0062673544 0.018408656 0.09585902 0.025798025
0003f0 ab 56 26 bd 80 1e 08 3b 20 cb b5 3b db db 03 3d
       -0.040609997 0.0020770133 0.005547896 0.032192092

features_extractor.encoder.conv.10.bias f4 [128]
000000 50 0a 33 3d 48 8d a5 bc 3b fc 08 bd 52 64 e0 ba
       0.043711007 -0.02020897 -0.03344367 -0.0017119742
000010 07 46 0c bc 98 fd 6f 3d 43 5a bf bb 95 75 53 3d
       -0.008561618 0.058591455 -0.0058396175 0.051625807
000020 ef ee 7c 3c 54 08 7f 3c f9 91 af bb 96 3b c8 bc
       0.015437826 0.01556595 -0.0053579775 -0.024442475
000030 34 b6 dd 3c 38 f8 8c b9 c8 df 6e 3b c0 fa b2 bc
       0.02706442 -0.00026887818 0.0036449302 -0.021848083
000040 a1 1c 88 3d ae 0d 67 bd a3 11 73 bd a6 af de bc
       0.066460855 -0.05640953 -0.05934299 -0.027183365
000050 7d b1 4c 3d ee a0 b8 bc e0 3a 8d 3d 67 46 65 ba
       0.049973954 -0.022537675 0.06895995 -0.00087461475
000060 fc 2a e9 3a a0 c0 a6 bd 49 47 8f ba 98 c6 05 bc
       0.00177893 -0.08142209 -0.0010931279 -0.008165024
000070 e0 7e 5e 3a 05 a8 f5 bc 4b e0 50 3d e6 30 3a 3d
       0.0008487534 -0.029987345 0.050995152 0.04545679
000080 27 14 6c 3b 8e 13 47 bd f0 72 a4 bd a1 e9 48 3d
       0.0036022754 -0.048602633 -0.08029735 0.04905093
000090 28 72 07 3d 90 5d 78 3d fe d3 49 bd 38 e9 72 b9
       0.033067852 0.060636103 -0.049274437 -0.00023165799
0000a0 1b 4b 14 bd 57 21 80 bd f9 0d 8f 3c cc d0 5b 3d
       -0.03620444 -0.06256359 0.017462717 0.05366592
0000b0 4b d7 96 3c c2 ac 92 bc a3 df c4 3d 73 26 61 3c
       0.018413207 -0.017904643 0.09612968 0.013742077
0000c0 f1 4f 62 bd 37 4a 71 bc 4e 89 bd bb 8e d4 76 bd
       -0.05525202 -0.014727167 -0.0057841903 -0.0602613
0000d0 28 98 d3 bc 7d cb 36 bb b2 62 c3 bc c8 73 82 3d
       -0.02582939 -0.0027892285 -0.023850773 0.0636974
0000e0 93 6f ef 3c 61 61 4c bc c1 b6 cd 3c 61 89 7b ba
       0.029228007 -0.012474389 0.025111558 -0.0009595361
0000f0 54 2c 1b bd 84 b8 8b bc fa c0 89 bd 37 c5 1a 3d
       -0.03788407 -0.017055757 -0.067262605 0.037785735
000100 89 9c 28 3d 80 60 0d 3d 99 d6 8d bb 65 bb 22 bd
       0.04116491 0.034515858 -0.0043285605 -0.039729495
000110 c8 06 5c bb 21 3d 8c 3d 62 6e d6 3c 29 be 76 bd
       -0.0033573378 0.06847597 0.026175682 -0.060239945
000120 e3 c8 62 3b 03 94 06 3d 28 ef 35 bb e8 9f 70 3d
       0.00346046 0.032856 -0.0027760956 0.05874625
000130 15 90 92 3d e1 50 30 bd bc 47 8c 3c 27 4c 0f 3d
       0.07156388 -0.043045882 0.01712405 0.034984734
000140 f5 8c 65 3d 6f 28 8d bc 9a f5 f2 3d 32 ad 7f 3d
       0.05604263 -0.017231194 0.11863251 0.06242103
000150 9f 26 17 3d 67 d0 70 bd e4 fc 33 3c b9 84 11 3c
       0.036902066 -0.058792498 0.010985587 0.008881741
000160 07 cf 59 3c 15 48 be bc 0a d0 32 3d 9a fc c0 bd
       0.013293988 -0.02322773 0.043655433 -0.0942318
000170 1e be 11 3d 83 70 a7 3b dd a6 f7 3c 5d ba 4f bd
       0.0355817 0.005109848 0.030230934 -0.05071484
000180 af 9f 24 bd 9d 8d 94 3d de 45 4b bd 73 c4 c8 3d
       -0.04019135 0.07253573 -0.049627177 0.09803095
000190 89 91 6f bd 86 be 95 bd 4e c8 53 bd 83 78 ed 3c
       -0.058488403 -0.0731173 -0.051704697 0.028988129
0001a0 9a f9 1d 3d 6d 6e 54 bd 8a 1e 35 3d b3 8e 75 3d
       0.038568117 -0.051863123 0.044218577 0.05995054
0001b0 ce 66 4d 3d 53 b6 7e bb 5a 02 ba 3d 01 c8 74 bc
       0.05014687 -0.0038865998 0.0908248 -0.014940263
0001c0 53 86 1e bd cf b5 a0 3d 60 79 25 b9 0f 96 cf 3c
       -0.03870232 0.07847177 -0.00015780842 0.025340108
0001d0 b0 cd 72 bc a3 1d 11 3d 8c 5b 7c bd 8e 49 06 bd
       -0.0148195475 0.035428654 -0.061610743 -0.03278499
0001e0 1b 96 ae 3d 88 9c 26 3c 1f f8 26 bc ca e8 50 3d
       0.08524724 0.010169156 -0.010190993 0.051003255
0001f0 eb 1d 6c 3c 88 54 7d bc 56 c1 b0 3d 3a 33 13 3d
       0.01441143 -0.015462048 0.08630626 0.035937525
