weights/image_scratch-nd-2-eps-900.pth (torch, 462898 bytes, 24 tensors)

log_std f4 [2]
000000 60 95 12 3f 52 69 bf 3d
       0.5725918 0.0934626

features_extractor.encoder.conv.0.weight f4 [4, 1, 3, 3]
000000 d1 36 9c 3e a9 9d ac 3e 1f 55 0c bc 53 42 98 3e
       0.30510572 0.33714035 -0.008565216 0.297381
000010 cf 54 e8 bc db 2d e6 3d fd 76 34 be 55 7d 78 3e
       -0.028360752 0.11239215 -0.17623515 0.2426656
000020 d6 1a ab 3e ab f7 50 be 7d 0b bd 3e 5f 52 e8 3d
       0.33418912 -0.20406978 0.36922827 0.11343836
000030 3a 33 96 3e 30 65 10 3e 13 35 62 3e 02 b0 31 3d
       0.29335958 0.141011 0.22090559 0.043380745
000040 11 ad bd 3e 4b b0 02 3e ad 61 4d be 37 b2 44 bd
       0.37046102 0.12762563 -0.20056792 -0.04802152
000050 5e 87 5d be 96 6d c0 3d b0 2d 1e be 30 ca a9 3d
       -0.2163367 0.09395902 -0.15447116 0.08290517
000060 08 ee 97 be 54 02 19 be ef 77 38 be c7 d4 97 be
       -0.2967379 -0.14942294 -0.18014501 -0.29654524
000070 eb 9b 25 3e d2 1c 11 bf b7 bb 5d 3e be b7 db be
       0.16172759 -0.566846 0.21653639 -0.42913622
000080 b3 00 9f 3e 79 30 dc bd ed 01 79 be ef b6 07 3e
       0.3105522 -0.10751433 -0.24317141 0.13253377

features_extractor.encoder.conv.0.bias f4 [4]
000000 81 21 09 3c c7 d1 5c 3e 0c 20 b7 3d af fb 55 bd
       0.008369804 0.21564399 0.08941659 -0.052241977

features_extractor.encoder.conv.2.weight f4 [8, 4, 3, 3]
000000 b5 d1 13 3d dc 70 8b bd 97 e8 46 3d dd 5d ed 3d
       0.036088664 -0.068086356 0.04856166 0.115901686
000010 86 a4 82 3d 10 9f e0 bd 7a 00 5d 3d 42 84 79 bc
       0.063790366 -0.10967839 0.053955533 -0.015229287
000020 87 39 1e 3d 27 1e fc bd 77 aa 45 be 3f 88 d2 bd
       0.03862908 -0.123104386 -0.19303308 -0.10279893
000030 11 dc 26 be ab 2a bf 3d 74 99 35 3b 48 4c b9 3c
       -0.16294886 0.0933431 0.0027709873 0.022619382
000040 b3 6b b3 3b fa e0 42 bd e0 a4 b6 3d 84 5f 31 be
       0.005475485 -0.047577836 0.08918166 -0.17321593
000050 2f af 0a bd ce a0 cc bd 83 13 4c 3d ef 74 b6 bd
       -0.033858474 -0.099916086 0.049823295 -0.08909022
000060 e2 ad 4e 3d bd a6 21 bd e2 09 f5 3d ba 96 cf bd
       0.050458796 -0.039465655 0.119647756 -0.10136171
000070 91 2b dd bd 0d a9 e1 bd 54 82 07 3e 00 d4 a2 3c
       -0.10799325 -0.11018572 0.1323331 0.01987648
000080 7a e4 04 3e 79 39 2f be c8 47 37 be 1f 18 16 be
       0.12977782 -0.17111768 -0.17898476 -0.14657639
000090 90 7d 99 bd b9 a7 a4 3d c2 13 48 3d fd 13 37 3e
       -0.07494652 0.08039803 0.048846968 0.17878719
0000a0 59 a5 76 bc 25 33 a9 bd 7e 3d 0c 3e 1d 48 1a bc
       -0.01505407 -0.08261708 0.13695332 -0.009416607
0000b0 6e 70 21 3e 99 d1 ef bc d0 9c a0 3d 5f f4 29 be
       0.15765545 -0.029274749 0.078424096 -0.16597126
0000c0 a4 b2 48 bd ae a3 9b 3d 7c 50 57 3d 9b e6 fa bc
       -0.04899849 0.07599579 0.05256699 -0.03062754
0000d0 df 5f f2 3d 71 db 0d 3e ee ae 10 be 46 d4 18 be
       0.11834692 0.13853242 -0.1412923 -0.14924726
0000e0 9f ff 0f 3e 63 5c 83 bd 0c 6b a4 bd ae b6 40 be
       0.14062355 -0.06414106 -0.0802823 -0.18819687
0000f0 af 90 ec bd d3 dd b6 bd 23 7c c3 bd 98 50 a6 bd
       -0.11551034 -0.08929028 -0.095451616 -0.08120841
000100 16 44 96 bd 41 59 40 be 21 5b 99 3c ff 58 a9 3d
       -0.07337205 -0.18784048 0.018720211 0.08268928
000110 95 60 af bb 42 f8 2f bd d7 02 89 3e df a4 c5 3d
       -0.0053520896 -0.042961366 0.2675998 0.09650587
000120 d3 ad ea 3d ec b2 c8 bd 26 5f a4 bd 9e 84 c3 3b
       0.114589356 -0.09799752 -0.080259606 0.005966737
000130 54 13 cf 3d 65 9d 90 3c ac 30 32 be b0 7f 53 bd
       0.101111084 0.017653177 -0.1740138 -0.051635444
000140 67 a0 19 3d 62 53 cf bc e5 eb bb 3c 3a 1a 5f bd
       0.037506487 -0.025308315 0.022939632 -0.05446837
000150 38 ed aa bd f4 cf a5 bc 93 28 fb 3c 62 09 00 be
       -0.08346027 -0.020240761 0.030658996 -0.1250358
000160 dd 57 54 3e 7b 70 35 3d 3b 66 25 3e 67 05 a6 3d
       0.20736642 0.044296723 0.16152279 0.08106499
000170 38 b6 0c be 08 d8 25 3e 12 44 9d 3c 41 51 ac b9
       -0.13741386 0.1619569 0.019197498 -0.00032866935
000180 b9 5e af bd 79 3b e6 bd 2c 29 b7 3d 29 90 7b bd
       -0.08562989 -0.11241812 0.089434 -0.06141678
000190 e1 a7 5b 3e 64 d6 27 be 3b 1d 0d bd 2c c1 0f be
       0.2145076 -0.16390377 -0.034451704 -0.14038533
0001a0 04 dc d5 3d 78 64 d9 3d 4f 9d 82 3e 09 24 2e 3e
       0.10442355 0.10614866 0.25510642 0.17005934
0001b0 f6 21 73 3e 23 b6 2e bd dd 9b 51 3d 4b 20 82 bb
       0.23743424 -0.042654168 0.051174033 -0.003971135
0001c0 71 df 98 3d 2f 52 12 be 65 9d 4f 3e 82 54 ba bd
       0.07464493 -0.14289163 0.20274885 -0.0909815
0001d0 ba 9e 74 3d 78 8e f2 3d 9b 2e ed 3d b8 a6 ed bd
       0.059721686 0.1184358 0.11581155 -0.11604065
0001e0 d5 d3 3f 3e 38 33 99 3d 4d 5b c6 bc b7 a8 02 be
       0.18733151 0.07480472 -0.024213457 -0.12759672
0001f0 5f 9e a5 3d b4 8f d2 bd 72 cc f1 bd 40 06 a3 3d
       0.080868475 -0.102813154 -0.11806573 0.079601765
000200 f3 1b 23 3d 97 ab 33 be fa ec 14 be c5 aa d1 bd
       0.039821576 -0.17545925 -0.14543524 -0.1023765
000210 f2 24 8b 39 76 79 b6 bd 97 d9 07 be 0c d0 12 3e
       0.00026539672 -0.089098856 -0.13266598 0.14337176
000220 03 31 7c 3d 96 c8 32 3e c5 8d a2 3e 8d 8b ec bd
       0.06157018 0.1745933 0.31748787 -0.11550055
000230 fc 16 a4 3e 68 e4 6f 3e 3d 57 59 3d f5 5b 68 3e
       0.32048786 0.23426974 0.053061713 0.22691329
000240 cd 14 01 3e 33 88 01 3e 3d 85 ba 3d 2a 76 5e 3c
       0.12605591 0.12649612 0.091074444 0.013577977
000250 4e da 8c 3c ee c1 5b 3d c1 49 ed 3c c3 78 c3 bb
       0.01719394 0.053651743 0.028965833 -0.0059653237
000260 a7 10 32 3e 54 99 2a 3e 32 36 26 3b 6d 77 69 bc
       0.17389165 0.16660053 0.0025361893 -0.014249665
000270 7c 8b 7a 3d a7 dd 59 3d 64 be ae 3d ba fc a6 3d
       0.06116818 0.0531899 0.08532408 0.081536725
000280 be 9e 07 be bc b5 04 bd c1 07 61 3e 7d 54 ac 3d
       -0.13244149 -0.032399878 0.21975614 0.08414552
000290 db 90 92 3d b5 8f 84 bd e8 96 b5 bd 5a c3 33 be
       0.07156535 -0.064727224 -0.08866674 -0.1755499
0002a0 3f 4f bb bd d0 d4 94 3c 7f 00 c7 3d 08 76 3c 3e
       -0.09145974 0.018167883 0.097168915 0.184044
0002b0 16 ab 4c be 48 49 42 bd 36 d3 15 3e 08 0d 80 3e
       -0.19987139 -0.047433168 0.14631352 0.25009942
0002c0 21 51 49 3e e1 ce 21 be a5 80 34 3d 35 f8 fd bd
       0.19659854 -0.15801574 0.044067997 -0.12400857
0002d0 8d ff a7 bd 63 ec 43 3e 4d c2 2c bd 57 ef f0 3c
       -0.08203039 0.19133143 -0.042177487 0.029411001
0002e0 b2 a3 99 bd 51 f1 3c 3e 8f 35 3e 3e 07 23 1a 3e
       -0.075019255 0.1845143 0.18575118 0.15052424
0002f0 19 bf 36 bd 88 ea 0b be ee 17 9b bd 93 df 2b 3e
       -0.04461584 -0.13663685 -0.075729236 0.16784506
000300 cf c9 06 3e ed a9 70 3e fe 4d 16 3e 83 a2 c4 3d
       0.13162921 0.23502322 0.14678189 0.09601309
000310 a4 4d 9d 3d 58 85 9a bd c2 f9 d4 bc 14 e0 5c be
       0.076808244 -0.075449646 -0.025998 -0.21569854
000320 de 38 11 3e e5 80 6e bb 2b 56 34 bd e0 0c 4d bd
       0.1418185 -0.0036392745 -0.04402749 -0.050061107
000330 4b 37 d9 bb a5 3b 5e be 1e 94 2e be 87 0d 8d 3e
       -0.006628906 -0.2170244 -0.1704869 0.27549383
000340 d8 66 e3 bc 9c 14 e4 3d c8 4e ef 3d 82 b9 76 bb
       -0.027759 0.111367434 0.11684948 -0.0037647192
000350 31 ee 32 3e af f1 68 bd 2e 0e 1f bd c0 a1 1a bd
       0.17473675 -0.056871112 -0.038831882 -0.037751913
000360 82 92 57 3e c2 9b 36 bd 08 a2 de 3d 73 5f cc 3d
       0.21051982 -0.044582136 0.10870749 0.09979143
000370 c4 65 27 3e 8e be 08 be 7f 2e f9 3d 5d ce a0 bd
       0.16347414 -0.13353941 0.121670716 -0.07851861
000380 f1 7c 21 3d 0e 6a 4c 3e d1 67 b5 bb 1f b0 a4 bb
       0.039425794 0.19962332 -0.0055360575 -0.005025878
000390 df 97 06 bd 3b 88 0c be 8a 5e 67 3d 07 20 4a be
       -0.03285968 -0.13723843 0.056486644 -0.1973878
0003a0 ec 5a 90 3d 23 24 7f 3d 01 cc c7 3d 47 76 c4 bd
       0.07048592 0.062290322 0.097557075 -0.09592872
0003b0 87 30 18 be cb 27 2b bc 1f a1 80 3c d2 66 56 be
       -0.14862262 -0.010446499 0.015701829 -0.2093766
0003c0 c2 c8 d4 bd c8 63 05 be b2 4d 51 bd 1b 93 0f 3d
       -0.10389854 -0.13026345 -0.051099487 0.0350524
0003d0 96 8f 20 be 84 d0 5d be 71 64 35 be e0 63 73 bd
       -0.15679774 -0.21661574 -0.17714097 -0.05942142
0003e0 f5 c8 9e 3d 48 e5 93 bd de 72 02 be 40 14 aa bd
       0.07753173 -0.07221466 -0.12739131 -0.08304644
0003f0 6b 1f 1a be 54 15 26 be 04 b8 7d 3d 63 68 bb bd
       -0.15051048 -0.16219074 0.06194307 -0.091507696

features_extractor.encoder.conv.2.bias f4 [8]
000000 3d 4e 32 be 8f 50 86 bd 47 12 3e 3e e1 17 0b 3b
       -0.17412658 -0.06558334 0.1856166 0.002122395
000010 f9 aa f2 bd de e1 d1 bd 61 57 28 3d d8 e5 fd bd
       -0.11849017 -0.10248159 0.041098956 -0.12397355

features_extractor.encoder.conv.4.weight f4 [16, 8, 3, 3]
000000 cf b8 95 bc 5e 86 ac 3d ba a4 ec bc 32 93 46 bc
       -0.0182766 0.08424066 -0.028887141 -0.012120055
000010 59 29 6b 3c a7 36 53 bc 12 10 91 bd 09 f5 b9 bd
       0.01435312 -0.012891448 -0.07083143 -0.0907994
000020 58 61 87 bd fd 50 ca bd e7 43 0e 3e 96 45 76 bd
       -0.06610364 -0.098787285 0.1389309 -0.060124956
000030 45 8a 92 bd e1 fc 8d 3d a7 19 06 3d 6a 96 06 3d
       -0.07155279 0.069329984 0.032739308 0.03285829
000040 75 a2 d8 3d 42 3a ce ba fc ad cc bd 6b 7a 0b bd
       0.10577861 -0.0015733915 -0.099941224 -0.034052294
000050 0e a7 db 3d 44 13 6f 3d eb ba e2 bd c8 f2 52 3d
       0.107252225 0.058367983 -0.11070808 0.051501065
000060 2e f2 a7 bd d3 be da bd 36 c1 10 be 51 06 fa bd
       -0.08200489 -0.10680928 -0.14136204 -0.12208236
000070 d9 6b 43 3d a1 73 cf bc 2c 35 0e be 88 41 a6 bd
       0.047710273 -0.02532369 -0.13887471 -0.08117968
000080 70 a5 be bd 39 d1 b2 bd dc 46 1b 3e 30 65 6d 3d
       -0.093088984 -0.08731312 0.1516375 0.057957828
000090 84 35 11 be 53 ba 60 3c 79 92 07 be d9 30 ce bd
       -0.14180571 0.013716298 -0.13239469 -0.10067911
0000a0 e4 d7 6a 3d b9 aa ae 3d e1 c9 87 3d fb af 54 bd
       0.057334796 0.085286565 0.06630302 -0.05192564
0000b0 ce c4 94 3d 97 63 0f be f5 4a a3 3d 54 3b c5 3d
       0.072641 -0.14002834 0.07973281 0.096304566
0000c0 03 9c f1 3b aa f9 46 3e 0d b1 92 bd c3 f3 c1 bb
       0.0073733344 0.19431177 -0.07162676 -0.0059189512
0000d0 e4 a8 b5 3d 91 b2 d5 bd d6 fe 98 bd 01 6e 03 bd
       0.08870104 -0.104344495 -0.07470481 -0.03208733
0000e0 e9 8f 76 3d 50 c3 7e 3c d0 95 1e 3d 71 07 ad bd
       0.060195837 0.015549496 0.03871709 -0.08448685
0000f0 c0 45 15 be 0c 76 15 3d b1 ce 3e 3c 72 e0 5e bd
       -0.14577389 0.03648953 0.011645959 -0.054413266
000100 3e 10 07 bd 93 01 a3 3d 18 d0 19 3c 50 3c ae 3b
       -0.032974474 0.07959285 0.009387992 0.0053172484
000110 2c 98 ed bc 84 92 da bd 90 f0 e2 bd 20 bf 66 bd
       -0.029003225 -0.10672477 -0.1108104 -0.056334615
000120 92 a8 36 bd 3f 9d 83 3d 5d b0 78 bc 2e 86 24 bd
       -0.044594355 0.06426477 -0.015178767 -0.040167026
000130 d7 6d 00 3e 57 18 67 3d cf 2a a7 3d 6b 0e 45 bd
       0.125419 0.056419697 0.08162462 -0.048109453
000140 a7 6c 34 bd 79 80 a5 3d 8e 8d 78 bc 08 25 73 bd
       -0.04404893 0.08081145 -0.015170468 -0.059361488
000150 b8 28 b0 bc ca ab 3b 3c a5 11 35 3c 30 41 3e bd
       -0.021503791 0.011454532 0.01105157 -0.046448886
000160 9f 77 d0 3c 18 c5 33 bc 61 72 96 3b 3a ae 2b be
       0.025447665 -0.010972284 0.0045912717 -0.16765681
000170 0d d2 ab bd 05 69 5b ba 0f 2f 13 3d 4b b6 84 bc
       -0.083896734 -0.0008369836 0.03593355 -0.016200205
000180 b3 9b 66 bd d8 fd 3d 3d 25 d4 b7 bd 6b 42 71 bd
       -0.05630083 0.046384662 -0.0897601 -0.05890123
000190 0e 94 3b 3c b6 20 98 3d 27 8f bc bd e0 21 b5 3d
       0.011448873 0.07428114 -0.09206992 0.08844352
0001a0 bd e5 0e bd 89 4b c3 3c f7 db 6d bb 68 25 8a 3d
       -0.034887064 0.023839729 -0.003629444 0.06745416
0001b0 db c1 dc 3d d1 b0 3f 3d 35 a3 9f bc 2d f0 fe 3d
       0.107791625 0.046799485 -0.019487003 0.12448154
0001c0 f8 17 3f 3e 1b 32 bf bd 1d af c1 bc a8 d3 99 bd
       0.18661487 -0.09335729 -0.02364307 -0.07511073
0001d0 93 e5 a2 bd 5b 64 87 3d b6 42 15 3e a0 c6 b1 bc
       -0.07953944 0.06610938 0.1457623 -0.021701157
0001e0 71 a6 de bb 51 fc 27 3e e6 0b 09 3d 7e b9 99 bd
       -0.0067947437 0.16404845 0.033458613 -0.07506083
0001f0 ca 98 71 bd c0 01 09 3d 0c da f0 bc 43 87 1c bd
       -0.0589836 0.033448935 -0.029400848 -0.038214933
000200 50 9c e7 3d 09 3d dd bd dd 06 4e bd f3 83 b5 bd
       0.11309111 -0.10802657 -0.050299514 -0.08863058
000210 56 eb 33 3d 44 36 b2 3d d4 a3 b6 3d 35 ae 8d 3d
       0.043925606 0.087017566 0.089179665 0.06917993
000220 ab 55 b6 3d 34 39 81 bc 72 cd 84 bd 7e 31 71 3d
       0.089030586 -0.015774347 -0.06484498 0.05888509
000230 e2 22 7a bd 91 e2 a2 bd fa 25 1a bd 14 9b ca 3c
       -0.061068423 -0.0795337 -0.037633874 0.02473215
000240 90 e3 25 3d 85 5b 58 bd 6f 58 52 bd 78 e4 19 3d
       0.040500224 -0.052821655 -0.051353868 0.0375714
000250 90 b0 90 bd 51 ac a0 bd 06 58 81 3d c7 51 9f bc
       -0.070649266 -0.07845367 0.06315617 -0.019448174
000260 27 d9 ed 3d d3 37 92 3c d2 ef 4d 3d cc 40 08 3d
       0.11613684 0.017848885 0.05027754 0.03326492
000270 62 7c e9 3b 4f dd 30 3d a9 54 46 3d 5f 1a 35 bd
       0.0071254233 0.043179806 0.048420582 -0.044214603
000280 23 96 c2 bc 59 10 b2 3d 08 97 4b bd e7 a6 b0 bd
       -0.023753231 0.08694524 -0.04970458 -0.08625584
000290 de b3 ff 3c 62 14 84 bd b6 c3 98 bc 8d 9c 54 3d
       0.031213697 -0.064492 -0.01864801 0.05190711
0002a0 dc a4 c9 3d 88 09 47 3d 83 50 bc bd b0 6b e9 3c
       0.098458976 0.048593074 -0.09195044 0.028493732
0002b0 3b 17 7b bb 41 6a dc 3b 1b 0e cd bd 93 fd 2a be
       -0.0038313407 0.0067265336 -0.10012456 -0.16698293
0002c0 a3 5d f2 3d 17 02 37 be 39 26 d7 bd 37 75 96 bd
       0.11834266 -0.17871891 -0.10505337 -0.07346576
0002d0 a1 ef 09 3e dc dc 89 bd 1b 27 a5 3d c3 9f e9 bd
       0.13470317 -0.06731579 0.080640994 -0.11407425
0002e0 d2 2b 29 3b 4a 83 f8 3d f1 22 8e bd b1 b0 94 3d
       0.0025813472 0.121344164 -0.06940258 0.07260264
0002f0 f5 91 10 3e bc 21 42 be 38 3d e7 3c 31 3d 61 3d
       0.14118178 -0.18958181 0.028227434 0.054989997
000300 83 d3 5b bd 39 47 75 3d d0 20 cf 3d 99 32 8a bd
       -0.05366851 0.059882376 0.1011368 -0.06747932
000310 b1 a6 3b bd 41 62 c4 3d 43 80 22 3e 56 2b cc 3c
       -0.045813266 0.09589053 0.1586924 0.024923008
000320 c8 1a c7 bd 6d cb 53 bd 79 80 d8 bd ee 1e 18 3e
       -0.09721905 -0.051707674 -0.10571379 0.14855549
000330 66 ee 0f be d3 50 ce bb 9e aa 8a 3c 9c cd ab 3c
       -0.14055786 -0.006296256 0.01692706 0.020972066
000340 27 20 e3 3d 58 78 37 3c 59 c9 8b 3d 21 59 bb 3d
       0.11090117 0.011198126 0.068255134 0.09147859
000350 17 da c2 3d 1c b5 26 bd 20 ed d7 bc e2 a3 68 3d
       0.095142536 -0.040700063 -0.026358187 0.056796916
000360 97 09 9a bc 3f 29 b5 3d b1 bb 72 bc 83 09 ae bd
       -0.0188034 0.08845758 -0.014815257 -0.08497908
000370 51 d7 2c 3d 47 3d 70 3c de 72 2a 3d 22 a0 e7 3d
       0.04219753 0.014663047 0.041613452 0.1130984
000380 ba a1 8f 3d a4 cf 35 3e b7 69 9d 3d 44 d3 a4 bd
       0.07013269 0.1775499 0.07686179 -0.08048108
000390 7c bf ae bd 3c ba 0a bc 4b bc 0b be 0b 91 9f be
       -0.085326165 -0.008467253 -0.13646047 -0.31165347
0003a0 2f 6e 71 be f4 e7 1f be b2 a8 54 3d e8 0a f5 bb
       -0.23577188 -0.15615827 0.051918693 -0.0074781068
0003b0 5a 09 83 bd c9 30 28 3d 51 b4 f8 3d 6b f4 87 bd
       -0.06398268 0.04106215 0.121437676 -0.06638416
0003c0 f0 cf 8c bd 29 f5 2b 3e 9e fd 08 bd 61 2e cc bd
       -0.068755984 0.1679274 -0.033444993 -0.099697836
0003d0 3a dd d6 3d 3a f9 0b be 8c 7d f6 3c ed d4 45 3e
       0.10491414 -0.13669291 0.030089162 0.19319506
0003e0 71 70 cc 3d 17 f0 3b bd 17 0a a0 bd 2b fa 9a 3c
       0.09982384 -0.045883264 -0.078144245 0.018918118
0003f0 f3 bd 73 bd 2d 6d 3c 3c 89 09 87 bd a3 be 29 3e
       -0.05950732 0.011500639 -0.065936156 0.16576628

features_extractor.encoder.conv.4.bias f4 [16]
000000 ad 1f 2d bd bc 37 98 3d f5 21 08 bd 89 e7 30 bd
       -0.042266537 0.074325055 -0.03323551 -0.04318956
000010 c3 50 8d bd 57 a6 21 be db 0d d9 bd 0f b5 09 be
       -0.0690017 -0.1578611 -0.10598346 -0.13447975
000020 be 93 be bd 89 5c dd bc e7 77 83 bb 40 2a cc 3d
       -0.09305523 -0.027021663 -0.004012096 0.09968996
000030 d5 1f a0 3d 8f 28 54 bd 50 31 73 bb 96 24 08 bd
       0.078185715 -0.051796492 -0.003710825 -0.033238016

features_extractor.encoder.conv.6.weight f4 [32, 16, 3, 3]
000000 06 cf ae 3d d4 ba 85 be e7 56 bc 3d 41 85 24 3d
       0.0853558 -0.261191 0.09196263 0.040166143
000010 76 f9 d6 3c 19 b6 ea 3d 8c c0 c5 bd 83 7e e9 3d
       0.026242 0.114605136 -0.09655866 0.11401083
000020 81 70 40 bd 87 1d ab 3d 86 03 43 bd 9b f3 2d 3c
       -0.046982292 0.08355241 -0.047610782 0.010617162
000030 95 93 8a 3d 3b 4b 78 bc 86 e8 4e 3d 91 fd 34 bd
       0.0676643 -0.015154655 0.05051472 -0.044187132
000040 22 f4 18 3d 84 0a 51 3d 4f 6b 7a bc b0 4b af 3c
       0.0373422 0.05103542 -0.015284373 0.021398395
000050 43 dd e0 bd 7e 41 61 bc 94 52 af 3d b4 f4 78 bd
       -0.10979702 -0.013748525 0.085606724 -0.060780242
000060 1d 61 d1 3b d0 7d 1f bd 80 c8 54 3d 03 09 1e 3e
       0.0063897506 -0.038938344 0.051949024 0.15433125
000070 87 e8 e7 3a 27 21 0b 3e 28 24 96 bc e2 9d 3c 3c
       0.00176932 0.13586865 -0.018327788 0.011512252
000080 8c 22 09 3e 80 fc d0 ba a5 2c 1c 3e bc b4 1b 3e
       0.13392085 -0.0015944391 0.15251406 0.15205663
000090 a7 96 60 3c 61 6b d3 bc 2f 31 d4 3d ad 18 bc 3d
       0.013707793 -0.025808038 0.103609435 0.09184394
0000a0 c0 28 d9 3c 3a aa 14 3e c6 fa 18 3d f7 a4 07 3e
       0.026508689 0.14518061 0.03734853 0.13246523
0000b0 e4 be 08 be eb 50 01 bd f7 71 0e be 6f 88 c0 bd
       -0.13354069 -0.03157131 -0.13910662 -0.09401023
0000c0 eb 0e b0 bd ad 6b 0d bc b3 cd e3 3c bc f4 04 bd
       -0.085965954 -0.008631629 0.027808046 -0.03245996
0000d0 e3 8b df bc 59 eb f2 bd 7f 1a fb 3c 4f 55 87 bd
       -0.027288383 -0.11861295 0.030652283 -0.06608068
0000e0 7d 6e bf 3c 21 3e e2 3d a0 3a 8a 3b cd 0e 03 bd
       0.023368115 0.110470064 0.0042184144 -0.031996537
0000f0 89 ba 0d 3e de 10 9b 3d b2 fd 1e bd 99 f0 c3 3d
       0.13840689 0.075715765 -0.03881616 0.09567375
000100 cc 4c 29 be ee 33 bf bb 6c e2 9e 3c 7e b1 a3 3c
       -0.16533202 -0.005835048 0.019395076 0.019982096
000110 b0 7f cd 3c 3c 70 a6 bd 82 f1 54 3d 0f a5 cf 3c
       0.0250853 -0.08126876 0.051988132 0.02534726
000120 90 93 89 bd 6b d1 cd bd 16 b9 69 bd 40 b4 2b 3d
       -0.067175984 -0.10049709 -0.057061277 0.041919947
000130 69 b1 2a bd 51 57 d4 bd a1 36 f7 bb 3d 0d 98 3d
       -0.041673098 -0.10368217 -0.007544354 0.074244
000140 14 bb 5d 3c a1 2f 74 3d 1d 2f 0a be da 91 50 3d
       0.013533372 0.059615735 -0.13494535 0.050920345
000150 ed ca f8 3c 91 35 14 3d 80 a0 d2 3d 27 0d 16 3d
       0.0303702 0.036183897 0.10284519 0.036633637
000160 9d 5d 53 3d db 63 18 be 6e 57 4d 3a 15 0c 33 be
       0.05160295 -0.14881842 0.00078331574 -0.17485078
000170 64 2c 33 bc 34 72 e4 bd eb 81 27 bd 04 ef 2a 3e
       -0.0109358765 -0.11154595 -0.040895384 0.1669274
000180 b3 ea c4 bd 2e d4 b2 3d 53 1d 29 be fa f6 1f bd
       -0.09615078 0.08731876 -0.16515093 -0.039053895
000190 f1 4f d9 bd 25 89 f0 3d 5e 94 62 bd 5d 16 5b bd
       -0.10610951 0.11744908 -0.055317275 -0.053488124
0001a0 cc 94 bb 3d fb 28 96 bd 6c d4 5e 3c 6b e1 9c 3d
       0.0915924 -0.07332035 0.01360045 0.076601826
0001b0 53 ff 2c bd d5 6c a6 bd 44 45 97 3d 30 e2 9b bd
       -0.042235684 -0.08126227 0.07386258 -0.07611501
0001c0 11 db 9b bc 34 b7 01 3d 8b 8d c5 3d e8 b8 f5 3c
       -0.019025357 0.031668857 0.09646138 0.029995397
0001d0 df 1d 72 bd 53 68 02 be 18 7d 3d bc bb 01 5b bd
       -0.05911052 -0.12735109 -0.011565469 -0.053468447
0001e0 97 d2 0f 3c 94 0d 91 bd ff b1 f1 3c 97 9c db bd
       0.008778236 -0.07082668 0.02950382 -0.107232265
0001f0 eb 58 36 3d b0 1c 03 3e f1 5b dd 3d 8f 6a f2 bd
       0.044518393 0.12803912 0.10808552 -0.11836731
000200 10 8f 95 ba 7e c2 0a bd 34 8d 50 3d a2 24 07 bc
       -0.0011410434 -0.03387689 0.05091591 -0.00824848
000210 39 55 58 bd 24 19 99 3d e7 2b 75 3d 36 9c ab 3d
       -0.05281565 0.07475498 0.05985632 0.08379404
000220 3e d3 67 3d 63 3f c7 3d af 3d 85 bd 2a aa 06 3e
       0.05659794 0.09728887 -0.06505906 0.1315085
000230 d6 f9 3b 3c fb e2 a6 bd db 06 4f bd dd 55 bf bc
       0.01147314 -0.08148762 -0.050543647 -0.023356372
000240 74 d3 c1 3c 7f 88 f0 bd 27 f3 df ba 75 1d 77 bc
       0.023660399 -0.117447846 -0.0017086015 -0.015082707
000250 99 30 6d 3d 0f d8 f8 bd ab 15 0f 3d 7a cc 4a 3b
       0.057907674 -0.12150585 0.034932774 0.0030944631
000260 65 06 18 bc 6c c7 f9 bd 6a a0 9b bc 3d 81 51 bc
       -0.009278868 -0.1219624 -0.01899739 -0.01278716
000270 f0 e1 26 3d 80 60 b8 bc 58 c5 f2 3c 94 b1 1c 3d
       0.040742815 -0.022506952 0.029635116 0.03825529
000280 3f 82 0b 3d 78 a7 0a bd 25 03 30 be f9 62 94 bc
       0.03405976 -0.033851117 -0.171887 -0.0181136
000290 77 46 42 3d 5d 67 23 3d 99 d8 87 bd c5 bc 05 bd
       0.04743048 0.039893497 -0.066331096 -0.032650728
0002a0 b1 04 af 3c e7 46 d0 3d 94 09 d8 3d 17 a2 09 3c
       0.021364542 0.101697735 0.10548702 0.008400462
0002b0 cd 10 92 3d 79 d7 d9 bc a2 6b 50 3d 42 13 ab bc
       0.07132111 -0.026592003 0.050883897 -0.020883206
0002c0 7c 65 02 bd 4c f4 f3 3d 35 1b 5c 3e 5c a6 ed 3c
       -0.031835064 0.1191183 0.21494754 0.02900999
0002d0 b8 2f 55 3d c8 03 24 bd 25 e8 28 be 36 f7 6d 3d
       0.05204746 -0.04004267 -0.16494806 0.058097087
0002e0 d8 92 a9 bc 66 04 a7 bd 30 0b c9 bd a7 4e 1b 3d
       -0.020699903 -0.08155136 -0.09816587 0.037916806
0002f0 3d 3a 62 3d bd ac ba bc e6 dc 65 be b2 e9 15 be
       0.05523132 -0.022787446 -0.22447547 -0.14639929
000300 a4 a4 95 3c 63 a7 5c bd 18 fc e9 bd 90 11 6b bc
       0.018266983 -0.05387057 -0.11425036 -0.014347449
000310 5b a5 b7 bd 8d ae ca 3d 52 8c ec 3d 70 5e c9 bd
       -0.08967086 0.09896574 0.115502015 -0.09832466
000320 62 85 0a bd 58 d6 c8 3d 12 95 b2 3d 78 db de ba
       -0.03381861 0.09806508 0.08719839 -0.0017002663
000330 12 42 bb bc d0 9b 31 3e b2 77 34 bd 08 79 39 3d
       -0.022858653 0.17344594 -0.044059463 0.04528144
000340 67 8d f4 bd 62 1a bc 3c fb b2 f5 3d 92 90 06 be
       -0.11941033 0.022961799 0.119970284 -0.13141087
000350 21 0e ea bc 2f 18 97 3c 6f 4a ea 3d d1 1b 83 bd
       -0.02857119 0.018444149 0.11439978 -0.0640179
000360 11 88 c1 bd f0 be 92 3d c7 a2 0e be bb 22 97 bd
       -0.09449781 0.07165325 -0.13929282 -0.07379671
000370 9a 3b ac bd 3f a1 63 3c f6 7d 26 3e 51 b1 ec bd
       -0.084098056 0.0138934245 0.16258988 -0.11557258
000380 99 42 6c 3d ff 9d 24 bb f2 20 d7 bd 04 5e f9 3c
       0.0576807 -0.0025118587 -0.10504331 0.030440338
000390 62 22 e1 3d bc 5e d7 bc b5 c1 eb bd e2 86 b8 bc
       0.10992886 -0.02629029 -0.11511556 -0.022525255
0003a0 5c 02 9c 3d 56 41 f1 bc 78 1d 8e bd 60 e4 32 bd
       0.076176375 -0.0294501 -0.069392145 -0.043674827
0003b0 15 31 45 bd ac 17 a8 3d 85 50 80 bc bd ab fa bc
       -0.04814251 0.0820764 -0.015663395 -0.03059947
0003c0 1c 86 24 3d 7b ef 0b 3e 1f 87 21 3d d2 70 5f 3d
       0.04016696 0.13665573 0.039435502 0.054550953
0003d0 8b a5 93 bd d8 6b 04 bd 7f cf fe 3c ba f4 d8 3c
       -0.07209309 -0.03232941 0.031104801 0.026483882
0003e0 ce 3e b5 bd 7c fe 90 3d 6d b4 41 3d e5 e9 22 bd
       -0.0884987 0.07079789 0.047291208 -0.03977384
0003f0 df 3e ce 3d 34 7c b9 bd ae 9d 1c 3c b7 cc e0 3d
       0.100705855 -0.09056893 0.009559078 0.10976546

features_extractor.encoder.conv.6.bias f4 [32]
000000 4c ec 0b bc 3a 2b 58 bd 04 b5 80 3c 9a bf b9 bd
       -0.008540224 -0.0527756 0.015711315 -0.09069748
000010 4d c1 90 bd 35 7c 81 3d 2f fe 1e 3c a3 33 7d bd
       -0.07068119 0.06322519 0.009704157 -0.061816823
000020 84 90 c4 bd 6a cd 04 be b8 26 46 bc 33 1a 23 be
       -0.09597877 -0.12968984 -0.012094192 -0.15927963
000030 c1 af 25 bd e2 5d 9b bd 17 11 5e bd 94 5d f8 3c
       -0.040450815 -0.07586266 -0.054215517 0.030318059
000040 5f e5 a0 bd e5 19 ef bc a5 dd 54 bd e5 9c 9e bd
       -0.07856249 -0.029187152 -0.05196919 -0.07744769
000050 e8 20 41 3e da 48 7c bd 63 9e aa bd ce 48 8e bc
       0.18860209 -0.061592914 -0.08330991 -0.0173687
000060 5e 60 e9 bc 3f 79 57 bc 51 9e 8a bc a8 5c b0 bc
       -0.028488334 -0.013151466 -0.016921194 -0.021528557
000070 b8 48 e6 3c 3f 9f 08 be 47 1b d5 bc f8 35 60 bd
       0.028110847 -0.13341998 -0.026013983 -0.05473897

features_extractor.encoder.conv.8.weight f4 [64, 32, 3, 3]
000000 e4 e7 47 bb 58 20 fa bd 03 c1 dc bc 25 86 e6 bc
       -0.0030503208 -0.122132 -0.026947504 -0.028140137
000010 2f d7 59 be d2 dd e0 bd 59 30 c2 bd 1e 57 e2 3c
       -0.21273492 -0.10979809 -0.09481878 0.027629431
000020 7d a1 c3 bd 24 e7 c2 bd 53 77 8f bc d1 d4 04 bd
       -0.09552286 -0.09516743 -0.017512953 -0.03242952
000030 3b c3 fb bd 52 f5 c8 3d c2 04 c0 bd dd 66 23 3b
       -0.12293097 0.09812416 -0.093759075 0.0024933137
000040 70 41 ee bd d9 7a 3b be f5 9f af bd d4 b4 ea 3c
       -0.11633575 -0.18308581 -0.08575431 0.028650679
000050 10 4d a5 3c ae 71 dd bd cb 9c e2 bd c0 30 34 3c
       0.020178348 -0.10812698 -0.11065062 0.010997951
000060 68 6e 10 3d 1d 33 09 3e 08 9f 5c bd 46 f7 87 3c
       0.03526154 0.13398404 -0.0538626 0.016597401
000070 5e 51 ff bc 6c ed d3 bd a7 c1 15 be 4a 51 4b 3e
       -0.031166729 -0.10348019 -0.14624654 0.19855228
000080 76 f6 e1 3c da ce a0 bc af 07 1c 3e b7 8d 61 bc
       0.027583342 -0.019629885 0.15237306 -0.013766698
000090 2b 72 05 3e 03 27 75 bd 74 61 6d 3d 39 f8 84 bc
       0.13031833 -0.059851658 0.057954267 -0.016231643
0000a0 81 01 44 be b0 a2 f6 3b 95 3d d5 bb c7 2f 78 bd
       -0.19141199 0.007526718 -0.0065075853 -0.06059244
0000b0 14 7c b5 bd 30 23 11 3d 06 bb 0a be b8 88 33 3d
       -0.08861557 0.035433948 -0.13547906 0.043831557
0000c0 09 07 87 bd 57 32 0b be 79 87 5f be 4f 01 16 bd
       -0.06593139 -0.13593422 -0.21829022 -0.03662234
0000d0 9e 9e 6e bd a5 4c ec bd 60 b5 00 3e 98 90 72 bd
       -0.058256738 -0.11538056 0.12569189 -0.059219927
0000e0 b3 dd e8 3d 3e 6e cd bc 4f 08 22 be cf c5 84 3c
       0.11370411 -0.025076982 -0.15823482 0.016207604
0000f0 64 0b 21 be 34 3c 58 be 5c d0 d4 bd 72 f5 0f 3e
       -0.15727001 -0.21116716 -0.10391304 0.14058474
000100 7a a4 b2 bd 38 42 45 3d 32 60 cf bd 2a ba 03 be
       -0.08722778 0.048158854 -0.1012577 -0.12863985
000110 1d 2e c0 bd 0b 20 37 bc e3 6c 94 bc 9f 9c ac bd
       -0.093837954 -0.011177073 -0.018118327 -0.084283106
000120 b8 fa 2a bc b8 58 ca 3d 3b ea bf bd ed 59 55 bd
       -0.010435753 0.09880203 -0.09370848 -0.052087713
000130 a6 b3 ca bd f8 74 88 3d 50 ca 10 3e cd 30 d8 3d
       -0.098975465 0.06662935 0.14139676 0.10556183
000140 2c 44 27 3d 03 8a b1 ba 59 82 21 bd de f4 46 3d
       0.0408365 -0.0013545159 -0.03943095 0.048573367
000150 1a a1 17 be 33 fa 14 be cd d7 b3 3c 0e 83 5c 3d
       -0.14807549 -0.14548568 0.021953488 0.05383592
000160 bd e4 ce 3b 92 9c d4 3b 47 03 ca 3d a1 4c 80 3d
       0.006313889 0.006488391 0.09863906 0.06264616
000170 95 a8 82 3d 6b 37 4a be 43 78 f0 3d 68 ef 64 be
       0.06379811 -0.19747703 0.11741688 -0.22356951
000180 cf 8a 36 3d 88 ce 0a bd e3 8c 20 be 14 25 40 3d
       0.044565972 -0.03388837 -0.15678744 0.04691036
000190 da 66 ff bd 60 5d ba 3d 03 56 79 bd 74 c5 98 bd
       -0.12470789 0.09099841 -0.060873043 -0.07459536
0001a0 26 43 a3 bc 7b b5 21 bc c5 c1 95 3b 80 de 8c 3b
       -0.01992948 -0.0098699285 0.0045702183 0.004298985
0001b0 60 35 02 be 1c 01 ba bb 60 1d ba bd 1d 42 89 3b
       -0.12715673 -0.005676402 -0.09087634 0.0041887895
0001c0 a9 4e 7c 3c 35 57 5f be 8a f1 b1 3d 35 5e 9a bd
       0.015399613 -0.2181061 0.08688648 -0.075375
0001d0 78 28 c6 3c b6 bc 6b bd ae 6b 04 be bf 65 35 be
       0.024189219 -0.057553016 -0.12931702 -0.17714594
0001e0 59 8d 8c bd 7f 9b 56 3c d0 a1 0b be a2 f3 9f bd
       -0.068628974 0.013098597 -0.13635945 -0.07810141
0001f0 3c dc 3c 3d 42 ba 10 3d 08 28 c2 3d 21 31 bd 3c
       0.04610847 0.03533388 0.094802916 0.023094716
000200 11 81 7c 3d 0c 4d 05 bd f8 78 a9 bd a8 08 32 bc
       0.061646525 -0.03254418 -0.08275026 -0.010866322
000210 74 25 97 3d 04 78 d8 3c b7 35 95 bc f0 48 42 3b
       0.073801905 0.026424415 -0.01821409 0.0029645525
000220 1f b9 38 be 92 35 75 bc b4 9a b2 3c e0 bf 89 bd
       -0.18039368 -0.014966385 0.021802284 -0.067260504
000230 41 45 7c bd c7 ff 86 bd 7c 29 bb bd 46 d6 28 be
       -0.061589483 -0.065917544 -0.09138772 -0.16487989
000240 c8 2b 27 3d bc 04 9b bc 36 19 b2 bc bf 0d 85 bd
       0.040813237 -0.018923156 -0.021740537 -0.064967625
000250 75 f9 37 be fa f8 51 bd a3 10 8e bd 2c 12 71 3d
       -0.17966254 -0.051262833 -0.06936767 0.05885522
000260 74 79 78 bd c6 e6 0f bd 37 42 b4 bd 45 8e 91 bd
       -0.0606627 -0.035132192 -0.08801692 -0.07107214
000270 09 c4 cd 3c 87 c8 8d bc ac 36 e1 bd ad 9f 37 3d
       0.02511789 -0.017307533 -0.10996756 0.044830013
000280 93 93 e7 bc 36 88 37 be 73 0f 78 3b 2f 27 ba bc
       -0.028268611 -0.17923054 0.0037851005 -0.022723762
000290 41 fe 89 3d 33 2b 8d bc d1 4c ae bd 61 5f 39 bd
       0.06737948 -0.017232513 -0.08510745 -0.045256976
0002a0 d7 5d a7 3c 7d ba 9b bc c4 ad 25 be 48 1a 21 3c
       0.020430489 -0.019009823 -0.16179568 0.009832926
0002b0 91 9e 5d 3c 0c a4 b8 bc a9 67 3f bd 09 88 4e 3e
       0.013526575 -0.022539161 -0.046729717 0.20169081
0002c0 da 01 a6 bd 26 07 0e bd 82 0f 36 3d 7c f8 dc bd
       -0.08105822 -0.034674786 0.044448383 -0.10789582
0002d0 24 90 59 bd 0b a0 1d bd 08 88 07 bd b4 f5 6b bd
       -0.05311598 -0.038482707 -0.033088714 -0.057607368
0002e0 3b dd a7 3c 7c f6 95 bc e1 6b d1 bd 55 1e f6 bd
       0.020491233 -0.01830601 -0.102256544 -0.12017504
0002f0 4a 64 3b bd 94 a3 c7 3d 27 46 95 3d 05 5e 34 3e
       -0.04574994 0.09747997 0.07288771 0.1761399
000300 45 9b 23 bd ee 87 9f bd 51 4a 46 bd 51 ed f7 3b
       -0.039943 -0.077895984 -0.048410717 0.007566132
000310 8a 92 f8 bc 52 4c cc bc 22 12 47 3d 8a d8 93 bd
       -0.030343313 -0.024938736 0.048601277 -0.07219036
000320 d5 c3 df 3d a8 11 a7 3d d3 5a de bd 4c c6 20 3d
       0.10926024 0.081576645 -0.10857167 0.03925161
000330 66 5c 32 3c a2 9a 04 bd 4d 5b 11 3d 6d 89 00 bd
       0.010886287 -0.03237403 0.03548746 -0.03138106
000340 ab 72 52 bd dc ba 95 bd f3 f8 f7 bd f0 bf 3b 3c
       -0.051378887 -0.07311031 -0.1210803 0.011459336
000350 c5 29 1e be d9 d2 b4 bc b0 81 dc bc d6 df 32 be
       -0.15445621 -0.022073196 -0.026917309 -0.17468199
000360 f1 38 46 3d d4 9e b0 bc 62 cd 45 bd fa 0e 92 bd
       0.048394147 -0.02156011 -0.04829157 -0.07131763
000370 b3 7a d2 bd 0b d2 12 3a 73 6d 22 3c d9 7f c2 bd
       -0.10277309 0.0005600757 0.00991379 -0.09497041
000380 10 16 3f 3b 7e 9f e7 3d a7 78 da bc 8e ef 9a 3d
       0.0029157437 0.113097176 -0.02666886 0.07565223
000390 8f 7c 14 bd c6 2a 72 bd 12 29 d2 bd 30 7e 01 be
       -0.0362516 -0.059122823 -0.1026174 -0.12645793
0003a0 8f a6 7e bd 32 e3 f9 bd a8 d1 04 bd 14 46 69 bd
       -0.06217056 -0.12201537 -0.032426506 -0.056951597
0003b0 40 e7 99 3d 0b 3d f3 bc 67 5a 29 bd e3 49 0c be
       0.075148106 -0.029692193 -0.04134598 -0.1370006
0003c0 8f 0c d6 bd b8 7d 04 be 33 74 5d bd 4b d8 1c 3e
       -0.10451614 -0.12938583 -0.054065894 0.15316884
0003d0 28 61 fe 3c 9d a4 09 3e f8 4d 5c be e6 39 df 3c
       0.031052187 0.13441701 -0.21514118 0.027249288
0003e0 62 73 9a bd b5 66 2f bd 08 47 65 bc ac 85 e2 bd
       -0.07541539 -0.04282256 -0.013993986 -0.11060652
0003f0 2d b0 e1 3c c0 d4 ae bd 88 d0 94 3d ca 8f 87 bd
       0.027549827 -0.085366726 0.07266337 -0.066192225

features_extractor.encoder.conv.8.bias f4 [64]
000000 12 c7 3c bd 9a ec 7b bd 6c c2 14 3d a7 f0 1d ba
       -0.046088286 -0.061504938 0.036318228 -0.00060249347
000010 e9 93 58 bc 99 54 1d 3c 76 2f c2 bd 28 32 99 3b
       -0.013218858 0.009602689 -0.09481709 0.0046751685
000020 53 21 8e bd df 56 1b bb a4 a6 d1 bc ad 6d a6 3b
       -0.0693995 -0.0023702902 -0.025592156 0.0050789923
000030 c7 99 e5 bb df 6f 0a bd 89 92 5a bd bc ff 16 3d
       -0.007006857 -0.033798095 -0.053362403 0.03686498
000040 ac fe c2 bc 91 e6 ae bd f5 e2 3e bd 7e bc 8d bd
       -0.023803078 -0.08540071 -0.04660316 -0.06920718
000050 7d 6a a7 bc c5 f1 b6 3b d0 6a da bd c4 e7 69 3c
       -0.02043652 0.0055830204 -0.10664904 0.014276449
000060 07 20 91 bc e3 7f 77 3c 7f 04 3e b9 3f 74 a8 3a
       -0.017715467 0.015106174 -0.00018121487 0.0012852027
000070 88 77 08 bd ef 7f 89 3d 37 51 88 bd ab 7d 35 3d
       -0.03331712 0.067138545 -0.066561155 0.0443093
000080 a9 ed 30 bd c4 e6 85 bd 72 61 4f bd 0a 87 d4 bc
       -0.0431954 -0.06538156 -0.05063004 -0.025943298
000090 de 52 1f bd c4 bb 96 3d 30 2a ac bc 9a 5c 28 bd
       -0.038897388 0.07360032 -0.02101621 -0.041103937
0000a0 ea dc 12 bc d1 43 8a 3b 7b f5 81 bc 65 7a a0 bc
       -0.008963803 0.00421951 -0.015864125 -0.019589612
0000b0 7b 7f ec 3b f6 b6 92 3c 96 88 7b bc c1 b5 53 bd
       0.0072173453 0.017909508 -0.015352389 -0.051687006
0000c0 ce 9d be 3c 56 91 30 bd cc 8d 4e 3d 03 07 ee bc
       0.023268607 -0.043107353 0.050428197 -0.029056078
0000d0 93 e7 8b bd 0a 41 5f bd 9d 89 09 be 80 b7 9d bd
       -0.06831279 -0.054505385 -0.13431402 -0.077010155
0000e0 fd b2 0c bd 5b 53 a6 bd 71 69 ab bd 6d 50 ce 3d
       -0.034350384 -0.081213675 -0.08369721 0.10073934
0000f0 dc 99 0b bd 11 5f ac bc fc 13 45 bc d3 9d 16 3d
       -0.03408228 -0.021041425 -0.01202869 0.036771607

features_extractor.encoder.conv.10.weight f4 [128, 64, 3, 3]
000000 60 59 ae 3a 86 9a 74 bc 06 8b ec bc 80 3b ed 3b
       0.0013301782 -0.014929419 -0.028874885 0.007239759
000010 7e 21 8c 3d 9e 3f cc bc 30 19 37 bc 75 d2 f6 3b
       0.06842326 -0.024932679 -0.011175439 0.0075324127
000020 77 e4 ea bd c0 24 2a bb f8 89 a4 bc aa f8 c1 3c
       -0.114693575 -0.0025961846 -0.02008532 0.023678143
000030 44 b7 2e 3c 7c 2d c0 bc 34 bd 7e 3d 36 0e 43 bc
       0.010663811 -0.023459189 0.062192157 -0.011905244
000040 4c a5 9e 3c 4c bb 31 3d 36 ff dd 3c d8 f3 a0 3b
       0.019365929 0.04339151 0.027099233 0.004911881
000050 73 1c 10 3d a0 ba f6 3a 7f ad 69 3d 2e f8 37 bd
       0.03518338 0.0018823929 0.057050224 -0.044914417
000060 c1 51 06 3d f4 26 55 bd a2 e1 d3 3d 54 c7 2e 3c
       0.03279281 -0.0520391 0.103457704 0.010667641
000070 10 24 8c 3c 26 b4 a8 bc 87 53 21 bd 03 bc a3 3c
       0.01710704 -0.020593714 -0.0393863 0.019987112
000080 a3 78 fd 3c 7c 7a 55 3c 5a 81 c8 bc ea 49 28 3c
       0.030941313 0.013029691 -0.024475742 0.010271529
000090 ce dd 13 bd 26 f5 c9 bc 68 a9 a5 bb 8b 4c e8 bc
       -0.0361002 -0.024653029 -0.005055595 -0.028356811
0000a0 a7 22 8e 3d 40 73 3b 3d b6 48 e5 3c fc 53 dc bc
       0.06940203 0.045764208 0.027988773 -0.026895516
0000b0 54 f2 42 3d ab f5 25 bd 58 f9 85 bb 60 e5 35 bc
       0.047594383 -0.04051749 -0.004088562 -0.011102051
0000c0 c0 97 8d 3b 1e 35 6c 3c 12 01 a5 3d 60 65 e9 ba
       0.0043210685 0.014416961 0.08056845 -0.0017806701
0000d0 44 43 ae 3d 51 46 68 3d 63 88 ba bc 80 46 89 bb
       0.08508924 0.056707684 -0.022770112 -0.0041893125
0000e0 58 4e 98 bb e3 2f a6 bc 12 43 33 3d b6 67 61 bd
       -0.004648011 -0.020286506 0.043765135 -0.055030547
0000f0 49 e7 21 3d 94 28 ac 3c c5 1f de bd da 56 d4 3c
       0.03952721 0.021015443 -0.10845903 0.02592032
000100 70 ee 7d 3c 0b 65 1a bd c2 35 b2 3c f1 a6 01 3d
       0.015498742 -0.03769402 0.02175415 0.03165335
000110 6d 16 fa 3c b0 4f ea bc fc 88 c1 b9 be d6 80 3d
       0.030528272 -0.028602451 -0.0003691389 0.06290959
000120 0c ff 54 3c 0e 7f 90 3c d7 43 19 bd 3e c9 8b bc
       0.013000261 0.01763871 -0.037418213 -0.017063733
000130 58 85 8e bd 45 bd 48 bd be 1e a4 3c 77 5c 54 3e
       -0.06959027 -0.049008626 0.02003419 0.20738398
000140 f8 cb b5 bd a0 e1 9e 3a d6 1d 44 bc e0 ed 92 3a
       -0.088767946 0.0012121685 -0.011970004 0.0011209808
000150 b2 f2 10 bd 0b 98 25 3d ae 47 ac bd 61 51 10 3d
       -0.035387702 0.040428203 -0.08412109 0.03523386
000160 c8 96 00 3d 6e 26 1a be 43 a5 0f bd 2d 21 0e 3d
       0.031393796 -0.15053722 -0.035069715 0.034699608
000170 7c 94 30 3c 02 c9 ae 3c 92 8f 2d 3d 55 5d ca 3d
       0.010777589 0.021336082 0.042373247 0.09881083
000180 70 1d 10 bd 25 5f 51 3e 28 09 2b 3d 20 e6 57 bc
       -0.035184324 0.20446451 0.04175678 -0.013177425
000190 36 f8 e5 3c b0 bf 37 bb 00 f5 2d 3b 93 7b 21 3d
       0.028072458 -0.0028037839 0.0026543736 0.03942449
0001a0 fd bc 16 3d f0 cb 13 bc 08 9a 2e 3d a1 63 14 3d
       0.036801327 -0.00902079 0.042627364 0.036227826
0001b0 08 32 f8 bb b0 00 53 bb b0 15 b3 bc d0 60 5e bc
       -0.0075743236 -0.0032196455 -0.021860927 -0.013572887
0001c0 cc de 3b 3d db 3e 36 bc 2d 02 1d 3d 7d ee ec b9
       0.045866773 -0.011123384 0.038332153 -0.00045191115
0001d0 1a 97 93 3c 71 59 23 3d a4 d1 26 3c 7a da b7 3c
       0.018016387 0.03988022 0.010181818 0.022443045
0001e0 78 ba 03 bd 35 ed dc bc a6 65 87 3d 00 fb b6 bb
       -0.032160252 -0.026968578 0.06611185 -0.0055841208
0001f0 0a a2 2c 3d 0c 7e fb bb 3c 65 6b bc 53 6b d9 bc
       0.04214672 -0.007674938 -0.014367398 -0.026540434
000200 92 87 b3 3c d0 fb 43 3c de 53 2d 3d 01 b8 3d bc
       0.02191523 0.011961892 0.04231631 -0.0115795145
000210 50 f5 50 bb 5e 7b 43 bd 66 af a8 bd 2f 77 21 3d
       -0.00318845 -0.047725074 -0.082365796 0.039420303
000220 f0 9c 23 bc 48 67 a2 3b 12 3e b6 3c 3b 83 56 3d
       -0.009986147 0.0049561597 0.022246394 0.052371245
000230 e1 b7 cc 3b 43 38 19 3d 95 e1 3f bc 56 cf 1d 3d
       0.006247506 0.03740717 -0.011711498 0.03852781
000240 ea be eb 3c 0d 3b 0a 3d f2 02 1b bd c2 f9 f5 3c
       0.028777558 0.03374772 -0.037844606 0.03002632
000250 dd f8 b6 3d 24 4a 3c 3c b6 88 d3 bc 9d f1 70 3c
       0.08934186 0.011492286 -0.025822025 0.014706043
000260 4b 19 44 3d 68 be 84 3c eb ac 29 bd 05 0d 1a 3d
       0.047875684 0.016204074 -0.041424673 0.037610073
000270 03 5e 0a bd 30 bc 73 3d 38 3a 18 3d 2a ab be 3c
       -0.033781063 0.05950564 0.037164897 0.023274977
000280 e1 34 d2 3c 21 a6 1c bb a6 6f d8 bc 1b b4 b6 bc
       0.02565998 -0.0023902731 -0.026420426 -0.022302678
000290 ab 24 9a bc 9a 98 c3 3c 9b bf a6 3d d4 1c 83 bc
       -0.018816313 0.023876477 0.081420146 -0.016004957
0002a0 bc c0 63 3c a1 a8 d9 3c ac 15 9e ba da 9e e7 3c
       0.013900932 0.026569666 -0.0012060902 0.028273989
0002b0 d0 e2 ed bc 84 0b 09 3c c0 f6 20 3c cd ac 36 bc
       -0.029038817 0.008364562 0.009824455 -0.011149597
0002c0 11 6d b3 3b ba 15 dc 3c 69 7b 2e 3d dc 04 44 bd
       0.005475648 0.026865829 0.04259816 -0.047856197
0002d0 3c 80 5c 3c da 78 94 3c 86 8b 83 bc e3 ad f2 bc
       0.013458308 0.018124033 -0.01605774 -0.029623931
0002e0 3d 84 c6 3d 4f 9d 30 bd a6 00 ea 3c ba c4 ed 3b
       0.09693191 -0.04311877 0.028564762 0.0072561176
0002f0 c4 f0 03 3d 80 0a 8f 3c 43 74 04 3d 06 2b 5f bc
       0.032212034 0.017461061 0.03233744 -0.013621097
000300 1a 63 9a 3c 83 f3 68 bc 98 3d f0 bb 80 d7 1c bd
       0.018846083 -0.014218214 -0.0073315613 -0.038291454
000310 75 19 bf 3d 05 6a 08 3e a2 66 fa 3c fb 58 0a 3d
       0.093310274 0.13321693 0.030566517 0.033776265
000320 2c 94 58 bc 28 5c 8d bb 6d a7 79 bd b5 d5 90 bd
       -0.013218921 -0.0043139644 -0.060950685 -0.070720114
000330 60 f9 a1 3a 2f 3d 05 3d 39 73 02 3d aa 14 f8 3c
       0.0012357645 0.032529052 0.031848166 0.03028329
000340 f2 ad e3 3c 24 09 15 bd 2b ab 19 bd b9 86 2a 3d
       0.027792905 -0.03638567 -0.037516754 0.041632388
000350 f5 82 b0 3c 88 d5 9a bb 24 e0 a6 3c 69 33 43 3d
       0.02154682 -0.004725162 0.02037055 0.04765645
000360 f8 2a a3 bb a2 86 ec 3c 76 7a 46 bc ea 52 f6 3c
       -0.0049794875 0.028872792 -0.012114158 0.030068833
000370 38 43 ac 3c 44 fa 02 bc 08 9a 9d 3b 95 45 5a bc
       0.021028146 -0.007994238 0.0048096217 -0.013322254
000380 bc 23 39 3d 6c 3a 3b 3c 61 a9 17 3d 21 69 29 3d
       0.045200095 0.011427503 0.037026767 0.041360024
000390 30 79 4b 3b a9 75 83 3b 5d c7 fa 3c 30 96 c3 bc
       0.0031047575 0.004011829 0.030612642 -0.023875326
0003a0 b8 e9 c2 3c be 09 c7 bc 89 de 0c 3d 68 d2 91 3c
       0.023793086 -0.024296638 0.034391914 0.017800525
0003b0 f0 eb 47 bb a2 dc cb 3c ec 6c 6e 3d f2 a4 6e 3d
       -0.003050562 0.02488548 0.058209345 0.058262773
0003c0 fe 69 c6 bc 3c 1e 57 bc 40 fb bd 3b 0a 44 d9 3c
       -0.024220463 -0.013129767 0.0057977736 0.026521701
0003d0 e6 92 c6 3c 6c 9a 59 bc ac 7b 1e bc 26 ed c8 3d
       0.024239969 -0.013281446 -0.00967304 0.098108575
0003e0 f5 43 2e bd c0 cd 96 3c f2 d4 3f 3d 74 f4 29 3d
       -0.042545278 0.018408656 0.04683394 0.041492894
0003f0 ab 56 26 bd 80 1e 08 3b 20 cb b5 3b db db 03 3d
       -0.040609997 0.0020770133 0.005547896 0.032192092

features_extractor.encoder.conv.10.bias f4 [128]
000000 e6 8a 60 3d b3 10 6b bd 90 ad 27 bd f3 14 b3 bd
       0.054819964 -0.057388972 -0.040937006 -0.0874423
000010 8c 28 69 bd a6 63 c4 3c c3 a6 64 bd 10 50 0a 3d
       -0.056923434 0.023973297 -0.0558231 0.03376776
000020 90 66 11 3d db 70 ee b9 fb 53 be 3d 8b ce 1f bd
       0.0354982 -0.0004547898 0.09293362 -0.039015334
000030 1c 59 10 3d 45 4f 05 3c da a0 22 bd 78 c5 bb 3d
       0.03524123 0.008136575 -0.03970418 0.091685236
000040 12 aa 12 3d ef d4 15 bd f1 e8 52 bd 14 8c dd 3b
       0.035806723 -0.036580022 -0.05149168 0.0067610834
000050 3c 4a bf 3b e7 25 33 3d 39 12 38 bd b3 d9 7a bd
       0.005837707 0.04373732 -0.044939253 -0.06124277
000060 2e 57 c3 ba e3 5e 42 bd 6e b8 23 3d b1 b5 35 bd
       -0.0014903301 -0.047453772 0.039970808 -0.044362728
000070 66 88 06 bc c8 48 31 bd f5 47 4d 3c 90 d3 08 3d
       -0.008211231 -0.0432823 0.012529363 0.033404887
000080 c7 99 32 3d 7f 09 16 bd 5e ea 5d bd aa b9 bf bc
       0.043603685 -0.03663015 -0.054178588 -0.023403961
000090 07 e0 a5 3d f3 71 21 bd 8e fc 0e bc 5b e8 29 bd
       0.080993704 -0.03941531 -0.008727206 -0.041481357
0000a0 c0 e0 06 bc 4f 4b d3 bd b6 36 8f bc 5e 5b 92 3d
       -0.0082322955 -0.10317098 -0.017482143 0.07146333
0000b0 16 8c 73 3d b7 68 45 3c 48 67 19 3d 0e a0 03 bb
       0.05945977 0.012048892 0.037452012 -0.0020084414
0000c0 cd ec c0 bc 85 4c 33 bd eb 8e 3e bd b7 53 fc 3b
       -0.023550415 -0.043774147 -0.046523016 0.0077004093
0000d0 a1 e5 47 bd 62 a2 d3 bc 06 4d 2d bd 50 57 2c 3d
       -0.048802976 -0.025834266 -0.042309783 0.042075455
0000e0 0e 8d 18 3c 5c a9 eb 3b b7 09 1f 3d e7 af fe bc
       0.009310974 0.00719182 0.038827624 -0.031089736
0000f0 82 81 53 3b 2c d3 12 3d b8 ee a1 ba ec 6a 0b bc
       0.0032273238 0.03584592 -0.0012354469 -0.008509379
000100 e1 1c 13 3d d3 53 02 bd 96 00 8e bd 95 9f 02 bc
       0.035916213 -0.031818222 -0.069337055 -0.007972618
000110 63 c6 39 3d 1d 78 79 3d 3b 24 02 3d c4 f7 3a bd
       0.045355212 0.060905565 0.031772833 -0.045646444
000120 67 c8 c3 bc c6 6d d6 3d 42 5e 76 b9 cf be 0f bd
       -0.02389927 0.10470156 -0.00023495502 -0.03509408
000130 4d 60 53 3d 37 98 29 3c cf 9a 2e bc 26 98 4f 3d
       0.05160551 0.010351232 -0.010657026 0.05068221
000140 77 0a d8 3d 4f 5a e6 ba de 81 0b 3d e6 ec 82 3d
       0.10548871 -0.0017574521 0.034059398 0.06392841
000150 25 ce b1 3d 20 9a 8c bd cc 33 35 bd 48 3c 0d bb
       0.08681897 -0.068653345 -0.04423885 -0.0021550823
000160 be 6e 23 3d 3e 4b ae bc 91 4c 96 3d 71 0d a7 bc
       0.039900534 -0.021276113 0.07338823 -0.020392152
000170 3b e8 34 3c 73 7b 16 bb 6b fe 1d bd 5f 38 57 bd
       0.011041696 -0.0022961765 -0.03857271 -0.052543994
000180 29 9b aa bc 05 ff 4f 3c e4 97 04 bd 85 55 88 3d
       -0.02082594 0.012695079 -0.032371417 0.066569366
000190 b3 00 97 bd cd 73 c7 bc 30 93 4e bd c0 07 88 3d
       -0.0737318 -0.02434721 -0.050433338 0.06642103
0001a0 a1 04 ad 3b 50 81 f6 3b 67 84 2e bc 68 0c d0 3d
       0.005280093 0.0075227395 -0.010651684 0.10158616
0001b0 fc db 02 bd 70 7c 92 bc 28 9f b8 3c fb 80 b6 bb
       -0.031948075 -0.017881602 0.02253683 -0.005569575
0001c0 24 d0 af 3d 80 5a 7a 3d 15 ae db 3c 9f e0 50 3d
       0.085846215 0.061121464 0.026816407 0.050995465
0001d0 d3 4e 4a 3d 6b 58 86 bc 66 85 41 3d 8a 64 23 3d
       0.04939158 -0.016399583 0.04724636 0.039890803
0001e0 cb f9 4c 3c 11 dc 1b bd 9b d1 e3 3c 7b bc 4c 3d
       0.012510727 -0.03805167 0.027809909 0.049984436
0001f0 34 e9 5e 3d 9a bf 35 3b 23 60 23 3d d6 f7 13 3c
       0.05442162 0.0027732612 0.039886605 0.009031257
