weights/oracle-nd-2-eps-200.pth (torch, 16169 bytes, 10 tensors)

log_std f4 [2]
0.07347681 0.03240794
00000000: 027b 963d 30be 043d

features_extractor.policy_net.0.weight f4 [32, 8]
0.38748032 0.21152568 -0.19685833 0.37572467 -0.1062808 0.042965915 -0.19773307 0.16945708
0.34543613 -0.38266703 0.3542208 0.21735506 0.27535743 0.07869031 0.1590454 -0.011576171
0.42506185 0.005157541 -0.28431097 0.1291573 -0.17687386 -0.05831368 -0.15477318 0.20638901
-0.2832802 -0.15503728 -0.08741993 -0.18827693 0.030856011 -0.34321797 0.3347858 -0.2878344
0.40186504 0.024418062 -0.2261266 0.23324189 0.03552948 0.25765693 0.020239588 -0.13578925
0.14677797 -0.19859111 0.16571504 0.45003462 0.22469674 -0.11741267 0.20816511 0.08625076
0.3603971 -0.18982176 -0.4435897 -0.10883363 -0.23680174 0.28562048 0.11539191 0.13934334
0.12399946 0.17022566 0.34209135 -0.27479094 0.07154738 -0.18190694 0.18070464 -0.051138334
-0.04837951 -0.026120508 0.37737718 -0.26368415 -0.21010467 -0.20079377 0.3188647 0.11283271
0.47932252 -0.1343143 -0.42573228 -0.3287305 -0.21126509 0.14918329 0.16108999 0.30380502
-0.2108078 -0.25665927 0.16798705 -0.18362828 0.18674724 -0.099487945 0.18789385 -0.28628433
-0.21150915 0.21272667 0.15104735 -0.0850318 0.26378638 0.27530658 -0.2016343 -0.12024698
0.4170765 -0.036329377 -0.052392613 -0.27036428 -0.18304865 0.17171252 0.020443812 -0.20295872
0.008293182 -0.24150577 -0.29995352 -0.19468863 -0.30943418 -0.2251209 0.3534151 0.06677738
0.12692457 -0.33365566 -0.20701897 -0.13486868 0.06899801 -0.32414475 -0.14015071 -0.22931415
0.0009797812 -0.13155834 -0.024499744 -0.23957828 -0.24267733 -0.20626368 -0.12102042 -0.2790529
0.38385502 -0.13045217 0.23013234 0.13533778 -0.30772907 0.22413562 -0.11276574 -0.14991558
-0.3505138 -0.29317206 0.266622 0.015901558 0.20088692 -0.2026794 0.30295148 -0.16026428
-0.008708853 -0.054976396 0.1385546 0.3826483 0.30608267 -0.28680485 0.06452028 -0.17003757
-0.019652212 -0.33050758 0.39498657 -0.12025346 0.23352946 0.20861724 0.14661556 -0.11922109
0.39915687 0.30009523 0.06982436 -0.32281336 0.21879739 0.03595153 -0.047343474 0.3658616
0.047781046 -0.21175396 -0.21069147 -0.049829945 0.16204198 -0.10482888 -0.244029 -0.14256506
-0.32326666 0.2835477 0.33319715 -0.44067568 0.10793953 0.19181094 0.09776234 -0.08289664
0.18869725 0.21113877 0.13093685 -0.051783025 -0.10163048 0.044734787 -0.091622435 -0.11661521
0.30226472 0.43088093 -0.13580714 -0.15915069 -0.0003571847 -0.026550584 0.09291732 0.07866965
-0.32111725 -0.13047454 0.29773775 0.13772848 -0.01758489 -0.21315937 -0.21630576 -0.3167014
-0.21838781 0.11491514 0.3775199 0.20735188 -0.25174335 -0.1485371 -0.015883205 0.38336492
0.032170095 -0.054146416 0.24069737 -0.15123127 -0.19690126 0.2980104 -0.11382248 -0.010067453
-0.32483634 0.29573885 0.37360653 0.18463181 -0.13545994 -0.26951486 -0.21504232 0.3440346
0.20769396 0.3654425 0.17180753 0.076538265 0.0095790215 -0.26145893 -0.28697067 -0.32245767
0.14473131 -0.17358339 -0.07115352 -0.20347182 -0.06442577 -0.24884321 -0.23101732 0.11727747
-0.071966 0.33749866 -0.042613186 -0.24892418 0.02302486 -0.12815954 -0.044094242 -0.24838388
00000000: d263 c63e 309a 583e 3b95 49be fc5e c03e
00000010: c0a9 d9bd 07fd 2f3d 8a7a 4abe 2886 2d3e
00000020: 01dd b03e efec c3be 6e5c b53e 5392 5e3e
00000030: a6fb 8c3e 6328 a13d ccdc 223e fba9 3dbc
00000040: b5a1 d93e 9700 a93b 3591 91be d041 043e
00000050: 6c1e 35be 53da 6ebd dc7c 1ebe a457 533e
00000060: 1a0a 91be 18c2 1ebe 3809 b3bd abcb 40be
00000070: bfc5 fc3c 44ba afbe 0b69 ab3e 085f 93be
00000080: 41c1 cd3e 6308 c83c bb8d 67be f6d6 6e3e
00000090: 5c87 113d 9ceb 833e 7ecd a53c 560c 0bbe
000000a0: f74c 163e 785b 4bbe 34b1 293e f06a e63e
000000b0: e716 663e 0e76 f0bd 3c29 553e 3da4 b03d
000000c0: f885 b83e a360 42be 301e e3be 2be4 debd
000000d0: 287c 72be d93c 923e 9852 ec3d 05b0 0e3e
000000e0: 6ef3 fd3d a34f 2e3e 9926 af3e 66b1 8cbe
000000f0: 6f87 923d d045 3abe a30a 393e 6e76 51bd
00000100: 9829 46bd adfa d5bc 9537 c13e 9c01 87be
00000110: ae25 57be e29c 4dbe 3c42 a33e d614 e73d
00000120: c369 f53e b089 09be 95f9 d9be 5d4f a8be
00000130: e055 58be 81c3 183e c6f4 243e 558c 9b3e
00000140: 00de 57be d868 83be cc04 2c3e 0d09 3cbe
00000150: ab3a 3f3e 56c0 cbbd 3f67 403e dc93 92be
00000160: db95 58be 05d5 593e 28ac 1a3e 2725 aebd
00000170: 020f 873e fcf4 8c3e 3979 4ebe 0c44 f6bd
00000180: 0d8b d53e 1dce 14bd a399 56bd 306d 8abe
00000190: 1b71 3bbe 68d5 2f3e c879 a73c 69d4 4fbe
000001a0: 20e0 073c 4a4d 77be 8293 99be 755c 47be
000001b0: 286e 9ebe 1886 66be d3f2 b43e 94c2 883d
000001c0: 84f8 013e ead4 aabe c8fc 53be 041b 0abe
000001d0: d44e 8d3d 4df6 a5be ab83 0fbe 54d1 6abe
000001e0: 006c 803a 3bb7 06be b0b3 c8bc 0254 75be
000001f0: 6880 78be c936 53be 8ed9 f7bd 06e0 8ebe
00000200: a588 c43e 4195 05be d0a7 6b3e fd95 0a3e
00000210: aa8e 9dbe cf83 653e b9f1 e6bd 7883 19be
00000220: 8b76 b3be a61a 96be ae82 883e fc43 823c
00000230: 4db5 4d3e 308b 4fbe 751c 9b3e 521c 24be
00000240: 94af 0ebc ee2e 61bd 42e1 0d3e 7aea c33e
00000250: deb6 9c3e 16d8 92be 3523 843d 541e 2ebe
00000260: adfd a0bc 4a38 a9be ae3b ca3e 7247 f6bd
00000270: 5922 6f3e c29f 553e 6422 163e 302a f4bd
00000280: 4a5e cc3e 15a6 993e 1300 8f3d cb47 a5be
00000290: 6c0c 603e e941 133d 3beb 41bd 3652 bb3e
000002a0: 0fb6 433d 08d6 58be 81bf 57be 7c1a 4cbd
000002b0: 55ee 253e 86b0 d6bd bde2 79be 93fc 11be
000002c0: 3583 a5be 2a2d 913e d198 aa3e 3ea0 e1be
000002d0: 660f dd3d 166a 443e 9f37 c83d b7c5 a9bd
000002e0: da39 413e c334 583e 4f14 063e 701a 54bd
000002f0: a423 d0bd d33b 373d 8ba4 bbbd f5d3 eebd
00000300: 71c2 9a3e 6d9c dc3e 0711 0bbe 66f8 22be
00000310: 8544 bbb9 9c80 d9bc 704b be3d 8e1d a13d
00000320: 7b69 a4be 1e9b 05be 1571 983e b208 0d3e
00000330: 300e 90bc 7346 5abe 427f 5dbe b026 a2be
00000340: 0ea1 5fbe a158 eb3d 4a4a c13e 0d54 543e
00000350: 81e4 80be 1c1a 18be 7f1d 82bc 6848 c43e
00000360: cac4 033d a2c8 5dbd 5f79 763e 5fdc 1abe
00000370: 7ca0 49be d294 983e c31b e9bd f5f1 24bc
00000380: f350 a6be 156b 973e 5b49 bf3e 1f10 3d3e
00000390: 03b6 0abe dafd 89be 0e34 5cbe 4e25 b03e
000003a0: baad 543e 481b bb3e 50ee 2f3e 18c0 9c3d
000003b0: 54f1 1c3c f2dd 85be d2ed 92be 2c19 a5be
000003c0: 7234 143e d8bf 31be f0b8 91bd eb5a 50be
000003d0: a8f1 83bd c1d0 7ebe ce8f 6cbe 2c2f f03d
000003e0: e962 93bd a0cc ac3e 2a8b 2ebd fbe5 7ebe
000003f0: a29e bc3c 413c 03be 2a9c 34bd 5858 7ebe

features_extractor.policy_net.0.bias f4 [32]
0.17486185 -0.20354693 0.17099488 0.17709439 0.24192807 -0.23308061 0.26697943 -0.08865302
0.13208681 0.3483679 -0.07024921 0.042727698 0.00033568262 -0.2952116 0.17087825 -0.35097876
0.21471968 0.35341182 0.3312855 -0.006241132 -0.20787975 0.0417513 0.21840881 -0.34374872
-0.08844679 -0.21193951 0.020964332 -0.12365542 -0.053209692 -0.088283144 -0.33598322 0.35597357
00000000: fc0e 333e 9b6e 50be 4819 2f3e 3b58 353e
00000010: febb 773e afac 6ebe 87b1 883e b78f b5bd
00000020: c441 073e 475d b23e d1de 8fbd 3d03 2f3d
00000030: 8ffe af39 fa25 97be b5fa 2e3e 7db3 b3be
00000040: 7adf 5b3e 65f2 b43e 419e a93e 6982 ccbb
00000050: 6ede 54be 6903 2b3d 8fa6 5f3e d5ff afbe
00000060: 9723 b5bd ac06 59be 64bd ab3c 0e3f fdbd
00000070: 68f2 59bd cbcd b4bd fe05 acbe 2b42 b63e

features_extractor.policy_net.2.weight f4 [64, 32]
0.09859058 0.004424467 -0.14161655 -0.11969943 -0.21016012 -0.14254704 -0.049635187 -0.076737024
-0.050795488 -0.14295438 -0.05703224 0.03522717 -0.14789644 -0.037496537 -0.026585488 -0.084641725
-0.15409957 0.30714467 -0.044077136 0.17202382 -0.19484936 0.004978713 0.261385 0.029882291
-0.3005095 0.07016316 0.2925437 0.17826155 0.22219177 0.13358983 -0.027087316 -0.049428534
-0.1650312 -0.10730993 0.030278632 0.060304478 -0.16158913 -0.21660434 -0.22101893 -0.057847694
-0.05982884 -0.12604575 0.116262585 0.16754791 -0.3064614 -0.1418145 0.08808375 -0.1314938
-0.05741454 0.15607266 -0.081579864 0.020151984 0.01585483 -0.038913246 0.06178984 -0.22075446
-0.14101768 -0.094657145 0.25009298 -0.013623743 -0.016973585 0.07825703 0.048721477 0.21251316
0.16591932 0.20685174 -0.10936513 0.037263177 0.14756976 0.10099417 -0.043713342 0.0333744
-0.12431808 -0.076900214 -0.14369446 -0.11730716 0.20294622 0.03913179 0.038977213 -0.13406523
-0.115734085 0.020395828 0.18162987 0.13770027 -0.21583317 -0.029136663 -0.27782422 -0.04291819
-0.07729752 0.096261725 0.122186154 -0.17424709 0.04945142 -0.1988249 0.06619708 -0.048652433
0.020645265 0.1752492 -0.08757104 -0.014711381 0.11948981 -0.034741774 0.029497176 -0.09272763
0.10027399 0.14134145 0.08808707 -0.18069382 0.011990305 0.019120276 0.09131437 -0.081619896
-0.03655959 0.07489399 0.00525806 -0.005767382 -0.025471015 -0.14229389 -0.2388543 -0.056649
-0.07520549 0.055075407 -0.08964949 -0.044268217 0.08933441 0.005134479 0.1260245 -0.17621486
-0.075670354 -0.08377543 -0.13683131 -0.13655329 -0.02116892 -0.20801531 -0.15319873 0.2141226
0.16259003 0.046777073 -0.08054045 -0.06895128 -0.17953359 0.0450048 0.06614163 -0.022347674
-0.11924563 0.018359471 -0.17785503 0.0009367455 0.08479693 -0.0050340183 0.080367535 0.01505102
0.09395609 0.1285391 -0.026906395 0.087607786 0.23979989 0.021597847 -0.1289602 0.3549973
0.1139021 -0.2632421 -0.05369438 -0.1912239 -0.17912894 -0.10691313 0.012059693 0.17583561
-0.0052305497 0.17119572 0.00022512964 0.0021444696 -0.092637256 0.042452082 0.053534117 -0.12499541
0.00932386 -0.1601549 -0.1823087 -0.17590263 0.32144827 0.15811008 0.29434308 0.09385465
0.2969617 -0.02366151 -0.1104635 0.063471064 -0.050579686 -0.02881165 -0.056450814 0.2645118
0.12813641 -0.16120996 -0.019825352 0.04469139 -0.071508214 -0.2073691 0.16934025 0.022386344
0.1270407 0.27829304 0.02792604 0.048966207 0.090877965 0.0027684718 -0.04584846 0.0024296343
0.04926093 0.007721997 -0.082409866 -0.22458495 0.13106088 -0.0806928 0.018257275 0.18477407
0.32740816 0.081162676 -0.23108508 -0.22818525 -0.07930679 0.060307533 0.01453948 0.019370243
0.01554211 -0.2541904 -0.18808085 -0.18582591 0.1046621 -0.2957058 0.055042267 0.13289882
0.036783706 0.07203654 -0.044108436 0.24202493 -0.0043148464 -0.15347931 0.06438647 0.03337173
-0.022036688 0.0028592919 0.019785782 -0.12899706 0.09307548 0.17319562 0.2761621 -0.036899745
-0.056022186 0.0077477247 -0.10181975 0.14744662 -0.038076453 0.06826454 -0.039234295 0.2419699
00000000: dce9 c93d 1ffb 903b ee03 11be fa24 f5bd
00000010: 3734 57be daf7 11be 444e 4bbd 4d28 9dbd
00000020: ee0e 50bd a262 12be a39a 69bd 5d4a 103d
00000030: 2a72 17be f895 19bd cfc9 d9bc a458 adbd
00000040: 47cc 1dbe 1142 9d3e 3a8a 34bd 0327 303e
00000050: 9786 47be 7924 a33b 41d4 853e b5cb f43c
00000060: 62dc 99be b4b1 8f3d 4ac8 953e 328a 363e
00000070: 3d86 633e c6cb 083e 38e6 ddbc 9375 4abd
00000080: f0fd 28be 4fc5 dbbd e50a f83c d401 773d
00000090: 9f77 25be 87cd 5dbe c952 62be b4f1 6cbd
000000a0: 160f 75bd 2312 01be 141b ee3d ae91 2b3e
000000b0: 82e8 9cbe d237 11be 4165 b43d 50a6 06be
000000c0: 822b 6bbd 83d1 1f3e 5813 a7bd c615 a53c
000000d0: fde1 813c 7f63 1fbd 5817 7d3d 750d 62be
000000e0: f066 10be 9bdb c1bd 300c 803e 1f36 5fbc
000000f0: 300c 8bbc 3945 a03d 2c90 473d 0d9d 593e
00000100: c1e6 293e f1d0 533e d3fa dfbd 46a1 183d
00000110: 871c 173e 08d6 ce3d c30c 33bd 98b3 083d
00000120: 7a9a febd dc7d 9dbd a424 13be bc3e f0bd
00000130: 22d1 4f3e a848 203d 92a6 1f3d 6548 09be
00000140: fe05 edbd 2715 a73c 2efd 393e 4d01 0d3e
00000150: 5f03 5dbe 03b0 eebc fa3e 8ebe fcca 2fbd
00000160: 2a4e 9ebd de24 c53d bc3c fa3d d46d 32be
00000170: 928d 4a3d c198 4bbe 5692 873d c647 47bd
00000180: 4220 a93c 8774 333e 7258 b3bd 0108 71bc
00000190: 13b7 f43d 644d 0ebd 10a4 f13c fce7 bdbd
000001a0: 735c cd3d d0bb 103e fe66 b43d cd07 39be
000001b0: fc72 443c 20a2 9c3c 0703 bb3d 5528 a7bd
000001c0: 82bf 15bd 0562 993d ce4b ac3b 4ffc bcbb
000001d0: 97a8 d0bc 7db5 11be 3996 74be c808 68bd
000001e0: 5605 9abd c096 613d 279a b7bd 9752 35bd
000001f0: f6f4 b63d 223f a83b 910c 013e ab71 34be
00000200: 0ff9 9abd 7492 abbd 821d 0cbe a0d4 0bbe
00000210: 716a adbc f701 55be 21e0 1cbe f442 5b3e
00000220: 007e 263e 5199 3f3d 64f2 a4bd 5436 8dbd
00000230: a7d7 37be f456 383d 4375 873d 7812 b7bc
00000240: 0e37 f4bd 9a66 963c a11f 36be ed8f 753a
00000250: 03aa ad3d 68f4 a4bb bc97 a43d 8e98 763c
00000260: 0d6c c03d c19f 033e cd6a dcbc b66b b33d
00000270: 1a8e 753e f8ed b03c 250e 04be 35c2 b53e
00000280: 8145 e93d abc7 86be a3ee 5bbd 33d0 43be
00000290: 946d 37be 45f5 dabd 0596 453c 400e 343e
000002a0: 0865 abbb ee4d 2f3e c710 6c39 3b8a 0c3b
000002b0: 9ab8 bdbd 3ce2 2d3d 9746 5b3d 98fd ffbd
000002c0: 1ac3 183c a5ff 23be 22af 3abe d21f 34be
000002d0: de94 a43e 9ce7 213e 23b4 963e de36 c03d
000002e0: 5d0b 983e c8d5 c1bc b03a e2bd 1efd 813d
000002f0: a52c 4fbd 6906 ecbc f838 67bd 176e 873e
00000300: 3136 033e 3914 25be c768 a2bc 520e 373d
00000310: e672 92bd 9158 54be 8867 2d3e 9163 b73c
00000320: f516 023e 6d7c 8e3e 27c5 e43c ca90 483d
00000330: 3a1e ba3d 406f 353b 98cb 3bbd 803a 1f3b
00000340: d4c5 493d ce08 fd3b 81c6 a8bd 99f9 65be
00000350: d334 063e 4442 a5bd 4890 953c 6a35 3d3e
00000360: 0ba2 a73e 9e38 a63d 91a1 6cbe 65a9 69be
00000370: 996b a2bd 0805 773d 0037 6e3c 58ae 9e3c
00000380: 56a4 7e3c 3e25 82be 4498 40be 2649 3ebe
00000390: 1559 d63d c066 97be 0074 613d a116 083e
000003a0: 83aa 163d e587 933d 0cab 34bd 62d5 773e
000003b0: 8e63 8dbb ae29 1dbe 0edd 833d ccb0 083d
000003c0: 4986 b4bc f562 3b3b cb15 a23c ce17 04be
000003d0: 5b9e be3d 315a 313e 1e65 8d3e 3024 17bd
000003e0: 8577 65bd a0e0 fd3b e086 d0bd 3ffc 163e
000003f0: 0ef6 1bbd 47ce 8b3d 24b4 20bd f5c6 773e

features_extractor.policy_net.2.bias f4 [64]
0.04871416 -0.015938213 -0.005323022 0.012431752 0.1550356 0.016136445 -0.112398505 -0.07121181
0.0852762 0.05384758 0.006578969 -0.020383518 -0.06821925 -0.06327267 -0.08698264 0.03130562
0.04874235 0.13505758 -0.039538924 0.008552339 0.11973338 0.08673626 0.029467737 0.04782684
0.0134636685 -0.14909683 0.0031151285 -0.03720588 0.15578365 0.15744215 0.0371209 0.15789989
-0.088051155 0.15206857 0.14882822 -0.0054404824 -0.13493723 -0.053669684 -0.05215777 0.0033922156
-0.15603237 0.028673545 -0.07281103 -0.04089462 -0.0911077 -0.0431521 -0.1596603 -0.08744315
0.012885975 0.116326 0.15947229 -0.13774365 0.082439646 -0.09365977 -0.13674703 -0.008290743
-0.09311491 -0.15334004 -0.16194046 -0.1165354 0.14534456 0.09192745 -0.06907941 -0.10991723
00000000: 8088 473d db90 82bc bf6c aebb 8cae 4b3c
00000010: a7c1 1e3e 9430 843c 3031 e6bd 7fd7 91bd
00000020: 4aa5 ae3d 488f 5c3d 6494 d73b 56fb a6bc
00000030: 89b6 8bbd 1a95 81bd f423 b2bd 523a 003d
00000040: 0fa6 473d 894c 0a3e 91f3 21bd 1c1f 0c3c
00000050: c636 f53d c8a2 b13d 5366 f13c 14e6 433d
00000060: b896 5c3c d7ac 18be 2f27 4c3b 3165 18bd
00000070: c085 1f3e 8438 213e 160c 183d 82b0 213e
00000080: 2a54 b4bd ddb7 1b3e 6d66 183e 1346 b2bb
00000090: fc2c 0abe bed4 5bbd 63a3 55bd ef4f 5e3b
000000a0: f3c6 1fbe c8e4 ea3c f31d 95bd 1e81 27bd
000000b0: ac96 babd 42c0 30bd fd7d 23be 6515 b3bd
000000c0: b21f 533c 533c ee3d b44c 233e ac0c 0dbe
000000d0: 1ed6 a83d b2d0 bfbd 6a07 0cbe e6d5 07bc
000000e0: 08b3 bebd 2c05 1dbe b8d3 25be 1daa eebd
000000f0: 34d5 143e 7544 bc3d 8179 8dbd 491c e1bd

features_extractor.value_net.0.weight f4 [32, 8]
-0.27792564 -0.11289908 -0.011015405 0.2589358 0.18758008 -0.06289171 0.24373348 -0.19283456
-0.31299344 0.039127905 -0.21365765 0.068931185 0.27169654 -0.19121009 -0.27789876 0.1042239
-0.37216884 0.26562592 -0.22864477 0.14303754 -0.3090259 -0.27358252 0.016233247 0.08722922
0.36764959 0.23975621 0.025363583 0.064986095 0.106394134 -0.016879518 0.12384015 -0.18710819
-0.2867461 0.19013996 -0.25897047 0.27243933 0.018172884 0.05580468 0.31317154 -0.20446183
-0.12152135 0.23925959 0.22611389 -0.27985144 0.19785032 -0.10232789 0.038285635 0.23695372
-0.009204229 -0.050272945 -0.0001536977 0.32322222 0.20501082 0.09291003 -0.19384615 -0.15776205
0.3674213 0.18410935 0.0989449 -0.22933769 0.22418448 -0.03289899 0.3315642 0.362035
0.01789549 -0.19256142 0.2921936 -0.22226658 0.18550779 -0.3946441 -0.14773743 -0.33400166
-0.16460851 0.14300492 -0.25895163 -0.30950457 0.24558909 0.18148988 -0.008431064 -0.25308144
-0.093669176 -0.1144737 0.21835122 -0.11564256 -0.1018289 -0.25061956 -0.16651928 0.19143102
0.16594285 0.1354935 -0.08193499 0.33654827 0.086454935 -0.102540255 -0.17150283 -0.08024684
0.24359384 0.06912997 0.22858843 0.03527393 0.2701169 -0.12231296 -0.108638704 -0.075685784
-0.3317066 -0.2320866 -0.31992155 -0.02089417 0.0033330917 -0.09176198 -0.24161258 0.32077494
-0.19392465 0.2630503 0.30849412 -0.23645629 -0.016990582 0.23964873 0.28349262 -0.079881206
0.3207653 -0.45936626 -0.32649624 0.28787905 -0.09252998 0.27838287 0.08318066 -0.10563846
0.35847944 0.4724147 0.00046203475 -0.18524542 0.013632297 -0.12841347 0.23975955 -0.021488598
-0.022289926 0.3298988 0.15735276 -0.2157608 0.30788538 0.27163005 -0.27851546 0.208635
0.16220742 -0.029158218 -0.12310218 0.035199493 -0.24950038 0.27893287 0.35890085 0.029737629
0.27271387 -0.09858875 0.06706333 -0.2614543 -0.026425736 0.14204608 0.13181068 -0.0019084509
-0.24073936 0.34003782 0.23437177 0.03355982 -0.16288014 0.099518225 -0.0776978 0.24377513
-0.038525227 -0.020081747 0.01819073 0.16370332 -0.022648543 0.27666584 0.13682951 -0.29897043
0.10045504 -0.34313807 -0.2269624 0.08819897 0.10577218 -0.013836162 0.443581 -0.08237288
-0.14816917 -0.05662003 0.0021436214 -0.029946804 0.3183355 -0.14932199 -0.18493493 0.030387908
0.34759036 -0.000978878 0.13323909 0.043884415 0.26261142 0.15890898 0.29538873 -0.018694218
-0.32396868 -0.19766618 0.08739496 0.20860067 -0.16420597 0.2576044 0.018300284 -0.027475828
0.005565483 -0.09487955 0.26719955 -0.029947128 0.15946235 -0.34190643 -0.24509898 -0.011115932
0.37249303 0.13780132 0.09310786 -0.21307023 0.026038997 -0.1541998 -0.19868559 0.16465363
-0.2539696 0.26604006 -0.24917567 0.10172335 0.16074605 -0.31130898 0.150233 -0.077487476
0.24682456 0.26035142 -0.20992376 -0.15154317 0.2570621 0.009423151 0.011581097 0.293756
-0.17081721 -0.017457098 0.2428473 0.13817254 -0.22868356 0.09189439 -0.2695621 -0.19200544
0.20772435 -0.114512704 -0.19545422 0.005940219 0.0682494 -0.23611449 -0.25865033 -0.36106157
00000000: 454c 8ebe a237 e7bd f579 34bc 3c93 843e
00000010: fe14 403e 5ecd 80bd 4595 793e 6c76 45be
00000020: ad40 a0be 9544 203d 12c9 5abe cb2b 8d3d
00000030: cf1b 8b3e 94cc 43be bf48 8ebe 5773 d53d
00000040: ea8c bebe 1f00 883e db21 6abe 6f78 123e
00000050: a538 9ebe 0213 8cbe 96fb 843c 3ca5 b23d
00000060: 913c bc3e a782 753e 4ac7 cf3c 6e17 853d
00000070: 2be5 d93d ea46 8abc e89f fd3d 4a99 3fbe
00000080: 63d0 92be 0db4 423e c797 84be 2b7d 8b3e
00000090: 4ddf 943c 7393 643d 0558 a03e 715e 51be
000000a0: 30e0 f8bd 7700 753e 668a 673e b048 8fbe
000000b0: 4699 4a3e 4991 d1bd 66d1 1c3d ffa3 723e
000000c0: 56cd 16bc 01eb 4dbd ea29 21b9 627d a53e
000000d0: 5bee 513e 9d47 be3d 9b7f 46be 608c 21be
000000e0: a51e bc3e 2987 3c3e a0a3 ca3d 80d7 6abe
000000f0: 9e90 653e 17c1 06bd c8c2 a93e a75c b93e
00000100: 9099 923c d22e 45be 669a 953e da99 63be
00000110: c1f5 3d3e cb0e cabe 7b48 17be 4402 abbe
00000120: 228f 28be e26f 123e 4f95 84be 6277 9ebe
00000130: b57b 7b3e 7cd8 393e 7222 0abc e493 81be
00000140: a0d5 bfbd 3071 eabd 7697 5f3e 02d6 ecbd
00000150: ac8b d0bd 3551 80be 0884 2abe 7e06 443e
00000160: ecec 293e cfbe 0a3e 88cd a7bd 0e50 ac3e
00000170: 490f b13d a000 d2bd 709e 2fbe 7558 a4bd
00000180: aa70 793e 0494 8d3d 1613 6a3e 657b 103d
00000190: c34c 8a3e 387f fabd f87d debd 2601 9bbd
000001a0: 73d5 a9be 1ca8 6dbe c2cc a3be 402a abbc
000001b0: 0070 5a3b b4ed bbbd 4a69 77be 9d3c a43e
000001c0: 2f94 46be 87ae 863e f1f2 9d3e 9921 72be
000001d0: d52f 8bbc 7a66 753e f225 913e c298 a3bd
000001e0: 593b a43e 0e32 ebbe 842a a7be e264 933e
000001f0: 5c80 bdbd 3388 8e3e 9f5a aa3d fa58 d8bd
00000200: 9e8a b73e 57e0 f13e 413d f239 fab0 3dbe
00000210: ff59 5f3c d27e 03be 8783 753e db08 b0bc
00000220: 5d99 b6bc 7fe8 a83e 1521 213e 66f0 5cbe
00000230: 27a3 9d3e 1813 8b3e 9499 8ebe 6aa4 553e
00000240: b419 263e 37dd eebc ff1c fcbd 582d 103d
00000250: 077d 7fbe 4ad0 8e3e dac1 b73e 549c f33c
00000260: 27a1 8b3e e6e8 c9bd 8058 893d 57dd 85be
00000270: c97a d8bc 8774 113e 61f9 063e fc24 faba
00000280: 6184 76be 7019 ae3e 27ff 6f3e 0676 093d
00000290: 0dca 26be 36d0 cb3d 0620 9fbd 30a0 793e
000002a0: a1cc 1dbd 7a82 a4bc ba04 953c d8a1 273e
000002b0: 7089 b9bc 25a7 8d3e 091d 0c3e a712 99be
000002c0: 5fbb cd3d cbaf afbe d568 68be a9a1 b43d
000002d0: 169f d83d 12b1 62bc 0d1d e33e 1db3 a8bd
000002e0: a9b9 17be 68ea 67bd 007c 0c3b 0053 f5bc
000002f0: dffc a23e dde7 18be 955f 3dbe 10f0 f83c
00000300: 5df7 b13e b24d 80ba d46f 083e 25c0 333d
00000310: 0175 863e 09b9 223e 313d 973e 9e24 99bc
00000320: 39df a5be 0169 4abe 21fc b23d 6a9b 553e
00000330: 9c25 28be b9e4 833e 7aea 953c fd14 e1bc
00000340: a85e b63b 3650 c2bd 61ce 883e ae53 f5bc
00000350: 194a 233e 5c0e afbe 3afb 7abe 991f 36bc
00000360: 68b7 be3e ca1b 0d3e 55af be3d 152f 5abe
00000370: bc4f d53c 8de6 1dbe 3c74 4bbe f69a 283e
00000380: 4e08 82be 6736 883e e827 7fbe 5554 d03d
00000390: 9d9a 243e e463 9fbe aed6 193e c1b1 9ebd
000003a0: 94bf 7c3e c84c 853e 41f6 56be 222e 1bbe
000003b0: a59d 833e 8f63 1a3c a4be 3d3c 3067 963e
000003c0: b5ea 2ebe 3002 8fbc f6ac 783e 1a7d 0d3e
000003d0: 062c 6abe 2033 bc3d 0b04 8abe 139d 44be
000003e0: b1b5 543e a385 eabd 2725 48be 2ba6 c23b
000003f0: 57c6 8b3d ffc7 71be d16d 84be 10dd b8be

features_extractor.value_net.0.bias f4 [32]
0.19499014 -0.25757894 -0.013322147 -0.02261621 -0.26776752 0.009559354 -0.2612037 -0.2371118
-0.052802417 -0.3096101 -0.3100781 0.31090325 0.014577075 -0.15636034 0.052039772 0.12142664
-0.28179032 -0.110459626 -0.18151653 -0.02595273 0.019127429 -0.3054661 0.26871252 -0.27150065
0.26017106 -0.2780728 -0.11474976 0.08178528 -0.2009568 0.27441528 -0.24375182 -0.03832834
00000000: 7fab 473e 63e1 83be 2245 5abc a145 b9bc
00000010: d318 89be d69e 1c3c 7ebc 85be 70cd 72be
00000020: 5947 58bd 3785 9ebe 8fc2 9ebe b62e 9f3e
00000030: afd4 6e3c ed1c 20be a827 553d 88ae f83d
00000040: d246 90be a838 e2bd 78df 39be d29a d4bc
00000050: 20b1 9c3c 0d66 9cbe b094 893e 2202 8bbe
00000060: 2435 853e 8f5f 8ebe ec01 ebbd 0a7f a73d
00000070: 9fc7 4dbe 2980 8c3e 149a 79be 2dfe 1cbd

features_extractor.value_net.2.weight f4 [1, 32]
-0.19450766 0.017920924 0.14041132 0.2066569 0.03608153 -0.19139732 0.19060175 0.050894868
0.0932146 -0.0900777 -0.08204088 -0.15395953 0.13474876 0.029324472 -0.20685244 0.07803431
-0.22761104 -0.054056328 0.11454691 -0.010350309 -0.052876547 -0.081490554 0.09909477 -0.17068432
0.024437774 0.15423864 0.1270142 0.078225896 0.10925151 0.14510506 0.050093085 0.039176375
00000000: 042d 47be e7ce 923c fcc7 0f3e de9d 533e
00000010: 3aca 133d a9fd 43be 1b2d 433e 2377 503d
00000020: 4ce7 be3d a87a b8bd 0d05 a8bd 91a7 1dbe
00000030: 94fb 093e e039 f03c 20d1 53be 74d0 9f3d
00000040: de12 69be 2b6a 5dbd 9297 ea3d 5894 29bc
00000050: 1495 58bd 85e4 a6bd 33f2 ca3d dfc7 2ebe
00000060: ba31 c83c bcf0 1d3e 0310 023e e634 a03d
00000070: 41bf df3d 6c96 143e 682e 4d3d 6877 203d

action_net.weight f4 [2, 64]
0.3319755 0.16301492 -0.035222836 -0.05131154 0.05518556 -0.09067896 -0.29738042 0.047954638
-0.113518864 0.19104618 0.049114767 -0.12110752 0.21303798 0.22957882 -0.22405429 0.20941943
0.32715106 0.31395411 0.0707778 0.09348976 -0.17833336 0.158515 0.2532857 0.21029137
0.07856527 -0.18728416 0.13656689 -0.0369896 0.2482954 0.19831634 0.1437317 0.36677292
0.0670287 0.11757148 -0.093495 0.23481591 0.10589168 0.16041738 -0.062549286 0.19941148
0.14257032 -0.08016418 0.19978821 -0.089411564 -0.25119305 -0.06975616 0.046519525 -0.13061774
-0.056332495 -0.09406686 0.04825477 -0.31978068 0.15423869 0.06895096 -0.141501 -0.11089705
0.15785338 -0.182876 -0.31074974 -0.24032578 -0.045070004 0.19454372 -0.22338624 -0.025637252
0.0073558004 -0.12248082 0.22793688 0.13265964 -0.26039302 -0.34016302 -0.21498111 -0.23306951
-0.07266912 -0.019129017 0.27678865 0.1767839 0.085884444 0.16380899 0.15332167 0.15258777
0.21081652 0.21740633 -0.2433463 0.020146491 -0.2403389 0.11501325 -0.07984416 0.18191852
0.12709023 0.014687385 -0.32205403 -0.23211946 -0.050312504 -0.06693807 -0.14285113 0.20851006
-0.12600537 -0.21442619 0.14145905 -0.014764012 -0.09070239 0.16700423 0.1086097 -0.08895413
0.046315026 0.032631945 -0.1072789 0.2324361 -0.23275502 0.05257543 -0.10249568 -0.12275291
0.12919937 -0.21003126 0.17480278 0.015565289 -0.19518968 -0.20060903 0.066579 0.23169497
0.030700149 0.22029749 0.21026228 0.07922667 -0.1453687 0.06536598 0.1789874 0.25581956
00000000: b1f8 a93e 62ed 263e d245 10bd 0d2c 52bd
00000010: 410a 623d e4b5 b9bd 3f42 98be 156c 443d
00000020: 947c e8bd 9ca1 433e 912c 493d 3807 f8bd
00000030: a126 5a3e b616 6b3e 7d6e 65be 0c72 563e
00000040: 5880 a73e 98be a03e f4f3 903d 8f77 bf3d
00000050: 059d 36be c251 223e aaae 813e 9f56 573e
00000060: d4e6 a03d 6bc7 3fbe 31d8 0b3e 6882 17bd
00000070: 2641 7e3e 7013 4b3e 672e 133e a9c9 bb3e
00000080: 5846 893d 51c9 f03d 4e7a bfbd 9573 703e
00000090: bddd d83d 7444 243e d719 80bd 8632 4c3e
000000a0: f4fd 113e 1e2d a4bd 4895 4c3e 691d b7bd
000000b0: 609c 80be 51dc 8ebd 428b 3e3d a8c0 05be
000000c0: e7bc 66bd 20a6 c0bd cba6 453d 4bba a3be
000000d0: bff0 1d3e 2936 8d3d a3e5 10be fe1d e3bd
000000e0: 51a4 213e d943 3bbe 971a 9fbe f617 76be
000000f0: 539b 38bd 7836 473e 5dbf 64be 3705 d2bc
00000100: ed08 f13b 39d7 fabd 4968 693e eed7 073e
00000110: 3c52 85be d929 aebe 0224 5cbe c6a9 6ebe
00000120: 8cd3 94bd 75b4 9cbc 3eb7 8d3e d706 353e
00000130: 2fe4 af3d 8bbd 273e 5b00 1d3e f83f 1c3e
00000140: 49e0 573e c49f 5e3e c62f 79be 410a a53c
00000150: 671b 76be 118c eb3d 5685 a3bd d948 3a3e
00000160: f123 023e 5ca3 703c 44e4 a4be b9b0 6dbe
00000170: 7c14 4ebd d416 89bd 9147 12be a983 553e
00000180: 8d07 01be 8a92 5bbe a4da 103e c1e4 71bc
00000190: 2dc2 b9bd 2803 2b3e c36e de3d 952d b6bd
000001a0: d3b4 3d3d 13a9 053d 0ab5 dbbd bb03 6e3e
000001b0: 5557 6ebe 5659 573d 41e9 d1bd e165 fbbd
000001c0: d74c 043e 6f12 57be 80ff 323e 8e05 7f3c
000001d0: cedf 47be 746c 4dbe 925a 883d 7241 6d3e
000001e0: e17e fb3c aa95 613e ff4e 573e 9841 a23d
000001f0: 88db 14be 99de 853d 7948 373e c8fa 823e

action_net.bias f4 [2]
0.088847846 -0.10920204
00000000: dcf5 b53d 52a5 dfbd
