weights/oracle-nd-2-eps-500.pth (torch, 16169 bytes, 10 tensors)

log_std f4 [2]
00000000: b166 553d e257 043d
0.052099887 0.032310374

features_extractor.policy_net.0.weight f4 [32, 8]
00000000: c515 cc3e 2ed4 3b3e 589a 70be 5990 c33e
00000010: 9439 9dbd 18c4 c63c 0219 4cbe 2dad 373e
00000020: 0537 ac3e 5da9 d1be ecde b73e 2932 8e3e
00000030: 2096 8f3e 674a b53d ba14 253e 68f2 393b
00000040: be1a e03e 778b 9dbc 8611 abbe a6a7 033e
00000050: b7ce 17be 56f1 b3bd 5a0b 25be a7e0 593e
00000060: 1e3e 8bbe d51b 2ebe 14df bfbd f68e 30be
00000070: fa28 a53d 4305 aebe 4af0 b33e c090 7abe
00000080: 3644 d53e d2b6 2e3b f6ea 88be d9c5 6f3e
00000090: d605 883d dd7f 743e 663b 9e3c 6347 00be
000000a0: 2b02 143e bda4 63be 0b6e 323e 3f8f 023f
000000b0: e706 6d3e 40c0 cfbd c870 593e 0aed d13d
000000c0: a0ec c73e 4582 49be c367 f4be 165d bfbd
000000d0: 4885 42be a6b7 893e b1ff fb3d f835 1a3e
000000e0: cfe8 fa3d 19ce 513e cf57 b43e a784 a8be
000000f0: 4b23 8f3d b04e 39be f9b0 383e f7b7 69bd
00000100: 77b9 56bd 57be b0bb ab00 d23e de81 89be
00000110: aeac 69be 367e 48be 7da0 a03e 4059 c53d
00000120: 2135 003f 566c 04be c116 f2be 321b bcbe
00000130: 948a 35be 6f34 063e dc5f 253e cef5 9d3e
00000140: 05af 64be 92df 8dbe d0bd 1e3e 6726 4fbe
00000150: b4ae 3e3e 85c6 d9bd d669 283e 97b6 97be
00000160: d302 72be ea58 733e 24f4 2b3e c06f efbd
00000170: 9805 703e 40c8 8e3e 4b87 5ebe f138 11be
00000180: 36b6 e93e 69b9 f1bc 0b08 eabc 7b34 6bbe
00000190: 4e0d 00be 792a 513e 748f 9b3c e125 22be
000001a0: 20e0 073c 4a4d 77be 8293 99be 755c 47be
000001b0: 286e 9ebe 1886 66be d3f2 b43e 94c2 883d
000001c0: 06a9 de3d 349c afbe 00b7 60be 037b 20be
000001d0: ed38 453d 380b 9cbe 6fb6 16be eb43 5bbe
000001e0: 006c 803a 3bb7 06be b0b3 c8bc 0254 75be
000001f0: 6880 78be c936 53be 8ed9 f7bd 06e0 8ebe
00000200: 458f bf3e 54a8 2cbe cb03 583e eeff 303e
00000210: 6e8e 97be bb67 5a3e bb75 f9bd 14e2 12be
00000220: 9885 babe 006b 98be 0b9e 9f3e b264 8e3d
00000230: c2ca 313e 575f 36be 7c74 9a3e a553 21be
00000240: 1561 98bc 5893 bebd 5aa1 083e 0ebd de3e
00000250: bdc0 9c3e 55c7 93be c1cf 813d 4d5f 2bbe
00000260: 01bd 14bd 3115 abbe fd4d dc3e 4297 20bd
00000270: 923e 613e c302 703e 5d80 1c3e 34bf d4bd
00000280: 2b19 d73e 40b2 a93e 9a98 433d 83f2 c3be
00000290: fe05 753e d4da 0c3d 4ba6 34bd cebe bb3e
000002a0: e24b 403d 96de 5bbe c487 60be 7c6f 5cbd
000002b0: 40b4 193e 54a6 e0bd 19ab 82be 292d 19be
000002c0: 2005 a8be 41e1 a13e 4ae0 b23e f48c f7be
000002d0: b3b5 b23d 9301 483e bedc c33d 5afd c5bd
000002e0: c933 423e e9b8 543e 5aa3 033e 56c0 8abd
000002f0: 259d 07be 1ca4 813d bc9f a7bd e82b f4bd
00000300: cfbd a33e 15a6 e93e 8c54 32be 6d07 61be
00000310: f135 c43c dcf4 1dbd cc1c c43d b907 aa3d
00000320: 7b69 a4be 1e9b 05be 1571 983e b208 0d3e
00000330: 300e 90bc 7346 5abe 427f 5dbe b026 a2be
00000340: a8ed 6bbe 6fea fe3d cf69 da3e f577 723e
00000350: 5e64 86be 54be e2bd f6ce aabb d87e c23e
00000360: e4e2 9e3c 6834 7abd 748a 7e3e a8c9 2dbe
00000370: 5e10 45be 617c 8f3e ed9f bdbd b54f c13a
00000380: 833e aabe 56f6 a33e 715d e03e 9fab 363e
00000390: 103c 0bbe 28f0 6bbe 9fc9 58be a16f b13e
000003a0: da33 653e 266d dd3e bc3c 4d3e bfc9 b13d
000003b0: eba7 8b3d 00c8 69be ee3b 64be ee85 9fbe
000003c0: 7234 143e d8bf 31be f0b8 91bd eb5a 50be
000003d0: a8f1 83bd c1d0 7ebe ce8f 6cbe 2c2f f03d
000003e0: f9c8 63bd ec46 c13e 6b16 2cbd 5b05 9ebe
000003f0: 248d c23c 46aa fcbd 633d 1bbd dd13 77be
0.3986036 0.18342659 -0.23496377 0.38196066 -0.07676998 0.024263427 -0.19931415 0.17937155
0.33635727 -0.40949526 0.35912263 0.27772644 0.28044224 0.08852082 0.16121188 0.0028373245
0.43770403 -0.019231541 -0.33411807 0.12856922 -0.14824949 -0.087862656 -0.16117612 0.21277104
-0.2719583 -0.17002805 -0.09368721 -0.17242035 0.08064456 -0.3398839 0.35144264 -0.2446928
0.41653603 0.0026659262 -0.2674176 0.23415317 0.06641738 0.23876901 0.019315433 -0.12527232
0.14453952 -0.22230811 0.1742479 0.50999826 0.23147164 -0.10144091 0.21234429 0.1025029
0.39047718 -0.196786 -0.47735414 -0.093439266 -0.18996155 0.26897925 0.12304629 0.1505965
0.12251436 0.20488776 0.35223243 -0.32913706 0.069891535 -0.18096423 0.1803626 -0.05706021
-0.052422967 -0.005393784 0.41016135 -0.26856893 -0.22819778 -0.19579396 0.31372443 0.09636164
0.5008107 -0.12931952 -0.47282985 -0.36739498 -0.17728645 0.1310594 0.16149849 0.30851597
-0.2233239 -0.27709633 0.15502095 -0.20229493 0.18621331 -0.10633568 0.16446623 -0.29631492
-0.2363389 0.23764387 0.16792351 -0.116912365 0.23439634 0.27887154 -0.21731298 -0.14181878
0.45646828 -0.029507356 -0.028568288 -0.22969238 -0.12505075 0.20426358 0.018989302 -0.15834762
0.008293182 -0.24150577 -0.29995352 -0.19468863 -0.30943418 -0.2251209 0.3534151 0.06677738
0.108720824 -0.3429886 -0.21944809 -0.15671925 0.04814999 -0.3047731 -0.1471803 -0.21412627
0.0009797812 -0.13155834 -0.024499744 -0.23957828 -0.24267733 -0.20626368 -0.12102042 -0.2790529
0.37413993 -0.16861087 0.21095197 0.1728513 -0.29600853 0.21328633 -0.121806584 -0.14344054
-0.3643005 -0.29769135 0.31175265 0.069528 0.17362502 -0.17809807 0.30166996 -0.15754564
-0.01860098 -0.09305447 0.133428 0.43503612 0.30615798 -0.28863016 0.06338454 -0.16735573
-0.03631306 -0.33414605 0.4302825 -0.03920675 0.21996525 0.23438554 0.15283342 -0.103880316
0.4201139 0.33143806 0.047752954 -0.3827096 0.23928067 0.03438838 -0.0441039 0.3666901
0.046947367 -0.21471629 -0.2192679 -0.053817257 0.15010166 -0.109692246 -0.25521162 -0.14958633
-0.3281641 0.31617168 0.34936744 -0.48349726 0.087260626 0.1953185 0.095635876 -0.096674636
0.18965067 0.20773663 0.12855282 -0.067749664 -0.1324354 0.063301295 -0.08184764 -0.11922437
0.3198075 0.45634523 -0.17415065 -0.21975489 0.023951503 -0.038563594 0.09575805 0.08302254
-0.32111725 -0.13047454 0.29773775 0.13772848 -0.01758489 -0.21315937 -0.21630576 -0.3167014
-0.23039877 0.124470584 0.4265885 0.23678572 -0.2624845 -0.110714585 -0.00521266 0.379874
0.0193953 -0.061085135 0.24857503 -0.16971457 -0.19244525 0.2802458 -0.09259019 0.0014748486
-0.33250818 0.32023877 0.4382129 0.17838906 -0.13597131 -0.23040831 -0.21170662 0.3465548
0.22383061 0.43247336 0.200427 0.08681058 0.06819137 -0.228302 -0.22288486 -0.31156868
0.14473131 -0.17358339 -0.07115352 -0.20347182 -0.06442577 -0.24884321 -0.23101732 0.11727747
-0.055611584 0.37749422 -0.042013567 -0.3086346 0.023748942 -0.123371646 -0.03790034 -0.24128671

features_extractor.policy_net.0.bias f4 [32]
00000000: a83f 2d3e 3c62 47be e502 243e 8f88 333e
00000010: d31c 733e 50a8 62be e106 8c3e f6ce aebd
00000020: 9090 0b3e e55a af3e bda6 b9bd 410a 053d
00000030: b8ca 163d fa25 97be cf7e 2c3e 7db3 b3be
00000040: f7f4 553e 841c ba3e c40f a83e af22 463c
00000050: 1019 52be a0c1 073d c0fb 5c3e 14cf b1be
00000060: 82d4 bcbd ac06 59be 90ca 193d 81c2 f6bd
00000070: 23fc 10bd 8864 f8bc fe05 acbe 2544 b83e
0.16918814 -0.19471067 0.16016729 0.17532562 0.23741464 -0.22134519 0.27348998 -0.085355684
0.13629365 0.34249035 -0.09065006 0.032480482 0.03681442 -0.2952116 0.16845249 -0.35097876
0.20894228 0.3634988 0.32824528 0.01209323 -0.20517373 0.03314364 0.2158041 -0.347283
-0.0922022 -0.21193951 0.037546694 -0.120488174 -0.035396706 -0.030321375 -0.33598322 0.3598949

features_extractor.policy_net.2.weight f4 [64, 32]
00000000: 4424 be3d bddb f13b 9092 35be aeec 2fbe
00000010: 86a6 60be 5f8c 0dbe f8fb b2bd 24c6 93bd
00000020: 9a10 b2bc 54af 40be 17bf 63bd c3f7 583d
00000030: c781 4abe f895 19bd aa05 3dbd a458 adbd
00000040: 52f5 00be c0c6 a73e 837b 29bd 78e3 443e
00000050: d650 70be 94e1 e63c af84 903e 4f7c 073d
00000060: 2f1c b1be b4b1 8f3d 627c ac3e 7ac6 193e
00000070: 5c81 903e 7f8d 143e 38e6 ddbc 678b 83bd
00000080: 66d2 32be 1255 01be 18ec f2ba c5c1 e73c
00000090: 381c 31be 816a 7cbe 2cfc 7bbe 228d 8fbc
000000a0: 7061 c0bc bf81 15be 8f97 ec3d 8b67 4c3e
000000b0: 4909 98be d237 11be 392a 703d 50a6 06be
000000c0: 405b 32bd a95e 1b3e 4b05 c0bd 3bd9 cf3c
000000d0: c411 833c 7047 dfbc ca21 e23d 8547 6ebe
000000e0: d375 07be 9bdb c1bd 3c64 8d3e 21ea c1bc
000000f0: 5fb3 2d3d 8bd7 f53d 2c90 473d c735 813e
00000100: 73a2 333e 3db7 733e 4d44 c7bd 6c94 863c
00000110: 21ee 1f3e e1b7 1a3e 99d6 32bd 5624 c9bc
00000120: 867d 1bbe 1b04 c2bd 22d2 0dbe ed24 17be
00000130: 7a45 0c3e a848 203d bd79 493d 6548 09be
00000140: 6f4b dcbd 70c6 413d eb69 4f3e cc8e 193e
00000150: c535 85be f1a5 1cbd 7935 aabe d88a 0dbc
00000160: bedd 0bbe de24 c53d ff22 063e 7a38 44be
00000170: 3e2a be3c d8a2 7ebe 5692 873d 8813 03be
00000180: 76ac 0c3d b880 573e f9fc 84bd 906a e5bc
00000190: 2144 083e 4918 ac3c 11c0 1e3d 202a 22be
000001a0: 1082 743d 4dda 063e 9410 b83d 1e78 5bbe
000001b0: b794 31bd 20a2 9c3c 1812 dc3d 5528 a7bd
000001c0: ff24 07bd 988f c63d 756d ea3c 9c08 6a3b
000001d0: fa08 7bbd 29fb 24be 3577 9bbe 33c4 453c
000001e0: ddcd 02be c096 613d b58e b9bd 9322 5dbd
000001f0: ca50 433d 8274 51bd 910c 013e 7aa0 84be
00000200: 022e b3bd 0696 f0bd c29f 1bbe b3a9 e1bd
00000210: 8a38 03bd 2c85 85be ffc3 1fbe 08bb 8c3e
00000220: b3cf 443e 27ed 7f3d a47a adbd e7b6 26bd
00000230: 187a eabd f456 383d 238f 583d 7812 b7bc
00000240: 6e78 03be 2963 23bc 4cd0 4dbe 652b 56bc
00000250: d8ff 013e 7d7d 533c 0fec 0a3e d0b4 1bbd
00000260: db9d 1d3e c19f 033e ddd7 15bd 1984 cc3d
00000270: 52b1 883e fb24 973d 250e 04be bde8 de3e
00000280: bbfc d53d 9ca8 97be 95af 60bd 1783 16be
00000290: 1797 3ebe 6dfa 22be 2ab2 c43c f215 6e3e
000002a0: cb2c 433c b4bf 513e 39ae d0bb de88 cd3c
000002b0: 05c9 1bbc 3ce2 2d3d fddf 153d 98fd ffbd
000002c0: 72db 30bc 39cb 46be b62e 52be 5b6c 48be
000002d0: 79d9 c23e de98 283e b728 af3e 4975 313d
000002e0: e1a5 be3e c8d5 c1bc dfad 0bbe b951 bb3d
000002f0: 245e 49bd c816 613c f838 67bd 05fa b23e
00000300: 0e92 013e 6211 3bbe f1f7 1f3a c237 c23d
00000310: 02b3 8ebd 825c 77be 8046 4c3e 6e90 5b3d
00000320: f46d f63d 3995 a63e 1107 c43c 5e1a 603d
00000330: ba00 313e 406f 353b 86ac 59bd 803a 1f3b
00000340: fc5b b43c 8e91 c8bc c0cc c7bd 86f9 7dbe
00000350: da69 433e c13f b4bd 580e 153d 01d7 223e
00000360: bbcb cc3e 9e38 a63d aeca 8abe 74aa 42be
00000370: 787c e8bd 0479 a13d 0037 6e3c 9659 a43d
00000380: 60f8 c13b dab5 92be 9d7a 4cbe 7cdf 26be
00000390: d5f6 c33d 79e8 b1be b3f1 613d ef49 453e
000003a0: f4f5 863d f97e b93d 1480 48bd 3ce4 8a3e
000003b0: ec52 7c3d ae29 1dbe 8bf4 593d ccb0 083d
000003c0: 4210 f2bc d3fa c8bc b2ce eaba 64a5 11be
000003d0: 1c06 0c3e a0cc 3f3e eece a93e cd7d a6bd
000003e0: 5882 8e3b a0e0 fd3b eaca e1bd ade3 273e
000003f0: fe2c 30bc d631 f33d 24b4 20bd dd7f a53e
0.09284261 0.007380931 -0.1773169 -0.1718013 -0.21938524 -0.13823079 -0.087394655 -0.07215527
-0.021736432 -0.18816882 -0.05560216 0.05297066 -0.19776069 -0.037496537 -0.04614798 -0.084641725
-0.12593582 0.32768822 -0.041377556 0.19227397 -0.23468336 0.028183736 0.2822623 0.033077534
-0.34591815 0.07016316 0.33688647 0.15017119 0.28223693 0.14507101 -0.027087316 -0.06423073
-0.17463073 -0.12630108 -0.0018533496 0.028290639 -0.17295921 -0.24650003 -0.24607915 -0.017523352
-0.023483962 -0.14600275 0.11552345 0.19961374 -0.29694584 -0.1418145 0.058634017 -0.1314938
-0.043544054 0.15172829 -0.093760096 0.025372138 0.015999682 -0.027255744 0.11041601 -0.2326947
-0.1322854 -0.094657145 0.27615535 -0.023671212 0.04240739 0.12004002 0.048721477 0.2523634
0.17542438 0.23800369 -0.09729824 0.016428195 0.15618183 0.15109207 -0.043661688 -0.02455346
-0.15184602 -0.09473439 -0.1384969 -0.1476018 0.13698378 0.03913179 0.049188364 -0.13406523
-0.10756575 0.047308385 0.20255248 0.14995879 -0.26017585 -0.03824419 -0.3324392 -0.00863906
-0.13658807 0.096261725 0.13099287 -0.19162169 0.023213502 -0.24866807 0.06619708 -0.1280042
0.03434416 0.21045196 -0.06493563 -0.028004915 0.13307239 0.021007674 0.038757388 -0.15836382
0.05969435 0.13169213 0.08987537 -0.2143254 -0.043354716 0.019120276 0.107456386 -0.081619896
-0.032994267 0.09695357 0.028616646 0.0035710698 -0.061287858 -0.16111435 -0.30364385 0.012070703
-0.12773843 0.055075407 -0.09060422 -0.05398805 0.04768447 -0.0511365 0.1260245 -0.25903684
-0.0874901 -0.11747365 -0.15197662 -0.11018696 -0.03203634 -0.26078165 -0.1560211 0.27486444
0.19219856 0.062482025 -0.084706575 -0.040701773 -0.11449069 0.0450048 0.05287088 -0.022347674
-0.12838909 -0.009972372 -0.2009899 -0.0130718695 0.12695253 0.012908337 0.13566612 -0.038014233
0.15392248 0.1285391 -0.036582816 0.09986133 0.26697785 0.073801 -0.1289602 0.4353694
0.10448595 -0.29620826 -0.054854948 -0.14698444 -0.18612324 -0.15915842 0.024010736 0.23250559
0.011912535 0.20483285 -0.006368425 0.025089677 -0.009508376 0.042452082 0.036590565 -0.12499541
-0.010794507 -0.19413461 -0.20525631 -0.19572584 0.38056543 0.16464564 0.3421075 0.043324742
0.3723593 -0.02366151 -0.13640545 0.09146447 -0.049162045 0.013738342 -0.056450814 0.34956375
0.12653372 -0.1826835 0.0006102315 0.09483291 -0.06967737 -0.24156383 0.19948769 0.053604536
0.12032691 0.32535723 0.02392915 0.054712646 0.17285433 0.0027684718 -0.053143047 0.0024296343
0.022016518 -0.024483468 -0.0975585 -0.24802217 0.19083348 -0.088012226 0.036390632 0.1590233
0.39999184 0.081162676 -0.27107757 -0.19010335 -0.113518655 0.0788441 0.01453948 0.080249
0.005919501 -0.28654367 -0.19968648 -0.1629619 0.09568564 -0.34747675 0.055162143 0.19266485
0.065898806 0.09057421 -0.04895027 0.27127254 0.061602518 -0.15347931 0.05321173 0.03337173
-0.029548768 -0.024533665 -0.0017914383 -0.14223248 0.13674206 0.18730402 0.33165687 -0.08129463
0.0043490343 0.0077477247 -0.11025031 0.16395445 -0.0107529145 0.1187474 -0.039234295 0.32324114

features_extractor.policy_net.2.bias f4 [64]
00000000: 292b 4c3d 2fd6 7fbc 70f0 a6bb a7ee 4f3c
00000010: e88f 1c3e 96d9 6d3c c69f e7bd a804 92bd
00000020: 8674 a73d 872d 663d 9a88 083c 1e38 92bc
00000030: 0467 89bd addc 79bd e3d8 aebd f0d4 073d
00000040: 9984 4d3d 1855 0c3e ec8d 2bbd 9b5b f63b
00000050: 7959 f33d 1613 b43d 1506 f83c 4cca 493d
00000060: 121d 883c c790 17be 9df9 ed3a 4f84 24bd
00000070: 3667 1e3e a46d 1f3e a85a 133d f937 233e
00000080: 1e5b b6bd cbe4 1a3e d7b6 183e baca 56bb
00000090: a3a5 09be 5282 52bd b1b3 57bd e1a5 a63a
000000a0: f261 1dbe 3512 cc3c 2223 94bd 8eba 1dbd
000000b0: c32c bebd f60e 39bd 77ba 22be bce8 b1bd
000000c0: d704 4a3c 1135 ed3d a3d3 253e a44b 0dbe
000000d0: 9999 a53d 2551 c1bd 015b 0abe e9b7 febb
000000e0: f7b8 babd 4098 1cbe d461 25be c8b0 eebd
000000f0: f9ab 103e 3b1f c03d 2dd6 89bd f77d dcbd
0.04984585 -0.01561503 -0.0050945804 0.0126911765 0.15289271 0.014517209 -0.11309771 -0.07129794
0.08176522 0.056195762 0.00833335 -0.017849024 -0.06709102 -0.06100147 -0.085374616 0.033162057
0.050175283 0.13704336 -0.041883394 0.0075182444 0.118823 0.08792703 0.030276338 0.04926519
0.016615424 -0.14801322 0.0018156056 -0.04016524 0.1546906 0.15569168 0.03597513 0.1593932
-0.08904098 0.1512634 0.14913498 -0.0032774643 -0.13442092 -0.051393814 -0.0526616 0.0012714231
-0.15369394 0.024911026 -0.072332636 -0.03850799 -0.09285881 -0.045180283 -0.15891443 -0.08686969
0.0123302555 0.11582387 0.16194014 -0.13798386 0.08085937 -0.09439305 -0.13511278 -0.0077733886
-0.091173105 -0.15292454 -0.161506 -0.11654812 0.14128102 0.09380957 -0.06730304 -0.107662134

features_extractor.value_net.0.weight f4 [32, 8]
00000000: d81c 57be 6d05 a7bd 7cae 8dbd cfbf 7b3e
00000010: b585 383e a97c 02bd 805d 6a3e 7aed 38be
00000020: ad40 a0be 9544 203d 12c9 5abe cb2b 8d3d
00000030: cf1b 8b3e 94cc 43be bf48 8ebe 5773 d53d
00000040: 438e cabe 7cd3 703e 19ed 73be 136f d03d
00000050: c4f2 a9be 67be 95be e08e b2bc cc4a 693d
00000060: b7c2 9a3e c448 6d3e 755f be3d 91a7 9d3d
00000070: ef29 ed3d f85f 28bd 4e9f 113e c932 39be
00000080: 996f 9ebe 7a57 183e fb73 8dbe b229 683e
00000090: 25c1 5bbc 9786 6f3c 5339 893e 8be2 6fbe
000000a0: e1fd d8bb e907 873e 4c25 293e d15e 8ebe
000000b0: 866e 4b3e 4de2 3cbd b308 183d aaad 6f3e
000000c0: 1f1c b0bd 915d 7fbe 77b1 0e3e efcd e53e
000000d0: c856 3a3e bc90 af3d de31 6ebd f9d9 b6bd
000000e0: 223d 9f3e e1ec d83d dd96 1b3e 94d9 47be
000000f0: e8bf 693e bb7a 5abd 21f4 b23e 95ed be3e
00000100: 1ad9 e2bc 1ac6 40be 794d 913e 1e1c 4ebe
00000110: d13a 3c3e b52e cfbe eaa0 0bbe 204d afbe
00000120: 228f 28be e26f 123e 4f95 84be 6277 9ebe
00000130: b57b 7b3e 7cd8 393e 7222 0abc e493 81be
00000140: a0d5 bfbd 3071 eabd 7697 5f3e 02d6 ecbd
00000150: ac8b d0bd 3551 80be 0884 2abe 7e06 443e
00000160: a184 803e dd00 163e c107 27be 6e6e 9f3e
00000170: eec5 973d e087 91bd 565f 44be 5eb3 b1bd
00000180: afa8 273e 3b64 893d 12ee 993e 3954 663d
00000190: 7978 8d3e 7f0c 1abe ef23 b9bd 5877 93bd
000001a0: 73d5 a9be 1ca8 6dbe c2cc a3be 402a abbc
000001b0: 0070 5a3b b4ed bbbd 4a69 77be 9d3c a43e
000001c0: 5549 aebd ad69 963e c259 733e 1420 7fbe
000001d0: ad61 81bc d32c 8d3e 0b1c 883e 2159 9ebd
000001e0: c93e d43e c158 23bf d478 d0be 905e 043f
000001f0: 324c dbbd e707 3c3e 8641 2d3d 22ab 8fbd
00000200: 0833 f93e 3b6d 013f a438 dc3c 9748 e7bd
00000210: 31c2 e43b 2d6d 1dbe 5f09 323e f051 cdbd
00000220: 7535 e73d 32b8 cc3e a27e b03d d187 64be
00000230: 413a 9a3e 9ef3 a03e e17e 9bbe 423e 373e
00000240: 8abf 473e ba13 21be 0fc8 45be c7e1 523d
00000250: 75d6 8bbe 027a 633e 6160 9b3e 648c 1f3d
00000260: 0409 c53e 45c0 bbbe 58a8 103e 3e2c 9fbe
00000270: 9c02 4abc 2721 aa3d 725a 273d 83f6 23bd
00000280: 332a 20be beb2 d83e 0272 1e3e 176f 98bc
00000290: 8717 38be be6d 043e da7d d8bd 820b 553e
000002a0: 634a 58bd 639e 0b3d 7758 97bc 7e21 233e
000002b0: a638 6fbd 59cc 8b3e e9b8 153e b309 96be
000002c0: e236 19bd 67de f9be 40b2 42be a0b9 0c3e
000002d0: e922 993d 085b d3bd ef7b e53e 4260 c1bd
000002e0: a9b9 17be 68ea 67bd 007c 0c3b 0053 f5bc
000002f0: dffc a23e dde7 18be 955f 3dbe 10f0 f83c
00000300: dace 823e 728d ddbd 1ed6 503e 84cc ca3d
00000310: 26bf 883e d831 eb3d 08d5 a13e eca3 5a3c
00000320: fe78 8dbe 1306 14be b683 a73e dd6b 963e
00000330: e0fd 29bd aa7a 903e f4bb 843d 0af6 65bd
00000340: cef1 2abd 7dba bebd 032a 823e 4813 f8bc
00000350: 4bfa 183e 3706 b4be 9a19 80be 68ea 50bc
00000360: 2278 ab3e 80a0 f13d 35de f43d 49ef 38be
00000370: 47dc 0b3d ecf3 1dbe 1fa7 2fbe ff6d 353e
00000380: 2451 8ebe 60eb 703e a1fe 84be c9f3 823d
00000390: 6c22 0a3e b555 aabe d7a0 e83d 29c3 d0bd
000003a0: 6632 383e 1feb 783e 6475 10be 3268 0abe
000003b0: 7a0a 8a3e 9965 78bc 8ad1 043d d22c 983e
000003c0: b5ea 2ebe 3002 8fbc f6ac 783e 1a7d 0d3e
000003d0: 062c 6abe 2033 bc3d 0b04 8abe 139d 44be
000003e0: b1b5 543e a385 eabd 2725 48be 2ba6 c23b
000003f0: 57c6 8b3d ffc7 71be d16d 84be 10dd b8be
-0.21007097 -0.08155332 -0.06918046 0.24584888 0.18019755 -0.031857166 0.2288723 -0.1805934
-0.31299344 0.039127905 -0.21365765 0.068931185 0.27169654 -0.19121009 -0.27789876 0.1042239
-0.39561662 0.23518175 -0.23820914 0.10177436 -0.33193028 -0.29246828 -0.021796644 0.056956097
0.3022668 0.23172289 0.09295551 0.076979764 0.11580264 -0.041107148 0.14220926 -0.18085779
-0.30944517 0.1487712 -0.2762755 0.22672155 -0.013412748 0.014619491 0.26801547 -0.23426263
-0.0066220616 0.26373222 0.16518134 -0.27806714 0.1986638 -0.046114255 0.03711767 0.23406091
-0.08599114 -0.24938037 0.13934885 0.44883677 0.18197167 0.08572528 -0.058153026 -0.08928294
0.31101328 0.10592056 0.15194269 -0.19516593 0.22827113 -0.0533397 0.3495188 0.37290636
-0.027691413 -0.1882557 0.2837942 -0.20127913 0.18381812 -0.40465322 -0.13635603 -0.3423853
-0.16460851 0.14300492 -0.25895163 -0.30950457 0.24558909 0.18148988 -0.008431064 -0.25308144
-0.093669176 -0.1144737 0.21835122 -0.11564256 -0.1018289 -0.25061956 -0.16651928 0.19143102
0.25101188 0.14648767 -0.16311552 0.3113894 0.07410799 -0.07105994 -0.19176993 -0.0867679
0.16372941 0.067085706 0.30064446 0.056232665 0.27630976 -0.1504383 -0.09040057 -0.072004974
-0.3317066 -0.2320866 -0.31992155 -0.02089417 0.0033330917 -0.09176198 -0.24161258 0.32077494
-0.08510081 0.293775 0.23764709 -0.2491458 -0.015793646 0.2757326 0.26583895 -0.07731844
0.4145415 -0.638073 -0.40717185 0.5170679 -0.107078925 0.1836239 0.042298816 -0.07015063
0.48671746 0.505573 0.026882477 -0.11293142 0.006981157 -0.15373679 0.17386387 -0.10025394
0.11289493 0.3998428 0.08617903 -0.22317435 0.3012257 0.31435865 -0.30370238 0.17894843
0.1950666 -0.15730181 -0.19314598 0.05148485 -0.27312055 0.22214511 0.3034697 0.038952246
0.3848344 -0.36670128 0.14126718 -0.31088442 -0.012329724 0.083071046 0.04085774 -0.040030014
-0.15641098 0.4232387 0.15473178 -0.01860766 -0.17977725 0.12932488 -0.10570879 0.20805171
-0.052805316 0.034086596 -0.0184748 0.15930745 -0.058403634 0.27304342 0.14621319 -0.29304275
-0.037405856 -0.48802492 -0.1901331 0.13742685 0.07477362 -0.10320097 0.44821116 -0.09442188
-0.14816917 -0.05662003 0.0021436214 -0.029946804 0.3183355 -0.14932199 -0.18493493 0.030387908
0.2554844 -0.10817994 0.20394179 0.099022895 0.26708335 0.11484116 0.31607842 0.013344746
-0.27631372 -0.14455442 0.32717675 0.29379168 -0.04150188 0.28218585 0.06481162 -0.056142844
-0.04173451 -0.093129136 0.25422677 -0.030282632 0.14939229 -0.35160992 -0.25019532 -0.012751199
0.33490092 0.11798191 0.11956445 -0.1806003 0.03414562 -0.1542508 -0.17153595 0.17717741
-0.2779628 0.23527288 -0.25975516 0.063941546 0.13489693 -0.33268514 0.11358803 -0.10193474
0.17987975 0.24308442 -0.14107281 -0.1351631 0.26961118 -0.0151609415 0.032426395 0.29721695
-0.17081721 -0.017457098 0.2428473 0.13817254 -0.22868356 0.09189439 -0.2695621 -0.19200544
0.20772435 -0.114512704 -0.19545422 0.005940219 0.0682494 -0.23611449 -0.25865033 -0.36106157

features_extractor.value_net.0.bias f4 [32]
00000000: 2a7f 433e 63e1 83be 63ea 2ebd c06c f9ba
00000010: d3a8 9dbe a0de da3c 84a0 5dbe f5cb 4abe
00000020: 8f53 92bd 3785 9ebe 8fc2 9ebe 2a03 8f3e
00000030: 3fae e83c ed1c 20be fadb 343d f81a 203d
00000040: 3373 cfbe 7a4e 2bbe f411 61be 997f 26bd
00000050: a8aa 90bd 6abb a0be fc1b 5c3e 2202 8bbe
00000060: f02f a13e 3617 53be e04a 03be 1f1a dd3d
00000070: fe4a 6cbe 8c0d 963e 149a 79be 2dfe 1cbd
0.19091478 -0.25757894 -0.042703997 -0.0019029602 -0.30792865 0.026717484 -0.21643263 -0.19804366
-0.07144844 -0.3096101 -0.3100781 0.279321 0.0284034 -0.15636034 0.0441551 0.03908822
-0.40517578 -0.16729155 -0.21979505 -0.04064903 -0.070638 -0.31392986 0.2149505 -0.27150065
0.31481886 -0.20614323 -0.12821531 0.10795998 -0.23075482 0.2930721 -0.24375182 -0.03832834

features_extractor.value_net.2.weight f4 [1, 32]
00000000: a32b e8bd e7ce 923c 70ef e93d e072 213e
00000010: 9ced 983b 5825 03be b187 d53e 68b1 823c
00000020: 9f67 3a3d a87a b8bd 0d05 a8bd 3e85 31be
00000030: 34e3 0d3e e039 f03c f405 18be 57ae b93e
00000040: 6464 cbbe b2af 63bd 9174 073e 8a42 36be
00000050: 08fc 193b d718 aebd 585f d93d dfc7 2ebe
00000060: bc4a f13b f5b4 943e b1bd f63d 55c8 9d3c
00000070: 1fd4 cf3d a7ea c23d 682e 4d3d 6877 203d
-0.11336448 0.017920924 0.11422622 0.15766478 0.004666997 -0.12807214 0.41705087 0.015953735
0.045508977 -0.0900777 -0.08204088 -0.17335984 0.13856202 0.029324472 -0.14846021 0.36265823
-0.3972503 -0.055587478 0.1322806 -0.1779882 0.002349617 -0.085008316 0.106138885 -0.17068432
0.0073636454 0.2904431 0.120478995 0.019260565 0.10147881 0.09517413 0.050093085 0.039176375

action_net.weight f4 [2, 64]
00000000: 8e50 ec3e 909c 453e ee7b 63bc eafd cdbd
00000010: 3301 973d 570a 23be 9520 c0be 5abb 003d
00000020: ba5b 23be 3182 853e 9e24 b33d 842c 0abe
00000030: dcc8 963e c7ec aa3e 1b96 8cbe dc67 8d3e
00000040: ae90 e33e cc41 d53e cb5b ad3d 6ad5 1a3e
00000050: 8a64 65be bb7c 633e 7983 a23e 8d58 953e
00000060: c756 f53d 88ae 75be 98b2 263e dfab 2fbd
00000070: 0cd6 a33e e5e5 813e 10a7 553e eb2d f63e
00000080: 7291 a33d e8d2 003e bd4a eabd 0e0c a13e
00000090: ca71 163e a177 633e 92e3 96bd ac16 833e
000000a0: 48ea 433e 311a f0bd 9242 8c3e 821e dcbd
000000b0: dcd7 c0be 244f 8abd df9b 3e3d c7fd 22be
000000c0: c3f4 5dbd c7ca f1bd 9602 c73d 3a14 debe
000000d0: 9d7c 553e 2ec2 ac3d f105 57be f21a febd
000000e0: 1330 713e 31d6 4dbe 905b d2be 5dac b9be
000000f0: 8c38 48bd b0ea a73e 53bd 91be 8f00 37bd
00000100: 6bf2 5b3d cb9f 0dbe 8b00 ad3e 03de 993e
00000110: c17f eabe 024f 11bf 24e2 aebe 2d6c d1be
00000120: 006c dabd 1838 e8bc cc7a ff3e d3b9 663e
00000130: 5ea8 4a3e 293b 903e 0e6d 553e dfac 8b3e
00000140: 1cd1 a03e 069d b13e 7d04 c2be 1ec4 7c3d
00000150: 44c3 a3be 0d4b 783e 7f6b 99bd 2262 b03e
00000160: 58e4 873e 6f87 ef3a a0c0 06bf 93dc a7be
00000170: 56a0 60bd 90f6 78bd 31d7 88be 2f60 b33e
00000180: 7850 4fbe 63c6 b3be d749 3e3e 2fd8 9dbc
00000190: 18e1 f6bd ff5f 993e 6581 253e 4828 c8bd
000001a0: 255f c23d 2742 833d cba9 38be c215 ac3e
000001b0: 41f1 c7be cc49 783d 034e 0ebe 0cd8 32be
000001c0: dfcb 613e 73fc cabe 99f7 c43e 557a 48bd
000001d0: 0a93 a7be e508 8bbe 3502 de3d 1f85 ae3e
000001e0: d8f1 b63d 0d8a 973e 2076 9b3e afd8 093e
000001f0: 48b2 5cbe a2ee 303e 6435 883e 0b98 e73e
0.46155208 0.19298005 -0.013884528 -0.10058196 0.073732756 -0.15921913 -0.37524858 0.031428672
-0.1595296 0.2607589 0.087472185 -0.13493544 0.2945012 0.33383772 -0.2745827 0.276183
0.4444632 0.41651762 0.08464774 0.15120474 -0.22401634 0.2221555 0.3174093 0.2916912
0.11979442 -0.2399236 0.16279066 -0.04288852 0.31999242 0.25370708 0.2086451 0.48081908
0.07986726 0.12580454 -0.114400364 0.3145451 0.14691845 0.22213604 -0.07367624 0.25603235
0.1913234 -0.117237456 0.2739454 -0.107480064 -0.37664688 -0.06753376 0.04653537 -0.15917121
-0.0541885 -0.11806255 0.0971729 -0.43374807 0.20848317 0.08435474 -0.2099836 -0.12407483
0.23553495 -0.20101239 -0.41085482 -0.36264315 -0.048882052 0.3279624 -0.28464755 -0.044678267
0.053697985 -0.13830487 0.33789477 0.30052194 -0.45800593 -0.5676118 -0.34156907 -0.40902844
-0.106651306 -0.02834706 0.49898374 0.22531824 0.1979079 0.28170136 0.20842382 0.27280328
0.31409538 0.34690112 -0.3789405 0.06171047 -0.31984913 0.2424738 -0.074912064 0.3444987
0.265414 0.0018274615 -0.5263767 -0.32785472 -0.05484041 -0.060782015 -0.26726678 0.3503432
-0.2024554 -0.35112295 0.18582855 -0.019268123 -0.12054652 0.29956052 0.16162641 -0.09773308
0.09490804 0.06409102 -0.18033521 0.3361035 -0.3905125 0.060617253 -0.13896947 -0.17465228
0.22050427 -0.39645728 0.38470152 -0.04894479 -0.3272937 -0.27155223 0.10840265 0.34085938
0.08932847 0.29597512 0.3036356 0.13461564 -0.21552384 0.17278531 0.26603234 0.45233187

action_net.bias f4 [2]
00000000: 084c b63d 3c4a dcbd
0.089012206 -0.107563466
