weights/oracle-nd-2-eps-300.pth (torch, 16169 bytes, 10 tensors)

log_std f4 [2]
0.11837097 0.04201054
00000000: 7b6c f23d 3e13 2c3d

features_extractor.policy_net.0.weight f4 [32, 8]
0.3895018 0.2039774 -0.22149362 0.37714997 -0.08685668 0.032706235 -0.18693663 0.1640021
0.34075275 -0.39200518 0.35583815 0.25841105 0.28124073 0.10142263 0.16226032 -0.0023443925
0.43021986 3.8650815e-05 -0.31158802 0.12530605 -0.15648042 -0.07248004 -0.14241666 0.2001504
-0.286204 -0.16108344 -0.09562348 -0.19570819 0.018385783 -0.36222836 0.32617372 -0.29840103
0.4058393 0.019250223 -0.25217173 0.23061116 0.05548822 0.24466027 0.031654876 -0.14146017
0.14724429 -0.20450613 0.1703765 0.49009228 0.2321124 -0.09072732 0.21286124 0.09417108
0.36883354 -0.18834701 -0.46995625 -0.10560861 -0.21160904 0.2747738 0.13041332 0.13132963
0.13437451 0.20511274 0.35930628 -0.28845152 0.07901268 -0.16821398 0.19312827 -0.027316952
-0.047993694 -0.021266926 0.39522794 -0.26507133 -0.23213013 -0.20264919 0.3027647 0.1059174
0.49038255 -0.1256336 -0.44874927 -0.3580895 -0.18690349 0.12449865 0.17350209 0.29906064
-0.2080537 -0.26523787 0.1622987 -0.19670156 0.20976032 -0.09244551 0.17977464 -0.28201827
-0.22530535 0.21365792 0.16478264 -0.10575115 0.24055493 0.27385998 -0.2187785 -0.123589694
0.4312707 -0.043005504 -0.054469716 -0.26886505 -0.1516264 0.17307155 0.018652085 -0.21200392
0.008293182 -0.24150577 -0.29995352 -0.19468863 -0.30943418 -0.2251209 0.3534151 0.06677738
0.12021157 -0.34253788 -0.21573532 -0.13915533 0.051845513 -0.3369184 -0.15772581 -0.24110992
0.0009797812 -0.13155834 -0.024499744 -0.23957828 -0.24267733 -0.20626368 -0.12102042 -0.2790529
0.37740514 -0.14526416 0.21546991 0.16133854 -0.2983151 0.23150952 -0.11041822 -0.15307586
-0.35205403 -0.29415157 0.2943809 0.057767194 0.1881286 -0.16541408 0.29211766 -0.14710873
-0.014369647 -0.06989559 0.13484983 0.41890788 0.31016988 -0.27137852 0.06617588 -0.17148125
-0.026438914 -0.3334556 0.41613504 -0.06388534 0.22827299 0.24262334 0.13637045 -0.10823765
0.40725023 0.3149121 0.054991473 -0.37017375 0.22817099 0.012244668 -0.040886626 0.36363536
0.041424412 -0.21879146 -0.2194612 -0.054274745 0.14610815 -0.11114714 -0.25889796 -0.15208822
-0.32618734 0.29177198 0.34487492 -0.47079855 0.091514334 0.18220706 0.08638726 -0.08409201
0.18202099 0.20471568 0.123187244 -0.06391905 -0.10718646 0.038566582 -0.0930194 -0.120547116
0.30724353 0.44135267 -0.16041982 -0.20900328 0.0102476245 -0.060670804 0.09905694 0.07247587
-0.32111725 -0.13047454 0.29773775 0.13772848 -0.01758489 -0.21315937 -0.21630576 -0.3167014
-0.21453035 0.11924297 0.41048768 0.23670661 -0.2528201 -0.10833761 -0.014435136 0.3942017
0.026746435 -0.06959757 0.23920128 -0.15867777 -0.19254188 0.28903595 -0.12569797 -0.013887364
-0.3217413 0.308917 0.4127165 0.1885705 -0.14981425 -0.23541978 -0.22390594 0.35280663
0.20045409 0.37268093 0.17184688 0.06124781 -0.014173235 -0.29025623 -0.27815652 -0.34013337
0.14473131 -0.17358339 -0.07115352 -0.20347182 -0.06442577 -0.24884321 -0.23101732 0.11727747
-0.058593847 0.35463247 -0.03583999 -0.2889081 0.025466662 -0.14132173 -0.037173394 -0.23753923
00000000: c86c c73e 74df 503e 39cf 62be cd19 c13e
00000010: eae1 b1bd f9f6 053d 516c 3fbe 2bf0 273e
00000020: 2577 ae3e e7b4 c8be 6b30 b63e 744e 843e
00000030: c9fe 8f3e abb6 cf3d 9227 263e 61a4 19bb
00000040: c745 dc3e ff1c 2238 7788 9fbe 3b50 003e
00000050: 673c 20be 6a70 94bd acd5 11be 3af4 4c3e
00000060: 5589 92be 0ff3 24be 3ed6 c3bd ba67 48be
00000070: c89d 963c ff75 b9be 3e00 a73e 05c8 98be
00000080: 2bca cf3e a5b2 9d3c a71c 81be 5525 6c3e
00000090: 9e47 633d 3988 7a3e 8ba8 013d efda 10be
000000a0: 35c7 163e 0e6a 51be 2d77 2e3e 60ed fa3e
000000b0: dfae 6d3e 3fcf b9bd 4cf8 593e c4dc c03d
000000c0: c0d7 bc3e 0ade 40be 1b9e f0be 5449 d8bd
000000d0: 0ab0 58be 27af 8c3e 128b 053e 467b 063e
000000e0: 7999 093e 1309 523e fef6 b73e ebaf 93be
000000f0: 66d1 a13d 4940 2cbe 6bc3 453e cdc7 dfbc
00000100: 0995 44bd fa37 aebc 515b ca3e 6eb7 87be
00000110: 85b3 6dbe 4583 4fbe fa03 9b3e 39eb d83d
00000120: 6c13 fb3e 18a6 00be 77c2 e5be 8257 b7be
00000130: a163 3fbe 26f9 fe3d 88aa 313e 7a1e 993e
00000140: 070c 55be 42cd 87be a131 263e 226c 49be
00000150: 69cb 563e 1254 bdbd d816 383e b364 90be
00000160: 72b6 66be 24c9 5a3e c8bc 283e 0f94 d8bd
00000170: 0854 763e 6037 8c3e 7907 60be 981c fdbd
00000180: 83cf dc3e 8a26 30bd a31b 5fbd aea8 89be
00000190: f343 1bbe ab39 313e 42cc 983c 8e17 59be
000001a0: 20e0 073c 4a4d 77be 8293 99be 755c 47be
000001b0: 286e 9ebe 1886 66be d3f2 b43e 94c2 883d
000001c0: 7c31 f63d 2061 afbe b8e9 5cbe bc7e 0ebe
000001d0: f65b 543d 9280 acbe e082 21be 85e5 76be
000001e0: 006c 803a 3bb7 06be b0b3 c8bc 0254 75be
000001f0: 6880 78be c936 53be 8ed9 f7bd 06e0 8ebe
00000200: 3f3b c13e 21c0 14be 25a4 5c3e ee35 253e
00000210: c2bc 98be d510 6d3e f322 e2bd ebbf 1cbe
00000220: 6d40 b4be 099b 96be 18b9 963e 4b9d 6c3d
00000230: c9a4 403e 4f62 29be 7290 953e aca3 16be
00000240: ab6e 6bbc 6b25 8fbd 1316 0a3e 187b d63e
00000250: 96ce 9e3e 20f2 8abe 3887 873d c898 2fbe
00000260: 6c96 d8bc b1ba aabe a70f d53e 51d6 82bd
00000270: 65c0 693e 4172 783e b2a4 0b3e b3ab ddbd
00000280: 1a83 d03e 293c a13e bd3e 613d 6a87 bdbe
00000290: a8a5 693e dc9d 483c bc78 27bd 6a2e ba3e
000002a0: a5ac 293d de0a 60be 70ba 60be 324f 5ebd
000002b0: 609d 153e 1da1 e3bd 468e 84be 04bd 1bbe
000002c0: 0702 a7be 2363 953e 7293 b03e 820c f1be
000002d0: de6b bb3d 7d94 3a3e ceeb b03d 6f38 acbd
000002e0: b663 3a3e fda0 513e 9849 fc3d fee7 82bd
000002f0: 9384 dbbd fef7 1d3d f580 bebd 68e1 f6bd
00000300: 064f 9d3e faf8 e13e 1845 24be f504 56be
00000310: a7e5 273c f381 78bd 5dde ca3d 3b6e 943d
00000320: 7b69 a4be 1e9b 05be 1571 983e b208 0d3e
00000330: 300e 90bc 7346 5abe 427f 5dbe b026 a2be
00000340: d8ad 5bbe a935 f43d 712b d23e 3863 723e
00000350: a371 81be 1ce0 ddbd 5981 6cbc ced4 c93e
00000360: 571b db3c 2c89 8ebd 2ef1 743e 6d7c 22be
00000370: b329 45be 85fc 933e f8b6 00be d487 63bc
00000380: 47bb a4be 5e2a 9e3e 944f d33e a018 413e
00000390: e868 19be e211 71be 9947 65be 12a3 b43e
000003a0: d643 4d3e 09d0 be3e a1f8 2f3e fcde 7a3d
000003b0: db36 68bc 779c 94be 886a 8ebe f625 aebe
000003c0: 7234 143e d8bf 31be f0b8 91bd eb5a 50be
000003d0: a8f1 83bd c1d0 7ebe ce8f 6cbe 2c2f f03d
000003e0: 1a00 70bd 6392 b53e f4cc 12bd c3eb 93be
000003f0: 769f d03c a5b6 10be 2143 18bd 7c3d 73be

features_extractor.policy_net.0.bias f4 [32]
0.18051738 -0.19033629 0.17628986 0.16848129 0.24764445 -0.2170304 0.2761309 -0.0756125
0.12228266 0.3500797 -0.07102817 0.024115492 0.0130966585 -0.2952116 0.1590544 -0.35097876
0.21951082 0.36174804 0.33900565 0.0047771935 -0.213503 0.027018448 0.20438498 -0.3495627
-0.09961857 -0.21193951 0.032546595 -0.13334045 -0.04987599 -0.09703258 -0.33598322 0.35331854
00000000: 8cd9 383e 84e7 42be 5485 343e 5c86 2c3e
00000010: 8296 7d3e 383d 5ebe 0861 8d3e bada 9abd
00000020: 556f fa3d a53d b33e 3877 91bd da8d c53c
00000030: 5e93 563c fa25 97be 28df 223e 7db3 b3be
00000040: 72c7 603e 0a37 b93e 2692 ad3e 018a 9c3b
00000050: 88a0 5abe cb55 dd3c 4c4a 513e e2f9 b2be
00000060: d204 ccbd ac06 59be 944f 053d 668a 08be
00000070: c44a 4cbd 04b9 c6bd fe05 acbe 2be6 b43e

features_extractor.policy_net.2.weight f4 [64, 32]
0.10295194 0.016665515 -0.15158074 -0.13598962 -0.21184207 -0.13101864 -0.06725053 -0.08466977
-0.051627148 -0.16932102 -0.08300691 0.04903148 -0.18394224 -0.037496537 -0.028754141 -0.084641725
-0.12945963 0.30077282 -0.046315633 0.18727344 -0.21226972 0.022185488 0.2606597 0.0340665
-0.33241037 0.07016316 0.32523155 0.17629361 0.26089075 0.14418206 -0.027087316 -0.09208232
-0.16985764 -0.108631074 0.01671069 0.054065492 -0.17291631 -0.22395602 -0.24206902 -0.037501987
-0.04810003 -0.14204723 0.10299416 0.17792472 -0.31828606 -0.1418145 0.08467195 -0.1314938
-0.049672075 0.13765351 -0.094244055 0.024057839 0.024522651 -0.02830813 0.07425449 -0.22036462
-0.1407494 -0.094657145 0.2723485 -0.017300032 0.029936112 0.10936606 0.048721477 0.1993436
0.17690264 0.22070166 -0.09986617 0.03172664 0.16184838 0.12381511 -0.029911814 -0.0050965827
-0.14311977 -0.0801809 -0.14344662 -0.118811056 0.18478811 0.03913179 0.03900624 -0.13406523
-0.10411494 0.04124718 0.19760129 0.14708477 -0.24741293 -0.03934542 -0.2976556 -0.03933671
-0.10977003 0.096261725 0.12438508 -0.1711525 0.019957546 -0.23619905 0.06619708 -0.075750545
0.03251346 0.18890639 -0.07518736 -0.018108804 0.13648011 -0.01072457 0.047611106 -0.134727
0.077359445 0.141935 0.094967514 -0.18388699 -0.001453653 0.019120276 0.09195512 -0.081619896
-0.028716102 0.09862749 0.024358423 0.0015543855 -0.05511692 -0.1618501 -0.26087424 -0.048052333
-0.104145944 0.055075407 -0.0946051 -0.04185487 0.05061705 -0.03776975 0.1260245 -0.19640751
-0.08805964 -0.09896901 -0.14732966 -0.12996362 -0.037143353 -0.23319307 -0.16839348 0.25509483
0.18271644 0.049891382 -0.08036268 -0.068136394 -0.16072395 0.0450048 0.0660242 -0.022347674
-0.1315602 -0.0048492956 -0.19595921 -0.009154068 0.1172479 0.01438642 0.10094874 0.008338775
0.12791824 0.1285391 -0.029765004 0.084813364 0.2700121 0.061949275 -0.1289602 0.38240808
0.100038834 -0.28182536 -0.060721125 -0.17928194 -0.19368301 -0.13424152 0.0041587753 0.21810873
0.014474319 0.18463689 0.009639184 -0.0021816157 -0.06105117 0.042452082 0.053995296 -0.12499541
-0.012855838 -0.17781092 -0.19801414 -0.19046505 0.36029842 0.16778854 0.31502226 0.08576138
0.34129047 -0.02366151 -0.12585275 0.060721904 -0.03844145 0.0020021133 -0.056450814 0.30793384
0.11737839 -0.17898615 -0.018256908 0.060700353 -0.07916836 -0.22971004 0.1751063 0.05275511
0.13938826 0.30203786 0.047565687 0.0382102 0.13279241 0.0027684718 -0.04483795 0.0024296343
0.021488268 0.0017566839 -0.09018615 -0.24194093 0.16501239 -0.08333702 0.031260155 0.17919539
0.37291124 0.081162676 -0.2585342 -0.22923468 -0.095621325 0.07061917 0.01453948 0.070062004
0.0047553284 -0.2676429 -0.19694243 -0.17988546 0.090429865 -0.31833228 0.041318912 0.17173539
0.05607864 0.075341344 -0.043686233 0.24268751 0.01316251 -0.15347931 0.06427898 0.03337173
-0.032723777 -0.017827004 0.0038847325 -0.13816004 0.1235723 0.18918209 0.29538143 -0.042066142
-0.02412684 0.0077477247 -0.103590675 0.14445575 -0.008243411 0.106364615 -0.039234295 0.2682477
00000000: 77d8 d23d 1e86 883c fb37 1bbe dd40 0bbe
00000010: 21ed 58be c029 06be a5ba 89bd 5867 adbd
00000020: fd76 53bd 7d62 2dbe 87ff a9bd 3cd5 483d
00000030: 5b5b 3cbe f895 19bd ce8d ebbc a458 adbd
00000040: 1191 04be e5fe 993e 76b5 3dbd 9cc4 3f3e
00000050: 3c5d 59be 57be b53c 3075 853e 5089 0b3d
00000060: b131 aabe b4b1 8f3d c084 a63e 5086 343e
00000070: 7993 853e 76a4 133e 38e6 ddbc a895 bcbd
00000080: 29ef 2dbe f879 debd dbe4 883c c773 5d3d
00000090: f910 31be ba54 65be f1e0 77be af9b 19bd
000000a0: 8904 45bd d474 11be 9aee d23d e631 363e
000000b0: 64f6 a2be d237 11be 7d68 ad3d 50a6 06be
000000c0: f274 4bbd 0bf5 0c3e 0703 c1bd f214 c53c
000000d0: bae3 c83c 74e6 e7bc bd12 983d 43a7 61be
000000e0: 9c20 10be 9bdb c1bd 4371 8b3e ccb8 8dbc
000000f0: 943c f53c 50fb df3d 2c90 473d bb20 4c3e
00000100: f725 353e 9eff 613e a286 ccbd cbf3 013d
00000110: 95bb 253e c792 fd3d 9f09 f5bc 3c01 a7bb
00000120: fd8d 12be e235 a4bd ace3 12be 3653 f3bd
00000130: 1839 3d3e a848 203d 02c5 1f3d 6548 09be
00000140: 373a d5bd cef2 283d fe57 4a3e 649d 163e
00000150: d159 7dbe aa28 21bd 5166 98be 881f 21bd
00000160: 1ccf e0bd de24 c53d 9bbd fe3d 9a42 2fbe
00000170: 027e a33c 2ade 71be 5692 873d 1a23 9bbd
00000180: d52c 053d ad70 413e d5fb 99bd ea58 94bc
00000190: 71c1 0b3e 1bb6 2fbc dd03 433d e0f5 09be
000001a0: a16e 9e3d 6957 113e 547e c23d df4c 3cbe
000001b0: 8088 beba 20a2 9c3c f752 bc3d 5528 a7bd
000001c0: 083e ebbc 36fd c93d 518b c73c 86bc cb3a
000001d0: 48c2 61bd 08bc 25be 4f91 85be 86d2 44bd
000001e0: 784a d5bd c096 613d 52c0 c1bd 0370 2bbd
000001f0: d353 4f3d 74b4 1abd 910c 013e 0d1f 49be
00000200: 9d58 b4bd 44b0 cabd 96dd 16be 2f15 05be
00000210: a123 18bd 2aca 6ebe 576f 2cbe ca9b 823e
00000220: 051a 3b3e e85a 4c3d 3095 a4bd 188b 8bbd
00000230: d294 24be f456 383d b237 873d 7812 b7bc
00000240: b8b7 06be d7e6 9ebb 88a9 48be f2fa 15bc
00000250: ab1f f03d 05b5 6b3c 37be ce3d 5b9f 083c
00000260: 00fd 023e c19f 033e bdd5 f3bc a1b2 ad3d
00000270: 073f 8a3e 86be 7d3d 250e 04be feca c33e
00000280: 29e1 cc3d 6a4b 90be b7b6 78bd af95 37be
00000290: d754 46be 9c76 09be 5646 883b e557 5f3e
000002a0: b225 6d3c 7411 3d3e abed 1d3c 70f9 0ebb
000002b0: cb10 7abd 3ce2 2d3d 2c2a 5d3d 98fd ffbd
000002c0: 4ba1 52bc 1114 36be 38c4 4abe 4509 43be
000002d0: 0979 b83e c2d0 2b3e 994a a13e aaa3 af3d
000002e0: a0bd ae3e c8d5 c1bc 8bdf 00be 88b7 783d
000002f0: c874 1dbd e335 033b f838 67bd 81a9 9d3e
00000300: 1564 f03d 2548 37be 838f 95bc efa0 783d
00000310: 0523 a2bd 1c39 6bbe 114f 333e be15 583d
00000320: ccbb 0e3e b5a4 9a3e 3dd4 423d 4c82 1c3d
00000330: bcfa 073e 406f 353b 00a8 37bd 803a 1f3b
00000340: 2a08 b03c 8840 e63a 84b3 b8bd 5dbf 77be
00000350: 02f9 283e 99ac aabd a60a 003d ff7e 373e
00000360: 39ee be3e 9e38 a63d 985e 84be 7fbc 6abe
00000370: 1dd5 c3bd c9a0 903d 0037 6e3c ab7c 8f3d
00000380: 96d2 9b3b 7d08 89be 47ab 49be e533 38be
00000390: 4b33 b93d 73fc a2be 053e 293d 67db 2f3e
000003a0: b7b2 653d 904c 9a3d 56f0 32bd 1383 783e
000003b0: 91a7 573c ae29 1dbe b3a4 833d ccb0 083d
000003c0: 5e09 06bd f009 92bc ff96 7e3b d379 0dbe
000003d0: 7913 fd3d f3b8 413e 3c3c 973e 8c4d 2cbd
000003e0: a7a5 c5bc a0e0 fd3b 5927 d4bd 35ec 133e
000003f0: 5f0f 07bc b1d5 d93d 24b4 20bd c357 893e

features_extractor.policy_net.2.bias f4 [64]
0.045801543 -0.024206484 0.00339744 0.022731084 0.14495929 0.008044669 -0.11529779 -0.07985387
0.08259172 0.049893774 0.01505673 -0.010100856 -0.06740567 -0.059625715 -0.07781649 0.034877777
0.051377933 0.13852495 -0.04983561 0.007595073 0.11452689 0.09128337 0.023365328 0.052614808
0.021528598 -0.14430091 -0.0067615947 -0.04657068 0.14957078 0.1503217 0.026982615 0.16073878
-0.09843951 0.14237829 0.15850854 -0.009118395 -0.14389996 -0.048359692 -0.042886812 -0.0048864265
-0.15558027 0.03449856 -0.081123166 -0.030487962 -0.09537259 -0.035566155 -0.16870013 -0.090895064
0.021867193 0.109801136 0.16835362 -0.13389766 0.07209854 -0.10353777 -0.1276212 0.0012728547
-0.094280474 -0.1438957 -0.15318274 -0.10917783 0.1357481 0.09300614 -0.059204943 -0.09966412
00000000: 669a 3b3d ad4c c6bc 96a7 5e3b 8a36 ba3c
00000010: 3570 143e cacd 033c 3f21 ecbd 6d8a a3bd
00000020: d925 a93d 6a5d 4c3d 81b0 763c 107e 25bc
00000030: fc0b 8abd 183a 74bd 405e 9fbd 00dc 0e3d
00000040: ab71 523d 7cd9 0d3e 6d20 4cbd 17e0 f83b
00000050: 138d ea3d c7f2 ba3d a568 bf3c a082 573d
00000060: be5c b03c 9ec3 13be 5e90 ddbb e6c0 3ebd
00000070: 1529 193e efed 193e a50a dd3c b598 243e
00000080: a79a c9bd 9dcb 113e 1050 223e 5265 15bc
00000090: 835a 13be d014 46bd 15aa 2fbd 511e a0bb
000000a0: 6f50 1fbe 5d4e 0d3d e723 a6bd e4c1 f9bc
000000b0: b452 c3bd d1ad 11bd babf 2cbe 3127 babd
000000c0: d422 b33c 6bdf e03d e464 2c3e 781c 09be
000000d0: 66a8 933d 9c0b d4bd 22af 02be ebd5 a63a
000000e0: 1f16 c1bd 6559 13be f0db 1cbe a098 dfbd
000000f0: 8d01 0b3e 017a be3d e280 72bd b41c ccbd

features_extractor.value_net.0.weight f4 [32, 8]
-0.2510821 -0.018864278 -0.028702604 0.24806815 0.18015753 -0.04285658 0.21996532 -0.20238599
-0.31299344 0.039127905 -0.21365765 0.068931185 0.27169654 -0.19121009 -0.27789876 0.1042239
-0.38192943 0.25087088 -0.23405169 0.12571149 -0.3177266 -0.2867798 0.0016975738 0.07243182
0.3555828 0.14816642 0.057003975 0.080768965 0.12128054 -0.029258259 0.15803213 -0.15406401
-0.30230087 0.16374578 -0.26979622 0.24465367 -0.0020657068 0.029586568 0.28490868 -0.22590496
-0.091242656 0.34831634 0.19684523 -0.2791781 0.1880685 -0.07728483 0.012377554 0.2078239
-0.011315358 -0.13794374 0.06995622 0.38118732 0.24626054 0.10406122 -0.1157426 -0.08577617
0.35572314 0.059893854 0.12819228 -0.21289507 0.23923671 -0.051348895 0.363255 0.39534503
0.009410098 -0.17905287 0.30197385 -0.19113438 0.20582418 -0.38429654 -0.12035166 -0.33055496
-0.16460851 0.14300492 -0.25895163 -0.30950457 0.24558909 0.18148988 -0.008431064 -0.25308144
-0.093669176 -0.1144737 0.21835122 -0.11564256 -0.1018289 -0.25061956 -0.16651928 0.19143102
0.17781924 0.2524992 -0.12226329 0.31742492 0.0688578 -0.088349536 -0.21164164 -0.11842296
0.23091117 -0.030221304 0.26147023 0.053442203 0.2837451 -0.13470013 -0.07324287 -0.041143104
-0.3317066 -0.2320866 -0.31992155 -0.02089417 0.0033330917 -0.09176198 -0.24161258 0.32077494
-0.1702666 0.38316685 0.272019 -0.2478963 -0.029684937 0.25360194 0.24697764 -0.11067884
0.3568952 -0.5999459 -0.30559272 0.34166873 -0.0800775 0.26836368 0.10846871 -0.06600217
0.40705135 0.6020395 -0.005074134 -0.14578278 0.0500077 -0.08966468 0.23127554 -0.044944305
0.02180672 0.503315 0.12612641 -0.20666377 0.29389206 0.29629618 -0.3000391 0.17035885
0.19334176 -0.12091161 -0.11474634 0.033266272 -0.2547526 0.2684303 0.36275744 0.04951609
0.27621913 -0.09138808 0.057618823 -0.2694561 -0.031973157 0.124135785 0.10123762 -0.025509642
-0.21429665 0.47685793 0.1959815 0.020055413 -0.17135137 0.11514288 -0.11290077 0.20679459
-0.034079175 0.024955869 0.008598682 0.16973099 -0.01974383 0.27561647 0.15719078 -0.29060483
0.079604894 -0.5142039 -0.17632432 0.11500507 0.12533128 -0.02984763 0.49041802 -0.032986198
-0.14816917 -0.05662003 0.0021436214 -0.029946804 0.3183355 -0.14932199 -0.18493493 0.030387908
0.3328703 -0.1622615 0.17760259 0.06505259 0.27968037 0.13675833 0.33680516 0.025631234
-0.31543034 -0.19030496 0.09609372 0.21995886 -0.15962768 0.26790747 0.028604629 -0.018773934
-0.0051465956 -0.09824189 0.2610696 -0.032741748 0.15531774 -0.34477782 -0.24702798 -0.017418733
0.3595064 0.07873492 0.107871935 -0.20472533 0.030218104 -0.16706066 -0.18033972 0.18483713
-0.2694602 0.25172564 -0.25452355 0.084429726 0.1494618 -0.32241082 0.12908441 -0.08780092
0.23396249 0.16180699 -0.17642525 -0.13476488 0.27270976 -0.0030772346 0.04691941 0.32651064
-0.17081721 -0.017457098 0.2428473 0.13817254 -0.22868356 0.09189439 -0.2695621 -0.19200544
0.20772435 -0.114512704 -0.19545422 0.005940219 0.0682494 -0.23611449 -0.25865033 -0.36106157
00000000: d58d 80be 4289 9abc b921 ebbc 9405 7e3e
00000010: 377b 383e 628a 2fbd 973e 613e 463e 4fbe
00000020: ad40 a0be 9544 203d 12c9 5abe cb2b 8d3d
00000030: cf1b 8b3e 94cc 43be bf48 8ebe 5773 d53d
00000040: 418c c3be 2672 803e 3fab 6fbe 83ba 003e
00000050: 10ad a2be cdd4 92be 2081 de3a 2257 943d
00000060: f30e b63e f0b8 173e 007d 693d 336a a53d
00000070: ef61 f83d 04af efbc 2dd3 213e f5c2 1dbe
00000080: 2ec7 9abe f9ac 273e bb22 8abe 7e86 7a3e
00000090: cf60 07bb 885f f23c 8ddf 913e a153 67be
000000a0: 6edd babd 8556 b23e cc91 493e 6ff0 8ebe
000000b0: 0795 403e 8247 9ebd 39cb 4a3c cacf 543e
000000c0: 0d64 39bc 2041 0dbe 3545 8f3d fc2a c33e
000000d0: b92b 7c3e 0d1e d53d 750a edbd 6bab afbd
000000e0: 5821 b63e 4253 753d d644 033e 2a01 5abe
000000f0: 78fa 743e 3853 52bd 8ffc b93e aa6a ca3e
00000100: d02c 1a3c a359 37be 519c 9a3e bbb8 43be
00000110: 93c3 523e 84c2 c4be ee7a f6bd 803e a9be
00000120: 228f 28be e26f 123e 4f95 84be 6277 9ebe
00000130: b57b 7b3e 7cd8 393e 7222 0abc e493 81be
00000140: a0d5 bfbd 3071 eabd 7697 5f3e 02d6 ecbd
00000150: ac8b d0bd 3551 80be 0884 2abe 7e06 443e
00000160: 3f16 363e 9347 813e 2d65 fabd 8585 a23e
00000170: 5105 8d3d 9af0 b4bd 96b8 58be bd87 f2bd
00000180: fa73 6c3e ab92 f7bc 6ddf 853e 36e6 5a3d
00000190: 0a47 913e d5ee 09be 5c00 96bd ac85 28bd
000001a0: 73d5 a9be 1ca8 6dbe c2cc a3be 402a abbc
000001b0: 0070 5a3b b4ed bbbd 4a69 77be 9d3c a43e
000001c0: 5e5a 2ebe 722e c43e 1346 8b3e 87d8 7dbe
000001d0: d32d f3bc 1dd8 813e b5e7 7c3e 96ab e2bd
000001e0: f8ba b63e 0e96 19bf a676 9cbe 34ef ae3e
000001f0: acff a3bd f766 893e d824 de3d 252c 87bd
00000200: 0969 d03e 431f 1a3f ec44 a6bb 1548 15be
00000210: e0d4 4c3d 1ea2 b7bd 7fd3 6c3e 8517 38bd
00000220: 02a4 b23c 40d9 003f 4827 013e ab9f 53be
00000230: 0579 963e 22b4 973e ba9e 99be 8d72 2e3e
00000240: 62fb 453e 82a0 f7bd 2100 ebbd 3742 083d
00000250: ef6e 82be b26f 893e 58bb b93e 62d1 4a3d
00000260: 986c 8d3e ac29 bbbd b701 6c3d 26f6 89be
00000270: 49f6 02bd e73a fe3d ab55 cf3d 99f9 d0bc
00000280: 9570 5bbe b926 f43e 60af 483e 404b a43c
00000290: bc76 2fbe 08d0 eb3d 8538 e7bd f6c1 533e
000002a0: 9b96 0bbd 4070 cc3c 7ce1 0c3c f6cd 2d3e
000002b0: d0bd a1bc 9a1d 8d3e 9ff6 203e 28ca 94be
000002c0: e407 a33d dea2 03bf 5d8e 34be c787 eb3d
000002d0: d856 003e 0483 f4bc 1218 fb3e 891c 07bd
000002e0: a9b9 17be 68ea 67bd 007c 0c3b 0053 f5bc
000002f0: dffc a23e dde7 18be 955f 3dbe 10f0 f83c
00000300: fa6d aa3e e127 26be 74dd 353e 4b3a 853d
00000310: 4432 8f3e 600a 0c3e ba71 ac3e 98f8 d13c
00000320: 1680 a1be 4edf 42be c9cc c43d e53c 613e
00000330: 7075 23be 2b2b 893e 4154 ea3c cbcb 99bc
00000340: c6a4 a8bb 0b33 c9bd eaaa 853e 361c 06bd
00000350: 9d0b 1f3e b886 b0be e7f4 7cbe bbb1 8ebc
00000360: 3911 b83e c63f a13d f6eb dc3d 84a3 51be
00000370: f58b f73c f311 2bbe faaa 38be f245 3d3e
00000380: b0f6 89be 2fe2 803e e950 82be 7ee9 ac3d
00000390: 840c 193e 0813 a5be b42e 043e f8d0 b3bd
000003a0: dd93 6f3e bbb0 253e d2a8 34be ceff 09be
000003b0: 9da0 8b3e 6eab 49bb 912e 403d 672c a73e
000003c0: b5ea 2ebe 3002 8fbc f6ac 783e 1a7d 0d3e
000003d0: 062c 6abe 2033 bc3d 0b04 8abe 139d 44be
000003e0: b1b5 543e a385 eabd 2725 48be 2ba6 c23b
000003f0: 57c6 8b3d ffc7 71be d16d 84be 10dd b8be

features_extractor.value_net.0.bias f4 [32]
0.18546513 -0.25757894 -0.02456062 0.019833976 -0.2925006 -0.012279115 -0.20745781 -0.19110869
-0.047005802 -0.3096101 -0.3100781 0.25649402 0.053589217 -0.15636034 0.0058077252 0.13990104
-0.27443686 -0.14417909 -0.17569654 -0.04045034 -0.044856697 -0.30477446 0.33788255 -0.27150065
0.3328712 -0.26846966 -0.120870486 0.09625328 -0.21524161 0.3179122 -0.24375182 -0.03832834
00000000: 92ea 3d3e 63e1 83be 5a33 c9bc dd7a a23c
00000010: a3c2 95be 572e 49bc d26f 54be ffb1 43be
00000020: 2889 40bd 3785 9ebe 8fc2 9ebe 2f53 833e
00000030: 5e80 5b3d ed1c 20be bb4e be3b 3842 0f3e
00000040: fd82 8cbe afa3 13be cbe9 33be 41af 25bd
00000050: a8bb 37bd 660b 9cbe f1fe ac3e 2202 8bbe
00000060: 186e aa3e db74 89be f28a f7bd 7120 c53d
00000070: 4c68 5cbe 63c5 a23e 149a 79be 2dfe 1cbd

features_extractor.value_net.2.weight f4 [1, 32]
-0.13500287 0.017920924 0.12772542 0.16117728 0.016038435 -0.21725422 0.24120046 0.053084664
0.065299354 -0.0900777 -0.08204088 -0.1859911 0.14160116 0.029324472 -0.244073 0.18720554
-0.36719596 -0.1289843 0.13954206 0.0013293216 -0.105111934 -0.07645014 0.20680061 -0.17068432
0.06478748 0.15855426 0.12458934 0.05051915 0.1042292 0.12700854 0.050093085 0.039176375
00000000: 313e 0abe e7ce 923c 74ca 023e a80b 253e
00000010: 0963 833c e477 5ebe 41fd 763e 4e6f 593d
00000020: abbb 853d a87a b8bd 0d05 a8bd 7374 3ebe
00000030: e5ff 103e e039 f03c 46ee 79be cfb2 3f3e
00000040: 1c01 bcbe 7614 04be 1de4 0e3e a23c ae3a
00000050: ed44 d7bd e491 9cbd 8ac3 533e dfc7 2ebe
00000060: 4caf 843d 0c5c 223e b228 ff3d 2bed 4e3d
00000070: 1e76 d53d 870e 023e 682e 4d3d 6877 203d

action_net.weight f4 [2, 64]
0.39583784 0.17237723 -0.011659263 -0.054296937 0.011250823 -0.15464345 -0.35758254 0.0008166855
-0.148098 0.21149638 0.113255 -0.1173676 0.27906328 0.28486994 -0.24092051 0.2530229
0.39682892 0.3709278 0.051405452 0.11610966 -0.21938321 0.19245104 0.28142375 0.2681334
0.10769925 -0.21569586 0.09658761 -0.050275072 0.27629614 0.22140738 0.14430103 0.42554
0.066282526 0.089990675 -0.095802136 0.27327642 0.11666134 0.20975086 -0.054892525 0.2181881
0.16839069 -0.10118703 0.22937612 -0.07993301 -0.34759992 -0.06922032 0.043064438 -0.1495419
-0.04926854 -0.13516043 0.10479507 -0.37539873 0.13281308 0.066453226 -0.16738224 -0.10071209
0.20908225 -0.17880076 -0.32528704 -0.28847092 -0.050959066 0.256833 -0.24111964 0.00010447267
0.025366198 -0.13658467 0.28727803 0.21186237 -0.37155277 -0.45100895 -0.278578 -0.30017853
-0.07429359 -0.026193367 0.3894029 0.20055424 0.12295872 0.21626252 0.18123484 0.20395568
0.25437722 0.27789906 -0.3203755 0.047638543 -0.28338084 0.1833254 -0.078821085 0.27832025
0.19178717 0.007666412 -0.41872153 -0.28388345 -0.05900287 -0.060399126 -0.2191046 0.28617212
-0.18125327 -0.29075682 0.17601861 -0.020459658 -0.114045426 0.22055475 0.14183356 -0.09863572
0.059582148 0.047578465 -0.16234791 0.27856776 -0.3159745 0.06871135 -0.1304698 -0.14898743
0.18263884 -0.2828021 0.28741437 -0.011521175 -0.26949129 -0.2493707 0.09680813 0.29215407
0.042856112 0.26718047 0.2650286 0.11790952 -0.18677261 0.12322128 0.23507462 0.35146618
00000000: 42ab ca3e a883 303e 7e06 3fbc 7766 5ebd
00000010: 5f55 383c da5a 1ebe 0f15 b7be d616 563a
00000020: 01a7 17be 8292 583e 3df2 e73d 6d5e f0bd
00000030: 62e1 8e3e 79da 913e deb3 76be 388c 813e
00000040: 292d cb3e 40ea bd3e 868e 523d e7ca ed3d
00000050: fea5 60be e311 453e c616 903e c848 893e
00000060: 6d91 dc3d 60df 5cbe bacf c53d 3ced 4dbd
00000070: b076 8d3e 9eb8 623e a6c3 133e 61e0 d93e
00000080: 22bf 873d 084d b83d e933 c4bd e3ea 8b3e
00000090: 24ec ee3d eec8 563e fcd6 60bd b46c 5f3e
000000a0: 9c6e 2c3e 253b cfbd 93e1 6a3e ebb3 a3bd
000000b0: 9ef8 b1be 62c3 8dbd 5664 303d 8321 19be
000000c0: cfcd 49bd 7f67 0abe cc9e d63d 4334 c0be
000000d0: 2700 083e a118 883d 4066 2bbe 2442 cebd
000000e0: a819 563e 8c17 37be 068c a6be 76b2 93be
000000f0: 74ba 50bd 9d7f 833e 11e8 76be 5618 db38
00000100: c6cc cf3c dadc 0bbe 1b16 933e 73f2 583e
00000110: 2a3c bebe a5ea e6be c7a1 8ebe 00b1 99be
00000120: 3d27 98bd 7993 d6bc d15f c73e 175e 4d3e
00000130: c8d1 fb3d ec73 5d3e a095 393e c2d9 503e
00000140: bb3d 823e c948 8e3e 4208 a4be a220 433d
00000150: 4b17 91be a7b9 3b3e f36c a1bd fe7f 8e3e
00000160: db63 443e 8636 fb3b ab62 d6be 2c59 91be
00000170: feac 71bd 1365 77bd f55c 60be 2785 923e
00000180: 759a 39be 14de 94be 393e 343e 039b a7bc
00000190: a690 e9bd 1bd9 613e d13c 113e 8601 cabd
000001a0: 690c 743d a3e1 423d 883e 26be 6fa0 8e3e
000001b0: 69c7 a1be 89b8 8c3d e099 05be 2990 18be
000001c0: ad05 3b3e 70cb 90be fa27 933e 4fc3 3cbc
000001d0: c3fa 89be 085b 7fbe 5743 c63d 3895 953e
000001e0: e489 2f3d e1cb 883e d4b1 873e 8c7a f13d
000001f0: 5241 3fbe 705b fc3d 67b7 703e 60f3 b33e

action_net.bias f4 [2]
0.0854304 -0.100525744
00000000: 22f6 ae3d 71e0 cdbd
