weights/reward-predictor-mlp-ns-1-e-100-nt-100-rew-h.pt (torch, 24122 bytes, 6 tensors)

mlp.0.weight f4 [32, 64]
0.14022012 0.01098999 0.055317584 0.25512457 -0.19687039 0.25737345 0.08461333 -0.0057190224
-0.33665097 -0.090896115 0.40953106 0.09527809 0.31978786 -0.089875385 -0.043686133 -0.22936544
0.06418052 0.33018908 -0.13911518 -0.13512501 -0.014674387 0.39193338 -0.112558484 -0.08980099
0.04375654 -0.0066185505 -0.10835635 0.18228495 -0.072655044 -0.17959894 0.050896723 -0.20267498
0.057212766 0.3844709 0.030554142 0.23890562 -0.15384565 -0.0726869 -0.21767394 -0.057820212
0.24101809 -0.05279126 0.09969771 -0.06725749 0.35768315 -0.20195131 0.54666185 0.13384904
0.062028814 0.24884307 0.10221987 -0.08270915 -0.055426218 -0.24251607 -0.09878576 -0.126435
-0.009138794 0.34981412 -0.06523886 0.0792853 -0.18704072 -0.06221986 -0.06174619 0.09114646
-0.16190441 0.28024253 0.04363587 -0.13535893 -0.1265424 -0.1640039 0.016703637 0.25895807
-0.09862103 0.22084832 0.11406456 -0.272676 -0.12789835 -0.0142944185 -0.10810031 -0.020231681
0.026599867 0.024915768 -0.21116643 -0.08387217 -0.30652204 -0.122852094 -0.12425331 -0.09950849
0.048367403 0.25119516 0.22019336 -0.4976557 0.0067257346 0.06571549 0.03473819 -0.10171615
0.16908251 -0.19743907 0.19982615 -0.3038035 0.28910086 0.21031117 0.11913419 0.14114158
0.16428503 -0.09502471 -0.0973128 -0.23462562 0.11913718 0.31681678 0.13801877 -0.052951276
0.20751843 0.07128611 0.097627826 0.05259445 -0.02885566 0.22492453 -0.12889536 0.18292727
0.047551405 0.32207093 -0.15653802 0.16241361 0.2429469 -0.0024036856 -0.24405332 0.13951604
0.048390362 -0.20747736 -0.14252187 0.083912954 -0.07893735 0.08475969 -0.05775351 -0.32998085
0.15954235 -0.15487361 -0.11355847 0.29386255 -0.04523458 -0.12046039 -0.30125707 0.033211783
-0.05200493 0.07713159 0.14279965 -0.06378701 0.12860651 0.0535561 -0.1578863 0.074271716
-0.103453144 -0.2642034 -0.06022018 0.11902999 0.07889882 0.13780499 0.16722207 -0.027800048
-0.236153 -0.040440112 -0.055092912 0.040818684 -0.016975647 -0.015062673 0.2507384 -0.28722125
-0.09532789 -0.18715659 0.31793374 0.18963318 -0.20661204 0.0024760158 0.18893188 0.61009735
0.01652617 0.32328174 0.22093797 -0.22131047 0.24604398 -0.1685508 -0.19326161 -0.11886288
-0.052486785 0.09788935 -0.26565853 0.104173794 -0.031691276 -0.065143935 -0.19888794 -0.0050317175
0.043852735 0.061078094 0.0117489835 0.20464392 -0.0076329326 0.18392146 0.051842045 0.19402313
0.11158906 -0.07086593 -0.019786704 0.060501765 0.023672882 -0.2635783 0.25435632 0.0020764973
-0.15428744 -0.09487495 -0.061193824 0.110230826 0.06542625 0.19570827 -0.33658817 -0.29189858
0.01148812 0.2918111 -0.15175733 0.18142644 -0.32444206 -0.2191569 0.085555024 -0.17943963
-0.2409048 -0.07049035 -0.33406615 -0.23975247 -0.1433507 0.06119115 0.20996459 -0.038919087
-0.07479036 0.12944968 0.12723559 0.010368139 0.1304499 0.12777148 0.035442177 0.07989824
0.12291673 -0.2773023 -0.0022109519 0.357513 -0.109969415 -0.031602133 -0.36169696 0.03901878
-0.14047544 0.017379867 -0.076001 -0.08138663 -0.017998938 -0.02460498 0.0010515694 0.25197783
00000000: dd95 0f3e 5c0f 343c b194 623d b09f 823e
00000010: 6498 49be 74c6 833e c149 ad3d a366 bbbb
00000020: 845d acbe be27 babd 0eae d13e 2921 c33d
00000030: 3cbb a33e 9610 b8bd 3bf0 32bd c6de 6abe
00000040: 1471 833d 8b0e a93e 3674 0ebe 365e 0abe
00000050: d76c 70bc 7eab c83e 1085 e6bd 95e9 b7bd
00000060: 0f3a 333d 6de0 d8bb efe9 ddbd e8a8 3a3e
00000070: 2bcc 94bd c9e8 37be 1579 503d 088a 4fbe
00000080: ef57 6a3d 5fd9 c43e ae4c fa3c ada3 743e
00000090: b789 1dbe dfdc 94bd ebe5 5ebe e3d4 6cbd
000000a0: 72cd 763e a63b 58bd 502e cc3d 4bbe 89bd
000000b0: 3f22 b73e 53cc 4ebe 08f2 0b3f b90f 093e
000000c0: ed11 7e3d b8d0 7e3e a758 d13d 6a63 a9bd
000000d0: 9a06 63bd 2256 78be 3050 cabd 2d78 01be
000000e0: e1ba 15bc d61a b33e f49b 85bd 5560 a23d
000000f0: 9a87 3fbe 40da 7ebd 93e9 7cbd ffaa ba3d
00000100: 45ca 25be f37b 8f3e 87bb 323d 889b 0abe
00000110: 5594 01be a3f0 27be 11d6 883c 2796 843e
00000120: d3f9 c9bd 1026 623e ae9a e93d 309c 8bbe
00000130: c9f7 02be 2333 6abc b263 ddbd e9bc a5bc
00000140: f7e7 d93c 271c cc3c 033c 58be 2cc5 abbd
00000150: 75f0 9cbe e199 fbbd 8578 febd 1bcb cbbd
00000160: e61c 463d a79c 803e 5e7a 613e bacc febe
00000170: 8d63 dc3b d895 863d a249 0e3d 8f50 d0bd
00000180: f723 2d3e 782d 4abe 3a9f 4c3e 228c 9bbe
00000190: 0705 943e d05b 573e a0fc f33d 6b87 103e
000001a0: 563a 283e 519c c2bd ef4b c7bd b341 70be
000001b0: 32fe f33d cf35 a23e cb54 0d3e 70e3 58bd
000001c0: b67f 543e 74fe 913d 19f1 c73d 476d 573d
000001d0: b562 ecbc 9e52 663e 25fd 03be 4951 3b3e
000001e0: 43c5 423d 7be6 a43e 814b 20be c14f 263e
000001f0: 12c7 783e 2787 1dbb 1de9 79be 4bdd 0e3e
00000200: f934 463d f274 54be 41f1 11be 8eda ab3d
00000210: e8a9 a1bd 7d96 ad3d f28e 6cbd 40f3 a8be
00000220: 125f 233e 3097 1ebe 5891 e8bd 2775 963e
00000230: e547 39bd f0b3 f6bd 5e3e 9abe 1409 083d
00000240: 1f03 55bd 2bf7 9d3d 123a 123e c4a2 82bd
00000250: 6db1 033e a45d 5b3d f2ac 21be c51b 983d
00000260: 3edf d3bd ab45 87be 6fa9 76bd ffc5 f33d
00000270: b495 a13d c01c 0d3e 433c 2b3e edbc e3bc
00000280: 18d2 71be 88a4 25bd 1ba9 61bd 7e31 273d
00000290: 8310 8bbc 6ec9 76bc c960 803e aa0e 93be
000002a0: 453b c3bd faa5 3fbe 36c8 a23e 332f 423e
000002b0: 1b92 53be a744 223b 5c77 413e 572f 1c3f
000002c0: e461 873c 2f85 a53e 903d 623e 369f 62be
000002d0: f4f2 7b3e 9598 2cbe 5fe6 45be 626e f3bd
000002e0: 62fc 56bd 367a c83d 6504 88be 1259 d53d
000002f0: b6ce 01bd 2f6a 85bd 48a9 4bbe 1be1 a4bb
00000300: ed9e 333d 062d 7a3d cf7e 403c 2d8e 513e
00000310: ae1d fabb e855 3c3e 5358 543d 00ae 463e
00000320: ce88 e43d 2822 91bd ba17 a2bc b3d0 773d
00000330: a2ed c13c bcf3 86be fe3a 823e d815 083b
00000340: 87fd 1dbe cc4d c2bd 60a6 7abd b3c0 e13d
00000350: 33fe 853d c067 483e 4955 acbe bb73 95be
00000360: ab38 3c3c 4468 953e 4666 1bbe dac7 393e
00000370: 451d a6be ab6a 60be 7937 af3d 06bf 37be
00000380: bfaf 76be 3f5d 90bd b80a abbe ac81 75be
00000390: 87ca 12be 92a3 7a3d f500 573e 9f69 1fbd
000003a0: b02b 99bd 758e 043e 0c4a 023e 20df 293c
000003b0: a994 053e 87d6 023e d12b 113d b0a1 a33d
000003c0: c4bb fb3d 91fa 8dbe 9ee5 10bb f20b b73e
000003d0: a537 e1bd 3d71 01bd 5830 b9be 28d2 1f3d
000003e0: cbd8 0fbe 3960 8e3c 6aa6 9bbd 09ae a6bd
000003f0: 8272 93bc 6290 c9bc d0d4 893a 3d03 813e

mlp.0.bias f4 [32]
-0.012756389 -0.018524472 -0.027902102 -0.000113877024 -0.013763599 -0.053080786 -0.012995862 -0.041651074
-0.032368507 -0.025097936 -0.013335922 -0.026400395 -0.03392421 -0.009495749 -0.008821317 -0.034654874
0.010420136 -0.052621424 -0.040450018 -0.025097357 -0.051255733 -0.015310139 -9.996452e-05 -0.023870576
-0.0055565196 -0.025378412 -0.020478027 -0.0044483566 -0.009067846 0.0088341655 -0.008852929 -0.0003311536
00000000: 2c00 51bc a2c0 97bc f392 e4bc 43d1 eeb8
00000010: b880 61bc 3d6b 59bd 99ec 54bc 519a 2abd
00000020: d794 04bd 309a cdbc e97e 5abc a445 d8bc
00000030: 1df4 0abd 0f94 1bbc 4987 10bc 45f2 0dbd
00000040: 38b9 2a3c 9089 57bd ebae 25bd f998 cdbc
00000050: 88f1 51bd 61d7 7abc 0ba4 d1b8 3a8c c3bc
00000060: 7713 b6bb 63e6 cfbc 89c1 a7bc 85c3 91bb
00000070: 4e91 14bc 2dbd 103c e00b 11bc af9e adb9

mlp.2.weight f4 [32, 32]
-0.17170648 0.11449265 0.21580064 -0.06933288 0.1687606 0.007543433 -0.07557965 0.2172711
0.03733418 0.16069339 -0.08122815 -0.12420197 -0.17935923 -0.14053227 -0.1471851 -0.18856713
-0.20905417 0.35713014 0.40685925 -0.25695574 0.23620702 -0.113117404 -0.046919294 0.17814158
-0.25066862 -0.16317457 -0.099821195 -0.2434064 -0.035857596 0.29899624 0.0073559335 0.0012252185
0.16488788 0.13765265 0.5390455 0.099735714 -0.26813528 0.173728 -0.13864073 0.28951678
0.17375702 0.29475448 0.36638373 -0.5707336 -0.060301308 0.27999812 0.18994321 0.43531287
-0.062282335 0.33650672 0.24052507 0.41485825 0.35310504 0.22409616 -0.39040855 0.23973309
-0.13536945 -0.054989398 0.22691223 -0.41239926 -0.09859989 0.6497957 0.13833524 -0.4946709
0.02574094 0.053386647 -0.3149674 0.11750548 0.12824224 0.25166973 -0.036416043 -0.114231504
0.04238107 -0.09325788 -0.16368914 0.38405663 0.17493047 -0.23943019 -0.20367311 0.14870201
0.098285355 -0.36862984 -0.37628108 -0.0037674278 -0.019186892 -0.12517259 0.19944146 0.10148127
-0.24047327 0.28697112 0.157522 0.1107457 -0.18929835 -0.111901425 0.12178734 -0.24983457
-0.12683749 0.28832895 0.15809143 -0.4088766 0.23458056 -0.036215443 -0.36016485 0.7802026
0.4085467 0.3415704 0.08520361 0.083493695 -0.07300789 0.10156575 -0.08667248 0.12748487
0.40272936 -0.66261953 -0.4372577 0.04093905 0.04544108 0.13992769 -0.10746094 0.31175104
0.21522872 0.03530866 -0.22774419 -0.031039344 0.46131754 -0.15684958 0.15855736 -0.06670599
-0.09353174 -0.3938365 0.15042268 0.014425336 0.2887214 0.108256474 0.17107868 -0.34881866
0.05353006 -0.18038392 0.60571617 0.13093777 0.17595801 0.02476791 -0.40407622 0.035994448
-0.041716058 -0.23908432 0.12514898 0.09734641 0.40910727 -0.07662951 0.101242855 -0.061676443
-0.14775923 -0.18726793 -0.0064168363 0.35954332 0.58150655 0.84843504 0.3268581 -0.5875406
0.05027982 -0.4002385 0.33011636 -0.6590403 0.44804367 -0.3870892 0.22868998 -0.116592415
0.058077633 0.02791534 -0.24183767 0.01608413 0.05165341 -0.41204134 0.29305583 0.087813005
0.106248744 -0.021115843 -0.07526876 -0.18905081 0.059386812 -0.09554217 0.24293698 -0.23029622
-0.048401643 -0.25436103 0.37145254 0.87491924 0.21629049 -0.112365894 0.253944 0.2623431
-0.18269333 -0.12114599 0.13918856 -0.52131116 0.58857465 -0.10305144 -0.03062622 0.114223905
0.10009244 0.06286869 -0.02741165 -0.29908118 0.30395484 0.010783445 -0.0029845298 0.12337002
-0.2765242 -0.45777363 0.13309586 0.16798839 0.3133446 0.14693291 0.22732186 0.12678267
-0.14573708 0.32085836 0.26199007 0.10915842 -0.26526257 -0.48387203 -0.23080437 -0.0029467929
0.01906038 0.5663364 0.105906084 -0.1224931 0.026580391 0.33298975 0.19928835 0.38065344
0.26653814 -0.49048722 0.14755045 -0.028714987 -0.049827028 -0.07882357 0.5989652 -0.30290666
-0.41711617 0.60694927 0.53652024 -0.3097495 0.09480563 -0.1215441 0.3171976 -0.058867905
-0.2639643 0.06515319 0.026336726 -0.089725316 -0.18384402 0.036454294 -0.18780485 0.51840687
00000000: d3d3 2fbe 1f7b ea3d d8fa 5c3e 66fe 8dbd
00000010: 94cf 2c3e e72e f73b 81c9 9abd 517c 5e3e
00000020: baeb 183d cf8c 243e f25a a6bd 9a5d febd
00000030: f2a9 37be b1e7 0fbe b1b7 16be be17 41be
00000040: 4c12 56be c3d9 b63e db4f d03e b48f 83be
00000050: 41e0 713e 19aa e7bd 722e 40bd bf6a 363e
00000060: a357 80be 3c17 27be 0e6f ccbd 873f 79be
00000070: 6adf 12bd 0916 993e 0b0a f13b 8397 a03a
00000080: 5ed8 283e d1f4 0c3e e3fe 093f 3d42 cc3d
00000090: 0749 89be c1e5 313e d6f7 0dbe 8b3b 943e
000000a0: 5ced 313e 0fea 963e a696 bb3e 991b 12bf
000000b0: 81fe 76bd ea5b 8f3e 7980 423e 54e1 de3e
000000c0: c31b 7fbd 9c4a ac3e 344c 763e 4d68 d43e
000000d0: 2fca b43e 7779 653e a1e3 c7be 977c 753e
000000e0: 4a9e 0abe 903c 61bd ae5b 683e ff25 d3be
000000f0: bdee c9bd 0359 263f c1a7 0d3e 8145 fdbe
00000100: aade d23c f5ab 5a3d 6843 a1be b7a6 f03d
00000110: ef51 033e dbda 803e fd28 15bd 35f2 e9bd
00000120: c697 2d3d fdfd bebd 209e 27be 12a3 c43e
00000130: f920 333e 302d 75be af8f 50be 5745 183e
00000140: d549 c93d 0dbd bcbe eaa7 c0be f3e6 76bb
00000150: d42d 9dbc 3e2d 00be 623a 4c3e 69d5 cf3d
00000160: a03e 76be e1ed 923e 724d 213e a4ce e23d
00000170: 6dd7 41be 932c e5bd a46b f93d a2d4 7fbe
00000180: b0e1 01be da9f 933e b8e2 213e 4658 d1be
00000190: e335 703e a556 14bd 8767 b8be 5cbb 473f
000001a0: 082d d13e 51e2 ae3e 3b7f ae3d befe aa3d
000001b0: 2985 95bd b401 d03d 5781 b1bd 658b 023e
000001c0: 8b32 ce3e 6fa1 29bf 3ee0 dfbe b5af 273d
000001d0: 6d20 3a3d 3449 0f3e 7b14 dcbd d59d 9f3e
000001e0: eb64 5c3e d09f 103d c635 69be 3946 febc
000001f0: d031 ec3e 2d9d 20be dc5c 223e 269d 88bd
00000200: 928d bfbd f0a4 c9be 6708 1a3e 3f58 6c3c
00000210: 4bd3 933e 92b5 dd3d 402f 2f3e 5c98 b2be
00000220: 5642 5b3d 90b6 38be 3710 1b3f 8d14 063e
00000230: 562e 343e 12e6 ca3c 14e3 cebe ea6e 133d
00000240: 75de 2abd 85d2 74be 0e27 003e 8e5d c73d
00000250: 8276 d13e efef 9cbd 6a58 cf3d 70a0 7cbd
00000260: 324e 17be 2ac3 3fbe 5344 d2bb 1016 b83e
00000270: 9ddd 143f 0a33 593f f259 a73e 1069 16bf
00000280: 36f2 4d3d 10ec ccbe 0305 a93e ddb6 28bf
00000290: fb65 e53e 8e30 c6be b52d 6a3e 01c8 eebd
000002a0: d0e2 6d3d b6ae e43c 4ba4 77be dec2 833c
000002b0: 8792 533d 15f7 d2be 6a0b 963e 4ed7 b33d
000002c0: f198 d93d 22fb acbc 8226 9abd 8996 41be
000002d0: 963f 733d 9dab c3bd 79c4 783e c6d2 6bbe
000002e0: cd40 46bd 9c3b 82be 072f be3e b5fa 5f3f
000002f0: 417b 5d3e 1720 e6bd f304 823e d651 863e
00000300: f613 3bbe 641b f8bd 7287 0e3e a674 05bf
00000310: d4ac 163f a20c d3bd d7e3 fabc 39ee e93d
00000320: 44fd cc3d 4dc1 803d 668e e0bc 2b21 99be
00000330: f89f 9b3e 0cad 303c 1a98 43bb 6ca9 fc3d
00000340: 9494 8dbe 4e61 eabe 484a 083e 2605 2c3e
00000350: b46e a03e 9575 163e 10c7 683e 51d3 013e
00000360: 1a3c 15be 8c47 a43e 9023 863e 738e df3d
00000370: 7fd0 87be 13be f7be fb57 6cbe fb1e 41bb
00000380: 8424 9c3c 6cfb 103f 4ae5 d83d aadd fabd
00000390: 1fbf d93c a27d aa3e 3f12 4c3e 02e5 c23e
000003a0: b077 883e 2421 fbbe 7717 173e b13b ebbc
000003b0: 6d17 4cbd 406e a1bd c955 193f 9516 9bbe
000003c0: 4090 d5be 0761 1b3f 6459 093f 7d97 9ebe
000003d0: 7429 c23d 1dec f8bd b967 a23e 791f 71bd
000003e0: 5426 87be 096f 853d 1ec0 d73c e8c1 b7bd
000003f0: 9b41 3cbe 1951 153d ea4f 40be 50b6 043f

mlp.2.bias f4 [32]
-0.023157299 -0.028013151 -0.032728534 -0.03294841 -0.0061989394 -0.017009683 -0.008654127 -0.046165265
-0.04199904 -0.011343391 -0.020593172 -0.04627285 0.018225458 -0.029640315 -0.037540153 -0.0028897834
-0.033174142 -0.080129765 -0.037323624 -0.015759993 -0.01938373 -0.05053794 -0.032202642 -0.030795218
-0.0039112037 -0.06019981 -0.03605779 -0.02716892 -0.0071130223 -0.0441436 -0.030710349 -0.013004438
00000000: 60b4 bdbc d67b e5bc 5b0e 06bd e9f4 06bd
00000010: 7920 cbbb e457 8bbc 0aca 0dbc ca17 3dbd
00000020: 2f07 2cbd a1d9 39bc 03b3 a8bc 9a88 3dbd
00000030: 8e4d 953c 3fd0 f2bc b4c3 19bd 8562 3dbb
00000040: 9ce1 07bd 131b a4bd a8e0 18bd 1a1b 81bc
00000050: a1ca 9ebc df00 4fbd ebe6 03bd 4146 fcbc
00000060: 8e29 80bb 1394 76bd 55b1 13bd 5b91 debc
00000070: 5b14 e9bb ebcf 34bd 4594 fbbc 9110 55bc

mlp.4.weight f4 [64, 32]
-0.21633895 -0.30570108 0.022796271 -0.008864647 0.004745336 0.32120723 -0.5060689 -0.24111249
0.3930647 0.15810965 0.20191121 0.23527776 -0.00047247042 -0.045345817 0.3533915 -0.152053
-0.017965226 0.0048896987 0.45114762 0.16251007 0.1263608 0.13485952 -0.2419039 0.18912622
0.3605586 0.09401375 -0.4286949 0.07588615 0.32746413 -0.026434137 0.15523827 0.46319875
-0.5531065 0.11586301 0.13511509 -0.15583423 -0.09739718 0.41898006 -0.048399918 0.28966194
2.0697873e-05 -0.109267816 0.4727057 0.013869462 0.13216323 -0.16498005 -0.05798597 -0.15143915
-0.2071587 -0.29782748 0.031972237 -0.03742211 -0.107869945 -0.091398 0.0295723 -0.20076789
-0.42111245 0.13481712 -0.12506181 0.15033378 0.3244823 -0.06544761 0.0798648 0.20350003
0.19378169 0.44562066 0.028800938 -0.2231004 -0.07210329 -0.5926026 -0.09436912 0.28961173
0.10356273 -0.2414815 -0.17255615 0.36371058 0.012717253 0.12904067 0.39047462 -0.08819341
-0.34351966 0.09454725 -0.5530579 0.23452897 0.02489391 0.20742375 0.18729089 0.10169768
0.015791664 0.027039656 -0.138731 0.38473606 0.26097247 0.23681682 0.14269327 0.038962275
-0.27375373 -0.19265851 -0.016986338 -0.102624536 0.15980412 0.14129458 -0.0069212285 0.020264305
0.26540014 -0.0036740145 0.2419076 0.46082255 -0.0734827 -0.19709718 0.052133482 -0.48318726
-0.45059693 -0.39432025 -0.40351093 0.25004792 0.13559604 -0.05202091 -0.1007907 0.30808276
-0.00095047156 0.056717817 0.21505779 -0.11921023 -0.4051819 -0.22836566 -0.0012171498 -0.022651974
0.3149138 -0.26643574 0.581972 0.0737298 -0.11310508 0.13108659 0.45065722 0.31455475
0.01690541 -0.13781466 -0.16438416 -0.35665023 -0.24835432 -0.36107308 -0.34243098 0.16472808
0.42845267 -0.25062633 0.20547472 -0.0034868645 0.17955965 0.101568855 0.027978389 -0.022627287
-0.15491834 -0.35467282 -0.2546379 0.3023694 -0.2969727 0.16905709 -0.08716862 0.4243046
-0.03894014 -0.41929498 0.03365741 0.044772055 -0.17580149 -0.103513755 -0.12377522 0.25263113
0.11549667 0.0028779039 -0.21152112 -0.05563216 0.09404846 -0.06369454 0.61543316 0.10793361
-0.025761334 0.10780742 0.50107664 -0.101105146 -0.17732638 -0.032278318 0.2896021 0.15793489
0.20797186 0.1120866 -0.2803774 -0.25691178 -0.18051861 -0.08165804 0.10582326 -0.14663576
0.18581049 -0.37125087 -0.24127536 -0.064537376 0.4464337 -0.21565372 -0.18269217 -0.18543786
0.0020982644 0.28670803 -0.015622768 -0.0047980878 0.62396824 -0.26420385 -0.33987105 0.04321857
0.053364445 0.26456255 0.05029803 -0.26688534 0.29281285 -0.090115435 0.44571483 -0.009342047
-0.06156709 -0.0134326285 0.1680588 -0.07086939 0.027815457 -0.1843884 -0.19639088 0.13459325
-0.39082733 -0.06382058 -0.061741825 -0.004701044 -0.16897248 0.0696627 -0.08054643 -0.11683849
0.21989682 0.3185866 -0.21642429 0.19812825 -0.1967215 -0.15718508 -0.014816056 -0.41306305
-0.034244042 0.19120818 -0.1767685 0.16372117 -0.5741857 0.5513427 -0.3560735 -0.17654811
-0.10714169 0.23283263 -0.3951587 -0.36853456 -0.2761924 0.37084845 -0.15867299 -0.32551104
00000000: f587 5dbe da84 9cbe 3fbf ba3c 063d 11bc
00000010: c37e 9b3b 4675 a43e bb8d 01bf 31e6 76be
00000020: c73f c93e 7fe7 213e d0c1 4e3e a7ec 703e
00000030: e8b5 f7b9 89bc 39bd bbef b43e c8b3 1bbe
00000040: cf2b 93bc c439 a03b d2fc e63e 0a69 263e
00000050: ba64 013e 9d18 0a3e a8b5 77be 4eaa 413e
00000060: 239b b83e 488a c03d e67d dbbe 336a 9b3d
00000070: 61a9 a73e 678c d8bc c8f6 1e3e 6328 ed3e
00000080: 6398 0dbf 9649 ed3d 9c5b 0a3e 0293 1fbe
00000090: 2c78 c7bd 8e84 d63e fe3e 46bd 924e 943e
000000a0: 58a0 ad37 cec7 dfbd 7b06 f23e bd3c 633c
000000b0: cc55 073e 88f0 28be b282 6dbd dd12 1bbe
000000c0: 6921 54be d87c 98be 52f5 023d ed47 19bd
000000d0: ebea dcbd e02e bbbd 9c41 f23c 1996 4dbe
000000e0: 0d9c d7be 800d 0a3e 3410 00be 19f1 193e
000000f0: 8b22 a63e 6609 86bd 2890 a33d 5062 503e
00000100: b56e 463e 6428 e43e f2ef eb3c 6e74 64be
00000110: e4aa 93bd ceb4 17bf 9944 c1bd fd47 943e
00000120: b218 d43d ed46 77be 8fb2 30be 4638 ba3e
00000130: 065c 503c 3d23 043e 4aec c73e bf9e b4bd
00000140: cfe1 afbe fda1 c13d 3495 0dbf 5d28 703e
00000150: 50ee cb3c e466 543e 2fc9 3f3e e046 d03d
00000160: 855d 813c 4582 dd3c 800f 0ebe 20fc c43e
00000170: 2f9e 853e 1c80 723e 2f1e 123e e896 1f3d
00000180: 7329 8cbe 4648 45be ef26 8bbc d02c d2bd
00000190: b1a3 233e 87af 103e 79cb e2bb 5401 a63c
000001a0: 87e2 873e bcc7 70bb a0b6 773e eff0 eb3e
000001b0: 197e 96bd d8d3 49be eb89 553d 5264 f7be
000001c0: a4b4 e6be 58e4 c9be fc98 cebe 4806 803e
000001d0: b0d9 0a3e e113 55bd 5b6b cebd 06bd 9d3e
000001e0: 1129 79ba f150 683d 1c38 5c3e 7e24 f4bd
000001f0: 0174 cfbe b0d8 69be c588 9fba a290 b9bc
00000200: 623c a13e 446a 88be 1efc 143f a6ff 963d
00000210: a3a3 e7bd 903b 063e 8bbc e63e 520d a13e
00000220: 377d 8a3c 491f 0dbe 5254 28be dc9a b6be
00000230: 9850 7ebe 92de b8be 1d53 afbe 7aae 283e
00000240: 265e db3e 1852 80be f767 523e e183 64bb
00000250: 7cde 373e 5503 d03d ef32 e53c dc5c b9bc
00000260: eaa2 1ebe ad97 b5be e65f 82be 29d0 9a3e
00000270: ce0c 98be 4d1d 2d3e 7685 b2bd 743e d93e
00000280: b27f 1fbd d5ad d6be 5adc 093d e762 373d
00000290: 4e05 34be 05ff d3bd dd7d fdbd de58 813e
000002a0: 8589 ec3d 379b 3c3b fe98 58be 8cde 63bd
000002b0: 7b9c c03d 4872 82bd 078d 1d3f 4c0c dd3d
000002c0: 6f09 d3bc 23ca dc3d 8f46 003f 3710 cfbd
000002d0: 0c95 35be 4536 04bd ba46 943e afb9 213e
000002e0: 93f6 543e a98d e53d a08d 8fbe f189 83be
000002f0: dfd9 38be 553c a7bd deb9 d83d af27 16be
00000300: 1b45 3e3e 9814 bebe e310 77be 2c2c 84bd
00000310: f592 e43e 54d4 5cbe a813 3bbe 6ce3 3dbe
00000320: 0983 093b 65cb 923e a3f6 7fbc 4739 9dbb
00000330: 62bc 1f3f ba45 87be 9403 aebe f505 313d
00000340: ad94 5a3d be74 873e 4f05 4e3d 32a5 88be
00000350: 91eb 953e 718e b8bd bc34 e43e 630f 19bc
00000360: c62d 7cbd 8714 5cbc 9b17 2c3e f923 91bd
00000370: 3edd e33c 50d0 3cbe b11a 49be d0d2 093e
00000380: 851a c8be 5db4 82bd ffe4 7cbd 370b 9abb
00000390: 1f07 2dbe 51ab 8e3d 87f5 a4bd 0549 efbd
000003a0: a22c 613e c81d a33e 549e 5dbe 22e2 4a3e
000003b0: 5c71 49be 20f5 20be 0bbf 72bc 007d d3be
000003c0: 7b43 0cbd 14cc 433e cd02 35be 86a6 273e
000003d0: d6fd 12bf cc24 0d3f 444f b6be 07c9 34be
000003e0: 1a6d dbbd ad6b 6e3e 3e52 cabe 90b0 bcbe
000003f0: 1769 8dbe d9df bd3e 2c7b 22be 62a9 a6be

mlp.4.bias f4 [64]
0.033942934 0.0059348866 0.017619178 -0.0023491264 -0.008386362 -0.051886547 -0.014863578 -0.0016678069
-0.0049444265 -0.0052613434 -0.006532772 0.007214979 0.009421817 0.037595645 0.0023784775 -0.0073374193
0.038646616 -0.0068189893 -0.019549211 -0.008155328 -0.01124361 -0.004947642 -0.008443131 0.012952427
-0.006057931 -0.0015722759 0.010903404 0.003892233 0.024077028 0.025592078 -0.00049791223 -0.0037869564
-0.015093866 -0.017748188 -0.020867335 -0.001919123 -0.032224048 0.028606165 0.02126029 0.036650844
0.013033215 -0.006168394 -0.004236092 0.007672351 -0.016358154 0.010264701 0.0020590797 0.005027557
0.002521584 0.0009594839 -0.018682022 -0.015920343 0.0067924466 0.005540465 0.0065396507 -0.012565864
-0.0028942872 0.021780912 -0.009513129 -0.0035455623 -0.009847843 0.011594524 0.0023069363 -0.0045517036
00000000: bf07 0b3d 7079 c23b 1856 903c cdf3 19bb
00000010: f466 09bc fd86 54bd 5d86 73bc 509a daba
00000020: db04 a2bb 5967 acbb dd10 d6bb a16b ec3b
00000030: f75d 1a3c e4fd 193d 3be0 1b3b bc6e f0bb
00000040: ea4b 1e3d d471 dfbb ab25 a0bc ed9d 05bc
00000050: 1e37 38bc d41f a2bb 0f55 0abc 6b36 543c
00000060: 9c81 c6bb d314 ceba 31a4 323c d514 7f3b
00000070: 303d c53c 7aa6 d13c 5386 02ba 962e 78bb
00000080: 434c 77bc a664 91bc f9f1 aabc 158b fbba
00000090: 5dfd 03bd 7a57 ea3c 0f2a ae3c 321f 163d
000000a0: 4489 553c 3d20 cabb eace 8abb 5868 fb3b
000000b0: 8901 86bc 472d 283c a0f1 063b 34be a43b
000000c0: 2941 253b e085 7b3a 0a0b 99bc 616b 82bc
000000d0: 2c93 de3b ca8c b53b 914a d63b 0ee1 4dbc
000000e0: 15ae 3dbb e26d b23c f4dc 1bbc aa5c 68bb
000000f0: d958 21bc f5f6 3d3c f82f 173b 7526 95bb
