weights/reward_prediction-nd-1-eps-400.pth (torch, 463014 bytes, 24 tensors)

log_std f4 [2]
0	0x3e1f6691	0.1556647
1	0x3e01d886	0.12680253

features_extractor.encoder.conv.0.weight f4 [4, 1, 3, 3]
0	0x3dc8adbb	0.097987615
1	0x3e99abe5	0.30013958
2	0xbe094c66	-0.1340805
3	0x3ef61a4a	0.48066932
4	0xbf0f661b	-0.56015176
5	0xbea5d5dd	-0.32389727
6	0x3f4e6551	0.80623347
7	0xbc5c9c4d	-0.013464999
8	0x3d447fde	0.047973506
9	0x3cf66515	0.030077497
10	0xbf034517	-0.512773
11	0x3efed488	0.49771523
12	0xbf2d9eaf	-0.67820257
13	0xbda1b226	-0.07895307
14	0x3e190bb9	0.14945878
15	0x3e250b9a	0.16117707
16	0x3f210d48	0.6291089
17	0xbe8b468d	-0.27202263
18	0xbd2d89e5	-0.042367835
19	0x3fa75e65	1.3075682
20	0x3f319ea7	0.6938271
21	0xbe2c6d80	-0.16838646
22	0xbe700246	-0.23438367
23	0xbe6e9315	-0.23298295
24	0x3d62f0ca	0.055405416
25	0xbe9e2502	-0.3088761
26	0xbdb211c3	-0.08694794
27	0x3df7cb83	0.12099364
28	0x3da72f1f	0.081632845
29	0x3e400fd4	0.18756038
30	0x3f0b58cd	0.54432374
31	0x3e8383ca	0.25686485
32	0x3dc0d675	0.094159044
33	0x3f1cbbb6	0.61223924
34	0x3efe72da	0.49697
35	0xbf1937b3	-0.59850615

features_extractor.encoder.conv.0.bias f4 [4]
0	0xbd25d7b9	-0.040488932
1	0xbbceda00	-0.0063126087
2	0xbd5ca8b9	-0.053871844
3	0xbd1d0ab2	-0.038340278

features_extractor.encoder.conv.2.weight f4 [8, 4, 3, 3]
0	0x3e07a978	0.13248241
1	0x3e578126	0.2104536
2	0xbe610b63	-0.21977
3	0xbe068d31	-0.13139798
4	0xbe06c54f	-0.13161205
5	0xbe7a40d3	-0.24438791
6	0xbe6f4110	-0.23364663
7	0xbe5b8b95	-0.21439965
8	0x3cf4606e	0.029831138
9	0xbb0dafb4	-0.002161962
10	0x3ebffe07	0.37498495
11	0xbdf5a91a	-0.11995144
12	0xbe0030de	-0.12518641
13	0x3e16e72c	0.14736623
14	0x3e56d202	0.20978549
15	0x3d280a55	0.04102548
16	0x3ebf7d45	0.3740026
17	0x3e47189f	0.19442986
18	0x3ed10855	0.4082667
19	0x3ec48f58	0.38390613
20	0xbf18fdb8	-0.59762144
21	0xbbcacb94	-0.006188819
22	0xbdd7994c	-0.10527286
23	0x3ed5d14a	0.41761237
24	0xbd60d68f	-0.05489212
25	0xbd93ed98	-0.07223052
26	0x3db4d3d8	0.088294685
27	0xbdcdf051	-0.10055602
28	0x3e418b4f	0.18900798
29	0xbe936d8e	-0.2879452
30	0xbda49079	-0.080353685
31	0xbee69424	-0.45034897
32	0xbd1d5700	-0.038413048
33	0xbe1ffe83	-0.15624432
34	0x3e17ab7f	0.14811514
35	0x3d752f57	0.0598596
36	0x3d8240e3	0.063600324
37	0x3e85a787	0.26104376
38	0xbdafaeb1	-0.085782416
39	0x3d39fcd9	0.04540715
40	0x3e76a1a6	0.24085101
41	0x3b416331	0.0029508586
42	0x3d83d287	0.06436639
43	0x3dab7361	0.08371616
44	0x3c28e1e6	0.010307765
45	0xbe5167d3	-0.20449762
46	0x3e0ec9b9	0.13944139
47	0x3d9504d8	0.072763145
48	0x3d80b873	0.06285181
49	0xbe9b0f31	-0.30285028
50	0x3df56ea4	0.11983994
51	0x3e6cd975	0.23129828
52	0xbea16e5a	-0.31529504
53	0x3c60da21	0.013723881
54	0xbe26e70d	-0.16299076
55	0x3e461638	0.19344413
56	0x3ece8180	0.40333176
57	0xbe2bb102	-0.16766742
58	0x3e1afcc2	0.15135482
59	0x3ec8538c	0.3912624
60	0xbc14e078	-0.009086721
61	0x3e04e5b8	0.12978256
62	0xbe2ed0cd	-0.17071839
63	0xbe5ce123	-0.21570258
64	0xbe150257	-0.14551674
65	0x3ed0a834	0.4075333
66	0x3e8e16ab	0.2775167
67	0xbd23d201	-0.039995197
68	0x3ee85ee4	0.45384896
69	0x3de272fb	0.11057087
70	0x3ed8c18f	0.42335173
71	0xbe2fe2a8	-0.17176306
72	0xbb9fd951	-0.004878201
73	0x3eaf965e	0.3429441
74	0x3e78de76	0.24303612
75	0x3f107573	0.56429213
76	0xbe926cef	-0.28598735
77	0xbf0d7493	-0.55256003
78	0x3e40f9f6	0.18845353
79	0x3e806ac3	0.25081453
80	0xbdad7918	-0.084703624
81	0x3e811278	0.25209403
82	0x3dfbefd9	0.12301607
83	0x3da8cbe5	0.08242015
84	0x3d1a40a2	0.037659295
85	0x3e81d30b	0.25356326
86	0x3e743fe7	0.23852502
87	0x3ea52bce	0.32259983
88	0x3edeb6c3	0.4349881
89	0x3b67e796	0.0035385839
90	0xbe4448e6	-0.19168434
91	0x3eb20564	0.34769738
92	0xbdce8ecf	-0.10085832
93	0x3d67783d	0.056511153
94	0xbe18eb20	-0.14933443
95	0x3e4f5cdb	0.20250265
96	0x3e0694c6	0.1314269
97	0xbe7a6af3	-0.2445486
98	0xbe7206c0	-0.23635387
99	0xbe35e63b	-0.17763607
100	0xbe574686	-0.21022996
101	0x3d1e1b6a	0.038600363
102	0xbec1aecb	-0.3782867
103	0x3e6c016e	0.2304742
104	0xbdec0ebb	-0.11526247
105	0x3dd50908	0.10402113
106	0x3da1b467	0.07895737
107	0xbe3c2933	-0.18375091
108	0xbe29e1ae	-0.16589996
109	0x3ef1c9c6	0.47224253
110	0x3ef2b3a4	0.4740268
111	0x3c869723	0.01642949
112	0xbdeb28ca	-0.11482389
113	0x3cdc404a	0.026886124
114	0xbe3423b2	-0.17591742
115	0xbee42d9d	-0.4456605
116	0x3d1cb673	0.038259935
117	0x3e3bcebe	0.18340585
118	0x3eae1ecf	0.3400788
119	0xbe4675b1	-0.19380833
120	0x3ed6d387	0.41958258
121	0x3dad55aa	0.08463605
122	0xbd8260b4	-0.06366101
123	0xbf1472fc	-0.5798795
124	0xbeccf42e	-0.40030044
125	0x3de0e7c0	0.10981703
126	0x3ec92965	0.39289394
127	0xbdfa360d	-0.122173406
128	0xbe36e42b	-0.17860477
129	0x3e8b95ff	0.27262875
130	0x3cb52c12	0.02211574
131	0xbeb9f86b	-0.3632234
132	0xbe5cf1d9	-0.21576633
133	0xbebec001	-0.37255862
134	0xbf0463c8	-0.51714754
135	0x3e036bdf	0.12834118
136	0xbda97bf0	-0.08275592
137	0xbecedaf1	-0.40401414
138	0xbb2e4f2a	-0.0026597478
139	0x3e1d1fb2	0.15344122
140	0xbed55ec6	-0.4167387
141	0xbdbfe761	-0.09370304
142	0x3e01f2be	0.12690255
143	0xbe388168	-0.18018115
144	0x3de3691a	0.11104031
145	0xbe5abedc	-0.2136187
146	0xbde7ec8a	-0.11324413
147	0x3daff45e	0.08591531
148	0x3e3d40fc	0.18481821
149	0xbe645383	-0.22297482
150	0xbeb6cde4	-0.35703957
151	0x3b2739bd	0.0025516592
152	0xbce7e535	-0.028307537
153	0x3b82f03a	0.0039959224
154	0xbe74223a	-0.23841181
155	0x3e5f8718	0.21828878
156	0xbdfa01ac	-0.1220735
157	0x3dd7d621	0.10538889
158	0xbcaab994	-0.020840444
159	0xbdcf1831	-0.10112036
160	0xbe1bbea6	-0.15209445
161	0x3bb814cf	0.005617715
162	0xbe69f6e5	-0.22848089
163	0xbe89f188	-0.26942086
164	0xbec6a1bf	-0.38795277
165	0xbe0780ab	-0.13232677
166	0x3e432442	0.190568
167	0xbf0eb292	-0.55741227
168	0x3b9e3d59	0.0048290906
169	0xbe215335	-0.15754397
170	0x3ec8e2ab	0.39235434
171	0x3b8e319a	0.004339409
172	0xbdbc53b9	-0.09195656
173	0x3d99c759	0.07508726
174	0x3dec7f99	0.11547775
175	0xbc4e2b31	-0.01258354
176	0xbde88535	-0.11353532
177	0xbdd1884f	-0.10231077
178	0x3df2c287	0.118535094
179	0xbe275997	-0.1634277
180	0xbd368d64	-0.044568434
181	0xbe02398c	-0.12717265
182	0x3e81932d	0.253076
183	0x3db98713	0.090589665
184	0xbe132670	-0.14370131
185	0x3e84b238	0.2591722
186	0xbdc1d636	-0.094646856
187	0x398aea55	0.00026496002
188	0x3cc65077	0.02420829
189	0x3ea2a1c3	0.3176404
190	0x3f074117	0.52833694
191	0x3e69768b	0.22799127
192	0xbc8145c6	-0.01578034
193	0x3e42fb55	0.19041188
194	0xbdfaa69a	-0.12238808
195	0xbeb2fb3f	-0.3495731
196	0x3e867b5e	0.26265997
197	0x3e88b22d	0.26698437
198	0x3e8c71f7	0.27430698
199	0x3e11c8e9	0.14236797
200	0xbe29009c	-0.16504139
201	0xbe8b3623	-0.2718974
202	0xbe840e4c	-0.25792158
203	0xbe63a235	-0.22229846
204	0x3ef17f29	0.47167328
205	0x3d727da2	0.059201844
206	0xbed03eb1	-0.4067283
207	0x3d6416e8	0.055685908
208	0x3e843a50	0.2582574
209	0xbe271c00	-0.16319275
210	0x3c87c445	0.01657308
211	0x3d36ebf9	0.044658635
212	0x3d87953a	0.066202596
213	0xbe08c49d	-0.13356252
214	0xbd356b62	-0.04429186
215	0x3dc2ee33	0.09518089
216	0xbf312b95	-0.69207126
217	0xbd9b9b89	-0.07598025
218	0xbe4eabfa	-0.20182791
219	0xbe14f623	-0.14547019
220	0xbe39a932	-0.18130949
221	0x3e43e25d	0.1912932
222	0x3ca9bd6f	0.020720212
223	0xbe1fa8cd	-0.15591736
224	0x3e90724e	0.28212208
225	0x3f1b73ba	0.6072346
226	0x3f1676b3	0.5877487
227	0x3e25a687	0.16176806
228	0x3e8aa810	0.27081347
229	0xbe013810	-0.12619042
230	0xbeac1e44	-0.3361684
231	0xbeb900d4	-0.36133444
232	0x3de00f4d	0.109404184
233	0x3e354e20	0.17705584
234	0xbe9d7a1f	-0.30757234
235	0xbde9bea9	-0.11413319
236	0xbe3092f4	-0.17243558
237	0xbe114790	-0.14187455
238	0xbd86ed39	-0.065882154
239	0x3e0d50a2	0.1380029
240	0x3ea04986	0.31306094
241	0x3d23e26f	0.040010866
242	0x3db73b34	0.08946839
243	0xbe725b41	-0.23667623
244	0xbb765c64	-0.003759169
245	0x3c8b6273	0.017014718
246	0xba97d6f6	-0.0011584449
247	0xbdceee47	-0.101040415
248	0xbe6f1a84	-0.23349959
249	0x3e11c0e1	0.14233734
250	0xbcdf879b	-0.027286341
251	0x3d9002dd	0.07031796
252	0x3dd1a78b	0.102370344
253	0x3deedd41	0.116632946
254	0xbe253ae5	-0.16135748
255	0xbe4874dd	-0.1957583

features_extractor.encoder.conv.2.bias f4 [8]
0	0xbb6ad2b4	-0.0035831155
1	0xbca42b40	-0.020040154
2	0xbbfddc3a	-0.0077472003
3	0xba13d16a	-0.000563881
4	0xbb28f9c1	-0.002578363
5	0x3c21eac1	0.00988263
6	0xbd685164	-0.056718245
7	0xbc656d33	-0.014003086

features_extractor.encoder.conv.4.weight f4 [16, 8, 3, 3]
0	0xbcc4006b	-0.02392598
1	0xbe9ac4bc	-0.3022822
2	0xbe05f5ad	-0.13081999
3	0x3dc93614	0.09824768
4	0xbc83fa02	-0.016110424
5	0x3db08543	0.08619168
6	0xbdc04b33	-0.09389343
7	0xbd40934a	-0.047015466
8	0xbe7a81ec	-0.24463624
9	0xbcc9c0d8	-0.024628088
10	0x3df7763d	0.12083099
11	0x3bbab69c	0.0056980383
12	0x3c69b4e6	0.014264321
13	0xbe872624	-0.26396286
14	0xbec7a208	-0.38990808
15	0xbe28a68e	-0.16469786
16	0xbd422049	-0.04739407
17	0x3e091b62	0.13389352
18	0x3e3c2e24	0.18376976
19	0xbd84a55a	-0.06476851
20	0xbcc353c9	-0.023843663
21	0xbd44e969	-0.04807416
22	0xbdea8621	-0.11451364
23	0x3d90001d	0.070312716
24	0xbd43f717	-0.047843065
25	0xbe57382f	-0.21017526
26	0xbe24ca58	-0.16092813
27	0x3d70c3ed	0.0587806
28	0x3d021ced	0.031765867
29	0xbe69e1e9	-0.22840084
30	0xbd9c616c	-0.07635769
31	0x3d9e5fae	0.07733093
32	0xbceca6e4	-0.028888173
33	0xbd6015ea	-0.0547084
34	0xbcfd7626	-0.030940127
35	0xbc978a18	-0.018498465
36	0x3e1ec64e	0.15505335
37	0xbdc772b9	-0.097386785
38	0x3e4aa521	0.19789554
39	0x3c9f3fd8	0.019439623
40	0xbe2dc41f	-0.16969346
41	0xbc8cc074	-0.017181613
42	0x3d4b22dc	0.04959379
43	0xbcf94fbd	-0.03043353
44	0xbde4930c	-0.111608595
45	0xbed95c4f	-0.42453238
46	0xbea3185a	-0.31854516
47	0xbde02e8f	-0.1094638
48	0xbeb92b44	-0.36165822
49	0x3b8ba142	0.004261167
50	0xbe2148da	-0.15750447
51	0xbd9b7532	-0.075907126
52	0xbe1e720b	-0.15473191
53	0xbee6f7b9	-0.45110872
54	0x3d5e2b51	0.05424053
55	0xbe10dce6	-0.14146766
56	0xbeb83f2b	-0.35985693
57	0xbd85fbd6	-0.065421745
58	0x3c27a6e7	0.010232664
59	0x3e2a7cb6	0.16649136
60	0xbda31183	-0.079623245
61	0xbeddc8b1	-0.43317178
62	0x3e499639	0.19686212
63	0x3ddce75d	0.107863165
64	0x3ec4cd5b	0.38437924
65	0xbe69cc17	-0.2283176
66	0x3b3e4fa3	0.0029039166
67	0xbeeb3d44	-0.4594518
68	0xbe8b45e3	-0.27201757
69	0xbee46836	-0.44610757
70	0x3d8648f7	0.06556886
71	0xbe03de60	-0.12877798
72	0x3d5dd227	0.054155495
73	0xbe8dbb1c	-0.27681816
74	0x3e8c4d88	0.27402902
75	0xbe02dad4	-0.12778789
76	0x3e985bf2	0.2975765
77	0x3e48f3b6	0.19624218
78	0xbe21602a	-0.1575934
79	0x3e72b157	0.23700462
80	0x3db02dd9	0.08602495
81	0xbe2e7784	-0.17037779
82	0x3d2ceac1	0.042216066
83	0xbe6d673f	-0.23183917
84	0xbe25a2ef	-0.16175435
85	0xbe0c980a	-0.13729873
86	0x3d9b375e	0.0757892
87	0xbdbe5886	-0.09294228
88	0xbe00ec05	-0.12590034
89	0x3e8e28ac	0.27765405
90	0xbe124ae7	-0.14286385
91	0x3de8a1f2	0.113590136
92	0xbe708138	-0.23486793
93	0xbdfbcdf1	-0.122951396
94	0x3ce62e35	0.028098205
95	0xbd6eba1c	-0.058282956
96	0x3e0572f7	0.13032137
97	0xbe9ab826	-0.3021862
98	0x3eb29461	0.3487883
99	0xbdbe5e2c	-0.092953056
100	0x3e0cbcd0	0.13743901
101	0x3de9d33e	0.114172444
102	0x3d3f1099	0.046646688
103	0xbc3262a5	-0.0108877765
104	0xbe081b7a	-0.13291731
105	0x3ebdcf61	0.3707228
106	0xbc45f9a4	-0.012083445
107	0x3ddc747e	0.107644066
108	0x3e8bab3c	0.2727908
109	0xbd47188d	-0.048607398
110	0xbcad8e51	-0.021186026
111	0xbd14e3f0	-0.03635019
112	0xbc54cdd5	-0.012988527
113	0x3e8cf97c	0.2753409
114	0xbe221153	-0.15826921
115	0xbdf25e3c	-0.1183438
116	0x3d63e6da	0.05564008
117	0xbcf922b0	-0.030412048
118	0x3c0f3090	0.008739606
119	0x3db72c57	0.08944004
120	0xbcb625e9	-0.022234874
121	0xbd4cc807	-0.04999545
122	0xbde9f073	-0.11422815
123	0x3eb35405	0.3502504
124	0x3e1b0bac	0.15141171
125	0xbe108fe9	-0.14117397
126	0x3e0dddc4	0.13854128
127	0xbea0829f	-0.31349656
128	0x3e9ec421	0.3100901
129	0x3e4f08a9	0.20218147
130	0x3c13fe78	0.009032838
131	0x3e792ced	0.24333544
132	0xbe91f356	-0.28505963
133	0xbb0ea041	-0.0021763
134	0xbe34d938	-0.17660987
135	0x3e8e1424	0.2774974
136	0x3e675960	0.22592688
137	0xbda58369	-0.08081705
138	0xbde7a818	-0.11311358
139	0x3d933ed3	0.07189717
140	0x3e82993f	0.25507542
141	0x3de3c648	0.111218035
142	0xbd95412e	-0.07287823
143	0x3dc7eb1d	0.09761641
144	0x3e928313	0.28615627
145	0x3d022a17	0.03177842
146	0xbe5bdcf7	-0.2147101
147	0x3da53ed1	0.08068622
148	0x3a0231cd	0.00049665273
149	0xbd153dbd	-0.03643583
150	0xbd50a2fa	-0.050936677
151	0xbcb3489a	-0.021885205
152	0xbe9c6b30	-0.30550528
153	0x3e4ba560	0.19887304
154	0x3cccd589	0.025004165
155	0x3dda0ba4	0.106467515
156	0x3dc3bdde	0.09557699
157	0x3d96fe64	0.0737274
158	0x3dc7ec33	0.09761848
159	0xbd2272c7	-0.03966024
160	0xbe805062	-0.25061327
161	0x3d9f828c	0.07788572
162	0xbd25a01d	-0.0404359
163	0xb9a5ed95	-0.00031648265
164	0xbd00cb88	-0.031444103
165	0xbd7c5329	-0.061602745
166	0xbe24d2b5	-0.16096003
167	0xbe390cff	-0.18071364
168	0x3cb05722	0.021525923
169	0x3e1ee220	0.15515947
170	0x3e8fef65	0.2811233
171	0xbe18559f	-0.14876412
172	0x3ed683d7	0.4189746
173	0xbe997f93	-0.29980144
174	0xbd30dba5	-0.04317822
175	0xbcc296d9	-0.02375357
176	0x3b106f37	0.0022038945
177	0xbd9ec053	-0.07751527
178	0x3e0503ff	0.12989806
179	0x3dd985c4	0.10621217
180	0x3e928989	0.28620556
181	0x3d6770ae	0.056503944
182	0xbdf62d8b	-0.120204054
183	0xbd8a3f7b	-0.06750389
184	0xbde0bb8d	-0.109732725
185	0x3e0f8d71	0.140188
186	0xbd7f3b52	-0.06231243
187	0x3cb39f8b	0.021926662
188	0x3e217bb9	0.15769853
189	0x3a8e368d	0.0010849998
190	0x3e41f42b	0.18940799
191	0xbe0a7c1d	-0.13523908
192	0x3df3e056	0.11908023
193	0x3d684de3	0.056714904
194	0xbe17f6e1	-0.1484027
195	0xbddc6b1d	-0.10762618
196	0x3e5dd2a1	0.2166238
197	0x3e403f7d	0.18774219
198	0xbeb2c642	-0.34916884
199	0x3e3e8d38	0.18608558
200	0xbf054059	-0.5205131
201	0xbda48364	-0.08032873
202	0x3e1ce169	0.15320362
203	0xbe50eeea	-0.20403638
204	0xbe038c19	-0.12846412
205	0xbe12553b	-0.14290325
206	0x3e69015f	0.2275443
207	0x3e16ed63	0.14738993
208	0x3e8846ad	0.2661642
209	0x3cdc4275	0.026887158
210	0xbe20886b	-0.1567704
211	0x3e166c88	0.14689839
212	0x3d033105	0.03202917
213	0xbe7d946d	-0.24763651
214	0x3ecf1d31	0.4045196
215	0xbc9b1e96	-0.018935483
216	0xbe8ffb47	-0.28121397
217	0xbe4922cf	-0.19642185
218	0xbdc3c5a1	-0.09559179
219	0xbe9ed1e4	-0.3101951
220	0xbdd76a55	-0.10518328
221	0xbdebc8f8	-0.11512941
222	0xbd2eae3c	-0.04264663
223	0xbe81a136	-0.25318307
224	0xbe5929c6	-0.21207342
225	0x3d1c843d	0.03821205
226	0x3e20337f	0.15644644
227	0x3d63c27b	0.055605393
228	0x3e0a9507	0.13533412
229	0x3ea6420d	0.32472268
230	0xba9d3895	-0.0011995012
231	0x3cdcea42	0.026967172
232	0x3e429f25	0.19006021
233	0x3e41aa88	0.18912709
234	0x3d515105	0.051102657
235	0x3d844255	0.06457964
236	0xbdba6d58	-0.09102887
237	0xbd0f72f7	-0.03502175
238	0xbd63e410	-0.05563742
239	0x3dac04f7	0.083993845
240	0xbe8f2759	-0.27959707
241	0x3e603425	0.21894892
242	0xbd84d6bf	-0.06486272
243	0xbe1f2bd5	-0.15544064
244	0xbe409fed	-0.18811007
245	0x3c9b16f7	0.018931849
246	0xbe2e23ac	-0.17005795
247	0xbed61f3e	-0.4182071
248	0xbd84c38a	-0.064826086
249	0x3d019972	0.031640477
250	0xbee042e0	-0.43801022
251	0xbe3c1b90	-0.1836989
252	0x3c89dd91	0.016829284
253	0x3df6fce9	0.120599575
254	0x3e15e715	0.14638932
255	0xbdfd1e07	-0.12359243

features_extractor.encoder.conv.4.bias f4 [16]
0	0xbe16e245	-0.14734752
1	0xbc26c521	-0.010178835
2	0xbc77e915	-0.015131255
3	0xbb8df87e	-0.004332601
4	0xbbc55e00	-0.0060231686
5	0xbaea16ea	-0.0017859612
6	0xbc6a7324	-0.014309678
7	0xbc961ae6	-0.018323373
8	0xbb6e09ca	-0.0036321753
9	0xbc3fed80	-0.011714339
10	0xba001be7	-0.000488697
11	0xbbdac647	-0.0066764685
12	0xbc826f5a	-0.015922237
13	0xbc7e2ea5	-0.015514051
14	0xbbe85539	-0.0070902375
15	0xbbf9cfd3	-0.0076236515

features_extractor.encoder.conv.6.weight f4 [32, 16, 3, 3]
0	0xbcbdce71	-0.023169728
1	0x3de482dd	0.11157773
2	0x3d90ea7d	0.07075975
3	0x3d2168de	0.03940665
4	0x3c28c111	0.010299937
5	0xbda4d8ba	-0.0804915
6	0xbd4ec856	-0.050484024
7	0xbc80d026	-0.015724253
8	0xbd4c781f	-0.049919244
9	0xbba3b081	-0.004995406
10	0x3c7b1d18	0.015326761
11	0xbe147ac6	-0.1449996
12	0xbd232ecc	-0.03983955
13	0xbe12c795	-0.14333947
14	0x3d5f4e00	0.054517746
15	0xbdce34fc	-0.100687
16	0x3e29a101	0.16565324
17	0xbdc37ac8	-0.09544903
18	0xbd55f5f5	-0.052236516
19	0xbd993276	-0.07480328
20	0x3ce7bc2e	0.028287973
21	0x3c414663	0.011796567
22	0x3d1d8052	0.038452454
23	0xbd6ad162	-0.05732859
24	0xbd021afa	-0.031764008
25	0xbdfa9d61	-0.12237049
26	0xbdae8aa4	-0.08522537
27	0xbe857196	-0.26063222
28	0xbd16d19f	-0.036821004
29	0xbdc8dacb	-0.098073564
30	0x3e02c09a	0.12768784
31	0xbe448111	-0.1918986
32	0x3d73dd37	0.05953714
33	0xbde3d565	-0.11124686
34	0xbe0f6ef8	-0.14007175
35	0xbe01dfaf	-0.12682985
36	0x3d54d232	0.05195827
37	0xbd93f090	-0.07223618
38	0xbd9bcb57	-0.07607143
39	0xbe10a742	-0.14126304
40	0xbda9fd5b	-0.08300277
41	0xbdf1c6ec	-0.118055195
42	0xbdde4c3f	-0.108543865
43	0xbe1a411f	-0.15063904
44	0x3d8eddfa	0.069759324
45	0xbd28e4cb	-0.04123382
46	0x3e45f7fb	0.19332878
47	0xbd0fda88	-0.035120517
48	0xbda48d60	-0.08034778
49	0xbe6a2471	-0.22865464
50	0xbd475dc6	-0.048673414
51	0xbe878ddc	-0.26475418
52	0xbd604446	-0.05475261
53	0xbd8d0791	-0.06886209
54	0x3c82c733	0.015964126
55	0x3d908956	0.07057445
56	0xbb958757	-0.004563253
57	0x3d91c0c1	0.07116843
58	0xbca99f8b	-0.020705959
59	0x3dbe7a2c	0.09300646
60	0xbce043d9	-0.027376102
61	0xbd9f3dc6	-0.07775454
62	0xbde12c26	-0.10994749
63	0xbdbf187f	-0.09330844
64	0xbdb51f3d	-0.08843849
65	0x3e39f60e	0.18160269
66	0xbda02317	-0.07819193
67	0xbe3c6624	-0.18398339
68	0x3da1682d	0.07881198
69	0xbe1a772b	-0.15084521
70	0xbe3b5b22	-0.18296483
71	0x3e1aeb8d	0.15128918
72	0xbacf356e	-0.001580877
73	0x3d9242b7	0.07141631
74	0xbdc1dfaa	-0.09466489
75	0x3d95b8ee	0.07310663
76	0xbcc91b4e	-0.024549153
77	0x3d6ac0c8	0.057312757
78	0xbdcb50fb	-0.09927555
79	0xbeb45b9d	-0.35226145
80	0xbc71dad6	-0.014761647
81	0x3e073b7b	0.13206284
82	0xbe9c4290	-0.30519533
83	0x3e06578d	0.13119335
84	0xbe24f2c2	-0.1610823
85	0xbe40af86	-0.18816957
86	0xbdcd116e	-0.1001309
87	0x3d8a6f95	0.06759564
88	0xbd95117e	-0.07278727
89	0xbec6d3a3	-0.3883334
90	0xbea47f50	-0.32128382
91	0xbe01271c	-0.12612575
92	0x3e7134dd	0.23555322
93	0x3e10902f	0.14117502
94	0xbdf5dece	-0.12005387
95	0xbdb19502	-0.08670999
96	0xbd090c52	-0.033459015
97	0xbe15fdbb	-0.14647572
98	0xbc07cb4d	-0.008288217
99	0xbe218b74	-0.15775853
100	0x3d24b6fe	0.040213577
101	0xbd8c320f	-0.068454854
102	0xbbfce1d6	-0.0077173514
103	0xbb9b7235	-0.004743839
104	0x3e395720	0.18099642
105	0x3df14898	0.11781424
106	0x3e314bd7	0.17314087
107	0xbe70861d	-0.2348866
108	0x3e234e7f	0.15947913
109	0xbe06427f	-0.13111304
110	0x3e0a1cd9	0.13487567
111	0xbdcef96b	-0.101061665
112	0x3d838100	0.06421089
113	0xbe132e8f	-0.1437323
114	0x3d43fa82	0.047846325
115	0xbe11360e	-0.14180776
116	0xbcb02b8c	-0.02150514
117	0x3b899b06	0.0041993884
118	0x3c6277b1	0.013822482
119	0x3d346422	0.044040807
120	0x3ccf458f	0.025301723
121	0x3e5592e7	0.2085682
122	0x3d88586f	0.06657492
123	0xbdd106d7	-0.10206383
124	0xbcc7ae00	-0.024374962
125	0x3c2f86e8	0.0107133165
126	0x3cf0fee4	0.029418416
127	0xbb02bc06	-0.0019948496
128	0xbd26ca6a	-0.04072038
129	0xbe71e6ea	-0.23623243
130	0xbbd65706	-0.0065411357
131	0x3c8cc2f5	0.017182807
132	0xbe247b9f	-0.16062783
133	0x3dbbafcc	0.0916439
134	0x3d1dd7d4	0.038535908
135	0x3cfb37aa	0.030666191
136	0xbd83b49f	-0.06430935
137	0x3e3d2899	0.18472518
138	0x3bc44429	0.0059895706
139	0xbdb1096b	-0.086443745
140	0xbe50901c	-0.20367473
141	0xbd9de0e3	-0.07708909
142	0x3d834daf	0.06411301
143	0x3ac5c3ec	0.0015088296
144	0x3e758466	0.23976287
145	0xbf04de64	-0.5190184
146	0x3daaa713	0.08332648
147	0x3e173ef2	0.14770105
148	0xbe96dc07	-0.29464743
149	0x3e1e2ad2	0.15446022
150	0x3db0678e	0.086135015
151	0x3da0b4c3	0.078469776
152	0x3e28a919	0.16470756
153	0x3d2a22ca	0.041537084
154	0x3d99759f	0.074931376
155	0xbd8cdfd1	-0.06878627
156	0xbced1f89	-0.028945701
157	0xbe6b6baf	-0.22990297
158	0x3e30f232	0.1727989
159	0xbd5b6dfa	-0.05357168
160	0x3e2c7961	0.16843177
161	0xbd62a10d	-0.05532937
162	0x3d9cda42	0.07658817
163	0xbe9f21d9	-0.3108051
164	0xbc8282bd	-0.015931481
165	0xbe0a3559	-0.13496913
166	0xbdbac671	-0.09119881
167	0x3d928f22	0.07156207
168	0xbe840072	-0.2578159
169	0x3c51c924	0.012804303
170	0x3dd829a9	0.10554821
171	0x3d831812	0.064010754
172	0x3d59f9c2	0.053216703
173	0xbddc9f99	-0.10772628
174	0xbe397a64	-0.18113095
175	0xbdb1613b	-0.08661123
176	0xbde12eed	-0.109952785
177	0x3e1b9cdd	0.15196557
178	0x3d58abed	0.052898336
179	0x3bb34eef	0.005472056
180	0xbe45e547	-0.19325744
181	0xbe1b3f05	-0.15160759
182	0xbe0c9174	-0.13727361
183	0xbd6f3de5	-0.058408637
184	0xbe4d65e5	-0.20058401
185	0xbd1f272f	-0.038855728
186	0xbea83ce0	-0.32858944
187	0x3e82a190	0.25513887
188	0x3e0cbb17	0.13743244
189	0x3cd75b32	0.026288603
190	0xbd589a3e	-0.05288147
191	0xbd7bca32	-0.061472125
192	0xbe232060	-0.15930319
193	0xbd8f57ff	-0.06999206
194	0x3e4adcb4	0.19810754
195	0xbe430a76	-0.1904696
196	0xbd406986	-0.046975635
197	0x3cc61fe2	0.024185125
198	0xbd834b2a	-0.06410821
199	0x3d14ba4b	0.036310475
200	0xbe1ad8da	-0.15121785
201	0xbe0c8e6f	-0.13726209
202	0x3e3694f1	0.17830254
203	0x3cb584c1	0.022158029
204	0x3d8c4dd7	0.06850784
205	0x3dfef51e	0.12449096
206	0xbe5d0afa	-0.21586218
207	0xbe0a0cfe	-0.13481519
208	0xbcf48ba8	-0.02985175
209	0xbb98b6fd	-0.004660486
210	0xbc614b96	-0.013750931
211	0xbe052a2f	-0.13004373
212	0x3e4badb3	0.1989048
213	0x3dcb7b14	0.09935585
214	0x3e5de713	0.21670179
215	0xbe2866d6	-0.16445479
216	0xbca729be	-0.020405646
217	0xbe3393d8	-0.17536867
218	0xbdfe1aba	-0.124074414
219	0x3d088ef3	0.033339452
220	0xbe196290	-0.14979005
221	0x3d7b86bc	0.06140779
222	0xbd8a5c8d	-0.06755934
223	0xbd04b877	-0.032402482
224	0x3d7dd5a3	0.061971318
225	0xbe08a92c	-0.13345784
226	0xbe0d86e8	-0.13820994
227	0xbe194d9f	-0.14971016
228	0x3d50177c	0.050803646
229	0xbe1d2936	-0.15347752
230	0xbea2853e	-0.3174228
231	0xbd5becce	-0.05369263
232	0xbe6b30fd	-0.22967906
233	0x3eababf7	0.33529636
234	0xbe60ac49	-0.21940722
235	0xbd49eb69	-0.04929677
236	0x3cfaa27f	0.030595062
237	0xbdb2d565	-0.08732108
238	0xbdb5e4f1	-0.08881558
239	0x3e5239b7	0.20529829
240	0x3d0ce947	0.034402158
241	0xbea11066	-0.31457824
242	0xbe0bab6c	-0.13639611
243	0xbd4a131c	-0.04933463
244	0xbd062fb7	-0.03276035
245	0x3d7c7c38	0.0616419
246	0xbe4ecebe	-0.20196053
247	0x3d4cb8db	0.04998098
248	0x3d196fe3	0.03746022
249	0x3e2cbaf7	0.16868196
250	0x3dbc8fa1	0.092070825
251	0x3e42e2a8	0.19031775
252	0x3c08b1af	0.008343144
253	0xbd5f01ae	-0.05444496
254	0x3bb5cdd6	0.005548219
255	0x3aa6eb2f	0.0012734885

features_extractor.encoder.conv.6.bias f4 [32]
0	0xbd3d6c8f	-0.046246108
1	0xbc077126	-0.008266723
2	0xbb43a578	-0.0029853266
3	0xbbb1356d	-0.00540798
4	0xbc87b71a	-0.016566802
5	0xbba0f155	-0.0049115815
6	0xbb8849ff	-0.0041592116
7	0xbad0c22d	-0.001592701
8	0xbbb8404e	-0.0056229
9	0xbbd8b381	-0.0066131954
10	0xbc23d374	-0.009999145
11	0xbbc193ec	-0.0059075262
12	0x3b23f164	0.0025015706
13	0xbbec211f	-0.007206097
14	0xbb245672	-0.002507594
15	0xbb624a2e	-0.0034529078
16	0x3a8e6be2	0.0010865892
17	0xbc52ac94	-0.012858529
18	0xbcc24102	-0.023712639
19	0xbc6267e6	-0.013818717
20	0xbbbfebc4	-0.005856963
21	0xbb9abaa5	-0.004721957
22	0xbad9f443	-0.0016628582
23	0xbb75c0f5	-0.0037499045
24	0xbc8233a7	-0.01589377
25	0xbba3ac72	-0.0049949223
26	0xbbd2e0ec	-0.006435504
27	0xbae87ce3	-0.0017737414
28	0xba3d9152	-0.0007231432
29	0xbc6067db	-0.013696636
30	0xbc795ff5	-0.015220632
31	0xbb01194d	-0.0019698918

features_extractor.encoder.conv.8.weight f4 [64, 32, 3, 3]
0	0xbdb67c10	-0.08910382
1	0x3daa181f	0.08305382
2	0xbd8645e0	-0.06556296
3	0xbd8cc8b4	-0.068742186
4	0xbbe9f266	-0.007139492
5	0xbd8653af	-0.0655893
6	0x3d503cdf	0.0508393
7	0xbe0476e6	-0.12935981
8	0x3e19e6f5	0.1502951
9	0xbd229caa	-0.039700188
10	0x3d709465	0.05873527
11	0xbca5d180	-0.020241499
12	0xbdd32dc2	-0.10311462
13	0x3e30286b	0.17202918
14	0xbd09ef77	-0.033675637
15	0x3d940f69	0.07229502
16	0x3e15cc06	0.1462861
17	0x3e251f5e	0.16125247
18	0xbdd0cabc	-0.101949185
19	0xbde3123b	-0.110874616
20	0xbe6971c2	-0.22797301
21	0x3e167390	0.14692521
22	0x3dc0abe0	0.094077826
23	0xbe02886f	-0.12747358
24	0x3d5e6163	0.054292094
25	0x3de0a190	0.109683156
26	0x3b12c30c	0.002239409
27	0x3dc558dd	0.0963609
28	0xbcc187ce	-0.023624327
29	0xbd385103	-0.044999134
30	0xbde15744	-0.11002973
31	0xbd6bf13e	-0.057603113
32	0xbccd3004	-0.02504731
33	0xbbc976f9	-0.006148216
34	0x3d40dfb0	0.047088325
35	0xbcfdcdd0	-0.030981928
36	0x3d1fd9bd	0.03902601
37	0xbda58075	-0.08081142
38	0xbdb8da63	-0.09026029
39	0x3d37b428	0.044849545
40	0xbc82a982	-0.015949968
41	0x3c174999	0.009233856
42	0xbd582446	-0.052768968
43	0x3dccdf53	0.10003533
44	0x3d8ea51f	0.06965088
45	0xbdedd6e7	-0.11613255
46	0xbcb59146	-0.022163998
47	0xbd1d04a0	-0.03833449
48	0xbcbfbd94	-0.023405828
49	0xbd9286b5	-0.071545996
50	0x3d69442c	0.05694978
51	0x3a60af79	0.00085710693
52	0xbdbb1e2c	-0.09136614
53	0x3cf3ba70	0.029751986
54	0xbbfa9a0c	-0.0076477583
55	0x3d4d1456	0.050068222
56	0xbde755fc	-0.11295697
57	0xbd3bdf26	-0.045867108
58	0x3e0def1b	0.13860743
59	0x3e589bc4	0.2115317
60	0x3d488551	0.048955265
61	0x3d213a42	0.0393622
62	0x3e32319c	0.17401737
63	0x3df13919	0.11778469
64	0x3c83c83d	0.016086692
65	0xbd5d47b6	-0.054023467
66	0xbd804c0c	-0.06264505
67	0xbd5754c9	-0.05257109
68	0x3cdb4c13	0.026769673
69	0x3d07badc	0.033137187
70	0x3daf15aa	0.08549054
71	0x3e059f62	0.13049081
72	0xbce7edc0	-0.02831161
73	0x3db90a76	0.090351984
74	0x3dd29b24	0.10283497
75	0xbe0486ea	-0.1294209
76	0x3d3749f9	0.04474828
77	0x3d98f8f7	0.07469361
78	0xbd40e50b	-0.047093432
79	0x3e6d06f3	0.23147182
80	0x3db951bc	0.09048793
81	0x3d548b55	0.05189069
82	0x3cbd20eb	0.023086986
83	0xbd3a6fad	-0.04551666
84	0x3dab290a	0.08357437
85	0xbdf242b6	-0.1182913
86	0x3dba7150	0.09103644
87	0x3dcba72f	0.09943997
88	0x3d67a62f	0.05655497
89	0x3e097145	0.13422115
90	0x3d453ede	0.048155658
91	0x3a9962e0	0.0011702441
92	0xbd76f303	-0.060290348
93	0x3d376ed9	0.044783447
94	0xbe5f53e6	-0.21809348
95	0xbd0c5772	-0.03426308
96	0x3e2c2502	0.16810992
97	0xbc53607d	-0.012901423
98	0xbe15cb48	-0.14628327
99	0xbcfa00d9	-0.030517982
100	0x3cc1d2ce	0.02366009
101	0xbc64395e	-0.013929693
102	0xbccd22fa	-0.025041092
103	0x3c98e40e	0.018663432
104	0xbc8218c3	-0.015880948
105	0xbe730881	-0.23733713
106	0x3d6abad0	0.057307065
107	0xbd49bd23	-0.04925264
108	0xbd0d513d	-0.034501303
109	0xbb517e5d	-0.0031966188
110	0x3dacd30d	0.08438692
111	0xbd9e496c	-0.07728848
112	0x3cf0fff8	0.02941893
113	0xbd2c8d45	-0.042126913
114	0xbd0536e1	-0.03252304
115	0xbbfee000	-0.0077781677
116	0x3d3b468d	0.04572158
117	0xbd084ee1	-0.03327835
118	0xbbb79d71	-0.0056034853
119	0x3be4128b	0.0069602183
120	0xbcfbfd31	-0.03076038
121	0x3de6411e	0.11242889
122	0x3d2b090b	0.04175667
123	0xbc3637df	-0.011121719
124	0x3d0204cc	0.031742856
125	0x3e5915e8	0.21199763
126	0xbe04bc5e	-0.12962481
127	0x3def0cce	0.11672364
128	0xbd88894f	-0.066668145
129	0x3c2039a2	0.009779366
130	0x3dea40ed	0.11438165
131	0xbe9bdc28	-0.30441403
132	0x3ce8640d	0.02836802
133	0xbd869942	-0.065722
134	0xba156801	-0.0005699397
135	0x3d17955a	0.037007667
136	0x3e471426	0.1944128
137	0x3d696656	0.05698236
138	0xbdbce5d0	-0.09223521
139	0x3d32464c	0.04352407
140	0xbe013ace	-0.12620088
141	0xbe1f6172	-0.15564516
142	0xbd4108c5	-0.047127504
143	0x3c9e3a98	0.019315049
144	0xbd8255f5	-0.06364051
145	0x3dd26fca	0.10275228
146	0x3d010451	0.031498257
147	0xbe2b06a2	-0.16701749
148	0x3de04b9a	0.1095192
149	0x3d40d25d	0.047075618
150	0xbd80b817	-0.06285112
151	0x3e1386a0	0.14406824
152	0xbdcc3fe5	-0.099731244
153	0xbe0aa564	-0.13539654
154	0x3df92fbf	0.1216731
155	0xbdc5cca7	-0.09658175
156	0xbd188d2d	-0.03724401
157	0x3bff1352	0.0077842856
158	0xbd6138b2	-0.05498571
159	0x3cb7069e	0.022342023
160	0xbda47968	-0.08030969
161	0x3ca2f064	0.019890018
162	0x3d6c7383	0.057727348
163	0xbd704041	-0.058655027
164	0xbe353cec	-0.17699021
165	0xbd226bfc	-0.039653763
166	0xbe0245f2	-0.12721995
167	0x3cfdf6e0	0.031001508
168	0x3e31d2a6	0.17365512
169	0x3dcbf1fb	0.099582635
170	0x3d21df8f	0.039519843
171	0xbb8c75e5	-0.004286515
172	0x3cc42b15	0.023946324
173	0x3dba8722	0.09107806
174	0xbc1db9b9	-0.009626799
175	0xbdfbcf34	-0.1229538
176	0x3da96d2d	0.08272777
177	0xbe25e245	-0.16199596
178	0xbce08501	-0.027407171
179	0xbd8f9ab5	-0.0701193
180	0x3cd25785	0.025676498
181	0x3e2028e5	0.156406
182	0x3c16a84d	0.0091953995
183	0x3de16880	0.1100626
184	0x3e4efca1	0.20213558
185	0xbda2c667	-0.079479985
186	0x3dc5c2f9	0.09656329
187	0x3d640bb1	0.055675212
188	0x3cf1000f	0.029418973
189	0x3c9609a8	0.018315151
190	0xbd5b753e	-0.053578608
191	0xbd44dadd	-0.048060287
192	0xbc724c5d	-0.014788714
193	0x3db9a405	0.09064487
194	0xbd61c108	-0.05511573
195	0x3d830ef0	0.063993335
196	0x3dd8db14	0.10588661
197	0x3e37926b	0.17926948
198	0xbdca3840	-0.0987401
199	0x3d025021	0.031814698
200	0xbd86febe	-0.06591557
201	0x3dbf6e40	0.093472004
202	0xbe191684	-0.14949995
203	0xbd8e75e5	-0.0695608
204	0xbca86501	-0.020555975
205	0xbd1cd9fc	-0.038293824
206	0x3d50a011	0.0509339
207	0xbdad3543	-0.084574245
208	0xba43b66a	-0.00074658415
209	0xbcc8eee5	-0.024527976
210	0xbd96406c	-0.07336506
211	0x3dd183ab	0.10230192
212	0xbd8c19a6	-0.068408296
213	0x3cb2e185	0.021836052
214	0x3cfbc579	0.03073381
215	0x3daa2d5c	0.08309433
216	0xbdcfbe2f	-0.101436965
217	0xbdb23b3c	-0.08702704
218	0xbdadb0ee	-0.08481012
219	0xbde0546e	-0.10953604
220	0x3d1b92d7	0.037981834
221	0xbd12150e	-0.03566461
222	0xbc3d73d6	-0.011563262
223	0xbd004043	-0.031311285
224	0x3e4cff8c	0.20019358
225	0xbdefbd39	-0.11706013
226	0x3a8091b7	0.0009809051
227	0x3de3fecd	0.11132584
228	0x3d0bdcae	0.034146003
229	0x3c370ec1	0.011172951
230	0x3e1b48d8	0.15164506
231	0xbd9fee05	-0.078090705
232	0x3b29ec38	0.002592815
233	0xbd013953	-0.03154881
234	0xbd355c0c	-0.044277236
235	0xbd86eddf	-0.06588339
236	0x3cd321cf	0.025772957
237	0xbd821dfb	-0.063533746
238	0xbda6fa99	-0.081532665
239	0xbdf15b6b	-0.11785015
240	0xbe0e0e36	-0.13872609
241	0x3d22575b	0.03963409
242	0x3e5ae2a9	0.21375526
243	0xbde6c272	-0.11267556
244	0xbe04f2cc	-0.12983245
245	0xbd4f8a28	-0.050668865
246	0xbd5e0a6f	-0.05420917
247	0x3dd49d8d	0.10381613
248	0xbdaa4a09	-0.08314902
249	0x3cc9ea72	0.024647925
250	0x3e23cbd7	0.15995727
251	0x3e8645b4	0.26225054
252	0x3d4d693a	0.05014918
253	0xbd360950	-0.044442475
254	0x3d5fb5b0	0.05461663
255	0x3dc6a2a0	0.09698987

features_extractor.encoder.conv.8.bias f4 [64]
0	0xbcac1765	-0.02100725
1	0xbcd0e278	-0.025498614
2	0xbaff26ea	-0.0019466553
3	0xbcd35c03	-0.02580071
4	0xbc85220d	-0.016251588
5	0x394a843d	0.00019313484
6	0x3ab0148a	0.0013433855
7	0x3ca96fe4	0.020683236
8	0xbba25e1a	-0.0049550654
9	0xbd2d502a	-0.04231278
10	0xbc8c9e7b	-0.017165413
11	0x398e9014	0.00027191697
12	0x3b8ec107	0.0043565067
13	0xbbdf6f4b	-0.006818687
14	0xbafba83e	-0.001919992
15	0x3b363106	0.0027800216
16	0x3c3d69b3	0.011560845
17	0xb9e7c26b	-0.00044204606
18	0xb9eaa65c	-0.00044755905
19	0x3c71b4a6	0.014752543
20	0xbaafc05e	-0.001340877
21	0xba49c4a6	-0.00076968444
22	0x3b750bde	0.0037391107
23	0xba868435	-0.001026279
24	0xbc97d9fe	-0.018536564
25	0xbc7f5dbd	-0.015586314
26	0xbc009093	-0.007846969
27	0xbbc0443c	-0.005867509
28	0xbbdc6fca	-0.0067271935
29	0xbc1d0b66	-0.009585237
30	0x3bce7876	0.006300981
31	0xbc95ec32	-0.018301103
32	0xbc7b1282	-0.015324237
33	0xbb11f588	-0.0022271592
34	0xba3c3720	-0.0007179845
35	0xbcb01f01	-0.021499159
36	0xb9804de8	-0.00024472107
37	0xbbd34c3d	-0.0064482973
38	0xbc8c1118	-0.017097995
39	0xbd07a140	-0.033112764
40	0xbcbd637e	-0.02311873
41	0xbc925a2d	-0.017865265
42	0xbbc15385	-0.005899849
43	0x3a03f7a1	0.0005034153
44	0xbd08687f	-0.03330278
45	0xbc066779	-0.008203381
46	0xbbe396fa	-0.006945488
47	0x3ca40608	0.020022407
48	0xbb9a7c5c	-0.004714532
49	0xbb976d25	-0.0046211653
50	0xbb31d107	-0.0027132647
51	0xbc80805c	-0.015686207
52	0xbba87f8f	-0.0051421593
53	0xbbfb8d3a	-0.0076767476
54	0xbbb4e9fa	-0.0055210562
55	0x3b84eb1d	0.004056348
56	0xbb0d746b	-0.0021584283
57	0xbca6791b	-0.02032142
58	0xbb96cd15	-0.0046020844
59	0xbbbfc823	-0.0058527156
60	0xbccf33d6	-0.025293272
61	0xbc957ebe	-0.018248912
62	0xbb7ec765	-0.0038876173
63	0xbc70853c	-0.014680203

features_extractor.encoder.conv.10.weight f4 [128, 64, 3, 3]
0	0xbd15e498	-0.036594957
1	0xbc211111	-0.009830729
2	0xbd486c15	-0.0489312
3	0x3d2a991f	0.041649934
4	0x3d888ae6	0.06667118
5	0xbd19b019	-0.037521455
6	0x3d8bc059	0.06823797
7	0x3bb63958	0.005561035
8	0x3d617a28	0.055048138
9	0xbd815d62	-0.063166395
10	0x3d2d96b8	0.042380065
11	0xbd979a9e	-0.07402538
12	0xbd1c4f3e	-0.03816151
13	0xbc5486c8	-0.0129715875
14	0x3c9c45aa	0.019076187
15	0xbd94306f	-0.072358005
16	0x3d07a39d	0.03311502
17	0xbd3749f7	-0.044748273
18	0xbd8e6e3a	-0.06954618
19	0xbd8e7ede	-0.06957792
20	0xbc08e2c5	-0.008354847
21	0x3d8ef5b6	0.069804594
22	0xbdf93f36	-0.1217026
23	0x3d1ba04b	0.037994664
24	0xbd7ef374	-0.062243894
25	0xbd92e010	-0.07171643
26	0x3e61c4ed	0.22047777
27	0xbd44dafa	-0.048060395
28	0x3d34dc1f	0.044155236
29	0x3ca5ba68	0.020230487
30	0x3d436ba7	0.047710087
31	0xbd152197	-0.036408987
32	0x3c0cef75	0.008602013
33	0xbd81b7ff	-0.063339226
34	0xbe0e0970	-0.13870788
35	0xbc09344d	-0.008374286
36	0xbd218652	-0.03943474
37	0x3d02d41f	0.031940576
38	0x3dbcb0db	0.0921342
39	0x3d54e07c	0.051971897
40	0xbdc26613	-0.09492125
41	0xbd6b157c	-0.057393536
42	0x3dd3d025	0.10342435
43	0xbcbd1523	-0.023081368
44	0xbcd4aecf	-0.025962261
45	0xbd879f23	-0.0662215
46	0x3c954357	0.018220587
47	0x3d88b6e2	0.06675507
48	0xbd551224	-0.052019253
49	0x3d48acdc	0.048992977
50	0x3ced54b5	0.028971056
51	0x3d008b79	0.03138301
52	0xbc83fa45	-0.016110549
53	0xbda653bd	-0.081214406
54	0xbdaf92ef	-0.08572947
55	0xbd8176d1	-0.063214906
56	0xbccc0adc	-0.024907522
57	0xbb9138fc	-0.004431842
58	0xbde7afaa	-0.11312802
59	0x3d6763a2	0.0564915
60	0x3d83ec8e	0.064416036
61	0x3cd52d6f	0.026022641
62	0x3df456d8	0.11930627
63	0xbda9cba4	-0.082907945
64	0xbdce3556	-0.10068767
65	0x3d1d35e4	0.038381472
66	0xbbdc4585	-0.0067221546
67	0x3d9f8816	0.07789628
68	0xbe341e29	-0.1758963
69	0x3d40129d	0.04689275
70	0x3d923d27	0.0714057
71	0x3ddd6587	0.108103804
72	0xbc48ac8d	-0.012248171
73	0x3d83a32c	0.06427607
74	0x3d8e40cb	0.06945952
75	0xbb31b560	-0.0027116165
76	0xbe0a81c5	-0.13526066
77	0x3d9e8a3d	0.077412106
78	0xbd4a38a6	-0.04937043
79	0xbda006ef	-0.078138225
80	0xbe41742c	-0.18891972
81	0x3dc81473	0.097695254
82	0x3d25f077	0.04051253
83	0x3d234ff2	0.039871164
84	0xbd397f50	-0.04528743
85	0x3d81f65e	0.06345819
86	0xbd81967e	-0.06327532
87	0x3b26b0d4	0.0025434988
88	0xbce26c58	-0.027639553
89	0x3c4f4483	0.012650612
90	0xbc25e2df	-0.010124891
91	0xbdcd6b60	-0.10030246
92	0x3c9bd9bc	0.019024722
93	0x3ca09f82	0.01960731
94	0x3e00b4aa	0.12568918
95	0xbd989fbe	-0.074523434
96	0xbd5d1c8f	-0.053982314
97	0x3ccbd239	0.024880515
98	0x3e2feefb	0.17181008
99	0x3d20c747	0.039252546
100	0x3cd76a19	0.026295708
101	0x3d9bfdbf	0.076167576
102	0x3d31c675	0.043402154
103	0x3e1cd71c	0.15316433
104	0x3da41fdf	0.080138914
105	0x3d311408	0.043231994
106	0xbda32108	-0.079652846
107	0x3cc4e841	0.024036529
108	0xbdc379c8	-0.09544712
109	0xbdf189ab	-0.11793836
110	0xbda3e2f1	-0.0800227
111	0xbd137083	-0.03599597
112	0x3c3617f8	0.011114113
113	0x3d84efe1	0.06491066
114	0xbd89f33f	-0.06735849
115	0xbdb65336	-0.0890259
116	0x3dd8de88	0.105893195
117	0xbcc8c5ce	-0.024508383
118	0x3de5efe5	0.11227397
119	0x3db22604	0.08698657
120	0x3c892f20	0.016746104
121	0x3da646af	0.081189506
122	0xbc965ace	-0.018353846
123	0x3da8fd2e	0.08251415
124	0xbd826d64	-0.06368521
125	0xbe12be61	-0.14330436
126	0x3d743e71	0.05962986
127	0x3d196fc5	0.037460107
128	0x3ccc279b	0.02492123
129	0xbbe679fa	-0.0070335837
130	0xbcebd711	-0.028789075
131	0xbd4dc537	-0.050236907
132	0x3d22ca09	0.039743457
133	0x3c698ef4	0.014255274
134	0xbd624bc7	-0.05524805
135	0x3d231610	0.039815962
136	0xbc96997f	-0.01838374
137	0xbda5dfa1	-0.080992945
138	0xbcc3bf17	-0.02389483
139	0x3d838a87	0.06422906
140	0xbd5cd315	-0.05391224
141	0xbd352522	-0.044224866
142	0x3bf80b46	0.0075697033
143	0xbddb8ca3	-0.10720184
144	0xbd185dc7	-0.037198808
145	0x3c66e8fc	0.014093634
146	0xbce4c128	-0.027924135
147	0xbd24ddcc	-0.040250584
148	0x3daca2df	0.08429503
149	0xbdc9501c	-0.09829733
150	0xbc1e8233	-0.009674597
151	0xbd2b8714	-0.041876867
152	0x3de31b9d	0.11089251
153	0xbde20274	-0.11035624
154	0xbb7c15bf	-0.003846511
155	0xbdb903d8	-0.09033936
156	0x3c2c177c	0.010503646
157	0xbbf81862	-0.007571266
158	0x3e061ca1	0.13096859
159	0xbda354cf	-0.0797516
160	0x3cf62d53	0.03005091
161	0x3d095e14	0.033536986
162	0xbd397254	-0.045275047
163	0x3d1b3f1e	0.03790199
164	0x3e023ef1	0.12719323
165	0x3cdaf880	0.026729822
166	0x3dc99963	0.09843709
167	0xbd48d346	-0.04902961
168	0xbc3d7c76	-0.011565318
169	0xbe0b4409	-0.13600172
170	0xbda778ac	-0.08177313
171	0x3c9fbccd	0.019499207
172	0xbaaee6f2	-0.0013343974
173	0x3d2befe9	0.041976843
174	0x3dc916d0	0.09818804
175	0x3dc9de60	0.09856868
176	0xbc400959	-0.011720979
177	0xbcdc77bc	-0.026912563
178	0xbd57f4ca	-0.052723683
179	0xbe01729e	-0.12641379
180	0xbda14161	-0.07873798
181	0x3d04bcd0	0.032406628
182	0xbc6d18da	-0.014471257
183	0x3df5f8a8	0.12010318
184	0xbd0e26df	-0.03470504
185	0x3cb75c61	0.022382917
186	0x3b92262b	0.0044601164
187	0x3d4c032b	0.04980771
188	0x3dc5c2ed	0.0965632
189	0xbcd8ca9d	-0.026463801
190	0x3d676bbe	0.056499235
191	0xbd003707	-0.03130248
192	0xbc05571a	-0.008138442
193	0x3ddf0a26	0.108906075
194	0xbd65a88f	-0.056068953
195	0x3d4abc2b	0.049495857
196	0xbdd6d315	-0.104894795
197	0x3cd677e0	0.026180208
198	0x3c082d25	0.008311545
199	0x3da3abda	0.079917625
200	0xbda24cdf	-0.07924818
201	0x3e06634b	0.13123815
202	0xbd9077a6	-0.07054071
203	0x3d05c9d8	0.032663196
204	0x3d27335d	0.04082047
205	0xbe2c97c6	-0.16854772
206	0xbd8bcbe6	-0.06826
207	0x3d02258f	0.0317741
208	0x3c6fbf59	0.014633023
209	0xbbac7f41	-0.0052641933
210	0xbce5907f	-0.028023003
211	0x3d7630ef	0.06010526
212	0xbdb98d27	-0.09060126
213	0xbd65a604	-0.056066528
214	0xbcb5f7fe	-0.022212978
215	0x3d333425	0.0437509
216	0x3c8e508e	0.017372396
217	0x3d9a1327	0.07523184
218	0x3c81e0a9	0.015854197
219	0x3c893281	0.016747715
220	0x3dac3000	0.08407593
221	0xbdd84de8	-0.105617344
222	0xbb0f9f2e	-0.0021914947
223	0x3b83d435	0.0040231
224	0xbd1aeffd	-0.037826527
225	0xbca75886	-0.020427953
226	0x3d1dda74	0.03853841
227	0x3d69fa78	0.05712363
228	0x3ccf04d4	0.025270857
229	0x3cbfa405	0.02339364
230	0xbd89e816	-0.0673372
231	0xbdd6bb23	-0.10484912
232	0xbb954dea	-0.004556407
233	0xbd577ed2	-0.05261118
234	0xbd3ea4bb	-0.046543818
235	0x3d072d30	0.03300208
236	0xbdecb755	-0.11558405
237	0x3defe6f3	0.11713972
238	0xbd0d4ad3	-0.034495186
239	0x3ddccca4	0.107812196
240	0x3cab247c	0.02089142
241	0xbcc9a219	-0.024613427
242	0x3e2913f1	0.16511513
243	0x3c617afd	0.013762233
244	0x3e09400c	0.13403338
245	0x3c28a456	0.010293087
246	0xbc935aac	-0.017987572
247	0x3ced2cbd	0.028951997
248	0x3c1eae14	0.009685058
249	0xbda48d0e	-0.080347165
250	0xbb880c41	-0.0041518514
251	0xbdfd42e4	-0.12366274
252	0x3ce1ee7c	0.027579539
253	0x3d921d9e	0.07134555
254	0x3c55771c	0.013028886
255	0x3d28f385	0.041247863

features_extractor.encoder.conv.10.bias f4 [128]
0	0xbc59d40f	-0.013295188
1	0xbba0a6b3	-0.0049026846
2	0xbb681e1c	-0.0035418337
3	0xbc1737f9	-0.0092296535
4	0x3b8ceafd	0.0043004737
5	0xbc52c235	-0.012863685
6	0xbb2aad36	-0.0026043183
7	0xbd0c9207	-0.03431895
8	0xbcf5a971	-0.029988023
9	0x3a1e47ef	0.00060379406
10	0xbc8deaaf	-0.01732382
11	0xbd0a3aef	-0.03374761
12	0xbcbab4e9	-0.022791343
13	0xbcf31bfa	-0.029676426
14	0xbc4af864	-0.0123883225
15	0xbbf039b5	-0.007331098
16	0xbc840104	-0.016113766
17	0xbb27a518	-0.0025580581
18	0x3c7cd258	0.015431009
19	0xbcbc511d	-0.022987897
20	0xbb31c8e4	-0.0027127797
21	0x3c9624e9	0.018328147
22	0x3b749e54	0.0037325816
23	0xbc8e0501	-0.01733637
24	0xbc5610a7	-0.013065494
25	0x3a529e81	0.0008034483
26	0xbc4aa65f	-0.0123687675
27	0xbbff9153	-0.0077993064
28	0xbcabf665	-0.020991514
29	0xbb5dc81f	-0.0033841205
30	0xbc097dde	-0.0083918255
31	0xbc8896e5	-0.016673515
32	0x3b4d883d	0.0031361722
33	0xbbefcfbb	-0.0073184646
34	0xbb739fc8	-0.0037174094
35	0xbc8e46e9	-0.017367797
36	0xbc34fbb4	-0.011046339
37	0x3c0f9875	0.008764376
38	0x3cc05c46	0.0234815
39	0xbc14de06	-0.009086138
40	0xbb3beb48	-0.0028674174
41	0xbbc5cd3e	-0.0060364297
42	0xbc720e82	-0.014773967
43	0xbce869fa	-0.028370846
44	0xbcf33330	-0.029687494
45	0xbcbfd759	-0.023418115
46	0xbc29598c	-0.010336291
47	0xbc658fee	-0.014011366
48	0xbc07a7c4	-0.008279745
49	0xbab20d1b	-0.0013584228
50	0xbbcc7ac4	-0.0062402207
51	0xbc929a56	-0.017895859
52	0x3d34d24a	0.04414586
53	0xbc002c64	-0.007823084
54	0xbc1aa5e1	-0.009438963
55	0xbc54b2cd	-0.012982083
56	0xbcbc127c	-0.022958033
57	0xbcc55c0e	-0.024091747
58	0xbbe812f9	-0.00708234
59	0xbd0abb3c	-0.033869967
60	0xbcdcd3cd	-0.026956463
61	0xbc85be02	-0.016325954
62	0xbc49dbad	-0.012320441
63	0xbcb7d02a	-0.022438128
64	0xbcd2ef21	-0.025748791
65	0xbb52bf6c	-0.0032157553
66	0xbc18112d	-0.009281439
67	0xbbfaed49	-0.007657681
68	0xbc308d74	-0.010775913
69	0xbcd0ddec	-0.025496446
70	0xbd0d109c	-0.034439668
71	0xbc957f79	-0.01824926
72	0xbb8ad0a1	-0.0042362963
73	0xbcf4173f	-0.02979624
74	0xbcb77fbf	-0.022399781
75	0xbcc6e0d6	-0.024277132
76	0xbcaa218a	-0.020767946
77	0xbb41c41f	-0.002956636
78	0xbc584a52	-0.013201313
79	0xbb5d32be	-0.0033752169
80	0xbc70024e	-0.014648987
81	0xbc347c95	-0.011016031
82	0xbc3e2046	-0.011604374
83	0xbc44b26d	-0.012005431
84	0xbcd1e38c	-0.025621198
85	0xbac37a0b	-0.0014913691
86	0xbc122698	-0.008920334
87	0xbc4415fc	-0.011968132
88	0xbc828e30	-0.01593694
89	0xbcca6480	-0.024706125
90	0xbb4bfc56	-0.0031125746
91	0xbbe4ff63	-0.0069884523
92	0xbc3e1e8e	-0.0116039645
93	0xbc8a1355	-0.016854921
94	0xbcba7b82	-0.022763971
95	0xbd589180	-0.052873135
96	0x3cb98b0a	0.022649307
97	0xbc5212da	-0.012821877
98	0xbccfa15d	-0.025345499
99	0xbc8f8f74	-0.017524458
100	0xbc17f782	-0.009275319
101	0xbd24843c	-0.04016517
102	0xbd07d960	-0.03316629
103	0xbc314c8f	-0.010821476
104	0xbcb81b77	-0.022474034
105	0xbc32780d	-0.01089288
106	0xbbdbac87	-0.0067039165
107	0xba30af19	-0.0006739959
108	0xbc1a375f	-0.009412616
109	0xbb2c6523	-0.00263054
110	0xbcca7a59	-0.024716543
111	0x3b851e96	0.004062484
112	0xbbd8571f	-0.0066021825
113	0xbab64e18	-0.0013908772
114	0xbbfacaac	-0.007653555
115	0xbc2c00bb	-0.010498221
116	0xbaa2ae8b	-0.0012411637
117	0xbb61b26a	-0.0034438618
118	0xbce5426d	-0.027985776
119	0xbbc9691c	-0.006146563
120	0xbbcb929c	-0.0062125456
121	0xbb2a9a59	-0.002603194
122	0xbc6673bb	-0.014065678
123	0x3afbf38e	0.0019222365
124	0xbb61eb78	-0.0034472626
125	0xbc823534	-0.01589451
126	0x3c7a551c	0.015279081
127	0x3b25b3e2	0.002528422

features_extractor.encoder.fc.weight f4 [64, 128]
0	0xbe1cc84c	-0.15310782
1	0xbdc584be	-0.09644459
2	0x3d02141d	0.031757463
3	0xbeb61978	-0.35566306
4	0x3e585e9e	0.21129844
5	0x3d0ab1c0	0.03386092
6	0x3c9063f1	0.01762578
7	0xbe265740	-0.1624422
8	0x3e1b087d	0.15139957
9	0xbd9e5baa	-0.07732327
10	0xbc251bea	-0.010077456
11	0x3daeff7a	0.08544822
12	0x3db53792	0.0884849
13	0x3e1604ec	0.14650315
14	0xbe00b453	-0.12568788
15	0xbd2bce3c	-0.041944727
16	0x3da66164	0.081240445
17	0xbe97d99b	-0.29658207
18	0x3e2e4092	0.17016819
19	0x3d2a11ba	0.04152081
20	0xbcb6a944	-0.022297509
21	0xbcb1b1e9	-0.02169128
22	0x3d539d0d	0.051663447
23	0xbd5f64ce	-0.054539494
24	0x3dd5d3af	0.10440766
25	0x3d17905e	0.037002914
26	0x3e74399c	0.23850101
27	0xbddd0c49	-0.10793359
28	0x3ddc516c	0.107577175
29	0xbddb0640	-0.106945515
30	0x3d957548	0.0729776
31	0xbd52fa8d	-0.051508475
32	0xbe5df80c	-0.21676654
33	0xbe057c71	-0.13035752
34	0xbe0623f5	-0.13099654
35	0xbe282b52	-0.16422775
36	0xbd69651e	-0.0569812
37	0x3cd2a767	0.02571459
38	0x3de1db3c	0.11028144
39	0x3d17fe18	0.037107557
40	0x3cc14a89	0.023595111
41	0xbd427f2a	-0.047484554
42	0xbd699169	-0.05702344
43	0xbd98b8e1	-0.07457138
44	0xbd5d044e	-0.053959183
45	0x3d1c9a69	0.038233195
46	0x3e31b1ea	0.17353025
47	0xbe0d9b33	-0.13828735
48	0xbcd9899a	-0.026554871
49	0xbdb6d70d	-0.089277364
50	0xbd167659	-0.03673396
51	0x3dadb25f	0.08481287
52	0xbe004644	-0.12526804
53	0xbe458e0e	-0.19292471
54	0x3e171446	0.14753827
55	0xbe1e84fd	-0.15480419
56	0x3d2babed	0.041912008
57	0xbc578cc8	-0.013156123
58	0x3c52a04b	0.0128556
59	0x3e7749e6	0.24149284
60	0xbd590980	-0.052987576
61	0xbdd78346	-0.10523085
62	0x3e3e2c96	0.18571696
63	0x3d5f14a9	0.054463062
64	0xbdb5351e	-0.08848022
65	0x3e98f68b	0.29875597
66	0xbdc5efec	-0.09664902
67	0xbdd9c935	-0.1063408
68	0x3e3c9df9	0.18419637
69	0x3e41f9d2	0.18942955
70	0x3dc3a8bf	0.0955367
71	0xbe833140	-0.25623512
72	0x3e937fe2	0.28808504
73	0xbdca0dc3	-0.09865906
74	0xbe2a6c32	-0.16642836
75	0x3e032bb2	0.12809637
76	0x3e84d476	0.25943345
77	0xbcc44d49	-0.023962634
78	0x3e0c4650	0.13698697
79	0xbe3b7aa9	-0.1830851
80	0x3de927bf	0.11384534
81	0x3dc57dbc	0.096431226
82	0xbde3400c	-0.110962
83	0x3e4d3cce	0.20042726
84	0xbdf2a4e1	-0.118478544
85	0xbe062919	-0.13101615
86	0xbdc8e872	-0.098099604
87	0xbda582ee	-0.080816135
88	0xbdb715dc	-0.08939716
89	0xbe3807c3	-0.17971711
90	0xbdecc7a6	-0.115615174
91	0x3da6fdbe	0.08153866
92	0x3e1245e9	0.14284481
93	0x3d1cb6f1	0.038260404
94	0x3daf25f1	0.085521586
95	0xbdb8d5f0	-0.0902518
96	0x3d993ddb	0.07482501
97	0xbe8f6884	-0.28009427
98	0x3ce8e056	0.028427284
99	0xbd89d19f	-0.06729435
100	0x3c2bcbc5	0.010485594
101	0x3d947a8b	0.07249936
102	0xbd491840	-0.049095392
103	0xbe94f323	-0.2909175
104	0xbd8e4daa	-0.06948407
105	0x3cb48bac	0.022039257
106	0x3e697515	0.2279857
107	0xbe6ffc48	-0.23436081
108	0x3dede2f1	0.11615551
109	0x3e0251ae	0.12726471
110	0x3cef2960	0.029194534
111	0x3e00f039	0.12591638
112	0xbe248165	-0.16064985
113	0x3d91d800	0.07121277
114	0x3d0cdee6	0.03439226
115	0xbcb3f8fa	-0.021969307
116	0x3c1397c9	0.009008356
117	0xbd140ee9	-0.036147032
118	0xbd2687c1	-0.04065681
119	0xbe84ecff	-0.25962064
120	0x3a441dbe	0.00074812386
121	0x3e2a6d5b	0.16643278
122	0xbd822174	-0.06354037
123	0x3e0920e0	0.13391447
124	0x3d451ada	0.04812131
125	0x3da2ad03	0.079431556
126	0xbe63a067	-0.22229157
127	0x3e98191a	0.2970665
128	0xbdbb0cb6	-0.09133284
129	0xbe381c56	-0.1797956
130	0x3c0e4cee	0.008685334
131	0x3e334d7a	0.17510024
132	0x3da6bf57	0.08141964
133	0x3a248ca2	0.00062770594
134	0xbd1b72b6	-0.037951194
135	0xbcb95d79	-0.022627579
136	0x3cffeadc	0.03123992
137	0x39998630	0.00029282412
138	0x3c889205	0.01667119
139	0x3e38da46	0.18052015
140	0x3d5c9375	0.053851563
141	0xbe938da0	-0.2881899
142	0x3d21a4d6	0.03946384
143	0x3c4cde94	0.012504239
144	0xbc669455	-0.014073451
145	0x3dc4c6f1	0.096082576
146	0x3e1e7adb	0.15476553
147	0xbda602d9	-0.08106012
148	0xbe502aaf	-0.20328782
149	0xbe58fb16	-0.21189532
150	0xbe37ca23	-0.17948203
151	0xbe9331f5	-0.28749052
152	0xbd071645	-0.032980222
153	0xbd84332e	-0.06455074
154	0x3e1b7b71	0.15183808
155	0xbe09d660	-0.13460684
156	0x3d7be938	0.06150171
157	0xbdd14e5f	-0.10220026
158	0x3c8c3b93	0.017118251
159	0xbdf65753	-0.120283745
160	0x3d092b31	0.033488456
161	0x3e3e71f2	0.18598154
162	0x3dfbeeb2	0.12301387
163	0xbbcdb5f5	-0.0062777945
164	0xbdc4011b	-0.09570523
165	0xbd93c269	-0.07214815
166	0xbdac4c87	-0.08413034
167	0xbe43428e	-0.19068357
168	0x3dda2da9	0.1065324
169	0xbea8e2f5	-0.32985654
170	0x3cedead1	0.029042633
171	0x3e8fdb52	0.28097016
172	0x3dd3b0a1	0.10336424
173	0xbc51e16c	-0.012810092
174	0x3e015508	0.12630093
175	0x3e208689	0.15676321
176	0x3b8a1166	0.0042135
177	0xbdfb92c9	-0.122838564
178	0x3e8123b1	0.25222543
179	0x3d0de757	0.03464445
180	0xbe751fad	-0.23937865
181	0xbe57be92	-0.2106879
182	0xbc9fcc5f	-0.019506631
183	0x3d775f47	0.060393598
184	0xbd960f85	-0.07327179
185	0x3c7bb9db	0.015364136
186	0xbecae854	-0.39630377
187	0xbb97af71	-0.0046290685
188	0x3de8f7be	0.11375378
189	0xbe8dc6d8	-0.27690768
190	0x3d18b00a	0.03727726
191	0x3d22088e	0.03955894
192	0xbdd22ddf	-0.102626555
193	0x3cea6d32	0.028616522
194	0xbe2f611f	-0.17126893
195	0x3db86835	0.09004251
196	0x3db04533	0.08606949
197	0xbd529f73	-0.051421594
198	0x3df5a2e6	0.11993961
199	0xbd942c62	-0.07235028
200	0x3dda4d2d	0.10659251
201	0x3d88f23b	0.06686827
202	0x3c87540d	0.01651957
203	0x3cc74695	0.024325648
204	0xbdb3aa13	-0.087726735
205	0xbdd9b477	-0.10630124
206	0x3cff10d2	0.03113595
207	0x3db5a4b3	0.088693045
208	0xbd1762cf	-0.036959466
209	0xbd0f7499	-0.035023306
210	0xbe130d21	-0.14360477
211	0xbdf07f68	-0.11743051
212	0x3e774689	0.24148001
213	0xbd89e437	-0.06732982
214	0x3e45375b	0.19259398
215	0x3c7dbda3	0.015487107
216	0x3d9a16b9	0.07523865
217	0xbdc0a2d0	-0.09406054
218	0xbd4a5568	-0.049397856
219	0xbcf9c23a	-0.030488122
220	0xbdd52df1	-0.10409153
221	0xbd62bcf4	-0.05535598
222	0xbd6bc115	-0.057557184
223	0xbdabd4b0	-0.08390176
224	0xbdf85d22	-0.12127139
225	0xbe1f3950	-0.15549207
226	0x3c657947	0.014005966
227	0x3e26fb8c	0.16306895
228	0x3e265972	0.16245058
229	0xbdaca5c5	-0.084300555
230	0xbd667846	-0.056267045
231	0x3d5e16ca	0.054220952
232	0x3e26ba54	0.16282016
233	0x3e0da0a2	0.13830808
234	0x3d2aa417	0.041660395
235	0x3e773422	0.24140981
236	0xbe666955	-0.22501118
237	0xbe16a841	-0.14712621
238	0xbe6e3cea	-0.23265424
239	0x3db516a5	0.0884221
240	0xbe07a8f4	-0.13248044
241	0xbc123b4a	-0.008925268
242	0x3d104b5e	0.035228126
243	0xbe72504a	-0.2366344
244	0xbca67f60	-0.020324409
245	0x3bf52453	0.007481137
246	0x3d262208	0.0405598
247	0xbe9095cb	-0.28239283
248	0x3dc8b4dc	0.09800121
249	0x3e73db8a	0.23814216
250	0x3d0465d8	0.03232369
251	0xbe718607	-0.23586284
252	0xbe2b9ddc	-0.16759437
253	0xbb5dfdaf	-0.003387313
254	0x3dc66835	0.09687845
255	0x3d644d20	0.055737615

features_extractor.encoder.fc.bias f4 [64]
0	0x3c6c1c6b	0.014411072
1	0x3ae6fef5	0.001762359
2	0x3bf4b673	0.0074680387
3	0xbba289d1	-0.0049602767
4	0x3c78455c	0.015153255
5	0x3a917aaf	0.0011099185
6	0x3c019663	0.00790939
7	0x3b4ffb97	0.0031735653
8	0xbba576b3	-0.0050495504
9	0x3c285ff4	0.010276783
10	0x3b97ba02	0.004630328
11	0xb8ddf4af	-0.00010583677
12	0x3bd5f81b	0.0065298206
13	0x3cb4d2d5	0.022073189
14	0x3c023e88	0.007949479
15	0xbc0d6395	-0.008629699
16	0xbc38813e	-0.0112612825
17	0xbb366224	-0.0027829492
18	0x3af78336	0.0018883708
19	0x3c796e52	0.015224056
20	0x3c8b2f81	0.016990425
21	0xbc799dc5	-0.015235369
22	0xbaacd938	-0.0013187295
23	0x3bcf6a16	0.006329785
24	0xbc33c109	-0.010971316
25	0xba3abb89	-0.0007123282
26	0xbba308d3	-0.004975417
27	0x3be06431	0.0068478812
28	0xbb972897	-0.004612993
29	0x3b84c953	0.00405232
30	0x3cb55a3d	0.022137756
31	0xbc46a413	-0.012124079
32	0xbbca41bc	-0.006172387
33	0x3c47b17f	0.012188314
34	0x38a92c67	8.0668186e-05
35	0xbbb2ae65	-0.0054529184
36	0xbc2fe3d2	-0.010735469
37	0xbb0c1226	-0.0021373122
38	0x3b12b2ac	0.0022384329
39	0x3c4e5880	0.012594342
40	0xbc94d44e	-0.018167641
41	0x3c03c0e6	0.008041596
42	0x3bf297da	0.007403356
43	0x3ba3dc87	0.005000654
44	0xbaa85b1c	-0.0012844536
45	0xb9cec928	-0.00039441255
46	0x3b9540bf	0.0045548375
47	0x38c74a6a	9.50292e-05
48	0xbc8823fb	-0.01661872
49	0x3b697e39	0.0035628213
50	0x3bc37dbb	0.005965916
51	0xbbba29a5	-0.005681234
52	0x3c730a94	0.014834065
53	0x3cac7c31	0.021055313
54	0x3c34f333	0.011044311
55	0x3a3dc2c6	0.00072388013
56	0x3c031262	0.007999988
57	0xba644764	-0.0008708148
58	0xbb8feb81	-0.004392088
59	0xbbff00f7	-0.0077820974
60	0xbc4b2655	-0.012399276
61	0x3b6559fe	0.0034996266
62	0x3ba1ec71	0.004941516
63	0x3ba7f506	0.0051256446
