weights/reward_prediction_finetune-nd-0-eps-400.pth (torch, 463275 bytes, 24 tensors)

log_std f4 [2]
00000000: 79b5 683e 2186 eb3d
0.22725476 0.115001924

features_extractor.encoder.conv.0.weight f4 [4, 1, 3, 3]
00000000: 5fa1 a83d 1abd 883e d89d 22be 6f17 ef3e
00000010: 76e1 13bf 65df b0be ad25 4d3f 9a56 e7bc
00000020: 4982 f83c 5c79 e73d 825d 01bf 8ffa 043f
00000030: 2cf1 2cbf 3523 31bd 64af 163e 01b6 3c3e
00000040: b621 1b3f abae a1be 38a1 94bd 85c8 a53f
00000050: 17ca 323f 7a54 36be 212e 85be 3891 73be
00000060: 0c75 413d 0669 abbe 8595 c4bd 760f c53d
00000070: be52 783d 418b 293e b2a4 033f 9202 6a3e
00000080: dbf9 763d 7308 1c3f adb4 f73e 2278 1abf
0.08233904 0.26706773 -0.15880525 0.46697566 -0.577659 -0.34545437 0.80135614 -0.028239537
0.030335562 0.11302444 -0.50533307 0.5194482 -0.675555 -0.043246467 0.14715344 0.18428804
0.60598314 -0.31578574 -0.072573125 1.2951819 0.69839615 -0.17805663 -0.26011756 -0.23785865
0.047230765 -0.33478564 -0.09598831 0.096220896 0.060625784 0.16557027 0.5142318 0.22852543
0.060296874 0.6095039 0.48380032 -0.6033956

features_extractor.encoder.conv.0.bias f4 [4]
00000000: a126 6cbd 216b 2cbc a897 19bd f109 91bd
-0.057654027 -0.010523588 -0.037498146 -0.07081974

features_extractor.encoder.conv.2.weight f4 [8, 4, 3, 3]
00000000: afee 2f3e 1b3d 933e c57d 42be 53cc 1dbd
00000010: 6ced 8cbd b757 6ebe 897e 3bbe 5c32 26be
00000020: 379b ac3c ea9a d13d b3ed c13e 74d5 b6bd
00000030: 8983 fabc 4eb7 253e 34ed 873e c6db 8c3d
00000040: 11dd c83e 5e93 833e a234 d63e 002f d53e
00000050: 2cd8 17bf c0e1 fe3c eca6 96bd 007b f03e
00000060: c08f 32bd ed4b 84bd 97b3 d73d 78c8 75bd
00000070: 5935 913e 6e42 83be aff4 503c 58f9 bfbe
00000080: 2a32 77bb a01b 20be d758 333e 4e60 593d
00000090: 9ca3 903d 4ad7 7c3e 3ae1 bdbd 3e7e 303d
000000a0: c7a7 7d3e bcbe 97bc 238c 913d f1cd bb3d
000000b0: 5856 b13c c0bf 7cbe 1df1 093e d909 ef3c
000000c0: 4922 ff3c 54e3 a5be 4b2a 013e d546 753e
000000d0: 4996 8cbe 82aa b6bc fc04 3bbe ea3d 2f3e
000000e0: f195 c33e cf9a 40be 0191 163e 8cde b93e
000000f0: 91c0 ebbc d888 ca3d 0fe1 4bbe d08d 5dbe
00000100: 0a07 1fbe cc4f c83e a474 843e 4549 7bbd
00000110: 7948 db3e ef2a c13d 2ff4 d83e a958 33be
00000120: cae4 68bc 82cb 853e dee4 703e 4076 0e3f
00000130: 954d b5be ac10 14bf 0d4e 3f3e d704 513e
00000140: f052 2cbe d83a a23e 4e45 a83d fced f73d
00000150: 3e74 57bd 25c2 623e 0e1b 833e 3d02 973e
00000160: 8544 da3e 23d6 edbd 4dd8 6bbe 6200 aa3e
00000170: f6e4 88bd 92b0 733c 8ebd 26be b6f2 693e
00000180: 5a44 c13d d3df 97be 2d16 bebe a8cc 5fbe
00000190: d10f 83be d1d9 5e3d 25e8 c8be 4f1c 253e
000001a0: f672 fcbd b6d8 a03d 286a 713b bfef 96be
000001b0: 184c 05be f50e ea3e 4a1f e03e 4a15 323d
000001c0: 356f febd d02c 9fbd 6f6f 3abe 2ca8 03bf
000001d0: ff49 08bc d5ff 4d3e 46a2 ce3e 924c e9bd
000001e0: ce2a 083f 60bd 4f3e 1495 66bc 5dab 2cbf
000001f0: 9ae8 01bf 389d 313e 9e3f e03e 99a9 d1bd
00000200: cf31 0dbe 7019 8f3e 9f3d e43b 1bc5 b8be
00000210: 3c58 57be fe9c d5be 61a4 0fbf 4de3 183e
00000220: f933 b5bd 5216 cabe 792f 78bc 2b76 d03d
00000230: 99ff f1be 533e 17be 6545 4c3d cfad 70be
00000240: 0382 3c3e 51bd 33be a376 20be d5a9 e73d
00000250: 77b9 6c3e 2181 b8be 8c25 9bbe 3fbb e43c
00000260: 6049 98bc e7ff d23c ba74 7ebe 97f7 8e3e
00000270: 09fb 5ebe 1f3a 263e 7748 0f3b 4d97 44be
00000280: 56a3 edbd 5f8f 89bd 8100 8fbe 3a03 b7be
00000290: 816c 93be af0b 00be 2187 843e c100 d7be
000002a0: c25c 7fbb 3c99 42be a6f3 d93e e3a1 e03b
000002b0: 76f8 b0bd edce 203e 9881 143e 5093 e93c
000002c0: b8c6 a3bd 89dd 72bd 0738 113e ee24 59be
000002d0: f67c 34bd ec9d 29be 1145 733e 3212 d33d
000002e0: 7561 07be 6c99 763e 4352 d8bd baa3 1b3c
000002f0: 05a6 073d 0cf1 ae3e d747 da3e 1821 433e
00000300: e0d7 863d 8e70 873e 36c5 84bd f26e ebbe
00000310: 490b 8a3e 919b 873e ba5d 9e3e cc13 233e
00000320: 39d4 16be e360 9ebe 45fa 84be 6cef 45be
00000330: ca4c e63e d551 df3c a490 cabe 8f17 383d
00000340: 20bb 713e 83b8 41be 7241 41b9 65cd 453c
00000350: 153a 673d a37c e8bd 168a 0ebd 7349 fd3d
00000360: 776b 29bf a4ac f4bd dd24 83be 9bb6 4cbe
00000370: 0ac4 44be 5f42 323e 1bf6 483d fff3 29be
00000380: 7695 b33e bdc3 1e3f 2daa 0e3f 9927 5f3e
00000390: 5849 183e 39d3 1fbe 772e 75be 3c45 acbe
000003a0: 6b11 043e 50ec 413e 6cbf a6be 6da0 fdbd
000003b0: 20f6 e3bd 914a 2cbe 2dac 19be f51c 1c3e
000003c0: 2d05 9f3e d8cb f03b 1ae8 d03d e26e 59be
000003d0: 05f8 0a3b deca 593b 2004 ed3b 027f a8bd
000003e0: 8576 76be 55e8 1b3e 844f 87bc 4bc7 d23d
000003f0: e388 7e3d 5a71 ad3d afb8 f5bd d1de 83be
0.17180894 0.28757557 -0.1899329 -0.038524937 -0.06881222 -0.23275648 -0.18309988 -0.16230148
0.021070106 0.10234626 0.37876663 -0.08927432 -0.030580299 0.16183206 0.2654816 0.06877856
0.3923116 0.2569837 0.4183703 0.4163742 -0.5931423 0.031113505 -0.073560566 0.46968842
-0.043594122 -0.06459794 0.10532301 -0.060005635 0.28361014 -0.2563662 0.01275365 -0.37494922
-0.003771911 -0.15635538 0.17514358 0.05307036 0.07062456 0.24691501 -0.09271474 0.043089144
0.24771033 -0.018523566 0.07106807 0.091701396 0.021647617 -0.24682522 0.13470884 0.0291795
0.031144278 -0.324 0.1261379 0.23952802 -0.27458408 -0.022298101 -0.1826362 0.17113462
0.38200334 -0.18809055 0.14703752 0.36302602 -0.028778346 0.09889382 -0.19910072 -0.21636128
-0.15530029 0.3912338 0.2587024 -0.061349172 0.4282873 0.09432017 0.42373797 -0.1751429
-0.014214704 0.26131827 0.23524806 0.55649185 -0.35410753 -0.5783794 0.18682118 0.20412003
-0.16828513 0.3168552 0.08216344 0.12105939 -0.05260109 0.22144373 0.2560658 0.29493895
0.426304 -0.11613109 -0.23031731 0.33203417 -0.06684296 0.014873641 -0.16283247 0.22846493
0.09436865 -0.29662952 -0.37126294 -0.21855414 -0.25598004 0.054406945 -0.39239612 0.1612408
-0.123266146 0.07853834 0.0036836956 -0.29479787 -0.13017309 0.45714536 0.43773872 0.043477334
-0.12423555 -0.07772219 -0.18206571 -0.51428485 -0.008318423 0.20117123 0.4035818 -0.11391558
0.53190315 0.20287085 -0.014073629 -0.6744898 -0.50745547 0.1734513 0.43798536 -0.10237426
-0.13788532 0.27949095 0.0069653536 -0.3608788 -0.21029752 -0.41721338 -0.561102 0.14930458
-0.088478036 -0.39470154 -0.015148037 0.10178789 -0.47265318 -0.14769869 0.049870867 -0.23503803
0.1840897 -0.17552687 -0.15670256 0.1131169 0.23117624 -0.36036018 -0.30302083 0.027921317
-0.018589675 0.02575679 -0.24849215 0.2792327 -0.2177545 0.16233109 0.002186326 -0.19198342
-0.116034195 -0.06716799 -0.27930072 -0.3574465 -0.2879372 -0.12504457 0.25884345 -0.41992763
-0.00389652 -0.19003767 0.42568702 0.006855236 -0.0864114 0.15703936 0.14502561 0.028512627
-0.07996887 -0.059293304 0.14181529 -0.21205494 -0.044064485 -0.16564149 0.23756815 0.10306205
-0.1322077 0.24081963 -0.10562565 0.009499485 0.033117313 0.3416828 0.42632934 0.19055593
0.06584144 0.2645306 -0.064829275 -0.45983082 0.26961735 0.26485875 0.30930883 0.1592552
-0.14729394 -0.30933294 -0.2597219 -0.19329613 0.4498046 0.0272607 -0.39563477 0.044944342
0.23606539 -0.18918042 -0.00018430295 0.012072896 0.056451876 -0.113518976 -0.034799658 0.12367525
-0.66179603 -0.11946991 -0.25614062 -0.19991533 -0.19215408 0.17408131 0.04906283 -0.16596983
0.35074967 0.6201742 0.5572842 0.21792449 0.14871728 -0.15607919 -0.23943506 -0.33646572
0.1289727 0.18937802 -0.32567918 -0.123841144 -0.11130929 -0.1682532 -0.15007086 0.15245421
0.31058636 0.007348519 0.1020052 -0.21233705 0.002120496 0.003323249 0.0072331578 -0.0822735
-0.24068649 0.15225346 -0.016517408 0.10291918 0.062142264 0.08468886 -0.11998116 -0.25755933

features_extractor.encoder.conv.2.bias f4 [8]
00000000: 7be4 af3c 7b0b e4bc 01d2 12bd 0b7b 613c
00000010: c48c f3bc 911a b93c 8ce0 fbbc 4e83 07bc
0.021471253 -0.027837506 -0.035844807 0.013762246 -0.029730208 0.022595676 -0.03074672 -0.008271052

features_extractor.encoder.conv.4.weight f4 [16, 8, 3, 3]
00000000: 76c1 883d 7fdf 82be 1666 cbbd 3c19 da3d
00000010: a9dc 8f3d a6fb 443d 17eb 80bd bcf4 2abd
00000020: 8416 70be ab5e 52bc a9b5 0a3e 0c0b 0fbd
00000030: fd16 493d c7ac e5be 139e ddbe 2630 20be
00000040: c6a5 65ba a41c 073e 5655 ab3d 4dab 9ebc
00000050: 0bcb 30bc ad78 9cbd 6547 9ebd ce90 203e
00000060: 6f15 003d 8cbe 68be 33a5 3dbe 0f9a 643e
00000070: f0a2 75bb 5e8d 36be 3850 ecbd 5ab5 3e3e
00000080: 5b76 37be a0e9 a3bc 8a2f 5cbd b175 2abd
00000090: 397f 3b3d c195 36bd 72f9 3e3e d030 56bd
000000a0: 15ab 52be 2665 423c 21a8 1abd d4d1 cabd
000000b0: bdec b0bd bf01 b2be b92c 7bbe cc8f 6bbe
000000c0: f2ab b6be 9f61 fd3d 522d 59be 4f54 27bd
000000d0: f043 11be 0c4a b9be 09c3 e2bc fac7 20be
000000e0: ae09 e3be b142 bcbc 77fb 223e 2ed0 253e
000000f0: ab89 ca3d a6cd e7be 62c5 633e 2b4b 0f3d
00000100: 5fef c23e 6c30 98be 8bea 2a3c 195d adbe
00000110: 3b7c 7cbe 2ce7 f9be a820 1a3d e47e 1fbc
00000120: dfa1 aa3d 7095 46be 7a6d be3e 4c5d 95be
00000130: b571 6b3e b79a a13e 1eda 90be 8ac5 aa3e
00000140: acb4 393e c710 69be 2e2e db3d 3023 69be
00000150: dc18 23be 9ca8 babc d1be 973d 0bab 16bd
00000160: f3b9 0fbe 6f94 863e a3e7 adbd 5655 493e
00000170: 136a 46be b451 dabd 6fe3 063d 82e6 3d3c
00000180: a8ff 413e d7a7 84be f87f c53e 233d ccbd
00000190: 6f04 2c3e ec9f 573e 5758 6a3c ff20 45bd
000001a0: a7a8 05bc cf00 8f3e 333e 253d e947 443e
000001b0: eb0b a03e d450 f9ba 97ed 55bd fe3f 85bd
000001c0: 2ff9 993d 5cde c13e 5844 78be 69b3 12bb
000001d0: 73ad 423c b5eb b3bd cf99 c03a c3b3 4b3e
000001e0: 0b5e 61bd 8e3e 02bd cbdd 9ebc f959 b43e
000001f0: 99fb 8e3e 0dae d3bd 53b3 7b3e 40b6 8abe
00000200: c962 bc3e a998 063e 83b4 ce3c 6523 923e
00000210: 0862 a1be cc01 7bbd 1f39 67be d320 8b3e
00000220: cd50 9f3e 473d d3bb 5888 0abe 2a19 2c3d
00000230: 8acd a53e 83dc 84bc 4085 ccbd 4493 5e3d
00000240: 5908 893e 0d21 5c3d dc6d d6bd d8ff 39bc
00000250: 5d92 bbba b949 22be c685 543c 690e 4a3c
00000260: cfd2 2abe 5624 5f3e a8ef 413d 08fc b73d
00000270: ef21 b03d 341f a53d aaed cb3d 1c66 adbc
00000280: fad6 90be 32ea d33c 471e 0d3d 608c 74bc
00000290: 31ed 3a3c 93de afbd 10f8 48be 02fc 38be
000002a0: 6856 013e a205 483e 5d0a b13e 4836 85be
000002b0: b2fe e93e 0017 2cbe bb5f 54bd 2efa e1bc
000002c0: 7ba4 62bd 66fe 66bc a5ab f03d e7b9 6c3e
000002d0: c7f1 813e afbd a23d 267b 80be c22c 49be
000002e0: 18d0 4abd f1df 553d 8caa c6bd 2575 503d
000002f0: c803 b03d 0fc9 86bd 1f67 243e 7b42 e4bd
00000300: 6dad 003e 7ab4 a83d c49a a4bd c2b9 b2bd
00000310: 9809 813e 1dd7 253e 9c7b a0be 5f57 413e
00000320: 6ca5 1fbf 6483 8dbc e4af 0c3e 00ae 82be
00000330: ced0 73bd 3d49 62be d2a1 003e d02f 873e
00000340: 8900 563e bee2 4b3d 7edf 05bd 12c9 1e3e
00000350: 6a58 f5bc 4099 1fbe 136c cf3e 2b47 0fbe
00000360: a0e1 92be 6446 52be 8526 49be 1ba6 b0be
00000370: 0331 60be fd0e 05be 31ef c5bd c399 95be
00000380: 5dc7 98be c900 6b3c f827 ef3d c2ae f13c
00000390: 334c 053e b2cc a13e df7b bfbc ea71 2e3c
000003a0: fdac 1c3e 9a8e 263e ff26 963c c1f6 513d
000003b0: e9ff f1bd 7617 89bd 4eda 85bd b628 963c
000003c0: 9c17 7dbe 816d 2b3e 91c8 2bbd 4e80 febd
000003d0: 2888 59be ce06 0abd 0fd0 bfbd 11a7 e6be
000003e0: a247 67bd 0770 b3bc 60b3 fabe 6b2e 3bbe
000003f0: 2e79 583c 475d 363e 295f e23d 2ab2 c1bd
0.06677525 -0.2556114 -0.09931581 0.10649344 0.070245095 0.048091553 -0.0629484 -0.041737303
-0.23446089 -0.012839953 0.1354586 -0.034922644 0.04909419 -0.4485838 -0.43284664 -0.15643367
-0.0008760359 0.1319452 0.08365886 -0.019368792 -0.010790597 -0.076402046 -0.07728461 0.15680239
0.03127044 -0.22728938 -0.1852005 0.22324394 -0.0037481152 -0.17827365 -0.11538738 0.18623868
-0.17916243 -0.020008862 -0.053756274 -0.041616146 0.045775626 -0.04457641 0.18649843 -0.052292645
-0.20573075 0.011864936 -0.037757996 -0.09903303 -0.08638904 -0.34766957 -0.24528779 -0.23004073
-0.3567806 0.12372135 -0.21208695 -0.040851887 -0.14186072 -0.36189306 -0.02768089 -0.15701285
-0.44343323 -0.02298102 0.15916239 0.16192695 0.09889539 -0.45274085 0.22243264 0.034983795
0.3807325 -0.29724443 0.010431896 -0.3386009 -0.24656765 -0.48809183 0.0376288 -0.009734843
0.08331656 -0.19392943 0.371929 -0.29172742 0.22992595 0.3156335 -0.2829141 0.33353835
0.18135327 -0.22760306 0.107021675 -0.22767329 -0.15927452 -0.022785477 0.07409442 -0.036784213
-0.14035778 0.2628512 -0.08491447 0.1966146 -0.19376402 -0.10660115 0.03293174 0.011590602
0.18945181 -0.25909302 0.38574195 -0.099725984 0.16798566 0.21057099 0.014303288 -0.04812717
-0.008157886 0.27930304 0.04034252 0.19168057 0.31259093 -0.0019021281 -0.052228536 -0.06506346
0.07518231 0.3786496 -0.24244821 -0.0022384769 0.011882174 -0.08785192 0.0014694276 0.19892792
-0.055021327 -0.031797938 -0.019392869 0.35224894 0.2792633 -0.10335932 0.24580126 -0.2709217
0.36794117 0.13144173 0.02523256 0.2854263 -0.31520104 -0.06128101 -0.22580384 0.2717348
0.31116334 -0.006446514 -0.13528574 0.042016186 0.32383376 -0.01621843 -0.09986353 0.054339662
0.2676418 0.053742457 -0.10470173 -0.011352502 -0.0014310587 -0.15848435 0.012971347 0.012332537
-0.1668198 0.21791205 0.047347695 0.08983618 0.08600222 0.08062592 0.0995744 -0.021166854
-0.28289014 0.025868509 0.034452703 -0.014926046 0.01140909 -0.085873745 -0.19625878 -0.18064883
0.12630618 0.19533399 0.3457822 -0.26017976 0.4570213 -0.16805649 -0.05184911 -0.027585115
-0.055332642 -0.014098739 0.117514886 0.23117791 0.25379774 0.079463355 -0.25093955 -0.1964598
-0.04951486 0.05221552 -0.09700498 0.050892968 0.08594471 -0.06581318 0.16054963 -0.11145493
0.12566157 0.08237548 -0.08037332 -0.08726837 0.25202632 0.1619534 -0.31344306 0.18880986
-0.6236179 -0.017274566 0.13738972 -0.25523376 -0.059525304 -0.2209825 0.1256173 0.26403666
0.20898642 0.049776785 -0.032683842 0.1550639 -0.029949386 -0.15585804 0.40512142 -0.13991992
-0.28687763 -0.20534664 -0.196436 -0.34501728 -0.21893696 -0.12993999 -0.09664763 -0.29218873
-0.29839602 0.014343449 0.11677545 0.029502276 0.13017349 0.31601483 -0.023374496 0.010647276
0.15300365 0.16265336 0.018329142 0.051260713 -0.11816389 -0.06693928 -0.06535779 0.01832996
-0.24716038 0.16740991 -0.041939322 -0.12426816 -0.21243346 -0.033697896 -0.09365856 -0.45049337
-0.0564648 -0.021904005 -0.48964977 -0.18279426 0.013212485 0.1780902 0.110533066 -0.0945781

features_extractor.encoder.conv.4.bias f4 [16]
00000000: 92a7 27be 0095 a9bc a8c8 9bbc 12d1 11bd
00000010: 44f1 1bbd 1124 933a 3a24 273b 2f5a 0a3c
00000020: dda1 2abd 4ad6 27bc 7b09 c6bc 7c92 8dbd
00000030: f664 4dbd 7939 823c 89c3 f1ba 5f17 c5bb
-0.16372517 -0.020700932 -0.019016579 -0.035599776 -0.038071886 0.0011225959 0.002550377 0.008444353
-0.04165827 -0.010243962 -0.024174443 -0.06912705 -0.050145112 0.015896546 -0.0018445115 -0.006014749

features_extractor.encoder.conv.6.weight f4 [32, 16, 3, 3]
00000000: b4d7 a6bc dd0a eb3d 560b 3dbc aa21 63bc
00000010: bdeb f0bd 0382 77be 929d ca3c de04 30bd
00000020: 81aa c7bd 4c8e df3c ef39 b63d 81a6 cbbd
00000030: 05a6 393d 756d b6bd 7888 623d df58 fabc
00000040: 1003 6b3e 7e0e 0ebc c334 b4bd dca6 07bd
00000050: b648 bc3d 7c22 21bd 1923 dc3d f7e1 bf3d
00000060: 420d acbd 7fd5 2abe bf79 79bb de1a 37be
00000070: c214 953c 8fd9 483c 4128 0c3e c349 dcbd
00000080: 2ec7 8c3d 1398 b2bd d311 fbbd 6507 25be
00000090: 00a9 c53d d123 bbbc 83b3 203c 1ce5 34be
000000a0: d323 0b3d 8777 eabd 75ac 2bbe e7ed 12be
000000b0: 7b25 133e 38e5 8cbd 5bb4 7d3e 5744 82bd
000000c0: 426a 54be 395f 80be 4c21 9abc 63fc 6cbe
000000d0: f458 92bc ade3 f6bc 0549 763d 42df 063e
000000e0: d893 483d 4198 1a3e 8c4a d13d 8f6a 013e
000000f0: ff7d f33c b94c b6bc ec11 f0bd afe9 20bd
00000100: 6a4b 143d 5764 703e 2d9c debc c199 d9bd
00000110: 2577 4e3d 82db c8bd 0f24 65be 4328 2f3e
00000120: 3a92 613d 2f90 0e3e 2cf4 4bbc a9f4 bfba
00000130: 8851 0fbd c823 7d3d 3424 60bd 6578 90be
00000140: a5be 48bc e892 413d 33c5 86be f12c 993e
00000150: 5cad 2dbe 9422 2cbe a828 77bd b15f fc3d
00000160: bc3f ff3c 1edb f6be 8dc0 89be a156 05be
00000170: fba4 9d3e f48a eb3d b9dc dd3c 73ff 00bd
00000180: f557 2f3d b4b4 ebbd 33cf 4dbc 745e 3cbe
00000190: 1dd5 353e a5f8 84bb 817c 333d 09c2 a23d
000001a0: bfad 5e3e 691d a33d 44aa 3b3e bc55 71be
000001b0: 6793 973d 01fa dabd 4f9a 893e 6c55 a3bc
000001c0: beaf c73d b80f f3bd 82fc 873d 7a5d 60be
000001d0: 93a0 9c3d 86ec e33c 146e 343d 8be7 5f3d
000001e0: 018c 593e 39c4 ae3e 437e c73d fda9 e5bd
000001f0: 6b5f 53bc 85c1 383e 75c0 863d 7ac3 d13c
00000200: 393f 15bd 5a5b f1bd ce1c 003e 7cb2 283e
00000210: 7172 1dbe 252c 6d3d 579e bd3d adac a4bd
00000220: 6168 11bd 7716 9a3e 6d0d ca3c 8854 3cbe
00000230: d1e7 8e3c a2fb c03c 33b5 4f3c cb5e 1ebd
00000240: eaf6 963e efd0 06bf b96f 8f3c 1644 333e
00000250: 6fed b0be 1162 1e3e bf80 753d 4c3c db3c
00000260: 5302 453e 6412 123d 7fce c6ba 120d 4abd
00000270: a582 54bd d4b6 6bbe 824e 5c3e a365 ccbd
00000280: 9ffa 0a3e c956 babd f4fc 523e bf0b 8abe
00000290: c40c 05bc f310 1dbe c472 02be 8670 3b3d
000002a0: 0846 b4be 2649 d9ba 8763 fd3d d4d3 ea3d
000002b0: 8fa3 5a3d d086 e0bd e1f7 7dbe d95a b9bd
000002c0: 3135 30be 0f55 243e 64e9 3ebd ff9f 17bd
000002d0: 21ed a8bd c299 f8bd 7077 31be 0332 ccbd
000002e0: d891 a9be 0d4c 49bd 6d4d b1be 0b09 2b3e
000002f0: da90 d33d b25b 0bbd 6235 c9bd ff10 35bd
00000300: 6542 31be 169f 84bd dff8 3a3e e93f 78be
00000310: 0e40 d0bc c91c 43bd 124f c03b 3c26 b73c
00000320: adf4 6cbe 5bf8 11be adaf 1c3e eba5 eb39
00000330: de05 ee3d a7ad 993d 7cd4 81be 35de bdbd
00000340: 72c2 38bd d538 a5bc f581 3dbd f901 37be
00000350: 3e59 4b3e 243e 093e 01ba 563e 3eb6 e1bd
00000360: f819 dfbc 9cc6 4bbe a8cb b4bd ef8b 863c
00000370: 0428 34be 4165 7e3d e6e1 81bd 1fc9 b2bd
00000380: 279b b73d 1d12 a4bd 7ac3 7abe 78de 06be
00000390: e309 073d c468 35be 5591 86be f280 59bd
000003a0: 6bcf 4cbe d289 a33e 1140 10be 79c3 9fbd
000003b0: c11d 253d 75c8 d0bd d2ed 9bbd 177d 423e
000003c0: 1e11 cc3c f975 aebe b343 04be b1fa e73c
000003d0: 1d32 98bd e371 b53d c37c 73be fb32 5fbc
000003e0: 2c2d 113d 781c 1b3e b6ed 2c3e 7bfe 163e
000003f0: 1f9d 7d3c 43e4 9bbd fd08 f1bd 4ea7 58bd
-0.020366527 0.114766814 -0.011538347 -0.013863007 -0.117637135 -0.2417069 0.024733339 -0.04297339
-0.09749318 0.027289532 0.08897769 -0.099438675 0.045324344 -0.08907596 0.055305928 -0.030559955
0.22950387 -0.008670447 -0.08799126 -0.033118114 0.09193556 -0.039339527 0.10748882 0.09369271
-0.08400966 -0.16683005 -0.003806695 -0.17881343 0.018198375 0.012258901 0.1368723 -0.107562564
0.06873928 -0.08720412 -0.12259259 -0.16116102 0.09651375 -0.022844227 0.009808424 -0.17665523
0.03396971 -0.11448579 -0.16765006 -0.14348565 0.14369766 -0.068796575 0.24775831 -0.06360691
-0.20743659 -0.2507265 -0.018814705 -0.23143153 -0.017864682 -0.030137861 0.06012823 0.13171104
0.04896912 0.15097143 0.10219297 0.12638305 0.029723166 -0.022253381 -0.11722168 -0.039285358
0.036204733 0.23475777 -0.02717408 -0.10625029 0.050406594 -0.09807493 -0.22377037 0.17105202
0.055071093 0.13922189 -0.012448352 -0.0014645058 -0.034989864 0.0618017 -0.054722026 -0.28216854
-0.012252484 0.04725924 -0.26322326 0.299171 -0.16960663 -0.16810066 -0.060341507 0.12322939
0.03115832 -0.48214048 -0.26904717 -0.13021328 0.30789933 0.115011126 0.027082788 -0.031493615
0.04280849 -0.11509076 -0.012561607 -0.18395406 0.17757078 -0.004057961 0.043819908 0.079471655
0.21745966 0.07964594 0.1832667 -0.23567861 0.07401162 -0.10692216 0.2687554 -0.019938193
0.09750317 -0.118682325 0.06639959 -0.21910658 0.076478146 0.027822744 0.04405029 0.054664176
0.21244814 0.3413408 0.097408794 -0.11214063 -0.012901167 0.18042572 0.06579677 0.025605906
-0.036437247 -0.11785002 0.12510988 0.16474336 -0.15375687 0.057903428 0.092587166 -0.08040748
-0.035499934 0.30095264 0.024664605 -0.18391621 0.017444523 0.023557488 0.012677479 -0.03866462
0.29485255 -0.5266256 0.017509328 0.17506441 -0.34556147 0.15467097 0.059937235 0.02676215
0.19239168 0.03566207 -0.0015167742 -0.04932887 -0.051882405 -0.23018962 0.21514323 -0.09980323
0.13572167 -0.09098584 0.20604306 -0.26962087 -0.008120719 -0.15338497 -0.12739092 0.045761608
-0.3520968 -0.0016577586 0.12372499 0.11466184 0.053378638 -0.109632134 -0.2480159 -0.09050531
-0.17207791 0.16048072 -0.046609297 -0.03701782 -0.08248354 -0.12138702 -0.17330718 -0.099704765
-0.33119082 -0.049144793 -0.34629384 0.16702668 0.103303626 -0.034022994 -0.09824635 -0.044205662
-0.17310484 -0.06475656 0.18259 -0.2424313 -0.025421169 -0.047634874 0.005868801 0.022357099
-0.23140211 -0.14254896 0.1530139 0.0004494631 0.11622213 0.07503825 -0.25357425 -0.09270898
-0.045107313 -0.020168701 -0.046266515 -0.17871846 0.19858262 0.13402611 0.20969392 -0.11021088
-0.027234063 -0.19899982 -0.08827907 0.016424147 -0.1759339 0.062108282 -0.06341915 -0.08729767
0.0896514 -0.08011267 -0.24488631 -0.13170803 0.032968413 -0.17715746 -0.26282755 -0.053101487
-0.20000999 0.31941086 -0.1408694 -0.07800955 0.04031158 -0.10194484 -0.0761372 0.1899303
0.024910506 -0.3407438 -0.1291645 0.028317781 -0.07431433 0.08859613 -0.23778062 -0.013622995
0.03544347 0.15147579 0.16887555 0.14745514 0.015479355 -0.07611897 -0.117692925 -0.05289393

features_extractor.encoder.conv.6.bias f4 [32]
00000000: d885 1e3b 9284 0dbc 5b9f 093c e2d0 1a3c
00000010: eb4e 573b 7ff5 87bc 754f 9dbd cd99 9abd
00000020: 56f6 b6bb 46f5 5abb b685 36bc 2dcf cbbc
00000030: 38bc 8abb 5823 07bd efa5 4d3c be67 7b3b
00000040: e436 0cbd 2d17 9bbd 3dd2 68bd aa3b c6bc
00000050: 31e0 d9bc 6dff 2c3c dc6f 50bc d05f 9cbc
00000060: 3461 22bd f9da 533b 7f9e 99bc 5d60 6fbc
00000070: 7bfc 89bd 0fb3 c33b 6489 3abd 4a49 0fbd
0.0024188664 -0.008637564 0.00839981 0.009449216 0.0032853435 -0.016596554 -0.07681171 -0.075488664
-0.0055835648 -0.0033410355 -0.011140278 -0.024879063 -0.004233863 -0.03299269 0.012551769 0.0038361396
-0.034232035 -0.0757278 -0.056841124 -0.024198372 -0.02659616 0.010558945 -0.012721982 -0.019088656
-0.03964348 0.0032326563 -0.018752335 -0.014610377 -0.0673761 0.005972273 -0.045541182 -0.034982003

features_extractor.encoder.conv.8.weight f4 [64, 32, 3, 3]
00000000: 63d0 bfbd c225 243e 80cf abbd c8a9 4ebe
00000010: c9fe 013e e382 f3bd 3a3c f5bb 63cc 60be
00000020: 4c3f 5b3d 7d7e c1bd 16c4 c03d 10b2 adbc
00000030: 4e04 c8bd 724b 1f3e da54 36bc 4be5 833d
00000040: 7891 073e 6274 073e 2bed 2cbe 0dd0 39bd
00000050: b1dd 6ebe be02 be3d 3fcc ca3d 1eff 4cbd
00000060: f75e 243d 8eea b93d a8cb a9bc 37c3 d33d
00000070: 2688 a7bd c8d9 b9bc 5ec9 1cbd 2319 40be
00000080: 5890 43bd a409 183d 94eb a0bc 4013 0e3c
00000090: a4fd ed3b 7271 75ba 5508 b0bd f6a2 8b3d
000000a0: eb84 de3c bd58 57bc 1508 55bd c1ae ee3d
000000b0: 3cbe 50bd 1144 51bd 0d07 05bd 9565 0abe
000000c0: fbb4 7ebd 4e3c 92bd 2ba2 8b3c eeda 383c
000000d0: ff0f 0bbe 5752 d8bc 3453 a6bc 53e8 c93c
000000e0: 717f 07be 2add 40bd 6b89 ce3d d8c4 6e3e
000000f0: 9d86 053d c4c6 3bbd 9998 463e 99d4 f73d
00000100: bab7 2dbb b288 8ebc 4484 05bd 35b2 1fbd
00000110: 4458 8a3c ae81 f83c 92d6 093d f57a 183e
00000120: 5910 8ebd 494e de3d 2977 143e 85c9 13be
00000130: af05 763d a8bb cd3d 171f ecbd 80d0 5c3e
00000140: 2e69 ce3d 49f6 c53c f12a 363d eae3 2fbd
00000150: 1a6a f83d 9f61 d0bd 2686 863d d8d8 7e3d
00000160: 7bc4 643d 587b e53d dc5f 7f3d dd42 85bd
00000170: 27b5 86bd 292f f83d 6fcf 0bbe e6ab 2d3c
00000180: 7e85 4b3e aac5 ffbc 0fe0 3bbe 0069 bcbd
00000190: 5b29 7c3d acb4 a9bc 5b52 bfbc df8c dc3b
000001a0: e8c2 4bbd 0165 92be 8f9b 763d 564b d0bd
000001b0: 3d54 72bd cab8 36bc bc98 973d b2b5 7fbd
000001c0: ba5e 923b 11fc 4c3d fea4 e9bc 29bb e93b
000001d0: bdcb 8f3d 7587 c3bc 8798 a6bd 3817 a23c
000001e0: 74a4 14bd c12e 3a3d 5856 d33d 6b3a 123d
000001f0: 5d16 6bbd e764 803e d1fa 91bd aa65 863d
00000200: b772 81bd 418e 823d 0286 803d 1e94 92be
00000210: c89a b93d 0303 28be 4eb6 cd3c d012 abbc
00000220: debc 673e 2689 bd3d f177 ddbd 788f 413c
00000230: ca00 2ebe 1b05 31be 1751 c3bc 8cf2 283c
00000240: f044 6dbd 87da 1b3e bd4d 953d 4b2a 08be
00000250: 394b 603e 215a ae3c 673b fdbd d2b3 093e
00000260: e144 2fbe d110 0dbe 31ff b23d 7d97 debd
00000270: 57e1 f4bc 3b20 643d 4b6c 4dbd ca82 593d
00000280: 459b 22bd 4ead 54bc 87bc c73d 2f87 07bd
00000290: 79dc 2fbd f886 1abd 96c0 61be 0524 443d
000002a0: 4293 4d3e 9055 b83d bff6 88bc 2e10 adbd
000002b0: e6f9 ec3b 289e c53d f175 0ebd 1548 a7bd
000002c0: 62cc 3f3c 3e04 76be 29a7 8e3c f046 b5bd
000002d0: 029e c43c ebaf 4a3e d2b9 993c c543 393e
000002e0: 9c63 3b3e 7729 fabd d8b3 0f3e 9a14 823c
000002f0: 9819 febc ab89 b33b 6262 55bd 58a8 c4bc
00000300: f48d efbb d313 d13d 90ca 96bd 7ed2 f43c
00000310: c447 a93d 4130 263e 2e4e 63bd 47ce 3ebd
00000320: 7ebb 0dbe 606b 543e 7324 ccbd aaca 72bc
00000330: 2bdd c0bc bebb 0abe 343b bf3d cb2d b9bd
00000340: a72f 7cbb 1669 f2bc fcbd 31bd c66a 663d
00000350: a1e1 42bd eaf2 073c 3f7b 95bb 136d c83d
00000360: e57b 1cbe 3a4a ebbd 4db7 86bd 8e4c 15be
00000370: 00cd d03c 6c1a 543a 7866 183c 29d9 b6bd
00000380: d6d8 133e ce26 e0bd c842 dfbc 1289 853c
00000390: 7dce b13d e377 843d 6712 483e 233b ccbd
000003a0: eeba dc3b 65f5 40bd 3116 f4bb 9898 b8bd
000003b0: 5f67 a13c 4aaf 39bd cffd aebd bf29 82bd
000003c0: 385d a1bd f4cc 86bc d729 403e 1bf2 15be
000003d0: c685 c8bd 9be1 02bd d36f 01be 9bde c13d
000003e0: 60d3 57bc 29fb 6f3d 71f2 263e 4709 7a3e
000003f0: 7ca9 013d e79e 923c 8b88 da3b ad79 3d3d
-0.093659185 0.16030028 -0.08389187 -0.20181954 0.12694849 -0.11890199 -0.007483986 -0.21952967
0.05352716 -0.09447954 0.094124004 -0.02120307 -0.09766446 0.15556124 -0.011128629 0.064402185
0.13239086 0.1322799 -0.16887347 -0.04536443 -0.23326756 0.09277867 0.09902238 -0.050047986
0.040129628 0.09077941 -0.020726994 0.10339969 -0.08180265 -0.022686854 -0.038277976 -0.18759589
-0.04774508 0.03711857 -0.019643582 0.008671582 0.0072629023 -0.0009362913 -0.08595339 0.06818192
0.02716299 -0.013143715 -0.05200966 0.116544254 -0.05096267 -0.051090304 -0.032477427 -0.13515313
-0.062184315 -0.071404085 0.017045101 0.011282666 -0.13580321 -0.02640645 -0.020303346 0.024646914
-0.13232209 -0.04708592 0.10084804 0.23317277 0.03259908 -0.045843855 0.19394149 0.12101097
-0.0026507215 -0.017399166 -0.03259684 -0.03898831 0.016887791 0.030335274 0.033651896 0.14890654
-0.06936712 0.108547755 0.14498581 -0.14432342 0.060064014 0.10045558 -0.115293674 0.21563911
0.10078655 0.02416529 0.044474546 -0.042941965 0.12129612 -0.1017487 0.065685555 0.062218517
0.05585144 0.112051666 0.062347278 -0.06506894 -0.06577521 0.1211837 -0.13653348 0.010600066
0.19875142 -0.031222183 -0.1834719 -0.09199715 0.061562877 -0.020716034 -0.0233547 0.0067306603
-0.049746424 -0.28592685 0.060206946 -0.10170619 -0.059162367 -0.011152456 0.07402179 -0.062429138
0.0044668587 0.050045077 -0.028521057 0.007132907 0.07021282 -0.023868302 -0.08134561 0.019786462
-0.036289647 0.045454744 0.10319203 0.035700243 -0.057394374 0.25076982 -0.071279176 0.0656236
-0.06320708 0.06374789 0.0627556 -0.2862863 0.09062725 -0.16407399 0.025111344 -0.020882994
0.22630641 0.092546746 -0.10813893 0.011813991 -0.16992489 -0.17287104 -0.023842378 0.010311734
-0.057927072 0.1522008 0.07290218 -0.13297383 0.21903695 0.021283211 -0.12364846 0.13447502
-0.17116119 -0.13775946 0.0874008 -0.10868738 -0.029892607 0.0556948 -0.050152104 0.053103246
-0.039698858 -0.012980772 0.097527556 -0.033087905 -0.04293487 -0.037726372 -0.22046122 0.047885913
0.20075706 0.09000695 -0.01671922 -0.08450352 0.0072319387 0.096493065 -0.034780446 -0.081680454
0.0117064435 -0.24025056 0.017413693 -0.08851421 0.024001125 0.1979367 0.018765364 0.18092258
0.18299717 -0.1221494 0.14033449 0.015878964 -0.031018063 0.005479058 -0.05209578 -0.024006054
-0.0073106233 0.10208859 -0.073628545 0.029885527 0.08265641 0.16229345 -0.05549448 -0.04658344
-0.13841054 0.20744085 -0.0996789 -0.014818827 -0.023542961 -0.1354818 0.09337464 -0.090419374
-0.0038480551 -0.029591125 -0.043394074 0.05625417 -0.047578458 0.008297661 -0.004561811 0.09786429
-0.15281637 -0.11488767 -0.065779306 -0.14579985 0.025488377 0.00080910954 0.009301774 -0.08928139
0.14438185 -0.109449014 -0.027253523 0.016300712 0.08681963 0.06468179 0.1953827 -0.09972217
0.006736151 -0.047109026 -0.0074489345 -0.0901348 0.019702611 -0.045333184 -0.08544504 -0.06355619
-0.07879108 -0.016455151 0.1876596 -0.14643137 -0.0979114 -0.031953435 -0.12640314 0.09466287
-0.013172954 0.058589134 0.16303422 0.24417602 0.031655774 0.017898036 0.006669109 0.046258617

features_extractor.encoder.conv.8.bias f4 [64]
00000000: a7f6 d6bc 6222 17bd 5da7 e73c b00d 273c
00000010: 9464 84bc dc3c 9d3b 4e01 403d 3737 283d
00000020: b36a 0cbc 79c6 a3bc b714 36bd 46ff e0bc
00000030: 0dc3 043d 28f3 1ebb bb7e 303b 49f0 ff3c
00000040: 64b4 cf3b 9ff4 da3b 4912 fb3c 4ee3 a13c
00000050: 0842 6dbb 8fb2 1bbd 1005 e03c af3a de3c
00000060: 5cf8 c2bc ac9a 57bc 79d0 4b3c d094 76bc
00000070: e4e7 40bb 99f4 0cbd 9674 ce3b 4869 efbc
00000080: 7bb9 54bc 45c7 063b 8c03 803c ced7 aebd
00000090: 4361 1e3d 1ff4 873b 7686 8b3c 11ce 6fbb
000000a0: 7d54 a5bd 41b5 3cbc 5f43 063d c11e 91ba
000000b0: 6afd 3ebd c902 a2ba cad5 ecbc a944 273d
000000c0: ed68 0abd e40b 9d3c a440 07bd fe65 a7bc
000000d0: 5883 c23b 59d3 14bd d140 05bd ca47 0dbb
000000e0: 805a e9bb 1c4c 82bd 5b6a 143c 284e 1a3c
000000f0: a3a6 7dbd 9fc1 95bc a553 8b3a 2236 6fbc
-0.02624066 -0.036898024 0.028278047 0.010196134 -0.01616124 0.004798515 0.046876244 0.041068282
-0.008570361 -0.0199921 -0.04445335 -0.027465474 0.032412577 -0.002425382 0.0026931006 0.031242507
0.006338643 0.006681993 0.030648367 0.019761708 -0.0036202688 -0.038012084 0.027346164 0.027127592
-0.023800068 -0.013159435 0.0124398405 -0.015050128 -0.0029435093 -0.034412954 0.006300519 -0.029225007
-0.012983675 0.0020565551 0.015626691 -0.08537255 0.038666975 0.0041489745 0.01703189 -0.003659133
-0.080727555 -0.011517824 0.032779094 -0.0011071787 -0.046628393 -0.0012360449 -0.028910536 0.040836964
-0.03379147 0.019170709 -0.03302063 -0.020434376 0.0059360676 -0.03633437 -0.032532517 -0.0021557682
-0.007121384 -0.06362173 0.00905856 0.009418048 -0.061926495 -0.018280802 0.0010629786 -0.014600309

features_extractor.encoder.conv.10.weight f4 [128, 64, 3, 3]
00000000: 98e4 15bd 1111 21bc 156c 48bd 1f99 2a3d
00000010: e821 173d 8811 03bd 59c0 8b3d d09d 653b
00000020: 871c 803d 625d 81bd b896 2d3d 9e9a 97bd
00000030: 3e4f 1cbd 5b6c 20bc ef8c ea3d 6f30 94bd
00000040: 2463 083b 285b 8dbd 3a6e 8ebd de7e 8ebd
00000050: c5e2 08bc b6f5 8e3d 8db9 abbd 8de0 a03d
00000060: 74f3 7ebd 2144 3ebe ce79 8a3e fada 44bd
00000070: 1fdc 343d 68ba a53c a76b 433d 3c09 88bd
00000080: a735 c03d ffb7 81bd 2fc3 3fbe 2057 653d
00000090: 5286 21bd 1fd4 023d dbb0 bc3d 7ce0 543d
000000a0: 041c dfbd dacf 72bd 25d0 d33d 8933 8039
000000b0: dd46 c1bd 239f 87bd 5743 953c e2b6 883d
000000c0: 2412 55bd f9e0 873d 6e8c af3c 798b 003d
000000d0: 7e63 80ba 8614 44bd ef92 afbd d176 81bd
000000e0: dc0a ccbc fc38 91bb c4e5 a2bd 058e 113d
000000f0: 8eec 833d ce5d d93d 535b ed3d a4cb a9bd
00000100: 5635 cebd e435 1d3d 8545 dcbb 6816 f03c
00000110: c83f 4dbe 9d12 403d 72ac 0c3e d903 a93d
00000120: 8dac 48bc 2ca3 833d cb40 8e3d 60b5 31bb
00000130: 943c b0bd e022 7b3d a638 4abd 5983 18be
00000140: 2090 38be 7314 c83d 77f0 253d f24f 233d
00000150: 507f 39bd acdc 1f3d 679c 09bd d4b0 263b
00000160: 34c8 7ebd 4175 34bb dfe2 25bc 606b cdbd
00000170: bcd9 9b3c 829f a03c 5ae0 dc3d 293c ecbc
00000180: 8f1c 5dbd a3f6 ce3c 35ff 353e 47c7 203d
00000190: 196a d73c bffd 9b3d 75c6 313d b18c da3d
000001a0: dc1a 4f3b 0814 313d 1bf0 22bd 525a 223d
000001b0: c879 c3bd ab89 f1bd f1e2 a3bd 8370 13bd
000001c0: dd97 2b3d 1291 5b3d 3ff3 89bd 79dd f0bd
000001d0: f8c8 3b3e cec5 c8bc e5ef e53d 0426 b23d
000001e0: 202f 893c b9ba 9b3d 2a21 743d 2efd a83d
000001f0: 43af e5bd 9da2 fcbd 713e 743d c56f 193d
00000200: 9b27 cc3c fa79 e6bb 11d7 ebbc abaf 083d
00000210: 09ca 223d 0d14 cebd 161e e1bd 1016 233d
00000220: 7f99 96bc a1df a5bd 17bf c3bc 574b 2a3d
00000230: 5007 b4bd 2225 35bd 19ef 05bb 5f0e 6ebe
00000240: c75d 18bd fce8 663c 28c1 e4bc ccdd 24bd
00000250: d055 963d 6f2e e9bd 3382 1ebc b026 bbbc
00000260: 2e48 0b3e 7402 e2bd bf15 7cbb d803 b9bd
00000270: 7c17 2c3c 7ceb c7bc 2314 063e cf54 a3bd
00000280: 116b 0dbe 5245 a03d 5472 39bd 1e3f 1b3d
00000290: f13e 023e 80f8 da3c 2c85 f13d d5c2 a5bd
000002a0: 767c 3dbc 4327 03be 2564 fcbd cdbc 9f3c
000002b0: f2e6 aeba e9ef 2b3d d016 c93d 6faf a73d
000002c0: a800 8abc bc77 dcbc 9899 b5b9 1b2d 2cbe
000002d0: 6141 a1bd d0bc 043d da18 6dbc a8f8 f53d
000002e0: b619 7fbd 7e27 dfbc 2b26 923b 895b 903d
000002f0: 293a f83d 9dca d8bc be6b 673d 0737 00bd
00000300: 1a57 05bc 18f3 903d 4386 9d3b 2bbc 4a3d
00000310: 150e 7ebd 385d ffbc 252d 083c daab a33d
00000320: df4c a2bd 4b63 063e 6cca 5fbd 9804 50bb
00000330: 5d33 273d 4c0f febd a803 27be 8f25 023d
00000340: 59bf 6f3c 417f acbb 7f90 e5bc 6d01 953d
00000350: 1afe 8abd 04a6 65bd b5f4 ffbc 8cf9 9e3d
00000360: 8e50 8e3c 2713 9a3d a9e0 813c 8132 893c
00000370: 67a4 723d 3541 f8bd 2e9f 0fbb 145c 603c
00000380: db6e 6ebd 8658 a7bc 74da 1d3d 78fa 693d
00000390: d404 cf3c 839b 5b3c 3529 89bb 23bb d6bd
000003a0: 4fef 40bd e26b ccbd bba4 3ebd 302d 073d
000003b0: 55b7 ecbd f3e6 ef3d 11f5 073d c4c8 493d
000003c0: 7c24 ab3c aa64 72bd 6372 4e3e fd7a 613c
000003d0: 0c40 093e 56a4 283c ac5a 93bc eb92 20bd
000003e0: c610 4e3e 0e8d a4bd 659c 2dbc 68b4 17bd
000003f0: 7cee e13c 9e1d 923d 1c77 553c 85f3 283d
-0.036594957 -0.009830729 -0.0489312 0.041649934 0.03689757 -0.03199914 0.06823797 0.003503669
0.06255441 -0.063166395 0.042380065 -0.07402538 -0.03816151 -0.009791459 0.11452662 -0.072358005
0.0020811046 -0.06902152 -0.06954618 -0.06957792 -0.008354847 0.069804594 -0.083850004 0.0785533
-0.062243894 -0.18580677 0.27046055 -0.048060395 0.044155236 0.020230487 0.047710087 -0.06642386
0.09385233 -0.063339226 -0.187268 0.055991292 -0.03943474 0.031940576 0.0921342 0.051971897
-0.108940154 -0.059280254 0.10342435 0.0002445246 -0.09437344 -0.0662215 0.018220587 0.06675507
-0.052019253 0.06634707 0.021429267 0.03138301 -0.0009795276 -0.047871135 -0.08572947 -0.063214906
-0.024907522 -0.004431842 -0.079539806 0.03553583 0.064416036 0.10613595 0.11589684 -0.082907945
-0.10068767 0.038381472 -0.0067221546 0.02930756 -0.20043862 0.04689275 0.13737658 0.08252687
-0.012248171 0.06427607 0.06945952 -0.0027116165 -0.08605304 0.061312556 -0.04937043 -0.14893855
-0.1802373 0.097695254 0.04051253 0.039871164 -0.04528743 0.03902881 -0.033596423 0.0025434988
-0.062202647 -0.002753571 -0.010124891 -0.10030246 0.019024722 0.01960731 0.10784979 -0.02883728
-0.053982314 0.02526409 0.17773135 0.039252546 0.026295708 0.076167576 0.043402154 0.10671366
0.0031601703 0.043231994 -0.039779764 0.039636917 -0.09544712 -0.11793836 -0.0800227 -0.03599597
0.041892875 0.053605147 -0.06735849 -0.117609926 0.18338382 -0.024508383 0.11227397 0.08698657
0.016746104 0.07603974 0.05960194 0.08251415 -0.11215069 -0.123357035 0.05962986 0.037460107
0.02492123 -0.0070335837 -0.028789075 0.033370655 0.039743457 -0.10062418 -0.109920666 0.039815962
-0.01838374 -0.080992945 -0.02389483 0.041575756 -0.08790457 -0.044224866 -0.0020436703 -0.2324767
-0.037198808 0.014093634 -0.027924135 -0.040250584 0.07340586 -0.1138581 -0.009674597 -0.022845596
0.13601753 -0.11035624 -0.003846511 -0.09033936 0.010503646 -0.02440428 0.13093619 -0.0797516
-0.13810374 0.07825722 -0.045275047 0.03790199 0.12719323 0.026729822 0.11792979 -0.08093802
-0.011565318 -0.12807946 -0.123237886 0.019499207 -0.0013343974 0.041976843 0.09818804 0.08187758
-0.016846016 -0.026912563 -0.00034637447 -0.16814081 -0.07873798 0.032406628 -0.014471257 0.12010318
-0.06228038 -0.027240511 0.0044601164 0.07048709 0.12120468 -0.026463801 0.056499235 -0.03130248
-0.008138442 0.070776165 0.004807265 0.049495857 -0.06202515 -0.03117238 0.008311545 0.079917625
-0.07924818 0.13123815 -0.054636404 -0.003174102 0.04082047 -0.124052614 -0.16309988 0.0317741
0.014633023 -0.0052641933 -0.028023003 0.072756626 -0.06786747 -0.056066528 -0.031244615 0.07762441
0.017372396 0.07523184 0.015854197 0.016747715 0.059238818 -0.12121812 -0.0021914947 0.013693828
-0.05821119 -0.020427953 0.03853841 0.05712363 0.025270857 0.013403776 -0.0041858205 -0.10484912
-0.047103222 -0.099815145 -0.046543818 0.03300208 -0.11558405 0.11713972 0.033192698 0.04926373
0.02089142 -0.059178032 0.20160823 0.013762233 0.13403338 0.010293087 -0.017987572 -0.039202612
0.20123586 -0.080347165 -0.010596369 -0.037037283 0.027579539 0.07134555 0.013028886 0.041247863

features_extractor.encoder.conv.10.bias f4 [128]
00000000: a205 853a 1258 883c 0a8b 2bbc 32b0 a3bb
00000010: b1dc ee3b 2c1b a73c 946d 82bc 4914 01bd
00000020: 4626 acbd 0065 773c 8718 593c f485 6bbd
00000030: 48b3 99bc 417b f9bc fad1 24bd 1d07 04bc
00000040: a1ee f03b 2a86 233c 05f6 a93b 2997 f9bc
00000050: 6d4e 36bc 213b 923c 3fb6 d33c 930c 31bd
00000060: 4763 4bbd f229 febc 84a0 b6bc 5122 953c
00000070: 32f2 1dbd 88b6 1e3b 344e d7bc fdee cebc
00000080: 7f1e 31bc c236 443c fd3d f13a 017e cc3b
00000090: d9fa 0bbd 1ee1 3cbd 5428 61ba 2587 97bc
000000a0: 6862 0dbd 393a 81bd a830 fb3c 5918 86bd
000000b0: 2efd 24bd 96b2 f4bc 04b7 c8bc db0f 74bc
000000c0: 643f a43c d390 cd3b 12b7 5cbc b0cf 053c
000000d0: 7969 353c b4a5 1cbd 79e4 123c 3ad1 61bc
000000e0: 8386 c0bb d73c 13bd daa2 07bd 5170 57bd
000000f0: ce07 8abc fa74 05bd 3860 73bd 1871 02bd
00000100: 0445 373b 0653 05bd b376 bbbb 96b9 953b
00000110: dc3c 6f3b 131a 58bd 3157 bcbc 6cb2 75bb
00000120: 1537 6ebc fc1d 703b 9459 173b 4b35 87bd
00000130: a395 45bd 4eff 08bd 8dc4 5bbc b0ec f93c
00000140: 9ea5 f73b 5550 02bd bc65 b2bb cac0 64bd
00000150: 1385 6cbc 9b50 c53c e37c a3bb 8e51 fab9
00000160: a0ad acbc d7b0 a2bc 3503 0c3c 37f0 3abc
00000170: cf4f e0bc 558d b1bc d9ac 09bd d04d 91bd
00000180: 4f72 fc3a 6ed6 91bc 6038 9fb9 31d5 4dbd
00000190: ba09 dfbc 8fe7 4fbd e3a9 44bd 4c90 d1bc
000001a0: 8c2e 18bb 8183 a7bb 9d5d 8b3b bd3c 5dbc
000001b0: 0cbf bbbc 4dc1 c6bb 5072 75bd e104 833c
000001c0: 560c 1cbd be4c aebc c511 0f3c fa35 1bbc
000001d0: 0c03 b23c 9f37 f8bb 30c5 31bd 7462 a8bc
000001e0: 5cce f9bc d434 15bd 2255 b1bc 9dab 3e3c
000001f0: d519 34bd cd80 34bd 5a77 b8bc 07b9 09bc
0.0010148773 0.016643558 -0.010470161 -0.0049953694 0.007289492 0.020398699 -0.015921392 -0.031513486
-0.084057376 0.015099764 0.013250477 -0.057500795 -0.018762246 -0.03045428 -0.04023931 -0.008058337
0.0073526655 0.009980718 0.0051867985 -0.030467587 -0.011127097 0.01785046 0.025843738 -0.043224882
-0.049655225 -0.03102586 -0.022293337 0.01820484 -0.038561054 0.0024217684 -0.026282407 -0.025260443
-0.0108104935 0.011975946 0.0018405315 0.006240607 -0.034174774 -0.046113126 -0.0008589078 -0.01849706
-0.034517676 -0.06309933 0.03066285 -0.06547613 -0.040280513 -0.029870313 -0.024501331 -0.014896358
0.020049758 0.006273368 -0.013471382 0.008167192 0.01107251 -0.038243964 0.008965605 -0.013782794
-0.00587541 -0.035946693 -0.03311429 -0.052597348 -0.016849425 -0.03258226 -0.059417933 -0.031846136
0.002796472 -0.03254988 -0.005720937 0.0045692427 0.003650478 -0.05275924 -0.022990795 -0.003749038
-0.0145395 0.0036638966 0.0023094164 -0.06601962 -0.048238408 -0.033446603 -0.013413561 0.03050837
0.007557585 -0.03181489 -0.0054442566 -0.05584792 -0.014436024 0.024086287 -0.004989253 -0.0004774448
-0.021078885 -0.019859714 0.0085456865 -0.011409811 -0.027381806 -0.021673838 -0.033612106 -0.0709492
0.0019260141 -0.017802443 -0.00030368846 -0.050252143 -0.027226318 -0.05075794 -0.04801358 -0.025581501
-0.0023221103 -0.005112112 0.004253103 -0.013503251 -0.022918247 -0.0060655237 -0.05992347 0.015993537
-0.038097702 -0.021276828 0.008732264 -0.009473318 0.021729968 -0.00757499 -0.043400943 -0.020554759
-0.030493908 -0.036427334 -0.02164704 0.0116375955 -0.043969948 -0.044068146 -0.022517849 -0.00840593

features_extractor.encoder.fc.weight f4 [64, 128]
00000000: 1464 36be 50b2 dfbc 5c7e 203d 1155 a9be
00000010: 81f8 673e af96 2c3d 9a10 973c ba5a 29be
00000020: eb74 1b3e 3d56 02be 1975 a93c f469 db3d
00000030: f083 e23d c1c4 303e f13a c1bd 2825 67bd
00000040: bda8 a63d 340b 90be eaf3 403e 0b3d 263d
00000050: 73a4 70bb d078 e9bc 1261 403d 4d62 95bd
00000060: b6d0 a93d 0913 793d 8b8e 753e 58d3 0bbe
00000070: baf6 fb3d 5b91 9ebd 01b8 a03d 6b89 c4bd
00000080: 4e77 63be abe6 fabd 1bd4 d9bd 6fec 16be
00000090: 0d27 68bd d257 de3b b0cc de3d ba80 583d
000000a0: d790 583d 568c 66bc 02a0 afbc 286f 7ebd
000000b0: a417 41bd 50d2 433d db34 633e 1271 fbbd
000000c0: e468 8dbc 3c9d 79bd a769 113c b615 ce3d
000000d0: 4680 eebd e52f 3dbe 2002 143e b165 50be
000000e0: 7c9a 86bd 1bbb 6cbc 3a97 9439 a2f8 713e
000000f0: 8be0 f1bc 87f7 a5bd 80ab 2e3e e21e 3f3d
00000100: ddf1 17be 7246 923e 8c56 a4bd 9d2c b9bd
00000110: 8717 1e3e 3a0b 413e 84d0 993d 2db3 80be
00000120: 7e6f 9c3e cf85 01be 563f e9bd 239c 063e
00000130: e2b4 7d3e f807 22bc 4b1d 293e 6bd6 19be
00000140: ac79 ea3d 8032 f33d 68d4 06be 33f6 613e
00000150: 2b2f f3bd 27f7 27be 0a5e f5bd f9d0 93bd
00000160: 3d5a bcbd 081e 26be 6a9b b0bd 288a 203e
00000170: 5efd 1b3e be4d 1b3d 70b4 bd3d b25c c8bd
00000180: d495 903d 0476 98be a78a aa3c 9ffd 7dbd
00000190: fc7e 0d3d b878 773d af57 a0bd b825 a1be
000001a0: 0a61 90bd e3ce 92bb 8a9c 743e 85c8 74be
000001b0: 3856 fb3d dd10 143e 6881 d73c 7320 0d3e
000001c0: ca36 f6bd 16d5 913d 40d4 283d e1cc 5cbd
000001d0: 9e95 8abb c84e a8bd 28fb 9dbc 8ac5 82be
000001e0: 1d9d b2bc 712d 473e 98be 8bbd f2eb 4e3e
000001f0: 850c 593d 691a ad3d b025 49be 11a2 933e
00000200: 12d8 5fbd 6156 15be 17b0 a03b 50fa 393e
00000210: acac c43d 048d dc3b ed8f 63bc b22d 75bd
00000220: b5d8 87bc 8415 e93c 2db3 0ebd d948 3a3e
00000230: 55e0 673d 20d7 85be b8ac cd3c 2016 cc3c
00000240: 2965 4abb d799 003e 824b 383e 5b97 f8bd
00000250: 385a 53be 55ce 4cbe dcbc 41be 48eb 95be
00000260: a041 09bd 79f3 97bd 10cb e73d 3ca3 1fbe
00000270: 5428 e73d 81a2 40be 3e15 5abd 86e1 17be
00000280: 5b6e 113d 6b91 893e a7c0 013e cccf c33d
00000290: 8b28 92bd 058d cabd 220f 5bbd 72ed 47be
000002a0: 333b f23d 1ac0 b7be 94ad cd3d 2a25 b23e
000002b0: c9f8 ce3d 4b55 7cbc 67ef ed3d db3f 283e
000002c0: fc24 123d 3d45 23be 4157 863e 4c04 cb3c
000002d0: 119e 8cbe 1b0b 84be 487f 2bbc 910d 963d
000002e0: 14a4 5fbe aa62 083d 937a c2be 8537 293c
000002f0: 9ae5 a13d 8569 afbe 88f5 193d 6e3b c03d
00000300: 627a 8cbd dac0 e03c 6208 46be 878b 8e3d
00000310: af1c c43d e63b 17bd 7008 363e 09aa b6bd
00000320: 40f1 063e 358d ff3c 4289 603b 716d 573d
00000330: e25e d8bc a1ea d5bd 3978 f33c 40a0 ba3d
00000340: 0bc4 9cbd 1df3 2ebd ff33 23be ac65 01be
00000350: 1c9f 843e 498b 75bd 6e95 1d3e 6fb1 853c
00000360: 4a51 a33d 63f3 00be d1f8 f1bc 4e38 96bd
00000370: cde6 12be 4a47 54bd 7227 6dbd ef81 0fbe
00000380: 7362 fcbd 29b4 dfbd c513 9e3d e597 3b3e
00000390: 5d70 d63d fd50 6ebd 4da3 b8bd 1577 793c
000003a0: 6814 283e 4267 023e 1a4f d43c 781b 7a3e
000003b0: 340a 65be 726d 38be 48f9 82be 17b4 de3d
000003c0: 55b3 1abe 60ef e03c 5df8 0d3d 46f9 87be
000003d0: 30c0 cc3c d009 3e3d dfe8 2b3d 5190 a0be
000003e0: bb05 d63d 89da 773e b5cf c43c e7f8 7bbe
000003f0: c6b7 35be a63c 86bd 2992 d53d 4851 983d
-0.17811614 -0.027306706 0.039183006 -0.33072713 0.2265339 0.04213589 0.018440533 -0.16538516
0.1518132 -0.1272821 0.02068572 0.10713568 0.11060321 0.17262556 -0.0943507 -0.05643192
0.08137653 -0.28133547 0.18843046 0.04058556 -0.0036719113 -0.02849999 0.046967573 -0.0729414
0.082917616 0.06080917 0.23980157 -0.1365484 0.12302919 -0.07742568 0.07847596 -0.09596523
-0.2221348 -0.12251028 -0.10636159 -0.1473863 -0.056677867 0.0067853713 0.10878885 0.05285714
0.052872505 -0.014071545 -0.021438602 -0.062117726 -0.047141686 0.04780799 0.22188132 -0.12277426
-0.01726193 -0.060940966 0.008875287 0.10062735 -0.1164556 -0.18475302 0.14453936 -0.20351292
-0.06572434 -0.014448906 0.00028341432 0.23630002 -0.029526016 -0.08103853 0.1705761 0.04666031
-0.14838357 0.2856937 -0.0802432 -0.090417124 0.15438662 0.18851939 0.07510474 -0.251367
0.30553812 -0.126487 -0.113890335 0.13145499 0.24776033 -0.009889595 0.1651508 -0.150232
0.11448988 0.118748665 -0.13166964 0.22066574 -0.11874231 -0.16402875 -0.11980827 -0.07217593
-0.09196899 -0.16222394 -0.08623393 0.15677702 0.1523337 0.037915938 0.09262931 -0.09783305
0.070598274 -0.2977754 0.020818068 -0.06200945 0.03454493 0.06041786 -0.07829224 -0.3147409
-0.07049759 -0.004480229 0.2388784 -0.23904617 0.12272304 0.14459558 0.026306823 0.1378191
-0.12022169 0.07120721 0.041218042 -0.053906325 -0.0042292615 -0.08218151 -0.0192848 -0.25541335
-0.021803433 0.19450928 -0.06823462 0.20207193 0.052990455 0.08452303 -0.19643283 0.28834584
-0.05464942 -0.14583732 0.004903804 0.18161893 0.09603247 0.0067306776 -0.013889295 -0.05985803
-0.016582826 0.028452642 -0.034838844 0.18191852 0.056610424 -0.2614069 0.025106773 0.024912894
-0.003088305 0.12558685 0.17997554 -0.12138244 -0.20639884 -0.20000584 -0.189197 -0.29281068
-0.03350985 -0.074194856 0.11318028 -0.15589613 0.11286989 -0.1881199 -0.053242914 -0.14832124
0.035505634 0.26868758 0.12671147 0.095611185 -0.07136639 -0.098901786 -0.05348123 -0.19524172
0.118276976 -0.3588875 0.10042873 0.3479398 0.10106046 -0.015401195 0.11617928 0.16430609
0.035679802 -0.15944381 0.26238444 0.024782322 -0.27464345 -0.25789723 -0.010467358 0.07326806
-0.21839935 0.03329722 -0.37984142 0.010328178 0.07905121 -0.34260193 0.037587672 0.09386335
-0.0685928 0.027435709 -0.19339135 0.069602065 0.095757835 -0.036922358 0.17776656 -0.089191504
0.13177967 0.031195262 0.00342615 0.052594606 -0.026412431 -0.104451425 0.029720413 0.091125965
-0.0765458 -0.04271232 -0.15937804 -0.12636441 0.2590264 -0.059947286 0.15389034 0.016319958
0.07974489 -0.12592845 -0.02953759 -0.07334958 -0.14345856 -0.0518258 -0.057898946 -0.1401441
-0.12323465 -0.10923035 0.077186145 0.18319662 0.1047065 -0.058182705 -0.09015522 0.015226145
0.16414034 0.12734702 0.025916625 0.24424541 -0.22367173 -0.180105 -0.25580812 0.10874193
-0.15107472 0.027457893 0.034660686 -0.26557368 0.024993986 0.046396077 0.04197013 -0.31360105
0.10450312 0.24204458 0.024024824 -0.24606667 -0.17745885 -0.065545365 0.104282685 0.07437378

features_extractor.encoder.fc.bias f4 [64]
00000000: 9eea 743c 13fc 3c3c 4811 b43b ab46 973c
00000010: 1e44 ea3c 10cd 983c 4378 0c3c c442 4b3c
00000020: 4283 f93c e406 d63c e623 ee3c 03ca 863b
00000030: ae37 c33c 5318 363d 7383 31bd 3135 83bb
00000040: ca8c ccbc 5a08 253d 219e 0b3d db73 803a
00000050: 9a71 a139 6ea5 8fbc bca9 d7bb 3877 ef3c
00000060: 8f44 983c 9202 a9bc d3a6 d83a 40b3 21bd
00000070: 69c5 69bc c469 98bc 990d 0dbc a7a7 f33b
00000080: 1b5f 60bc 3b82 ffbb b4d4 59bc a511 87bb
00000090: fe3d aebc 5107 48bc 94fc 223c 3972 853c
000000a0: 2222 49bc 014a 87bc a340 9c3c 8af0 933c
000000b0: b1ff fc3b 0066 86bc 5a20 333c 3eb5 95bd
000000c0: e159 d93c 7312 033d 714c 19bd 425a 37bb
000000d0: 91f0 353d b8e3 683c c380 073c 6702 b3bc
000000e0: b5d4 243c 0da2 0fbd a9a9 dbbc 84cf 003c
000000f0: c38e 2cbd caa1 09ba 853e 893c dfbd e63c
0.014948515 0.011534709 0.005495224 0.018466314 0.028596934 0.018652469 0.0085735945 0.012406055
0.030458096 0.026126333 0.029069852 0.004113437 0.023830261 0.04445679 -0.04333825 -0.0040041436
-0.024969477 0.040291168 0.03408635 0.0009800153 0.00030792953 -0.017534938 -0.006581513 0.029231653
0.018587379 -0.020631108 0.001652921 -0.039477587 -0.014268258 -0.01860512 -0.008609199 0.007435757
-0.01369455 -0.007797507 -0.013295341 -0.0041219764 -0.021269795 -0.012208776 0.009947915 0.016289817
-0.012276204 -0.01651478 0.01907379 0.018059034 0.0077209105 -0.01640606 0.010933006 -0.0730996
0.026532115 0.032000016 -0.037426416 -0.0027977382 0.044418875 0.014214449 0.008270445 -0.021851731
0.010060479 -0.035066653 -0.026814299 0.007861976 -0.042128336 -0.00052502437 0.016753444 0.02816671
