weights/reward-predictor-lstm-ns-1-e-100-nt-100-rew-v.pt (torch, 135616 bytes, 4 tensors)

lstm.weight_ih_l0 f4 [256, 64]
00000000: b0e1 b53b 62e6 fd3c b74e 03be 8e3c d8bd
00000010: 8d31 e73d 40c8 073e e9fc cfbc 5be3 c9bc
00000020: 6f1c a83d 1546 303c b860 34bc aed6 25bd
00000030: 56c0 8e3d b936 fc3d e7ff b03d 6452 c1bd
00000040: c247 253c 5381 41be 88e9 c53d 3e48 433d
00000050: 35e9 d2bc 260e c6bd 6ef1 cdbd 6769 1abd
00000060: 3ccf 24be 9410 7dbd f22b 483e b156 533d
00000070: 537f 98bd bf14 393e a6b4 293e a9f0 ac3d
00000080: 81c5 40bb 4e92 13bc 9279 00bd f93f 1e3d
00000090: b345 f6bd fb90 823d 42fd 9b3d 2655 fcbc
000000a0: 61e3 28be 49e5 b3bd 27b0 f73d fec5 c7bc
000000b0: 5cf0 043e b5e8 343d 6964 f03b b4b3 8b3d
000000c0: bb03 27bc ba55 183e cf72 ba3d aaf3 b73c
000000d0: 4525 bf3d e847 92bd e276 ac3c bc95 05be
000000e0: a74a a53d 9487 bd3c 3626 e63d 8e7f 24be
000000f0: 391e f4bd 9c94 72bd 0493 56bd 6fdc 8fbd
00000100: 0d0c a5bd 3e0d c6bd 0773 d8bd f524 993c
00000110: c965 2ebc 2748 32bd f0f5 dc3c 0ed4 e53c
00000120: d2bd 0f3c 7248 f63c b6c5 adbd a97d f33c
00000130: d4a3 a9bd 06a9 41bd 660d 7f3c 4a57 843d
00000140: 861f c8bd ee90 31bd e1ae 3cbd d742 4dbc
00000150: abf1 833d c2c6 ca3c d9ab 1cbe 5aa7 db3c
00000160: 6021 f63d a7ac 273d 2e0a 0c3e 6e74 d8bd
00000170: a0fd bf3d d334 bd3d 47af 443d e48b 153e
00000180: 129f e53d 841e 683d df4c eb3d 3516 d5bd
00000190: c571 02be d76d ee3c 31b8 b33c 2789 c93c
000001a0: d045 3b3b 2efe acbb 0043 98bd 3baa d4bd
000001b0: a23d dbbd 1926 2cbe f65d 3bbd ce98 813d
000001c0: c675 1abe bba8 f93d 177d 8d3d f87d 14bd
000001d0: 7164 8f3d b54a 63bd c648 523d d299 8cbd
000001e0: 0c46 9f3d 0f5d 193d 1945 593d d8b8 a5bd
000001f0: 063a 9dbd e5f4 d83d 6469 0a3e 5f1e d63c
00000200: ba94 3b3d 27ba 0e3e 7abd 15be 763f 3f3c
00000210: 8119 98bd dc8d d33d 1152 98bd 75a0 8b3d
00000220: e0ac 60bd 8a3c 58bd 5b45 fb3d 8a71 ec3b
00000230: 113d ebbd b49a 99bd 6c49 a9bc 8fba 613c
00000240: d514 893d 73b5 abbc eaa6 4bbd 8a72 1c3e
00000250: be1e b7bc 54ca 41be 4a1b 3abe c903 043e
00000260: d640 18be aaac 1a3e ee90 243e 02c5 0e3d
00000270: d40e 223e 3df0 acbc dd13 fe3d c909 e23d
00000280: 03ba 51bd c8a2 a13d b579 ca3d d003 503d
00000290: d0ed 6fbd f682 283d 7a4f 083c 236b 03be
000002a0: 11e9 ccbd a6b0 a23d 2e47 9dbc 0d34 b5bd
000002b0: 89c1 20bd 7d0e 423d 3589 433d ace6 e3bd
000002c0: e2dc debd 962b 3c3d 68fc 9cbd ef11 0c3d
000002d0: be97 05be 47cc 013d e7da 6bbd b317 893d
000002e0: d4b4 e93c e57b 7aba 09e7 823d 4ff6 6abd
000002f0: 1aa6 ec3b 3704 433d 4f9c 063e 3c10 8bbd
00000300: e415 8d3c 20fb 963c 6b0c ef3d 6046 5bbc
00000310: 4664 53bd fb7e 663c 6292 813d 4e3b 843d
00000320: 4db7 023e a708 6dbd 906c 61bc d1e0 77bc
00000330: 4435 df3d b9d3 093c 5fef 14be b087 76bd
00000340: 337f f7bd f21a 34bd 258d 433e b5bb b5bc
00000350: 347b 87bc 15b5 6d3c bc27 34be 3226 873d
00000360: dff2 b2bd 1322 9e3d ced5 583d 451f 073e
00000370: bfc1 8cbc 9569 6e3e 4ab0 2e3c 2351 f4bb
00000380: 2096 a23c 2561 183e 27b7 ffbd 331a 19be
00000390: b8db 4f3d 3d5b 3f3d b3d9 c4bd 66ce dfbd
000003a0: 51f9 a53c 43de 9d3d 9349 d13d 15e3 94bd
000003b0: 363a a03d e70c d0bb e696 cabd 1899 16be
000003c0: 09a0 08be ff96 773e c763 9d3d 27d2 65bd
000003d0: 82e2 05bc 8456 063e 6929 8ebb 5993 b1bc
000003e0: a890 bbbd c08e d7ba e0c2 003e c6da 263d
000003f0: 15f2 81be 1751 c03c bd12 85bd 5778 d13d
0.0055505857 0.030993644 -0.12822996 -0.10558425 0.11288748 0.13259983 -0.025389152 -0.024644544
0.08208548 0.010758896 -0.011009388 -0.040487938 0.06970279 0.12315125 0.086425595 -0.09439543
0.010087909 -0.1889699 0.09663683 0.047676317 -0.025745967 -0.09670667 -0.10055815 -0.037698176
-0.16094679 -0.06178339 0.19548014 0.051596347 -0.0744616 0.1807432 0.16572818 0.0844434
-0.0029414597 -0.00900705 -0.03136594 0.038635228 -0.12025013 0.06375309 0.076166645 -0.03080232
-0.16492988 -0.08783967 0.12094145 -0.024386402 0.12982315 0.04416724 0.0073361886 0.06821385
-0.0101937605 0.14876452 0.09103929 0.022455055 0.093332805 -0.07142621 0.021052781 -0.130454
0.080708794 0.023135938 0.11237757 -0.16064283 -0.11919827 -0.059223756 -0.0523863 -0.07024466
-0.08058939 -0.096704945 -0.10568815 0.01869438 -0.010644385 -0.04352584 0.02697274 0.028055217
0.008773284 0.030063841 -0.08484976 0.029723005 -0.08283201 -0.047280334 0.015567159 0.064619616
-0.097716376 -0.043351106 -0.046065215 -0.012528143 0.06442579 0.024752978 -0.1529993 0.026813198
0.120180845 0.04093614 0.13675758 -0.10569082 0.09374547 0.09238591 0.04801872 0.14604145
0.11211981 0.056669727 0.114892714 -0.10404626 -0.12738712 0.02910511 0.021938415 0.024601532
0.0028575547 -0.005279324 -0.07434654 -0.103840314 -0.10705115 -0.16811408 -0.045743905 0.06327973
-0.1508399 0.12190386 0.069086246 -0.036252946 0.070015796 -0.055491168 0.051338933 -0.068652764
0.07777032 0.037442263 0.053044412 -0.08091897 -0.07677083 0.10593585 0.13516766 0.026137529
0.045796134 0.13938199 -0.14623061 0.011672845 -0.074267395 0.10329792 -0.07437528 0.06817714
-0.054852366 -0.05279211 0.12269088 0.0072156833 -0.11486257 -0.075002104 -0.020664893 0.013777389
0.066934265 -0.020960545 -0.04971973 0.15278068 -0.022353526 -0.18924838 -0.18174472 0.12892069
-0.14868483 0.15104929 0.16070911 0.03485585 0.15825969 -0.021110648 0.12406132 0.110370226
-0.051202785 0.07892376 0.09886495 0.050784886 -0.058576405 0.04114052 0.00831973 -0.12833838
-0.100053914 0.07943849 -0.01919898 -0.088478185 -0.03924707 0.0473771 0.047738273 -0.111279815
-0.10881974 0.045940004 -0.0766533 0.03419679 -0.13046166 0.031688955 -0.05758181 0.066939734
0.028528608 -0.0009555205 0.06391723 -0.057363804 0.0072219493 0.04761144 0.13145564 -0.06790206
0.017222352 0.018430293 0.116722904 -0.013383478 -0.0516093 0.01406836 0.063267484 0.06456624
0.12765236 -0.05786958 -0.0137587935 -0.015129284 0.108988315 0.008412295 -0.14544438 -0.060187995
-0.12084808 -0.04397101 0.19096811 -0.022184232 -0.01653824 0.014508505 -0.17593282 0.06599082
-0.0873773 0.07721343 0.052938275 0.13195522 -0.01718223 0.23282464 0.010662148 -0.0074559613
0.019846976 0.14880808 -0.124861054 -0.149514 0.05074665 0.04671787 -0.09611835 -0.10928039
0.020260485 0.07708409 0.10219111 -0.07269875 0.07823603 -0.0063491943 -0.09892063 -0.14706838
-0.13342299 0.24178694 0.07685047 -0.05610862 -0.008171679 0.1311894 -0.0043384326 -0.021676706
-0.0915845 -0.0016445741 0.12574339 0.040735982 -0.25380006 0.023476167 -0.06497715 0.10228031

lstm.weight_hh_l0 f4 [256, 64]
00000000: f681 7f3d 8e53 543e 919a b23d 0476 95bc
00000010: d58e 04be 8676 22bc a107 50be 9b73 a6bc
00000020: 32c0 96bd 7fdc 673d 0627 64bd b015 9dbc
00000030: 5559 81bd d9da bc3d b808 8e3d bec8 26bd
00000040: ec33 643e 3017 83bd 9668 89bd 1ccc ad3d
00000050: f317 80bd bc2a 903d 51e6 63bd a5ea f73b
00000060: 42c1 223e 5460 463d a758 593d 4b30 0dbe
00000070: b3bb 8f3d 96bb 94bd 9bd9 293d 8d3a febb
00000080: dc52 43bd de86 c0bd 1ea6 813c 8ef1 c83d
00000090: 48bd 77bd a771 48be 3480 93bd 4aa0 e7bd
000000a0: 817a cfbc 8fb3 283e 9562 433e ab2d 0b3e
000000b0: 80c0 21bc 5302 ddbd 52f0 9a3d be4d 563d
000000c0: 9f83 633d e4ef dbbc 6d29 9dbd 6f2f 3abe
000000d0: 0661 89bb 5634 d63d ea20 86bd 1733 14be
000000e0: 1f80 1ebe 7f27 a1bd 01f9 eb3c 7f68 ae3d
000000f0: 3ac8 f4bd 16ba 633d 6e2e a33c 7d3f 693d
00000100: 7384 b23d 1435 4abd 9263 f7bc 88ad b23d
00000110: 846a 37be c5d3 323e 39c3 0abe 8522 36be
00000120: 51fb 01be 511a 21bd b911 5ebb 76cd 12bc
00000130: 5987 063d 0d0d 5dbc f1d6 04be 4763 c53c
00000140: 8ee4 0f3d d42f fdbc 7b7d bebd 4dc9 883c
00000150: b3c8 2ebc bcd9 b13d 63b0 48bd 78fe c83d
00000160: be52 553a 7b3c f23c b421 d4bd fdc9 b6bd
00000170: 748f 2bbe 53a3 1cbd 9051 a43d bdb2 96bc
00000180: 6d8b 0abe d042 323e 38e3 a73d 39a8 11be
00000190: b8f7 63bc 3055 47be 8afe fd3d 6021 353d
000001a0: cbc6 083c 11ac fe3c 0aa5 cd3d 980f 903d
000001b0: 559a a6bd 470d fdbd 7593 003e b272 d4bd
000001c0: dcf9 b43c b6b6 3e3d 208b ca3c c03e 9dbd
000001d0: 6c06 1dbd c484 b93d 6041 3c3e 985d 3cbe
000001e0: 336e 043d 8ae0 8dbd e235 403a 73d4 e63d
000001f0: 5f2e 67bb 6647 a4bc 6982 9a3d 3cd0 10be
00000200: 25e4 413d 7d94 2cbd 12d1 a53d 7a3a 4ebd
00000210: a7c0 173c b5fd 223e 69da 0cbc 6535 a93d
00000220: c41b be3d 8c9e 6bbd 2392 9dbd 28e6 493d
00000230: 2f01 023e 11ba 5f3d 207f 10be 03b2 7abd
00000240: 251d 183e 4a7e 9c3d f7bf 4a3a 5479 ddbd
00000250: 95b5 203e 14fb b2bd ff47 1bbd 4f58 0c3e
00000260: 0d09 213d 91bf 93bd 0287 afbd bb49 7d3b
00000270: b9c8 e6bc d8fd e23d 4829 c93b c9c6 f93c
00000280: 6620 4b3d aac8 d13d 2f8c 373b 824b 21bc
00000290: de24 de3d 26a9 11be e973 edbd 0dd5 6ebd
000002a0: 809a 7fbd 6a06 bcbd 423c d33d b684 13bd
000002b0: f6a8 853d f75d af3d 3416 ba3d baed a93b
000002c0: cda4 20bb 2983 393e 559c 023e 0083 95bd
000002d0: 548e ff3d 31e7 123e 72d3 ab3d 96d0 93bd
000002e0: 2ec4 1ebe c25e 05bd b189 5f3c c98c aebc
000002f0: 9ab3 59be c6dd c03d a030 a5bd d812 223e
00000300: 061d b53d eb7f b43d b21b 693e c68e a93d
00000310: ae86 093d 789f fe3d 65c8 093d d8fa d7bd
00000320: 0b5f 6c3d 8681 89bd 788c 7bbd fb9d 823d
00000330: 843c b03d 35d1 f93d bf77 933d aea3 0bbe
00000340: 2454 173e 3731 34bd 4aeb 4b3c ba26 8e3d
00000350: 4ced 773e a52e 623c d141 c5bd 4b2b cc3d
00000360: 22c1 af3d e058 073b d767 91be 4f9d 373d
00000370: 624b 573d 3da8 17be 0e6d c7bb 045c 28bc
00000380: 5fdc ac3c a4e7 4dbc a9b6 d0bd 2e7f 15be
00000390: 61f0 3e3e d3b1 b6ba 460d 72be e33a c23d
000003a0: c657 2bbe 47e2 9e3d 749d f33d 718b ce3d
000003b0: ff5c 4d3d d9d3 ab3e 6684 ae3c 6794 923d
000003c0: 0eb3 f53c df57 4f3d df8d 153e d1d2 88bc
000003d0: f539 c4bd 7fb4 71bd 16c7 e43d 23ff 97bd
000003e0: 8ffe 06be b0b8 1e3e b7ee 23be f424 713e
000003f0: 09d6 bebd 86c2 e33c cf06 323e bdda c13d
0.0623798 0.20734999 0.087208875 -0.01824475 -0.12945111 -0.0099159535 -0.2031541 -0.020318797
-0.07360877 0.056606766 -0.05570128 -0.01917538 -0.06315867 0.092214294 0.06935257 -0.040718786
0.22285432 -0.06400907 -0.06709401 0.084861964 -0.06254568 0.07039401 -0.05563957 0.0075658136
0.15894035 0.04843171 0.05306306 -0.13787954 0.07018223 -0.07262342 0.04146729 -0.0077584446
-0.047686443 -0.09400724 0.015826281 0.09811698 -0.060483247 -0.19574605 -0.07202187 -0.113098696
-0.02532697 0.16474746 0.19080575 0.1359164 -0.009872556 -0.10791459 0.07565369 0.052320234
0.055545446 -0.026847787 -0.07673917 -0.18182157 -0.0041924743 0.10459201 -0.065492466 -0.14472614
-0.15478562 -0.078688614 0.028805258 0.08516025 -0.11952253 0.055597387 0.0199196 0.056945313
0.08716669 -0.049367025 -0.030198846 0.08724505 -0.17911726 0.17463596 -0.13551034 -0.17786606
-0.12693526 -0.039331738 -0.0033885075 -0.0089601185 0.03284392 -0.013491881 -0.12972619 0.02409519
0.035130076 -0.030906595 -0.09301277 0.01669755 -0.010667968 0.08684108 -0.04899634 0.09814161
0.0008137635 0.029569855 -0.10357991 -0.08925245 -0.16753942 -0.038241696 0.08023369 -0.018395776
-0.13529749 0.174083 0.081976354 -0.14224328 -0.013914041 -0.1946609 0.12402065 0.044221282
0.008348177 0.031087907 0.10041244 0.07034224 -0.08134905 -0.12356048 0.1255625 -0.10373439
0.022091798 0.046560965 0.024724543 -0.07677984 -0.038336203 0.09058526 0.18384314 -0.18395078
0.032331657 -0.06927593 0.0007332248 0.1127099 -0.0035275442 -0.020053577 0.07544405 -0.14141935
0.047336716 -0.042133797 0.080965176 -0.050348736 0.0092622405 0.15917094 -0.008596995 0.08262137
0.092826396 -0.05752425 -0.07693889 0.04929176 0.12695764 0.054620806 -0.14110994 -0.06120492
0.14854868 0.07641275 0.00077342935 -0.10814157 0.15694268 -0.087392956 -0.037910458 0.13705562
0.039315272 -0.07214273 -0.085706726 0.0038648683 -0.028171884 0.11083573 0.0061389543 0.030490296
0.049591444 0.10243352 0.002800714 -0.009844663 0.108468756 -0.14224681 -0.11594374 -0.05830865
-0.062403202 -0.09180911 0.10314228 -0.036015235 0.06526367 0.08562844 0.09086266 0.00518581
-0.0024512291 0.1811644 0.12754948 -0.07300377 0.12478319 0.14346005 0.08389939 -0.07217519
-0.15504524 -0.03256107 0.013643668 -0.021307366 -0.21259919 0.094173 -0.08065915 0.15827501
0.088434264 0.08813461 0.22764471 0.08279185 0.033575706 0.1243276 0.033638377 -0.105458915
0.057707828 -0.06714158 -0.06141326 0.06377789 0.086052924 0.12198106 0.07200574 -0.13636658
0.14778191 -0.043992247 0.012446234 0.0694098 0.24211615 0.013805066 -0.09631694 0.09969195
0.08581759 0.002065234 -0.28399536 0.044827756 0.052562125 -0.14810272 -0.0060859984 -0.0102758445
0.021101175 -0.012567434 -0.1019109 -0.14599296 0.18646385 -0.0013938494 -0.23637876 0.09483888
-0.16732702 0.07758003 0.11895266 0.1008519 0.050137516 0.33560064 0.021303367 0.07157212
0.029992606 0.05062091 0.14604901 -0.016702088 -0.09581367 -0.059010025 0.11170785 -0.0742171
-0.13183044 0.1550014 -0.16009031 0.23549253 -0.09318168 0.027802717 0.1738541 0.09465549

lstm.bias_ih_l0 f4 [256]
00000000: 7df3 e3bd 659b 2bbe 9ad8 a93d fd5b 123e
00000010: 4704 43be 4f7c bdbb 14c3 b4bd 8816 983d
00000020: 80b1 743d 45bd c3bd 199f 0e3e c5c8 943d
00000030: 3de2 c53d ee37 f13b 2305 f33c 5d9b 0dbe
00000040: ee2f 07bc 3e98 1abe 02b9 be3d 6e88 8fbd
00000050: 50a9 42be 3c3a 0b3e 928c cbbd d486 e43c
00000060: a24f 34bd 5d21 8fbd 6fbe 27be 4d20 a7bd
00000070: 8de3 dd3c 2bdb 8cbd 9d90 973c 9d5a ca3d
00000080: 69cd dc3c 15b8 d2bb 7ae3 3c3d 7f3c a63d
00000090: 1c04 483d e633 183e d7b9 13bd 9d1c 16be
000000a0: ab6b b6bd 4a83 cd3d b2e9 253c 2694 c83d
000000b0: 3aae ad3d f6b0 86bd a220 eebd 2956 613c
000000c0: 88c4 dabd f775 1e3d c552 0cbc c7fb 3abd
000000d0: 99d4 21bd d3db 0dbe 8f8b f3bd baee 95bc
000000e0: 225a 49bd 2628 4e3e 798b 44be 0372 17be
000000f0: 3c4e 1bbd 745c 893d 934a b1bd 7bd0 bfbd
00000100: 36de ccbd c2b5 fabd 3cca d53d 3047 a43d
00000110: f984 5d3e 1454 a93d fa39 463e dac5 013d
00000120: 129e 83bc 52af 353c 72a3 993d 7c57 40bb
00000130: 1cc6 103d 154a f7bc c0ef c53d e354 ecbd
00000140: 4a45 a6bc 65b9 373d 7d7b d4bd 3124 fdbc
00000150: 383a 4c3d e6c3 5abd 3c16 fd3d 767c a53d
00000160: 4613 af3d b47f 053d ec07 bd3c 8046 c93d
00000170: cf9d 9abc 19c5 b83c 0019 c03d 35ab 80bd
00000180: 4041 d13d d882 fdbd 0e87 59bd d527 243d
00000190: b735 e6bb 918f 093d 819a 553c 4be9 af3d
000001a0: 6bad 493b 7343 98bd 8b38 44bc ed0c 043e
000001b0: d436 763c 3874 143e 06e1 6c3b 9ce6 f73c
000001c0: 5af5 853d 3603 73bd 02c2 74bd 1096 36bd
000001d0: c99e 313e 6fa2 183d 8ede d3bd da5a f63d
000001e0: 7526 8a3d fda2 4ebd fe74 41be 354a e63d
000001f0: db7c d3bd 3cce 8e3d 8162 00bd 6638 893c
00000200: 88d4 f73a 7505 443c bc93 febd 1893 dcbd
00000210: 1f39 123e 4446 f7bd 124a 6fbc aada 263e
00000220: 12f9 413e 56d6 bb3d 2f7f 133c cb5c 98bc
00000230: 3582 e83d 0dd5 81bd 68be 6dbc 218f 02be
00000240: 31b9 18bd 21f8 b03d ae25 803b b46e 18bd
00000250: 0db8 a53b 0c17 23be 1246 063e bb8a ecbb
00000260: 981c a4bd 8b30 84bd a16c 813d 0b4e 5f3d
00000270: e01c 3e3d 1e34 a03d 8479 33bd dd5f 273d
00000280: e6f8 fa3d 0c50 943d 7275 033c 023a b53d
00000290: 0906 dbbd 17a2 c8bc cb69 573d c1f4 7e3d
000002a0: c3e7 39bd bb8a 9fbd 0648 05be 37fd 0ebe
000002b0: 4c3f a33d ca39 02be 04be 4dbc 323a 883d
000002c0: dd32 88bc 953d 98bd 00bf 923c 92bc 283e
000002d0: 68cf a53d f420 ddbd 40b5 79bd f9d6 033e
000002e0: 0b8a 893d d53c 673d 5a0f 79bd cf1c a2bd
000002f0: 0de4 0e3e 218b 083d 6f0f a8bc f8a8 e43d
00000300: bd0b ffbd bc9f 28bd 7792 463d 0a95 52ba
00000310: 2d18 e73c 9240 d13b 1b29 273e c924 0e3d
00000320: adc9 81bb 2390 a43c 7946 eebd 660e 343d
00000330: 113a 4fbb 736e b2bd f4b2 ccbb d5e5 ddbd
00000340: bd8c 0c3c 782a d3bc 47b8 0cbe 4e6e caba
00000350: a279 ac3d c759 f13d 707f 90bd 15c7 0abe
00000360: 4d2d 913d 2804 0d3d 5413 b7bc 9a97 0bbd
00000370: 47df 123e 25d3 bdbd 92fa 13be 652e c2bd
00000380: 0db5 c03d 4b16 02be 97e6 c83d f29d 08be
00000390: e592 d43d def8 653d ebac d6bd fd9e 29bd
000003a0: df59 a4bd 2488 c73c 5ce4 14bd de14 aebd
000003b0: 60f2 023e 61c0 8c3d e44e e53a a3a2 5c3d
000003c0: d1d9 c4bd 46b6 9abd 89dc bebd 671f 1a3d
000003d0: 2dce 0c3d 95e4 dbbd 71b5 abbd dab5 973d
000003e0: a88b 7f3d c82d bd3d 44a6 46be 3c9b 1bbe
000003f0: 150a e7bd 5b03 2abd 61a7 93bc 9d83 a63d
-0.11130426 -0.16758497 0.082932666 0.14292903 -0.190446 -0.005782641 -0.08826271 0.074261725
0.05973959 -0.09557585 0.13927878 0.07264856 0.09662292 0.0073614037 0.029665535 -0.13828798
-0.008251173 -0.15097138 0.09312631 -0.07008444 -0.190099 0.13596433 -0.09938921 0.027896322
-0.044021256 -0.069887854 -0.16381238 -0.08160458 0.027086044 -0.068777405 0.018501574 0.09880564
0.026953416 -0.0064306357 0.046115376 0.081170075 0.048832044 0.14863548 -0.036065903 -0.14659353
-0.08907255 0.10034807 0.010126518 0.09793882 0.08480497 -0.06576721 -0.11627318 0.013753452
-0.106820166 0.03868672 -0.008564656 -0.04565027 -0.03950939 -0.13853388 -0.11891853 -0.01830231
-0.049158223 0.20132503 -0.1919383 -0.14789586 -0.037916407 0.06707087 -0.08656802 -0.09365936
-0.10003321 -0.12241699 0.10438964 0.080213904 0.21632756 0.0826799 0.19358054 0.031682827
-0.016066585 0.011089163 0.07501878 -0.002934902 0.03534518 -0.030186692 0.09664869 -0.11539628
-0.020296711 0.04485454 -0.10375116 -0.030901046 0.04986021 -0.05340948 0.123577565 0.0808038
0.08548598 0.03259249 0.023075067 0.098279 -0.018874077 0.022554921 0.09379768 -0.06282655
0.102175236 -0.12378472 -0.053107314 0.04007705 -0.0070254463 0.03358418 0.013037325 0.08589419
0.0030773531 -0.0743474 -0.0119763715 0.12895556 0.0150277205 0.14497459 0.0036144867 0.03026133
0.06540938 -0.059329234 -0.059755333 -0.044576705 0.17345728 0.037264284 -0.10345183 0.12029047
0.06745616 -0.050448406 -0.18892285 0.112446226 -0.10326549 0.0697293 -0.03134394 0.016750526
0.0018907944 0.011964192 -0.12430522 -0.107702434 0.14279602 -0.12073949 -0.014605062 0.16294351
0.18942669 0.09171741 0.009002491 -0.018598935 0.1135296 -0.06339464 -0.014510728 -0.12749912
-0.037285987 0.08641077 0.003910742 -0.03721495 0.005057341 -0.1592676 0.13112667 -0.0072186864
-0.08013266 -0.06454571 0.063195474 0.054517787 0.046414256 0.078224406 -0.04381706 0.040862907
0.12254505 0.0724183 0.008023607 0.08848955 -0.106945105 -0.024491353 0.052591126 0.062245134
-0.04538704 -0.077901326 -0.13015756 -0.13963781 0.07971057 -0.12717357 -0.01255751 0.06651725
-0.016625816 -0.07433621 0.017913342 0.16478184 0.080962 -0.10797301 -0.06096387 0.12874974
0.06715783 0.0564545 -0.060805656 -0.07915651 0.13954182 0.03333581 -0.020515172 0.11165041
-0.12453411 -0.04116796 0.048479524 -0.0008033073 0.02820977 0.006385871 0.16324274 0.03470305
-0.003960809 0.020088261 -0.11634535 0.043959044 -0.0031620304 -0.08712473 -0.006246919 -0.108348526
0.0085784765 -0.025777087 -0.13742171 -0.001544425 0.08421637 0.11784702 -0.07055557 -0.13552506
0.070887186 0.03442779 -0.022348084 -0.034080125 0.14342986 -0.09268788 -0.14451054 -0.09481505
0.09409533 -0.12703817 0.098096065 -0.13341501 0.103795804 0.05614554 -0.104822 -0.04141139
-0.08024954 0.02435691 -0.036350593 -0.08500074 0.12787771 0.06872631 0.0017494825 0.05386604
-0.09611858 -0.07554297 -0.093194075 0.037627604 0.034376312 -0.10736958 -0.083842166 0.07407732
0.062389046 0.09237248 -0.19399363 -0.15195936 -0.1128122 -0.041507106 -0.018024148 0.08130572

lstm.bias_hh_l0 f4 [256]
00000000: f369 24be 72b5 d1bd 6d74 833c d1fc 103e
00000010: cae8 cdbd 45ac 0bbc 243f d53d 6cac 633d
00000020: e816 1a3e 7bb6 bcbd 5022 533d d69c 99bc
00000030: 2c5f 5d3d beb9 f3bd 5780 ad3d 1dbb 8a3c
00000040: 3511 0dbe d218 18bd 5b7f 60bd 671a f1bd
00000050: a0f5 1e3d 586a ec3d b2cd 8a3d e932 30bc
00000060: 960e 8d3d 89e7 a03c a07d f6bd 219d f7bd
00000070: 8f35 cfbd 0fac ce3d 3ec2 cb3b 63fd ebbd
00000080: e4f8 ccbd 44c5 38be f5ec f7bc 3680 613d
00000090: 31b6 a83d d2d4 d73d 6844 2ebe 6064 883d
000000a0: 7757 e3bb aee5 eebd 94af 43bd a0e0 ea3d
000000b0: a37b 98ba 3cba acbd 0e07 98bd aa7f 32ba
000000c0: acdf 773d 9d7d dabd cbd9 1cbe bbd1 2e3d
000000d0: a8ca 753c 9308 21be c9fa 35be 238e 963d
000000e0: 62a7 46bd 2697 b93d 41e5 2fbd 9b99 ea3c
000000f0: f034 dd3d 7ad4 d23d 360e 82bd 6562 d2bd
00000100: f77f 693c 262e 243d 1be3 bfbc baef 2f3e
00000110: a903 b63d 68cd 853d 0a8f 463d 48c6 d03b
00000120: 51cb 553d 7740 593d 79a0 35bd 64c6 6c3d
00000130: f256 fa3c 9745 37be 191c 05be b333 823d
00000140: 7045 94bc e968 3e3d afd2 99bd 61e5 3fbc
00000150: 2efa 853d 15c7 ce3d ed59 4c3d b006 b23d
00000160: 9295 443c 1b27 d83d 940a 1bbe 7f55 873c
00000170: 69d2 3b3e c71e 2e3d aecd 32bd 288e 73bd
00000180: dc1d 99bd 41c5 fbbd 9848 7e3d 8a35 8e3d
00000190: ad58 7b3d cce6 d73d 4fd3 df3c dfa7 423d
000001a0: 178c 0b3e eb60 8ebd 7e64 163d dd5e 4ebd
000001b0: bfed ca3d 18db d83d 228b 24be 95d4 f73d
000001c0: 6e7b bc3d 5127 703c c478 a7bb 2104 643c
000001d0: 871d 223e fbf6 01be 2cd4 2abc 504e c3bd
000001e0: 5b59 ee3c 93d0 303d 700f debd fb0d 98bd
000001f0: fc27 043d 84f0 24bd dbac 023e 4465 e03d
00000200: d2de bc3c 8bc6 b4bd ac28 85bc 908c efbc
00000210: 70d8 b7bd 1c47 323d 88cc ae3d b0b5 193e
00000220: 229e 1b3e b4e6 cfbd 218f 1f3e db7d 003e
00000230: f09f 7cbd 90f1 7c3c 41d3 eb3d f007 363d
00000240: d0a0 e2bc 4314 de3b a908 823d d59d a4bd
00000250: f1f1 b63b 66ea fbbd 42df c93d 924c 05be
00000260: 7bd6 8abc 9953 463c 67eb d93a 037c 8fbc
00000270: bf0a aa3c e2bf 063e 4a5d 9e3d 1594 063e
00000280: 4eb1 6f3b c293 6dbd 598f 12bd 2fd6 83bd
00000290: 0f58 ecbd fc55 3f3e d0a0 55bc 9bb6 673d
000002a0: 3fa7 bb3c 575a dfbd 2eaf 5dbd 4145 e9bd
000002b0: 99f8 173d c049 edbc 2d8a 733c daf2 c8bd
000002c0: 549b b2bd 8d02 213d 1f6d 56bd c4af 3bbc
000002d0: 382a a1bd fa11 783d eb7f e03c 84d0 bf3d
000002e0: b563 203d a966 d9bd a93b 29bd 91b1 73bd
000002f0: 6456 2f3c 75f8 15be 082c 8c3d 9693 b6bd
00000300: 25b3 15be 1045 53bd 1c2b db3d 54b1 61bd
00000310: b66b 183e d371 693d 98e6 df3a ff96 66bd
00000320: 1d5e a83c c2d6 143d c142 d33d 59d3 83bc
00000330: 46cb 393c 26ee 27bd 7b86 07be 9706 68bd
00000340: 5c41 92bc a9e8 513d f0e7 edbb 7c3b 3abb
00000350: 93fa 9cbc 1e31 0e3d 12a1 b53d ea53 ecbd
00000360: 23f2 0fbd 1382 95bd 4eac 8e3c 4691 1dbe
00000370: f267 d93d 5fd9 d63d 4923 ab3c 173f f1bd
00000380: b00e 173d 6efb d8bd ab5d 81bc 0a76 17be
00000390: c67a bdbc 92cd 573d 4190 a23d 496a 633d
000003a0: d739 77bb 138b 9b3d 0a07 243c 37b7 13bd
000003b0: 01b9 a93d cb03 cbbd bfd0 4abe b584 4bbd
000003c0: e6fc aa3b 550e 1ebd f454 21be f72d f73d
000003d0: d318 093e f45c 64bd b18f ffbd acb1 d0bc
000003e0: 6549 c6bd cc5b e53d 9c94 d4bc 8ca7 0bbe
000003f0: bb7a 983c 4456 a5bd dbfe 8b3d a88a 68bc
-0.16056041 -0.10239686 0.016046727 0.14158942 -0.100541666 -0.008524959 0.10412434 0.055584356
0.150478 -0.09214493 0.051546395 -0.018751543 0.05404584 -0.11900662 0.084717445 0.016934926
-0.13776095 -0.037133045 -0.054808956 -0.11772614 0.038808465 0.11543721 0.067775145 -0.010754325
0.06887548 0.019641655 -0.1203568 -0.12090517 -0.10117637 0.10091411 0.006218224 -0.11522939
-0.100084096 -0.18044001 -0.030264357 0.055053912 0.08237875 0.10538639 -0.17018282 0.0665977
-0.006937917 -0.11664902 -0.047774866 0.11468625 -0.0011633526 -0.08433959 -0.074232206 -0.00068091846
0.060516044 -0.1066849 -0.15317456 0.042680483 0.01500193 -0.15725927 -0.17771448 0.07351329
-0.048499472 0.090620324 -0.042943243 0.028637698 0.10801113 0.10294433 -0.06350367 -0.102726735
0.014251701 0.040083073 -0.023423722 0.17181292 0.08887417 0.06533319 0.048476256 0.006371293
0.05219585 0.053039994 -0.04434249 0.057806388 0.030559037 -0.1789764 -0.12999 0.06357517
-0.018099517 0.04648677 -0.07510888 -0.011712403 0.065418586 0.10096566 0.049890447 0.08692682
0.011998551 0.10554334 -0.15140754 0.01652026 0.18341984 0.04250982 -0.043653183 -0.059461743
-0.07476398 -0.122934826 0.06208095 0.069438055 0.061363865 0.10542068 0.02732244 0.047523376
0.13627659 -0.069520794 0.03671693 -0.050383437 0.09908628 0.10588664 -0.160687 0.12101094
0.0920323 0.014657811 -0.005110832 0.013917 0.15831576 -0.12691872 -0.010426562 -0.09536421
0.029095342 0.043167662 -0.10842788 -0.074245416 0.032264695 -0.040268436 0.12761252 0.10956815
0.023055468 -0.088269316 -0.016254745 -0.02924183 -0.08976829 0.043524846 0.08535105 0.15010715
0.15197042 -0.10151425 0.15581943 0.1254801 -0.061675966 0.015438452 0.11514903 0.044441164
-0.027664572 0.0067773177 0.06349308 -0.080379166 0.005583041 -0.12300567 0.09857036 -0.1301749
-0.016947975 0.012104892 0.0016625941 -0.017515188 0.020757077 0.13159135 0.07732637 0.13142426
0.0036574188 -0.05800224 -0.03578124 -0.06437337 -0.11540233 0.18685144 -0.013038829 0.05657063
0.022906898 -0.10905903 -0.054122142 -0.11390162 0.037102316 -0.02896583 0.014864487 -0.09811945
-0.08721033 0.039309073 -0.05235016 -0.01145548 -0.07869381 0.06056402 0.027404746 0.09365943
0.039157588 -0.10615284 -0.041316662 -0.059495512 0.0107017495 -0.1464556 0.06844336 -0.089148685
-0.1461912 -0.051579535 0.10701582 -0.055100754 0.14884838 0.056993317 0.0017082272 -0.056296345
0.02055269 0.03633762 0.10315467 -0.01609199 0.011339968 -0.0409986 -0.13234894 -0.05664691
-0.017853431 0.051247273 -0.007260315 -0.0028416803 -0.019162452 0.03471481 0.08868612 -0.11539443
-0.03514303 -0.073002 0.017416146 -0.15387449 0.10615529 0.10490679 0.020890849 -0.117796116
0.03687924 -0.105948314 -0.015791735 -0.14791122 -0.023129832 0.05268628 0.079376705 0.055521283
-0.0037723684 0.07594886 0.010011444 -0.0360634 0.0828724 -0.09912833 -0.19806193 -0.049687106
0.005218136 -0.038587887 -0.15755063 0.12069314 0.13388376 -0.05575271 -0.12478579 -0.025475346
-0.09681968 0.111991495 -0.025949769 -0.13638133 0.01861321 -0.080730945 0.06835719 -0.0141932145
