weights/reward_prediction_finetune-nd-2-eps-400.pth (torch, 463275 bytes, 24 tensors)

log_std f4 [2]
00000000: 1ddf c93d b6d6 d5b9
0.098570086 -0.00040786498

features_extractor.encoder.conv.0.weight f4 [4, 1, 3, 3]
00000000: 8901 333e 60e4 ad3e a7c3 e7bd e2d7 f43e
00000010: 7121 0cbf 4eb9 95be aa9e 4d3f 0008 9cbc
00000020: 8e88 e63c f594 663d b505 00bf 400c 093f
00000030: 2586 29bf ba24 72bd b1c1 313e cd02 433e
00000040: 07b2 2d3f 968e 78be 3f6d 533c db93 b13f
00000050: 5adb 423f 6281 0abe 911c 2dbe 7995 4bbe
00000060: 27f1 a13d 6600 98be 392a 63bd 1864 ca3d
00000070: b7e1 913d b8d9 353e 62cf 083f 9ea7 733e
00000080: 5d40 8d3d 086b 133f 6966 f63e f0f7 1cbf
0.17481054 0.339633 -0.113166146 0.47820956 -0.5473853 -0.2924294 0.8032023 -0.019046783
0.028141286 0.0562944 -0.5000871 0.53534317 -0.66220313 -0.059117056 0.17359044 0.19044037
0.67849773 -0.24273142 0.012904464 1.3873247 0.76115954 -0.13525918 -0.16905428 -0.19881238
0.07907324 -0.29687804 -0.05546019 0.098823726 0.0712313 0.17758834 0.5344144 0.2379441
0.06897042 0.5758519 0.48125008 -0.6131582

features_extractor.encoder.conv.0.bias f4 [4]
00000000: 25bf 96bc 62a1 90ba 6e96 b83b fea4 a2bd
-0.018401692 -0.0011034424 0.005633167 -0.07941626

features_extractor.encoder.conv.2.weight f4 [8, 4, 3, 3]
00000000: ef3c 433e 56bd 753e 9719 5fbe c39d 6cbd
00000010: ef99 30be d7ce 55be 4791 c8bd 5a40 1bbe
00000020: 5e58 cb3d b631 963b 43f4 a83e c167 94bd
00000030: ea0b 31be 38b9 373e 849d 8c3e 0dba 913d
00000040: c698 f43e d79d 8a3e 5da1 fa3e 79a0 cd3e
00000050: bd13 29bf dff5 00bc bd13 02be 8d67 d53e
00000060: 6e95 babd 0f9e 76bd d647 0e3e d647 2dbd
00000070: 295a 313e c13c a2be dd8c 0ebd c59b fabe
00000080: 6fce 17bb 29be e8bd a43a 323e db10 dc3d
00000090: 5fe4 af3d 9dd0 653e 0580 cabd d673 403d
000000a0: ef6b 3c3e fe36 bfbc b2cb 1f3d 735f f33c
000000b0: da4c 8ebc 3cc4 63be 0054 e23d 8ea7 273d
000000c0: e2e2 94bc 55b4 bbbe 1c13 c63d fbac 2d3e
000000d0: 7499 c7be b064 153d 4270 2cbe 1f73 4f3e
000000e0: 57e1 d23e 0e5d 33be 05e9 0c3e 3784 ca3e
000000f0: 2e47 4bbd be35 b23d 9a4e 33be fbac 48be
00000100: 2654 1dbe 9b2f d03e 9115 853e d4a2 92bd
00000110: 9a94 e13e 68a0 933d a93b c43e 2347 42be
00000120: 30b4 69bc 608d af3e 495b 8a3e 1be9 053f
00000130: 122e 91be 874e 04bf a7fc 083e 8bec 8f3e
00000140: 19fa d8bd da64 733e e71c b33d bd4b aa3d
00000150: 1c4e 5e3d b1c9 8f3e 0e6f 873e 0a5b 9a3e
00000160: 47bd 023f bd5a 39ba 49e1 f1bd 8ce5 e03e
00000170: fadb 17bd 49ac 8e3d 1cdd 14be 19c6 7a3e
00000180: efd2 213e be78 5fbe 3c03 89be bcbb bdbd
00000190: 822d 2dbe 1b72 913d ee29 d9be 8a94 813e
000001a0: 4a3e fabd 5f01 803d 4f90 ef3d f403 29be
000001b0: f62d 36be c8e8 e03e 5e14 083f 7ebc 9a3d
000001c0: 7746 dfbd ff46 5fbd 4461 41be a643 f6be
000001d0: 5494 ac3d b350 4c3e 9dd0 8b3e 35a7 f7bd
000001e0: 26ac df3e 8aa9 ff3d 9291 f3bd 67e7 1abf
000001f0: f297 f0be d93a 8d3e a51e e23e d3e5 4dbd
00000200: c690 c7bd 2c03 763e 2daf 213d dbe9 d6be
00000210: d3ab 2dbe f407 d4be 7004 04bf 58df 143e
00000220: 6019 b9bd c675 b7be 440a e23a ef17 123e
00000230: 7b62 f4be c39e d8bd 5357 e33c 49ad 1abe
00000240: e89e 233d b1ca 64be 9a2c f3bd 2944 da3d
00000250: 2ce0 883e c2a5 51be 36d7 adbe fe14 023e
00000260: 4bd9 ca3d b47c cc3c bb51 97be 2ff0 d33d
00000270: 200c 16bd 3d77 dd3d 9f17 9eba 0b35 5fbd
00000280: 9cf9 28be 86b3 f03c fd6a 99be 3e3d 7abe
00000290: 2158 00bf aec4 1ebe 09b4 373e f3e0 18bf
000002a0: 5ce4 a53d 063e a4bd bcd6 b23e 75e0 7ebd
000002b0: 0461 b8bd af4c ca3c ca6d 143e d3a6 8f3d
000002c0: df6a c3bd c480 40bd c7bd 593e 9bf8 04be
000002d0: 95a5 bb3b c524 2fbe 76cc 983e 35ff 283d
000002e0: db2a 37be 737b 663e 198b 13be 0a3d 8fbd
000002f0: d79d 9e3c 3e74 aa3e ee1e 0f3f d60a 0e3e
00000300: bc69 b2bc b232 fb3d 8eb2 07be 2287 babe
00000310: 3d3c 443e 3481 a93e d105 a33e 0fa0 223e
00000320: c476 fcbd ba2e 93be 23a7 73be 63d6 77be
00000330: 6297 e43e 8cc8 3d3d ae2a e3be 6203 793d
00000340: c4a9 813e 8d46 19be 5a23 a8bc f2c7 e63b
00000350: f953 283c 7163 2cbe 7f8a febd 2f60 623d
00000360: 2488 48bf e3f8 63bd f2fb 47be 551e 47be
00000370: 2898 b7bd f67e 8b3e 1424 2cbd 59e1 3cbe
00000380: bedf 993e edec 273f 5a41 283f 75c1 723d
00000390: e53b ae3e 4405 57be db34 8cbe 6fb9 b3be
000003a0: e312 dc3d f2ed 643e 6595 a1be 0655 22be
000003b0: 9158 44be 3129 babd 28b3 bb3c a591 b83d
000003c0: 9a04 aa3e c5d9 933d a669 a53d 0f3b a6be
000003d0: 52a4 893d 8031 e13c 93c9 c0bc dc28 83bd
000003e0: 2b59 67be a8ca 083e 6f50 05bd 5488 ef3d
000003f0: 4711 ae3d aaed e03d df1f 87be 3ebc 47be
0.19066213 0.23998007 -0.21787106 -0.05776764 -0.17246221 -0.20879684 -0.097933345 -0.15161267
0.09928964 0.0045835627 0.32998857 -0.07246352 -0.17289701 0.17941749 0.27463925 0.071155645
0.47772807 0.27073547 0.48951235 0.40161493 -0.66045743 -0.00787112 -0.12702842 0.41680565
-0.09110533 -0.06020933 0.1389459 -0.042304836 0.1731955 -0.31686977 -0.034802306 -0.48946968
-0.0023163815 -0.11364395 0.17405182 0.107454024 0.0858848 0.22442861 -0.09887699 0.04698547
0.18400548 -0.023341652 0.03901262 0.0297086 -0.01737063 -0.22242826 0.11051178 0.040931277
-0.018174592 -0.3666102 0.096716136 0.16960518 -0.38984263 0.036472976 -0.16839698 0.20258759
0.41187546 -0.17515966 0.13760765 0.39553997 -0.04962843 0.08701657 -0.17510453 -0.19597237
-0.15364131 0.4066132 0.25993016 -0.07159963 0.44058686 0.072083294 0.38326767 -0.18972449
-0.014264151 0.34287548 0.2702277 0.52308816 -0.2835546 -0.51682323 0.13377629 0.28110155
-0.10594577 0.2376894 0.08745747 0.08315227 0.05427371 0.28083566 0.26451916 0.30147582
0.51070064 -0.0007070711 -0.11810548 0.4392513 -0.03707502 0.069664545 -0.14537472 0.24489631
0.15803121 -0.21823403 -0.2676028 -0.09264323 -0.16911891 0.07101842 -0.42414802 0.2530864
-0.12218912 0.062502615 0.116974466 -0.16505414 -0.1779097 0.43927598 0.5315608 0.07555483
-0.10902112 -0.054511067 -0.1888476 -0.48098487 0.08426729 0.1995266 0.27307597 -0.12092439
0.43686026 0.12483509 -0.11893 -0.6050934 -0.46990925 0.2758396 0.44164005 -0.050268006
-0.0974441 0.24024647 0.0394737 -0.41975293 -0.16960077 -0.41412318 -0.5156927 0.14538324
-0.09038043 -0.35832042 0.0017245491 0.14266942 -0.47731385 -0.105771564 0.0277516 -0.15105166
0.039946467 -0.22342946 -0.118737414 0.10657532 0.2673353 -0.20473388 -0.33953255 0.1270332
0.099047266 0.024961807 -0.29554543 0.10348546 -0.036632657 0.108137585 -0.0012061483 -0.054493945
-0.16501468 0.029382478 -0.29964438 -0.24437425 -0.50134474 -0.15504715 0.17939772 -0.59718245
0.08100197 -0.080196425 0.34929454 -0.062225778 -0.09002879 0.024694769 0.14495006 0.07014241
-0.095418684 -0.0469978 0.212638 -0.1298546 0.005726526 -0.1710387 0.2984349 0.04125901
-0.17887442 0.2250803 -0.1440853 -0.06994064 0.019362373 0.3329181 0.5590657 0.13871321
-0.021778934 0.12265529 -0.13251707 -0.36431223 0.19163604 0.33106387 0.31840375 0.1588137
-0.1232734 -0.28746587 -0.23794226 -0.24202876 0.44646746 0.046333835 -0.443685 0.06079424
0.25324833 -0.14968319 -0.02052467 0.0070428783 0.010273927 -0.16834809 -0.1242876 0.05526751
-0.78332734 -0.05565728 -0.19529703 -0.19445165 -0.089645684 0.272453 -0.042026594 -0.18445338
0.30053514 0.65595895 0.6572472 0.059266526 0.3403007 -0.20998102 -0.27384076 -0.35102412
0.1074579 0.22356394 -0.3155929 -0.15852746 -0.1917441 -0.09089888 0.022912577 0.090121545
0.33206636 0.072192706 0.080767915 -0.32466933 0.06720795 0.027489424 -0.023533618 -0.06404278
-0.22592609 0.13358557 -0.03254741 0.116959244 0.08499389 0.10982831 -0.26391503 -0.19505402

features_extractor.encoder.conv.2.bias f4 [8]
00000000: 4dcc a23b 10dc 01bd 48ed 9abb 5ec6 2fbb
00000010: 78c3 34bc 11ae a53c 397d 22bd 5541 093b
0.004968202 -0.03170401 -0.004727993 -0.0026821117 -0.0110329315 0.020224603 -0.039670203 0.0020943482

features_extractor.encoder.conv.4.weight f4 [16, 8, 3, 3]
00000000: f320 c83c 63e5 c3bc 5aca 16be dc87 33bd
00000010: d673 f0bd b4a0 383e c119 ecbc 0b00 45bd
00000020: 414b 61be 2f96 863d 9fb8 053e e31e 57bd
00000030: 22b5 993d c12a 83be 0918 d1be d8b8 02be
00000040: 06f3 2fbb 8d57 423e 9265 9d3e 60ed 01bd
00000050: 7354 bdbd bcce bdbb 8fb2 44be 82ed bf3d
00000060: 31ae bf3c bdad 59be d987 4fbe ce17 133d
00000070: acd1 493e 6bd8 52be 42eb c8bd 10ab d23d
00000080: ddd1 41bd e523 ae3b c6c1 0fbd 7074 b43c
00000090: a891 1b3e e622 2e3d fcfa 5d3e a7f5 b43d
000000a0: a56c 3bbe e2fc 5e3b 1bba 9d3d b0f5 02bc
000000b0: f94c dcbd cee4 d3be af79 b7be 8901 0ebe
000000c0: 8d8a a1be 1247 aabc 4860 70bd 5218 98bb
000000d0: 55b6 fcbd 7b28 f0be 3ce0 e83d 1768 cabd
000000e0: fe3f e5be 9bc9 52bd cf6e e53c aa09 253e
000000f0: a861 58be 1bfe cebe 1445 873e 045a d23d
00000100: 8244 b13e 162b 8dbe 9a6d 07be f034 09bf
00000110: cdf2 66be b9ae e1be 2a4c 853d 7ba6 1cbe
00000120: 5c4e b53b 79c1 cabe 6410 a13e 6175 51be
00000130: b8fb 863e 2ca4 843e c063 9abd 0e00 473e
00000140: f834 be3d 082f 1bbe a4bc 963c 2c9e 9bbe
00000150: 85e6 e9bd e7be 1fbe 4f22 d13d e183 04be
00000160: 5d98 43be ec48 753e 0b95 68bd 5a8f 053e
00000170: 8f1d 97be 2ab0 5bbe e75a 9c3d 0389 f9bd
00000180: 0ce7 983d f9e4 cdbe f71b 823e 0398 94bd
00000190: 89c3 e93d 090a 113e 1299 8d3d 4960 63bb
000001a0: 980a 1abc 4f21 d93e fdea db3d f370 c13d
000001b0: 8c22 eb3e 1556 d7bc 3a64 373c d9c6 abbd
000001c0: 1388 913c 9305 843e c486 88be 33e5 25be
000001d0: ca59 9b3c 1243 5a3d 213f 96bd 2340 b53d
000001e0: c61d 193d c84d 98bd 0130 28be 15cb ba3e
000001f0: 1254 9d3d b669 83be 7730 743e eb84 e1be
00000200: 1b15 993e 9f71 4f3e 5a0b d7bc 4abf 973e
00000210: e5ec 83be a604 3fbd c6f7 fcbd b6e4 573e
00000220: caf6 253e 1fee cf3c 35d3 bdbd 4fa8 a93d
00000230: 5a1f 9e3e d0cc 053e e1b7 29be ea54 e63d
00000240: d64f 933e 1130 e2bd 9954 adbe 79ee 763c
00000250: 67ad b03c 9859 21be 2d49 463b 7c55 19bd
00000260: f83c 53be 84af 4d3e 7bf0 a53c 4e78 fe3d
00000270: 4dd1 df3d 2073 753d 5f02 0b3e d267 533b
00000280: 2532 82be 97ab b03d 03dc c2bd 6b69 37bd
00000290: 9ba3 7ebd 7b8a cdbd 2cf6 62be 6797 18be
000002a0: fb6c c63d c5e9 1a3e dc86 8c3e 2fee 4fbe
000002b0: 78bd c43e e786 d7be 2705 9fbd cd9e 74bd
000002c0: b732 d4bd 86bf a2bd 5207 513e cff5 f23d
000002d0: 639c 823e a4dd 2c3d fad7 0dbe 9139 0abe
000002e0: aea4 d6bd 83a7 7d3e 277f 333b 818c e03d
000002f0: 67ee 133e 8105 d73c 09d2 4a3e e1b8 6cbe
00000300: 1d40 8e3e 08b0 7b3d cc56 03be 23ae 6cbd
00000310: 94a8 2d3e d4a9 953e 4b47 c2be ff51 063e
00000320: 4248 27bf b112 0e3d e1c9 0a3e 2f84 81be
00000330: 0ad0 ca3c f0ae d4bd 8676 9b3e 5506 1b3e
00000340: 84cd ca3e 1229 c53c d0a7 45be 0592 823e
00000350: d8ac 12bd a6c7 9fbe 4f56 f23e 9c26 56bc
00000360: f5ae afbe e713 2dbe 6075 34be cca1 a5be
00000370: 7edc 54be 9b3d 84be beb5 bfbd e5ee c6be
00000380: 0b48 87be ac97 54bb 510f 173e 2d42 9a3d
00000390: ec5e f53d c03a af3e 0123 f53c 37d8 8a3c
000003a0: 6874 413e ab75 183e 729d e63b ed48 a43d
000003b0: 1706 23be e8d3 a9bd 98e8 ccbd 9cdb 383d
000003c0: 59b0 c1be b5cc 3d3e 1ab2 cbbd 9a43 9bbe
000003d0: abe4 89be aecc a83d 7cf2 48be b2fa e9be
000003e0: 3096 1ebe 1b13 873d 7e68 ecbe a491 11be
000003f0: dd1a 1d3d ec81 bd3d 1e99 d53d 9204 0ebe
0.024429774 -0.023913091 -0.14725628 -0.043830737 -0.11740844 0.18030053 -0.028820874 -0.048095744
-0.22001363 0.06571614 0.13058709 -0.05251969 0.075052515 -0.25618556 -0.4083865 -0.12765825
-0.0026847734 0.1897871 0.30741554 -0.03172052 -0.09244623 -0.005792467 -0.1920874 0.09371473
0.02339849 -0.21257682 -0.20266666 0.035911374 0.1970889 -0.2059037 -0.09810497 0.10286534
-0.04731928 0.0053143376 -0.035096906 0.022028178 0.15192282 0.04251375 0.21677774 0.08835917
-0.18303163 0.0034025242 0.077015124 -0.007993147 -0.10756869 -0.41385502 -0.35835025 -0.13867773
-0.31551018 -0.020785842 -0.05868557 -0.004641571 -0.123394646 -0.46905884 0.11370894 -0.09883135
-0.44775385 -0.051461797 0.02800694 0.16116968 -0.21131003 -0.40428242 0.2641989 0.10271075
0.3462258 -0.27571934 -0.13225403 -0.535964 -0.22553559 -0.44078615 0.06508668 -0.15297882
0.005533023 -0.39600733 0.31457818 -0.20454933 0.2636392 0.25906503 -0.07538557 0.19433615
0.09287447 -0.1515466 0.018400498 -0.30394113 -0.11420921 -0.15600167 0.10211622 -0.12940933
-0.1910109 0.23953599 -0.056782763 0.13042966 -0.2951474 -0.2145392 0.07634526 -0.12184336
0.07465944 -0.40213755 0.2541196 -0.072555564 0.114142485 0.14163984 0.069139615 -0.0034694842
-0.00940194 0.42408225 0.1073818 0.094453715 0.45924795 -0.026286164 0.0111933295 -0.083875366
0.01776508 0.25785503 -0.26665318 -0.16200714 0.018963713 0.05328662 -0.0733626 0.08850124
0.03738191 -0.074367106 -0.16424562 0.36483064 0.07682051 -0.2566659 0.23846613 -0.4404672
0.29898915 0.20258187 -0.02625053 0.2963813 -0.25766674 -0.046635292 -0.123519465 0.2108334
0.16207424 0.0253821 -0.092688 0.082840554 0.30883294 0.13066411 -0.1657405 0.11246665
0.28771847 -0.11044324 -0.33853605 0.015071505 0.02156706 -0.15756834 0.0030256019 -0.03743504
-0.20628726 0.20086485 0.020256272 0.1242529 0.10928593 0.059924245 0.13575123 0.0032257927
-0.25428882 0.08626478 -0.0951462 -0.04477827 -0.062167745 -0.10036179 -0.2216422 -0.14901505
0.09688755 0.15128238 0.2744664 -0.20305704 0.38425803 -0.4209511 -0.077646546 -0.059721757
-0.103612356 -0.079466864 0.20412949 0.118632905 0.2550994 0.04220356 -0.1385192 -0.13498522
-0.10480629 0.24770932 0.002738902 0.10964299 0.14446412 0.026247742 0.19806685 -0.231174
0.2778329 0.061447173 -0.12826079 -0.057783257 0.16958839 0.2923113 -0.37945017 0.13117217
-0.6534463 0.034685794 0.13553573 -0.2529616 0.024757404 -0.10384929 0.30363864 0.15139134
0.3960992 0.024067435 -0.19302297 0.2550203 -0.035809368 -0.31207007 0.47331473 -0.013070729
-0.3431317 -0.16902123 -0.176229 -0.32350004 -0.20787236 -0.2582825 -0.093608364 -0.38854137
-0.26422152 -0.0032439036 0.14751936 0.07532153 0.119809955 0.3422451 0.029923918 0.016948802
0.18892062 0.14888637 0.007037812 0.08021722 -0.15920292 -0.08292371 -0.10005301 0.04513131
-0.37829855 0.18535121 -0.099460796 -0.30325013 -0.26932272 0.082421646 -0.1962375 -0.45699078
-0.1548698 0.06595441 -0.4617347 -0.14215714 0.038355697 0.09253296 0.104295954 -0.13868931

features_extractor.encoder.conv.4.bias f4 [16]
00000000: bf13 dfbd cb8f e7bc d938 78bc 5feb 28bb
00000010: e2a4 65bd fdc6 fabd c98c 6abd 6f1c 54bd
00000020: 97df acbc 087f a5bb cf64 36bc 6d65 b6bc
00000030: 5f59 66bc a531 34bd 5e53 eb38 725c 1c3d
-0.10892438 -0.028266808 -0.015150272 -0.0025775058 -0.056065448 -0.12244985 -0.05726317 -0.05178493
-0.02110271 -0.0050505437 -0.011132433 -0.02226516 -0.014059394 -0.043992657 0.000112212016 0.0381741

features_extractor.encoder.conv.6.weight f4 [32, 16, 3, 3]
00000000: 18af 7ebc 3f5b 573e 383d 213d aaff 1ebc
00000010: 8602 b63d fc7c 943d bdfa 04be 1298 9fbc
00000020: 6126 01be 4107 7d3d 791a f83d 075d 6dbe
00000030: 08e8 6dbd 6a6a ddbd 7ee2 fd3d 07cf 28bd
00000040: 2333 b13e 338f e6bd 13a4 813d 44b2 d6bb
00000050: 3635 773d 81b4 253e 6ae7 77bd 7cb6 6cbd
00000060: ba1a 8a3d e96a 02be f049 0cbe 578d afbe
00000070: 1656 43bd 7489 7abe f100 0d3d b53b 8abe
00000080: c152 0dbc 2299 12be b096 4bbe cc6d 4bbd
00000090: 5dec 743d 78c7 703d ba6c 1b3c e33d 87bd
000000a0: a96e 98bd 3362 38bd 8d54 2dbd df74 38be
000000b0: 489d e43d a6fb 3abd d91e 893e f9c3 12bd
000000c0: a6ab d2bd 717e 86be 8288 ee3d 53ad 83be
000000d0: 2a2f 203d 8a1f 32bd 8ea8 2b3d 78db 3a3e
000000e0: fab3 803c c59b 973d 0aca a83c 4582 753d
000000f0: a3de 143d 2276 d03b 9063 773c ec40 bcbd
00000100: 7328 0ebe ff21 653e 9f30 9abc e761 d6bd
00000110: 4d28 373e 9b95 7e3d edc1 12be 9564 1c3e
00000120: 98fa 67bd 3d66 933d 119c 47be 4ee1 dd39
00000130: 0989 d8bd 2d69 7f3c 3700 babd 3fdc aebe
00000140: 7e62 3d3d 0eb2 a73e 3c6e 9ebe a22c 103e
00000150: 751d 11be a870 59be 2d6d f0bd ae71 263e
00000160: c05a b7bd fa69 d1be 2e3d 6ebe 35c6 e0bd
00000170: b72b 9c3e cb42 6c3e 4de9 89bd cbb7 0abd
00000180: 2379 553d f18b 1abe ae2a 89bc 55f4 6abd
00000190: 54c4 db3d e882 bfbc de3d 5b3c 24d0 1f3d
000001a0: 2500 ba3d bf51 173d 39af 783e 3f8b 92be
000001b0: 0f27 8d3e bc41 41be d31f 563e b306 623c
000001c0: 7b26 043e 83a2 c5bd ea9e cb3d 83ba 8ebd
000001d0: c3d1 d93d 1edd cebd 2cb4 583d 9a29 b53d
000001e0: 899e 723c 90df 933e 0a6a 793d 46c8 4a3d
000001f0: e8f8 053d 0ca2 f9bc b61c d23d f3f5 6ebc
00000200: c714 0fbd 4902 69be 0227 f43c a27e 943d
00000210: 22cd 4fbe c2ba a23d 8d10 463d 9711 10bd
00000220: 8998 75bd 9992 043e da9f 903d a6e0 00be
00000230: de73 55be 1d05 243c 2764 e83d 67ee 34bd
00000240: 2eda 0a3e 914c f5be b749 a73d e848 5c3e
00000250: a1da adbe d3c0 533e bab2 313e a04c dd3d
00000260: 09d8 e83d 90d1 8a3d ca94 6b3d dc6c 99bc
00000270: 52b2 1abc 2206 8abe cef9 633e 1aa5 b2bc
00000280: 7d60 593e a65b 513d cfe6 eebc 293f 8fbe
00000290: a4c9 fd3c e638 74bd 3d69 34be 586d b13c
000002a0: 3b01 1ebe 5144 4a3d e47c 183e d3c8 3a3d
000002b0: c56d e53b bdf4 cebd 41fc 05be 0002 e3ba
000002c0: 5740 19bd de2c e53d 165b 1f3d 24f6 e6bc
000002d0: daf4 46be f1f8 17be 6179 2bbd 9501 39bc
000002e0: 68e7 4ebe 830b 87bd 2db3 94be 0b5a b03e
000002f0: 5ac4 273e 99a1 4fbc e1ab 76bd dcf7 25bd
00000300: ea6a 24bd 45ea 5bbd d7bb 3f3e 58ba 2abe
00000310: 54eb ccbd 61e1 5f3c a695 eabd e852 be3b
00000320: 5559 54be 4495 02be ff17 383e 9448 1ebd
00000330: a9a7 c03c ec22 413e dcb2 94be 961a b8bd
00000340: b52a bfbd 80aa fa3d 42b6 a13d ef35 e9bd
00000350: b9c8 6a3e cb7a c63d 28ac 4d3e 9e51 6ebe
00000360: 75b9 92bd d0b4 2bbe 2f6d 01be fe5b f03d
00000370: 6d44 a8bd 33f1 d73d 03f1 4dbd 1409 a1bd
00000380: fdaf 3a3d 6331 e7bd 92d4 30be 9086 0ebe
00000390: cc3a 393e bd91 69be 725f 8ebe 3842 a23d
000003a0: 626b 4fbe 1a80 c63e 59a9 87be bc35 d5bd
000003b0: 5b72 4b3d b966 2e3d 6799 9cbd e9c5 183e
000003c0: 77ae b73d 367a 99be 1303 30be 6713 60bd
000003d0: fbd0 82bd 7ee6 683d 61e8 3dbe 8f22 5e3d
000003e0: 8282 5e3e a7d8 303e fb09 d43d 52e4 8d3e
000003f0: 1eb7 823c 2645 95bc c925 debc 76c7 c33d
-0.015544675 0.21030901 0.039365023 -0.00970451 0.088872 0.072504014 -0.12986274 -0.019481692
-0.12612297 0.061774496 0.12114424 -0.23180018 -0.05808261 -0.108113125 0.123967156 -0.04121306
0.34609327 -0.11257782 0.06330123 -0.0065520126 0.06035348 0.16182138 -0.060523428 -0.05779122
0.06743379 -0.12736095 -0.1370008 -0.3428752 -0.04768952 -0.24466497 0.034424726 -0.26998678
-0.008625687 -0.14316228 -0.19881701 -0.049665257 0.059795726 0.05878398 0.009486372 -0.06603601
-0.07442982 -0.045015525 -0.042316962 -0.18013333 0.111628115 -0.045650147 0.26781347 -0.035831425
-0.102866456 -0.26268342 0.116471305 -0.25718173 0.03910748 -0.04348711 0.041908793 0.18247783
0.01571082 0.074027576 0.020604152 0.059938688 0.036345135 0.006361739 0.015099421 -0.0919207
-0.13882618 0.2237625 -0.018822012 -0.10467892 0.17886467 0.062154394 -0.1433179 0.15272744
-0.05663547 0.07197235 -0.19493128 0.0004232027 -0.105730124 0.015589041 -0.09082072 -0.3415241
0.046236508 0.32753032 -0.30943477 0.14079526 -0.14171393 -0.21234381 -0.11739574 0.16254303
-0.08952856 -0.40901166 -0.23265526 -0.10975305 0.30502102 0.23072354 -0.06733952 -0.033866685
0.052117478 -0.15092446 -0.016743984 -0.05736192 0.10730806 -0.02337785 0.0133814495 0.039016858
0.09082059 0.036943194 0.24285592 -0.2862186 0.27568862 -0.18872732 0.20910577 0.0137955425
0.12905304 -0.09650137 0.0994242 -0.06969168 0.10635712 -0.101007685 0.0529062 0.088458255
0.014808306 0.28881502 0.060892142 0.049507402 0.03270808 -0.030472778 0.102593824 -0.014585006
-0.034931924 -0.22754778 0.029803757 0.07250716 -0.20293096 0.079457775 0.048355628 -0.035173025
-0.059959922 0.12946548 0.07061739 -0.12585697 -0.20844981 0.010010985 0.113472275 -0.04417267
0.13559791 -0.47909978 0.08168357 0.21512187 -0.33955863 0.20679025 0.17353335 0.10805631
0.113693304 0.06778252 0.057514943 -0.018728666 -0.009441929 -0.26957804 0.22263262 -0.021807242
0.21228214 0.051112793 -0.029162792 -0.27977875 0.030979939 -0.059624575 -0.1761827 0.021658584
-0.15430157 0.049381558 0.14891392 0.045601677 0.007001611 -0.10105274 -0.13084508 -0.0017319322
-0.037414875 0.11190198 0.038905226 -0.02819354 -0.19429341 -0.14841057 -0.041863803 -0.011291881
-0.20205462 -0.065939926 -0.2904295 0.34443697 0.16383496 -0.012672805 -0.06022251 -0.04051958
-0.040141024 -0.053690214 0.18723999 -0.16672647 -0.10005823 0.013664574 -0.114543244 0.005808223
-0.20737202 -0.12752253 0.17977904 -0.038643435 0.023517447 0.18860978 -0.2904271 -0.08989446
-0.093343176 0.122395515 0.07896091 -0.1138724 0.22928132 0.0969139 0.20085204 -0.23273322
-0.07164279 -0.16768193 -0.12639306 0.11736296 -0.08216176 0.10544052 -0.050278675 -0.0786306
0.04557799 -0.11288717 -0.17268589 -0.13918519 0.18088835 -0.22809501 -0.27807194 0.079227865
-0.20255807 0.3876961 -0.2649639 -0.1041064 0.049669605 0.042578433 -0.07646447 0.14919247
0.089688234 -0.29976052 -0.17188673 -0.054706004 -0.06387516 0.05686044 -0.18545677 0.054232176
0.21729472 0.17270146 0.10353466 0.27713257 0.015956458 -0.01822145 -0.027117627 0.095595285

features_extractor.encoder.conv.6.bias f4 [32]
00000000: 2710 3abc 9cd0 263c 064a d73c 976d e3bc
00000010: 694b b7bc caa2 733d 560b 01bb a6f8 8abd
00000020: ad5f 3dbd 0d9e a5bd 21a0 e8bc 525b e13c
00000030: a6d3 4dbc 93c1 11bc 7517 92bd dcc6 843c
00000040: ab09 843a aebc 2abd df39 423d b3de c9bc
00000050: 05d0 01bd 8817 03bd 5704 f83c 6efc 90bc
00000060: 04c3 39bd 493c 6abd fe73 f43c de04 9abc
00000070: 5c82 60bd 54d6 143d dee6 1fbd 1548 1cbd
-0.01135639 0.010181572 0.026280414 -0.027762217 -0.022374826 0.05948142 -0.0019690595 -0.06785707
-0.04623382 -0.080867864 -0.028396668 0.027509365 -0.012562668 -0.008896249 -0.0713338 0.016208105
0.0010073682 -0.041683845 0.04741847 -0.024642324 -0.031692524 -0.032004863 0.030275507 -0.017698493
-0.045351997 -0.0571864 0.029840466 -0.018801149 -0.05481182 0.03633721 -0.03903853 -0.03815468

features_extractor.encoder.conv.8.weight f4 [64, 32, 3, 3]
00000000: 5e75 0abe 3b24 ed3d a84e b73d f850 f6bd
00000010: 3b90 13bd 6c32 0b3b 5ea2 83bc 28a2 0abe
00000020: 40f8 e23d df36 e3bd a36c 9f3d 4954 ea3c
00000030: 0c7d 82bd 2911 073e 4043 2dbd 4b1c 443d
00000040: 60ac f63d ed00 263e d00a 49be 6dc2 84bd
00000050: 0109 b4be 634e 383e edf3 f93d 8d0c 47be
00000060: 2f92 0c3d 969b ee3d 8125 243d f866 c03d
00000070: 4d27 913c b806 87bd 916c 9abd c8dc 8cbd
00000080: 3fb7 933c 0e70 95bd f411 4c3c 55cc 33bd
00000090: dc85 f03b 0b41 d2bc 8322 e53c ac09 ba3c
000000a0: af88 d1bd 99a5 4fbd 15ac a0bd 96e0 623d
000000b0: 21df 153c aff8 36bd 7e0a a9bd 13b3 debd
000000c0: 3e19 8ebc a93b 1a3d 8b41 41bd 4550 b03a
000000d0: 9825 7ebd 2f5c 803d 956b 27bd 73c5 8f3d
000000e0: 863c dbbd 3d47 4bbd 60a0 b43d faba 343e
000000f0: 360d 39bc 6111 3b3a 277b 1a3e 4a77 f23d
00000100: e2d9 99bd 58cd 90bd b2c6 48bd 175c 71bd
00000110: cc2c c3bc 0565 683d d8df bd3d 5bc4 e43d
00000120: d3fc d2bd c63e 303d 8568 013e a06e 3fbe
00000130: 0a58 4a3d 7814 023e 9032 6fbd 346e 8e3e
00000140: e205 a93d 30ec b53d a33f 8f3c dbb3 3fbd
00000150: 066e 6f3d 11ff bebd 754d 7c3d 70aa af3d
00000160: 3f50 bb3d 9cb4 2f3d 05d8 cb3d ca2f b93b
00000170: af9b 3fbd 14a3 cd3d e5d3 3bbe 9cba e1bd
00000180: a19e 0d3e 4e7e 01bd e2a4 e7bd bb79 a3bd
00000190: 32bc 7bbc 67f3 56bd 3d21 1fbd ee8e 523d
000001a0: 151e b8bd 90ea 88be 303a bd3d 358a b6b8
000001b0: c461 c43b 1201 17bd 289d 353d 5fbe d1b9
000001c0: 2e1a d63d 0539 8ebd d820 0bbd 38d9 0e3d
000001d0: 1c13 533c 4058 a3bb fe18 5cbd 0f69 5bbd
000001e0: 0a81 88bd 4507 0b3e 9d1e ad3d abc2 06bd
000001f0: b661 473d 564b 273e 853c 1cbe e2f7 303e
00000200: 49ba 8fbd 1229 453d 3d5d 073e d031 9abe
00000210: cd7a 6ebd 6fb5 033d c2d0 ef3d 8744 b5ba
00000220: b949 3a3e f9fe 0b3d 2887 d6bd 14a1 4e3e
00000230: 97b9 20be 1887 33be 4c08 dfbd 1a43 4fbd
00000240: c0d2 86bc 79ba a93d 95b7 1c3d f3b2 80be
00000250: 3e2c fa3c 0986 eb3c 0dea 01be d7d6 9e3d
00000260: c6fb 2dbe 7599 a1bd 23b4 fc3d c9b1 acbd
00000270: 3d5c 02be bae7 b63d 26f3 d3bc 388b 673c
00000280: d36b b4bc acee e5bd f023 a03c 37fd 1c3d
00000290: 8f77 a1be e81f 36bd 5014 a0bd d1f9 ab3c
000002a0: 9ab6 523e c315 383e ac58 863d 6c06 263c
000002b0: 2b82 67bd 8365 063e ec9a 6d3d 2548 ecbd
000002c0: 189f 47bd 1ad8 22be 27b4 e1bc 0890 debb
000002d0: cde4 063d 0b94 4c3e 9614 a53c 477d d73d
000002e0: 3184 6c3e 6784 eebd 29eb ad3d 9ffa 043e
000002f0: 22aa 8b3d 5f7d 263d bab3 363c bd8c 4dbd
00000300: 09ca 2ebd df0b 073e 2fb6 9fbd 01ff 8a3d
00000310: 88dd 213e a7bd 143e 6c02 4ebd 906e 913d
00000320: 013d 78bd 8062 1c3e 8896 08be d01a 003d
00000330: 3539 30bd 25ac 1d3d 79c0 e83c a807 02be
00000340: 9cc3 fe3c 7cce c5bb 9e9f ecbd e504 fa3d
00000350: 6fcd 663a 215b 49bc c8fa 9b3d ac69 7b3d
00000360: d103 00be e74f bbbd 573f bcbd 2fcf f1bd
00000370: ca0a 003d 524c a4bd 1b4a a0bd 7752 d43c
00000380: ce14 553e 1502 f6bd c40e db3c 6d39 083e
00000390: f0fc 46bd 8c38 acbd c40e a43d 264f 6dbd
000003a0: fe62 d23b 1d58 7fbd eaa9 bebc c0d7 aabd
000003b0: ecfc 07bd befc 60bd 3dac c0bd b489 e7bd
000003c0: 9293 11be 2621 2e3d b061 5c3e 87be 09be
000003d0: d729 14be 692e 2fbd 3849 5cbd 72bb 1f3e
000003e0: 00ea bcbd 96fc 81bd 3370 253e 7b00 843e
000003f0: 6914 9c3d b8bb 89bd 7629 b73d 4073 5d3d
-0.13521335 0.11579176 0.08950549 -0.12027162 -0.03602622 0.002123977 -0.016068634 -0.1353842
0.11082506 -0.1109445 0.07784393 0.028604643 -0.06371507 0.1319014 -0.042300463 0.047878545
0.12044597 0.1621129 -0.19633031 -0.06482396 -0.3516312 0.17998652 0.12204728 -0.19438381
0.0343191 0.116507694 0.04007483 0.0939464 0.017718935 -0.065930784 -0.07540239 -0.06878048
0.018031714 -0.07296763 0.012455452 -0.043896038 0.007340176 -0.02566578 0.027970558 0.02270969
-0.102311485 -0.050695036 -0.07845322 0.055389963 0.009147436 -0.044670757 -0.08253954 -0.108739994
-0.01734602 0.037654553 -0.047181647 0.0013451657 -0.06204757 0.062675826 -0.040874083 0.07020082
-0.10704903 -0.049628485 0.088196516 0.17649451 -0.011294654 0.00071360735 0.15086041 0.11839159
-0.07512261 -0.07070416 -0.049017616 -0.058925714 -0.023825072 0.056736965 0.092712104 0.11170264
-0.10302129 0.043028615 0.12637527 -0.18694544 0.049400367 0.1270312 -0.05839783 0.27818453
0.08253075 0.0888294 0.017486399 -0.046802383 0.058454536 -0.09325994 0.061597306 0.0857743
0.09146165 0.042896852 0.09953312 0.005651449 -0.04677933 0.1004087 -0.1834255 -0.11021921
0.13830043 -0.031614594 -0.11310746 -0.079822026 -0.0153646935 -0.05247822 -0.038850058 0.05140584
-0.08990113 -0.26741457 0.09239614 -8.704179e-05 0.0059931 -0.036866255 0.04433933 -0.00040005424
0.10454212 -0.06944469 -0.03396687 0.034875125 0.012882974 -0.0049848855 -0.053734772 -0.05356699
-0.06665237 0.13576992 0.08453105 -0.032900494 0.04867717 0.16337332 -0.15257461 0.1728206
-0.07017953 0.04813487 0.13219161 -0.3011613 -0.05822258 0.03215545 0.11709739 -0.0013829627
0.18192185 0.034178708 -0.10474998 0.20178634 -0.15695797 -0.17532003 -0.108902544 -0.050601102
-0.016457915 0.0828752 0.038261015 -0.25136527 0.030538674 0.028750436 -0.1268694 0.07755821
-0.16990575 -0.07890598 0.12339046 -0.08432347 -0.12730499 0.08930917 -0.025872778 0.014132313
-0.02202407 -0.11227164 0.019548386 0.038327422 -0.31536528 -0.044464022 -0.07816374 0.020993145
0.2057747 0.17977051 0.065598816 0.010133367 -0.056520622 0.13124661 0.058009073 -0.11537198
-0.048735708 -0.15902749 -0.027551724 -0.006792072 0.032933045 0.19978349 0.020151418 0.10521942
0.23097302 -0.116463475 0.08492119 0.1298623 0.0681956 0.040646907 0.011151249 -0.050183047
-0.042673144 0.13188122 -0.07798421 0.067869194 0.15807164 0.14525472 -0.05029528 0.07101166
-0.060605053 0.1527195 -0.13338673 0.03127557 -0.043023307 0.038494248 0.02841209 -0.12698233
0.031099133 -0.0060365777 -0.11553882 0.12207965 0.00088044157 -0.012289793 0.07616192 0.061380073
-0.12501456 -0.091460995 -0.091917686 -0.11807095 0.03126029 -0.080223694 -0.078266345 0.025918229
0.20808718 -0.12012116 0.02674044 0.13303156 -0.048581064 -0.08409223 0.08010629 -0.05793681
0.006420492 -0.06233989 -0.02327438 -0.08341932 -0.03320019 -0.054928534 -0.09407852 -0.11305562
-0.1421645 0.04251208 0.2152164 -0.13451587 -0.14469086 -0.04276887 -0.053780764 0.15598848
-0.092243195 -0.06347005 0.16156082 0.25781617 0.076210804 -0.06725258 0.08943455 0.05406499

features_extractor.encoder.conv.8.bias f4 [64]
00000000: 0170 52bd 5837 89bd 8f81 b03c b808 38bd
00000010: 6869 15bd 6534 ca3c 5634 0a3d 4d68 a2bb
00000020: cac3 2d3d a6a6 7dbd 2e71 62bd ebe6 e0bb
00000030: 1850 66bc 271a 91bc 770a 803d 69c5 bb3c
00000040: 23d9 f63c 3acc 843a 6af2 623d 9dd4 da3b
00000050: e3a5 6b3d 9f28 18bc ea46 ed3c e0ec f93b
00000060: 4211 debc 3efd 733c 5c04 93bc 77cd 3d3d
00000070: 0244 edbc 04e1 fa3b eca1 613c 0994 28bd
00000080: 0026 9c3c 9630 afbd 61ba 2dbc cde3 033b
00000090: f77d 9c3c 0d60 5abc 0911 bf3c 1ff3 12bd
000000a0: 09a0 793c 3540 983b db3c 54bb 2aee ac3c
000000b0: 65d2 76bd 3294 f6bb c2cb 2dba 3f5c 833d
000000c0: 6e0c d0bb 1beb 34ba d131 83bc 0b47 cc3c
000000d0: 4c33 6c3d 421a cfbc dbd0 54bc 290c 7dbc
000000e0: b840 ce3c 348b 8cbc 379f 1c3d 761e 593c
000000f0: 227a d5bc 78b9 1fbd c583 1cbd f6dd 27bc
-0.051376346 -0.06700009 0.021546153 -0.04493019 -0.036477476 0.024683187 0.033741318 -0.0049562813
0.042423047 -0.061926506 -0.055283718 -0.006863465 -0.014057182 -0.017712666 0.06251996 0.022921281
0.030132836 0.0010131665 0.055406965 0.0066781775 0.05753125 -0.009287029 0.028964479 0.0076271147
-0.027107839 0.014891921 -0.017946415 0.046338525 -0.028963093 0.0076562185 0.013771515 -0.041156802
0.019061089 -0.08554189 -0.010603518 0.0020124794 0.019103033 -0.013328564 0.023323553 -0.03587639
0.015235909 0.004646326 -0.0032384905 0.02110966 -0.06025924 -0.0075249905 -0.00066297885 0.06414079
-0.006349138 -0.00069014885 -0.016014965 0.02493622 0.057666108 -0.025281075 -0.012989248 -0.015444794
0.025177345 -0.017156221 0.038237777 0.013251891 -0.026059214 -0.038995236 -0.038211603 -0.010245791

features_extractor.encoder.conv.10.weight f4 [128, 64, 3, 3]
00000000: 98e4 15bd 1111 21bc 156c 48bd 1f99 2a3d
00000010: b21d eb3c 5bc2 4fbc 59c0 8b3d 044e 0b3d
00000020: b61d 473d 625d 81bd b896 2d3d 9e9a 97bd
00000030: 3e4f 1cbd cc1a 5cbc 9576 163d 6f30 94bd
00000040: 3e30 9e3b 4f99 81bd 3a6e 8ebd de7e 8ebd
00000050: c5e2 08bc b6f5 8e3d 5068 3dbe cf82 d13c
00000060: 74f3 7ebd b5ee e6bd 0eb0 313e fada 44bd
00000070: 1fdc 343d 68ba a53c a76b 433d 6fe7 94bd
00000080: d1da a43b ffb7 81bd 0816 22be e745 ef39
00000090: 5286 21bd 1fd4 023d dbb0 bc3d 7ce0 543d
000000a0: 5421 e7bd e15d 19bc 25d0 d33d d4cf 363d
000000b0: e945 21bd 239f 87bd 5743 953c e2b6 883d
000000c0: 2412 55bd 41a2 cb3d 0d94 a9bb 798b 003d
000000d0: fcbc a9bc 0c5e 02be ef92 afbd d176 81bd
000000e0: dc0a ccbc fc38 91bb 167f 7fbd 2ff4 a63d
000000f0: 8eec 833d a549 ec3d 6005 0f3e a4cb a9bd
00000100: 5635 cebd e435 1d3d 8545 dcbb 0114 843d
00000110: 5f83 bdbd 9d12 403d 4a84 8c3d cdfe fa3d
00000120: 8dac 48bc 2ca3 833d cb40 8e3d 60b5 31bb
00000130: 351e 82bd ce6c 453e a638 4abd d2ed 0dbe
00000140: 0a10 99be 7314 c83d 77f0 253d f24f 233d
00000150: 507f 39bd 0995 e63d e432 69ba d4b0 263b
00000160: 44a5 91bd 2052 dabc dfe2 25bc 606b cdbd
00000170: bcd9 9b3c 829f a03c 0bd4 c63d dc07 66bd
00000180: 8f1c 5dbd 4afe f13c c840 1e3e 47c7 203d
00000190: 196a d73c bffd 9b3d 75c6 313d 9311 113e
000001a0: 1f78 7d3e 0814 313d 9ed7 54bd af5a 3cbd
000001b0: c879 c3bd ab89 f1bd f1e2 a3bd 8370 13bd
000001c0: bdc4 97bc 646b 333d 3ff3 89bd 24ba f5bd
000001d0: 55ab 9d3d cec5 c8bc e5ef e53d 0426 b23d
000001e0: 202f 893c 124f 593e d8f0 d3bb 2efd a83d
000001f0: 704a f6bd dd99 17be 713e 743d c56f 193d
00000200: 9b27 cc3c fa79 e6bb 968a 9fbc f5f1 693d
00000210: 09ca 223d 8cc5 663d 5f54 10be 1016 233d
00000220: 7f99 96bc a1df a5bd 17bf c3bc 618d 0a3c
00000230: de04 c4bd 2225 35bd c11b 0e3d 17a3 eabd
00000240: c75d 18bd fce8 663c 28c1 e4bc ccdd 24bd
00000250: b183 543d faf3 8abd 3382 1ebc 5983 ca3c
00000260: b139 083c 7402 e2bd bf15 7cbb d803 b9bd
00000270: 7c17 2c3c d34b 01bc 3d6b 273e cf54 a3bd
00000280: e1f5 e23d 8872 8b3d 5472 39bd 1e3f 1b3d
00000290: f13e 023e 80f8 da3c d00e d53d 1772 93bd
000002a0: 767c 3dbc 49e0 1bbe aa6f a4bd cdbc 9f3c
000002b0: f2e6 aeba e9ef 2b3d d016 c93d aa97 a23d
000002c0: 8d32 4fbd bc77 dcbc 1936 cdbd f553 0fbe
000002d0: 6141 a1bd d0bc 043d da18 6dbc a8f8 f53d
000002e0: 06ee f13b 490e 423c 2b26 923b 6dfb 13bb
000002f0: 4c06 403e 9dca d8bc be6b 673d 0737 00bd
00000300: 1a57 05bc c7cc 2f3d 9349 edbd 2bbc 4a3d
00000310: 5093 02be be60 23bd 252d 083c daab a33d
00000320: df4c a2bd 4b63 063e 943f 2ebd 0b24 763d
00000330: 5d33 273d 088e 8fbe 2722 b5bd 8f25 023d
00000340: 59bf 6f3c 417f acbb 7f90 e5bc fc5b 3fbc
00000350: 009d fabd 04a6 65bd 90da 4fbd 1c8f c43d
00000360: 8e50 8e3c 2713 9a3d a9e0 813c 8132 893c
00000370: 8588 be3d ced7 03be 2e9f 0fbb 4adf 5f3a
00000380: 0986 03bd 8658 a7bc 74da 1d3d 78fa 693d
00000390: d404 cf3c 94c7 dc3c be74 e8bd 23bb d6bd
000003a0: de0a 083d d189 2ebd bba4 3ebd 302d 073d
000003b0: 55b7 ecbd f3e6 ef3d 2956 ed3c 0ada 2c3e
000003c0: 7c24 ab3c fbcc 3ebd 8adb 303e fd7a 613c
000003d0: 0c40 093e 56a4 283c ac5a 93bc 704e 953c
000003e0: d575 863d 0e8d a4bd b2b2 ba3c f91b 4ebe
000003f0: 7cee e13c 9e1d 923d 1c77 553c 85f3 283d
-0.036594957 -0.009830729 -0.0489312 0.041649934 0.028700683 -0.012680615 0.06823797 0.03400995
0.04861232 -0.063166395 0.042380065 -0.07402538 -0.03816151 -0.013434123 0.036734182 -0.072358005
0.0048275283 -0.063280694 -0.06954618 -0.06957792 -0.008354847 0.069804594 -0.18496823 0.02557507
-0.062243894 -0.112759985 0.17352316 -0.048060395 0.044155236 0.020230487 0.047710087 -0.07270705
0.0050309678 -0.063339226 -0.15828717 0.00045637714 -0.03943474 0.031940576 0.0921342 0.051971897
-0.11285654 -0.009360761 0.10342435 0.044631794 -0.039373312 -0.0662215 0.018220587 0.06675507
-0.052019253 0.09943057 -0.0051751197 0.03138301 -0.020719998 -0.12731189 -0.08572947 -0.063214906
-0.024907522 -0.004431842 -0.062377058 0.08152043 0.064416036 0.11537484 0.13966894 -0.082907945
-0.10068767 0.038381472 -0.0067221546 0.06449128 -0.09253573 0.04689275 0.0686117 0.12255631
-0.012248171 0.06427607 0.06945952 -0.0027116165 -0.06353418 0.19279787 -0.04937043 -0.13860252
-0.2989505 0.097695254 0.04051253 0.039871164 -0.04528743 0.11258895 -0.0008895828 0.0025434988
-0.071116 -0.026650488 -0.010124891 -0.10030246 0.019024722 0.01960731 0.09708413 -0.05615984
-0.053982314 0.0295402 0.154544 0.039252546 0.026295708 0.076167576 0.043402154 0.1416686
0.24752854 0.043231994 -0.05196344 -0.04598492 -0.09544712 -0.11793836 -0.0800227 -0.03599597
-0.01852643 0.043803588 -0.06735849 -0.11998394 0.076986946 -0.024508383 0.11227397 0.08698657
0.016746104 0.21221569 -0.00646792 0.08251415 -0.120259166 -0.14804788 0.05962986 0.037460107
0.02492123 -0.0070335837 -0.019475263 0.057115514 0.039743457 0.05634074 -0.14094685 0.039815962
-0.01838374 -0.080992945 -0.02389483 0.008456559 -0.09571241 -0.044224866 0.034694437 -0.11456888
-0.037198808 0.014093634 -0.027924135 -0.040250584 0.051883403 -0.06784816 -0.009674597 0.024720835
0.008314536 -0.11035624 -0.003846511 -0.09033936 0.010503646 -0.007891613 0.16349502 -0.0797516
0.11082054 0.068089545 -0.045275047 0.03790199 0.12719323 0.026729822 0.10403216 -0.07199495
-0.011565318 -0.15222277 -0.08029111 0.019499207 -0.0013343974 0.041976843 0.09818804 0.07939084
-0.05058532 -0.026912563 -0.10020084 -0.13996871 -0.07873798 0.032406628 -0.014471257 0.12010318
0.007383111 0.011844226 0.0044601164 -0.0022580281 0.18752402 -0.026463801 0.056499235 -0.03130248
-0.008138442 0.0429199 -0.11586299 0.049495857 -0.12751508 -0.039887182 0.008311545 0.079917625
-0.07924818 0.13123815 -0.0425411 0.060092967 0.04082047 -0.2803805 -0.08844405 0.0317741
0.014633023 -0.0052641933 -0.028023003 -0.011679646 -0.122369766 -0.056066528 -0.050745547 0.095976084
0.017372396 0.07523184 0.015854197 0.016747715 0.09303383 -0.12875292 -0.0021914947 0.00085400476
-0.032110248 -0.020427953 0.03853841 0.05712363 0.025270857 0.026950635 -0.11350392 -0.10484912
0.03321349 -0.0426119 -0.046543818 0.03300208 -0.11558405 0.11713972 0.028971748 0.1688005
0.02089142 -0.046582203 0.17271248 0.013762233 0.13403338 0.010293087 -0.017987572 0.018225878
0.065654434 -0.080347165 0.022790287 -0.20127858 0.027579539 0.07134555 0.013028886 0.041247863

features_extractor.encoder.conv.10.bias f4 [128]
00000000: 63a6 5dbc c6fb cdbc 4e3c 983b 1ccb 3d3c
00000010: 8687 caba ca64 16bc a22e 8b3c 70d0 cbbc
00000020: 8f58 fcbc feda 0a3d eb54 6d3c fbb7 c2bc
00000030: 3649 1dbd 9274 1fbb 3056 31bc 9af1 0e3c
00000040: 5997 a5bb 4ee6 1f3b 5d5c 523d 0340 d53c
00000050: 7174 9dbc 86f0 0abd 31bd babc d243 efbc
00000060: f844 8dbc 8970 05bc ab75 23bd 9a1b c63c
00000070: 353a 863c bdcd 4e3d 859f 58bb f9d3 15bd
00000080: e8a9 acbb 605f 223c b0f9 f73c 3b74 1fbd
00000090: 91e0 0a3c 9067 313c d0fa 1d3d 8133 62bc
000000a0: c61c 663c d450 3e3d 010b 0bbc 58c0 c13c
000000b0: 111e 973b 6ec5 cbbc 6f4a 32bd cb3f 063c
000000c0: 566b 313c 7212 57bc d971 06bd 5a30 cabc
000000d0: 71ae 283d 944e 223c a27a b23b b41a 923c
000000e0: 4736 513c 0741 e9bb ef72 19bc fe6d 20bc
000000f0: ce3f a0bb 3b7a 163b 6b25 8239 e1c3 20bc
00000100: 670c 053d 0fe4 b23c 4b38 4dbd 60d0 dc3c
00000110: 42b4 813c ebc7 c8bc a2b5 3abd 57dd 85bc
00000120: f768 a03d 4021 4cbc 6995 8fbd 860e 34bd
00000130: 5e00 0a3d 8733 bf3c 1dc9 b1bc 5e3d cc3c
00000140: 00a2 36bd 8c68 03bc dbc4 4fbd b868 b6bc
00000150: 8563 c13a 64fb dd3c 557e d4bc d12d 44bc
00000160: 9670 18bd 77f8 acbd bea6 25bd 63ff e4bb
00000170: b747 a3bb 946a 79bb 244c 94bc 9f1c 83bd
00000180: 0165 2f3d 09ee 9fbc f6e8 1a3a 5588 21bb
00000190: f050 7ebc a53e 32bd bad2 99bc 5780 233d
000001a0: 01e1 0dbd 5f94 103c 16c7 7cbb 06fe 483d
000001b0: da24 ebbc 90b3 7a3d 7432 4d3d 0bc9 51bc
000001c0: 143c 9b3c 9f62 59bd 1a28 8e3c 1670 03bd
000001d0: bd2d da3c a1d4 bebc 82ea 57bd 6b6b 9eba
000001e0: 9860 64bc e65f 3c3d 3d96 4f3d 8254 7c3c
000001f0: 8c16 b33c d414 17bd 2c4a 2ebc 4c4a d63b
-0.013528439 -0.025144469 0.0046458608 0.01158407 -0.0015451766 -0.009179303 0.01699001 -0.024879664
-0.030803947 0.033900253 0.014485578 -0.02376937 -0.038399898 -0.0024330956 -0.010823771 0.0087245945
-0.0050534424 0.0024398747 0.051357616 0.0260315 -0.019220563 -0.033920787 -0.022795292 -0.029207144
-0.0172448 -0.008144506 -0.03990714 0.024183083 0.016385177 0.050489176 -0.0033054065 -0.036579106
-0.005269278 0.0099104345 0.030270427 -0.038929205 0.008476392 0.010827914 0.03856927 -0.013806225
0.014044946 0.046463802 -0.00848651 0.023651287 0.0046117385 -0.024874415 -0.043528017 0.00819392
0.010828814 -0.013126956 -0.032823417 -0.024681259 0.041181985 0.00990643 0.005446748 0.017834999
0.012769288 -0.0071183476 -0.009365781 -0.009791849 -0.0048904186 0.0022961039 0.0002482341 -0.009812326
0.03248253 0.021837262 -0.050102513 0.02695483 0.015833024 -0.02450939 -0.045583375 -0.016340895
0.078325205 -0.012459099 -0.070109196 -0.043959163 0.033691756 0.02334 -0.021702344 0.024931606
-0.04458809 -0.008020531 -0.050724845 -0.02226673 0.001475439 0.027097411 -0.025939146 -0.011973814
-0.037216745 -0.084458284 -0.04044222 -0.0069884523 -0.0049829143 -0.003805791 -0.018102713 -0.064019434
0.042820934 -0.019522684 0.00059093477 -0.002464791 -0.015522227 -0.043516774 -0.01877724 0.039917316
-0.03463841 0.008824437 -0.0038570813 0.04907038 -0.028704096 0.0612064 0.050096944 -0.01280428
0.018949546 -0.053072568 0.017353106 -0.032089315 0.026633138 -0.023294749 -0.05271388 -0.0012086456
-0.013939045 0.045989893 0.050680388 0.015401008 0.021861337 -0.036885098 -0.010637801 0.0065396186

features_extractor.encoder.fc.weight f4 [64, 128]
00000000: 982c 37be f9a6 b0bd 31cc 763d ec1b b4be
00000010: 41ed 3c3e 3b40 1e3d 997c 1f3d e06a 44be
00000020: 22e2 243e 4acd c1bd 46d2 fdbc 5c5e b83d
00000030: d3ed 3f3d 0d0d 153e 4a52 2cbe a9cd babd
00000040: 9c38 9b3d e8fa a9be 11b4 353e 321a 613d
00000050: f4e6 75bc 4bce b7bc 88ce 053d 1782 a7bc
00000060: 9d19 223e 725d 9ebc 6faf 723e fe63 37be
00000070: 15bd 543e ef2a 1cbe 545b e83d 9562 57bd
00000080: bff4 63be fa89 15be 7b0d cbbd 127a 21be
00000090: e2c3 87bd ff9a ca3c 6dec bc3d 2fec 053d
000000a0: 022c 833c 113d 9abd a495 91bd 32a7 b1bd
000000b0: fe0d 07be f784 37bb f568 053e b0f3 0fbe
000000c0: 8168 fbbc bb51 d1bd f2eb 85bc 4aaf 943d
000000d0: 69bd f5bd 0045 7bbe 7bb5 253d fc39 58be
000000e0: 7236 c33d f8f2 96bc 163b 8d3c 94c5 763e
000000f0: c68e a7bc b25d 17be bb3c fd3d 0a61 443d
00000100: c954 32be 9633 973e bfd1 eebd 6e51 d6bd
00000110: 3354 3a3e 5d8e 033e 1f8e 6f3d d95f a1be
00000120: 43cf a03e 1a76 82be e824 38be 0995 f53d
00000130: 7ba2 383e 3717 1f3d af04 8e3d 9017 53be
00000140: 836f 0d3e 3bc7 eb3d 73db 14be d7d3 3d3e
00000150: c331 e6bd 7aee 68bd 3c4b eabd 6780 82bd
00000160: 07d2 4dbd 3334 43be a8c7 05be befd a63d
00000170: 0929 313e a968 813d 82cb 403e d476 99bd
00000180: e7ed 2c3d 72f8 93be 1c9f 913d baa9 1fbd
00000190: 64bf 503d d874 ef3c 6c05 f4bd ec98 c8be
000001a0: a2ca b0bd 9a9c 18bc 8edd 6e3e 5a58 7cbe
000001b0: fa45 053e f629 283e 0e17 f2bd 525b fe3d
000001c0: 4170 73be 9c39 453d 6862 3d3d 697f 18bb
000001d0: d83b 18bd 9ad6 8c3b ee71 08bd fd18 88be
000001e0: c761 14bd db1f 3c3e a9b2 d7bc f034 f43d
000001f0: 6e4c b6bc 9f0d 183d c289 62be d236 913e
00000200: 56ee 4fbd acd1 2ebe 80e2 1b3d db6f 4c3e
00000210: abd9 4abc d2e7 253d 6b95 4f3b 2c17 69bc
00000220: 8006 543d c498 193d d484 29bc a622 0e3e
00000230: 3821 873c c837 94be 72d1 503d e17c 84bb
00000240: 29b9 09bd 4b02 aa3d 0ba4 533e 5eee 2cbe
00000250: 9e7c 98be c310 58be 27bd 2abe 5ad8 9cbe
00000260: ed11 68bd fc9a 1fbe f407 343e 88a0 2cbe
00000270: f1d2 453c 2a84 f6bd 33a1 1c3d 7302 02be
00000280: d47b 393c 10f9 243e e00e 1b3e f5fc 82bc
00000290: 9f6f 7abd a9e2 abbc d0fa aabd f6f5 0bbe
000002a0: 4d78 d33d 0a24 cabe 71ce 853d c438 9c3e
000002b0: 2b8b 1cbd 23d4 00bd cdc5 813d 9971 2c3e
000002c0: 8b63 b0bc 1be4 11be 4fd0 733e 87fe 0c3d
000002d0: 6ba6 88be 8385 91be e23a c3bc ec48 cb3d
000002e0: 7c4e bfbd df9e 41ba 3b5e c1be 5c8f 3fbc
000002f0: 2b63 ed3d a6b5 b6be c1d1 ea3c aa1c ed3c
00000300: d3b9 02be e758 9e3d 6840 3abe 3ddb 513d
00000310: 2572 0e3e 4049 0abe 2d2e f73d cb29 b2bd
00000320: a2d6 143e 886b 6f3d 81ce 633c e594 9d3d
00000330: b08f 2fbe 2987 dbbd ef92 09bd 870d 813d
00000340: aa8c c5bc fad0 d4bc d4c2 0cbe b493 12be
00000350: 7f97 7b3e ab63 e0bd b177 493e 9d1e e83c
00000360: 7a7c 063e 24e2 babd 4319 49bd 3ac2 f9bc
00000370: 6000 fcbd 20f2 243c 1111 34bc 13c8 d8bd
00000380: 5757 45be 12eb 23be fb9d 3abc 1878 2d3e
00000390: 7cc1 243e 8944 03be fa28 93bd ed34 293b
000003a0: 37d3 223e 2960 3a3e 6356 163d bed6 803e
000003b0: c278 50be 3497 3bbe 6b58 98be 6252 d63d
000003c0: 66a9 42be 06e5 adbb 8bab c13d 7a12 51be
000003d0: 9af1 89bd 3a02 4a3d f78f dc3c 1074 9bbe
000003e0: 2140 9d3d c1e3 843e 934c 9e3d ebdb 75be
000003f0: db08 5ebe c7ca f1bc 9c26 a83d 2b43 953d
-0.17888105 -0.086255975 0.060253326 -0.35177553 0.1844988 0.038635474 0.038937185 -0.19181395
0.16101888 -0.09462984 -0.030984055 0.090023726 0.046857666 0.1455576 -0.16828266 -0.09121258
0.07579157 -0.3319924 0.17744471 0.054956622 -0.015008677 -0.022437235 0.032667667 -0.020447774
0.15830083 -0.019331668 0.23699735 -0.17909238 0.20775254 -0.15250753 0.113455445 -0.05258425
-0.22261332 -0.14603415 -0.099146806 -0.15769222 -0.066291586 0.024732111 0.09224782 0.032695945
0.016012195 -0.07531179 -0.0710862 -0.08674468 -0.13188931 -0.0028002837 0.13028319 -0.14057803
-0.03068948 -0.10220667 -0.016347859 0.07259996 -0.11999018 -0.2453804 0.040456276 -0.2111587
0.09531869 -0.018426403 0.017240088 0.24098808 -0.020453822 -0.14781836 0.12365099 0.047944106
-0.17415155 0.29531544 -0.116611 -0.1046475 0.18196182 0.12847276 0.058485147 -0.31518438
0.31408128 -0.2548073 -0.17982829 0.11991317 0.18030731 0.0388405 0.06934487 -0.20614457
0.1381207 0.115126096 -0.14536838 0.18537842 -0.1123996 -0.056868054 -0.11440131 -0.06372147
-0.050249126 -0.19062881 -0.13064444 0.08153866 0.1730081 0.063187905 0.18827632 -0.07493368
0.04221907 -0.28900486 0.07110426 -0.038980223 0.050963774 0.02923052 -0.11915097 -0.3917917
-0.08632399 -0.0093146805 0.23326704 -0.24643078 0.13014975 0.16422257 -0.118208036 0.12419762
-0.2377329 0.048150644 0.046236426 -0.0023269302 -0.037166446 0.0042980434 -0.033311777 -0.26581565
-0.03622606 0.18371527 -0.026330309 0.119241595 -0.022253241 0.037122365 -0.22122863 0.28362137
-0.050764404 -0.17072171 0.038057804 0.19964544 -0.012380998 0.040504284 0.0031674753 -0.014226716
0.05176401 0.037499204 -0.01034661 0.13880405 0.016495332 -0.28948808 0.050980993 -0.004043207
-0.033623848 0.083012186 0.20668046 -0.16887805 -0.29782575 -0.21100144 -0.16673718 -0.30633813
-0.05665772 -0.15586466 0.17581159 -0.16858113 0.012074218 -0.12036927 0.03823967 -0.12696247
0.011321027 0.16110635 0.15142393 -0.01598976 -0.061141606 -0.020982103 -0.0834862 -0.13668045
0.1032568 -0.3948062 0.06533516 0.3051206 -0.03821866 -0.03145231 0.06336556 0.16840209
-0.02153184 -0.14247172 0.23809932 0.034422424 -0.26689467 -0.28422174 -0.023831788 0.09926018
-0.093411416 -0.00073860394 -0.37767205 -0.011691894 0.115911804 -0.35685462 0.028664472 0.028944332
-0.12766199 0.077318005 -0.18188632 0.051234473 0.1391073 -0.13504505 0.12069354 -0.086993776
0.14535001 0.05845216 0.013904215 0.07694415 -0.17144656 -0.10719139 -0.033587392 0.06301408
-0.024114925 -0.025978554 -0.13746196 -0.14314157 0.2456951 -0.1095651 0.19674565 0.02833491
0.13133422 -0.09125164 -0.049096357 -0.030488122 -0.12304759 0.010067493 -0.010990397 -0.10585036
-0.19271599 -0.16007641 -0.011390205 0.16940343 0.16089433 -0.12819113 -0.0718555 0.00258189
0.15900885 0.18200745 0.03670348 0.25163835 -0.20358565 -0.18319398 -0.29754958 0.10464932
-0.19009933 -0.0053068427 0.09456547 -0.20417204 -0.06735535 0.04931853 0.026924117 -0.30361986
0.07678247 0.25955012 0.07729449 -0.24009673 -0.21683066 -0.029515637 0.08210489 0.07288202

features_extractor.encoder.fc.bias f4 [64]
00000000: 5d3a fb3c 99e3 863d acba e6bb 5969 26bd
00000010: c564 23bc 105d ed3c 217c 0bbc 23a2 d8bb
00000020: 5e54 2a3c 763f 143d 60d7 853b b775 643b
00000030: 0733 853b 1679 fe3b c812 a33c b3e3 6fbd
00000040: 3890 1f3c e804 843c 9511 32bb 9c90 3f3c
00000050: 451d 653d 7fa2 3cbd d309 9c3b af9f 653c
00000060: 8642 923c aeff 1abd 0415 bcbc 0b69 1cbd
00000070: eeb3 8b3c b09f c3bc 5ccb 4abc 7b43 1fbd
00000080: c07d b2bd fd36 1cbd 14c7 5b3d 4828 81bb
00000090: be47 bebc f522 8ebc 15b8 fb3b 3928 3c3c
000000a0: 43fe 21bd 5454 c73c 3aa0 b03b 4563 e8bc
000000b0: 05dc 363b fbad 623c 87a6 153c 509a 0abd
000000c0: f944 153c 9e54 a63b 59b7 393a 5eb4 1fbd
000000d0: f6e6 a93c c5f0 833d 635e fabb 833b f23c
000000e0: 801b 2f3d fb73 ff3b ab27 973c aca6 233c
000000f0: e97f 2cbc 6c69 babc 4856 0fbc f30a c33c
0.030667478 0.065863796 -0.007041296 -0.04062781 -0.009972756 0.02897504 -0.008513481 -0.006611125
0.010396091 0.036193334 0.0040845126 0.0034860203 0.004064921 0.0077658994 0.019906417 -0.05856676
0.009738974 0.01611562 -0.0027171124 0.011692192 0.055936117 -0.046053406 0.0047619133 0.014015122
0.017853986 -0.03784149 -0.02295924 -0.038186114 0.01705357 -0.023879856 -0.012377586 -0.038882714
-0.08715391 -0.03813838 0.053656653 -0.0039415695 -0.023227569 -0.017350653 0.0076818564 0.011484199
-0.039549123 0.024332203 0.0053901942 -0.028367648 0.0027902138 0.0138354255 0.0091339415 -0.03383857
0.009110683 0.005076005 0.0007084511 -0.03899037 0.020740014 0.064424075 -0.0076406463 0.029569393
0.042750835 0.0077958084 0.018451532 0.009988468 -0.010528543 -0.022755347 -0.008748598 0.023808932
