weights/reward-predictor-lstm-ns-2-e-100-nt-100-rew-all.pt (torch, 135632 bytes, 4 tensors)

lstm.weight_ih_l0 f4 [256, 64]
00000000: 95f5 1d3d 156b c0bc 19ee d6bd 3271 c83d
00000010: 0cf6 f2bd 5064 843d 8227 953d 5e6c 2d3e
00000020: 587b 87bd 3bdc f8bd fb9a 5c3d b4b9 97bd
00000030: 5092 7dbd e17f 133d 52fc 45bc 0550 213e
00000040: 8165 edbd 2f2c 443d 52b3 8a3b 19c9 573e
00000050: 7368 433c 95d2 333e fa5f 9ebc 4167 dbbd
00000060: 38dc bf3d 0748 dd3c bc0e 06be d9db 073d
00000070: 05ae e13d 3277 0e3e 0ff8 163e 1da2 71bd
00000080: a106 9a3d 4737 3fbe ec38 29bd 7a2d 9c3d
00000090: 2d12 6c3d 2814 2e3d e80a bebd df93 d1bd
000000a0: 585d c6bc dc22 38bc c021 423d c190 57bd
000000b0: 8dc9 85bc b56d 94bd d5ba fd3b 0345 dd3d
000000c0: 2f91 373d d95c 313e 8caa 4b3d 71de f03d
000000d0: 2255 94bc b02d 073d cb03 803d aa0f 933d
000000e0: 2ad3 813d ca40 1f3e 4d43 1d3e 4831 833d
000000f0: 7d10 2abd 47ba 763b cc41 99ba 16e3 a0bc
00000100: bbd6 edbb dc96 243e d039 153e 438a 9e3c
00000110: a69f 723d 8686 673d a47f c8bd 77da babd
00000120: 5ef9 013d 1919 043e fe05 49bd 90ba f23d
00000130: 5406 bbbd 5832 11be 8c0c dc3d c1a1 e23d
00000140: fa13 3cbe ed3f 683c 188d 8bbd 6757 a5bd
00000150: 811b a1bc eb56 00be cc03 e63c 085b 983d
00000160: 6e72 06be 11bb 21bd 99ec f8bd d21e 063e
00000170: 421c 98bd 049d 263d 8ba1 f9bd 4f1a 0b3e
00000180: 3fe8 e1bd 149b 873d fa6f b83d e30f e63d
00000190: a350 043e 1851 bbbd 730c cebc cc3c 483d
000001a0: b60d a13c 292d 9abd 1428 bc3d 1a01 06be
000001b0: 5dca 973c 2b39 a9bd 1616 883d 3645 cebd
000001c0: e564 12bd 04a8 38be be48 9cbd 4535 08be
000001d0: d737 b53d 88b9 b63d d1de 0c3d ecce 063e
000001e0: f9fb fc3d 0f54 143d e484 f3bb 9da3 393c
000001f0: bed6 eebd 55c5 db3c 4125 933c 2185 003e
00000200: c87c 4ebc 8545 65bd 456f c3bd 7eda 143d
00000210: 910b 943d 73ac 3abd 318a 023e 94d4 453b
00000220: 23f1 c13d 1f26 03bd 2176 0cbc 263a 25be
00000230: f92d dabc 5365 1f3e 4ad7 c6bd f642 1b3d
00000240: 6322 a33d 9a0b 78bc f4a4 09bd 067a cd3d
00000250: 1ed5 d9bd 7266 8f3d 2eec b8bd 0034 42bd
00000260: 7e55 953d 9f57 9a3d 17a0 b6bd e7ff 9cbc
00000270: a01b a6bd 5c95 883d 6356 b4bd 1cb3 383d
00000280: 0795 a6bc 4bca f9bc 1cd3 b63d 2262 36bd
00000290: 36f2 4abd 6614 eebd ebaf 4cbc 9982 e83c
000002a0: 1d4b 65bc 5683 a3bd 052e c2bc dc16 f6bd
000002b0: 29cf b4bd fde2 f83d 92ce 0abc 95ea 2cbd
000002c0: cba3 8e3b 39de b3bb 44ef cd3c c207 08bd
000002d0: 44ac 533d 6f9f e7bc 271b 85bd dc89 8d3c
000002e0: 6635 b83c f220 f03d f62a 11be b2d0 103d
000002f0: ce1f 9cbd c34f 2fbd 91bc 62bd e257 da3d
00000300: 92e9 023d 0315 a33d 4eec 943c 0e2a 30be
00000310: b0e5 ba3d 4edd c73d c524 993c f35c 033c
00000320: 6677 d33d 30b3 143e 7a3a 88bc 2d82 a9bc
00000330: 850b 1c3e a886 15bd 11b3 21be 9dff 3abe
00000340: a7c6 2d3c 1852 17bc 2724 0dbd feea 0e3d
00000350: 3a00 48bd 5257 fcbd a3e7 b8bd 131b 093e
00000360: fae1 813c 6e2c f33d 94b2 45bd 84d9 d1bc
00000370: 13e6 4cbd 4820 10be 47c9 efbd 873c 513d
00000380: f6e7 803d 91cd 31bd 1a29 d43d 4560 1e3d
00000390: 0fd0 a1bd 74a3 08be 1450 bdbd 378f fcbc
000003a0: 0160 cbbd 6896 e2bc f258 4fbb f0f0 e3bd
000003b0: e5f5 42bd 3876 1a3e 36e0 a7bd e59b 91bc
000003c0: 5107 173e 1fda 0dbe 79f1 80bd 4121 ed3b
000003d0: 5914 a2bd 25fa 1dbe 5840 993d 6d48 493e
000003e0: 419e 0cbe 7184 00be ff52 05be fc4c fb3c
000003f0: f872 083e 76fb 0ebe 1656 203c 7295 223e
0.038564283 -0.02348856 -0.10494632 0.09787215 -0.11863336 0.064644456 0.07282926 0.1693587
-0.06615323 -0.12151381 0.05385874 -0.07408467 -0.061907113 0.036010627 -0.012084084 0.15753181
-0.11591626 0.0478937 0.0042328024 0.21072806 0.011926758 0.175608 -0.019332875 -0.107130535
0.09368175 0.027011884 -0.13091558 0.033168647 0.1101952 0.13912657 0.14743064 -0.058992494
0.075207956 -0.1867343 -0.04131405 0.076258615 0.05763452 0.04249969 -0.09279424 -0.10233282
-0.024214432 -0.01123878 0.047395468 -0.052628282 -0.016331458 -0.072474875 0.0077432194 0.108041786
0.044816192 0.17320575 0.049723193 0.11761177 -0.018107 0.033002555 0.062507235 0.07180722
0.063391045 0.15552059 0.15357704 0.06405884 -0.04151963 0.003764765 -0.0011692583 -0.019639533
-0.007258264 0.16073173 0.14572835 0.019353038 0.059234284 0.056524776 -0.097899705 -0.091237
0.031731956 0.12900199 -0.04907798 0.1185199 -0.09132066 -0.14179361 0.107445806 0.11066008
-0.18366995 0.014175397 -0.06814021 -0.08073311 -0.019666435 -0.12533157 0.028077982 0.07439238
-0.13129589 -0.03948504 -0.121545024 0.13097695 -0.07427265 0.040677086 -0.12189015 0.13584255
-0.110306256 0.06621376 0.09005733 0.11233499 0.12921385 -0.09146327 -0.02515242 0.048886105
0.019659858 -0.07528145 0.09187332 -0.13086358 0.018529112 -0.08262857 0.066448376 -0.10071795
-0.03574075 -0.18032843 -0.07631062 -0.1330157 0.08848541 0.08922106 0.03439218 0.13164872
0.123527475 0.036212977 -0.0074316133 0.011330512 -0.116620526 0.026827494 0.0179621 0.12550785
-0.012602992 -0.055974502 -0.09542707 0.036341183 0.072287686 -0.045574617 0.12748028 0.003018652
0.09469821 -0.032018777 -0.008573086 -0.16135463 -0.02663325 0.15565996 -0.09709032 0.037905656
0.07965543 -0.015139485 -0.033604577 0.1003304 -0.10636352 0.07001962 -0.09029423 -0.047412872
0.07291697 0.07536244 -0.089172535 -0.019164992 -0.08110738 0.06669113 -0.088055395 0.045092687
-0.020334734 -0.030491969 0.08926985 -0.04452718 -0.049547397 -0.116249844 -0.012493114 0.028382586
-0.013994959 -0.07984035 -0.023703584 -0.12016079 -0.08828575 0.121526696 -0.008472102 -0.042215902
0.0043530217 -0.0054891375 0.025138505 -0.033210523 0.051677957 -0.028274266 -0.064993195 0.01727765
0.0224864 0.11725034 -0.14176545 0.035355277 -0.07623254 -0.042800676 -0.055355612 0.106612936
0.03196103 0.07962992 0.018179085 -0.17203543 0.09125841 0.097590074 0.01869429 0.008017766
0.10325508 0.1452148 -0.016629446 -0.020691955 0.1523877 -0.03650537 -0.15790965 -0.18261571
0.010606444 -0.009235881 -0.034458306 0.034892075 -0.04882834 -0.123213425 -0.09028556 0.13389234
0.015854824 0.11873709 -0.04826601 -0.025616415 -0.050024103 -0.14074814 -0.117083125 0.051083114
0.06294243 -0.043408934 0.10359402 0.03866603 -0.07901012 -0.13343602 -0.09243789 -0.030830009
-0.09930421 -0.02765961 -0.003163871 -0.111299396 -0.047597785 0.1508416 -0.08197062 -0.017774532
0.14748885 -0.13852738 -0.06296057 0.00723663 -0.07914037 -0.15427454 0.07482976 0.19656534
-0.13732244 -0.12550522 -0.13019942 0.030676357 0.13325107 -0.13963112 0.0097861495 0.15877321

lstm.weight_hh_l0 f4 [256, 64]
00000000: 0b36 313e f1db 46bb 5c39 81bd dc6f 75bc
00000010: 2345 9dbd 3a37 3bbe 12cb aabd 49ba bcbd
00000020: 1ee3 163d e5b9 e23d f248 0fbe a0a6 9c3c
00000030: ea2d a3bd b18a 6c3d 8b72 f4bd 3919 08bd
00000040: 5132 dfbb cb9f 04bd 3c7e 9ebd 5e08 84bd
00000050: 7339 cdbc c4d3 e43b 8044 413c 2582 b33d
00000060: 7ab0 b83d 9df2 18be d5a5 503e c96b 19bc
00000070: 787c 303d 065c 423d 5e71 033e e387 e23d
00000080: 9dd2 903d 4eff 32bd 621d 033d 455f 023d
00000090: 8088 b73d 1726 803d d52e e4bd 70ec 91bd
000000a0: b102 0fbe 31db 90bd 7766 db3c a485 edbd
000000b0: 6794 08bd 63c1 223e 5da5 e8bc 3c3a 783d
000000c0: b084 b3bd c2eb c9bd b7bd 77bd 99b7 d0bb
000000d0: 1715 0b3d 4be4 b83d 54a7 05be 7a05 53bc
000000e0: e47f 0d3d ecdb 35bc 7272 543d 7b2a 223e
000000f0: e73a a93d 9f31 8e3c 8d37 25be 44a0 0d3b
00000100: 3c37 213e 9c3e 46bd d792 31bd d4df 803d
00000110: e39f acbc 0740 023d 7e85 f7bd 466e 42bd
00000120: 7285 8c3d ae20 bfbd 397e 14be 73b8 cf3d
00000130: 7dcc 9c3d cc07 f63b 5562 efbd 4d7e 053e
00000140: fedf 233c ea12 b93d fe8f e4bd 3c7c ef3c
00000150: 943e 28bc e550 143e ffcb 2abe f974 ccbc
00000160: 96c2 debd fb93 bebd 76a7 c0bd 2d52 36bd
00000170: b778 2fbd 050b 9c3d d53e 13bd 57f5 58bd
00000180: cb3e 32bd f3b8 453d 90b2 f63b 683d 833d
00000190: 78ad 92bc d2be cebd 498c 9aba 2375 bd3c
000001a0: c4b4 4c3b 92e9 05be d72e ce3d 4ce7 1fbe
000001b0: 3427 83bd 415a 86bd 2a7f 863d 7890 65bd
000001c0: 559e 27bd 6f58 e73c 1621 21be de49 e8bd
000001d0: 2566 013d f135 78bc 23a3 7cbd 1479 b9bd
000001e0: 8852 01bd a934 a63d b150 b03d 3581 42bd
000001f0: 3769 1e3d 2645 f13d c965 30be 084c 2ebd
00000200: 41ee d63b eeba ad3d 252d e6bd a021 bcbd
00000210: 3d35 3b3a c75f f13a f3b8 43bd 5df0 a1bd
00000220: 3b2e a83d 69ec 953b 9146 45bc f245 c23d
00000230: cc63 a43c cbb9 ae3c 1165 943c dbc3 13bd
00000240: b5ee cebc 56cf 543d 7528 943c 0a2e 143d
00000250: ba67 6abd 1eff ed3d 3ba0 af3d 54d9 943d
00000260: e87d a2bd 39eb db3d c47a ef3d 6347 973d
00000270: b299 17be 9333 2a3d 06fd 683d e1d4 1fbe
00000280: 6875 40bc f5bb f5bd f568 71be da53 1dbe
00000290: 4037 4bbd 6aaf 18bd 8f14 abbd a15f 9abc
000002a0: 836b 933d b5de 9d3d dc1f d9bd 238a 31bb
000002b0: d10f 7abc 2c1e cb3d b064 b63c adb1 5cbd
000002c0: 5bdc 433d b8c5 02be 96b6 d73c c433 e43d
000002d0: e175 a73d 3330 41bd 8ff2 b53d 3d61 083e
000002e0: 411e 233e 0ebd 023d 3a15 38bd 04f4 9c3d
000002f0: 2ea5 c1bc 7c55 64bd ed2b 2bbd ac2a 6a3d
00000300: f25c e5bd f9bd cc3c 7011 1e3e 743c cb3d
00000310: 1095 63bc 8826 c3ba 6376 cabc a65d 4c3d
00000320: a2e3 613e 3432 f93d ca42 dabd 4633 3b3c
00000330: 7e6c b2bc 69c5 6e3d 8c6d 693d a840 dcbd
00000340: 390a 813d ffd7 09bd f59d f13c c348 3fbd
00000350: ac8b 5cbd 8718 c7bd c326 1abe 4f51 963d
00000360: 71b6 91bd 7e84 043d cec4 ffbd b2e5 693a
00000370: 5e87 7a3d fdd4 c5ba 1e94 87bd 1625 563c
00000380: 047a 13bc f345 cf3d f65b 46be 9246 14bc
00000390: 5ae5 4dbd 83f8 5e3d 849e 653d 3f89 8bbd
000003a0: 9784 303e d596 57bc 2379 eb3c e07b a93d
000003b0: c947 343c 6b26 e03c 1de2 e63d 2f6e 22bd
000003c0: 21bd 4f3d e279 2f3d bffe d3bd 0445 ab3d
000003d0: a933 a33d 0e72 55bd 58ed cd3d fac0 0e3e
000003e0: 0870 b53d e9a6 243d 6342 21be 9c84 d7bd
000003f0: dcb7 cebb cb82 443d 0af4 323d 30b9 dabd
0.17305772 -0.0030343498 -0.063097686 -0.014980283 -0.076792024 -0.18282786 -0.08339514 -0.092152186
0.03683769 0.11070613 -0.1399267 0.019122422 -0.07967742 0.057749454 -0.1193591 -0.03322718
-0.006811418 -0.032378953 -0.07738921 -0.064469084 -0.025051808 0.0069832522 0.011796117 0.087650575
0.09018035 -0.149363 0.2037576 -0.009364077 0.043087453 0.04745104 0.12836215 0.110610746
0.07071421 -0.04370051 0.032010444 0.031829137 0.08961582 0.06257265 -0.11141745 -0.07125175
-0.1396587 -0.070730574 0.026782257 -0.115977556 -0.033344653 0.15894084 -0.028399164 0.06060241
-0.087655425 -0.0985942 -0.06048366 -0.006369543 0.03395566 0.090279184 -0.13052112 -0.012879724
0.034545794 -0.011099797 0.051866956 0.15836518 0.08263188 0.017357646 -0.16134472 0.0021610418
0.15743726 -0.048399553 -0.043352928 0.06292692 -0.021072334 0.031799342 -0.120860085 -0.047468446
0.0686139 -0.09332405 -0.14501275 0.10142603 0.076561905 0.0075082537 -0.11688677 0.13036461
0.010002134 0.09036811 -0.11160277 0.029234044 -0.010268826 0.14483984 -0.16679381 -0.02495812
-0.10876958 -0.09305569 -0.09406941 -0.044511963 -0.042839732 0.07619289 -0.035948593 -0.05296835
-0.043516915 0.048272084 0.0075286105 0.06408197 -0.017904982 -0.1009499 -0.0011791076 0.023127144
0.0031235674 -0.13077381 0.10067528 -0.15615577 -0.06403962 -0.06560183 0.06567223 -0.05604598
-0.04092248 0.02824041 -0.15735278 -0.11342214 0.031591553 -0.015149579 -0.061679017 -0.09056297
-0.03157285 0.08115513 0.08609141 -0.047486503 0.03867456 0.11780767 -0.17226328 -0.042552978
0.006559164 0.0848292 -0.112390794 -0.09186101 0.0007141417 0.0018415385 -0.047783803 -0.07907174
0.08211943 0.0045753014 -0.01204075 0.09485997 0.020067118 0.021328827 0.018114598 -0.036075454
-0.025260309 0.051955543 0.018085698 0.03617672 -0.057227828 0.11620925 0.085754834 0.072680146
-0.07934171 0.107382245 0.116933376 0.07386663 -0.14804724 0.04155309 0.056881927 -0.1560855
-0.011746742 -0.119987406 -0.23575194 -0.15364018 -0.049613237 -0.037276663 -0.083535306 -0.018844428
0.071982406 0.077084936 -0.1060178 -0.0027090393 -0.01526256 0.09917864 0.022264808 -0.053880382
0.04781757 -0.12770736 0.026332181 0.11142686 0.081767805 -0.047165107 0.08884155 0.13318343
0.1592951 0.031918578 -0.04494212 0.0766373 -0.023638334 -0.055745587 -0.041789938 0.0571696
-0.111993685 0.02499293 0.1543634 0.0992364 -0.01389052 -0.0014888803 -0.024714654 0.049893998
0.22059491 0.121677786 -0.1065727 0.011425799 -0.021780249 0.058293734 0.056989238 -0.1075452
0.06300778 -0.033653256 0.029494265 -0.04670025 -0.05384414 -0.09721475 -0.15053849 0.07339727
-0.07114876 0.032352917 -0.124887094 0.0008922472 0.061164252 -0.0015093383 -0.06620048 0.013070365
-0.009001259 0.10120764 -0.19371018 -0.009050028 -0.050267555 0.054436218 0.056059375 -0.06813287
0.17238079 -0.01315852 0.028744286 0.082755804 0.011003443 0.02736207 0.112735964 -0.03965586
0.050717477 0.042840846 -0.10351323 0.08362773 0.07968838 -0.052110724 0.10055035 0.13940802
0.08859259 0.04019824 -0.15747981 -0.1052334 -0.006308539 0.047976296 0.043689765 -0.10679853

lstm.bias_ih_l0 f4 [256]
00000000: f331 dd3a 05bb 46bd 15dd 14bd fb9c 853d
00000010: 1889 afbc d020 e6bd 1797 b5bd 901e c83b
00000020: 6e0c 39be 3797 07be cfc1 7ebd f2b1 8abd
00000030: 2dff f6bd 7f0d e33d 4cfa 843d 6bfb 0b3d
00000040: 4a7e 15bd 19ef 233e 0ef0 f53c 984c 26be
00000050: 31d3 643c b052 03be dfcd 04be 78e8 5b3c
00000060: 89ee 483d d17a 143d bcfc 38be 4610 593d
00000070: 847d 83be 5bf3 523d 48d4 65bd 2b49 8fbd
00000080: 7078 5ebc d7c3 c53d 2afe 44be ff54 2dbd
00000090: 336b e4bd 2a33 53bd df37 07be 2c98 753c
000000a0: 3ef2 003d 98da 3bbe 0f91 033e ad11 4abd
000000b0: 220a be3d 71ed 013c 4c5b 683d 43fd bbbd
000000c0: 4100 033c 91ec 31be 49ba 023b 20c5 a5bd
000000d0: e250 2b3d ed10 39be fcf9 45be 0755 5bbc
000000e0: 8f01 8ebd 9c06 f43c ffb7 15bd 9c11 43bc
000000f0: 7be8 2e3d 5231 623e 9ab5 56be b9b1 ae3d
00000100: 4d83 023d 376e a63d c988 c93d e44b fb3a
00000110: 9b52 0c3e 91d1 99bd 063a 073d 8819 063e
00000120: c6a6 9a3d 8c8e e1bd 709a 0f3e bc86 613c
00000130: 0d3f 03bc 98a8 54bd bec6 6f3e eb17 88bd
00000140: f05a a43c b66c fc3d 74c3 973d e406 83bd
00000150: 8cce 52bd 184e 48be 0f93 cdbd 698d 0c3e
00000160: 3fad 88bc 67d9 42bd ee4d ac3d 2013 3abd
00000170: 6a5d 143d d010 083d 9206 d1bd a799 a23d
00000180: 4410 983d c4d8 f7bb 4928 aebd 72a8 17be
00000190: 24f9 21bd fcbd 05be 4458 213c f04c 03be
000001a0: 4451 513d a332 03be 3ae5 ab3d 8d47 d3bd
000001b0: fb26 483d 9a75 78bc 69e0 063d ca26 b9bc
000001c0: e948 cabd 9512 f4bd 6d2f 02be 09a2 ac3d
000001d0: 68ef b2bd 253e 63bd 1493 fa3d c0cc 053e
000001e0: 9012 89bc 6c7a 35bd 908e fb3c dde4 a03d
000001f0: f968 72bd cf42 983d 0c24 073d d7f7 543d
00000200: 9b8b 2ebd 81e9 09bd 5618 473d f280 503e
00000210: dfb6 a7bb 85f6 733d e893 76bc 0efe 083e
00000220: 899e b33d fb43 c0bd f99d f2bd 803b d1bc
00000230: ad0f 103d 67f9 283e 04c8 2a3e 9976 5a3c
00000240: 5c7b 16be c8fa b33d c4ab c2bd b777 a8bd
00000250: 4da5 9cbd 5d40 a0bd cffc 873d 06b2 5d3d
00000260: 94f0 dabd 074b fd3d b327 d6bd b971 31bc
00000270: bef7 d13c 0e03 1ebe 0bb4 733d c740 94bd
00000280: ec6f febd 7ced 843d 5d8d a6bd 83f0 e13d
00000290: 0ddf 883d 2709 0fbd e17d 583d 9239 86bd
000002a0: 8cc7 ef3d 4845 d23a 67b5 c33d 39eb 9dbd
000002b0: ea0d 213c df59 22be fc83 36bc cd52 83bd
000002c0: 6442 aa3d 1d09 883d f3ef 94bb b0b5 133e
000002d0: 59b9 193d c49d e13d 394c 083c 1071 853d
000002e0: f40a ee3d cf09 acbc d904 e4bd c891 273d
000002f0: 53d5 32be a3ab 14be 3123 c6bd 2345 19be
00000300: 8edb d8bd 7269 b8bd 2741 f03d b09c 103e
00000310: aead 933b c745 debc 04cf 9e3c e8fe 053e
00000320: 75e8 4dbd d90e c4bd bfcc 113c 92af d4bc
00000330: 2d7a 81bd b261 903c 52c6 83bd d13f 513d
00000340: 9b08 18be d65e 7bbc 0200 d4bd ba06 50be
00000350: 0a35 38be b7a0 0abd b608 9ebd 8aa9 9a3c
00000360: b3be 4fbd 15e6 c03d 951c 923d f06b dd3c
00000370: 01f4 063d 999b dc3d 67f3 5c3c 05f1 d3bd
00000380: 3fc8 efbd ade8 39bd 5b6d a4bd 230e ecbd
00000390: 2d19 b53c 696a d1bd 6f51 c5bc 7627 3dbe
000003a0: 3532 123d cecb e3bc e1a1 b33d e5a9 bdbd
000003b0: 97aa 803c cc38 d3bd ab5d de3d c6ac b8bb
000003c0: bd6f 96bc b769 71bd 6758 f6bd c379 063d
000003d0: fbe9 26bd 23b7 3c3d a58b 733c e82c 1ebe
000003e0: 4662 bd3d dfd6 ccbd e249 fdbd 7761 34be
000003f0: 3aac ea3d ceff e23d d63b 4d3d 8150 5b3d
0.0016875848 -0.0485182 -0.036343653 0.06524082 -0.021427676 -0.11236727 -0.08866709 0.006107159
-0.18071148 -0.13241278 -0.06219655 -0.067722216 -0.1206039 0.110865586 0.06493053 0.034175318
-0.03649739 0.16009177 0.030021694 -0.16240156 0.013966368 -0.12824512 -0.12969159 0.013422124
0.04905561 0.03624994 -0.1806516 0.052994035 -0.25681698 0.051501613 -0.05611065 -0.069963776
-0.013578519 0.09656494 -0.19237581 -0.042317387 -0.11153259 -0.051562466 -0.13204907 0.014989894
0.03148102 -0.18345106 0.12848304 -0.049333263 0.092792764 0.007930146 0.056727692 -0.09179165
0.007995666 -0.17375399 0.001994746 -0.08094239 0.041825183 -0.18072863 -0.19333643 -0.013386971
-0.06933891 0.029788308 -0.036552425 -0.011906054 0.04270218 0.22089127 -0.20967713 0.08529992
0.0318635 0.081264906 0.09840543 0.0019172397 0.13703386 -0.07510675 0.03301432 0.13095677
0.07551341 -0.11013517 0.14023757 0.013765033 -0.008010638 -0.051918596 0.23415658 -0.06645187
0.020062894 0.123254225 0.074103266 -0.06397799 -0.05146651 -0.1956104 -0.10037815 0.13725819
-0.016684173 -0.047570612 0.084133014 -0.045428395 0.0362219 0.03321916 -0.10206331 0.07939463
0.074249774 -0.0075636823 -0.085037775 -0.1481035 -0.03954424 -0.13060755 0.009847704 -0.12822318
0.05110289 -0.12812285 0.08393331 -0.103163816 0.0488653 -0.015164757 0.032928858 -0.022601504
-0.09877188 -0.11917607 -0.12713404 0.08429343 -0.08737069 -0.055479188 0.12235084 0.13066387
-0.016732484 -0.044306204 0.030707628 0.07856152 -0.05918214 0.07434618 0.03299336 0.05199417
-0.042613607 -0.033669952 0.048607193 0.20361689 -0.0051182355 0.05956127 -0.015049912 0.13378164
0.087704726 -0.09387966 -0.11846537 -0.025541067 0.0351712 0.1650139 0.16677862 0.01333394
-0.14695495 0.08788067 -0.09505418 -0.08225959 -0.07648716 -0.07824776 0.06640016 0.054124855
-0.10690418 0.12367826 -0.10456791 -0.010830336 0.025630828 -0.15430853 0.059497874 -0.07238918
-0.12423691 0.06490609 -0.08132432 0.11032202 0.066831686 -0.034920838 0.052854422 -0.065539494
0.117079824 0.0016042376 0.09556084 -0.07710881 0.0098299775 -0.15854596 -0.011139866 -0.06412277
0.08313444 0.06642363 -0.0045452057 0.14424777 0.037530277 0.110164195 0.008318954 0.065157056
0.11623183 -0.02100077 -0.11133737 0.040910512 -0.17464189 -0.14518599 -0.09674681 -0.1496778
-0.10588752 -0.09004487 0.11731177 0.14122272 0.004506788 -0.027132882 0.019385822 0.1308552
-0.050270516 -0.095731445 0.008898913 -0.025962625 -0.06322131 0.01762471 -0.06434311 0.05108625
-0.14847033 -0.015342435 -0.10351564 -0.20315066 -0.17988983 -0.033844676 -0.07716505 0.01887967
-0.050718974 0.09418885 0.07134358 0.027029008 0.032947544 0.107718654 0.013485766 -0.10348705
-0.11708116 -0.045387913 -0.080286704 -0.11526134 0.022106731 -0.10225374 -0.024086682 -0.18472084
0.035692412 -0.027807143 0.0877111 -0.092609204 0.015706344 -0.103135675 0.108577095 -0.0056358306
-0.018363828 -0.05893871 -0.1202858 0.032830965 -0.040750485 0.04607309 0.014864837 -0.15446818
0.0924726 -0.10001921 -0.12367608 -0.17615305 0.11458631 0.11083947 0.050105892 0.05354357

lstm.bias_hh_l0 f4 [256]
00000000: e815 d43c 5707 003e d3b6 733d 3b4a 443e
00000010: 3407 28bd 6b18 8ebd 5537 e2bd b317 8abd
00000020: 5ebb 40be 0a13 55bd abbe c1bb 103d 97bd
00000030: bb44 113d f115 be3d 1a3a d13c 0463 33be
00000040: f94a 04be ef98 423e d912 af3d fa32 45be
00000050: 0321 11be a79e 883b 7db9 d2bd d830 ebbd
00000060: a644 9539 0932 483e fe2d 84be 7cfc 483d
00000070: bafd 90be f591 913d cdce e0bd c8ba 32be
00000080: 7a91 50be fba5 f6bd 4c1c c7bd 9eef 17be
00000090: cba7 a33d 7cfa 11be 1172 583d 870f 97bd
000000a0: 8364 fe3d 5aa3 40be 74b9 9fbb 63c6 02be
000000b0: 9996 923b 4c0b 2b3e f427 b2bd dd9b e9bd
000000c0: 0ba6 223d 3c86 a2bd 573f b93c 350f bfbc
000000d0: 06e5 b0bd bf8c 3fbe 01bd fcbd 0503 3dbe
000000e0: 5bdf bbbd e3c8 95bd 1228 0cbe 857e 81bd
000000f0: 38ed d63d e9de 043d d20b 5abe 592f 5d3d
00000100: c616 a1bd 5e7c 063e 6b53 ef3d 8a97 a73d
00000110: a730 e7bc 44bf 4dbb 3271 32bd 2e5d 5a3e
00000120: 0bb4 493e 7ea4 b13d a601 7bbc a673 1f3e
00000130: 2e27 c23d 1fae b53c 2e69 663b 4aa2 09bd
00000140: 6984 a93d 3735 503e fc9a 943d af2e edbd
00000150: 465a 81bd 3631 6dbd 2309 ff3d c090 09bd
00000160: 4b80 4abd c00a 073e 022a 0e3e 4191 dabc
00000170: aa67 e93d 08ec 123e fcbd 06bd fbdb 253c
00000180: 919e 293d 2acc 8a3d 91bd c0bd c44c cbbd
00000190: 68e0 913d d247 f4bd 4cf0 20be 301d e6bc
000001a0: 4836 1a3d 3a5d 9fbd 530f 353d 7aeb 31be
000001b0: b950 98bd 64ee 91bd 6464 90bd 3e12 44bd
000001c0: f8ca 69bd 199d 4b3d 6ccc 9cbd b35a d73d
000001d0: 8402 98bd cbc7 97bd 1f89 293e c61e bcbd
000001e0: 4ed9 ecbc d79e ab3d b353 e6bc 0114 18be
000001f0: 4fb5 b8bd 2e98 7e3d 4fc6 fb3d 5a73 063e
00000200: 728c 13be 80be f7bd 445e c83d 2608 e9bc
00000210: b8a2 853d 2aae 90bc 7c26 c0bc 6720 c53d
00000220: 5585 a63d b325 f13d 5ecd 37bd d0b2 d6bd
00000230: aeba 803c f24f 2538 78c5 453e 3dc0 edba
00000240: 037b bd3d 2ee9 d73d e2c7 f43c 3781 a7bd
00000250: 43f9 953d 5f17 ce3d df71 aabb d67a febd
00000260: 9c9e cbbd 7344 303e b82c 04bd d63b 9cbd
00000270: d659 b9bc f8c7 483d 77b6 243d 7577 6bbd
00000280: 6128 23bd bcc8 0f3e ea59 693d 6fe3 99bd
00000290: e5b4 e03d d61f c7bd 9ac6 bd3c f2c2 473d
000002a0: 4c2a 113e 8990 8abd 3313 2f3d bd8c 8c3d
000002b0: 0d84 b33d 7404 613d 0232 203e 0a93 583d
000002c0: 4a90 c7bd 11c6 ea3d 6a90 18bd 97ee 543d
000002d0: b0e8 033e 9cbf 413d 2e11 0d3d 211a 753d
000002e0: a65b 9d3d 891a d23d 1298 57bd 13f8 99bd
000002f0: 4793 29bd 5d0e 2bbe e116 033d 5520 e9bd
00000300: 86b2 92bd a4d6 f03d 037e aabc 519b 353d
00000310: 21c3 eebd 5df4 eabd ae52 2dbe 7c2e b33d
00000320: d737 a8bd 053c aebd 729b fe3d a89d 143e
00000330: a7ab 80bd b202 8ebd 7fd5 053d 9c5a cb3c
00000340: d02e 23bd bb70 11bc 77cc f9bd 3690 5fbe
00000350: 593e 43bd ca82 5cbe 9279 22be 6c49 293d
00000360: c3f4 98bd 4fdd 44bd 6599 11bd 3513 033e
00000370: a6ad a63d a902 adbd 1976 c2bd ce68 1cbe
00000380: c3d0 cbbd ffb6 0ebb ed21 6fbe 47c8 d5bd
00000390: 016a ec3c e3c5 9abd 4894 8f3d e07e 3dbc
000003a0: 524d 83ba b964 36be 805e afbb c669 75be
000003b0: f385 ae3d 1c75 8dbd 7b20 d93d 2ffc 0abd
000003c0: 497a 093c 6e72 f5bd 16f7 963c 83cd c5bd
000003d0: f130 ab3d c1b4 433d 950c 5bbc 3bd0 cbbd
000003e0: f24a 6fbd d68b 38bb 91bf 34be 4ee0 a43c
000003f0: 5291 92bd 06b1 ea3d aa07 3abe e5fd 7e3d
0.025889352 0.125028 0.059500527 0.19168942 -0.041022494 -0.06938251 -0.1104571 -0.067428015
-0.18821475 -0.05202011 -0.005912622 -0.073846936 0.035465937 0.09281529 0.0255404 -0.1751824
-0.12919225 0.19003652 0.08548517 -0.19257727 -0.14172749 0.0041693035 -0.10289285 -0.114839256
0.00028470642 0.19550337 -0.2581634 0.049068913 -0.28318578 0.07107917 -0.10976944 -0.17454064
-0.20367995 -0.12043377 -0.09722194 -0.148375 0.07990988 -0.14255708 0.052843157 -0.073760085
0.12421515 -0.18812314 -0.0048744027 -0.12770991 0.004473519 0.16703528 -0.08699027 -0.11406682
0.039709132 -0.079357594 0.02261321 -0.023322681 -0.08637433 -0.18706034 -0.12340737 -0.18458183
-0.09173461 -0.07313707 -0.1368716 -0.0632296 0.10494465 0.032439146 -0.21293572 0.054000232
-0.07865672 0.1313338 0.116858326 0.08183201 -0.028221441 -0.003139452 -0.043564983 0.21324608
0.19697587 0.086739525 -0.015320217 0.1557146 0.09480129 0.022177754 0.0035157907 -0.033602037
0.08277208 0.203328 0.072561234 -0.1158117 -0.063160464 -0.05790826 0.124529146 -0.03358531
-0.049438756 0.13187695 0.13883212 -0.02668059 0.113967255 0.14347851 -0.032896027 0.010123248
0.041410986 0.067772225 -0.09411157 -0.09926751 0.0712288 -0.11927761 -0.15716666 -0.02809009
0.037649423 -0.077814534 0.044204067 -0.17374983 -0.074372716 -0.071255475 -0.07050398 -0.04786896
-0.05707833 0.049710367 -0.07656178 0.105153464 -0.07422355 -0.07411154 0.16556214 -0.09185557
-0.028912213 0.08379906 -0.028116083 -0.14851381 -0.09018957 0.06215685 0.12293684 0.1312994
-0.14409044 -0.12096882 0.09783605 -0.028446268 0.06525177 -0.017661173 -0.02345585 0.09625321
0.081309 0.11774769 -0.044873588 -0.104833245 0.015714016 3.941352e-05 0.1931361 -0.0018138957
0.09251978 0.10542522 0.029880468 -0.08178943 0.073229335 0.100630514 -0.005201563 -0.12425773
-0.09942362 0.17213611 -0.03226921 -0.076286 -0.022625845 0.04901883 0.040213075 -0.05748697
-0.03983343 0.14041418 0.056970514 -0.07514083 0.10972003 -0.09722869 0.02316599 0.0487699
0.14176291 -0.06765849 0.04274292 0.06862781 0.08765421 0.054935887 0.15644076 0.052874602
-0.09744318 0.114635594 -0.0372471 0.05198535 0.12881732 0.047301874 0.034440212 0.05983937
0.07683496 0.102589674 -0.05263526 -0.075180195 -0.04140022 -0.16704698 0.03200424 -0.1138312
-0.07162957 0.117596895 -0.02081204 0.044337574 -0.11658312 -0.1147239 -0.16926071 0.087491006
-0.082137756 -0.085075416 0.124319926 0.14513266 -0.0628274 -0.06934108 0.03267431 0.02482348
-0.039839566 -0.008876975 -0.12197202 -0.21832356 -0.04766688 -0.21534267 -0.15866688 0.041329786
-0.074685596 -0.04806262 -0.03554668 0.12800296 0.081385896 -0.08447773 -0.094951816 -0.15274355
-0.099519275 -0.0021776555 -0.23352785 -0.104385905 0.02885914 -0.07557275 0.07010704 -0.011565894
-0.001001755 -0.1781186 -0.0053518414 -0.2396613 0.085216425 -0.069071025 0.10601898 -0.033931907
0.008390971 -0.11984716 0.018428367 -0.09658339 0.08358944 0.047779802 -0.013369699 -0.09951826
-0.058421083 -0.002815952 -0.17651202 0.020126488 -0.07156624 0.11459546 -0.18166986 0.06225385
